Models/Z_10GeV_200_NT.pth (torch, 197402 bytes, 36 tensors)

sequential.0.Gamma.weight f4 [80, 4]
0	0xbee34f38	-0.44396377
1	0xbe1e1078	-0.1543597
2	0x3f8f6a77	1.1204365
3	0xbf0e2a6a	-0.5553347
4	0x3ecfa945	0.4055883
5	0xbeed4b9e	-0.46346754
6	0xbd849a46	-0.06474738
7	0x3fa09081	1.2544099
8	0xbf024c81	-0.50897986
9	0x3f6dca33	0.92886657
10	0xbefd6fcf	-0.49499366
11	0x3f06a4a2	0.5259496
12	0x3f33559d	0.7005251
13	0x3f084479	0.5322948
14	0x3e6c89b2	0.23099402
15	0x3f3760c1	0.7163201
16	0xbedb650e	-0.42850536
17	0xbed8c199	-0.42335203
18	0x3ed2daf9	0.41182688
19	0x3e9625ba	0.29325658
20	0x3c82fc18	0.015989348
21	0xbf857f92	-1.0429556
22	0xbfa3201d	-1.2744175
23	0x3ef1b5df	0.4720907
24	0xbb0285ba	-0.0019916133
25	0x3eacd3f3	0.33755454
26	0x3d983ac7	0.07433086
27	0xbfe0aae9	-1.7552158
28	0xbec15e7f	-0.37767407
29	0x3f362650	0.7115221
30	0xbcf2c076	-0.029632788
31	0x3fcd76d5	1.605189
32	0xbe215ac8	-0.15757287
33	0x3f2a6cf4	0.665725
34	0xbfb5f6db	-1.4215959
35	0xbeb68e2e	-0.3565535
36	0x403ceae9	2.9518378
37	0x3f3fef43	0.7497446
38	0xbeca5726	-0.39519614
39	0x3ee9b8c5	0.4564878
40	0x3e66e2b3	0.22547416
41	0xbd9fd3e1	-0.078040846
42	0x3f389a15	0.7211011
43	0xbe296063	-0.16540675
44	0xbf8bbd78	-1.0917196
45	0x3fb3a7dc	1.4035602
46	0x3dcd4c9e	0.10024379
47	0x3f0e42e2	0.55570805
48	0x3f842bf3	1.0325912
49	0x3dcc7893	0.09983935
50	0x3ec137ea	0.37737972
51	0x3fb184e2	1.3868678
52	0xbf7a9715	-0.9788678
53	0x3f040819	0.51574856
54	0xbf02a743	-0.5103647
55	0x3f243e82	0.6415788
56	0x3e86c6ac	0.2632345
57	0x3f940a28	1.15656
58	0xbf039dfa	-0.5141293
59	0x3eaf26eb	0.3420938
60	0xbf8b78a5	-1.0896193
61	0x3c678840	0.014131606
62	0x3f4620d5	0.7739385
63	0x3e354d27	0.17705213
64	0x3f87de1c	1.0614657
65	0x3f4a9af3	0.79142684
66	0x3e56dbe2	0.20982316
67	0xc0001b17	-2.0016534
68	0x3e3fb9cf	0.18723224
69	0xbf1f3d81	-0.6220322
70	0xbf192c78	-0.5983348
71	0x3f0f07f0	0.55871487
72	0xbf15aedc	-0.5846994
73	0x3ed3751f	0.41300294
74	0xbd55b317	-0.052172747
75	0xbdcb5077	-0.09927457
76	0x3fb53d37	1.4159306
77	0xbff93b9f	-1.947132
78	0x3f2102ca	0.6289488
79	0x3e3bba5d	0.1833281
80	0x3d30094f	0.042977627
81	0x3c901415	0.0175877
82	0x3f99cd6e	1.2015817
83	0xbf80d438	-1.0064764
84	0xbf2215aa	-0.63314307
85	0x3f1b9f0c	0.6078956
86	0xc00aaf25	-2.16694
87	0x3f849a4a	1.0359585
88	0xbea761b2	-0.32691723
89	0xbf546904	-0.8297274
90	0xbe8add9d	-0.27122203
91	0x3d7f5088	0.06233266
92	0x3f2b37eb	0.668822
93	0xbf785196	-0.9699949
94	0xbf960a1e	-1.1721838
95	0x3ef56f46	0.47936457
96	0xbdb14ac0	-0.086568356
97	0xbf46fa10	-0.77725315
98	0x3ecb2e3e	0.39683717
99	0x3f46dd79	0.7768169
100	0xbf48f075	-0.7849191
101	0xbe5d7528	-0.21626723
102	0x3f3fe4e2	0.7495862
103	0xbf076d34	-0.52901006
104	0x3e13c61f	0.14431046
105	0x3f93e8db	1.1555437
106	0x3fc2a2c2	1.520592
107	0xc0094449	-2.1447928
108	0xbe190b8f	-0.14945816
109	0x3e278180	0.16357994
110	0x3e6f31c8	0.23358834
111	0x3d496d66	0.049176596
112	0xbedc6c4b	-0.4305137
113	0x3e98e4f5	0.2986218
114	0x4021840a	2.523684
115	0x3f39f48e	0.72638786
116	0x3e579c49	0.21055712
117	0x3f6bc66a	0.9209963
118	0xbd60d98a	-0.05489496
119	0xbefd9c70	-0.49533415
120	0x3e072df1	0.13201119
121	0x3e0e7733	0.13912658
122	0xbfa03180	-1.2515106
123	0x3fa546b1	1.2912198
124	0x3f394fa7	0.72387165
125	0xbec0fc48	-0.37692475
126	0xbee8da15	-0.45478883
127	0xbe8bf1a2	-0.2733279
128	0xbf2987e6	-0.6622299
129	0x3f8cef35	1.10105
130	0x3d7ad5aa	0.061238922
131	0x3f1c0f30	0.60960674
132	0x3ed6a768	0.41924596
133	0xbf07cb7e	-0.5304488
134	0xbfae037e	-1.3594816
135	0x3fa9b951	1.3259679
136	0xbf6939f8	-0.9110408
137	0x3f3e9d0e	0.74458396
138	0x3dfa3397	0.12216871
139	0xbdcecec0	-0.10098028
140	0xbf3f9e2c	-0.74850726
141	0x3e0a055c	0.13478607
142	0x3f07051c	0.5274217
143	0xbe2ed358	-0.17072809
144	0x3eb4e90e	0.35334057
145	0xbf01b9fe	-0.50674427
146	0xbf6a08f7	-0.9141993
147	0x3e87c816	0.2651984
148	0x3eb9d23f	0.36293218
149	0x3fa2f087	1.2729653
150	0x3de073bd	0.10959575
151	0xbfe22fe7	-1.7670869
152	0x3fcdfa37	1.6091985
153	0xbe9960ae	-0.29956573
154	0xbe9670b2	-0.29382855
155	0xbf5dc74d	-0.86632234
156	0x3fadf3d4	1.3590035
157	0x3f8bd79e	1.0925176
158	0xbe39f3d6	-0.18159422
159	0xc017156b	-2.3606822
160	0x3fa10556	1.2579753
161	0x3f041f39	0.5161014
162	0x3f95aa04	1.169251
163	0x3f0f0716	0.5587019
164	0x3f0170b0	0.5056257
165	0x40012df6	2.0184302
166	0xbf1fff64	-0.6249907
167	0x3c559229	0.013035336
168	0x3ea81451	0.32828
169	0x3fc5781f	1.5427283
170	0xbf934416	-1.1505153
171	0xbdc2ba83	-0.095082305
172	0x3fbe649c	1.4874454
173	0x3ed14524	0.40873063
174	0x3f00ec3e	0.50360477
175	0xbf375981	-0.7162095
176	0x3e9d0e72	0.30675083
177	0x3e77df8e	0.24206373
178	0xbf51ad1d	-0.81904775
179	0x3f907ad6	1.1287487
180	0xbeb2c726	-0.34917563
181	0x3f867305	1.0503851
182	0xbf006d33	-0.50166625
183	0x3c7bef7d	0.015376923
184	0x3e7bb2e9	0.24579968
185	0x3f6fd8e9	0.93690354
186	0x3e819f20	0.25316715
187	0xbf368eba	-0.71311533
188	0x3ecce381	0.40017322
189	0x3f99bb8f	1.2010363
190	0x3ea70ac4	0.326254
191	0xbf2fdb1c	-0.6869371
192	0x3d3274d7	0.04356846
193	0x3f130da2	0.5744268
194	0xbc9c8f82	-0.019111399
195	0xbee85190	-0.45374727
196	0x3f117065	0.56812125
197	0xbfc74dc7	-1.5570611
198	0xbda77141	-0.08175898
199	0x3f539ab8	0.8265796
200	0xbeebf66b	-0.4608644
201	0xbd2fa9ef	-0.04288667
202	0xbf413e0e	-0.7548531
203	0x3ed83e96	0.4223525
204	0x3f10056e	0.56258285
205	0xbdfe4b86	-0.12416749
206	0x3d589e03	0.052885067
207	0xbef22c78	-0.47299552
208	0x3f12abf4	0.5729363
209	0xbd183282	-0.037157543
210	0xc00f746f	-2.2414815
211	0x3fa7c022	1.3105509
212	0x3d1fe990	0.039041102
213	0xbeff1f1c	-0.49828422
214	0x3ea4d772	0.32195622
215	0x3e79527b	0.2434787
216	0x3ef2c0a1	0.4741259
217	0x3e8e1fcc	0.27758634
218	0x3edc57e2	0.430358
219	0x3fefa160	1.8721123
220	0x3e71d65c	0.23616928
221	0xbf67eec0	-0.9059868
222	0x3f8c782e	1.0974176
223	0xc0439caf	-3.0564382
224	0xbeceb3f0	-0.40371656
225	0x3f3ce514	0.73787045
226	0x3da18b81	0.078879364
227	0xbf405393	-0.75127524
228	0x3fd621a3	1.6729015
229	0x3f82c86a	1.0217412
230	0x3e4d630e	0.20057318
231	0xbe887ef3	-0.26659355
232	0x3f261941	0.64882284
233	0xbf392365	-0.7231963
234	0x3f12dc86	0.5736774
235	0xbedbb3c7	-0.42910597
236	0xbf0e89f2	-0.5567924
237	0x3ed432aa	0.41444904
238	0x3f0fbb4b	0.5614516
239	0x3f754e0b	0.9582221
240	0x3f39dd0e	0.7260293
241	0xbe81b4d3	-0.2533327
242	0xbf4324a2	-0.7622777
243	0x3f43e683	0.7652361
244	0x3f32a830	0.69787884
245	0x3fb91202	1.445862
246	0x3f1f0e60	0.6213131
247	0x3e99151e	0.29898924
248	0xbee7ffc4	-0.4531232
249	0xbeee5e44	-0.46556294
250	0xbf16be51	-0.5888415
251	0x3fd2585b	1.6433214
252	0x3f04d04f	0.51880354
253	0x3fea7a92	1.8318655
254	0x3e1707b2	0.1474903
255	0x3e869f85	0.2629358

sequential.0.Gamma.bias f4 [80]
0	0xbec6328d	-0.38710442
1	0xbd4861c8	-0.048921376
2	0x3e08a084	0.13342482
3	0x3cd14422	0.025545184
4	0xbee3ab63	-0.44466695
5	0xbedc1a8b	-0.42989
6	0xbe06aeb1	-0.13152577
7	0xbd95e96b	-0.073199116
8	0xbe85ac8b	-0.26108202
9	0x3da56b62	0.08077122
10	0xbef4f0dd	-0.47840014
11	0x3d895dda	0.06707354
12	0x3dea630d	0.11444674
13	0xbef5c678	-0.48002982
14	0x3e3cc5d2	0.18434837
15	0xbf15dd84	-0.5854113
16	0x3d94d0b3	0.07266369
17	0xbf513320	-0.81718636
18	0xbe76c299	-0.2409767
19	0x3e336185	0.1751767
20	0xbd398091	-0.045288626
21	0xbeba70d1	-0.36414197
22	0xbf2ae5da	-0.66756976
23	0xbf2c4199	-0.67287594
24	0x3e5c0700	0.21487045
25	0xbf27c1fc	-0.6553037
26	0x3e20246c	0.15638894
27	0xbdf8b7bd	-0.1214442
28	0xbe30f5ee	-0.17281315
29	0xbea8b714	-0.32952178
30	0xbf240a0a	-0.6407782
31	0xbf0e2d2c	-0.55537677
32	0x3deb9d85	0.11504654
33	0xbcc7ba18	-0.024380729
34	0xbf41dfa4	-0.75731874
35	0x3ed46d96	0.41489857
36	0xbf5f747c	-0.87287116
37	0xbe3e2f69	-0.18572773
38	0xbb9d90bc	-0.0048085134
39	0xbe31574d	-0.17318459
40	0x3f561e3b	0.8363988
41	0xbe8ee48c	-0.27908742
42	0xbe0a3c8d	-0.13499661
43	0x3e4ff3de	0.20307872
44	0xbee11a62	-0.4396544
45	0xbf5480ae	-0.8300885
46	0xbec45bd9	-0.38351324
47	0xbdcc150b	-0.09964951
48	0x3e840352	0.25783783
49	0xbd6be7f3	-0.05759425
50	0xbf0ea264	-0.5571654
51	0x3d0a2f6b	0.033736628
52	0xbe14962b	-0.1451041
53	0xbe991f13	-0.2990652
54	0x3ee023c3	0.43777284
55	0x3f03dfa1	0.51513106
56	0xbe5fc9dc	-0.21854347
57	0xbdea3269	-0.11435396
58	0xbef56828	-0.47931027
59	0xbec4440c	-0.38333166
60	0xbdf29ef1	-0.11846722
61	0x3ede1bdc	0.4338063
62	0x3ca0ea88	0.019643083
63	0x3ea33dd2	0.31883103
64	0xbf0e50a7	-0.55591816
65	0x3d4ae058	0.049530357
66	0xbe61d5fd	-0.22054286
67	0x3de4dce2	0.111749426
68	0xbec76253	-0.38942203
69	0x3f1896bb	0.59604996
70	0x3e18da3c	0.14927
71	0xbef32cc8	-0.47495103
72	0x3e94a748	0.29033875
73	0xbea4d862	-0.32196337
74	0x3f2ae43e	0.6675452
75	0xbed62e6c	-0.41832292
76	0xbde4d4f9	-0.11173434
77	0x3dfb5468	0.122719586
78	0xbe38698c	-0.18009013
79	0x3ee817fc	0.453308

sequential.0.Lambda.weight f4 [80, 4]
0	0x3eb7681c	0.35821617
1	0x3dbfb91b	0.09361478
2	0xbee384f5	-0.44437376
3	0x3f265979	0.64980274
4	0xbec86a5b	-0.39143643
5	0x3ed9a396	0.4250762
6	0x3f86f65a	1.054393
7	0xbf8282ef	-1.0196208
8	0xbf22b021	-0.6355
9	0xbefe860b	-0.49711642
10	0x3fbfe54f	1.4991854
11	0xbeea47c3	-0.45757875
12	0x3e62e6c0	0.22158337
13	0xbeda7b10	-0.42672014
14	0xbf15f76d	-0.58580667
15	0x3f109a0d	0.5648506
16	0xbd47d749	-0.048789296
17	0x3e31134a	0.17292514
18	0x3fa77397	1.308215
19	0xbf0e7293	-0.55643576
20	0x3e326fff	0.17425536
21	0xbeef536c	-0.46743333
22	0x3f1900d7	0.59766906
23	0xbebbae8c	-0.36656606
24	0x3ba3a783	0.004994334
25	0x3f15cdf3	0.5851738
26	0xbe833909	-0.25629452
27	0x3f162dde	0.5866374
28	0xbdcce1d8	-0.10004014
29	0x3f6473d6	0.8923925
30	0xbea61a50	-0.3244195
31	0x3f867e4b	1.0507292
32	0xbecc92b6	-0.39955682
33	0xbe5090ff	-0.20367812
34	0x3f58129b	0.8440339
35	0xbd3649c6	-0.04450395
36	0xbf80d454	-1.0064797
37	0x3f5702fa	0.83988917
38	0x3db628a6	0.08894472
39	0xbeaef0ed	-0.34168187
40	0x3f02fbbb	0.5116536
41	0x3da1f8ab	0.07908758
42	0xbea3d3cd	-0.3199753
43	0x3e582bc1	0.21110441
44	0xbe810cff	-0.25205228
45	0x3f33f769	0.7029939
46	0xbf15923b	-0.58426255
47	0xbf0a981c	-0.5413835
48	0xbed77765	-0.42083278
49	0x3f45eb4b	0.77312154
50	0xbf2a16c2	-0.66440976
51	0x3e5aa363	0.2135139
52	0x3f5f547b	0.8723828
53	0x3e971474	0.29507792
54	0xbe0b8da8	-0.13628256
55	0xbf244763	-0.6417143
56	0xbd8849bc	-0.06654689
57	0xbebf7b87	-0.3739893
58	0x3f235cb3	0.6381332
59	0xbe835c45	-0.25656334
60	0xbfbe1606	-1.4850471
61	0x3f0cb6c2	0.54966366
62	0x3f1ad9e0	0.604887
63	0x3e99aa1c	0.30012596
64	0x3ed7ff6a	0.42187053
65	0xbf7e558e	-0.99349296
66	0xbedb3798	-0.42815852
67	0x3f92d026	1.1469772
68	0xbf34f01d	-0.70678884
69	0xbf0de97b	-0.5543439
70	0xbdf1ed83	-0.1181288
71	0x3f97fd2a	1.1874135
72	0xbe9b5909	-0.30341366
73	0x3f1fd77f	0.62438196
74	0xbdb29e68	-0.0872162
75	0x3e539927	0.20663892
76	0x3f6896bb	0.90854996
77	0xbd43ef4d	-0.047835637
78	0xbfbb2733	-1.4621338
79	0x3ee41f5a	0.4455517
80	0xbef01d95	-0.4689757
81	0x3fd683db	1.6758989
82	0xbd605077	-0.054764237
83	0xbfab592f	-1.3386592
84	0x3f0578ad	0.5213726
85	0xbf210ce6	-0.62910306
86	0xbf181705	-0.59410125
87	0x3f712bd2	0.9420749
88	0x3f3e5e14	0.743623
89	0xbe5175ab	-0.20455043
90	0xbf94e382	-1.163193
91	0x3ec70a1e	0.38874906
92	0xbeee50f6	-0.46546143
93	0x3ef8f589	0.48624828
94	0x3f999271	1.1997815
95	0xbdefd559	-0.11710615
96	0xbfa1722b	-1.2612966
97	0xbe817c84	-0.2529031
98	0x3f9d45d5	1.2286936
99	0x3e5a869a	0.21340409
100	0x3f4a658b	0.7906119
101	0xbf21af1d	-0.63157827
102	0xbf9b8c95	-1.2152277
103	0x3fdffd3d	1.7499157
104	0x3eee4803	0.46539316
105	0xbe8cd083	-0.27502832
106	0xbeeeb258	-0.4662044
107	0x3d89b59a	0.06724091
108	0xbe97d910	-0.29657793
109	0xbe1114e4	-0.14168125
110	0xbfcbe24a	-1.5928433
111	0x40018909	2.023989
112	0xbf156774	-0.5836098
113	0x3d294966	0.041329764
114	0xbd9f0399	-0.07764358
115	0x3df961d0	0.121768594
116	0x3f37ae71	0.7175055
117	0x3d84afbc	0.06478831
118	0xbf5fada3	-0.87374324
119	0x3ead25f6	0.33818024
120	0x3d6436d5	0.055716354
121	0x3da5eb2a	0.081014946
122	0x3f1627aa	0.5865427
123	0xbf07048f	-0.5274133
124	0x3e947e99	0.29002836
125	0x3eebe725	0.46074787
126	0xbebb1695	-0.36540666
127	0x3d9d7ddc	0.076900214
128	0x3f398458	0.72467566
129	0xbecc1e35	-0.39866796
130	0x3e4fab9b	0.20280306
131	0xbf0ad320	-0.542284
132	0x3ebd692f	0.3699431
133	0xbf91166a	-1.1334965
134	0x3d14fd2a	0.03637425
135	0x3f6d7340	0.9275398
136	0x3ed40905	0.4141313
137	0x3f1068e9	0.5641008
138	0xbf7068fd	-0.939102
139	0xbe6f4f7c	-0.23370165
140	0xbf6af950	-0.9178667
141	0x3fcdbc8f	1.6073169
142	0xbf353d5b	-0.70796746
143	0x3d97cdb6	0.07412283
144	0xbfaf1b50	-1.368021
145	0x3f328d9d	0.69747335
146	0x3f84c010	1.0371113
147	0x3f1e7fd8	0.61913824
148	0x3d98ce6c	0.07461247
149	0x3eb783db	0.35842785
150	0xbcb4be78	-0.022063479
151	0xbee1b2f1	-0.44081834
152	0x3f347fa9	0.70507294
153	0x3e3ec5ee	0.18630192
154	0xbf8aba27	-1.0838059
155	0x3e1e2147	0.15442382
156	0xbe1af9ef	-0.15134405
157	0x3e79ba07	0.2438737
158	0x3e92d786	0.28680056
159	0xbe8cea56	-0.27522534
160	0xbf8c04f8	-1.0939016
161	0xbec5e89e	-0.38654035
162	0x3fee9456	1.8639019
163	0xbf09e4ee	-0.53864944
164	0x3e29e661	0.16591789
165	0xbf380a31	-0.7189055
166	0x3f1e6be0	0.61883354
167	0xbcf3a373	-0.029741025
168	0xbf4883fc	-0.7832639
169	0x3e17336a	0.14765707
170	0x3f07f4f9	0.53108174
171	0x3d82c2c4	0.06384805
172	0xbf393edd	-0.72361547
173	0xbe95c427	-0.29251215
174	0x3ded82a3	0.115971826
175	0x3f3e7273	0.74393386
176	0xbf39c807	-0.7257084
177	0xbf4527a7	-0.7701363
178	0x3d09053f	0.03345227
179	0x3f138bb9	0.57635075
180	0xbee459b6	-0.44599694
181	0x3d7c9132	0.061661907
182	0xbf36dc58	-0.7142997
183	0x3f470556	0.77742517
184	0xbefed842	-0.49774367
185	0x3f063541	0.5242501
186	0xbf5ca0cd	-0.8618286
187	0x3e9c2300	0.30495453
188	0x3f5f4ab8	0.87223387
189	0xbf690204	-0.910187
190	0xbea9d91a	-0.33173448
191	0x3e6d14eb	0.23152511
192	0xbf192971	-0.5982886
193	0xbe5b1b4f	-0.21397136
194	0x3f4a302a	0.7897974
195	0xbcef0551	-0.02917734
196	0x3fab61a1	1.3389169
197	0xbea96297	-0.3308303
198	0xbeaaa09e	-0.33325666
199	0xbe81c15b	-0.2534283
200	0xbf05767f	-0.52133936
201	0x3ee130fd	0.43982688
202	0x3e718337	0.2358521
203	0x3f434550	0.7627764
204	0x3e22be05	0.15892799
205	0x3f59ac99	0.8502899
206	0xbf8820ec	-1.0635047
207	0x3e653eb7	0.22387205
208	0x3edc8ef0	0.43077803
209	0x3d0607f8	0.032722443
210	0xbf80f5fb	-1.0075067
211	0x3f0a0e64	0.5392821
212	0x3f0f81ed	0.56057626
213	0xbf62996a	-0.8851534
214	0x3f72f746	0.9490856
215	0xbefdc32f	-0.49562976
216	0x3e4e9a1d	0.20175977
217	0x3f120615	0.5704053
218	0xbed06a26	-0.40705985
219	0xbd87381d	-0.066025
220	0xbdb6826b	-0.08911594
221	0xbea103b6	-0.31448144
222	0x3e8894cb	0.2667602
223	0x3f4084be	0.7520255
224	0x3f7d7d6f	0.9901952
225	0x3e7b3e60	0.24535513
226	0xbd68aac9	-0.0568035
227	0xbf8eb312	-1.1148398
228	0xbd49d797	-0.049277868
229	0xbdc2689b	-0.09492608
230	0xbe682fda	-0.22674504
231	0x3ec20b7b	0.37899384
232	0xbe9b0f37	-0.30285046
233	0x3f6d8b0b	0.9279029
234	0x3d1e8566	0.038701437
235	0xbdeff1de	-0.117160544
236	0xbf145c1e	-0.5795306
237	0xbeb51952	-0.3537088
238	0x3fb56dfc	1.417419
239	0xbf99a5c0	-1.2003708
240	0x3ea6214b	0.32447276
241	0x3cb5ee9a	0.0222085
242	0x3ed84235	0.42238012
243	0xbfc8600c	-1.5654311
244	0xbf25b933	-0.64735717
245	0xbdfc8ba3	-0.12331321
246	0x3e1e528a	0.15461174
247	0x3f331e4d	0.6996811
248	0x3f11b7f1	0.569213
249	0x3e7d77ce	0.24752733
250	0xbf07e2b4	-0.53080297
251	0xbe8ebf8f	-0.27880523
252	0xbe9ffda9	-0.31248215
253	0xbe4790e9	-0.19488873
254	0x3f33bf31	0.7021361
255	0xbe738afd	-0.23783489

sequential.0.Lambda.bias f4 [80]
0	0xbec6328d	-0.38710442
1	0xbd4861c8	-0.048921376
2	0x3e08a084	0.13342482
3	0x3cd14422	0.025545184
4	0xbee3ab63	-0.44466695
5	0xbedc1a8b	-0.42989
6	0xbe06aeb1	-0.13152577
7	0xbd95e96b	-0.073199116
8	0xbe85ac8b	-0.26108202
9	0x3da56b62	0.08077122
10	0xbef4f0dd	-0.47840014
11	0x3d895dda	0.06707354
12	0x3dea630d	0.11444674
13	0xbef5c678	-0.48002982
14	0x3e3cc5d2	0.18434837
15	0xbf15dd84	-0.5854113
16	0x3d94d0b3	0.07266369
17	0xbf513320	-0.81718636
18	0xbe76c299	-0.2409767
19	0x3e336185	0.1751767
20	0xbd398091	-0.045288626
21	0xbeba70d1	-0.36414197
22	0xbf2ae5da	-0.66756976
23	0xbf2c4199	-0.67287594
24	0x3e5c0700	0.21487045
25	0xbf27c1fc	-0.6553037
26	0x3e20246c	0.15638894
27	0xbdf8b7bd	-0.1214442
28	0xbe30f5ee	-0.17281315
29	0xbea8b714	-0.32952178
30	0xbf240a0a	-0.6407782
31	0xbf0e2d2c	-0.55537677
32	0x3deb9d85	0.11504654
33	0xbcc7ba18	-0.024380729
34	0xbf41dfa4	-0.75731874
35	0x3ed46d96	0.41489857
36	0xbf5f747c	-0.87287116
37	0xbe3e2f69	-0.18572773
38	0xbb9d90bc	-0.0048085134
39	0xbe31574d	-0.17318459
40	0x3f561e3b	0.8363988
41	0xbe8ee48c	-0.27908742
42	0xbe0a3c8d	-0.13499661
43	0x3e4ff3de	0.20307872
44	0xbee11a62	-0.4396544
45	0xbf5480ae	-0.8300885
46	0xbec45bd9	-0.38351324
47	0xbdcc150b	-0.09964951
48	0x3e840352	0.25783783
49	0xbd6be7f3	-0.05759425
50	0xbf0ea264	-0.5571654
51	0x3d0a2f6b	0.033736628
52	0xbe14962b	-0.1451041
53	0xbe991f13	-0.2990652
54	0x3ee023c3	0.43777284
55	0x3f03dfa1	0.51513106
56	0xbe5fc9dc	-0.21854347
57	0xbdea3269	-0.11435396
58	0xbef56828	-0.47931027
59	0xbec4440c	-0.38333166
60	0xbdf29ef1	-0.11846722
61	0x3ede1bdc	0.4338063
62	0x3ca0ea88	0.019643083
63	0x3ea33dd2	0.31883103
64	0xbf0e50a7	-0.55591816
65	0x3d4ae058	0.049530357
66	0xbe61d5fd	-0.22054286
67	0x3de4dce2	0.111749426
68	0xbec76253	-0.38942203
69	0x3f1896bb	0.59604996
70	0x3e18da3c	0.14927
71	0xbef32cc8	-0.47495103
72	0x3e94a748	0.29033875
73	0xbea4d862	-0.32196337
74	0x3f2ae43e	0.6675452
75	0xbed62e6c	-0.41832292
76	0xbde4d4f9	-0.11173434
77	0x3dfb5468	0.122719586
78	0xbe38698c	-0.18009013
79	0x3ee817fc	0.453308

sequential.0.bn.running_mean f4 [80]
0	0x00000000	0.0
1	0x00000000	0.0
2	0x00000000	0.0
3	0x00000000	0.0
4	0x00000000	0.0
5	0x00000000	0.0
6	0x00000000	0.0
7	0x00000000	0.0
8	0x00000000	0.0
9	0x00000000	0.0
10	0x00000000	0.0
11	0x00000000	0.0
12	0x00000000	0.0
13	0x00000000	0.0
14	0x00000000	0.0
15	0x00000000	0.0
16	0x00000000	0.0
17	0x00000000	0.0
18	0x00000000	0.0
19	0x00000000	0.0
20	0x00000000	0.0
21	0x00000000	0.0
22	0x00000000	0.0
23	0x00000000	0.0
24	0x00000000	0.0
25	0x00000000	0.0
26	0x00000000	0.0
27	0x00000000	0.0
28	0x00000000	0.0
29	0x00000000	0.0
30	0x00000000	0.0
31	0x00000000	0.0
32	0x00000000	0.0
33	0x00000000	0.0
34	0x00000000	0.0
35	0x00000000	0.0
36	0x00000000	0.0
37	0x00000000	0.0
38	0x00000000	0.0
39	0x00000000	0.0
40	0x00000000	0.0
41	0x00000000	0.0
42	0x00000000	0.0
43	0x00000000	0.0
44	0x00000000	0.0
45	0x00000000	0.0
46	0x00000000	0.0
47	0x00000000	0.0
48	0x00000000	0.0
49	0x00000000	0.0
50	0x00000000	0.0
51	0x00000000	0.0
52	0x00000000	0.0
53	0x00000000	0.0
54	0x00000000	0.0
55	0x00000000	0.0
56	0x00000000	0.0
57	0x00000000	0.0
58	0x00000000	0.0
59	0x00000000	0.0
60	0x00000000	0.0
61	0x00000000	0.0
62	0x00000000	0.0
63	0x00000000	0.0
64	0x00000000	0.0
65	0x00000000	0.0
66	0x00000000	0.0
67	0x00000000	0.0
68	0x00000000	0.0
69	0x00000000	0.0
70	0x00000000	0.0
71	0x00000000	0.0
72	0x00000000	0.0
73	0x00000000	0.0
74	0x00000000	0.0
75	0x00000000	0.0
76	0x00000000	0.0
77	0x00000000	0.0
78	0x00000000	0.0
79	0x00000000	0.0

sequential.0.bn.running_var f4 [80]
0	0x3f800000	1.0
1	0x3f800000	1.0
2	0x3f800000	1.0
3	0x3f800000	1.0
4	0x3f800000	1.0
5	0x3f800000	1.0
6	0x3f800000	1.0
7	0x3f800000	1.0
8	0x3f800000	1.0
9	0x3f800000	1.0
10	0x3f800000	1.0
11	0x3f800000	1.0
12	0x3f800000	1.0
13	0x3f800000	1.0
14	0x3f800000	1.0
15	0x3f800000	1.0
16	0x3f800000	1.0
17	0x3f800000	1.0
18	0x3f800000	1.0
19	0x3f800000	1.0
20	0x3f800000	1.0
21	0x3f800000	1.0
22	0x3f800000	1.0
23	0x3f800000	1.0
24	0x3f800000	1.0
25	0x3f800000	1.0
26	0x3f800000	1.0
27	0x3f800000	1.0
28	0x3f800000	1.0
29	0x3f800000	1.0
30	0x3f800000	1.0
31	0x3f800000	1.0
32	0x3f800000	1.0
33	0x3f800000	1.0
34	0x3f800000	1.0
35	0x3f800000	1.0
36	0x3f800000	1.0
37	0x3f800000	1.0
38	0x3f800000	1.0
39	0x3f800000	1.0
40	0x3f800000	1.0
41	0x3f800000	1.0
42	0x3f800000	1.0
43	0x3f800000	1.0
44	0x3f800000	1.0
45	0x3f800000	1.0
46	0x3f800000	1.0
47	0x3f800000	1.0
48	0x3f800000	1.0
49	0x3f800000	1.0
50	0x3f800000	1.0
51	0x3f800000	1.0
52	0x3f800000	1.0
53	0x3f800000	1.0
54	0x3f800000	1.0
55	0x3f800000	1.0
56	0x3f800000	1.0
57	0x3f800000	1.0
58	0x3f800000	1.0
59	0x3f800000	1.0
60	0x3f800000	1.0
61	0x3f800000	1.0
62	0x3f800000	1.0
63	0x3f800000	1.0
64	0x3f800000	1.0
65	0x3f800000	1.0
66	0x3f800000	1.0
67	0x3f800000	1.0
68	0x3f800000	1.0
69	0x3f800000	1.0
70	0x3f800000	1.0
71	0x3f800000	1.0
72	0x3f800000	1.0
73	0x3f800000	1.0
74	0x3f800000	1.0
75	0x3f800000	1.0
76	0x3f800000	1.0
77	0x3f800000	1.0
78	0x3f800000	1.0
79	0x3f800000	1.0

sequential.2.Gamma.weight f4 [120, 80]
0	0x3ea1ae9b	0.31578526
1	0xbe159fec	-0.14611787
2	0x3e91144a	0.28335792
3	0xbe181ffa	-0.14855948
4	0x3e538e1a	0.20659676
5	0x3f2e258f	0.6802606
6	0x3dca6853	0.098831795
7	0xbf042cc8	-0.5163083
8	0xbf670d59	-0.9025474
9	0xbeed71a1	-0.46375754
10	0x3e612d8c	0.21990031
11	0x3d6c287c	0.057655796
12	0xbe3d6dbd	-0.18498893
13	0xbea55d81	-0.322979
14	0xbee0533b	-0.438135
15	0xbe296a64	-0.16544491
16	0xbda0e763	-0.078566335
17	0x3e91d7a6	0.2848484
18	0xbdcac2c9	-0.099004336
19	0x3ebd707d	0.36999884
20	0xbe79657b	-0.24355118
21	0xbf0b2e5f	-0.5436763
22	0xbebe06bf	-0.37114522
23	0xbe949c66	-0.29025573
24	0x3e728e1e	0.23687026
25	0x3b2af49d	0.0026085742
26	0x3f089b93	0.5336239
27	0x3dd965b2	0.106151
28	0x3e292653	0.16518526
29	0x3e99ed8c	0.30064046
30	0xbe7e2cce	-0.24821779
31	0x3e9f657d	0.31132117
32	0xbdfe1fb0	-0.12408388
33	0xbdb5b04d	-0.08871517
34	0xbe6d7a4f	-0.23191188
35	0x3ec1cf01	0.37853244
36	0x3dad40ee	0.0845965
37	0x3eeff83f	0.46869084
38	0x3db92946	0.090410754
39	0xbe40ccbd	-0.18828101
40	0xbcebd5fa	-0.028788555
41	0xbf1537e0	-0.58288383
42	0xbf0ecf0a	-0.55784667
43	0x3df5eb59	0.1200778
44	0xbe5d5304	-0.21613699
45	0xbf01052e	-0.5039853
46	0xbc41a7bd	-0.011819777
47	0xbe481cc2	-0.1954222
48	0xbe351351	-0.1768315
49	0xbd5bad14	-0.053631857
50	0xbe7afa14	-0.2450946
51	0x3ea894f2	0.32926136
52	0xbe732140	-0.23743153
53	0x3d9ad61b	0.075603686
54	0x3e225c96	0.15855631
55	0x3e546321	0.2074094
56	0x3e19d79b	0.15023653
57	0x3df94e24	0.12173107
58	0x3ea113b1	0.31460336
59	0xbe8dd7c5	-0.27703682
60	0xbe71b00f	-0.23602317
61	0x3e442357	0.19154106
62	0xbeee7744	-0.46575367
63	0xbf0b2c53	-0.5436451
64	0xbdcf7697	-0.10130041
65	0x3ee07b24	0.4384395
66	0x3cfed8f1	0.031109305
67	0x3de96752	0.1139666
68	0xbea873fa	-0.32900983
69	0x3e363dd4	0.17797023
70	0xbe8cdee7	-0.2751381
71	0xbf356697	-0.70859665
72	0x3da119c5	0.07866243
73	0xbea1a68b	-0.31572375
74	0x3d94f636	0.072735235
75	0x3d609de0	0.05483806
76	0x3e919382	0.28432852
77	0xbe7ea137	-0.24866186
78	0xbf082db9	-0.5319477
79	0x3dac0e05	0.084011115
80	0x3d302fb7	0.043014254
81	0x3de761ee	0.112979755
82	0xbe75e690	-0.24013734
83	0x3ee1747b	0.4403418
84	0xbe8b710d	-0.27234688
85	0xbdad2921	-0.0845511
86	0x3e51bd46	0.20482358
87	0x3cbc0eaf	0.02295622
88	0xbe321299	-0.17389907
89	0xbf13509e	-0.5754489
90	0xba0643a8	-0.0005121776
91	0xbda78e08	-0.08181387
92	0xbd261425	-0.040546555
93	0xbf49e646	-0.78866994
94	0xbd84ccde	-0.06484388
95	0xbe6cb4e5	-0.23115881
96	0xbcb7648b	-0.02238681
97	0xbed9625d	-0.42457858
98	0x3df077b3	0.11741581
99	0xbeb0aa20	-0.34504795
100	0x3e2d5761	0.16927864
101	0xbf0b0e10	-0.5431833
102	0xbe0152d6	-0.12629256
103	0xbd8f00d7	-0.06982582
104	0xbe07f0d7	-0.13275467
105	0x3e058d54	0.13042194
106	0x3e31ddfa	0.17369834
107	0xbd8b63e3	-0.06806161
108	0xbe0e73e5	-0.13911398
109	0xbe528c62	-0.20561364
110	0x3e40f611	0.18843867
111	0xbf01a966	-0.50649107
112	0xbdc92ef1	-0.098234065
113	0xbf267d07	-0.65034527
114	0xbcf6a1ef	-0.030106513
115	0xbc9dc0ec	-0.019257031
116	0xbc63e893	-0.0139104305
117	0x3d969840	0.07353258
118	0xbdfa1f7f	-0.12213039
119	0x3eb7aaff	0.35872647
120	0x3ddff887	0.10936075
121	0xbd990d92	-0.074732915
122	0xbea82eb3	-0.3284813
123	0xbd1e9a06	-0.038721107
124	0x3d24bdd9	0.040220115
125	0xbdee709d	-0.11642573
126	0x3b4ebdad	0.003154616
127	0x3e8b78d9	0.27240637
128	0x3c987eb0	0.018615097
129	0xbe9468b3	-0.2898613
130	0xbe88c694	-0.26714003
131	0xbe340e93	-0.17583685
132	0xbfdd8535	-1.7306277
133	0x3e8453a4	0.25845063
134	0xbeb66836	-0.35626382
135	0x3e29fdf6	0.16600785
136	0xbd8ea641	-0.06965304
137	0x3dad1846	0.084518954
138	0x3cf2ce2a	0.029639322
139	0xbc0ac824	-0.008470569
140	0x3e9f2f98	0.31091
141	0xbe9d7700	-0.30754852
142	0xbf583274	-0.84451985
143	0xbe05dbce	-0.1307213
144	0xbda6822b	-0.08130296
145	0x3eb6789f	0.35638902
146	0x3e0b7536	0.13618931
147	0xbe308d35	-0.17241366
148	0x3dcbb81f	0.09947228
149	0x3d926304	0.07147792
150	0xbf16cbdc	-0.58904815
151	0xbfcf91b7	-1.6216344
152	0xbedb27b4	-0.4280373
153	0xbe1ff1f6	-0.15619645
154	0xbf363dcb	-0.7118804
155	0x3c907249	0.01763262
156	0x3eb1fc98	0.34763026
157	0xbe591676	-0.21199974
158	0xbea5ac6b	-0.32358107
159	0xbf0542b1	-0.5205489
160	0xbfa1379c	-1.2595096
161	0x3df80a2c	0.12111315
162	0x3f362281	0.711464
163	0x3ce4bbca	0.027921576
164	0x3cc0263f	0.023455737
165	0xbbf365e5	-0.0074279183
166	0xbe1d05ee	-0.15334293
167	0xbdc92a91	-0.09822572
168	0xbb2a0cd9	-0.00259476
169	0x3e897a59	0.26851156
170	0xbf0ff6f6	-0.5623621
171	0x3e6877ad	0.22701903
172	0xbede4b0e	-0.43416637
173	0x3ec7d2b1	0.39027932
174	0x3e2d9d50	0.16954541
175	0xbdc305dc	-0.09522602
176	0xbe5868ce	-0.2113373
177	0x3f169b24	0.58830476
178	0xbcdb3547	-0.026758803
179	0x3d1b0279	0.037844155
180	0x3eabf02b	0.3358167
181	0xbe9f3dd1	-0.3110185
182	0xbc64bf85	-0.013961677
183	0x3eb92016	0.36157292
184	0x3ea9f753	0.33196506
185	0xbea76da2	-0.3270083
186	0xbebfff14	-0.37499297
187	0xbe8faf44	-0.28063405
188	0xbeeb957d	-0.46012488
189	0xbdae6c75	-0.0851678
190	0x3fae24d0	1.3604984
191	0x3d08b538	0.03337595
192	0x3d0c379f	0.034232732
193	0x3f46caa0	0.7765293
194	0x3f392135	0.72316295
195	0xbd6d08ac	-0.0578696
196	0x3d812f1e	0.06307815
197	0x3ea7c377	0.32766315
198	0x3ea95646	0.33073634
199	0xbd0cbbce	-0.034358792
200	0xbc8b679d	-0.01701718
201	0x3d3ae43f	0.04562783
202	0x3f321290	0.69559574
203	0xbdc8470d	-0.09779177
204	0x3f5fc2b9	0.874065
205	0xbd76d5d4	-0.060262516
206	0x3f1be9e4	0.60903764
207	0xbe586c52	-0.21135071
208	0xbdfd3fa8	-0.12365657
209	0x3e029d07	0.12755214
210	0x3e1347d6	0.14382872
211	0x3da9aa39	0.082844205
212	0xbe8c9919	-0.27460554
213	0xbda8e694	-0.08247104
214	0xbe3796b8	-0.17928588
215	0xbe99dbaa	-0.30050403
216	0x3e10bf67	0.14135514
217	0xbd3a21d4	-0.045442417
218	0xbe690d3c	-0.22758955
219	0xbfae76ea	-1.363004
220	0xbd527238	-0.05137846
221	0xbe7e2be0	-0.24821424
222	0xbe6b612a	-0.22986284
223	0xbdce66bd	-0.100781895
224	0x3f31e919	0.69496304
225	0xbf081ceb	-0.53169125
226	0xbe226506	-0.1585885
227	0xbda79bd9	-0.081840225
228	0xbe9cda5d	-0.30635348
229	0xbe0e64d7	-0.13905655
230	0x3e104898	0.14090192
231	0x3e93807e	0.2880897
232	0x3e04963b	0.12947933
233	0x3f3ed35c	0.7454126
234	0xbeb88546	-0.3603918
235	0xbe43b07d	-0.19110294
236	0xbeedf52b	-0.4647611
237	0x3c152fdd	0.00910565
238	0x3f08c108	0.5341954
239	0x3e386938	0.18008888
240	0xbe5b761a	-0.21431771
241	0x3e9dcce6	0.30820388
242	0x3e4ead54	0.20183307
243	0xbdb0d906	-0.08635144
244	0xbded8dbf	-0.115993015
245	0xbec2d497	-0.38052818
246	0xbee1d569	-0.44108132
247	0xbf6ed941	-0.93300253
248	0x3eaaa8f6	0.33332032
249	0x3cce0e10	0.02515319
250	0xbe59fa13	-0.21286802
251	0x3eb048af	0.34430453
252	0xbe705dc6	-0.23473272
253	0xbededc60	-0.43527508
254	0x3dc1c4e6	0.094613835
255	0x3d9cb6b8	0.07652038

sequential.2.Gamma.bias f4 [120]
0	0x3e8dd7ac	0.27703607
1	0xbee6c0d6	-0.45068997
2	0xbd9196dc	-0.07108852
3	0xbe90315d	-0.2816266
4	0xbef33d93	-0.47507915
5	0xbd5027ae	-0.05081909
6	0xbe92fdaf	-0.2870917
7	0x3e134222	0.14380696
8	0xbe1087a1	-0.14114238
9	0xbce367b6	-0.027759414
10	0x3ce08075	0.027405003
11	0xbe9241e8	-0.28565907
12	0x3eae5609	0.34050015
13	0xbe73a0e5	-0.23791845
14	0xbefeb99b	-0.4975098
15	0xbdefa2a3	-0.11700942
16	0xbe913786	-0.28362674
17	0x3d19fee4	0.0375966
18	0xbd9bd874	-0.076096445
19	0xbeba585a	-0.36395532
20	0xbe5780c4	-0.21045214
21	0x3ed365ca	0.41288596
22	0x3efe3d7f	0.49656293
23	0xbc77d501	-0.015126468
24	0xbc84c0c8	-0.016205207
25	0xbe042945	-0.12906368
26	0x3e60be0d	0.21947499
27	0xbeed9e40	-0.46409798
28	0x3c74fb15	0.014952441
29	0xbe6220af	-0.2208278
30	0xbe014de7	-0.12627374
31	0xbe811820	-0.25213718
32	0x3df8e8eb	0.121538006
33	0xbc024e4a	-0.007953236
34	0xbf0c218c	-0.5473869
35	0xbf073222	-0.5281087
36	0xbed4c8bb	-0.41559395
37	0xbe95dd1f	-0.29270265
38	0x3e2569d7	0.16153656
39	0xbea7d95d	-0.32783023
40	0x3e1ee26d	0.15516062
41	0xbde03556	-0.10947673
42	0xbcd5ded5	-0.026107231
43	0xbfa75410	-1.3072529
44	0xbe1d399b	-0.15354006
45	0x3c10f17a	0.008846635
46	0x3e918420	0.28421116
47	0xbf0e29a4	-0.5553229
48	0xbe5066af	-0.2035167
49	0xbf479146	-0.77956045
50	0xbec0b318	-0.37636638
51	0x3def0ed9	0.11672754
52	0x3a060299	0.00051120814
53	0xbe0c0bf6	-0.13676438
54	0xbe1b4962	-0.15164712
55	0x3e703706	0.2345849
56	0x3c931ef1	0.01795909
57	0x3eb6f720	0.35735416
58	0x3e48f203	0.1962357
59	0xbeed7af8	-0.4638288
60	0x3de501f8	0.11182016
61	0xbe112236	-0.14173207
62	0xbedec8ca	-0.43512565
63	0xbe96ed63	-0.29477987
64	0xbee196d0	-0.44060373
65	0xbeaaa593	-0.33329448
66	0xbeb9a62b	-0.3625959
67	0x3de5afa3	0.11215141
68	0xbe42c639	-0.19020928
69	0xbcb60f47	-0.022224082
70	0x3d142263	0.036165606
71	0xbf0ee3a8	-0.55816126
72	0x3d4dc503	0.050236713
73	0xbd99c9fb	-0.07509228
74	0xbeae796b	-0.3407701
75	0xbcd0a510	-0.025469333
76	0xbe9a7092	-0.3016401
77	0xbe30db7c	-0.17271227
78	0xbe66b7a9	-0.22530998
79	0x3f0b2047	0.54346126
80	0xbe246c2d	-0.16056891
81	0x3d1ef089	0.03880361
82	0xbe9a9619	-0.3019264
83	0x3ccf048c	0.025270723
84	0xbeff48a3	-0.49860105
85	0xbe9afc51	-0.30270627
86	0x3df0656e	0.11738096
87	0xbe1e8610	-0.15480828
88	0x3ecf3f52	0.40477997
89	0xbe5e766a	-0.21724859
90	0xbfa14aab	-1.2600912
91	0xbe442010	-0.19152856
92	0xbe72cca7	-0.23710881
93	0x3df8aae8	0.12141973
94	0xbdcbdc22	-0.099540964
95	0x3eaaaa1e	0.33332914
96	0xbf0e638f	-0.55620664
97	0xbeff5f7e	-0.49877542
98	0xbdd61418	-0.10453051
99	0xbca825a8	-0.020525768
100	0xbe4bcac1	-0.19901563
101	0x3dc8236b	0.097723804
102	0x3e26a3b7	0.1627339
103	0xbe79841e	-0.24366805
104	0xbc919746	-0.017772328
105	0xbe89e770	-0.26934385
106	0x3e8a9a39	0.27070788
107	0xbcd41b3d	-0.025891894
108	0x3d893bb4	0.067008406
109	0x3e00bdb5	0.12572367
110	0xbf294797	-0.6612486
111	0x3d704cca	0.05866698
112	0xbf13c687	-0.57724804
113	0x3e8e147b	0.2775
114	0x3eb86131	0.3601165
115	0x3de7f5c4	0.11326173
116	0xbead39ba	-0.33833104
117	0xbe8fd60f	-0.28093
118	0x3e9ce18b	0.30640826
119	0xbeb19c25	-0.3468944

sequential.2.Lambda.weight f4 [120, 80]
0	0xbe8e4635	-0.2778794
1	0xbd7b9a65	-0.06142654
2	0xbdf1eb41	-0.11812449
3	0xbdcc2878	-0.09968656
4	0xbe0e772b	-0.13912646
5	0x3db3c804	0.08778384
6	0xbd7082e1	-0.058718566
7	0xbe091ffa	-0.13391104
8	0x3d9ec2bc	0.077519864
9	0x3d12d084	0.035843387
10	0x3df4434a	0.11926897
11	0xbc18f8f8	-0.0093367025
12	0xbe664764	-0.22488171
13	0x3dcae81d	0.09907553
14	0x3e0cbb86	0.1374341
15	0xbef26d76	-0.47349137
16	0xbe8eb504	-0.2787248
17	0x39cb6880	0.00038797036
18	0xbe73824e	-0.23780176
19	0xbda36430	-0.079780936
20	0xbefd13a9	-0.49429062
21	0xbf2cdfc8	-0.67528963
22	0x3b8bf2ac	0.004270872
23	0xbc1de99a	-0.0096382145
24	0xbe91dbc9	-0.28487995
25	0xbf025b0d	-0.5092018
26	0xbe8fe097	-0.28101036
27	0xbe3a3a37	-0.1818627
28	0xbedb4b58	-0.4283092
29	0xbc6677ba	-0.014066631
30	0x3d864043	0.06555226
31	0xbe9eb86e	-0.31000084
32	0xbc31dc76	-0.010855785
33	0xbf0ddc7f	-0.55414575
34	0xbe311ed9	-0.17296924
35	0xbd5b00fa	-0.05346773
36	0x3e6f7064	0.23382717
37	0xbe3ee4ce	-0.1864197
38	0x3c88664c	0.016650341
39	0xbe9517ef	-0.29119822
40	0xbedc1a1c	-0.4298867
41	0x3eaddb68	0.33956456
42	0xbe5ccc39	-0.2156228
43	0x3ce99a4d	0.02851596
44	0xbf030fbb	-0.5119588
45	0xbe8758b6	-0.2643487
46	0x3e4923f0	0.19642615
47	0xbe4d8400	-0.20069885
48	0xbe226f24	-0.1586271
49	0x3e9986d9	0.29985693
50	0xbe413b55	-0.1887029
51	0xbbf6a804	-0.0075273532
52	0xbf18d8c2	-0.59705746
53	0xbe3acf1e	-0.18243071
54	0x3e6e8e79	0.23296537
55	0xbe87c4d6	-0.2651736
56	0xbeb976dc	-0.36223495
57	0x3ebe559f	0.371747
58	0xbae9c316	-0.0017834629
59	0x3da1494f	0.07875311
60	0x3dd1e6be	0.10249089
61	0x3d065b97	0.03280219
62	0xbeef3d1c	-0.4672631
63	0x3e7df6bb	0.24801151
64	0x3e4d1aea	0.20029798
65	0x3d165844	0.03670527
66	0xbdb21c36	-0.08696787
67	0xbea9aed5	-0.331412
68	0xbcb7b209	-0.022423761
69	0x3e225775	0.15853675
70	0xbe35a55c	-0.17738861
71	0xbf6c6fa4	-0.9235785
72	0x3d469f12	0.048491545
73	0xbf0a1709	-0.539414
74	0x3ea99233	0.33119354
75	0x3e468a45	0.19388683
76	0xbe80aeb7	-0.25133297
77	0x3b71f0ca	0.0036917203
78	0xbe6e4055	-0.23266728
79	0x3e6f6360	0.23377752
80	0x3dde176c	0.10844311
81	0xbe01a176	-0.12659249
82	0xbdc97dee	-0.09838472
83	0x3ed73d41	0.4203892
84	0x3ea024e8	0.31278157
85	0xbe926e59	-0.28599814
86	0xbb8dc4a4	-0.00432642
87	0x3ddd7a31	0.10814322
88	0xbe25fd17	-0.16209827
89	0xbeecdc4a	-0.46261817
90	0x3ded797b	0.11595436
91	0xbdc54a31	-0.096332915
92	0x3eca0ea4	0.39464295
93	0xbeaf7717	-0.34270546
94	0xbe114d39	-0.14189614
95	0xbe5d9f37	-0.21642767
96	0x3ebcfbbc	0.36910808
97	0xbec9c9e9	-0.39411858
98	0xbd92732b	-0.07150873
99	0x3c099f5e	0.0083998125
100	0x3e7b3aff	0.24534224
101	0xbd9a85f7	-0.07545083
102	0xbeaabea0	-0.3334856
103	0x3e33e650	0.17568326
104	0x3dc7f6e6	0.09763889
105	0xbdca7911	-0.09886373
106	0x3ef99df6	0.48753327
107	0x3f760281	0.9609757
108	0xbe6aec3b	-0.22941677
109	0x3e1ed143	0.15509515
110	0x3fa1894f	1.2620028
111	0xbea6f362	-0.3260756
112	0xbdc028f5	-0.09382812
113	0x3f67e714	0.9058697
114	0xbe868fbd	-0.2628154
115	0xbd9a7a27	-0.0754283
116	0x3e8b0cb8	0.2715814
117	0x3f17d7ee	0.5931386
118	0xbd09422b	-0.03351037
119	0x3f0c1a47	0.54727596
120	0xbebaf709	-0.36516598
121	0x3d643cfa	0.055722214
122	0xbd541323	-0.051776063
123	0xbe553762	-0.20821908
124	0x3e860022	0.26171976
125	0x3dbdb3a2	0.09262778
126	0x3ed94ec0	0.42442894
127	0x3de56ec2	0.11202766
128	0x3e6ca458	0.23109567
129	0x3d3288f8	0.043587655
130	0xbe8b3959	-0.2719219
131	0x3e66e2c3	0.2254744
132	0x3f075a87	0.5287251
133	0x3ce11010	0.02747348
134	0xbe2cf2d7	-0.16889511
135	0x3eb560ae	0.35425323
136	0x3ebc32cf	0.36757514
137	0xbe123b2f	-0.14280389
138	0x3e6c19c0	0.23056698
139	0x3ec560d9	0.3855045
140	0x3ea585e5	0.32328716
141	0xbf013305	-0.50468475
142	0x3f693854	0.91101575
143	0xbe800b08	-0.25008416
144	0x3d5b5829	0.053550873
145	0x3eedb892	0.46429878
146	0x3e9a9c9e	0.30197614
147	0x3e30c7f2	0.17263773
148	0x3f0524a1	0.52009016
149	0xbca6aa41	-0.020344855
150	0xbd84e25b	-0.064884864
151	0x3e05d2d0	0.130687
152	0x3d3ae82d	0.045631576
153	0x3e0f4519	0.13991202
154	0xbf3b520a	-0.73172057
155	0xbe4ff423	-0.20307975
156	0x3edd3f63	0.43212423
157	0xbd20608a	-0.039154567
158	0x3e10fb98	0.14158475
159	0xbed784e8	-0.42093587
160	0x3d8afd1d	0.06786559
161	0x3fc4df54	1.5380654
162	0x3f4687e8	0.77551126
163	0xbe25597f	-0.16147421
164	0x3e872bd6	0.26400632
165	0xbd9029b3	-0.070392035
166	0xbd284675	-0.041082818
167	0x3e8d666e	0.2761721
168	0x3e1b580d	0.15170307
169	0x3ea4b130	0.32166433
170	0x3e02f269	0.12787785
171	0xbe7942c0	-0.2434187
172	0x3ed24a2c	0.41072214
173	0xbeda9199	-0.42689207
174	0x3f1a91b4	0.60378575
175	0xbe1fca56	-0.15604529
176	0xbf04e8b7	-0.51917595
177	0xbc62fc30	-0.0138540715
178	0xbed9f5c1	-0.42570308
179	0x3e2a8045	0.16650493
180	0x3d7f24c8	0.062290937
181	0xbeb56b09	-0.35433224
182	0x3eaebc0b	0.3412784
183	0xbe0e9014	-0.13922149
184	0x3f47002b	0.7773463
185	0x3dd89cce	0.10576783
186	0x3e02fbfd	0.12791438
187	0xbf5339a9	-0.8250986
188	0x3a1d2155	0.00059940416
189	0xbf1aa21a	-0.604036
190	0xbf4c2606	-0.7974552
191	0x3cf8815e	0.030335125
192	0x3ee4256a	0.44559795
193	0xbebc568d	-0.36784783
194	0x3f24ecb8	0.64423704
195	0x3e908286	0.2822458
196	0xbee6d94f	-0.45087668
197	0x3db48515	0.08814446
198	0xbf37b631	-0.7176238
199	0x3d5e6903	0.054299366
200	0x3f80a936	1.0051639
201	0x3f12fbec	0.5741565
202	0xbd959648	-0.073040545
203	0x3f386db0	0.7204237
204	0xbebce5ed	-0.3689417
205	0xbe2b4a20	-0.16727495
206	0xbe53377e	-0.20626637
207	0xbdf32e5f	-0.11874079
208	0x3e7a33bc	0.24433798
209	0x3d04f39f	0.032458898
210	0xbf4355f5	-0.76303035
211	0xbfae3d0c	-1.361238
212	0xbf896d33	-1.073645
213	0x3dc1a5f1	0.09455479
214	0x3e517593	0.20455007
215	0x3eb0bd12	0.3451925
216	0x3d1686ad	0.03674953
217	0x3ea6514d	0.32483903
218	0x3e1fdde6	0.15611991
219	0xbf488784	-0.7833178
220	0xbe8926cf	-0.2678742
221	0x3ef3bdaa	0.4760564
222	0xbf2b5a57	-0.6693472
223	0x3f3c60c8	0.73585176
224	0x3d70064e	0.058599763
225	0xbe9d30b8	-0.30701232
226	0x3dc51610	0.09623349
227	0xbd3ea00a	-0.046539344
228	0x3cc610b6	0.02417789
229	0x3efa078b	0.4883388
230	0xbf9481e8	-1.1602144
231	0xbf83f756	-1.0309856
232	0xc00c3797	-2.190893
233	0x3e692636	0.22768483
234	0x3f1587c1	0.5841027
235	0x3e1bbedb	0.15209524
236	0x3e172b9e	0.14762732
237	0x3f2e0337	0.67973655
238	0x3e3c7808	0.18405163
239	0x3f094e7a	0.5363537
240	0x3d8ef2e2	0.0697992
241	0x3ee17a1f	0.44038484
242	0x3ea71f24	0.32640946
243	0xbd5b037d	-0.053470124
244	0x3ec08a83	0.37605676
245	0xbe05a799	-0.13052215
246	0xbee2c5cb	-0.4429153
247	0xbe540f47	-0.20708953
248	0xbdc220d0	-0.09478915
249	0xbe9648ed	-0.29352513
250	0xbe923d34	-0.2856232
251	0xbd42afcb	-0.04753093
252	0x3e194d1e	0.14970824
253	0xbeb79e09	-0.3586276
254	0xbf037551	-0.51350886
255	0xbd2e7839	-0.042595122

sequential.2.Lambda.bias f4 [120]
0	0x3e8dd7ac	0.27703607
1	0xbee6c0d6	-0.45068997
2	0xbd9196dc	-0.07108852
3	0xbe90315d	-0.2816266
4	0xbef33d93	-0.47507915
5	0xbd5027ae	-0.05081909
6	0xbe92fdaf	-0.2870917
7	0x3e134222	0.14380696
8	0xbe1087a1	-0.14114238
9	0xbce367b6	-0.027759414
10	0x3ce08075	0.027405003
11	0xbe9241e8	-0.28565907
12	0x3eae5609	0.34050015
13	0xbe73a0e5	-0.23791845
14	0xbefeb99b	-0.4975098
15	0xbdefa2a3	-0.11700942
16	0xbe913786	-0.28362674
17	0x3d19fee4	0.0375966
18	0xbd9bd874	-0.076096445
19	0xbeba585a	-0.36395532
20	0xbe5780c4	-0.21045214
21	0x3ed365ca	0.41288596
22	0x3efe3d7f	0.49656293
23	0xbc77d501	-0.015126468
24	0xbc84c0c8	-0.016205207
25	0xbe042945	-0.12906368
26	0x3e60be0d	0.21947499
27	0xbeed9e40	-0.46409798
28	0x3c74fb15	0.014952441
29	0xbe6220af	-0.2208278
30	0xbe014de7	-0.12627374
31	0xbe811820	-0.25213718
32	0x3df8e8eb	0.121538006
33	0xbc024e4a	-0.007953236
34	0xbf0c218c	-0.5473869
35	0xbf073222	-0.5281087
36	0xbed4c8bb	-0.41559395
37	0xbe95dd1f	-0.29270265
38	0x3e2569d7	0.16153656
39	0xbea7d95d	-0.32783023
40	0x3e1ee26d	0.15516062
41	0xbde03556	-0.10947673
42	0xbcd5ded5	-0.026107231
43	0xbfa75410	-1.3072529
44	0xbe1d399b	-0.15354006
45	0x3c10f17a	0.008846635
46	0x3e918420	0.28421116
47	0xbf0e29a4	-0.5553229
48	0xbe5066af	-0.2035167
49	0xbf479146	-0.77956045
50	0xbec0b318	-0.37636638
51	0x3def0ed9	0.11672754
52	0x3a060299	0.00051120814
53	0xbe0c0bf6	-0.13676438
54	0xbe1b4962	-0.15164712
55	0x3e703706	0.2345849
56	0x3c931ef1	0.01795909
57	0x3eb6f720	0.35735416
58	0x3e48f203	0.1962357
59	0xbeed7af8	-0.4638288
60	0x3de501f8	0.11182016
61	0xbe112236	-0.14173207
62	0xbedec8ca	-0.43512565
63	0xbe96ed63	-0.29477987
64	0xbee196d0	-0.44060373
65	0xbeaaa593	-0.33329448
66	0xbeb9a62b	-0.3625959
67	0x3de5afa3	0.11215141
68	0xbe42c639	-0.19020928
69	0xbcb60f47	-0.022224082
70	0x3d142263	0.036165606
71	0xbf0ee3a8	-0.55816126
72	0x3d4dc503	0.050236713
73	0xbd99c9fb	-0.07509228
74	0xbeae796b	-0.3407701
75	0xbcd0a510	-0.025469333
76	0xbe9a7092	-0.3016401
77	0xbe30db7c	-0.17271227
78	0xbe66b7a9	-0.22530998
79	0x3f0b2047	0.54346126
80	0xbe246c2d	-0.16056891
81	0x3d1ef089	0.03880361
82	0xbe9a9619	-0.3019264
83	0x3ccf048c	0.025270723
84	0xbeff48a3	-0.49860105
85	0xbe9afc51	-0.30270627
86	0x3df0656e	0.11738096
87	0xbe1e8610	-0.15480828
88	0x3ecf3f52	0.40477997
89	0xbe5e766a	-0.21724859
90	0xbfa14aab	-1.2600912
91	0xbe442010	-0.19152856
92	0xbe72cca7	-0.23710881
93	0x3df8aae8	0.12141973
94	0xbdcbdc22	-0.099540964
95	0x3eaaaa1e	0.33332914
96	0xbf0e638f	-0.55620664
97	0xbeff5f7e	-0.49877542
98	0xbdd61418	-0.10453051
99	0xbca825a8	-0.020525768
100	0xbe4bcac1	-0.19901563
101	0x3dc8236b	0.097723804
102	0x3e26a3b7	0.1627339
103	0xbe79841e	-0.24366805
104	0xbc919746	-0.017772328
105	0xbe89e770	-0.26934385
106	0x3e8a9a39	0.27070788
107	0xbcd41b3d	-0.025891894
108	0x3d893bb4	0.067008406
109	0x3e00bdb5	0.12572367
110	0xbf294797	-0.6612486
111	0x3d704cca	0.05866698
112	0xbf13c687	-0.57724804
113	0x3e8e147b	0.2775
114	0x3eb86131	0.3601165
115	0x3de7f5c4	0.11326173
116	0xbead39ba	-0.33833104
117	0xbe8fd60f	-0.28093
118	0x3e9ce18b	0.30640826
119	0xbeb19c25	-0.3468944

sequential.2.bn.running_mean f4 [120]
0	0x00000000	0.0
1	0x00000000	0.0
2	0x00000000	0.0
3	0x00000000	0.0
4	0x00000000	0.0
5	0x00000000	0.0
6	0x00000000	0.0
7	0x00000000	0.0
8	0x00000000	0.0
9	0x00000000	0.0
10	0x00000000	0.0
11	0x00000000	0.0
12	0x00000000	0.0
13	0x00000000	0.0
14	0x00000000	0.0
15	0x00000000	0.0
16	0x00000000	0.0
17	0x00000000	0.0
18	0x00000000	0.0
19	0x00000000	0.0
20	0x00000000	0.0
21	0x00000000	0.0
22	0x00000000	0.0
23	0x00000000	0.0
24	0x00000000	0.0
25	0x00000000	0.0
26	0x00000000	0.0
27	0x00000000	0.0
28	0x00000000	0.0
29	0x00000000	0.0
30	0x00000000	0.0
31	0x00000000	0.0
32	0x00000000	0.0
33	0x00000000	0.0
34	0x00000000	0.0
35	0x00000000	0.0
36	0x00000000	0.0
37	0x00000000	0.0
38	0x00000000	0.0
39	0x00000000	0.0
40	0x00000000	0.0
41	0x00000000	0.0
42	0x00000000	0.0
43	0x00000000	0.0
44	0x00000000	0.0
45	0x00000000	0.0
46	0x00000000	0.0
47	0x00000000	0.0
48	0x00000000	0.0
49	0x00000000	0.0
50	0x00000000	0.0
51	0x00000000	0.0
52	0x00000000	0.0
53	0x00000000	0.0
54	0x00000000	0.0
55	0x00000000	0.0
56	0x00000000	0.0
57	0x00000000	0.0
58	0x00000000	0.0
59	0x00000000	0.0
60	0x00000000	0.0
61	0x00000000	0.0
62	0x00000000	0.0
63	0x00000000	0.0
64	0x00000000	0.0
65	0x00000000	0.0
66	0x00000000	0.0
67	0x00000000	0.0
68	0x00000000	0.0
69	0x00000000	0.0
70	0x00000000	0.0
71	0x00000000	0.0
72	0x00000000	0.0
73	0x00000000	0.0
74	0x00000000	0.0
75	0x00000000	0.0
76	0x00000000	0.0
77	0x00000000	0.0
78	0x00000000	0.0
79	0x00000000	0.0
80	0x00000000	0.0
81	0x00000000	0.0
82	0x00000000	0.0
83	0x00000000	0.0
84	0x00000000	0.0
85	0x00000000	0.0
86	0x00000000	0.0
87	0x00000000	0.0
88	0x00000000	0.0
89	0x00000000	0.0
90	0x00000000	0.0
91	0x00000000	0.0
92	0x00000000	0.0
93	0x00000000	0.0
94	0x00000000	0.0
95	0x00000000	0.0
96	0x00000000	0.0
97	0x00000000	0.0
98	0x00000000	0.0
99	0x00000000	0.0
100	0x00000000	0.0
101	0x00000000	0.0
102	0x00000000	0.0
103	0x00000000	0.0
104	0x00000000	0.0
105	0x00000000	0.0
106	0x00000000	0.0
107	0x00000000	0.0
108	0x00000000	0.0
109	0x00000000	0.0
110	0x00000000	0.0
111	0x00000000	0.0
112	0x00000000	0.0
113	0x00000000	0.0
114	0x00000000	0.0
115	0x00000000	0.0
116	0x00000000	0.0
117	0x00000000	0.0
118	0x00000000	0.0
119	0x00000000	0.0

sequential.2.bn.running_var f4 [120]
0	0x3f800000	1.0
1	0x3f800000	1.0
2	0x3f800000	1.0
3	0x3f800000	1.0
4	0x3f800000	1.0
5	0x3f800000	1.0
6	0x3f800000	1.0
7	0x3f800000	1.0
8	0x3f800000	1.0
9	0x3f800000	1.0
10	0x3f800000	1.0
11	0x3f800000	1.0
12	0x3f800000	1.0
13	0x3f800000	1.0
14	0x3f800000	1.0
15	0x3f800000	1.0
16	0x3f800000	1.0
17	0x3f800000	1.0
18	0x3f800000	1.0
19	0x3f800000	1.0
20	0x3f800000	1.0
21	0x3f800000	1.0
22	0x3f800000	1.0
23	0x3f800000	1.0
24	0x3f800000	1.0
25	0x3f800000	1.0
26	0x3f800000	1.0
27	0x3f800000	1.0
28	0x3f800000	1.0
29	0x3f800000	1.0
30	0x3f800000	1.0
31	0x3f800000	1.0
32	0x3f800000	1.0
33	0x3f800000	1.0
34	0x3f800000	1.0
35	0x3f800000	1.0
36	0x3f800000	1.0
37	0x3f800000	1.0
38	0x3f800000	1.0
39	0x3f800000	1.0
40	0x3f800000	1.0
41	0x3f800000	1.0
42	0x3f800000	1.0
43	0x3f800000	1.0
44	0x3f800000	1.0
45	0x3f800000	1.0
46	0x3f800000	1.0
47	0x3f800000	1.0
48	0x3f800000	1.0
49	0x3f800000	1.0
50	0x3f800000	1.0
51	0x3f800000	1.0
52	0x3f800000	1.0
53	0x3f800000	1.0
54	0x3f800000	1.0
55	0x3f800000	1.0
56	0x3f800000	1.0
57	0x3f800000	1.0
58	0x3f800000	1.0
59	0x3f800000	1.0
60	0x3f800000	1.0
61	0x3f800000	1.0
62	0x3f800000	1.0
63	0x3f800000	1.0
64	0x3f800000	1.0
65	0x3f800000	1.0
66	0x3f800000	1.0
67	0x3f800000	1.0
68	0x3f800000	1.0
69	0x3f800000	1.0
70	0x3f800000	1.0
71	0x3f800000	1.0
72	0x3f800000	1.0
73	0x3f800000	1.0
74	0x3f800000	1.0
75	0x3f800000	1.0
76	0x3f800000	1.0
77	0x3f800000	1.0
78	0x3f800000	1.0
79	0x3f800000	1.0
80	0x3f800000	1.0
81	0x3f800000	1.0
82	0x3f800000	1.0
83	0x3f800000	1.0
84	0x3f800000	1.0
85	0x3f800000	1.0
86	0x3f800000	1.0
87	0x3f800000	1.0
88	0x3f800000	1.0
89	0x3f800000	1.0
90	0x3f800000	1.0
91	0x3f800000	1.0
92	0x3f800000	1.0
93	0x3f800000	1.0
94	0x3f800000	1.0
95	0x3f800000	1.0
96	0x3f800000	1.0
97	0x3f800000	1.0
98	0x3f800000	1.0
99	0x3f800000	1.0
100	0x3f800000	1.0
101	0x3f800000	1.0
102	0x3f800000	1.0
103	0x3f800000	1.0
104	0x3f800000	1.0
105	0x3f800000	1.0
106	0x3f800000	1.0
107	0x3f800000	1.0
108	0x3f800000	1.0
109	0x3f800000	1.0
110	0x3f800000	1.0
111	0x3f800000	1.0
112	0x3f800000	1.0
113	0x3f800000	1.0
114	0x3f800000	1.0
115	0x3f800000	1.0
116	0x3f800000	1.0
117	0x3f800000	1.0
118	0x3f800000	1.0
119	0x3f800000	1.0
