Models/Z_100GeV_100.pth (torch, 197950 bytes, 36 tensors)

sequential.0.Gamma.weight f4 [80, 5]
0.57701755 0.1643617 0.7324123 -0.23558432 -0.421046 -0.2341001 -0.42670912 0.06040059
0.888471 -1.1557976 -0.78900313 -0.7539882 1.2167224 -0.21995604 0.056765296 0.8144587
0.5052875 -0.32510704 -1.6294837 0.3835515 1.3931813 0.37942082 -0.79681706 0.2356876
-0.10482796 0.039183732 -0.50697356 -0.3624258 -0.27084264 0.59013 0.17501096 0.780211
0.07613188 -0.731507 -0.09523235 1.18527 0.03851845 -0.12076765 0.06993628 -0.7513872
-0.26524934 0.116086625 0.9980041 1.8710898 0.09781788 -0.88884795 0.90594035 -0.8949766
-0.04340271 -0.033520393 1.2317003 1.4140155 0.18220411 0.2321107 0.1252185 0.36499724
0.9498115 -0.12509373 0.38928267 0.3896813 0.3775148 -0.33381504 0.25782174 0.03826169
-0.30427137 0.77762735 -0.8781039 0.9222494 0.50735027 -1.3545961 0.4734419 0.038452413
-0.07087322 -0.042075537 0.5575362 -0.046755966 0.15742286 0.79572487 -0.53085583 0.6359463
1.0856082 -0.14713176 0.39139733 -0.19208886 1.9307195 0.7099667 0.20042747 -0.32505682
-0.1269837 -0.2533729 1.717069 0.2490441 -0.455908 -0.45883936 0.31661287 -0.20099026
0.696971 -0.40259206 -0.49706244 1.0502808 2.1595883 -1.8811817 -0.036530983 -0.34639335
0.1483276 0.899768 -0.13783966 0.11601265 -0.56606424 -0.42018712 0.0661549 -0.54498094
0.7046425 0.13486652 -0.58427763 1.1244149 -0.59876144 0.8992659 -0.07250548 -1.0796043
0.6803707 1.0006787 0.26403412 0.6137218 -0.068561934 0.11102499 0.11382861 0.93478477
-0.26676363 -1.4146253 0.34605214 0.7623211 0.28511763 -0.2608724 0.2951269 -0.040016275
-1.4053061 0.07246048 0.24666561 -0.120864734 0.95214254 -0.82939154 -0.013315034 0.3800691
-0.6146625 0.36981806 0.6283593 0.83646506 -0.11787878 0.11898632 -0.29427624 0.26119846
1.0112585 0.078071706 -0.34236398 0.70698667 -0.15965725 0.17920665 -0.16674468 -0.057151295
0.9259053 0.04339604 -0.114873454 1.0341917 0.45568866 0.369977 -0.76452404 -0.35278863
0.71350193 0.005336911 0.029313907 -0.060274936 -0.12282619 0.57371753 0.31010497 1.0241238
1.7517813 0.64163476 1.0279104 -0.012805908 0.19599146 -0.033562943 0.7224546 -0.2228993
-0.53184974 -0.13367368 0.11801054 0.27652064 0.064408325 -0.52106404 0.60322446 1.2476003
-0.71166843 -0.5544321 1.024976 -0.19932702 -0.48608252 -0.74276805 0.4083815 0.90336794
-0.43624127 -0.078568734 0.73393506 -0.46939492 -0.10180988 -0.6377798 0.24351948 0.06651965
0.5956303 -0.27251583 0.40862367 0.58447045 -0.3106947 0.57760257 0.11908274 -0.74379236
0.88620645 -0.028517295 -0.19455667 -0.010797354 -0.03375723 -0.17449611 0.41471237 2.1707902
-0.67630893 -1.8633004 0.27529457 0.11933541 1.3276148 0.014432211 0.014258958 0.8753643
0.20458959 -1.140945 -0.029848022 0.7667184 0.8330302 -0.10288797 0.103671886 0.21180244
0.9004698 -0.25373507 1.1019638 -0.24977538 -0.6485487 -0.09649177 -0.31666756 0.094845906
0.5652701 -0.70554984 -0.69403726 -0.39034352 0.2550934 -0.2982863 0.96228904 -0.5071648
00000000: 6cb7 133f 6f4e 283e 5f7f 3b3f 043d 71be
00000010: 5793 d7be f0b7 6fbe 9e79 dabe 9c66 773d
00000020: d672 633f 2df1 93bf 1cfc 49bf 5f05 41bf
00000030: 8fbd 9b3f 283c 61be ba82 683d 5e80 503f
00000040: 865a 013f 6e74 a6be ec92 d0bf dd60 c43e
00000050: c453 b23f 7243 c23e 34fc 4bbf 1758 713e
00000060: 0bb0 d6bd 1f7f 203d 05c9 01bf e08f b9be
00000070: e3ab 8abe c212 173f 1336 333e e8bb 473f
00000080: 08eb 9b3d 0b44 3bbf 2e09 c3bd edb6 973f
00000090: 86c5 1d3d 0855 f7bd c13a 8f3d e95a 40bf
000000a0: c3ce 87be d3be ed3d 327d 7f3f df7f ef3f
000000b0: be54 c83d 8a8b 63bf b5eb 673f 301d 65bf
000000c0: 0ac7 31bd ae4c 09bd 5ba8 9d3f 76fe b43f
000000d0: b793 3a3e 6dae 6d3e 4739 003e ebe0 ba3e
000000e0: d926 733f 9218 00be 0f50 c73e 4f84 c73e
000000f0: 9f49 c13e cee9 aabe 3601 843e 4ab8 1c3d
00000100: 75c9 9bbe 9612 473f 6bcb 60bf 8918 6c3f
00000110: b5e1 013f 6863 adbf fa66 f23e 4780 1d3d
00000120: fb25 91bd 6657 2cbd b1ba 0e3f 2f83 3fbd
00000130: 7533 213e a0b4 4b3f 2be6 07bf 60cd 223f
00000140: 36f5 8a3f b5a9 16be 3b65 c83e f1b2 44be
00000150: d121 f73f 61c0 353f dc3c 4d3e d96d a6be
00000160: 0408 02be 18ba 81be ebc8 db3f 6b05 7f3e
00000170: c66c e9be feec eabe 151b a23e 64d0 4dbe
00000180: b16c 323f 8c20 cebe f87e febe 9a6f 863f
00000190: b236 0a40 90ca f0bf 83a1 15bd 785a b1be
000001a0: 31e3 173e 3257 663f d725 0dbe 0a98 ed3d
000001b0: 96e9 10bf c422 d7be 387c 873d df83 0bbf
000001c0: 7363 343f 731a 0a3e 3893 15bf d4ec 8f3f
000001d0: 6e48 19bf 4a36 663f c17d 94bd 7930 8abf
000001e0: c62c 2e3f 3d16 803f 7b2f 873e df1c 1d3f
000001f0: 336a 8cbd 1261 e33d f91e e93d 0e4e 6f3f
00000200: 3e95 88be 7112 b5bf bf2d b13e 7a27 433f
00000210: f0fa 913e 1191 85be df1a 973e 1be8 23bd
00000220: 12e1 b3bf 2966 943d e995 7c3e ee87 f7bd
00000230: 9dbf 733f 0153 54bf 4d27 5abc 6b98 c23e
00000240: 865a 1dbf cb58 bd3e 28dc 203f 9322 563f
00000250: 6e6a f1bd 1aaf f33d 60ab 96be cebb 853e
00000260: eb70 813f 0fe4 9f3d 554a afbe 14fd 343f
00000270: 317d 23be f381 373e 1ebf 2abe 7a17 6abd
00000280: 2108 6d3f 0cc0 313d c642 ebbd 6560 843f
00000290: 0650 e93e a06d bd3e d9b7 43bf b6a0 b4be
000002a0: 10a8 363f 41e1 ae3b b823 f03c dae2 76bd
000002b0: 4c8c fbbd 27df 123f 14c6 9e3e 7d16 833f
000002c0: 5f3a e03f 2d42 243f 9192 833f dfcf 51bc
000002d0: fcb1 483e 4c79 09bd c9f2 383f b73f 64be
000002e0: 4e27 08bf c1e1 08be 83af f13d 1d94 8d3e
000002f0: 83e8 833d 7464 05bf eb6c 1a3f 5eb1 9f3f
00000300: e72f 36bf 43ef 0dbf 6a32 833f 621c 4cbe
00000310: cfdf f8be 0c26 3ebf 6117 d13e 1f43 673f
00000320: 045b dfbe a5e8 a0bd 2be3 3b3f 8854 f0be
00000330: b381 d0bd 8945 23bf 2c5d 793e 743b 883d
00000340: 3a7b 183f 3287 8bbe 1f37 d13e db9f 153f
00000350: 6013 9fbe c3dd 133f a7e1 f33d 2d69 3ebf
00000360: 6dde 623f 1a9d e9bc dd39 47be 63e7 30bc
00000370: 0545 0abd 1caf 32be 2e55 d43e 3aee 0a40
00000380: 9522 2dbf a180 eebf 69f3 8c3e 2066 f43d
00000390: 48ef a93f 1575 6c3c 689e 693c e017 603f
000003a0: ef7f 513e 7c0a 92bf d783 f4bc a847 443f
000003b0: 7841 553f eeb6 d2bd ed51 d43d bde2 583e
000003c0: 3085 663f 90e9 81be 260d 8d3f 1ec5 7fbe
000003d0: 4a07 26bf 7a9d c5bd 4022 a2be 923e c23d
000003e0: 8bb5 103f ea9e 34bf 6dac 31bf 1bdb c7be
000003f0: 9a9b 823e fbb8 98be 9358 763f 8dd5 01bf

sequential.0.Gamma.bias f4 [80]
0.11334932 -0.4634051 -0.36744457 0.114605956 -0.16631125 -0.32816926 -0.07327897 -0.21684602
0.15161546 -0.28541464 0.62287784 -0.26895696 -0.31795737 -0.30524257 -0.46036562 -0.603565
-0.39406863 -0.47198796 0.3553958 -0.03546885 -0.12062272 0.18766752 -0.700069 -0.018690394
0.4052741 -0.13227457 -0.12949264 -0.011213299 -0.48671505 -0.013498096 -0.25354052 -0.31835288
-0.14557862 -0.044297256 -0.47021982 -0.13158248 0.27663922 -0.45883885 -0.0064876713 -0.2316043
-0.19327332 -0.32791013 0.39138517 0.07739636 -0.27500457 -0.14287886 0.02100638 -0.11641806
-0.2442383 -0.14941432 -0.34916836 -0.18644172 -0.2475948 -0.5359754 -0.252455 0.1948882
0.53343785 -0.090826906 -0.5317961 -0.18244493 0.1312725 -0.2244016 -0.7514374 -0.14973696
-0.44739422 -0.43995318 -0.30475765 -0.09568698 -0.8261344 -0.24236816 -0.58459157 -0.069834456
-0.43932214 0.08340829 0.08014396 -0.5454527 -0.043716144 -0.0031487043 -0.226401 0.11291867
00000000: b023 e83d 6f43 edbe b221 bcbe 87b6 ea3d
00000010: 7f4d 2abe cd05 a8be 4913 96bd e20c 5ebe
00000020: 1541 1b3e de21 92be ec74 1f3f bab4 89be
00000030: 4fcb a2be c148 9cbe 0bb5 ebbe 3c83 1abf
00000040: 5dc3 c9be 68a8 f1be 70f6 b53e c947 11bd
00000050: 0b09 f7bd ea2b 403e b937 33bf 991c 99bc
00000060: 1680 cf3e fc72 07be b899 04be fcb7 37bc
00000070: b732 f9be 1e27 5dbc 10d0 81be 26ff a2be
00000080: 9012 15be 0a71 35bd a7c0 f0be 8fbd 06be
00000090: a8a3 8d3e edec eabe 8896 d4bb ad29 6dbe
000000a0: 71e9 45be d6e3 a7be a363 c83e fc81 9e3d
000000b0: 66cd 8cbe d64e 12be 9215 ac3c 986c eebd
000000c0: 9b19 7abe 1100 19be 32c6 b2be 94ea 3ebe
000000d0: 7e89 7dbe af35 09bf c841 81be c690 473e
000000e0: 628f 083f 7503 babd ca23 08bf d8d2 3abe
000000f0: 4c6c 063e 88c9 65be 345e 40bf a554 19be
00000100: db10 e5be 8b41 e1be 3209 9cbe 89f7 c3bd
00000110: 8b7d 53bf 5c2f 78be cba7 15bf 5e05 8fbd
00000120: d5ee e0be f7d1 aa3d 8422 a43d caa2 0bbf
00000130: b30f 33bd 7e5a 4ebb aad5 67be e741 e73d

sequential.0.Lambda.weight f4 [80, 5]
-0.56504977 -0.45265037 1.4768076 0.38658553 -1.0682771 0.2276818 -0.34830445 -0.56659526
1.0752304 0.8387978 1.1389788 -0.33458564 -0.7272196 0.80368716 -0.28157443 0.16878983
0.026406303 0.9334696 -0.20912358 -0.8726602 0.45539236 -1.6191883 -0.09342614 0.37743956
-0.4858638 0.46291268 0.63934326 -0.4400438 0.12563801 0.24049993 -0.06703666 -0.4167583
-0.31552538 -0.48468694 1.0727056 -0.6763935 0.14113146 1.3709568 0.2762404 -0.72399306
-0.046027455 0.051955108 0.28530142 0.25077146 -0.5622797 -1.2736692 1.3295941 0.820972
0.6434521 -0.77593744 -0.7062181 -0.99937576 0.6279544 -0.009871434 0.42299315 -1.3991498
-0.0022650347 0.041806296 -1.1291896 0.5586367 -0.21938789 -1.2900827 0.75568765 1.0636028
-0.32825813 -0.24618293 -0.41881102 0.20794584 0.23674048 0.2022724 -0.30136973 0.38807702
-0.86365336 0.574704 0.71083754 0.038657647 -0.5730147 0.8174059 -0.38945103 -0.4085709
-0.959057 -0.74793875 -0.39800087 -0.29873097 0.56557137 -0.9784489 0.4156212 0.2274331
0.25300175 0.49981615 -1.2765688 -0.16157942 0.058964964 -0.574119 1.9646859 -0.16994484
-1.1111141 -0.21556965 0.18397316 1.431076 0.5897307 -0.1268349 0.04242374 0.07229612
-0.4903951 -0.40079916 0.4013097 1.5499145 0.34137967 -1.2657534 0.034706045 -0.072431915
-0.79398465 0.48614147 1.0120168 0.04759438 -0.59720135 0.104123905 0.115400605 0.26910424
-0.061734002 -0.01059857 -0.30907738 -0.28421187 0.84562844 0.2803941 -1.4097952 1.3335273
0.42700353 -0.7802961 0.20496365 -0.5360307 0.70986986 -1.4073857 -0.4111302 0.36535898
-0.23817144 0.9608726 -1.523753 0.12013852 -0.39834976 -0.56469274 -0.69921154 1.1493891
0.63181376 0.09977264 -0.19036204 -0.39170572 -0.08431652 -0.72518337 1.0185497 0.31144974
-1.5321224 0.39339796 -0.49889502 0.09759496 -0.7042998 0.3917071 0.2576689 -0.6052547
0.11126285 0.17750238 -0.49474996 0.0086180465 0.16856351 -0.381093 0.8074319 -0.28860572
-0.6181955 0.63210094 -0.55751526 0.06297452 -0.61494356 0.1045722 0.1580962 1.2324289
0.54299295 -1.257365 -0.86226 0.37659487 -1.5219725 -0.27255374 1.4451272 0.53992486
-0.77933675 -1.7128731 0.45353964 0.5081893 1.0066775 -0.34655115 0.32004958 0.12702833
-1.0690999 -0.8650436 -0.33421424 0.0716441 -0.45440337 0.14181346 0.023003386 1.3153325
0.47133613 -0.616613 -0.3415149 1.0321363 -0.28800377 -1.3885769 0.64381874 -0.40714633
0.38380077 0.68939304 -0.37362593 -0.4814512 -0.11444946 -0.6274417 1.3244244 -0.9439838
0.7286897 1.3301672 -0.35168487 -0.90723026 0.03569011 -0.28725743 0.008297386 0.19983454
0.0824401 -0.38690844 0.73448724 -0.82748723 0.35692805 0.12800112 0.5811573 -0.92381275
1.1621703 -0.01165908 -0.7429668 -0.5330753 -0.37046856 -0.84514827 -0.47953787 0.5979436
0.09886491 -0.6660309 -0.17733969 0.5836612 -0.5843263 0.75363857 -0.8147272 0.13318712
0.18379761 0.039074477 -0.6606289 -0.64900327 -0.014191938 0.4037862 0.7613576 -0.06387219
00000000: 1aa7 10bf cac1 e7be 0808 bd3f 8aee c53e
00000010: 4ebd 88bf 6b25 693e f654 b2be 630c 11bf
00000020: 26a1 893f 74bb 563f 0fca 913f cf4e abbe
00000030: 102b 3abf 71be 4d3f 862a 90be 3ed7 2c3e
00000040: 0852 d83c ddf7 6e3f 7e24 56be a966 5fbf
00000050: 3029 e93e 9041 cfbf 3456 bfbd c23f c13e
00000060: 24c3 f8be e402 ed3e 00ac 233f 6c4d e1be
00000070: 40a7 003e 9d45 763e 844a 89bd 5861 d5be
00000080: 8b8c a1be e328 f8be 6b4e 893f 2028 2dbf
00000090: c484 103e 837b af3f 626f 8d3e 9c57 39bf
000000a0: 4987 3cbd e1ce 543d 0713 923e 1e65 803e
000000b0: 90f1 0fbf 9807 a3bf 2430 aa3f 392b 523f
000000c0: 47b9 243f d6a3 46bf b6ca 34bf 17d7 7fbf
000000d0: 9fc1 203f ccbb 21bc 8f92 d83e 5717 b3bf
000000e0: fa70 14bb 143d 2b3d 4989 90bf d102 0f3f
000000f0: 38a7 60be 6e21 a5bf bf74 413f 2324 883f
00000100: 7311 a8be 6117 7cbe 666e d6be c1ef 543e
00000110: 196c 723e 7f20 4f3e 224d 9abe 08b2 c63e
00000120: 6318 5dbf cd1f 133f 73f9 353f 7b57 1e3d
00000130: 17b1 12bf 8341 513f 2066 c7be 3430 d1be
00000140: c284 75bf ea78 3fbf c5c6 cbbe 44f3 98be
00000150: 49c9 103f a17b 7abf 4dcc d43e 39e4 683e
00000160: 7289 813e e7e7 ff3e 9b66 a3bf 1375 25be
00000170: 3f85 713d 76f9 12bf d47a fb3f 0506 2ebe
00000180: fd38 8ebf 4abe 5cbe 7663 3c3e 802d b73f
00000190: 97f8 163f 02e1 01be 84c4 2d3d fd0f 943d
000001a0: 1115 fbbe 8c35 cdbe 7778 cd3e 9963 c63f
000001b0: 51c9 ae3e 3504 a2bf ed27 0e3d 2f57 94bd
000001c0: 9442 4bbf 89e7 f83e c489 813f 53f2 423d
000001d0: 30e2 18bf ea3e d53d 2757 ec3d 08c8 893e
000001e0: cbdc 7cbd a0a5 2dbc 643f 9ebe 3884 91be
000001f0: 1b7b 583f d18f 8f3e 2b74 b4bf 06b1 aa3f
00000200: 35a0 da3e 7cc1 47bf fee1 513e 4f39 09bf
00000210: 08ba 353f 3725 b4bf a87f d2be 5510 bb3e
00000220: 37e3 73be bffb 753f 570a c3bf 2f0b f63d
00000230: 80f4 cbbe b48f 10bf 87ff 32bf 2f1f 933f
00000240: 8cbe 213f 9955 cc3d 44ee 42be a78d c8be
00000250: 24ae acbd 9ea5 39bf d65f 823f 5776 9f3e
00000260: 961c c4bf 756b c93e 2b6f ffbe dedf c73d
00000270: fe4c 34bf d58d c83e 2eed 833e f9f1 1abf
00000280: c7dd e33d 2fc3 353e de4f fdbe b532 0d3c
00000290: ea9b 2c3e 9f1e c3be dbb3 4e3f 21c4 93be
000002a0: 0f42 1ebf 5ed1 213f 52b9 0ebf c9f8 803d
000002b0: f16c 1dbf f329 d63d f8e3 213e 3bc0 9d3f
000002c0: 9601 0b3f 56f1 a0bf 12bd 5cbf 0bd1 c03e
000002d0: ffcf c2bf 2a8c 8bbe eef9 b83f 8438 0a3f
000002e0: 9d82 47bf 6d3f dbbf 5936 e83e b218 023f
000002f0: cfda 803f 276f b1be 8add a33e b713 023e
00000300: 44d8 88bf 7f73 5dbf 211e abbe 24ba 923d
00000310: 8fa7 e8be 8c37 113e 9971 bc3c d15c a83f
00000320: f852 f13e 59da 1dbf 0adb aebe 0b1d 843f
00000330: 3b75 93be e3bc b1bf 4ed1 243f 7c75 d0be
00000340: 8981 c43e 107c 303f e64b bfbe c680 f6be
00000350: 7a64 eabd 05a0 20bf bd86 a93f eca8 71bf
00000360: 688b 3a3f eb42 aa3f 0a10 b4be 3e40 68bf
00000370: cb2f 123d 6813 93be c2f1 073c 6da1 4c3e
00000380: 5bd6 a83d dd18 c6be 5b07 3c3f 34d6 53bf
00000390: 46bf b63e ba12 033e bac6 143f fe7e 6cbf
000003a0: ffc1 943f ba05 3fbc 1233 3ebf 9f77 08bf
000003b0: 0eae bdbe a35b 58bf fd85 f5be d512 193f
000003c0: b079 ca3d 0081 2abf 8998 35be d26a 153f
000003d0: 6996 15bf 75ee 403f f691 50bf 3462 083e
000003e0: 7135 3c3e 8f0c 203d fa1e 29bf 1425 26bf
000003f0: 4d85 68bc 11bd ce3e 55e8 423f 6ccf 82bd

sequential.0.Lambda.bias f4 [80]
0.11334932 -0.4634051 -0.36744457 0.114605956 -0.16631125 -0.32816926 -0.07327897 -0.21684602
0.15161546 -0.28541464 0.62287784 -0.26895696 -0.31795737 -0.30524257 -0.46036562 -0.603565
-0.39406863 -0.47198796 0.3553958 -0.03546885 -0.12062272 0.18766752 -0.700069 -0.018690394
0.4052741 -0.13227457 -0.12949264 -0.011213299 -0.48671505 -0.013498096 -0.25354052 -0.31835288
-0.14557862 -0.044297256 -0.47021982 -0.13158248 0.27663922 -0.45883885 -0.0064876713 -0.2316043
-0.19327332 -0.32791013 0.39138517 0.07739636 -0.27500457 -0.14287886 0.02100638 -0.11641806
-0.2442383 -0.14941432 -0.34916836 -0.18644172 -0.2475948 -0.5359754 -0.252455 0.1948882
0.53343785 -0.090826906 -0.5317961 -0.18244493 0.1312725 -0.2244016 -0.7514374 -0.14973696
-0.44739422 -0.43995318 -0.30475765 -0.09568698 -0.8261344 -0.24236816 -0.58459157 -0.069834456
-0.43932214 0.08340829 0.08014396 -0.5454527 -0.043716144 -0.0031487043 -0.226401 0.11291867
00000000: b023 e83d 6f43 edbe b221 bcbe 87b6 ea3d
00000010: 7f4d 2abe cd05 a8be 4913 96bd e20c 5ebe
00000020: 1541 1b3e de21 92be ec74 1f3f bab4 89be
00000030: 4fcb a2be c148 9cbe 0bb5 ebbe 3c83 1abf
00000040: 5dc3 c9be 68a8 f1be 70f6 b53e c947 11bd
00000050: 0b09 f7bd ea2b 403e b937 33bf 991c 99bc
00000060: 1680 cf3e fc72 07be b899 04be fcb7 37bc
00000070: b732 f9be 1e27 5dbc 10d0 81be 26ff a2be
00000080: 9012 15be 0a71 35bd a7c0 f0be 8fbd 06be
00000090: a8a3 8d3e edec eabe 8896 d4bb ad29 6dbe
000000a0: 71e9 45be d6e3 a7be a363 c83e fc81 9e3d
000000b0: 66cd 8cbe d64e 12be 9215 ac3c 986c eebd
000000c0: 9b19 7abe 1100 19be 32c6 b2be 94ea 3ebe
000000d0: 7e89 7dbe af35 09bf c841 81be c690 473e
000000e0: 628f 083f 7503 babd ca23 08bf d8d2 3abe
000000f0: 4c6c 063e 88c9 65be 345e 40bf a554 19be
00000100: db10 e5be 8b41 e1be 3209 9cbe 89f7 c3bd
00000110: 8b7d 53bf 5c2f 78be cba7 15bf 5e05 8fbd
00000120: d5ee e0be f7d1 aa3d 8422 a43d caa2 0bbf
00000130: b30f 33bd 7e5a 4ebb aad5 67be e741 e73d

sequential.0.bn.running_mean f4 [80]
0.0 0.0 0.0 0.0 0.0 0.0 0.0 0.0
0.0 0.0 0.0 0.0 0.0 0.0 0.0 0.0
0.0 0.0 0.0 0.0 0.0 0.0 0.0 0.0
0.0 0.0 0.0 0.0 0.0 0.0 0.0 0.0
0.0 0.0 0.0 0.0 0.0 0.0 0.0 0.0
0.0 0.0 0.0 0.0 0.0 0.0 0.0 0.0
0.0 0.0 0.0 0.0 0.0 0.0 0.0 0.0
0.0 0.0 0.0 0.0 0.0 0.0 0.0 0.0
0.0 0.0 0.0 0.0 0.0 0.0 0.0 0.0
0.0 0.0 0.0 0.0 0.0 0.0 0.0 0.0
00000000: 0000 0000 0000 0000 0000 0000 0000 0000
00000010: 0000 0000 0000 0000 0000 0000 0000 0000
00000020: 0000 0000 0000 0000 0000 0000 0000 0000
00000030: 0000 0000 0000 0000 0000 0000 0000 0000
00000040: 0000 0000 0000 0000 0000 0000 0000 0000
00000050: 0000 0000 0000 0000 0000 0000 0000 0000
00000060: 0000 0000 0000 0000 0000 0000 0000 0000
00000070: 0000 0000 0000 0000 0000 0000 0000 0000
00000080: 0000 0000 0000 0000 0000 0000 0000 0000
00000090: 0000 0000 0000 0000 0000 0000 0000 0000
000000a0: 0000 0000 0000 0000 0000 0000 0000 0000
000000b0: 0000 0000 0000 0000 0000 0000 0000 0000
000000c0: 0000 0000 0000 0000 0000 0000 0000 0000
000000d0: 0000 0000 0000 0000 0000 0000 0000 0000
000000e0: 0000 0000 0000 0000 0000 0000 0000 0000
000000f0: 0000 0000 0000 0000 0000 0000 0000 0000
00000100: 0000 0000 0000 0000 0000 0000 0000 0000
00000110: 0000 0000 0000 0000 0000 0000 0000 0000
00000120: 0000 0000 0000 0000 0000 0000 0000 0000
00000130: 0000 0000 0000 0000 0000 0000 0000 0000

sequential.0.bn.running_var f4 [80]
1.0 1.0 1.0 1.0 1.0 1.0 1.0 1.0
1.0 1.0 1.0 1.0 1.0 1.0 1.0 1.0
1.0 1.0 1.0 1.0 1.0 1.0 1.0 1.0
1.0 1.0 1.0 1.0 1.0 1.0 1.0 1.0
1.0 1.0 1.0 1.0 1.0 1.0 1.0 1.0
1.0 1.0 1.0 1.0 1.0 1.0 1.0 1.0
1.0 1.0 1.0 1.0 1.0 1.0 1.0 1.0
1.0 1.0 1.0 1.0 1.0 1.0 1.0 1.0
1.0 1.0 1.0 1.0 1.0 1.0 1.0 1.0
1.0 1.0 1.0 1.0 1.0 1.0 1.0 1.0
00000000: 0000 803f 0000 803f 0000 803f 0000 803f
00000010: 0000 803f 0000 803f 0000 803f 0000 803f
00000020: 0000 803f 0000 803f 0000 803f 0000 803f
00000030: 0000 803f 0000 803f 0000 803f 0000 803f
00000040: 0000 803f 0000 803f 0000 803f 0000 803f
00000050: 0000 803f 0000 803f 0000 803f 0000 803f
00000060: 0000 803f 0000 803f 0000 803f 0000 803f
00000070: 0000 803f 0000 803f 0000 803f 0000 803f
00000080: 0000 803f 0000 803f 0000 803f 0000 803f
00000090: 0000 803f 0000 803f 0000 803f 0000 803f
000000a0: 0000 803f 0000 803f 0000 803f 0000 803f
000000b0: 0000 803f 0000 803f 0000 803f 0000 803f
000000c0: 0000 803f 0000 803f 0000 803f 0000 803f
000000d0: 0000 803f 0000 803f 0000 803f 0000 803f
000000e0: 0000 803f 0000 803f 0000 803f 0000 803f
000000f0: 0000 803f 0000 803f 0000 803f 0000 803f
00000100: 0000 803f 0000 803f 0000 803f 0000 803f
00000110: 0000 803f 0000 803f 0000 803f 0000 803f
00000120: 0000 803f 0000 803f 0000 803f 0000 803f
00000130: 0000 803f 0000 803f 0000 803f 0000 803f

sequential.2.Gamma.weight f4 [120, 80]
0.09159402 0.28142452 -0.34186095 0.22595182 0.46325803 -0.4625463 0.21293785 0.3658906
0.07135175 -0.011416855 -0.0922588 0.04954637 -0.11455536 0.13162664 -0.091744885 0.0033050897
-0.40128985 0.425543 -0.22227654 0.073262475 0.17808527 -0.15540414 -0.34551445 0.12037685
-0.13514656 -0.18972428 0.032375243 -0.69821805 0.13629974 -0.14023678 0.08365353 -0.16655847
-0.4250521 0.3701066 0.523502 -0.42032328 0.35869327 -0.14552969 0.15829822 -0.5024071
-0.17880617 0.30654982 0.043285575 0.42306218 -0.21657011 0.24769227 0.10972666 0.5373773
0.41448823 0.028974468 -0.0014008261 -0.088709295 0.0632423 0.38375017 -0.083126046 0.14969616
0.2521635 0.27611673 -0.15971501 0.42175522 0.31956497 0.20905374 0.32482332 0.48583308
-0.18202005 0.5165417 0.45985585 0.17400247 -0.008449161 0.05491099 0.13560608 -0.38296813
0.057005785 0.46432933 0.58775514 0.38142008 0.38380754 -0.37587523 0.15413672 0.08774529
-0.19079691 0.054825507 0.40989298 -0.48409677 -0.060501385 0.02827439 -0.57470137 -0.14862737
-0.3541633 0.07176358 0.3738714 -0.24347295 -1.0147042 -1.6643053 -0.16102652 -0.052070484
-0.51835185 -0.19378088 -0.394769 -0.9433984 -0.8291797 0.064331084 -0.17128155 -1.893775
-0.19972683 0.24716325 0.041542076 -0.43882614 -0.38099015 -0.040420644 0.45428213 -0.19331825
0.08024583 0.14937514 -0.19196689 -0.01064455 -0.26617098 0.033515222 -0.116019994 -1.0327998
0.20860898 -0.23753595 -0.4791262 -0.4200409 -0.6061528 -0.36583352 0.12654261 -0.043281674
-0.30656448 0.18912596 -0.90642285 -0.28078327 0.05233654 0.19199952 -0.18627553 0.028850697
-0.560995 -0.21253069 -0.19376147 0.25021458 -0.333588 0.2568124 0.14464824 -0.14318143
-0.2972866 -0.20358619 -0.17323078 -0.8012405 -0.090606265 0.19571674 0.19597355 0.32074434
-0.13610372 -1.319127 -0.08952487 0.123770386 -0.68641275 -0.21904695 -0.38190886 -0.31597954
0.37203097 0.15736008 -0.13180211 -2.1317706 0.25329626 -0.011224155 -0.95759225 0.29921877
0.08037353 0.2735359 -0.15888558 -0.5260424 0.31200358 0.30166107 -0.29785818 -0.71034193
-0.3556741 -0.014747839 -0.44455788 -0.48202997 0.14549457 0.14646289 -0.012370184 0.07505335
0.06133824 0.8348692 -0.4733151 0.11365044 -0.42211092 -0.45236453 -0.046156455 -0.14463885
-0.21113744 -0.17739551 -0.51019716 -0.18380328 0.34763634 0.1622947 -0.010093645 0.21311595
-0.08369645 -0.060209744 -0.55819875 -0.36378396 0.015832605 -0.41401497 -0.5267683 0.07591642
-0.14435677 0.039592665 -0.15098825 -0.14777619 -0.32762614 -0.50218266 -0.29195818 -0.76443154
0.35544616 -0.52634674 0.10171587 -0.30873838 -0.168178 0.25254792 -0.10451897 0.35792387
0.16244629 0.23628713 -0.05501965 -1.1869881 0.17705943 -0.24058804 -0.1178119 0.1527507
0.16038932 -0.16902396 0.54316133 0.05527831 0.24346441 -0.4196002 0.15165794 0.020588947
-0.8574861 0.34616816 -0.35555226 -0.37011713 0.25839537 0.11652642 -0.045549594 0.4803147
-0.4115331 0.21402474 -0.36820096 -0.18018205 0.33537138 0.30939013 -0.3878253 -0.33765367
00000000: a595 bb3d e016 903e 6608 afbe ea5f 673e
00000010: 2830 ed3e ded2 ecbe 610c 5a3e 0356 bb3e
00000020: de20 923d c30d 3bbc 2ff2 bcbd 22f1 4a3d
00000030: 009c eabd 22c9 063e bee4 bbbd 349a 583b
00000040: dd75 cdbe c6e0 d93e 769c 63be a30a 963d
00000050: fc5b 363e 4322 1fbe 45e7 b0be 2388 f63d
00000060: dc63 0abe 1547 42be e79b 043d 6bbe 32bf
00000070: 2992 0b3e 3b9a 0fbe 8b52 ab3d 4e8e 2abe
00000080: 6ea0 d9be 9d7e bd3e 3a04 063f 9d34 d7be
00000090: a5a6 b73e bc05 15be ee18 223e c09d 00bf
000000a0: f718 37be 19f4 9c3e 374c 313d 9b9b d83e
000000b0: 8ec4 5dbe 0ba3 7d3e 5fb8 e03d 8f91 093f
000000c0: cd37 d43e dd5b ed3c ed9b b7ba 38ad b5bd
000000d0: 2e85 813d e77a c43e fd3d aabd f349 193e
000000e0: 931b 813e 2c5f 8d3e 558c 23be 4df0 d73e
000000f0: 059e a33e 2f12 563e 3e4f a63e 1dbf f83e
00000100: 7763 3abe 143c 043f 3a72 eb3e b42d 323e
00000110: 5a6e 0abc 59ea 603d 52dc 0a3e 6614 c4be
00000120: e67e 693d 93bc ed3e 1f77 163f 7e49 c33e
00000130: 6c82 c43e b872 c0be 04d6 1d3e cdb3 b33d
00000140: 4460 43be b690 603d 7edd d13e 88db f7be
00000150: 4dd0 77bd b29f e73c a11f 13bf c631 18be
00000160: e454 b5be c9f8 923d 126c bf3e f950 79be
00000170: d4e1 81bf f507 d5bf 23e4 24be dc47 55bd
00000180: b5b2 04bf 7f6e 46be 2a1f cabe 8f82 71bf
00000190: 1f45 54bf 04c0 833d 6e64 2fbe 3867 f2bf
000001a0: 3185 4cbe 5d18 7d3e 0628 2a3d d2ad e0be
000001b0: 2411 c3be 1e90 25bd ab97 e83e 38f5 45be
000001c0: ed57 a43d ccf5 183e f892 44be 7b66 2ebc
000001d0: 9047 88be 4247 093d e49b edbd c932 84bf
000001e0: 989d 553e a03c 73be 0750 f5be 9a0f d7be
000001f0: d42c 1bbf 884e bbbe 6394 013e 2048 31bd
00000200: 05f6 9cbe 3caa 413e 540b 68bf d3c2 8fbe
00000210: d75e 563d 869b 443e 03bf 3ebe 4c58 ec3c
00000220: 5e9d 0fbf a5a1 59be 6869 46be 201c 803e
00000230: 0ccc aabe ea7c 833e ab1e 143e 279e 12be
00000240: f335 98be e678 50be 6963 31be 191e 4dbf
00000250: c78f b9bd f869 483e 4aad 483e 9a38 a43e
00000260: c65e 0bbe 27d9 a8bf d158 b7bd 547b fd3d
00000270: bfb8 2fbf d84d 60be 8f89 c3be 12c8 a1be
00000280: d87a be3e 0023 213e 22f7 06be ee6e 08c0
00000290: 0cb0 813e 85e5 37bc c424 75bf 3433 993e
000002a0: e19a a43d e60c 8c3e e7b2 22be b7aa 06bf
000002b0: efbe 9f3e 5273 9a3e de80 98be f8d8 35bf
000002c0: ea1a b6be eca0 71bc 179d e3be a2cc f6be
000002d0: 87fc 143e 5efa 153e 50ac 4abc 92b5 993d
000002e0: ce3d 7b3d fdb9 553f 5b56 f2be 90c1 e83d
000002f0: ec1e d8be 539c e7be 8d0e 3dbd 351c 14be
00000300: 6a34 58be 2ba7 35be 489c 02bf ed36 3cbe
00000310: 64fd b13e 9530 263e d15f 25bc 113b 5a3e
00000320: 0b69 abbd 7e9e 76bd 1de6 0ebf e441 babe
00000330: 61b3 813c c5f9 d3be 4ada 06bf 117a 9b3d
00000340: 43d2 13be eb2b 223d aa9c 1abe a452 17be
00000350: 9dbe a7be 0b8f 00bf 8b7b 95be c9b1 43bf
00000360: 0afd b53e a9be 06bf 6950 d03d f512 9ebe
00000370: db36 2cbe f64d 813e 0b0e d6bd cc41 b73e
00000380: 5258 263e 41f5 713e 495c 61bd 3aef 97bf
00000390: 114f 353e b65c 76be 5e47 f1bd ae6a 1c3e
000003a0: 193d 243e 9e14 2dbe 9f0c 0b3f 826b 623d
000003b0: bc4e 793e d6d5 d6be 384c 1b3e 27aa a83c
000003c0: 3684 5bbf f43c b13e f20a b6be fe7f bdbe
000003d0: 664c 843e 67a5 ee3d 3692 3abd cfeb f53e
000003e0: 77b4 d2be 4d29 5b3e d684 bcbe a581 38be
000003f0: ccb5 ab3e 6268 9e3e 0a91 c6be f1e0 acbe

sequential.2.Gamma.bias f4 [120]
-0.016286032 0.13081118 -0.060169253 0.13292861 -0.06882231 0.053539887 -0.867516 -0.3224959
-0.27848125 -0.21711922 -0.45596597 -0.1671034 -0.2833899 -0.106941015 -0.08504762 0.027069306
-0.571543 -0.042869154 0.007081747 -0.50913584 -0.3179565 -0.14616595 -0.7748854 -0.024357785
-0.019247128 -0.36489868 0.0749101 -0.43221533 -0.3877515 -0.14547214 0.06325586 -0.079351425
-0.11702067 0.157717 -0.38675424 -0.42679983 -0.1488506 -0.3898814 -0.003987591 -0.07300407
0.014782386 -0.22925921 -0.06460335 -0.0032734738 0.20594338 -0.26446107 -0.107579805 -0.23251261
-0.079135865 0.09784559 -0.12654924 -0.12747675 -0.40852737 -0.30235502 -0.24695168 -0.19173674
0.015300423 -0.19967635 0.0022982287 -0.059756264 -0.17676635 -0.04440935 0.14782682 -0.24100752
-0.3404434 0.07247486 0.034923878 -0.06484714 -0.11324212 -0.20681395 -0.50081384 0.11964268
0.046202116 -0.12377786 -0.043831624 -0.12827846 -0.035289425 -0.10377995 0.14583056 -0.23111504
-0.089491196 -0.24188235 -0.07713774 -0.11821377 -0.056594487 -0.31896004 -0.31179827 -0.2934472
-0.030368378 -0.024190217 -0.102987856 0.23241787 -0.06249631 0.06777412 -0.403297 0.02578896
-0.29146227 -0.28905365 -0.013554037 -0.76317394 -0.5266095 -0.45630372 0.10516012 0.03818739
-0.1764313 -0.7394138 -0.025750078 0.06692677 0.11812043 0.003458462 -0.024639929 -0.05975012
0.011771325 -0.11402597 -0.26760063 -0.010238695 0.037656244 -0.09223281 -0.22191998 -0.21410534
00000000: 496a 85bc 5ef3 053e 0974 76bd 701e 083e
00000010: b6f2 8cbd a44c 5b3d 8715 5ebf 2f1e a5be
00000020: 1895 8ebe 8054 5ebe 5f74 e9be 271d 2bbe
00000030: 7b18 91be e403 dbbd 722d aebd 73c0 dd3c
00000040: a450 12bf 9197 2fbd 000e e83b ba56 02bf
00000050: 32cb a2be 87ac 15be e45e 46bf fa89 c7bc
00000060: 27ac 9dbc 00d4 babe 776a 993d 544b ddbe
00000070: 5d87 c6be a6f6 14be 4a8c 813d 0083 a2bd
00000080: 88a8 efbd 9180 213e a704 c6be 8285 dabe
00000090: 4b6c 18be 899e c7be 56aa 82bb 2883 95bd
000000a0: d231 723c edc2 6abe c34e 84bd c787 56bb
000000b0: d2e2 523e 7167 87be cd52 dcbd c917 6ebe
000000c0: fc11 a2bd 4563 c83d 2096 01be 4489 02be
000000d0: 802a d1be 47ce 9abe e7e0 7cbe a356 44be
000000e0: a0ae 7a3c f577 4cbe e19d 163b fcc2 74bd
000000f0: 3d02 35be 94e6 35bd ea5f 173e adca 76be
00000100: 994e aebe b36d 943d 570c 0f3d 94ce 84bd
00000110: 7ceb e7bd 09c7 53be 5635 00bf 3907 f53d
00000120: 6e3e 3d3d 3f7f fdbd ca88 33bd 6e5b 03be
00000130: a58b 10bd 958a d4bd 9b54 153e 6ca9 6cbe
00000140: 2947 b7bd 02b0 77be 64fa 9dbd 101a f2bd
00000150: 9fcf 67bd bb4e a3be 06a4 9fbe b63e 96be
00000160: 1bc7 f8bc 902a c6bc 4ceb d2bd f3fe 6d3e
00000170: 21fc 7fbd 28cd 8a3d f27c cebe 5e43 d33c
00000180: 8b3a 95be d7fe 93be c011 5ebc 5e5f 43bf
00000190: e1cf 06bf a4a0 e9be 305e d73d 616a 1c3d
000001a0: 68aa 34be 394a 3dbf d4f1 d2bc e710 893d
000001b0: 20e9 f13d 5da7 623b add9 c9bc 8bbc 74bd
000001c0: 84dc 403c 7386 e9bd f302 89be 33c0 27bc
000001d0: 6f3d 1a3d 8ee4 bcbd fe3e 63be 6e3e 5bbe

sequential.2.Lambda.weight f4 [120, 80]
0.20268567 -0.30670175 0.06171882 0.19973591 -0.23429589 -0.44166225 -0.04029782 0.10301608
0.3622003 -0.035772666 0.18165168 -0.04383935 -0.046660602 0.06771591 -0.15515015 -0.025819844
-0.35033813 -0.13215151 -0.3716315 -0.35421568 0.15048334 -0.19234073 -0.4981463 0.11970626
-0.069907166 0.0793645 -0.08093827 -0.18536082 -0.31611624 0.0014193965 -0.32862353 -0.26702422
0.22431697 -0.042517874 0.38819426 -0.16808467 -0.105215795 -0.09325772 -0.08289311 -0.21194172
0.27785596 0.14818726 0.027874209 0.069276474 -0.022875011 -0.18747357 0.25445732 0.20706384
0.053705934 -0.074983716 -0.24925956 0.24656904 0.011079415 -0.05554271 -0.33152336 0.2112674
0.37865207 -0.054635692 -0.32645723 0.33009323 0.26928976 -0.5105337 -0.2084418 0.05842936
-0.5967464 -0.5199396 0.23914114 0.2961475 -0.39397338 0.33102545 0.14592706 -0.05437964
-0.08393744 0.026220681 0.6556978 0.1460846 -0.3410871 0.16042636 -0.08638735 0.32193398
0.16373645 0.4877753 -0.32394385 -0.11788923 0.31190774 0.3285052 0.15779059 0.12591861
-0.9870008 0.19303662 -0.3558762 0.012059775 0.14542238 -0.06791851 -0.3234995 0.0981695
0.5376635 -0.12150055 0.19214885 -0.11533467 -0.16899891 -0.08991419 -0.07788581 -0.23212557
-0.40751216 0.11838908 0.17807075 -0.38040024 -0.06704329 -0.4525335 0.16487733 0.36516634
-0.07846366 0.41248634 0.17087351 -0.34665987 -0.16047293 0.35210297 0.026003702 -0.194997
-0.056132905 0.1458938 -0.07194519 -0.3465037 -0.8806107 0.34980083 0.38545582 -0.5349595
-0.25175482 0.19105522 0.12979284 -0.5267953 0.018815815 -0.13309276 0.37131718 0.61617255
-0.15205556 -0.44434702 -0.09262208 -0.11921494 -0.46077472 0.41747344 0.009282286 -0.3447445
-0.5325335 0.013226961 -0.027214544 -0.296158 0.48778626 -0.41353574 0.29437074 0.040847253
-0.3188497 -0.018182917 -0.12059273 0.09244518 -0.34781107 0.043299448 -0.16466771 -0.5001134
0.69584775 0.18691123 0.33706203 -0.85750544 0.13069911 -0.12188271 -0.30393258 0.41802517
0.116723225 0.14961165 -0.18790294 0.19144559 0.15574512 0.29077575 -0.15153669 -0.19188601
-0.07289363 0.0034266098 -0.22718799 -0.48102733 -0.22890961 0.72945875 0.4032197 0.10826331
0.24425408 0.3901144 -0.033953737 0.14672685 -0.3313257 0.33121622 -0.27749377 0.7277434
0.2514826 0.11821369 -0.38885656 0.3431431 0.46114185 0.10030919 0.03739779 -0.0014875255
-0.09497548 -0.33781296 -0.31406802 -0.021843297 0.11552892 -0.34332353 -0.33798367 0.1265085
0.011314512 -0.26299 -0.12582573 0.24671455 -0.19867666 -0.21146634 -0.7029476 -0.33050993
0.79884297 0.07006395 0.17164831 -0.12843327 -0.27323237 -0.26441804 -0.16964582 0.3821123
0.42834178 -0.53781545 -0.20742609 -0.7692521 -0.10909868 -0.340534 -0.102749415 0.2485982
-0.083740324 -0.09720217 0.92243356 0.093795404 -0.49375513 -0.2133889 0.06531659 0.14537328
0.52487886 0.3720425 -0.38917327 0.038798336 0.20324333 0.34817928 0.26213184 0.043947183
-0.31020746 0.14460023 -0.6791874 0.39386305 0.3610197 0.21277492 -0.53994113 -0.24324834
00000000: d58c 4f3e 0308 9dbe e0cc 7c3d 9287 4c3e
00000010: 43eb 6fbe 8e21 e2be 540f 25bd 18fa d23d
00000020: 5172 b93e 5c86 12bd e602 3a3e e490 33bd
00000030: 301f 3fbd a4ae 8a3d aedf 1ebe 2384 d3bc
00000040: 855f b3be ba52 07be 7c46 bebe c25b b5be
00000050: 4e18 1a3e f8f4 44be 080d ffbe 8e28 f53d
00000060: 7d2b 8fbd db89 a23d f7c2 a5bd 3acf 3dbe
00000070: fdd9 a1be 0b0b ba3a 5841 a8be 66b7 88be
00000080: 59b3 653e 3927 2ebd 66c1 c63e 631e 2cbe
00000090: 617b d7bd e7fd bebd ddc3 a9bd 4007 59be
000000a0: 2343 8e3e 67be 173e 7458 e43c d3e0 8d3d
000000b0: 6064 bbbc 12f9 3fbe 3b48 823e 8b08 543e
000000c0: c1fa 5b3d 1091 99bd e63d 7fbe 987c 7c3e
000000d0: 6f86 353c c180 63bd 6ebd a9be 7b56 583e
000000e0: afde c13e adc9 5fbd 6725 a7be fb01 a93e
000000f0: 59e0 893e 56b2 02bf c471 55be a053 6f3d
00000100: 5fc4 18bf c31a 05bf 6ae1 743e a5a0 973e
00000110: e1b6 c9be 2b7c a93e e76d 153e 2fbd 5ebd
00000120: 64e7 abbd c1cc d63c d0db 273f 3497 153e
00000130: f8a2 aebe cf46 243e daeb b0bd 88d4 a43e
00000140: 87aa 273e afbd f93e f8db a5be e96f f1bd
00000150: 5fb2 9f3e d531 a83e db93 213e cff0 003e
00000160: 16ac 7cbf 64ab 453e 6835 b6be 5d96 453c
00000170: 9be9 143e dc18 8bbd baa1 a5be 170d c93d
00000180: 51a4 093f 48d5 f8bd abc2 443e 9534 ecbd
00000190: 0d0e 2dbe ee24 b8bd 9882 9fbd 53b2 6dbe
000001a0: 6fa5 d0be f975 f23d 2e58 363e d2c3 c2be
000001b0: fe4d 89bd 79b2 e7be 9ad5 283e 15f7 ba3e
000001c0: 8eb1 a0bd 6931 d33e 77f9 2e3e 677d b1be
000001d0: 0453 24be d746 b43e b705 d53c 4bad 47be
000001e0: 9eeb 65bd 2f65 153e 0058 93bd ef68 b1be
000001f0: b46f 61bf 1819 b33e 775a c53e 1bf3 08bf
00000200: 02e6 80be fba3 433e 6ae8 043e 0fdc 06bf
00000210: a023 9a3c 7849 08be 491d be3e 7cbd 1d3f
00000220: 74b4 1bbe 7481 e3be a5b0 bdbd f626 f4bd
00000230: aaea ebbe 14bf d53e bb14 183c 5a82 b0be
00000240: 1e54 08bf e5b5 583c 09f1 debc 05a2 97be
00000250: 1fbf f93e f5ba d3be c3b7 963e 734f 273d
00000260: 4540 a3be 57f4 94bc 52f9 f6bd e653 bd3d
00000270: 4b14 b2be c35a 313d a79e 28be 6f07 00bf
00000280: 1423 323f a865 3f3e 6593 ac3e 7a85 5bbf
00000290: fdd5 053e a49d f9bd 0d9d 9bbe 6507 d63e
000002a0: 960c ef3d cc33 193e a169 40be 500a 443e
000002b0: a67b 1f3e 8fe0 943e 6f2c 1bbe c47d 44be
000002c0: 4149 95bd f990 603b f8a3 68be 3749 f6be
000002d0: 4867 6abe cfbd 3a3f d072 ce3e 27b9 dd3d
000002e0: be1d 7a3e 13bd c73e 1313 0bbd 903f 163e
000002f0: 86a3 a9be 2c95 a93e aa13 8ebe 644d 3a3f
00000300: 54c2 803e 051a f23d 3518 c7be 74b0 af3e
00000310: c91a ec3e e86e cd3d 6d2e 193d 13f9 c2ba
00000320: 8182 c2bd d2f5 acbe 86cd a0be b7f0 b2bc
00000330: 6d9a ec3d 1ac8 afbe 320c adbe 728b 013e
00000340: 8160 393c a0a6 86be 76d8 00be bda2 7c3e
00000350: e571 4bbe a28a 58be 60f4 33bf 9938 a9be
00000360: f980 4c3f b07d 8f3d 93c4 2f3e 0384 03be
00000370: 1de5 8bbe cd61 87be a2b7 2dbe 39a4 c33e
00000380: 9d4f db3e 46ae 09bf 8167 54be b5ed 44bf
00000390: 216f dfbd 795a aebe 496e d2bd 8790 7e3e
000003a0: 0c80 abbd ee11 c7bd 9b24 6c3f ce17 c03d
000003b0: 79cd fcbe 9f82 5abe b4c4 853d bcdc 143e
000003c0: 765e 063f 5b7c be3e b841 c7be 01eb 1e3d
000003d0: 051f 503e 8e44 b23e 2536 863e f601 343d
000003e0: 83d3 9ebe 1512 143e 3adf 2dbf 6ba8 c93e
000003f0: 93d7 b83e abe1 593e 9539 0abf 1816 79be

sequential.2.Lambda.bias f4 [120]
-0.016286032 0.13081118 -0.060169253 0.13292861 -0.06882231 0.053539887 -0.867516 -0.3224959
-0.27848125 -0.21711922 -0.45596597 -0.1671034 -0.2833899 -0.106941015 -0.08504762 0.027069306
-0.571543 -0.042869154 0.007081747 -0.50913584 -0.3179565 -0.14616595 -0.7748854 -0.024357785
-0.019247128 -0.36489868 0.0749101 -0.43221533 -0.3877515 -0.14547214 0.06325586 -0.079351425
-0.11702067 0.157717 -0.38675424 -0.42679983 -0.1488506 -0.3898814 -0.003987591 -0.07300407
0.014782386 -0.22925921 -0.06460335 -0.0032734738 0.20594338 -0.26446107 -0.107579805 -0.23251261
-0.079135865 0.09784559 -0.12654924 -0.12747675 -0.40852737 -0.30235502 -0.24695168 -0.19173674
0.015300423 -0.19967635 0.0022982287 -0.059756264 -0.17676635 -0.04440935 0.14782682 -0.24100752
-0.3404434 0.07247486 0.034923878 -0.06484714 -0.11324212 -0.20681395 -0.50081384 0.11964268
0.046202116 -0.12377786 -0.043831624 -0.12827846 -0.035289425 -0.10377995 0.14583056 -0.23111504
-0.089491196 -0.24188235 -0.07713774 -0.11821377 -0.056594487 -0.31896004 -0.31179827 -0.2934472
-0.030368378 -0.024190217 -0.102987856 0.23241787 -0.06249631 0.06777412 -0.403297 0.02578896
-0.29146227 -0.28905365 -0.013554037 -0.76317394 -0.5266095 -0.45630372 0.10516012 0.03818739
-0.1764313 -0.7394138 -0.025750078 0.06692677 0.11812043 0.003458462 -0.024639929 -0.05975012
0.011771325 -0.11402597 -0.26760063 -0.010238695 0.037656244 -0.09223281 -0.22191998 -0.21410534
00000000: 496a 85bc 5ef3 053e 0974 76bd 701e 083e
00000010: b6f2 8cbd a44c 5b3d 8715 5ebf 2f1e a5be
00000020: 1895 8ebe 8054 5ebe 5f74 e9be 271d 2bbe
00000030: 7b18 91be e403 dbbd 722d aebd 73c0 dd3c
00000040: a450 12bf 9197 2fbd 000e e83b ba56 02bf
00000050: 32cb a2be 87ac 15be e45e 46bf fa89 c7bc
00000060: 27ac 9dbc 00d4 babe 776a 993d 544b ddbe
00000070: 5d87 c6be a6f6 14be 4a8c 813d 0083 a2bd
00000080: 88a8 efbd 9180 213e a704 c6be 8285 dabe
00000090: 4b6c 18be 899e c7be 56aa 82bb 2883 95bd
000000a0: d231 723c edc2 6abe c34e 84bd c787 56bb
000000b0: d2e2 523e 7167 87be cd52 dcbd c917 6ebe
000000c0: fc11 a2bd 4563 c83d 2096 01be 4489 02be
000000d0: 802a d1be 47ce 9abe e7e0 7cbe a356 44be
000000e0: a0ae 7a3c f577 4cbe e19d 163b fcc2 74bd
000000f0: 3d02 35be 94e6 35bd ea5f 173e adca 76be
00000100: 994e aebe b36d 943d 570c 0f3d 94ce 84bd
00000110: 7ceb e7bd 09c7 53be 5635 00bf 3907 f53d
00000120: 6e3e 3d3d 3f7f fdbd ca88 33bd 6e5b 03be
00000130: a58b 10bd 958a d4bd 9b54 153e 6ca9 6cbe
00000140: 2947 b7bd 02b0 77be 64fa 9dbd 101a f2bd
00000150: 9fcf 67bd bb4e a3be 06a4 9fbe b63e 96be
00000160: 1bc7 f8bc 902a c6bc 4ceb d2bd f3fe 6d3e
00000170: 21fc 7fbd 28cd 8a3d f27c cebe 5e43 d33c
00000180: 8b3a 95be d7fe 93be c011 5ebc 5e5f 43bf
00000190: e1cf 06bf a4a0 e9be 305e d73d 616a 1c3d
000001a0: 68aa 34be 394a 3dbf d4f1 d2bc e710 893d
000001b0: 20e9 f13d 5da7 623b add9 c9bc 8bbc 74bd
000001c0: 84dc 403c 7386 e9bd f302 89be 33c0 27bc
000001d0: 6f3d 1a3d 8ee4 bcbd fe3e 63be 6e3e 5bbe

sequential.2.bn.running_mean f4 [120]
0.0 0.0 0.0 0.0 0.0 0.0 0.0 0.0
0.0 0.0 0.0 0.0 0.0 0.0 0.0 0.0
0.0 0.0 0.0 0.0 0.0 0.0 0.0 0.0
0.0 0.0 0.0 0.0 0.0 0.0 0.0 0.0
0.0 0.0 0.0 0.0 0.0 0.0 0.0 0.0
0.0 0.0 0.0 0.0 0.0 0.0 0.0 0.0
0.0 0.0 0.0 0.0 0.0 0.0 0.0 0.0
0.0 0.0 0.0 0.0 0.0 0.0 0.0 0.0
0.0 0.0 0.0 0.0 0.0 0.0 0.0 0.0
0.0 0.0 0.0 0.0 0.0 0.0 0.0 0.0
0.0 0.0 0.0 0.0 0.0 0.0 0.0 0.0
0.0 0.0 0.0 0.0 0.0 0.0 0.0 0.0
0.0 0.0 0.0 0.0 0.0 0.0 0.0 0.0
0.0 0.0 0.0 0.0 0.0 0.0 0.0 0.0
0.0 0.0 0.0 0.0 0.0 0.0 0.0 0.0
00000000: 0000 0000 0000 0000 0000 0000 0000 0000
00000010: 0000 0000 0000 0000 0000 0000 0000 0000
00000020: 0000 0000 0000 0000 0000 0000 0000 0000
00000030: 0000 0000 0000 0000 0000 0000 0000 0000
00000040: 0000 0000 0000 0000 0000 0000 0000 0000
00000050: 0000 0000 0000 0000 0000 0000 0000 0000
00000060: 0000 0000 0000 0000 0000 0000 0000 0000
00000070: 0000 0000 0000 0000 0000 0000 0000 0000
00000080: 0000 0000 0000 0000 0000 0000 0000 0000
00000090: 0000 0000 0000 0000 0000 0000 0000 0000
000000a0: 0000 0000 0000 0000 0000 0000 0000 0000
000000b0: 0000 0000 0000 0000 0000 0000 0000 0000
000000c0: 0000 0000 0000 0000 0000 0000 0000 0000
000000d0: 0000 0000 0000 0000 0000 0000 0000 0000
000000e0: 0000 0000 0000 0000 0000 0000 0000 0000
000000f0: 0000 0000 0000 0000 0000 0000 0000 0000
00000100: 0000 0000 0000 0000 0000 0000 0000 0000
00000110: 0000 0000 0000 0000 0000 0000 0000 0000
00000120: 0000 0000 0000 0000 0000 0000 0000 0000
00000130: 0000 0000 0000 0000 0000 0000 0000 0000
00000140: 0000 0000 0000 0000 0000 0000 0000 0000
00000150: 0000 0000 0000 0000 0000 0000 0000 0000
00000160: 0000 0000 0000 0000 0000 0000 0000 0000
00000170: 0000 0000 0000 0000 0000 0000 0000 0000
00000180: 0000 0000 0000 0000 0000 0000 0000 0000
00000190: 0000 0000 0000 0000 0000 0000 0000 0000
000001a0: 0000 0000 0000 0000 0000 0000 0000 0000
000001b0: 0000 0000 0000 0000 0000 0000 0000 0000
000001c0: 0000 0000 0000 0000 0000 0000 0000 0000
000001d0: 0000 0000 0000 0000 0000 0000 0000 0000

sequential.2.bn.running_var f4 [120]
1.0 1.0 1.0 1.0 1.0 1.0 1.0 1.0
1.0 1.0 1.0 1.0 1.0 1.0 1.0 1.0
1.0 1.0 1.0 1.0 1.0 1.0 1.0 1.0
1.0 1.0 1.0 1.0 1.0 1.0 1.0 1.0
1.0 1.0 1.0 1.0 1.0 1.0 1.0 1.0
1.0 1.0 1.0 1.0 1.0 1.0 1.0 1.0
1.0 1.0 1.0 1.0 1.0 1.0 1.0 1.0
1.0 1.0 1.0 1.0 1.0 1.0 1.0 1.0
1.0 1.0 1.0 1.0 1.0 1.0 1.0 1.0
1.0 1.0 1.0 1.0 1.0 1.0 1.0 1.0
1.0 1.0 1.0 1.0 1.0 1.0 1.0 1.0
1.0 1.0 1.0 1.0 1.0 1.0 1.0 1.0
1.0 1.0 1.0 1.0 1.0 1.0 1.0 1.0
1.0 1.0 1.0 1.0 1.0 1.0 1.0 1.0
1.0 1.0 1.0 1.0 1.0 1.0 1.0 1.0
00000000: 0000 803f 0000 803f 0000 803f 0000 803f
00000010: 0000 803f 0000 803f 0000 803f 0000 803f
00000020: 0000 803f 0000 803f 0000 803f 0000 803f
00000030: 0000 803f 0000 803f 0000 803f 0000 803f
00000040: 0000 803f 0000 803f 0000 803f 0000 803f
00000050: 0000 803f 0000 803f 0000 803f 0000 803f
00000060: 0000 803f 0000 803f 0000 803f 0000 803f
00000070: 0000 803f 0000 803f 0000 803f 0000 803f
00000080: 0000 803f 0000 803f 0000 803f 0000 803f
00000090: 0000 803f 0000 803f 0000 803f 0000 803f
000000a0: 0000 803f 0000 803f 0000 803f 0000 803f
000000b0: 0000 803f 0000 803f 0000 803f 0000 803f
000000c0: 0000 803f 0000 803f 0000 803f 0000 803f
000000d0: 0000 803f 0000 803f 0000 803f 0000 803f
000000e0: 0000 803f 0000 803f 0000 803f 0000 803f
000000f0: 0000 803f 0000 803f 0000 803f 0000 803f
00000100: 0000 803f 0000 803f 0000 803f 0000 803f
00000110: 0000 803f 0000 803f 0000 803f 0000 803f
00000120: 0000 803f 0000 803f 0000 803f 0000 803f
00000130: 0000 803f 0000 803f 0000 803f 0000 803f
00000140: 0000 803f 0000 803f 0000 803f 0000 803f
00000150: 0000 803f 0000 803f 0000 803f 0000 803f
00000160: 0000 803f 0000 803f 0000 803f 0000 803f
00000170: 0000 803f 0000 803f 0000 803f 0000 803f
00000180: 0000 803f 0000 803f 0000 803f 0000 803f
00000190: 0000 803f 0000 803f 0000 803f 0000 803f
000001a0: 0000 803f 0000 803f 0000 803f 0000 803f
000001b0: 0000 803f 0000 803f 0000 803f 0000 803f
000001c0: 0000 803f 0000 803f 0000 803f 0000 803f
000001d0: 0000 803f 0000 803f 0000 803f 0000 803f

sequential.4.Gamma.weight f4 [70, 120]
0.0050308164 -0.09389152 -0.11951155 -0.24998778 -0.06659448 -0.49160185 0.11036072 -0.001938244
0.1086316 -0.24522538 0.14172475 0.21927051 0.11601965 0.034713924 -0.19720061 0.15451711
-0.37671107 -0.08181424 -1.1490124 -0.05908983 0.32548332 -0.5718555 0.079296246 -0.6085925
-0.47824183 0.6214903 -0.57463783 0.17016128 -1.0181972 -0.14753103 -0.31386375 -0.054590225
0.036372937 0.006433529 -0.024661545 0.15854403 -1.0411288 -0.60920775 0.29154187 -1.3572792
-0.22468656 0.24995196 -0.078327715 0.06910645 0.13217145 -0.54396224 0.033955574 -1.1674347
0.3511598 -0.5418601 -0.3813121 -0.06651594 0.09776609 -0.18526162 -0.39646155 -0.38691327
-0.8868574 -0.015562746 -0.4593778 -0.5443213 0.11128323 -0.40874758 -0.0803264 -0.19223154
-0.1251472 -0.64541453 -0.7861228 -0.29988316 -0.42630276 0.17660876 0.27340683 -0.33814505
-0.68013537 -0.07243312 -0.16752665 1.5025711e-05 -0.47310513 -0.078867696 -0.65157366 -0.92475307
0.16995265 -0.8627172 0.19180594 -0.13979787 -0.7007356 -0.136369 0.03015837 0.23756225
-0.2371752 -0.33372927 -0.32339934 -0.25387293 0.047468964 -0.23695111 -0.0055886107 0.2788018
0.46109736 -0.080449715 0.07079533 0.050810218 -0.020497689 -0.31020904 0.1094081 -0.26162755
-0.32328284 0.13852304 -0.44143614 0.017036164 -0.51504546 -0.32014146 -0.8393798 -0.024973614
-0.5507003 0.0051280083 -0.41379473 -0.86594176 -0.5728032 -0.68239427 -0.7380871 -0.892402
-0.22840516 0.050774343 0.18325062 0.30638206 -0.14654554 0.31533572 -0.28350264 0.62509906
-0.06299064 0.31094855 -0.21636829 0.36757064 0.11354281 0.21032289 -0.46832037 0.30543286
0.51044023 0.29066592 0.15952946 -0.5860522 0.21340415 -0.40371427 -0.3352001 -0.010232276
0.41961947 0.38967898 0.09737855 -0.0075859167 0.25697696 0.19275771 0.24112749 -0.058257207
-0.44110468 0.6323753 -0.78382695 -0.27732426 0.02169269 0.4398329 0.24391319 0.1952663
-0.05955973 0.117587775 -0.29138303 0.4180406 -0.011907193 0.09197941 0.3517538 -0.3001977
0.31426147 0.32889086 -0.06887854 -0.23687495 -0.17175932 0.065125905 0.015683107 -0.38572043
-0.22433537 0.17834036 -0.13293064 0.09478368 0.06640597 0.2145793 -0.3515064 0.12114809
-0.12268415 0.17114934 -0.21385884 0.24011861 -0.59048855 -0.08464276 0.019420698 -0.20246409
0.014352118 -0.106381826 0.28326032 -0.40438095 0.26606947 -0.017096637 0.18399608 0.7537385
-0.6873617 -0.15617652 0.5426576 -0.1860296 -0.13591287 0.3368137 -0.16539146 0.083479166
0.14470764 -0.19780633 -0.26302245 -0.3906759 0.14587492 -0.1971186 0.3584953 0.2804167
0.5217555 -0.0254863 -0.06367029 -0.10897257 -0.14997621 -0.024324635 0.46402967 0.6703107
-0.09438038 0.2770112 -0.016513197 -0.15137908 -0.23097937 0.45278227 -0.2611485 -0.27347898
0.14537305 0.065768704 0.07070389 -0.16548558 -0.009123018 0.11328165 0.40008673 0.46707478
-0.1368284 -0.32681975 0.06145037 0.072398 -0.1005158 -0.19007942 0.04994717 0.34548756
-0.38536963 -0.061836135 0.06953012 0.6263856 -0.3700903 -0.18224902 0.32457027 -0.5076118
00000000: 8cd9 a43b 324a c0bd 79c2 f4bd ccfc 7fbe
00000010: b062 88bd 3db3 fbbe cd04 e23d ad0c feba
00000020: 3f7a de3d 5d1c 7bbe 4b20 113e 7388 603e
00000030: b69b ed3d 3030 0e3d f5ee 49be bc39 1e3e
00000040: 46e0 c0be 398e a7bd d712 93bf 2d08 72bd
00000050: c0a5 a63e 1f65 12bf 1266 a23d b8cc 1bbf
00000060: 1ddc f4be fd19 1f3f 771b 13bf c23e 2e3e
00000070: 4954 82bf 6012 17be c0b2 a0be 009a 5fbd
00000080: cafb 143d 5ad0 d23b 0207 cabc 5e59 223e
00000090: b543 85bf 0af5 1bbf fa44 953e 53bb adbf
000000a0: 3c14 66be 68f3 7f3e 486a a0bd af87 8d3d
000000b0: f457 073e 1c41 0bbf 0015 0b3d 806e 95bf
000000c0: 38cb b33e 58b7 0abf 573b c3be 8239 88bd
000000d0: 9639 c83d 39b5 3dbe 02fd cabe 7f19 c6be
000000e0: 1609 63bf e3fa 7ebc 9133 ebbe a458 0bbf
000000f0: 76e8 e33d 5d47 d1be 2b82 a4bd 58d8 44be
00000100: 9626 00be e339 25bf 583f 49bf 498a 99be
00000110: 5b44 dabe edd8 343e fbfb 8b3e 5921 adbe
00000120: 5a1d 2ebf d157 94bd 1b8c 2bbe f016 7c37
00000130: d63a f2be 6385 a1bd 88cd 26bf 9ebc 6cbf
00000140: 1108 2e3e 09db 5cbf c768 443e 2c27 0fbe
00000150: 6963 33bf 51a4 0bbe b00e f73c 8543 733e
00000160: 0ede 72be 90de aabe 9994 a5be a2fb 81be
00000170: d16e 423d 50a3 72be aa20 b7bb 1cbf 8e3e
00000180: f414 ec3e d2c2 a4bd 24fd 903d 601e 503d
00000190: c5ea a7bc b8d3 9ebe 5b11 e03d 0cf4 85be
000001a0: 5485 a5be fcd8 0d3e eb03 e2be 6d8f 8b3c
000001b0: 05da 03bf 95e9 a3be 98e1 56bf 7795 ccbc
000001c0: b2fa 0cbf da08 a83b e7dc d3be 5cae 5dbf
000001d0: 3ba3 12bf 64b1 2ebf 47f3 3cbf 7574 64bf
000001e0: 0be3 69be c2f8 4f3d 0da6 3b3e 1cde 9c3e
000001f0: 0910 16be af73 a13e 4227 91be 7e06 203f
00000200: 3d01 81bd a634 9f3e a68f 5dbe 3832 bc3e
00000210: 2289 e83d e25e 573e b0c7 efbe b261 9c3e
00000220: 36ac 023f 2ad2 943e b15b 233e 8407 16bf
00000230: 9e86 5a3e a3b3 cebe 599f abbe 47a5 27bc
00000240: 5dd8 d63e 0184 c73e 686e c73d 4893 f8bb
00000250: 7c92 833e 4762 453e 20ea 763e 1c9f 6ebd
00000260: 79d8 e1be 59e3 213f e2a8 48bf 72fd 8dbe
00000270: deb4 b13c c731 e13e 61c4 793e e4f3 473e
00000280: e7f4 73bd dcd1 f03d 2830 95be 6b09 d63e
00000290: 6316 43bc b35f bc3d 1319 b43e 83b3 99be
000002a0: e1e6 a03e 6264 a83e 3110 8dbd 598f 72be
000002b0: ade1 2fbe bb60 853d dc79 803c 267d c5be
000002c0: 2cb8 65be db9e 363e f81e 08be f21d c23d
000002d0: daff 873d adba 5b3e a6f8 b3be 7d1c f83d
000002e0: d441 fbbd c641 2f3e d0fd 5abe a7e1 753e
000002f0: 422a 17bf 2f59 adbd 2818 9f3c bf52 4fbe
00000300: 2525 6b3c b7de d9bd 7f07 913e 050b cfbe
00000310: 423a 883e 3f0e 8cbc 7869 3c3e 02f5 403f
00000320: f0f6 2fbf bdec 1fbe 9ceb 0a3f 8b7e 3ebe
00000330: be2c 0bbe d872 ac3e 615c 29be 20f7 aa3d
00000340: 3d2e 143e be8d 4abe e1aa 86be ac06 c8be
00000350: 3c60 153e 75d9 49be b28c b73e c792 8f3e
00000360: c591 053f a5c8 d0bc 9265 82bd 032d dfbd
00000370: 5d93 19be 7544 c7bc 4c95 ed3e 7b99 2b3f
00000380: 804a c1bd 69d4 8d3e af46 87bc 1e03 1bbe
00000390: db85 6cbe 14d3 e73e 42b5 85be 7005 8cbe
000003a0: acdc 143e beb1 863d 33cd 903d 0d75 29be
000003b0: b678 15bc 3600 e83d 2bd8 cc3e 6d24 ef3e
000003c0: be1c 0cbe eb54 a7be 62b3 7b3d 6745 943d
000003d0: 3adb cdbd 2ea4 42be 6795 4c3d bfe3 b03e
000003e0: 2b4f c5be e347 7dbd cf65 8e3d cf5a 203f
000003f0: 7a7c bdbe 7d9f 3abe 132e a63e d9f2 01bf

sequential.4.Gamma.bias f4 [70]
-0.31008708 -0.09474745 -0.010341252 -0.28485602 -0.13484764 -0.40144998 -0.3596542 -0.41499868
-0.2003782 -0.016158078 0.18120685 -0.17286392 0.06464471 -0.16435963 -0.27115738 -0.1712743
-0.08595839 -0.16886632 -0.12354672 -0.25093433 -0.16705962 0.0067278873 -0.3106967 -0.34645125
-0.32352734 0.18788044 -0.10471492 -0.40686858 -0.17889474 -0.29677334 -0.108562216 -0.1097836
-0.30096567 -0.068127364 -0.28673872 -0.32983968 -0.4478143 -0.34116602 0.016898228 -0.09852918
-0.21100776 -0.51476485 -0.38747317 -0.6277775 -0.29501674 -0.7143679 -0.16192675 -0.21115455
-0.35214514 -0.3791151 -0.35276455 -0.19551095 -0.6228307 -0.5546959 -0.10410027 -0.45117298
-0.24291618 -0.009251415 -0.08437081 -0.3700707 0.0068818294 -0.24900497 -0.15348265 -0.5393479
-0.2633108 -0.12428704 0.032866564 -0.21305008 -0.088958815 -0.5040922
00000000: bcc3 9ebe f30a c2bd 5b6e 29bc a6d8 91be
00000010: 8015 0abe da8a cdbe 9824 b8be b57a d4be
00000020: f12f 4dbe f25d 84bc 4a8e 393e 3d03 31be
00000030: 7264 843d e44d 28be 24d5 8abe 8862 2fbe
00000040: f40a b0bd 4beb 2cbe 1006 fdbd 777a 80be
00000050: ad11 2bbe 9c75 dc3b a313 9fbe 0f62 b1be
00000060: 60a5 a5be bb63 403e c774 d6bd 1451 d0be
00000070: 2f30 37be adf2 97be de55 debd 39d6 e0bd
00000080: 2c18 9abe 5c86 8bbd 6bcf 92be bfe0 a8be
00000090: ea47 e5be 50ad aebe 276e 8a3c abc9 c9bd
000000a0: 6b12 58be a1c7 03bf e262 c6be 07b6 20bf
000000b0: 6f0c 97be d1e0 36bf 20d0 25be e638 58be
000000c0: 5e4c b4be 601b c2be 8e9d b4be 0634 48be
000000d0: d571 1fbf 8d00 0ebf 8632 d5bd 2500 e7be
000000e0: 05bf 78be 3f93 17bc 9aca acbd e879 bdbe
000000f0: f880 e13b 29fb 7ebe 8e2a 1dbe b412 0abf
00000100: acd0 86be 348a febd 179f 063d cd29 5abe
00000110: 0a30 b6bd 300c 01bf
