Models/Z_10GeV_200_NE.pth (torch, 197402 bytes, 36 tensors)

sequential.0.Gamma.weight f4 [80, 4]
000000 73 bb b1 be 46 8c 91 3e b4 a6 9b be 89 56 ab 3f
       -0.34713325 0.28427333 -0.30400622 1.3385783
000010 3f 7f 99 bf 76 9f b7 3e 72 9f 8c 3e a2 92 90 3e
       -1.1991957 0.35863847 0.27465397 0.28236872
000020 07 23 6e bf 34 d7 22 be c7 67 00 bf 1a 42 87 3e
       -0.930222 -0.15902406 -0.5015835 0.2641762
000030 d5 f4 96 bf 3d 72 3d 3f a5 93 02 3e 47 4e 2e 3e
       -1.1793467 0.7400244 0.12751634 0.17022048
000040 78 20 65 be 0c a2 c0 bc 25 5d f7 bf 40 88 df 3f
       -0.22375667 -0.02351477 -1.93253 1.7463455
000050 2c 57 2e bf d6 d2 f5 3e 7b 15 05 bf da 66 0e bf
       -0.68101764 0.48012418 -0.519859 -0.5562569
000060 72 59 b1 3e d8 40 61 3e 73 28 23 3f 8e 1e f8 3e
       0.34638554 0.21997392 0.63733596 0.4846081
000070 c1 7f 99 3e db 27 2d bf 2d f5 01 be 83 35 1f 3e
       0.2998028 -0.6763894 -0.12691183 0.15547757
000080 c2 ac 5b 3e 2a ff 8b 3e a7 ec 6c 3f 99 1c 16 be
       0.2145262 0.27343112 0.925486 -0.14659347
000090 86 89 a6 3d 7b 1e a9 3f 41 0a fc 3e fb 5c 17 bf
       0.08131699 1.3212427 0.49226573 -0.5912625
0000a0 ff c5 12 bf e0 e0 78 3f 4b 28 aa bf 1b df ab 3f
       -0.5733337 0.9721813 -1.3293546 1.3427461
0000b0 74 a9 18 3f 73 94 35 bf 23 f1 84 3e 33 2d c9 be
       0.59633565 -0.7092964 0.25965223 -0.39292297
0000c0 d9 9e e1 bd c2 a4 bf 3e a1 f6 b2 3f 70 ba 04 c0
       -0.11016626 0.37430388 1.3981515 -2.0738792
0000d0 a6 2f 82 3e e2 1b a4 3e 8f 20 39 3f 51 d4 91 bf
       0.25426978 0.32052523 0.72315305 -1.1392919
0000e0 46 d0 9d 3e db 99 cc bd d2 fb a0 3f d3 d7 ae bf
       0.30822963 -0.09990283 1.257685 -1.3659614
0000f0 1f 54 aa 3e d6 44 e8 3e 2a dd 9a be 86 b7 87 3f
       0.33267304 0.45365018 -0.3024686 1.0602882
000100 1a 40 13 3f 68 15 9e 3f 25 06 89 bf d3 a3 f8 3f
       0.57519686 1.2350283 -1.0705 1.9424995
000110 09 35 51 bf b8 20 48 be fa 17 91 3e 4d 7b 8e 3f
       -0.8172155 -0.19543731 0.28338605 1.1131378
000120 e9 b7 70 3d 76 08 1f 3f f7 12 c6 3e 92 79 8d bf
       0.05876914 0.62122285 0.38686344 -1.1052725
000130 d2 71 00 3f 1b 09 0c 3f d3 e6 07 bf e1 d4 f3 be
       0.50173676 0.54701394 -0.53086585 -0.4762335
000140 d1 a3 1e 3f 8a 85 35 3f c3 f1 c5 3f 16 2c 0b c0
       0.61968714 0.7090689 1.5464405 -2.1745658
000150 59 47 22 bd 1c 89 ca be bf a7 82 bd a8 d4 ab 3e
       -0.039618824 -0.3955773 -0.06379651 0.3356068
000160 e6 ee 47 3f 93 a0 1b 3e 4b d1 2f 3f 57 1e 99 3f
       0.78098905 0.15197973 0.6867873 1.1962384
000170 2b 83 be be 6c 39 1e be f4 94 d8 be c4 67 2c 3f
       -0.37209448 -0.15451592 -0.42301142 0.67345834
000180 05 45 8d 3f cb 90 d4 be 8d 59 e2 bf ce 92 96 3f
       1.1036688 -0.41516718 -1.7683579 1.1763551
000190 71 75 8f be e0 0d ca 3e 22 57 8a bf 6f 2b 13 bc
       -0.28019288 0.3946371 -1.0807841 -0.008982523
0001a0 cf d9 90 3f 38 da a8 bd 28 5b 43 bf 05 ff af be
       1.131647 -0.08244747 -0.7631097 -0.34374252
0001b0 2e f3 41 3e 21 32 87 3f 00 bc f2 3e e7 ff 64 bf
       0.18940422 1.0562173 0.47409058 -0.89452976
0001c0 b4 ce 85 be 15 4d 5d bf 6c 07 72 3f 32 b6 7f 3f
       -0.26134264 -0.8644574 0.94542575 0.99887383
0001d0 6d cf 4c 3f 40 eb d4 3e ba d4 71 3f d4 ca af be
       0.80004007 0.41585732 0.9446522 -0.34334433
0001e0 94 25 e7 3e 63 78 9a be 0c 7c 5f be 99 9a 9d 3f
       0.45145857 -0.30169973 -0.21824664 1.2312804
0001f0 52 c3 3a be 9a d5 10 bf 3c bb 45 3f 35 60 2c 3e
       -0.18238571 -0.5657593 0.7723882 0.16833575
000200 2c 05 43 bd ca 2b 07 be a0 22 cb 3f 19 88 c6 bf
       -0.047612354 -0.13200298 1.5869942 -1.5510284
000210 e4 4f 41 3d 39 52 42 3f 86 d5 15 bf fc 88 a7 3d
       0.04719533 0.7590671 -0.58528936 0.081804246
000220 39 46 88 3f bc 55 47 3d 2f 45 fc 3f 27 49 e8 bf
       1.064643 0.048665747 1.9708613 -1.8147324
000230 ea 45 02 3f 9c 6a e0 3e a9 24 64 3f 5d 9c 9c bf
       0.5088793 0.43831336 0.8911844 -1.2235218
000240 9b 95 2c bf 2d 6e dd 3e 25 19 e2 bf 77 c2 18 40
       -0.6741578 0.4324812 -1.7663924 2.3868692
000250 87 f5 37 bf 25 25 ee 3e 4b 5f 2a 3f e9 3a 6e be
       -0.7185902 0.46512714 0.66551656 -0.2326466
000260 28 27 86 be 7e 5e 1b 3d 97 d5 c6 be db 4d b3 3f
       -0.2620175 0.03793191 -0.3883483 1.4008135
000270 f1 66 c8 be 3a 2e 0e bf 66 6d 07 40 9c 57 90 bf
       -0.39141038 -0.55539286 2.1160522 -1.1276736
000280 24 87 b2 3e 70 27 27 bf 1c cd b2 bd 82 cd 00 3f
       0.3486873 -0.6529455 -0.08730528 0.5031358
000290 1a 2f 1e 3e 08 9d a2 bc 80 92 43 3d f6 5a 21 3f
       0.15447655 -0.019850269 0.047747135 0.6302942
0002a0 a2 c4 f8 3e 67 6d b4 3f 93 de 3d bf d6 d7 1e 3f
       0.4858752 1.4095887 -0.74167746 0.6204809
0002b0 83 8a a7 3f 8f 17 f1 bd eb 99 9c 3f 1e 24 b8 bf
       1.3089145 -0.117720716 1.2234472 -1.4386022
0002c0 8f d8 87 be 83 e1 ea 3d ce 2e 73 3f 30 9d dc 3e
       -0.2653241 0.11468794 0.94993293 0.43088675
0002d0 86 56 be bb 98 a8 1c 3f 0e 10 97 3f 4c ce d0 bf
       -0.0058086542 0.61194754 1.1801775 -1.6312957
0002e0 12 9a 5e 3f d3 72 3d be dc e1 97 be df 97 f3 3f
       0.8695384 -0.18500833 -0.29664505 1.9030722
0002f0 01 33 6b 3e f1 9a 6e bc 3d 79 72 bf 70 ac 3c 3f
       0.22968675 -0.014563308 -0.94716245 0.7370062
000300 b6 58 12 3f fa dd 8e 3c 5d 9d c4 bb a9 87 96 be
       0.5716661 0.017439831 -0.0060002045 -0.29400375
000310 eb 5f 80 3d 00 58 38 bf df 9b c6 bf be f3 ad 3f
       0.06268295 -0.7200928 -1.5516318 1.3590009
000320 41 3d a9 bf d4 0e 9d 3f bd 64 62 3f 3b ae 6d bf
       -1.3221818 1.227015 0.88434964 -0.9284398
000330 5f 3d 46 3e cd 95 ab be 05 9a e0 3f 51 84 cd bf
       0.19359349 -0.33512726 1.7547003 -1.6056005
000340 56 91 2c bf 20 7c 03 3e 2b ab 66 3f 90 7c 04 bf
       -0.67409265 0.12840319 0.9010493 -0.5175257
000350 f4 3c 62 bf e2 cb b1 be ad 5f 9c bd 9d 07 20 3f
       -0.8837426 -0.34725863 -0.07635436 0.62511617
000360 19 16 06 bf c2 5d d7 be f6 cb 16 be 4b ad c0 3e
       -0.5237747 -0.4206372 -0.14726242 0.37632212
000370 d8 1a 64 3f f5 8f 4a bf b7 73 54 3c d5 6e 85 be
       0.8910346 -0.7912591 0.012967042 -0.2606112
000380 0f 13 46 be 1c 3b 9c bd b3 2b 35 3f 0d be 59 bf
       -0.19343208 -0.07628462 0.70769805 -0.8505562
000390 0a 3b 97 3e a2 3f b1 3f 5f 11 4b 3f f7 db 6e be
       0.2953723 1.3847544 0.7932338 -0.23326097
0003a0 c6 cc 02 3e ab ac 84 3f d3 99 a6 3e b9 89 1a be
       0.12773427 1.0365194 0.32539234 -0.150916
0003b0 a7 29 df be df 30 77 3f 5e 7d 8b bf be 6f 96 be
       -0.43586466 0.96558946 -1.0897634 -0.29382128
0003c0 a6 0f a6 bf 94 47 d3 3e 77 bb c9 3f b1 a8 c5 bf
       -1.2973526 0.41265547 1.5760335 -1.5442106
0003d0 db e7 80 3e b1 47 4d 3f 9c f6 89 be 88 8a 93 3e
       0.25176892 0.8018752 -0.2694596 0.28816628
0003e0 6c c0 d7 3e 12 08 28 3f bb 91 e3 3f 75 8f b2 bf
       0.42138994 0.65637314 1.7778848 -1.395003
0003f0 6a 2a 9c bf 50 c4 db 3e 62 f0 94 3f 27 ba 08 be
       -1.2200444 0.42923212 1.1635859 -0.13352261

sequential.0.Gamma.bias f4 [80]
000000 1b ca 81 be 46 cf 9b be a8 36 26 bf 99 1b db be
       -0.25349507 -0.30431575 -0.6492715 -0.42794493
000010 94 1a 95 3c c3 3f 7e bf 48 93 40 bf b7 cd 06 bf
       0.01820115 -0.9931604 -0.75224733 -0.52657646
000020 71 f7 6e 3b a8 b2 d3 be a9 c3 64 bd dc 43 f9 be
       0.0036463405 -0.4134724 -0.05585066 -0.48684585
000030 90 e2 5e 3c 76 20 2d 3e e7 b8 a9 bd ae d0 d4 3d
       0.013603821 0.16906914 -0.082872204 0.10391365
000040 b0 f2 44 3e 03 89 14 bf a9 76 62 3d de 0a 0b bf
       0.19233203 -0.58021563 0.055288944 -0.54313457
000050 45 dd 59 3c 98 19 f4 be 32 5c 09 bf fb 81 14 bf
       0.013297384 -0.47675776 -0.53656304 -0.58010834
000060 53 72 73 bd 12 da ce be f5 cb d5 be 1b cf e1 3c
       -0.0594352 -0.4040075 -0.4175717 0.027564576
000070 67 0d 4b bf 2e 8d 5d be b9 40 42 be dc 6f 75 3e
       -0.79317325 -0.21635887 -0.18970002 0.23968452
000080 49 37 ad bd 23 7f 18 bf e2 d3 41 3d 8f 09 be 3d
       -0.084578104 -0.59568995 0.047321208 0.09279167
000090 a5 7d 0d bd f2 76 89 be c5 1e 78 be b0 22 cc 3d
       -0.034543652 -0.2684856 -0.24230488 0.099675536
0000a0 f9 47 9b be 44 bb 3a be 72 27 03 bd ab 8a b6 be
       -0.30328348 -0.18235499 -0.03202004 -0.3565267
0000b0 4f 9a 72 bf 66 49 0d bd bb 4b 57 be d1 04 e5 3d
       -0.94766706 -0.034493826 -0.21024983 0.11182559
0000c0 fc a2 00 be 2d 4f a2 be 87 af 45 bd 44 23 c7 bb
       -0.12562174 -0.3170103 -0.0482631 -0.006077202
0000d0 2b c7 58 3d 91 3a fd be 70 0a 13 bf 17 c5 83 be
       0.052924316 -0.49458745 -0.574378 -0.25736305
0000e0 fa 59 34 bd 97 7c ac 3e d5 5c 01 bf 3e ab 21 bf
       -0.04403112 0.33688805 -0.50532275 -0.6315192
0000f0 e0 0c 24 be 1e 02 ea be ff 90 c9 3c 3f f8 81 bc
       -0.16020536 -0.4570474 0.024605272 -0.015865443
000100 24 c1 5c be 7a 04 60 bf e7 6b 6a bc bd de 80 3e
       -0.21558052 -0.8750683 -0.0143079525 0.25169936
000110 4d 59 a3 be 14 07 69 bc f7 bd 56 be 58 01 e1 bd
       -0.3190407 -0.014222879 -0.20970903 -0.109865844
000120 f0 92 b8 be 32 f8 09 3e 46 ce d1 3d 6b a8 fd be
       -0.36049604 0.13473585 0.10244422 -0.49542555
000130 da 21 f4 be db ca 9d be d6 91 89 bd c5 7d a5 be
       -0.47682077 -0.3081883 -0.06717269 -0.32322517

sequential.0.Lambda.weight f4 [80, 4]
000000 f6 c5 8e 3e 19 70 2a be 34 6d 7a 3e 07 86 ce bd
       0.27885407 -0.16644324 0.2445572 -0.100841574
000010 4b 7b 56 bf c3 a0 9b 3f 7e 7d 94 bf e2 f0 7c 3f
       -0.8378188 1.2158436 -1.1600797 0.9880506
000020 e1 41 10 3f 25 56 a2 3d d5 c3 37 be 09 cf 33 be
       0.56350523 0.07926587 -0.17945798 -0.17559446
000030 9e 9c ba be 9e 86 78 be 7f e9 df 3e 7f 54 94 3e
       -0.36447614 -0.24270102 0.4373283 0.28970715
000040 55 1f 44 3f 78 5e 17 bf 37 9e 24 3f 1b 00 2c 3d
       0.7661031 -0.5912852 0.64303917 0.041992288
000050 90 19 05 3f ed f7 1e be 80 e7 30 3f 9f f1 ac 3d
       0.5199213 -0.15524264 0.6910324 0.08444523
000060 23 bf 56 bf e8 20 16 bf 59 63 e8 be ef 68 89 bd
       -0.838854 -0.5864396 -0.45388296 -0.067094676
000070 22 13 31 3f 73 f5 c4 3e 89 75 fd be 00 f5 b4 be
       0.6916982 0.38468513 -0.49503735 -0.3534317
000080 b5 18 41 bf 2b 93 22 3f 69 4d d8 bd a4 ef 85 bf
       -0.75428325 0.6350581 -0.1056164 -1.0463758
000090 fa af 22 3e e4 ed aa be fc 3b 10 3e f6 8a ea be
       0.15887442 -0.3338462 0.14085382 -0.45809144
0000a0 e9 34 e4 3e fa 92 08 bf 9b 84 3f bf e1 fc 32 3f
       0.44571617 -0.5334927 -0.74811715 0.6991711
0000b0 70 93 40 3d 68 d7 b8 3e b3 af 82 3e 85 da 49 be
       0.047015607 0.36101842 0.25524673 -0.19712265
0000c0 a6 cf 56 3e 76 f1 83 be ac de 93 3f 85 b8 58 bf
       0.20977649 -0.25770158 1.1552329 -0.84656554
0000d0 e0 ab 5b bd 43 bf 7f bf 89 27 df be df 4c 95 3f
       -0.05363071 -0.9990122 -0.4358485 1.1664084
0000e0 e0 0a fe be d0 1a b6 3d 3e b1 22 3f 6a cb fe bb
       -0.49617672 0.08891833 0.635517 -0.0077757137
0000f0 05 53 f7 3e ce fb ba be 7c ea 1a bf b1 0b 1d 3f
       0.48305526 -0.36520237 -0.60514045 0.61345965
000100 87 27 d6 bd fe d0 9c 3d 6b e1 8d 3f 73 be 43 bf
       -0.10456758 0.076570496 1.1084417 -0.7646248
000110 92 2c d0 bd f3 b5 a5 3c 04 b4 2b 3f 78 9c 8b bf
       -0.10164751 0.020228362 0.6707156 -1.0907125
000120 71 e3 db 3d f3 18 f2 be 0f cd 3e bf a5 a8 8a 3f
       0.107367404 -0.4728466 -0.74531645 1.0832716
000130 c2 d3 cc bd 0e e1 e0 3e a2 16 38 be 31 33 93 bd
       -0.10001327 0.43921703 -0.17977384 -0.07187498
000140 08 02 8a 3f 1e be fe be fe ba 30 bf 92 3c 52 be
       1.078187 -0.49754423 -0.6903533 -0.20530918
000150 61 80 8e 3f 5d c0 67 bd 76 38 b6 bd dc a7 1d bf
       1.1132928 -0.056579936 -0.08897488 -0.6158426
000160 76 d0 2f bf 9b 2f 30 3f 17 a1 8d 3d 52 be 23 bf
       -0.6867746 0.6882264 0.06915491 -0.6396228
000170 94 98 10 bf 6d ac 32 3e 5b 78 62 3f 84 5c 6d be
       -0.56482816 0.17448588 0.884649 -0.23179823
000180 12 06 98 3e 64 0c ba 3e 71 c0 60 be 20 a8 04 bf
       0.2969213 0.36337578 -0.2194841 -0.5181904
000190 67 84 76 3f a9 78 7c be 5d 38 57 bd 2a 50 eb be
       0.9629578 -0.24655403 -0.052543987 -0.45959598
0001a0 3b 47 86 bf 0b 66 84 3f 82 c3 a0 3c 09 de 5b be
       -1.0490488 1.0343641 0.019624475 -0.21471418
0001b0 8f dc 2a bf 14 06 bc be ee 63 af be 27 9c 19 3f
       -0.66742796 -0.36723387 -0.34255928 0.60003895
0001c0 65 74 3b 3e b2 85 08 3f 98 b6 35 bf 3f b5 24 be
       0.1830612 0.53329 -0.7098174 -0.16084765
0001d0 11 29 93 be a5 98 6f bf 42 72 45 bf 06 65 1c be
       -0.2874227 -0.9359229 -0.7712747 -0.15272912
0001e0 0f 14 86 bf d7 af ef 3e 53 cf 08 3e da 2c a8 3f
       -1.0474871 0.46813843 0.13360338 1.3138688
0001f0 34 e3 5d 3e 54 94 61 be 95 ea 8c 3f 78 76 98 bf
       0.21668702 -0.22029239 1.1009089 -1.1911154
000200 2b 1a b7 3e 0e 45 a9 3e 7b 28 3a be 29 b3 5b be
       0.35762152 0.33060497 -0.18179505 -0.21455063
000210 43 f9 0a be 35 fd 6c bf 49 2d 47 3f 94 42 4a 3f
       -0.13571648 -0.92573863 0.77803475 0.7900784
000220 73 44 ff 3d 21 65 96 3f 1d 1e 0d 3f 66 e5 0a c0
       0.124642275 1.1749612 0.55124074 -2.1702514
000230 99 5e 8c be 83 0f da be e5 3d 18 3f 4b 7d 89 3d
       -0.27415922 -0.4258996 0.59469444 0.06713351
000240 54 49 9e 3e a9 74 4a 3f e0 de ee be 77 de c2 be
       0.3091532 0.7908426 -0.46654415 -0.38060352
000250 4e a4 6b 3e a3 09 95 bd 4c 47 ac be 65 e3 6d bd
       0.23011896 -0.07277229 -0.33648145 -0.05807819
000260 76 92 30 3e 94 7c d9 be 50 f7 69 3f 73 b3 5e bf
       0.1724337 -0.42477858 0.91392994 -0.8699257
000270 6a 55 9e 3f 55 b2 e2 3d 83 f2 1a be ed df 7f bf
       1.2369816 0.110691704 -0.15131573 -0.9995106
000280 28 4d 44 be a1 2f 9c bf 63 13 23 be b5 bd b9 3f
       -0.19170058 -1.2202035 -0.15925364 1.4511019
000290 6c e8 bb 3e 31 41 09 be f8 26 a8 be f5 bd 44 3f
       0.3670076 -0.13403775 -0.3284223 0.7685235
0002a0 d3 4e 0c bf 85 92 ad bf 9b ef f9 3f b8 2f ba bc
       -0.54807776 -1.3560339 1.9526247 -0.022727832
0002b0 e9 86 df 3e e5 cc ba bf d1 c0 f1 be 61 1b 23 3e
       0.43657616 -1.4593779 -0.4721742 0.15928413
0002c0 b6 5a 8d 3e 80 61 d7 bc 2f 2f d2 bd 21 bd 0e be
       0.2760827 -0.026291609 -0.10262906 -0.13939334
0002d0 b3 36 31 bf ea 7b 05 bf 47 ee 0b 40 09 88 2c bf
       -0.6922409 -0.521422 2.1864183 -0.67395073
0002e0 1a 1e 36 3f 3e f1 70 be 51 88 16 3f 18 b5 61 bf
       0.7113968 -0.23529527 0.5880175 -0.8816695
0002f0 8b dc e2 be b1 fe 84 3e 9e 00 40 be 0a 07 c4 3e
       -0.44308886 0.25975564 -0.18750235 0.3828662
000300 e2 3b 3f bf 7c 91 b1 3e 07 22 ca 3e ed 1d 00 3d
       -0.7470075 0.34681308 0.39479086 0.03127854
000310 12 e8 92 3d 45 05 a6 3f f8 4e ec 3a c8 30 54 be
       0.0717317 1.2970358 0.0018028906 -0.20721734
000320 5b dc 28 3f d1 96 7a 3e b6 cd f9 3d ec eb 44 bf
       0.65961236 0.24471594 0.121974394 -0.7692249
000330 1a f0 43 be 4c bb e0 3e c7 bd 41 3e a8 81 cd be
       -0.1913456 0.43892896 0.1892005 -0.40137982
000340 b1 3a 05 3f 50 3a 33 be 66 5e f2 3e 8f 4a 44 bf
       0.5204268 -0.17502713 0.47337645 -0.7667627
000350 6f be 93 3f 59 5c 47 3e c7 6e e1 3e c6 2a 91 bf
       1.1542491 0.19468822 0.4402983 -1.1341178
000360 11 5a 52 3f 1e 3c 83 3f bd 85 a5 bf fa 1c 1a bf
       0.8216868 1.0252721 -1.2931439 -0.60200465
000370 a6 06 30 be 64 1d 15 bf d5 dc 39 3f b1 c4 46 3e
       -0.17190036 -0.5824797 0.7260259 0.1941097
000380 c9 8e cb 3e 08 4e fd bd eb 56 2a 3f a4 96 1f bf
       0.39757374 -0.12368399 0.66538876 -0.62339234
000390 ba 13 bc be 43 f8 87 3e ef b9 c2 bf 83 ec e3 3f
       -0.367338 0.26556596 -1.5212992 1.7806553
0003a0 73 44 0f 3f 72 51 7b 3e 41 45 c5 ba 70 54 41 bf
       0.5596382 0.24542788 -0.0015050546 -0.75519466
0003b0 1a 32 2e 3f 2a d6 e8 3d 29 43 44 3f 0f c8 56 bf
       0.680452 0.113689736 0.7666498 -0.83899015
0003c0 59 cb 6d 3f 4f ca 4c 3e 45 2f 8e 3e c5 50 d3 bb
       0.9288841 0.1999905 0.2777044 -0.0064488375
0003d0 41 ca 32 3c 44 d1 4c bf d8 5c 16 3e 72 7b 1b 3f
       0.010912479 -0.80006814 0.14683855 0.6073524
0003e0 c4 8e c3 3e 50 6f f6 3d ee cb 9a 3e 8f a3 60 bf
       0.3819486 0.1203295 0.3023371 -0.8774957
0003f0 19 6e 71 3e 8e 53 8f 3e 03 27 32 bf 25 6d 87 be
       0.23577155 0.27993435 -0.6959078 -0.26450458

sequential.0.Lambda.bias f4 [80]
000000 1b ca 81 be 46 cf 9b be a8 36 26 bf 99 1b db be
       -0.25349507 -0.30431575 -0.6492715 -0.42794493
000010 94 1a 95 3c c3 3f 7e bf 48 93 40 bf b7 cd 06 bf
       0.01820115 -0.9931604 -0.75224733 -0.52657646
000020 71 f7 6e 3b a8 b2 d3 be a9 c3 64 bd dc 43 f9 be
       0.0036463405 -0.4134724 -0.05585066 -0.48684585
000030 90 e2 5e 3c 76 20 2d 3e e7 b8 a9 bd ae d0 d4 3d
       0.013603821 0.16906914 -0.082872204 0.10391365
000040 b0 f2 44 3e 03 89 14 bf a9 76 62 3d de 0a 0b bf
       0.19233203 -0.58021563 0.055288944 -0.54313457
000050 45 dd 59 3c 98 19 f4 be 32 5c 09 bf fb 81 14 bf
       0.013297384 -0.47675776 -0.53656304 -0.58010834
000060 53 72 73 bd 12 da ce be f5 cb d5 be 1b cf e1 3c
       -0.0594352 -0.4040075 -0.4175717 0.027564576
000070 67 0d 4b bf 2e 8d 5d be b9 40 42 be dc 6f 75 3e
       -0.79317325 -0.21635887 -0.18970002 0.23968452
000080 49 37 ad bd 23 7f 18 bf e2 d3 41 3d 8f 09 be 3d
       -0.084578104 -0.59568995 0.047321208 0.09279167
000090 a5 7d 0d bd f2 76 89 be c5 1e 78 be b0 22 cc 3d
       -0.034543652 -0.2684856 -0.24230488 0.099675536
0000a0 f9 47 9b be 44 bb 3a be 72 27 03 bd ab 8a b6 be
       -0.30328348 -0.18235499 -0.03202004 -0.3565267
0000b0 4f 9a 72 bf 66 49 0d bd bb 4b 57 be d1 04 e5 3d
       -0.94766706 -0.034493826 -0.21024983 0.11182559
0000c0 fc a2 00 be 2d 4f a2 be 87 af 45 bd 44 23 c7 bb
       -0.12562174 -0.3170103 -0.0482631 -0.006077202
0000d0 2b c7 58 3d 91 3a fd be 70 0a 13 bf 17 c5 83 be
       0.052924316 -0.49458745 -0.574378 -0.25736305
0000e0 fa 59 34 bd 97 7c ac 3e d5 5c 01 bf 3e ab 21 bf
       -0.04403112 0.33688805 -0.50532275 -0.6315192
0000f0 e0 0c 24 be 1e 02 ea be ff 90 c9 3c 3f f8 81 bc
       -0.16020536 -0.4570474 0.024605272 -0.015865443
000100 24 c1 5c be 7a 04 60 bf e7 6b 6a bc bd de 80 3e
       -0.21558052 -0.8750683 -0.0143079525 0.25169936
000110 4d 59 a3 be 14 07 69 bc f7 bd 56 be 58 01 e1 bd
       -0.3190407 -0.014222879 -0.20970903 -0.109865844
000120 f0 92 b8 be 32 f8 09 3e 46 ce d1 3d 6b a8 fd be
       -0.36049604 0.13473585 0.10244422 -0.49542555
000130 da 21 f4 be db ca 9d be d6 91 89 bd c5 7d a5 be
       -0.47682077 -0.3081883 -0.06717269 -0.32322517

sequential.0.bn.running_mean f4 [80]
000000 00 00 00 00 00 00 00 00 00 00 00 00 00 00 00 00
       0.0 0.0 0.0 0.0
000010 00 00 00 00 00 00 00 00 00 00 00 00 00 00 00 00
       0.0 0.0 0.0 0.0
000020 00 00 00 00 00 00 00 00 00 00 00 00 00 00 00 00
       0.0 0.0 0.0 0.0
000030 00 00 00 00 00 00 00 00 00 00 00 00 00 00 00 00
       0.0 0.0 0.0 0.0
000040 00 00 00 00 00 00 00 00 00 00 00 00 00 00 00 00
       0.0 0.0 0.0 0.0
000050 00 00 00 00 00 00 00 00 00 00 00 00 00 00 00 00
       0.0 0.0 0.0 0.0
000060 00 00 00 00 00 00 00 00 00 00 00 00 00 00 00 00
       0.0 0.0 0.0 0.0
000070 00 00 00 00 00 00 00 00 00 00 00 00 00 00 00 00
       0.0 0.0 0.0 0.0
000080 00 00 00 00 00 00 00 00 00 00 00 00 00 00 00 00
       0.0 0.0 0.0 0.0
000090 00 00 00 00 00 00 00 00 00 00 00 00 00 00 00 00
       0.0 0.0 0.0 0.0
0000a0 00 00 00 00 00 00 00 00 00 00 00 00 00 00 00 00
       0.0 0.0 0.0 0.0
0000b0 00 00 00 00 00 00 00 00 00 00 00 00 00 00 00 00
       0.0 0.0 0.0 0.0
0000c0 00 00 00 00 00 00 00 00 00 00 00 00 00 00 00 00
       0.0 0.0 0.0 0.0
0000d0 00 00 00 00 00 00 00 00 00 00 00 00 00 00 00 00
       0.0 0.0 0.0 0.0
0000e0 00 00 00 00 00 00 00 00 00 00 00 00 00 00 00 00
       0.0 0.0 0.0 0.0
0000f0 00 00 00 00 00 00 00 00 00 00 00 00 00 00 00 00
       0.0 0.0 0.0 0.0
000100 00 00 00 00 00 00 00 00 00 00 00 00 00 00 00 00
       0.0 0.0 0.0 0.0
000110 00 00 00 00 00 00 00 00 00 00 00 00 00 00 00 00
       0.0 0.0 0.0 0.0
000120 00 00 00 00 00 00 00 00 00 00 00 00 00 00 00 00
       0.0 0.0 0.0 0.0
000130 00 00 00 00 00 00 00 00 00 00 00 00 00 00 00 00
       0.0 0.0 0.0 0.0

sequential.0.bn.running_var f4 [80]
000000 00 00 80 3f 00 00 80 3f 00 00 80 3f 00 00 80 3f
       1.0 1.0 1.0 1.0
000010 00 00 80 3f 00 00 80 3f 00 00 80 3f 00 00 80 3f
       1.0 1.0 1.0 1.0
000020 00 00 80 3f 00 00 80 3f 00 00 80 3f 00 00 80 3f
       1.0 1.0 1.0 1.0
000030 00 00 80 3f 00 00 80 3f 00 00 80 3f 00 00 80 3f
       1.0 1.0 1.0 1.0
000040 00 00 80 3f 00 00 80 3f 00 00 80 3f 00 00 80 3f
       1.0 1.0 1.0 1.0
000050 00 00 80 3f 00 00 80 3f 00 00 80 3f 00 00 80 3f
       1.0 1.0 1.0 1.0
000060 00 00 80 3f 00 00 80 3f 00 00 80 3f 00 00 80 3f
       1.0 1.0 1.0 1.0
000070 00 00 80 3f 00 00 80 3f 00 00 80 3f 00 00 80 3f
       1.0 1.0 1.0 1.0
000080 00 00 80 3f 00 00 80 3f 00 00 80 3f 00 00 80 3f
       1.0 1.0 1.0 1.0
000090 00 00 80 3f 00 00 80 3f 00 00 80 3f 00 00 80 3f
       1.0 1.0 1.0 1.0
0000a0 00 00 80 3f 00 00 80 3f 00 00 80 3f 00 00 80 3f
       1.0 1.0 1.0 1.0
0000b0 00 00 80 3f 00 00 80 3f 00 00 80 3f 00 00 80 3f
       1.0 1.0 1.0 1.0
0000c0 00 00 80 3f 00 00 80 3f 00 00 80 3f 00 00 80 3f
       1.0 1.0 1.0 1.0
0000d0 00 00 80 3f 00 00 80 3f 00 00 80 3f 00 00 80 3f
       1.0 1.0 1.0 1.0
0000e0 00 00 80 3f 00 00 80 3f 00 00 80 3f 00 00 80 3f
       1.0 1.0 1.0 1.0
0000f0 00 00 80 3f 00 00 80 3f 00 00 80 3f 00 00 80 3f
       1.0 1.0 1.0 1.0
000100 00 00 80 3f 00 00 80 3f 00 00 80 3f 00 00 80 3f
       1.0 1.0 1.0 1.0
000110 00 00 80 3f 00 00 80 3f 00 00 80 3f 00 00 80 3f
       1.0 1.0 1.0 1.0
000120 00 00 80 3f 00 00 80 3f 00 00 80 3f 00 00 80 3f
       1.0 1.0 1.0 1.0
000130 00 00 80 3f 00 00 80 3f 00 00 80 3f 00 00 80 3f
       1.0 1.0 1.0 1.0

sequential.2.Gamma.weight f4 [120, 80]
000000 82 b9 98 be 13 06 ae 3c 52 41 90 be 8b 25 c4 bd
       -0.2982903 0.02124313 -0.28174835 -0.09577473
000010 09 a8 b9 be 5f 8b 7c 3d 1d 1f d4 ba 92 a2 db 3c
       -0.36261013 0.061656352 -0.0016183589 0.026810918
000020 0b 5b 74 3e c7 96 83 3e d9 78 8c bf 5c 4d 15 bb
       0.23862855 0.2570097 -1.097438 -0.0022781705
000030 b4 72 52 3f b5 70 e6 3e b3 f4 da 3e 04 35 92 be
       0.82206273 0.45007864 0.42764816 -0.28556073
000040 d2 68 85 be 66 0e 0a 3e e2 b5 03 be e0 cd 6f bd
       -0.26056534 0.13482055 -0.12862352 -0.058545947
000050 d6 e0 ac 3e fd 88 a8 bc a4 19 45 bf 3b bf b2 3d
       0.33765286 -0.020573134 -0.7699225 0.087278806
000060 4c d7 37 bf 6f 76 b4 be 24 29 3a bf 44 29 4e be
       -0.7181289 -0.35246608 -0.72719026 -0.20132929
000070 13 27 08 bf 43 14 45 be 41 e9 61 be c1 0d e0 bc
       -0.5318462 -0.1924601 -0.22061636 -0.027350308
000080 dc df f2 3e 34 ff 00 bd 31 ee fc 3d 61 ac 0f 3f
       0.47436416 -0.03149338 0.12350119 0.56122404
000090 4f 19 63 bf 5e 56 10 3e 85 e7 de be 34 8c 86 3e
       -0.8871049 0.14095446 -0.4353601 0.26278841
0000a0 68 43 eb be dd 0d a7 be a2 4e 8a bd f1 4f 2f 3f
       -0.45949864 -0.32627764 -0.06753279 0.68481356
0000b0 42 68 52 bf 4d 96 16 3f 7d 93 d5 bd a7 ea a9 be
       -0.82190335 0.5882309 -0.10428522 -0.33186838
0000c0 d5 ea ed be 9d 25 42 be bf 03 fc 3e bb 4a 92 3f
       -0.46468225 -0.18959661 0.49221608 1.1429056
0000d0 2c f4 ef 3c f9 2c 10 be 59 04 54 be ec 77 21 be
       0.029291235 -0.14079656 -0.20704783 -0.15768403
0000e0 44 26 27 3f 51 91 c0 bd 53 12 bd bd 90 a4 a0 bc
       0.65292764 -0.09402717 -0.09232011 -0.01960972
0000f0 75 a2 87 3d 67 f9 c1 be 0a e3 22 3f 8c 6d 0d be
       0.06622783 -0.3788559 0.63627684 -0.1381132
000100 57 6c 95 be 4a c3 c5 bd e8 be ab be 74 3a bf 3e
       -0.2918422 -0.09656389 -0.33544087 0.37349284
000110 29 93 1f 3d 07 6f c2 be 22 06 88 bd 89 5c 53 be
       0.038958702 -0.37975332 -0.06641795 -0.20640768
000120 0a a2 6e be 9b 6a 35 bd cc b0 6f be 20 b2 0f bd
       -0.23304 -0.04429112 -0.23407286 -0.035081983
000130 96 9d 6a bd 01 89 2f be a7 d6 f7 3e 46 c5 4d be
       -0.057279192 -0.17142107 0.48405954 -0.20094785
000140 d3 12 b0 be a8 37 0b 3d 3e 5f 01 3f ad c3 e9 bc
       -0.34389362 0.033988625 0.50535953 -0.028535688
000150 df cb a5 be 91 f4 52 bc 75 0f d1 be 3d db 83 be
       -0.32382104 -0.012875692 -0.40832105 -0.25753203
000160 95 e7 45 be e8 bd 3b be d7 70 9a ba b8 5c 57 3e
       -0.19326623 -0.18334162 -0.0011782896 0.21031463
000170 ae 1b f4 bd f4 40 bb bb 82 f9 05 bb 06 60 0a 3e
       -0.11919342 -0.00571453 -0.0020442908 0.13513193
000180 66 24 03 be 96 53 1d be 40 f1 ab bc 09 fc 32 3e
       -0.12806854 -0.15363917 -0.02098906 0.17478956
000190 b2 20 d2 3d 1a 06 17 3e 9a 23 31 bf 4b ba 29 3e
       0.102601424 0.14748421 -0.6919495 0.16574971
0001a0 23 9d c0 3e 48 89 81 3e 5c 00 42 3e c3 0d 00 bf
       0.37619886 0.2530005 0.1894545 -0.50021
0001b0 8e 1f d5 be 01 84 09 be 34 73 6c bd 19 f2 d9 3c
       -0.41625637 -0.13429262 -0.057727054 0.026604699
0001c0 38 ec 23 be fc 82 8f 3e 05 c3 ab 3e 9a 8f 0e 3f
       -0.16008079 0.2802962 0.33547226 0.5568787
0001d0 14 eb 9d be 69 32 69 be d7 14 b6 bd 58 5f fd bd
       -0.30843413 -0.22773136 -0.08890694 -0.12371701
0001e0 6f 86 2b be da e9 39 be b2 17 de 3d b3 12 50 bd
       -0.16750501 -0.18155614 0.10844363 -0.050799083
0001f0 48 42 1d bf 0b 42 e2 3e b0 a5 c4 3d 92 41 d9 3d
       -0.6142926 0.44191012 0.09601915 0.1060821
000200 54 2e 24 3f 61 7b 80 be 33 4d 8f be c6 41 a3 3e
       0.6413319 -0.2509413 -0.27988586 0.3188612
000210 f2 51 81 bd 0a 46 6e be d4 ce ac 3e 86 86 81 3d
       -0.06314458 -0.23268905 0.33751547 0.063244864
000220 c3 d2 c6 bd e5 a8 56 be a1 37 9e bd 56 9a 46 be
       -0.09708168 -0.20962866 -0.07725454 -0.19394812
000230 e1 18 5f bd 6c 8d b9 bd 20 d8 98 bc cd 67 b1 be
       -0.054467086 -0.09060177 -0.018657744 -0.34649506
000240 0f fb 66 be 0d 43 12 bf 23 07 47 bd ed 4c b6 3d
       -0.22556709 -0.5713356 -0.04859079 0.08901391
000250 da e1 9c bc dd 35 d3 3b 65 f8 28 3e 19 4f b3 be
       -0.019150663 0.00644563 0.16501005 -0.35021284
000260 10 55 ca bd 49 d3 49 bd 6f ea 3b bd fb 7c 1e be
       -0.09879506 -0.049273763 -0.04587787 -0.15477364
000270 93 d2 82 3d 92 df 3a 3d 53 2d d2 bd bf ad 1f 3e
       0.0638782 0.04562337 -0.10262551 0.15593623
000280 fe 81 19 be 28 4a a7 be 21 e0 6b be 36 59 50 bd
       -0.14990994 -0.32673764 -0.23034717 -0.05086633
000290 de 3e 30 3f 4c 94 bc bc a8 8e 8d bd 72 55 54 3e
       0.6884593 -0.023019932 -0.06911975 0.2073572
0002a0 ee c9 c9 bc ca b4 04 bf 51 4c 08 bf f8 20 2c be
       -0.02463242 -0.5183836 -0.5324145 -0.16809452
0002b0 bd ce 4a bf f6 b2 9a be 6d ac f4 be ae a8 36 3e
       -0.7922171 -0.3021466 -0.477878 0.17837784
0002c0 82 f6 bf 3e 96 64 89 bd 38 0f 07 be c9 7e cb 3c
       0.37492758 -0.06708638 -0.13189399 0.02484073
0002d0 4e 25 f2 be 29 a5 83 3c 3c ed cc be a2 c3 66 be
       -0.47294086 0.016069965 -0.40024745 -0.22535565
0002e0 50 0d 7a 3f 00 06 9a 3d d7 e9 99 3d f4 ab 39 3e
       0.97676563 0.07520676 0.075153045 0.18132001
0002f0 d2 cf 5a 3c 5e 43 92 bc c9 bf 8d 3e 96 77 88 3e
       0.013355212 -0.017854389 0.27685383 0.26653737
000300 d9 0d ec be 3d 21 50 bd ad 94 00 bf 4a d8 e6 be
       -0.46104315 -0.05081295 -0.5022686 -0.4508689
000310 76 c8 5c 3f fd 2e ed be 79 8d 82 be ac 3d ef bd
       0.8624338 -0.46324912 -0.2549856 -0.11681685
000320 ad 8c b7 be 16 32 da bc 83 b4 ce 3e 62 64 6b bc
       -0.35849515 -0.026635211 0.40372095 -0.014367195
000330 ed ec b3 bd dd d2 01 bf d9 da 6a 3e 6c 0c da 3e
       -0.087854244 -0.50712377 0.22935046 0.42587602
000340 15 e2 9b be 90 84 00 3e 31 2f 5b bd ea b7 8e bf
       -0.30445924 0.12550569 -0.053511802 -1.1149876
000350 0e fd b9 bd 9f 8c b9 3d 53 76 81 be 3d 20 06 bc
       -0.090814695 0.090600245 -0.25285587 -0.008186397
000360 27 06 16 3e 55 c7 d0 bc eb bf a0 bb d3 3f fa 3c
       0.14650784 -0.025485674 -0.004905691 0.030548012
000370 93 4d a4 be 02 12 98 be 27 46 08 be be 09 81 be
       -0.32090434 -0.2970124 -0.13308011 -0.25202745
000380 bc 3b ab be c3 14 a6 be 0d c6 c9 bd e2 d7 cd be
       -0.3344401 -0.32437715 -0.09852228 -0.40203768
000390 93 3d 69 be 58 7a 67 be ca f7 9c 3c 93 d4 6a bd
       -0.22777395 -0.22605264 0.019161124 -0.057331633
0003a0 f5 50 ad be c8 23 5f 3e 4a 47 14 3f f3 9d 13 bf
       -0.33850828 0.21790993 0.5792128 -0.57662886
0003b0 56 10 1b bb 0b 9b 4a 3e fa 49 31 be 81 50 18 3e
       -0.002366086 0.19785707 -0.17313376 0.1487446
0003c0 67 50 ac be 10 64 12 bf 4c 24 9f be 30 3d e8 3e
       -0.33655092 -0.57183933 -0.3108238 0.45359182
0003d0 e0 31 66 bd 20 57 30 3d de a1 bb bc e1 97 8b be
       -0.05619991 0.04305184 -0.022904333 -0.27264312
0003e0 47 60 68 3e 9a 1d dd 3e 8e cf b0 be 3f 15 5c bf
       0.22692977 0.43186647 -0.34533352 -0.8596992
0003f0 66 9c 9b 3e 06 f5 4c bd 2b dd 9b 3d b2 01 03 bf
       0.3039276 -0.05003836 0.07610544 -0.5117446

sequential.2.Gamma.bias f4 [120]
000000 89 0a cf 3b 82 61 9d be 3c c9 4a 3e 89 66 b0 3d
       0.0063183946 -0.30738455 0.19803327 0.08613307
000010 30 9c 17 be 8f ab f3 3e 2b 49 85 3e da 91 24 bd
       -0.14805675 0.47591826 0.26032385 -0.040178157
000020 f3 86 1e bf 31 7f d7 3d 98 76 4b 3d 93 4f d5 be
       -0.61924666 0.10522307 0.049673647 -0.41662273
000030 1b c4 14 3e ae 7c 0c bf 94 a0 39 be d4 51 94 be
       0.14527933 -0.54877746 -0.18127662 -0.2896868
000040 47 9c 00 be 39 2a d2 be 49 0b 64 bd a7 4e 23 bf
       -0.12559615 -0.41047838 -0.055674825 -0.6379189
000050 58 2b 08 bf a8 54 e9 bc 83 2c a5 3d 93 da d7 3d
       -0.5319114 -0.02848275 0.080651306 0.105397366
000060 f8 50 ee 3e 09 93 0f 3d 01 31 15 bf a1 a9 c6 bd
       0.4654615 0.035052333 -0.582779 -0.09700323
000070 a6 dc a6 bc d8 d3 57 3e 8e 4a 87 bd f6 e8 ab bd
       -0.020368885 0.21076906 -0.06606017 -0.08394043
000080 c4 62 de 3d 96 bd 66 3d e2 cf 70 3c 61 ec cc 3e
       0.10858682 0.056333147 0.014698001 0.40024093
000090 d6 7f f1 3d 16 30 7d 3e 95 31 1e 3d a5 fc b2 3d
       0.11791961 0.24725375 0.038621504 0.08739594
0000a0 a1 3e 87 3d 75 61 a6 be a7 0c f7 bc c6 42 d2 3e
       0.066037424 -0.3249623 -0.0301574 0.4106657
0000b0 15 73 12 3e 73 eb 9b be 34 3f 4e bf 0d 7b bd bd
       0.14301713 -0.3045307 -0.8056519 -0.09251986
0000c0 0d 84 8b bd 17 e7 c6 be 96 44 75 be a5 44 35 be
       -0.06812296 -0.38848183 -0.23951945 -0.17701967
0000d0 c7 be 9d be 28 02 e3 be 50 58 74 3e 90 75 38 be
       -0.30809614 -0.44337583 0.23861814 -0.18013597
0000e0 07 12 7d bf 16 c3 a4 3d eb 16 1f bd a9 52 60 bd
       -0.9885563 0.08045022 -0.038840216 -0.05476633
0000f0 c3 22 f7 be 5d 84 f8 3e fb 7c 29 bf 26 a7 43 be
       -0.4826871 0.48538485 -0.6620633 -0.19106731
000100 04 86 4b 3e 33 de 5b be 8f c6 70 be 87 ec 6c be
       0.19875342 -0.21471481 -0.23513244 -0.23137103
000110 c8 92 03 bf 3c ca ee be 36 2f 15 3e 6f c1 8b bd
       -0.51395845 -0.46638668 0.14568791 -0.06824004
000120 ef 6b 3a 3d e6 f4 7b be 36 02 09 be 4a d8 dd be
       0.04551309 -0.2460514 -0.1337975 -0.43329078
000130 2d 40 a6 bd 6f 6e af bc c4 0a 0e 3e 6f ca 53 bd
       -0.08117709 -0.021414964 0.13871294 -0.051706728
000140 12 35 e5 3c 3d fd a9 3d bf 55 30 3c 94 59 7b bd
       0.027979407 0.083002545 0.010762631 -0.061364725
000150 8b 79 0a bf a4 33 8f 3e 52 57 3c be 1c 16 a3 bd
       -0.5409171 0.27969086 -0.18392685 -0.079632014
000160 b7 3a 85 3b 0c e6 0d 3e a0 4c 94 bd f6 44 06 be
       0.0040658372 0.13857287 -0.072411776 -0.13112244
000170 91 30 b7 3c de ca a8 bd 3f 8e d6 be 03 32 12 bf
       0.022362025 -0.08241819 -0.419054 -0.5710756
000180 ee a7 de 3d 71 2e 64 3e e9 df ae 3d 58 83 49 be
       0.10871874 0.22283341 0.08538801 -0.1967901
000190 fc 32 0f bd 78 7c 24 3e 73 4e af 3d 8a 27 8c be
       -0.034960732 0.16063106 0.08559885 -0.27373916
0001a0 82 65 be be e4 93 05 bd 25 6d 98 be 93 c8 5c bd
       -0.3718682 -0.032611743 -0.2977077 -0.05390222
0001b0 34 a9 71 be 14 57 8d be 09 b2 dd bd 48 a9 9d bd
       -0.23599702 -0.27605498 -0.10824973 -0.076983035
0001c0 9b 19 95 3e 88 62 37 3d 5e 65 ae bc 42 45 57 3d
       0.29121098 0.0447717 -0.02128857 0.052556284
0001d0 77 e7 0e be cd a5 ac bf 94 46 2c 3e 8d b1 0b bf
       -0.13955484 -1.3488098 0.16823798 -0.54567796

sequential.2.Lambda.weight f4 [120, 80]
000000 2a 6f a2 3d fc b4 b4 3e 53 6e ad 3d dd ae 27 be
       0.07931359 0.3529433 0.08468308 -0.16375299
000010 16 52 06 bf e6 a8 90 3d 7a f9 3e be 68 fb c9 bb
       -0.52469003 0.07063465 -0.18649855 -0.006164003
000020 ad 3e bb 3c 33 36 e3 be 6e ef 80 3e c7 0d 44 be
       0.022857035 -0.44377288 0.2518267 -0.1914588
000030 47 18 b8 bd 1d f8 22 3e a8 2c a0 3e 31 4b 29 3e
       -0.089890055 0.1591496 0.3128407 0.1653259
000040 27 7c 60 be 2c 3f 9d be 5c 1f a9 bd 5e 6e 8d be
       -0.2192236 -0.3071226 -0.082579345 -0.27623266
000050 99 15 e0 bd 95 94 39 be 36 73 f4 be 7b 90 9e bd
       -0.109416194 -0.18123086 -0.4774415 -0.07742401
000060 6c a8 88 3e 6d f7 39 be 48 f2 83 3d cb 1f 77 be
       0.26690996 -0.18160792 0.06442696 -0.24133222
000070 45 f9 13 3e 0a 8e a3 3e 2f 01 67 3d 4a a5 fe bd
       0.14450558 0.31944305 0.056397613 -0.1243387
000080 a7 f4 63 3e 79 74 64 3d 71 e5 aa be 32 df 1d 3f
       0.22261296 0.05577514 -0.33378175 0.61668694
000090 f3 48 4e 3c d0 ca d5 3c 56 c9 2b bf 09 03 45 be
       0.012590635 0.026097685 -0.6710409 -0.19239439
0000a0 69 e0 3f be e5 5f 02 3d ef 23 fb bd c5 0b 1b be
       -0.1873795 0.031829733 -0.12262713 -0.15141208
0000b0 e3 57 1e bf ac 10 c3 3e 27 8d 5d 3e bd 93 22 bd
       -0.61852854 0.38098657 0.21635877 -0.039691675
0000c0 fe d5 90 be 74 b7 af 3d a5 3a 7d 3e bc e2 52 3f
       -0.28288263 0.08579913 0.24729402 0.8237722
0000d0 a7 ee 6e be e6 8a 91 3e 19 a6 2e be 24 e9 28 bd
       -0.23333226 0.28426284 -0.17055549 -0.041237965
0000e0 81 d0 13 3e 14 11 b3 be 64 ae 42 be 0f ec 34 bd
       0.14435007 -0.34973967 -0.19011837 -0.044170436
0000f0 ce b2 18 3e 94 d3 38 bd 8f 0b 8e 3b 03 00 42 be
       0.14911959 -0.04512365 0.004334874 -0.18945317
000100 42 01 5c bf 80 a6 a5 be b1 f6 5d 3e 44 24 f8 3e
       -0.8593942 -0.32353592 0.21676137 0.48465168
000110 52 a5 9f be 1e fa 0e 3f 6e 18 a2 bc f7 dd 59 3d
       -0.31180817 0.558504 -0.01978704 0.053190198
000120 62 21 25 bc 37 b6 36 bd f0 d0 fc 3d 5c bf 45 be
       -0.01007876 -0.044607367 0.12344539 -0.19311279
000130 3c fe 09 be e2 d9 0c be 6c 58 70 be 81 fe d2 be
       -0.13475889 -0.1375499 -0.2347123 -0.41209796
000140 2f e6 de 3e 08 f7 ae 3e db 03 22 3f 59 0b b6 3b
       0.4353499 0.34172845 0.6328713 0.005555552
000150 84 2a d1 bc 75 2f 88 bd e5 ec 13 3e 47 2f 62 bd
       -0.025532968 -0.06649677 0.14445837 -0.05522087
000160 c8 0b 17 3f 15 31 6d be 0c c8 a6 3e 95 df 3c be
       0.5900235 -0.23163255 0.325745 -0.18444665
000170 95 47 90 bd e4 75 88 bd 63 f9 1d 3e 32 68 08 3f
       -0.07044903 -0.06663111 0.15427165 0.5328399
000180 a4 16 8c 3e fb 41 fd 3c 2b 0a 14 bf 6c f9 86 bd
       0.27361023 0.030915251 -0.57828015 -0.06590542
000190 97 f3 96 3e fd c9 2b be 68 42 6c 3e a3 34 17 3e
       0.2948272 -0.16776271 0.23072207 0.14766173
0001a0 79 a8 84 be 9a 72 10 3f fa 0d 12 3f aa cf 39 be
       -0.25909784 0.5642487 0.57052577 -0.18145624
0001b0 cd ac 93 be 46 55 87 3e 10 80 d0 3d 8b 79 a7 3e
       -0.28842774 0.26432246 0.10180676 0.32709917
0001c0 5e c7 bf bd bc 4c b6 3e 43 bd 0e bd 44 6c 7b 3f
       -0.09364198 0.3560542 -0.034848463 0.98212075
0001d0 f6 8c 97 3d 8d c1 e2 3b 42 3b a3 3d cf f0 5f 3e
       0.07399933 0.0069200457 0.07970287 0.21869205
0001e0 7d 0f 8f bd 6e 78 c6 3e 5f ec 6e 3f 3a 8e 51 3e
       -0.06985376 0.38763756 0.93329424 0.20464411
0001f0 b4 46 4b bf ed 9d be 3e a7 f2 25 3f f6 53 be bd
       -0.7940476 0.37229863 0.64823383 -0.09293358
000200 bc 79 74 3d 33 9a c0 be 8c d2 57 3d e7 9f 88 be
       0.059686407 -0.37617645 0.052691028 -0.26684496
000210 d4 f0 10 3f 61 e0 94 3e 13 9a 18 3f 15 ff 8d be
       0.56617475 0.29077438 0.596101 -0.27733675
000220 6b c1 f7 bd 67 2e 02 3f 79 38 ca 3d 0b 51 09 be
       -0.120974384 0.50852054 0.098740526 -0.13409822
000230 40 81 26 3e 77 f7 3b 3e 58 6e 4d 3e 84 47 7c 3e
       0.16260242 0.18356119 0.20061624 0.24636656
000240 6a 3f f6 3d c9 de fe bd fc 89 42 3e e5 4c 29 3f
       0.12023814 -0.12444837 0.1899795 0.66132957
000250 a9 88 28 3e f2 eb b4 be 79 87 9a 3e c8 1d 61 3e
       0.16458382 -0.35336262 0.30181482 0.21984017
000260 ee 5a e5 3e 21 01 a1 3e 49 22 44 3e 45 27 74 3d
       0.44795936 0.31446174 0.19153704 0.059607763
000270 1b 7e 30 3b f4 29 7b 3e bb 06 83 3d 46 31 50 be
       0.0026930633 0.24527723 0.06397768 -0.20331296
000280 bf 35 1b be ea 0d 76 3e 97 bb 11 bc 4f c4 d2 bc
       -0.15157221 0.24028745 -0.008894823 -0.025728373
000290 41 16 6b be 60 b2 53 3e 3e 15 26 bd 0c 2e 0d 3e
       -0.22957708 0.20673513 -0.040547602 0.13787097
0002a0 04 06 b7 bd 7b 46 65 be 7f 89 29 bf a8 53 18 be
       -0.08936694 -0.22390167 -0.6622543 -0.14875662
0002b0 a9 82 13 be 15 75 41 bb be 6c d2 be aa 77 af be
       -0.14405312 -0.002951925 -0.4109859 -0.34270984
0002c0 c0 a2 b8 3e 78 28 64 be 47 fd 94 be 34 63 0e bd
       0.36061668 -0.22281063 -0.29099485 -0.034762576
0002d0 0c 47 ec be ed 3c 44 bd af 1b a0 be 7b 11 ab be
       -0.46147954 -0.047909666 -0.3127112 -0.33411774
0002e0 0d 50 ed bb b8 a2 27 be ea cd ad be 63 3b d8 3c
       -0.007242209 -0.16370666 -0.33946162 0.026395505
0002f0 7c b5 26 3a 19 e4 2f be b0 96 0b 3d 3c 11 76 3d
       0.0006359441 -0.17176856 0.034079254 0.06007503
000300 c1 33 86 be 39 58 96 bd 86 ab 0a bf 67 3d b7 be
       -0.2621136 -0.07341046 -0.54167974 -0.35789034
000310 ea 1f 63 be 83 0e d5 bd a8 e5 9f bd dd 70 57 bd
       -0.22180143 -0.104031585 -0.07807475 -0.05259787
000320 34 46 fb be 79 06 ab be 45 e3 53 be 3e 03 4e be
       -0.49076998 -0.33403376 -0.20692165 -0.20118424
000330 12 c1 60 be 62 79 d8 be 05 91 a5 bd e1 c1 be be
       -0.2194865 -0.42280108 -0.08084301 -0.37257293
000340 92 b0 3b be f8 9b 78 3e fc 9e 91 bb 25 ca 62 bf
       -0.18329075 0.24278247 -0.0044440012 -0.885897
000350 0f 12 dd 3e 7e 3a 53 3d 69 87 e8 3c e8 6a 85 be
       0.4317784 0.051569454 0.028384881 -0.26058125
000360 b5 22 1b bd fd 27 02 3d 6b 30 a5 be 25 61 8d 3c
       -0.037874896 0.031776417 -0.32263502 0.017258236
000370 3e 10 75 3d 44 8e c8 be 70 78 5a be c8 5b c1 3d
       0.059829943 -0.3917104 -0.21335006 0.09441334
000380 63 b6 9d 3d fb 0e c9 3d ce 1a 13 bf 57 08 6d be
       0.07700803 0.098173104 -0.57462776 -0.23147713
000390 b9 bf fb 3e a4 9b 3a bf 70 d3 39 be c1 55 39 3d
       0.4916971 -0.7289374 -0.18147063 0.045247797
0003a0 7d 48 a1 bd 68 c4 00 3f 9b c3 53 3e b9 56 0c 3e
       -0.07875154 0.5029969 0.20680086 0.13704957
0003b0 b6 e2 6f be 62 84 c8 be ca 38 c9 be da 39 28 be
       -0.23426327 -0.391635 -0.3930114 -0.16428319
0003c0 7f 85 23 3f e6 c2 1d bf 31 2a 0d be ae 0f af be
       0.63875574 -0.61625516 -0.13785626 -0.3419165
0003d0 d6 9a 3a 3e df ff 0f be c5 aa e6 3c fc 76 15 bf
       0.18223128 -0.14062451 0.028157601 -0.5838468
0003e0 98 da 37 3e 72 3c 07 3c c2 0d bf be 81 2c 2c bf
       0.1795448 0.008254157 -0.37315184 -0.6725541
0003f0 e7 37 ac bc 33 6c b8 bc dd 0c cb 3e 04 7e dc bd
       -0.02102275 -0.02251253 0.3965825 -0.10766223

sequential.2.Lambda.bias f4 [120]
000000 89 0a cf 3b 82 61 9d be 3c c9 4a 3e 89 66 b0 3d
       0.0063183946 -0.30738455 0.19803327 0.08613307
000010 30 9c 17 be 8f ab f3 3e 2b 49 85 3e da 91 24 bd
       -0.14805675 0.47591826 0.26032385 -0.040178157
000020 f3 86 1e bf 31 7f d7 3d 98 76 4b 3d 93 4f d5 be
       -0.61924666 0.10522307 0.049673647 -0.41662273
000030 1b c4 14 3e ae 7c 0c bf 94 a0 39 be d4 51 94 be
       0.14527933 -0.54877746 -0.18127662 -0.2896868
000040 47 9c 00 be 39 2a d2 be 49 0b 64 bd a7 4e 23 bf
       -0.12559615 -0.41047838 -0.055674825 -0.6379189
000050 58 2b 08 bf a8 54 e9 bc 83 2c a5 3d 93 da d7 3d
       -0.5319114 -0.02848275 0.080651306 0.105397366
000060 f8 50 ee 3e 09 93 0f 3d 01 31 15 bf a1 a9 c6 bd
       0.4654615 0.035052333 -0.582779 -0.09700323
000070 a6 dc a6 bc d8 d3 57 3e 8e 4a 87 bd f6 e8 ab bd
       -0.020368885 0.21076906 -0.06606017 -0.08394043
000080 c4 62 de 3d 96 bd 66 3d e2 cf 70 3c 61 ec cc 3e
       0.10858682 0.056333147 0.014698001 0.40024093
000090 d6 7f f1 3d 16 30 7d 3e 95 31 1e 3d a5 fc b2 3d
       0.11791961 0.24725375 0.038621504 0.08739594
0000a0 a1 3e 87 3d 75 61 a6 be a7 0c f7 bc c6 42 d2 3e
       0.066037424 -0.3249623 -0.0301574 0.4106657
0000b0 15 73 12 3e 73 eb 9b be 34 3f 4e bf 0d 7b bd bd
       0.14301713 -0.3045307 -0.8056519 -0.09251986
0000c0 0d 84 8b bd 17 e7 c6 be 96 44 75 be a5 44 35 be
       -0.06812296 -0.38848183 -0.23951945 -0.17701967
0000d0 c7 be 9d be 28 02 e3 be 50 58 74 3e 90 75 38 be
       -0.30809614 -0.44337583 0.23861814 -0.18013597
0000e0 07 12 7d bf 16 c3 a4 3d eb 16 1f bd a9 52 60 bd
       -0.9885563 0.08045022 -0.038840216 -0.05476633
0000f0 c3 22 f7 be 5d 84 f8 3e fb 7c 29 bf 26 a7 43 be
       -0.4826871 0.48538485 -0.6620633 -0.19106731
000100 04 86 4b 3e 33 de 5b be 8f c6 70 be 87 ec 6c be
       0.19875342 -0.21471481 -0.23513244 -0.23137103
000110 c8 92 03 bf 3c ca ee be 36 2f 15 3e 6f c1 8b bd
       -0.51395845 -0.46638668 0.14568791 -0.06824004
000120 ef 6b 3a 3d e6 f4 7b be 36 02 09 be 4a d8 dd be
       0.04551309 -0.2460514 -0.1337975 -0.43329078
000130 2d 40 a6 bd 6f 6e af bc c4 0a 0e 3e 6f ca 53 bd
       -0.08117709 -0.021414964 0.13871294 -0.051706728
000140 12 35 e5 3c 3d fd a9 3d bf 55 30 3c 94 59 7b bd
       0.027979407 0.083002545 0.010762631 -0.061364725
000150 8b 79 0a bf a4 33 8f 3e 52 57 3c be 1c 16 a3 bd
       -0.5409171 0.27969086 -0.18392685 -0.079632014
000160 b7 3a 85 3b 0c e6 0d 3e a0 4c 94 bd f6 44 06 be
       0.0040658372 0.13857287 -0.072411776 -0.13112244
000170 91 30 b7 3c de ca a8 bd 3f 8e d6 be 03 32 12 bf
       0.022362025 -0.08241819 -0.419054 -0.5710756
000180 ee a7 de 3d 71 2e 64 3e e9 df ae 3d 58 83 49 be
       0.10871874 0.22283341 0.08538801 -0.1967901
000190 fc 32 0f bd 78 7c 24 3e 73 4e af 3d 8a 27 8c be
       -0.034960732 0.16063106 0.08559885 -0.27373916
0001a0 82 65 be be e4 93 05 bd 25 6d 98 be 93 c8 5c bd
       -0.3718682 -0.032611743 -0.2977077 -0.05390222
0001b0 34 a9 71 be 14 57 8d be 09 b2 dd bd 48 a9 9d bd
       -0.23599702 -0.27605498 -0.10824973 -0.076983035
0001c0 9b 19 95 3e 88 62 37 3d 5e 65 ae bc 42 45 57 3d
       0.29121098 0.0447717 -0.02128857 0.052556284
0001d0 77 e7 0e be cd a5 ac bf 94 46 2c 3e 8d b1 0b bf
       -0.13955484 -1.3488098 0.16823798 -0.54567796

sequential.2.bn.running_mean f4 [120]
000000 00 00 00 00 00 00 00 00 00 00 00 00 00 00 00 00
       0.0 0.0 0.0 0.0
000010 00 00 00 00 00 00 00 00 00 00 00 00 00 00 00 00
       0.0 0.0 0.0 0.0
000020 00 00 00 00 00 00 00 00 00 00 00 00 00 00 00 00
       0.0 0.0 0.0 0.0
000030 00 00 00 00 00 00 00 00 00 00 00 00 00 00 00 00
       0.0 0.0 0.0 0.0
000040 00 00 00 00 00 00 00 00 00 00 00 00 00 00 00 00
       0.0 0.0 0.0 0.0
000050 00 00 00 00 00 00 00 00 00 00 00 00 00 00 00 00
       0.0 0.0 0.0 0.0
000060 00 00 00 00 00 00 00 00 00 00 00 00 00 00 00 00
       0.0 0.0 0.0 0.0
000070 00 00 00 00 00 00 00 00 00 00 00 00 00 00 00 00
       0.0 0.0 0.0 0.0
000080 00 00 00 00 00 00 00 00 00 00 00 00 00 00 00 00
       0.0 0.0 0.0 0.0
000090 00 00 00 00 00 00 00 00 00 00 00 00 00 00 00 00
       0.0 0.0 0.0 0.0
0000a0 00 00 00 00 00 00 00 00 00 00 00 00 00 00 00 00
       0.0 0.0 0.0 0.0
0000b0 00 00 00 00 00 00 00 00 00 00 00 00 00 00 00 00
       0.0 0.0 0.0 0.0
0000c0 00 00 00 00 00 00 00 00 00 00 00 00 00 00 00 00
       0.0 0.0 0.0 0.0
0000d0 00 00 00 00 00 00 00 00 00 00 00 00 00 00 00 00
       0.0 0.0 0.0 0.0
0000e0 00 00 00 00 00 00 00 00 00 00 00 00 00 00 00 00
       0.0 0.0 0.0 0.0
0000f0 00 00 00 00 00 00 00 00 00 00 00 00 00 00 00 00
       0.0 0.0 0.0 0.0
000100 00 00 00 00 00 00 00 00 00 00 00 00 00 00 00 00
       0.0 0.0 0.0 0.0
000110 00 00 00 00 00 00 00 00 00 00 00 00 00 00 00 00
       0.0 0.0 0.0 0.0
000120 00 00 00 00 00 00 00 00 00 00 00 00 00 00 00 00
       0.0 0.0 0.0 0.0
000130 00 00 00 00 00 00 00 00 00 00 00 00 00 00 00 00
       0.0 0.0 0.0 0.0
000140 00 00 00 00 00 00 00 00 00 00 00 00 00 00 00 00
       0.0 0.0 0.0 0.0
000150 00 00 00 00 00 00 00 00 00 00 00 00 00 00 00 00
       0.0 0.0 0.0 0.0
000160 00 00 00 00 00 00 00 00 00 00 00 00 00 00 00 00
       0.0 0.0 0.0 0.0
000170 00 00 00 00 00 00 00 00 00 00 00 00 00 00 00 00
       0.0 0.0 0.0 0.0
000180 00 00 00 00 00 00 00 00 00 00 00 00 00 00 00 00
       0.0 0.0 0.0 0.0
000190 00 00 00 00 00 00 00 00 00 00 00 00 00 00 00 00
       0.0 0.0 0.0 0.0
0001a0 00 00 00 00 00 00 00 00 00 00 00 00 00 00 00 00
       0.0 0.0 0.0 0.0
0001b0 00 00 00 00 00 00 00 00 00 00 00 00 00 00 00 00
       0.0 0.0 0.0 0.0
0001c0 00 00 00 00 00 00 00 00 00 00 00 00 00 00 00 00
       0.0 0.0 0.0 0.0
0001d0 00 00 00 00 00 00 00 00 00 00 00 00 00 00 00 00
       0.0 0.0 0.0 0.0

sequential.2.bn.running_var f4 [120]
000000 00 00 80 3f 00 00 80 3f 00 00 80 3f 00 00 80 3f
       1.0 1.0 1.0 1.0
000010 00 00 80 3f 00 00 80 3f 00 00 80 3f 00 00 80 3f
       1.0 1.0 1.0 1.0
000020 00 00 80 3f 00 00 80 3f 00 00 80 3f 00 00 80 3f
       1.0 1.0 1.0 1.0
000030 00 00 80 3f 00 00 80 3f 00 00 80 3f 00 00 80 3f
       1.0 1.0 1.0 1.0
000040 00 00 80 3f 00 00 80 3f 00 00 80 3f 00 00 80 3f
       1.0 1.0 1.0 1.0
000050 00 00 80 3f 00 00 80 3f 00 00 80 3f 00 00 80 3f
       1.0 1.0 1.0 1.0
000060 00 00 80 3f 00 00 80 3f 00 00 80 3f 00 00 80 3f
       1.0 1.0 1.0 1.0
000070 00 00 80 3f 00 00 80 3f 00 00 80 3f 00 00 80 3f
       1.0 1.0 1.0 1.0
000080 00 00 80 3f 00 00 80 3f 00 00 80 3f 00 00 80 3f
       1.0 1.0 1.0 1.0
000090 00 00 80 3f 00 00 80 3f 00 00 80 3f 00 00 80 3f
       1.0 1.0 1.0 1.0
0000a0 00 00 80 3f 00 00 80 3f 00 00 80 3f 00 00 80 3f
       1.0 1.0 1.0 1.0
0000b0 00 00 80 3f 00 00 80 3f 00 00 80 3f 00 00 80 3f
       1.0 1.0 1.0 1.0
0000c0 00 00 80 3f 00 00 80 3f 00 00 80 3f 00 00 80 3f
       1.0 1.0 1.0 1.0
0000d0 00 00 80 3f 00 00 80 3f 00 00 80 3f 00 00 80 3f
       1.0 1.0 1.0 1.0
0000e0 00 00 80 3f 00 00 80 3f 00 00 80 3f 00 00 80 3f
       1.0 1.0 1.0 1.0
0000f0 00 00 80 3f 00 00 80 3f 00 00 80 3f 00 00 80 3f
       1.0 1.0 1.0 1.0
000100 00 00 80 3f 00 00 80 3f 00 00 80 3f 00 00 80 3f
       1.0 1.0 1.0 1.0
000110 00 00 80 3f 00 00 80 3f 00 00 80 3f 00 00 80 3f
       1.0 1.0 1.0 1.0
000120 00 00 80 3f 00 00 80 3f 00 00 80 3f 00 00 80 3f
       1.0 1.0 1.0 1.0
000130 00 00 80 3f 00 00 80 3f 00 00 80 3f 00 00 80 3f
       1.0 1.0 1.0 1.0
000140 00 00 80 3f 00 00 80 3f 00 00 80 3f 00 00 80 3f
       1.0 1.0 1.0 1.0
000150 00 00 80 3f 00 00 80 3f 00 00 80 3f 00 00 80 3f
       1.0 1.0 1.0 1.0
000160 00 00 80 3f 00 00 80 3f 00 00 80 3f 00 00 80 3f
       1.0 1.0 1.0 1.0
000170 00 00 80 3f 00 00 80 3f 00 00 80 3f 00 00 80 3f
       1.0 1.0 1.0 1.0
000180 00 00 80 3f 00 00 80 3f 00 00 80 3f 00 00 80 3f
       1.0 1.0 1.0 1.0
000190 00 00 80 3f 00 00 80 3f 00 00 80 3f 00 00 80 3f
       1.0 1.0 1.0 1.0
0001a0 00 00 80 3f 00 00 80 3f 00 00 80 3f 00 00 80 3f
       1.0 1.0 1.0 1.0
0001b0 00 00 80 3f 00 00 80 3f 00 00 80 3f 00 00 80 3f
       1.0 1.0 1.0 1.0
0001c0 00 00 80 3f 00 00 80 3f 00 00 80 3f 00 00 80 3f
       1.0 1.0 1.0 1.0
0001d0 00 00 80 3f 00 00 80 3f 00 00 80 3f 00 00 80 3f
       1.0 1.0 1.0 1.0
