Models/Z_10GeV_200_SP.pth (torch, 196762 bytes, 36 tensors)

sequential.0.Gamma.weight f4 [80, 3]
00000000: 1c52 473e 4ea3 203f 30aa 85be 1f28 15c0
00000010: 5a50 743e feeb 583f 2c5b 0dbf c3ae 353f
00000020: f482 cebe e36c 543e 6394 09bf ed7b 45bf
00000030: 27c2 163f 7687 c9bd 211f 0b3f 457c 22c0
00000040: e8fe dabe ee9a 633f 649c 2dbf 5134 cebf
00000050: 464e 0c3f 075d b8bf 651a 9e3f d734 9c3e
00000060: 255d cbbe 0ccc dc3e cae4 5e3f 8ab8 1bbf
00000070: 26b1 0b3d 5d5b bd3e 191c f0be 0f8a 87bf
00000080: f676 d03f da6d 7c3f b78e c5be 4dda 57bf
00000090: ae55 4b3f 2aa4 d0bd 7ea7 f8bd 08e5 9cbf
000000a0: 2695 3e3e bb4b 813e 8962 e1be d743 e5bf
000000b0: c91a 963c 534c 523e 131a 983b 92e9 9abe
000000c0: 8d07 993f 3c22 123f 31b0 7bbf 4d31 21bf
000000d0: d27a 1a3f 7450 cb3d e1d9 9a3f a147 0dc0
000000e0: 201b 573f 1e33 453f 5025 9e3d ac86 05bf
000000f0: 83d0 603f 494b 993f 1817 443e d1cf 933e
00000100: a181 493f edab a5bf aefd e63f e738 973f
00000110: 579f 803f d5c6 1a3f d5e5 d93e f6e2 203f
00000120: 2672 bb3e 33fe 8cbf b643 0bbf 47b4 7c3f
00000130: 8778 b63f 933f 96be a025 813f fd38 c63e
00000140: e97b dc3f c153 853d 5c8f b33e 3ab2 913f
00000150: de6f 303f d927 9e3f d088 5ebf 13f0 13bd
00000160: 87eb 3ebf 0b22 ba3f 1fa5 023f db0b a23f
00000170: 2f4b 65bf 5874 36be ef99 0f3f 2991 6abf
00000180: 0f93 d5be 5ec6 a8bf 1775 393f 5b32 ffbc
00000190: a73a 2d3f 41bb dd3e 3bc0 913f 82f5 a0bf
000001a0: 0f7f 2e3e a07b 69bb baf4 4e3f a581 1b3e
000001b0: d867 de3e 876f 24bf ce05 903f 8078 613f
000001c0: 297f c13f bf3d 32bf 8039 3e40 a088 1cbf
000001d0: 1fef c5bd db90 823f d3af dd3e f117 823e
000001e0: f36e 543f c3e5 61bf 285f ae3e 6d25 4e3f
000001f0: 3a91 e33e f61d 1fbf e20d 453f db70 54be
00000200: e727 ec3e aeb9 6fbe b343 a63d 44d6 083e
00000210: b7f1 3f3f ea05 4b3f 4aaa d2be dfc1 0fbf
00000220: d136 433f 947d 10bf 96e1 28bf afe7 5d3f
00000230: 740a 8f3e 2a76 0ebe 287b 7f3f 74d7 01bf
00000240: 7b22 383f f7f5 0840 2386 11bf fd82 bcbc
00000250: 00f7 28bf 8b71 053f 6e33 35bf d82e edbd
00000260: 70e5 2d3f 299f 3cbf 73b8 813e b157 70be
00000270: 83e4 f33f ea4d 4e3e 9666 e83c 0275 bf3e
00000280: 4596 a8be 69ea 473f 2f4a 543e 7858 85be
00000290: 5bf7 0f3f 9f96 2dbf 4aa5 83bb c44c f5be
000002a0: d2b6 883e c63f c33e fb9c 02bf e797 ebbb
000002b0: be49 0a3f dd65 113f bad6 75bf c1cb 7a3f
000002c0: b0c6 853f 4645 26bf 671d 92bf 32b3 993f
000002d0: 2703 05bf d12e fa3f 0312 36be 296e ab3e
000002e0: 71fe 3a3e 9879 a6bf d766 c83d 47fe 80bd
000002f0: fe91 0040 7169 c33f 7dd8 07bf 7b6f eb3e
00000300: ca19 0cbd 38bf 01bf b992 85bd dbf6 013f
00000310: 16e4 40bf 551f 3abe 20f8 be3e 09d9 353e
00000320: 078b fc3e 4f83 4f3f bf68 c43e 1c11 4ebf
00000330: 45a0 743f 7073 023f 4b77 80bf 9fb9 4d3e
00000340: 9a46 aa3f 1eaf 81bc d731 a1be 1359 ce3d
00000350: 2880 00bf 81a0 af3e 9632 02be b740 a13f
00000360: 33c5 a2bd e239 24be 5f34 fcbf 1d5f 103f
00000370: 947f 073f 4a2a c23e 68d5 773e 03f9 453f
00000380: b588 803e ae5d f2bf fd53 103f e790 703f
00000390: 5e89 233f 6545 c83f 7094 903f 11c3 7f3f
000003a0: 9384 af3b d4ce 47bf c519 453f 6fd2 333e
000003b0: aa6d c3bf a867 5b3e e5c3 9bbf dde1 3b3f
0.19464916 0.62749183 -0.26106405 -2.3305738 0.23858777 0.84735096 -0.5521724 0.7096979
-0.40334284 0.20744662 -0.53742045 -0.7714222 0.5889 -0.0984029 0.54344374 -2.5388348
-0.42772603 0.8890828 -0.6781676 -1.6109716 0.54806936 -1.440339 1.2351805 0.30509064
-0.397195 0.43124425 0.87067854 -0.6082846 0.03410449 0.36983767 -0.46896437 -1.0589007
1.6286304 0.9860512 -0.38585445 -0.84317476 0.7942761 -0.10187562 -0.121413216 -1.2257395
0.18611583 0.2525309 -0.4402049 -1.7911328 0.018323319 0.20536928 0.00464178 -0.30256325
1.1955429 0.5708349 -0.9831572 -0.6296585 0.6034366 0.099274546 1.2097741 -2.207497
0.84025764 0.77031124 0.077219605 -0.5215862 0.87818164 1.19761 0.19149435 0.2886949
0.78713423 -1.2943093 1.8046167 1.181424 1.0048627 0.60459644 0.4255816 0.62846315
0.36610526 -1.1015075 -0.54400194 0.9871258 1.4255532 -0.29345378 1.0089607 0.38715354
1.7225314 0.065101154 0.35070312 1.1382515 0.68920696 1.235591 -0.8692751 -0.036117624
-0.74578136 1.4541639 0.51033205 1.2659868 -0.89567846 -0.17817819 0.5609426 -0.91627747
-0.4171376 -1.3185537 0.7244429 -0.031151941 0.6766762 0.43306926 1.1386789 -1.2574923
0.17040657 -0.0035626665 0.80842173 0.15186174 0.43438601 -0.6423268 1.1251771 0.88074493
1.5116931 -0.6962547 2.9722595 -0.61145973 -0.09664749 1.0200456 0.43298206 0.2540889
0.82981795 -0.88241214 0.34056973 0.8052586 0.44446737 -0.6215509 0.7697431 -0.20746176
0.46124193 -0.23410675 0.08118381 0.13362986 0.749782 0.793059 -0.41145545 -0.561552
0.7625552 -0.56441617 -0.65969217 0.86681646 0.27937663 -0.13912264 0.99797297 -0.5071938
0.71927613 2.1400125 -0.568453 -0.023011679 -0.6600189 0.5212638 -0.707816 -0.115812
0.6792822 -0.7368036 0.25336036 -0.23470952 1.9054111 0.2014691 0.02836923 0.37393957
-0.32927147 0.78092057 0.20731424 -0.2604406 0.5623681 -0.67807955 -0.0040175067 -0.4791013
0.2670198 0.38134593 -0.51020783 -0.007189739 0.5401877 0.56796056 -0.9603077 0.97967154
1.045126 -0.6494945 -1.1415223 1.2007811 -0.51957935 1.9545537 -0.17780308 0.33482483
0.18261124 -1.3005857 0.0978524 -0.062984996 2.0089107 1.5266553 -0.5306471 0.4598349
-0.034204282 -0.506824 -0.06522126 0.50767297 -0.7534803 -0.18176015 0.3729868 0.17758574
0.4932482 0.81059736 0.38361165 -0.80494857 0.9555705 0.50957394 -1.0036405 0.2009034
1.3302796 -0.015830573 -0.31483337 0.10075583 -0.5019555 0.34302142 -0.1271461 1.2597874
-0.07947769 -0.16037706 -1.9703482 0.5639513 0.52929044 0.3792289 0.24202502 0.77333087
0.251043 -1.8934839 0.56378156 0.93971103 0.6388148 1.5646178 1.12953 0.9990702
0.0053563803 -0.7804997 0.76992446 0.17560743 -1.5267842 0.2142626 -1.2169157 0.73391515

sequential.0.Gamma.bias f4 [80]
00000000: 3f0d bcbe 90bb 02bf 6a71 a6be 6a9a 0dbf
00000010: 8337 b53e 7e5a 17be ea17 b7be 8f3c 65bd
00000020: 7d17 d7be 2eef 62be 1cbe 41be 8430 80be
00000030: 78d6 c5be 3793 7fbf 5c6d c5be 34a3 d5be
00000040: f344 cabe 921c c8be 09a1 edbe 63b1 b9be
00000050: a89f 433e b2ae cfbe 7b49 d3be 9292 06bf
00000060: ccbc 43bf f352 9b3d cbe9 0a3f 9e60 c7be
00000070: 3fd8 2f3e e4af 3dbf 91d2 cbbe 87d2 49be
00000080: e481 14bf ac02 98be 4418 06be 48a7 713e
00000090: 347e 40bf d16d 453e 74eb 053e 1a0c ff3d
000000a0: 93e1 aebe 2977 28be 1cb6 99be f607 0cbf
000000b0: 8f9a 023d aedd 04bf 8bc0 b43e 6cae 43be
000000c0: 0df4 f33e e95e e2be aca7 90be 8d91 29bf
000000d0: 9b33 15bf 618f 8cbe 0fde 20bf e2e9 fcbd
000000e0: 9ca1 bcbd ce17 26bf 68f3 c9be ee34 0cbf
000000f0: 50b6 acbe b04a a23c c886 8f3e 5c66 abbe
00000100: aafc 02bf 49ff 2bbf 0806 08bf 8047 f13e
00000110: ad6c 54bd 9f57 50be 7f94 f2be d6b7 c73e
00000120: e3da fdbe db43 9ebe ef6c f9be fae3 c3be
00000130: e48d ca3e 9167 2dbf 67b2 88be 16b2 a1be
-0.36728856 -0.5106745 -0.32508403 -0.5531374 0.35393915 -0.14780614 -0.35760432 -0.055965956
-0.42010108 -0.22161552 -0.18920177 -0.25037014 -0.3864019 -0.9983401 -0.38559997 -0.41726077
-0.3950573 -0.39084297 -0.46411923 -0.36268148 0.19103873 -0.4056297 -0.41267 -0.525674
-0.76459956 0.07584181 0.5426299 -0.389409 0.17172335 -0.7409651 -0.39809087 -0.19709216
-0.580107 -0.29689538 -0.13095194 0.23598969 -0.7519257 0.19280173 0.130781 0.1245348
-0.34156474 -0.16451706 -0.3002175 -0.5469965 0.03188568 -0.51900756 0.3530315 -0.19109505
0.47647133 -0.44213036 -0.28252923 -0.6623772 -0.5828187 -0.2745314 -0.62838835 -0.12349297
-0.09210512 -0.64880073 -0.39443517 -0.54768264 -0.33732843 0.019811004 0.28032517 -0.33476532
-0.51166785 -0.6718641 -0.531342 0.47124863 -0.051861454 -0.20345925 -0.4737892 0.39007443
-0.4958106 -0.30911145 -0.48715922 -0.3825987 0.3956138 -0.67736155 -0.2669861 -0.3158118

sequential.0.Lambda.weight f4 [80, 3]
00000000: e152 2fbf 819b 9d3e d8ca 4fbe 7849 64be
00000010: ca62 cf3e b321 e23e 6c6e b23d fd4e 6fbf
00000020: fb86 893f 3ed3 31bf 3088 1040 879a 2abf
00000030: 560d 053b 7984 4e3e 99cd dcbe 2920 91be
00000040: 35d9 c53d 0884 7b3f eb38 9b3f ff3a e03e
00000050: 20a2 05bf cee9 bbbe c8ee 853d 7805 8dbc
00000060: a9bc 92bf 438c 7abf 6542 103f 4431 023e
00000070: e253 083e 0add 14be ddf7 443f a746 a3bf
00000080: 66a9 3abd c192 5dbf 8278 893e 0f16 843f
00000090: 927f 45bd 105e 903e 292f ce3d 6677 a5bd
000000a0: b00a be3f 4978 f83e 501c 5b3d cbca 84bd
000000b0: cd66 8e3f 300a 723e 4812 d9bf 2ace 903f
000000c0: d4a8 84bf 9921 093f fcd2 873f 0f37 f0be
000000d0: 2a4a 00be d4e6 013f b6b8 553f 2f07 02bf
000000e0: fc34 9a3e 1127 753f 2390 1b3e eed3 93bf
000000f0: 5abd d5bf 7200 a4bf bd85 10bf b372 283d
00000100: 88ac c73e 8f5a 9abd 1c65 313e 738d 1f3f
00000110: 3f9c a8bf 057b 1fbf 6ddb 8fbf b4f3 3c3e
00000120: 961f e73f e5e9 233e e0de ae3d 3aab aabe
00000130: 6ef0 953f e93c 88be 48ac 94be b179 143f
00000140: df8e b9be 61b8 653f df58 4abf 2929 26be
00000150: 39cf 10bf 8821 92bf 5418 e33f 9926 213f
00000160: a968 1b3f 66b8 3abe ca2d c8bd 55d1 0d3e
00000170: ea93 333d 07c0 a8be db8c 183e a433 593f
00000180: 1241 0c3f db33 20bf c1b1 513f 01cb 73bf
00000190: c130 3e3e d532 a5be 9170 d93e 8725 16bf
000001a0: f8ce a23d 3700 d93e 03be 0bbf 0bb6 f8be
000001b0: b3c8 5bbe 32bc 1c3f d993 7e3f 97cc c4bf
000001c0: 6eda c7bc 723f 343f d1cc a2bf 4bdb 0c3f
000001d0: 4659 d33a 9524 34bf 6fba cebe 0425 893f
000001e0: cae8 943e 125a 8d3e da95 8abf f5fd 84bf
000001f0: efc5 2dbf 2ec6 843f fbb7 f9bd 72d9 d43d
00000200: 24a0 34bf 1c55 e6be 0e6a ed3c 38af 8a3f
00000210: 9594 85bf 3abb 193f db50 19bf 7f8a b9be
00000220: 50ca 943e 7289 003f 7f46 ca3f 484e cd3e
00000230: d9a7 f2bf 19d2 063e 2bed e3bf 4640 003f
00000240: 5dc6 f03d 488f 2abf 22c5 bb3e d237 4a3f
00000250: 9c1a 213e 7d3c 7bbf a371 443f 4288 b23e
00000260: 1a68 14bf c235 273f a136 95bc 58cc 3b3e
00000270: 4654 7a3f 5e05 69bf 320a 2dbd 7e66 82bf
00000280: 7b13 473d 7554 513f 10b2 e4bf 87af a73d
00000290: d416 80be 8c77 a0bf 0b7b 913f 9113 bc3e
000002a0: 9309 e4be 6565 a0be 2a0c 323f 93e6 ab3e
000002b0: 2f79 8cbf a8b5 1cc0 fdff 9d3f 2536 3abf
000002c0: 0c29 a3be 3934 5fbf d707 0e40 ce52 3ebe
000002d0: d962 9abe 43f0 543e 7ba9 e8bc 8b1d da3e
000002e0: 54a0 3bbf e412 813f bdc2 d63e 42d5 fbbd
000002f0: cd27 b83e 72d0 093e 41ba 5e3f 7e3f 98bf
00000300: 74aa cfbd 80eb bd3e 44b5 9d3e 63a2 ae3f
00000310: 0f6c 8dbf d26f 81bf 4261 323e 3375 74bf
00000320: c474 52bd 5d93 c43e 5adb 7ebf 6639 513e
00000330: 99cf 613f fa0a 573f 773f aebf a599 4b3f
00000340: 7e09 c4be 2843 9bbe 9a21 a13f b378 a0bf
00000350: 3e0b bf3e 9aed 58bf 35c8 49be b101 85bd
00000360: a8ce edbd 4b5f 803e 806c 563f 5aae 8e3e
00000370: f4dd 103f c24b 0bbf 85e7 c43e 74b5 edbe
00000380: 27fb 81bf 3458 0dbe 7b53 8b3f fb33 6fbe
00000390: 463a dfbe 62ff 8c3e 70d4 8f3e 4da9 793e
000003a0: 1fc9 6bbe 9a62 07be 1406 ef3e cb97 debf
000003b0: db01 ac3f 4046 98be 3811 debe 8b1b 263f
-0.6848584 0.30782703 -0.20292222 -0.22293651 0.40505058 0.44166335 0.087124676 -0.934799
1.0744318 -0.69462955 2.2583122 -0.6664204 0.0020302138 0.20167722 -0.4312561 -0.2834485
0.096605696 0.9824834 1.2126745 0.4379501 -0.5220051 -0.36701816 0.065396845 -0.017214522
-1.1463825 -0.9787027 0.5635131 0.12714106 0.13313249 -0.14537445 0.7694071 -1.2755936
-0.045571707 -0.86552054 0.26849753 1.0319232 -0.048217364 0.28196764 0.10067589 -0.08079414
1.4847012 0.4852927 0.053493798 -0.06483992 1.1125122 0.23636699 -1.6958704 1.1312916
-1.0364022 0.5356689 1.0611262 -0.46917006 -0.12528291 0.5074284 0.8348497 -0.5079221
0.3011855 0.95762736 0.15191703 -1.1549051 -1.669841 -1.2812636 -0.5645407 0.04112501
0.38998818 -0.07536804 0.17323726 0.6232521 -1.3172683 -0.6229709 -1.1238838 0.1845234
1.8056514 0.16007192 0.08538604 -0.3333376 1.1713998 -0.2660897 -0.2903769 0.57998186
-0.36241814 0.89734465 -0.79041857 -0.16226639 -0.56566197 -1.1416483 1.7741799 0.6294952
0.60706574 -0.18234405 -0.097743586 0.13849385 0.043842234 -0.32959005 0.14897482 0.8484442
0.5478679 -0.62579125 0.81911856 -0.95231634 0.18573286 -0.32265344 0.42468694 -0.5865101
0.079496324 0.42382976 -0.5458681 -0.48576388 -0.2146328 0.61224663 0.9944435 -1.5374936
-0.024396148 0.7040931 -1.2718755 0.55022115 0.0016124628 -0.7036832 -0.40376613 1.0714421
0.29083854 0.2760778 -1.0826981 -1.0390002 -0.6788015 1.037298 -0.121932946 0.10393037
-0.70556855 -0.44986808 0.028981235 1.0834723 -1.0435969 0.6005131 -0.59889 -0.36238477
0.29060602 0.50209725 1.5802764 0.40098786 -1.8957473 0.13166083 -1.7806753 0.50098073
0.11756585 -0.6662488 0.36673838 0.78991425 0.15732807 -0.9813917 0.76735896 0.3486958
-0.57971346 0.653164 -0.018214526 0.1833967 0.9778484 -0.91023815 -0.04224605 -1.0187528
0.048602562 0.81769496 -1.786684 0.08187776 -0.25017416 -1.2536483 1.1365675 0.36733678
-0.44538555 -0.31327358 0.6954981 0.33574352 -1.0974482 -2.4485874 1.2343746 -0.7273887
-0.31867254 -0.8718906 2.2192285 -0.18586275 -0.3015354 0.20794778 -0.028401127 0.42600664
-0.73291516 1.008389 0.4194545 -0.12296535 0.35967866 0.13458422 0.8700295 -1.1894376
-0.10139933 0.37093735 0.30802357 1.3643306 -1.1048602 -1.011225 0.17419913 -0.9549133
-0.051380888 0.3839368 -0.99553454 0.20432052 0.88207394 0.84001124 -1.3613118 0.7953132
-0.38288492 -0.30324674 1.2588379 -1.2536834 0.37313265 -0.8473755 -0.19705279 -0.06494463
-0.11611682 0.25072703 0.8375931 0.27867395 0.56588674 -0.5441247 0.38457885 -0.464275
-1.0154771 -0.13803178 1.0884851 -0.23359673 -0.43599147 0.27538592 0.28091764 0.2438099
-0.2302594 -0.13221207 0.46684325 -1.7390074 1.3438066 -0.29741096 -0.43372512 0.6488578

sequential.0.Lambda.bias f4 [80]
00000000: 3f0d bcbe 90bb 02bf 6a71 a6be 6a9a 0dbf
00000010: 8337 b53e 7e5a 17be ea17 b7be 8f3c 65bd
00000020: 7d17 d7be 2eef 62be 1cbe 41be 8430 80be
00000030: 78d6 c5be 3793 7fbf 5c6d c5be 34a3 d5be
00000040: f344 cabe 921c c8be 09a1 edbe 63b1 b9be
00000050: a89f 433e b2ae cfbe 7b49 d3be 9292 06bf
00000060: ccbc 43bf f352 9b3d cbe9 0a3f 9e60 c7be
00000070: 3fd8 2f3e e4af 3dbf 91d2 cbbe 87d2 49be
00000080: e481 14bf ac02 98be 4418 06be 48a7 713e
00000090: 347e 40bf d16d 453e 74eb 053e 1a0c ff3d
000000a0: 93e1 aebe 2977 28be 1cb6 99be f607 0cbf
000000b0: 8f9a 023d aedd 04bf 8bc0 b43e 6cae 43be
000000c0: 0df4 f33e e95e e2be aca7 90be 8d91 29bf
000000d0: 9b33 15bf 618f 8cbe 0fde 20bf e2e9 fcbd
000000e0: 9ca1 bcbd ce17 26bf 68f3 c9be ee34 0cbf
000000f0: 50b6 acbe b04a a23c c886 8f3e 5c66 abbe
00000100: aafc 02bf 49ff 2bbf 0806 08bf 8047 f13e
00000110: ad6c 54bd 9f57 50be 7f94 f2be d6b7 c73e
00000120: e3da fdbe db43 9ebe ef6c f9be fae3 c3be
00000130: e48d ca3e 9167 2dbf 67b2 88be 16b2 a1be
-0.36728856 -0.5106745 -0.32508403 -0.5531374 0.35393915 -0.14780614 -0.35760432 -0.055965956
-0.42010108 -0.22161552 -0.18920177 -0.25037014 -0.3864019 -0.9983401 -0.38559997 -0.41726077
-0.3950573 -0.39084297 -0.46411923 -0.36268148 0.19103873 -0.4056297 -0.41267 -0.525674
-0.76459956 0.07584181 0.5426299 -0.389409 0.17172335 -0.7409651 -0.39809087 -0.19709216
-0.580107 -0.29689538 -0.13095194 0.23598969 -0.7519257 0.19280173 0.130781 0.1245348
-0.34156474 -0.16451706 -0.3002175 -0.5469965 0.03188568 -0.51900756 0.3530315 -0.19109505
0.47647133 -0.44213036 -0.28252923 -0.6623772 -0.5828187 -0.2745314 -0.62838835 -0.12349297
-0.09210512 -0.64880073 -0.39443517 -0.54768264 -0.33732843 0.019811004 0.28032517 -0.33476532
-0.51166785 -0.6718641 -0.531342 0.47124863 -0.051861454 -0.20345925 -0.4737892 0.39007443
-0.4958106 -0.30911145 -0.48715922 -0.3825987 0.3956138 -0.67736155 -0.2669861 -0.3158118

sequential.0.bn.running_mean f4 [80]
00000000: 0000 0000 0000 0000 0000 0000 0000 0000
00000010: 0000 0000 0000 0000 0000 0000 0000 0000
00000020: 0000 0000 0000 0000 0000 0000 0000 0000
00000030: 0000 0000 0000 0000 0000 0000 0000 0000
00000040: 0000 0000 0000 0000 0000 0000 0000 0000
00000050: 0000 0000 0000 0000 0000 0000 0000 0000
00000060: 0000 0000 0000 0000 0000 0000 0000 0000
00000070: 0000 0000 0000 0000 0000 0000 0000 0000
00000080: 0000 0000 0000 0000 0000 0000 0000 0000
00000090: 0000 0000 0000 0000 0000 0000 0000 0000
000000a0: 0000 0000 0000 0000 0000 0000 0000 0000
000000b0: 0000 0000 0000 0000 0000 0000 0000 0000
000000c0: 0000 0000 0000 0000 0000 0000 0000 0000
000000d0: 0000 0000 0000 0000 0000 0000 0000 0000
000000e0: 0000 0000 0000 0000 0000 0000 0000 0000
000000f0: 0000 0000 0000 0000 0000 0000 0000 0000
00000100: 0000 0000 0000 0000 0000 0000 0000 0000
00000110: 0000 0000 0000 0000 0000 0000 0000 0000
00000120: 0000 0000 0000 0000 0000 0000 0000 0000
00000130: 0000 0000 0000 0000 0000 0000 0000 0000
0.0 0.0 0.0 0.0 0.0 0.0 0.0 0.0
0.0 0.0 0.0 0.0 0.0 0.0 0.0 0.0
0.0 0.0 0.0 0.0 0.0 0.0 0.0 0.0
0.0 0.0 0.0 0.0 0.0 0.0 0.0 0.0
0.0 0.0 0.0 0.0 0.0 0.0 0.0 0.0
0.0 0.0 0.0 0.0 0.0 0.0 0.0 0.0
0.0 0.0 0.0 0.0 0.0 0.0 0.0 0.0
0.0 0.0 0.0 0.0 0.0 0.0 0.0 0.0
0.0 0.0 0.0 0.0 0.0 0.0 0.0 0.0
0.0 0.0 0.0 0.0 0.0 0.0 0.0 0.0

sequential.0.bn.running_var f4 [80]
00000000: 0000 803f 0000 803f 0000 803f 0000 803f
00000010: 0000 803f 0000 803f 0000 803f 0000 803f
00000020: 0000 803f 0000 803f 0000 803f 0000 803f
00000030: 0000 803f 0000 803f 0000 803f 0000 803f
00000040: 0000 803f 0000 803f 0000 803f 0000 803f
00000050: 0000 803f 0000 803f 0000 803f 0000 803f
00000060: 0000 803f 0000 803f 0000 803f 0000 803f
00000070: 0000 803f 0000 803f 0000 803f 0000 803f
00000080: 0000 803f 0000 803f 0000 803f 0000 803f
00000090: 0000 803f 0000 803f 0000 803f 0000 803f
000000a0: 0000 803f 0000 803f 0000 803f 0000 803f
000000b0: 0000 803f 0000 803f 0000 803f 0000 803f
000000c0: 0000 803f 0000 803f 0000 803f 0000 803f
000000d0: 0000 803f 0000 803f 0000 803f 0000 803f
000000e0: 0000 803f 0000 803f 0000 803f 0000 803f
000000f0: 0000 803f 0000 803f 0000 803f 0000 803f
00000100: 0000 803f 0000 803f 0000 803f 0000 803f
00000110: 0000 803f 0000 803f 0000 803f 0000 803f
00000120: 0000 803f 0000 803f 0000 803f 0000 803f
00000130: 0000 803f 0000 803f 0000 803f 0000 803f
1.0 1.0 1.0 1.0 1.0 1.0 1.0 1.0
1.0 1.0 1.0 1.0 1.0 1.0 1.0 1.0
1.0 1.0 1.0 1.0 1.0 1.0 1.0 1.0
1.0 1.0 1.0 1.0 1.0 1.0 1.0 1.0
1.0 1.0 1.0 1.0 1.0 1.0 1.0 1.0
1.0 1.0 1.0 1.0 1.0 1.0 1.0 1.0
1.0 1.0 1.0 1.0 1.0 1.0 1.0 1.0
1.0 1.0 1.0 1.0 1.0 1.0 1.0 1.0
1.0 1.0 1.0 1.0 1.0 1.0 1.0 1.0
1.0 1.0 1.0 1.0 1.0 1.0 1.0 1.0

sequential.2.Gamma.weight f4 [120, 80]
00000000: 5b29 03bf aaaf 27bf 26a4 6ebd 4f8e 16be
00000010: 69b0 ab3d 4533 c5be 2106 d1be 72a9 d6be
00000020: 0881 0bbf 3678 ecbe 436a 6ebe 227f 703d
00000030: a600 a83e 3831 53be f4fd 10be 66ec f6bc
00000040: 5ed4 bb3e 7e87 37be 98c6 0bbf 2fb4 59be
00000050: 8c81 2d3e 99dd 643e 84f2 313d 9eec 8a3e
00000060: 945c 83be 5651 28be a696 303e 0808 45be
00000070: dfb2 183e 3f2c 2cbc 712e 7abd 754f 433e
00000080: 80cc 14bf 9c28 1fbf a4fc 01be 5f4f c9bd
00000090: a887 81bd 9608 a93e 295b 7a3e 4011 403e
000000a0: f7e4 d1be 0557 02be 9d8b c63e 64ee 413e
000000b0: 52db c2be 7334 b1bd e552 38bf fa8b 22be
000000c0: d945 4d3e b951 633d cd15 05bf bad3 f0be
000000d0: 4243 e83e ad55 3bbe 3255 053e 6f8f e5be
000000e0: 7413 f33d 2ef1 c63d 3fea dabe 92e3 f8be
000000f0: c934 513e ec2b c0be 21b9 6abd e323 393e
00000100: 0f76 1fbf 5478 053e 1924 9b3e a269 b6be
00000110: cd2e 0b3d 9cc2 86be e5cf 33be 276d a2be
00000120: b838 a3be a85e 22be c93a 03bf 6c13 bcbe
00000130: 8544 493d c71d 77be 7e7b de3b 3bab d43d
00000140: 0531 7fbe ae33 583e 8ce7 74be 302e 203e
00000150: d23f 55bd ebe6 38be 4b15 10bf 5b24 97be
00000160: 7ac2 c9be 50a9 883d dc8f 283d 1511 9cbd
00000170: 0bf3 9a3d c772 183e cc33 89be ae8e e83d
00000180: ccc1 d23c c94a ab3e eaca 0e3d 1eb0 843e
00000190: e053 b3bd fe42 d4be a057 863e 7840 8fbe
000001a0: 3e35 093d 74a1 e1be 0924 f1be 0d96 283e
000001b0: dbef 9ebb 6610 b6be a987 0cbf 927a d83d
000001c0: 24ea dfbe d273 4a3a fc68 843e f35e 09bc
000001d0: b331 7b3d b0d1 0fbd d551 17bd 9739 20bd
000001e0: ca11 9ebe ee68 a13d a301 bf3e 1c3e 97be
000001f0: 32d0 59be eb99 053e 7bb1 b1be 085d adbd
00000200: e483 e13c 598d 22be 960e a9be b993 683d
00000210: 7852 0a3e 9f92 dbbe 8f29 343d a2fe cb3d
00000220: ce42 bc3d 3d30 8ebe 95dc e13d d199 f93d
00000230: 68b6 08be ed31 0a3b 044d 36be a5a9 623e
00000240: 4a11 d7bd 109a 5bbe 98d5 773e 52f8 573e
00000250: 5f44 04be dee8 203c 457b 05be b6bd c73c
00000260: 322a cbbe 7451 513e 83ae 6bbe ebbe 94bd
00000270: 40d8 c2be d70c 503f 67a5 543e 43cf 5ebe
00000280: 46eb ffbe 77f0 2fbe ef29 febe 92a8 403e
00000290: a888 ac3c 8758 c9be 9f70 42bd 73f4 87be
000002a0: f2ea 83bb 112b 65be de4b 00bd 753f e23e
000002b0: 79e2 923e cc51 32be 1626 adbe 32be b7be
000002c0: c6f8 953d 654b 893d 7567 6f3e c69c a3be
000002d0: a943 bcbe 50a8 9cbe 5e93 8bbe d1fe c7bd
000002e0: 6513 1b3d ac2e 7dbd 2b0b 173e 3692 36bd
000002f0: 9b27 9bbd 9c18 28bc 0bcd 9ebe e5db 05bf
00000300: 1895 3d3e fb28 4b3d 61c3 483d ac04 73be
00000310: 42b9 6ebd cd83 1a3d 2226 bb3e 21de 983e
00000320: 8b72 d83d 1847 06be 8aa5 c73c 3a07 33be
00000330: f027 743e 6287 0fbf 82e1 61be 78a3 303f
00000340: a5f4 7a3c 0c1b e83c 759c 5cbe a974 3ebf
00000350: 55c4 973d 9ffd 303d 5aaa 603e 4005 8abd
00000360: e5a6 87be e9c2 fa3e f841 a9be 2c4b a53e
00000370: 8a71 4bbd e15d 0dbf 8465 ebbd 36ca 9abc
00000380: 63c9 36be 8bdb d93d 2f3c 4ebe 8926 45bf
00000390: 604d cbbd ecd8 9dbd 68ef 15bf d818 0dbe
000003a0: 02a7 a8be 9db2 a53d fccf 103e ef85 24be
000003b0: a867 91be 9712 52be c465 53be c544 d53c
000003c0: a423 78be ffd4 023e 8b9c 93bf 7bb4 053e
000003d0: d55b df3e e845 87bc bbab ca3e 2927 e9be
000003e0: 8f59 97be 98c0 04be aa97 7abe 80a4 04bf
000003f0: 9408 86bd 3bdd f33d d599 e7bd 7d93 5abe
-0.5123498 -0.6550242 -0.058262013 -0.14702724 0.08383257 -0.38515678 -0.40824988 -0.41926152
-0.5449376 -0.46185464 -0.23282723 0.058714993 0.32812995 -0.20624244 -0.14159375 -0.03014202
0.3668546 -0.1792278 -0.54599905 -0.21260141 0.1694395 0.22350158 0.04344417 0.2713365
-0.2565657 -0.16437277 0.17244968 -0.19241345 0.14911984 -0.010508596 -0.061079446 0.19073279
-0.5812454 -0.6217134 -0.12694031 -0.09829592 -0.063247025 0.33014363 0.24448837 0.1875658
-0.40995 -0.12728508 0.3877839 0.18938595 -0.38057953 -0.08652582 -0.72001487 -0.1587371
0.20046176 0.05549786 -0.5198639 -0.47036535 0.45363814 -0.18294401 0.1302078 -0.44835994
0.11868945 0.0971397 -0.4275684 -0.48611122 0.20430292 -0.3753351 -0.05730546 0.18080096
-0.6228952 0.13034183 0.30300978 -0.35627466 0.03398018 -0.2632035 -0.17559774 -0.31723902
-0.3187921 -0.15856421 -0.51261574 -0.36733568 0.04913761 -0.24132453 0.0067896238 0.10384222
-0.24921043 0.21113464 -0.23916453 0.15642619 -0.052062817 -0.18056838 -0.5628249 -0.29519925
-0.39406186 0.06672919 0.04115282 -0.07620446 0.07565888 0.14887534 -0.2679733 0.11355339
0.025727175 0.33455494 0.034861483 0.25915617 -0.08756232 -0.4145736 0.26238728 -0.27978873
0.03349804 -0.4406849 -0.47097805 0.1646349 -0.0048503703 -0.35559386 -0.548945 0.105702534
-0.43733323 0.0007722947 0.25861347 -0.008384454 0.061326694 -0.035112083 -0.036943275 -0.039117422
-0.30872947 0.07881342 0.37305936 -0.29539573 -0.21270826 0.13046996 -0.3470572 -0.0846501
0.02752871 -0.15874232 -0.3301894 0.056781504 0.13508022 -0.428853 0.043984946 0.09960677
0.091924295 -0.27771178 0.11028401 0.12187541 -0.13350832 0.0021086887 -0.17802817 0.22135027
-0.105013445 -0.21445489 0.24202573 0.2109082 -0.12916707 0.009821145 -0.13035305 0.024382453
-0.3968063 0.20441228 -0.2301579 -0.07262977 -0.3805561 0.8126959 0.20766221 -0.21758752
-0.49984187 -0.17181574 -0.49641368 0.18814304 0.021061257 -0.39325354 -0.047470685 -0.26553687
-0.0040258104 -0.2237971 -0.031322353 0.4418904 0.2868841 -0.17414016 -0.3381812 -0.35887295
0.073228404 0.067038335 0.2337931 -0.31955546 -0.3677037 -0.30597162 -0.2726087 -0.09765399
0.037860293 -0.061812088 0.14750354 -0.04457303 -0.075759135 -0.010259774 -0.3101581 -0.5228866
0.18513906 0.04959963 0.049014453 -0.23732251 -0.058282144 0.03772335 0.3655253 0.2985697
0.10568722 -0.13113058 0.024370927 -0.17483225 0.2384336 -0.5606595 -0.2205868 0.68999434
0.015317117 0.02833321 -0.21544059 -0.7439676 0.07410494 0.043210622 0.21939984 -0.067392826
-0.26494518 0.4897683 -0.33058143 0.32283914 -0.049668826 -0.5522137 -0.11493972 -0.01889525
-0.1785026 0.106375776 -0.20140146 -0.77011925 -0.099268675 -0.0770739 -0.5856843 -0.13779008
-0.32939917 0.080907084 0.1414184 -0.16066717 -0.28399396 -0.20514904 -0.2064429 0.026033768
-0.24232346 0.12776564 -1.1532148 0.13057129 0.4362475 -0.016512826 0.39584145 -0.4553769
-0.29560515 -0.12964094 -0.24471918 -0.5181351 -0.06544605 0.11907431 -0.11308638 -0.21345325

sequential.2.Gamma.bias f4 [120]
00000000: fd34 d8be 7cf9 19be 7485 a7be ddf7 223c
00000010: 3c87 bd3e d548 e0be 6c13 9bbe 9d7b e9be
00000020: c9b4 483d afef 2b3f 3489 27be f64b cdbe
00000030: 41b6 d7bd 1baf a1be 31a1 273d bcec 083f
00000040: cea8 b3be 46dc bf3e 94fd 23bf a635 68bf
00000050: 4788 86be ca59 593e d2b6 ae3e 17d8 06bf
00000060: 0c69 003e 1128 20be 66ec cabe bf0a ecbe
00000070: eb88 4cbc cbaf aebe 14cc 3ebe ce3e 9bbe
00000080: a8e8 e7be 8ec7 2dbd 41c4 ffbe 2a32 0ebf
00000090: 5bf8 42bf a331 04bf 5041 28bf b392 2f3e
000000a0: 6a9b b63e 8871 8b3e e2ff a9bd c9e8 b5be
000000b0: 6f8e b3be 2750 283e ea24 fbbe 5c6f 30bf
000000c0: 071e 3abe 6fe9 16be 464c a8be 6d5f 69be
000000d0: 25cd 2ebe 1a78 b7be 6297 22bf 8aed 95bd
000000e0: f87f 21bf 7fe9 1dbf 825d f43e 933d afbe
000000f0: b3dd 46bb ed4f 11bf 1172 27bf e751 b03e
00000100: 7010 c3be 676d b2be da99 01bf 66c2 d8be
00000110: 3134 173d b81d 66be 2d8b 49be 86a4 8ebc
00000120: e08f 02bf 1837 3cbf 4f99 cbbe cc99 a4bd
00000130: 0a3f f5be 3cf9 01bf ba9c 68be c866 2fbf
00000140: 0eaf 2dbe c738 fa3c bc35 0dbf 7fa4 183e
00000150: 0996 7e3e f36d efbe 3546 aabe a105 c63e
00000160: 7a06 9dbe bca5 933e 839b 95be 6067 bbbe
00000170: acc8 c4be a03f debe a232 02bf 948e cc3e
00000180: 87ae c8be f9e3 99be 4b7d 3cbe 3a1b a9be
00000190: 216e 483f c079 503c d0a5 033d 193e 15bf
000001a0: de02 8cbe 4efd 623e a476 d7bc 112a 1ebf
000001b0: a877 91be ff24 b03d 59e2 1abf 8dc3 94be
000001c0: ce33 9ebe afbb 8bbe c125 f0be c392 c3bd
000001d0: 39cc cfbd 14ed 78be fe22 ed3e 2a4b b0bd
-0.42227927 -0.15036577 -0.32719004 0.0099467905 0.37017238 -0.43805566 -0.30288255 -0.45602122
0.049000535 0.67162603 -0.16360933 -0.40097016 -0.10532809 -0.31578907 0.04092521 0.5348623
-0.35089725 0.37472743 -0.64058805 -0.9070686 -0.26275846 0.21225658 0.34123856 -0.52673477
0.12540072 -0.15640284 -0.39633483 -0.4610195 -0.012483816 -0.34118494 -0.18632537 -0.30321354
-0.4529469 -0.04242664 -0.49954417 -0.55545294 -0.7616021 -0.5163824 -0.6572466 0.17145805
0.35665447 0.27235055 -0.08300759 -0.35529163 -0.35069606 0.16436826 -0.490516 -0.6891992
-0.18175517 -0.14737485 -0.32870692 -0.22790308 -0.17070444 -0.35833818 -0.6351224 -0.073206976
-0.6308589 -0.6168441 0.4772759 -0.34226665 -0.0030344545 -0.5676258 -0.65408427 0.34437487
-0.38098478 -0.34849092 -0.50625384 -0.42335814 0.036915008 -0.22472274 -0.19681998 -0.017412435
-0.51000786 -0.73521566 -0.39765403 -0.08037147 -0.47899657 -0.50770926 -0.22716036 -0.68516207
-0.1696131 0.030544652 -0.5516012 0.149065 0.24861921 -0.46763572 -0.3325669 0.3867617
-0.30669004 0.28837383 -0.2922021 -0.36602306 -0.3843435 -0.43407917 -0.5085851 0.39952528
-0.39195654 -0.30056742 -0.1840717 -0.33028585 0.78293043 0.01272434 0.032140553 -0.5829788
-0.27345937 0.2216694 -0.02630169 -0.6178294 -0.28411603 0.086008064 -0.6050163 -0.29055443
-0.308989 -0.2729163 -0.46903804 -0.09549477 -0.10146374 -0.24309188 0.4631576 -0.086080864

sequential.2.Lambda.weight f4 [120, 80]
00000000: 0de3 a1be 49d5 b93d db24 15be ec4e 62bf
00000010: bd1a fa3c 9ec3 223d 626a 443e 8787 a4be
00000020: acc9 76be 965c 70bc da6e bc3b b6db 8b3e
00000030: df4e 943d 2a0b c8bd 7d9a dd3e febe 77bd
00000040: eec8 823e d826 c5be 2aff 38bf f30f afbe
00000050: 1df2 e1bd 62c6 f43d b4e6 543e 3e7d e8be
00000060: a784 a6bc c5af 1d3d 9304 8d3e 29c7 b53d
00000070: 3dfe a13e c6d2 2e3e 31e1 e03e 7e9e 4a3e
00000080: 3ad2 9c3e 484a 49be 66be 7dbe 4f58 37be
00000090: f44f 753e f063 cd3e 3200 d93e 1419 0e3f
000000a0: fed7 f1be a8b2 4abf f07f 1b3d b3ff 4b3e
000000b0: 70c8 18bf f4f3 17be 3a3e 6fbe 3cb5 fe3d
000000c0: 88c3 c93d c120 fe3e a569 56bc b444 033d
000000d0: 72d1 393e 7e6e 073e 34c7 4b3c 0d22 c2bc
000000e0: aea4 cb3e d7fe 003f 835e 543d a9d8 ab3e
000000f0: 4e96 b73d 256d 11bf 4875 a33e 107f 9c3d
00000100: fd51 e5bc b7f5 c23e dafc 63be 1343 47bf
00000110: 5696 73bd a64c e33d e681 a03e abf3 b43e
00000120: b59c f83d 6209 dc3d 2ad4 12be c27f e23d
00000130: 3b3c 4abe 13f3 cebe d74c cf3d 8fa8 6a3c
00000140: 1688 c0be 6617 1b3f a2b1 8e3e 4a43 513f
00000150: 3f09 4e3e 0b93 053f 1e9e 15bc f92b fe3e
00000160: c390 b03e a87e 253f ffec 6d3c c54f 18be
00000170: b536 113e a195 a03e af9d 9dbd c143 2e3d
00000180: 358f dcbd 9275 a83e 365f f03e 03aa ad3d
00000190: 8b37 11be 8a55 a1be e780 3a3e 1199 babd
000001a0: 4c96 a03e 839c 26bf 9617 4e3e 0439 043f
000001b0: 56bd c23e 1e16 813e 1727 1fbf 709a 963e
000001c0: 8e5b cebe 492a 413d 716e a93e 14ff 26be
000001d0: 70b8 a03e 2b75 1cb9 c40d 403f 4001 093f
000001e0: 988a 19be 3cec 433c ff31 223f 61f2 983e
000001f0: 3d2a d5be 5667 fb3e 2964 b0be 5f8e 14be
00000200: 1772 bebc 662c 1b3e 906b 24be 64ad d5bd
00000210: 680d ff3e 2f89 b3be 98e1 ad3e a0cb 243f
00000220: cdb0 893e e7f3 463d f7ab 4a3f 499e 3c3f
00000230: df14 273e a15e e63d 1101 cd3e 9637 043f
00000240: 5138 ec3c 8f96 e83e 3e93 483c 11df a33e
00000250: e202 a5be 71f5 d83c 5a94 b93e c47e 963e
00000260: f2cd 183d 6a68 61be f00c 8f3d af49 063f
00000270: 2917 6abb 075f 153f 1862 533e eb78 b0be
00000280: e31c 3f3e a03f 423e b976 383e 0fdf ab3d
00000290: 3bd8 a73e 6f8c a2bd 6db4 24be 98dc 6b3e
000002a0: 61a0 e63b e285 3b3e 0182 c33b 209d f83d
000002b0: a5c0 8b3e 99c9 cb3e caa5 0cbe 738f e63e
000002c0: 90df f73e 419a ca3d 4a76 acbe ef5d b0bf
000002d0: e21e 4bbd 686f e4be afd6 f63d 4f98 f2be
000002e0: e8aa cfbe 9098 1f3f fea3 4d3f 39a8 f73d
000002f0: 873b bd3e 76a5 d63e 5347 8d3e af64 753c
00000300: ba36 3cbe b627 533e 0b40 e5be e35a 053e
00000310: 7298 1e3f cf5e c93e e9ff 0fbc 9e33 3b3f
00000320: 88e7 cdbd 0abd bd3e 344c 12be 5d03 60bd
00000330: eb2f 3e3f 9457 cb3d 9973 0bbf 64ec 0e3f
00000340: 20c8 443e 5904 2dbe 021b 673d 5c19 59be
00000350: e3bb 11bb 14ff 4dbe e151 a03d b9c8 8a3e
00000360: c29f bb3e aa84 6d3e a6b4 393e 268f 2f3f
00000370: ee42 a93e a44e 103e fa17 e13e fec0 e0be
00000380: d120 a8bd 2c89 7c3e 69a5 8bbe ce03 67be
00000390: 9114 10bf 20df 9b3e a5aa f63e 416a 233d
000003a0: bb9c 043f c3fc 083f 85a5 38be 5f6d 393e
000003b0: 58cf 0e3f 94bf 2cbf 1561 2b3f 34f3 38be
000003c0: 971c d53e d4d1 34be 87c5 cd3e 3506 493d
000003d0: 92ca 1b3e 4179 783d 2ee0 6ebe 71b7 9a3d
000003e0: 332c ac3e 9bdb 04be 4745 0ebd 609e acbe
000003f0: 6775 853e 98e2 d23c 04ed a2bd fd20 ab3f
-0.31618538 0.09073884 -0.1456484 -0.88401675 0.030530328 0.039737336 0.19181207 -0.3213465
-0.24100369 -0.014670512 0.005750519 0.27316064 0.07241606 -0.097677544 0.43281928 -0.06048488
0.25543922 -0.38506198 -0.7226435 -0.34191856 -0.110325076 0.11951901 0.20791131 -0.45408052
-0.020326925 0.038497705 0.27542552 0.088758774 0.3163928 0.17072591 0.43921807 0.19787022
0.3062914 -0.19657242 -0.24779662 -0.17904781 0.23956281 0.4011531 0.42382962 0.55507016
-0.472351 -0.7917886 0.037963808 0.1992176 -0.59680843 -0.14839154 -0.23363581 0.124369115
0.09851748 0.49634364 -0.013086711 0.032047942 0.18146303 0.13225743 0.01243763 -0.023697877
0.39774078 0.50388855 0.051847946 0.33563736 0.08964215 -0.56807166 0.31925416 0.07641423
-0.027993197 0.3807809 -0.22264424 -0.7783672 -0.059469543 0.11098604 0.31349105 0.35342154
0.121392645 0.10743977 -0.14338747 0.11059524 -0.19749539 -0.40419826 0.10122078 0.014322414
-0.37603825 0.6058258 0.27869898 0.817433 0.20120715 0.52177495 -0.009131936 0.49642923
0.34485444 0.6464639 0.014521836 -0.1487418 0.14181025 0.31364158 -0.076960914 0.042545084
-0.10769502 0.329022 0.4694764 0.08479693 -0.14181344 -0.31510574 0.18213235 -0.09111226
0.31364667 -0.6508257 0.20126185 0.516495 0.38035077 0.25212187 -0.6216902 0.294147
-0.40304226 0.047159467 0.33092073 -0.16308242 0.31390715 -0.00014920968 0.75021005 0.5351753
-0.14994276 0.011958178 0.6335754 0.2987242 -0.41633788 0.49102277 -0.34451416 -0.14507435
-0.023247762 0.15153655 -0.16056657 -0.10433462 0.49814916 -0.350656 0.33961177 0.6437321
0.268927 0.048572447 0.7916865 0.73679024 0.16316555 0.11248518 0.40039876 0.5164732
0.028835448 0.45427367 0.0122421365 0.32006124 -0.32228762 0.026484223 0.36245996 0.2939359
0.03730578 -0.22012487 0.069848895 0.5245618 -0.003571937 0.58348125 0.20642889 -0.34467253
0.18663363 0.18969584 0.18014039 0.083921544 0.32782158 -0.07936942 -0.16084452 0.23033369
0.0070381616 0.18312791 0.0059664254 0.12139344 0.27295414 0.39802244 -0.13735119 0.45031318
0.48412752 0.09892703 -0.33683997 -1.3778666 -0.04959 -0.44616246 0.120526664 -0.47381827
-0.4056008 0.62342167 0.8032836 0.12092633 0.36959478 0.41923112 0.2759348 0.014977618
-0.18380252 0.20620617 -0.44775423 0.13022952 0.61951363 0.39330146 -0.008789041 0.73125637
-0.10053927 0.37058288 -0.14286882 -0.054690707 0.74291867 0.099288136 -0.54473263 0.55829453
0.19216967 -0.1689619 0.05642224 -0.2120108 -0.0022237233 -0.20116836 0.07828117 0.27106264
0.36645323 0.23195139 0.18135318 0.685778 0.33058876 0.14092499 0.43963605 -0.4389724
-0.08209384 0.24661702 -0.27274635 -0.22560045 -0.5628138 0.30443668 0.48177066 0.039896253
0.5180165 0.53510684 -0.1803189 0.18108128 0.5578513 -0.67479825 0.6694501 -0.18061525
0.41623375 -0.17658168 0.40189764 0.049078185 0.15213993 0.06066251 -0.23327705 0.0755452
0.3362747 -0.12974398 -0.034734037 -0.3371458 0.26066133 0.025742814 -0.079553634 1.3369442

sequential.2.Lambda.bias f4 [120]
00000000: fd34 d8be 7cf9 19be 7485 a7be ddf7 223c
00000010: 3c87 bd3e d548 e0be 6c13 9bbe 9d7b e9be
00000020: c9b4 483d afef 2b3f 3489 27be f64b cdbe
00000030: 41b6 d7bd 1baf a1be 31a1 273d bcec 083f
00000040: cea8 b3be 46dc bf3e 94fd 23bf a635 68bf
00000050: 4788 86be ca59 593e d2b6 ae3e 17d8 06bf
00000060: 0c69 003e 1128 20be 66ec cabe bf0a ecbe
00000070: eb88 4cbc cbaf aebe 14cc 3ebe ce3e 9bbe
00000080: a8e8 e7be 8ec7 2dbd 41c4 ffbe 2a32 0ebf
00000090: 5bf8 42bf a331 04bf 5041 28bf b392 2f3e
000000a0: 6a9b b63e 8871 8b3e e2ff a9bd c9e8 b5be
000000b0: 6f8e b3be 2750 283e ea24 fbbe 5c6f 30bf
000000c0: 071e 3abe 6fe9 16be 464c a8be 6d5f 69be
000000d0: 25cd 2ebe 1a78 b7be 6297 22bf 8aed 95bd
000000e0: f87f 21bf 7fe9 1dbf 825d f43e 933d afbe
000000f0: b3dd 46bb ed4f 11bf 1172 27bf e751 b03e
00000100: 7010 c3be 676d b2be da99 01bf 66c2 d8be
00000110: 3134 173d b81d 66be 2d8b 49be 86a4 8ebc
00000120: e08f 02bf 1837 3cbf 4f99 cbbe cc99 a4bd
00000130: 0a3f f5be 3cf9 01bf ba9c 68be c866 2fbf
00000140: 0eaf 2dbe c738 fa3c bc35 0dbf 7fa4 183e
00000150: 0996 7e3e f36d efbe 3546 aabe a105 c63e
00000160: 7a06 9dbe bca5 933e 839b 95be 6067 bbbe
00000170: acc8 c4be a03f debe a232 02bf 948e cc3e
00000180: 87ae c8be f9e3 99be 4b7d 3cbe 3a1b a9be
00000190: 216e 483f c079 503c d0a5 033d 193e 15bf
000001a0: de02 8cbe 4efd 623e a476 d7bc 112a 1ebf
000001b0: a877 91be ff24 b03d 59e2 1abf 8dc3 94be
000001c0: ce33 9ebe afbb 8bbe c125 f0be c392 c3bd
000001d0: 39cc cfbd 14ed 78be fe22 ed3e 2a4b b0bd
-0.42227927 -0.15036577 -0.32719004 0.0099467905 0.37017238 -0.43805566 -0.30288255 -0.45602122
0.049000535 0.67162603 -0.16360933 -0.40097016 -0.10532809 -0.31578907 0.04092521 0.5348623
-0.35089725 0.37472743 -0.64058805 -0.9070686 -0.26275846 0.21225658 0.34123856 -0.52673477
0.12540072 -0.15640284 -0.39633483 -0.4610195 -0.012483816 -0.34118494 -0.18632537 -0.30321354
-0.4529469 -0.04242664 -0.49954417 -0.55545294 -0.7616021 -0.5163824 -0.6572466 0.17145805
0.35665447 0.27235055 -0.08300759 -0.35529163 -0.35069606 0.16436826 -0.490516 -0.6891992
-0.18175517 -0.14737485 -0.32870692 -0.22790308 -0.17070444 -0.35833818 -0.6351224 -0.073206976
-0.6308589 -0.6168441 0.4772759 -0.34226665 -0.0030344545 -0.5676258 -0.65408427 0.34437487
-0.38098478 -0.34849092 -0.50625384 -0.42335814 0.036915008 -0.22472274 -0.19681998 -0.017412435
-0.51000786 -0.73521566 -0.39765403 -0.08037147 -0.47899657 -0.50770926 -0.22716036 -0.68516207
-0.1696131 0.030544652 -0.5516012 0.149065 0.24861921 -0.46763572 -0.3325669 0.3867617
-0.30669004 0.28837383 -0.2922021 -0.36602306 -0.3843435 -0.43407917 -0.5085851 0.39952528
-0.39195654 -0.30056742 -0.1840717 -0.33028585 0.78293043 0.01272434 0.032140553 -0.5829788
-0.27345937 0.2216694 -0.02630169 -0.6178294 -0.28411603 0.086008064 -0.6050163 -0.29055443
-0.308989 -0.2729163 -0.46903804 -0.09549477 -0.10146374 -0.24309188 0.4631576 -0.086080864

sequential.2.bn.running_mean f4 [120]
00000000: 0000 0000 0000 0000 0000 0000 0000 0000
00000010: 0000 0000 0000 0000 0000 0000 0000 0000
00000020: 0000 0000 0000 0000 0000 0000 0000 0000
00000030: 0000 0000 0000 0000 0000 0000 0000 0000
00000040: 0000 0000 0000 0000 0000 0000 0000 0000
00000050: 0000 0000 0000 0000 0000 0000 0000 0000
00000060: 0000 0000 0000 0000 0000 0000 0000 0000
00000070: 0000 0000 0000 0000 0000 0000 0000 0000
00000080: 0000 0000 0000 0000 0000 0000 0000 0000
00000090: 0000 0000 0000 0000 0000 0000 0000 0000
000000a0: 0000 0000 0000 0000 0000 0000 0000 0000
000000b0: 0000 0000 0000 0000 0000 0000 0000 0000
000000c0: 0000 0000 0000 0000 0000 0000 0000 0000
000000d0: 0000 0000 0000 0000 0000 0000 0000 0000
000000e0: 0000 0000 0000 0000 0000 0000 0000 0000
000000f0: 0000 0000 0000 0000 0000 0000 0000 0000
00000100: 0000 0000 0000 0000 0000 0000 0000 0000
00000110: 0000 0000 0000 0000 0000 0000 0000 0000
00000120: 0000 0000 0000 0000 0000 0000 0000 0000
00000130: 0000 0000 0000 0000 0000 0000 0000 0000
00000140: 0000 0000 0000 0000 0000 0000 0000 0000
00000150: 0000 0000 0000 0000 0000 0000 0000 0000
00000160: 0000 0000 0000 0000 0000 0000 0000 0000
00000170: 0000 0000 0000 0000 0000 0000 0000 0000
00000180: 0000 0000 0000 0000 0000 0000 0000 0000
00000190: 0000 0000 0000 0000 0000 0000 0000 0000
000001a0: 0000 0000 0000 0000 0000 0000 0000 0000
000001b0: 0000 0000 0000 0000 0000 0000 0000 0000
000001c0: 0000 0000 0000 0000 0000 0000 0000 0000
000001d0: 0000 0000 0000 0000 0000 0000 0000 0000
0.0 0.0 0.0 0.0 0.0 0.0 0.0 0.0
0.0 0.0 0.0 0.0 0.0 0.0 0.0 0.0
0.0 0.0 0.0 0.0 0.0 0.0 0.0 0.0
0.0 0.0 0.0 0.0 0.0 0.0 0.0 0.0
0.0 0.0 0.0 0.0 0.0 0.0 0.0 0.0
0.0 0.0 0.0 0.0 0.0 0.0 0.0 0.0
0.0 0.0 0.0 0.0 0.0 0.0 0.0 0.0
0.0 0.0 0.0 0.0 0.0 0.0 0.0 0.0
0.0 0.0 0.0 0.0 0.0 0.0 0.0 0.0
0.0 0.0 0.0 0.0 0.0 0.0 0.0 0.0
0.0 0.0 0.0 0.0 0.0 0.0 0.0 0.0
0.0 0.0 0.0 0.0 0.0 0.0 0.0 0.0
0.0 0.0 0.0 0.0 0.0 0.0 0.0 0.0
0.0 0.0 0.0 0.0 0.0 0.0 0.0 0.0
0.0 0.0 0.0 0.0 0.0 0.0 0.0 0.0

sequential.2.bn.running_var f4 [120]
00000000: 0000 803f 0000 803f 0000 803f 0000 803f
00000010: 0000 803f 0000 803f 0000 803f 0000 803f
00000020: 0000 803f 0000 803f 0000 803f 0000 803f
00000030: 0000 803f 0000 803f 0000 803f 0000 803f
00000040: 0000 803f 0000 803f 0000 803f 0000 803f
00000050: 0000 803f 0000 803f 0000 803f 0000 803f
00000060: 0000 803f 0000 803f 0000 803f 0000 803f
00000070: 0000 803f 0000 803f 0000 803f 0000 803f
00000080: 0000 803f 0000 803f 0000 803f 0000 803f
00000090: 0000 803f 0000 803f 0000 803f 0000 803f
000000a0: 0000 803f 0000 803f 0000 803f 0000 803f
000000b0: 0000 803f 0000 803f 0000 803f 0000 803f
000000c0: 0000 803f 0000 803f 0000 803f 0000 803f
000000d0: 0000 803f 0000 803f 0000 803f 0000 803f
000000e0: 0000 803f 0000 803f 0000 803f 0000 803f
000000f0: 0000 803f 0000 803f 0000 803f 0000 803f
00000100: 0000 803f 0000 803f 0000 803f 0000 803f
00000110: 0000 803f 0000 803f 0000 803f 0000 803f
00000120: 0000 803f 0000 803f 0000 803f 0000 803f
00000130: 0000 803f 0000 803f 0000 803f 0000 803f
00000140: 0000 803f 0000 803f 0000 803f 0000 803f
00000150: 0000 803f 0000 803f 0000 803f 0000 803f
00000160: 0000 803f 0000 803f 0000 803f 0000 803f
00000170: 0000 803f 0000 803f 0000 803f 0000 803f
00000180: 0000 803f 0000 803f 0000 803f 0000 803f
00000190: 0000 803f 0000 803f 0000 803f 0000 803f
000001a0: 0000 803f 0000 803f 0000 803f 0000 803f
000001b0: 0000 803f 0000 803f 0000 803f 0000 803f
000001c0: 0000 803f 0000 803f 0000 803f 0000 803f
000001d0: 0000 803f 0000 803f 0000 803f 0000 803f
1.0 1.0 1.0 1.0 1.0 1.0 1.0 1.0
1.0 1.0 1.0 1.0 1.0 1.0 1.0 1.0
1.0 1.0 1.0 1.0 1.0 1.0 1.0 1.0
1.0 1.0 1.0 1.0 1.0 1.0 1.0 1.0
1.0 1.0 1.0 1.0 1.0 1.0 1.0 1.0
1.0 1.0 1.0 1.0 1.0 1.0 1.0 1.0
1.0 1.0 1.0 1.0 1.0 1.0 1.0 1.0
1.0 1.0 1.0 1.0 1.0 1.0 1.0 1.0
1.0 1.0 1.0 1.0 1.0 1.0 1.0 1.0
1.0 1.0 1.0 1.0 1.0 1.0 1.0 1.0
1.0 1.0 1.0 1.0 1.0 1.0 1.0 1.0
1.0 1.0 1.0 1.0 1.0 1.0 1.0 1.0
1.0 1.0 1.0 1.0 1.0 1.0 1.0 1.0
1.0 1.0 1.0 1.0 1.0 1.0 1.0 1.0
1.0 1.0 1.0 1.0 1.0 1.0 1.0 1.0

sequential.4.Gamma.weight f4 [70, 120]
00000000: 8788 843d b28c a03d d93e 04bf d0e3 213e
00000010: b0fc 963e 0007 16bc 4bd5 adbc a833 893d
00000020: e9e7 5cbd 8c74 643e efe3 16be 7ad6 0fbe
00000030: 1fa1 d93d 088f 48be db11 273d 4e35 1a3e
00000040: 2c0a a1bd 3046 9e3d 9841 75be 7ac4 923e
00000050: 7278 32be 35e5 acbc 4d4b 3cbe bbe4 10bf
00000060: 7990 713e eb03 50be 0dd8 9a3d ed3f 703d
00000070: c94e c43d 9c12 b6be e814 bb3c 9509 dd3d
00000080: c81a 25be 0ab5 bcbd 43bd df3d 0543 a0be
00000090: 0b49 eebd 1be3 1cbe 7010 0c3e d149 e43e
000000a0: 6ee9 c93e dbc3 953e 7673 a93d 0b7e c03d
000000b0: 3efa 433d 9745 803e 8bbc 0cbf b0d1 3cbe
000000c0: 8347 593e 030c 79be 693f e1bd d13f fb3c
000000d0: bf5f b0bc 28e5 babe 1169 ad3d c304 bf3d
000000e0: 8aeb 0dbe 3d1a 45be a06d 783a 7776 b4bd
000000f0: f326 55bd 9e7d 863e f05d 23bf 1398 2b3e
00000100: 74e3 a7bd f9c5 203e 73bc 4a3e 36f9 40bd
00000110: fb34 993d f9ab 223e da2e 9fbd 3909 29bd
00000120: dac7 8e3e 2f4e f4bc e93c a03e 798e 593e
00000130: 3679 4cbc c326 f0be e37d 67be 35f5 80be
00000140: d3d2 76be 1b83 aabe aebf 16be 73c7 30be
00000150: c718 963c 01f7 7cbc 6648 6fbd bfed 8e3d
00000160: d822 53bd 86fd 343e 138b 2e3d 0f9e 4abe
00000170: eaad 1ebf 56b6 ae3c 8c81 0bbf 6717 453e
00000180: d04a 0bbe e120 11bf c3ec bebe 6333 463e
00000190: afee b03e 01fe a5bc d297 a9be 5680 fdbc
000001a0: 00ca 1c3e 3586 993d dde9 50bd 2385 413e
000001b0: 35ea 88bd aa38 60be cccb b2be 064e 433e
000001c0: e020 cdbd 4fce c23d b485 24bf f87c 7c3d
000001d0: 1b68 a2bd 902b eb3e 3159 683e a78b f43e
000001e0: b022 7e3d b6de 853e e186 8abe 9e5c f03e
000001f0: 8efa 6f3e 361f 16bf 6331 6b3f 0810 80be
00000200: 9933 05bf f4d4 28bd 2253 343f c58f 33be
00000210: 169e 153f 6f78 11bf 4a8d b3bd 3ca9 17bd
00000220: f3b2 7e3f 7165 a2be 2d6a 0bbf 55d1 e73e
00000230: 4b81 903e d239 8c3e 3e83 20bf 1d27 59be
00000240: 4b90 863e 9d0b d23e 21c3 2ebf c4e1 943e
00000250: 300e ad3e ad23 06be 44e6 453e 69ff 24be
00000260: 0119 89be 6a65 35be c53b 593c 93ec 59be
00000270: 0f17 6cbd 9e72 26bf a596 a73d dd2c 4ebc
00000280: 1841 d03e ff96 cd3c 8c5d af3e 7f3f 053f
00000290: 02c9 73be 7b1b d03e c322 69bf 0bbb 0abf
000002a0: e614 063f e57d d73e c9c6 9dbe 73f4 9dbc
000002b0: 1ae0 e83e 1df9 1ebf 0172 38be a929 77be
000002c0: 902b bb3e 44fe aebe cb62 27bc adbb 213e
000002d0: 0782 ff3e 3e2a 033f ad21 11be 02a5 49ba
000002e0: 5b1a 6abf 3f00 54bb 66ea 3ebe 202f 16be
000002f0: 22a2 7dbd c725 edbc 6d9e 37be bc8f bdbe
00000300: 563e aa3e 91f3 dd3c 68d9 8fbc 8f2a 4d3e
00000310: 87d8 20bd bf2a f6bd 8231 5bbc 875d e0be
00000320: 899d 09be c4fc 17bf 0cd5 d3bc e1e2 49be
00000330: fb79 1cbf a4f3 473d 5d72 e23e ebc3 13bf
00000340: 8ce3 083d dc3f f53c 5d24 b6be 162f afbe
00000350: 0f60 bebd c833 573f 9a69 353e 4781 0cbf
00000360: 0cc9 54be 8aef d63e 2267 90be 522a 6f3f
00000370: ca54 eabe 5f4f ddbc 7f26 953d 0064 973d
00000380: fe6d 293e 1247 a0be ad3b 22be 4d92 813f
00000390: aba0 813d c721 a5be 7ee2 963d e8e7 ae3c
000003a0: 18b8 b63d 900f 40be 3021 cebd d4c7 a3be
000003b0: 2a74 08be 9a71 88be e633 84be f1ad 2dbe
000003c0: 3b13 743d fd30 90be 9ea5 53be d829 0f3c
000003d0: 03de aa3d ea03 b3bc a3d1 153d 9423 f9bd
000003e0: 8d31 983c 0ebf 5c3e 1e2b b03c 2560 9e3d
000003f0: 6ec8 143e e176 c83d b53c a2bd 67f3 38bd
0.06471353 0.078393355 -0.516584 0.1580956 0.2948966 -0.009156942 -0.02121987 0.06699306
-0.053932104 0.22310084 -0.14735387 -0.1404666 0.106264345 -0.19585812 0.040788513 0.15059397
-0.07863268 0.07728231 -0.23950803 0.28665525 -0.17428759 -0.021105388 -0.183881 -0.56599015
0.23590268 -0.20313995 0.0756074 0.058654714 0.095853396 -0.35561073 0.022837117 0.10792843
-0.16123497 -0.09214218 0.10924771 -0.31301132 -0.116350256 -0.15321009 0.13678145 0.44587567
0.39435905 0.29250988 0.082739756 0.09399041 0.04784607 0.25053093 -0.54975194 -0.18439364
0.21218686 -0.24320988 -0.10998423 0.030670078 -0.02153003 -0.36502957 0.084673055 0.0932708
-0.13859382 -0.1924829 0.00094767846 -0.08811658 -0.052039098 0.26267713 -0.6381521 0.1675723
-0.0819768 0.1570052 0.1979845 -0.047112666 0.07480808 0.15885915 -0.07772608 -0.04126856
0.2788685 -0.029822437 0.3129647 0.21245755 -0.012480071 -0.46904573 -0.22606616 -0.25187078
-0.2410386 -0.3330315 -0.14721557 -0.17263584 0.018322362 -0.01543975 -0.058418654 0.0697894
-0.0515469 0.17674837 0.0426131 -0.19786857 -0.6198412 0.021327179 -0.5449455 0.19247209
-0.13602757 -0.56690794 -0.3729001 0.1935554 0.345571 -0.02026272 -0.33123642 -0.030944984
0.15311432 0.07496301 -0.05100428 0.18898444 -0.066852964 -0.21896616 -0.3492111 0.19072732
-0.10016036 0.095120065 -0.64266515 0.061642617 -0.07930013 0.45931673 0.22690274 0.47762796
0.0620448 0.26146477 -0.2705603 0.4694566 0.23435423 -0.58641374 0.91872233 -0.2501223
-0.52031857 -0.041218713 0.7043935 -0.17535312 0.58444345 -0.5682439 -0.08767183 -0.03702663
0.99491805 -0.3171802 -0.54458886 0.45276895 0.28223643 0.27387863 -0.6270026 -0.21206327
0.26281962 0.41024485 -0.68266493 0.29078496 0.33799887 -0.13099547 0.1932612 -0.16113056
-0.2677689 -0.17714468 0.013258879 -0.21281652 -0.057639178 -0.6501864 0.0818303 -0.012583938
0.40674663 0.025096415 0.34251058 0.5205001 -0.23807147 0.40645966 -0.9106867 -0.54191655
0.5237564 0.42088237 -0.30815724 -0.019281602 0.45483476 -0.62098867 -0.18012239 -0.24136986
0.36556673 -0.34178364 -0.010216425 0.15794249 0.4990389 0.5123633 -0.14173003 -0.00076921296
-0.91446465 -0.003234878 -0.18644103 -0.14666414 -0.0619222 -0.028948678 -0.17931528 -0.37023723
0.33250684 0.02709368 -0.017559722 0.20035766 -0.039268997 -0.12019872 -0.013378503 -0.43821356
-0.13439001 -0.59370065 -0.025858425 -0.19715454 -0.6112363 0.04881634 0.44227877 -0.5772082
0.03342013 0.029937677 -0.35574618 -0.3421561 -0.092956655 0.84063387 0.17716065 -0.5488476
-0.20779818 0.4197963 -0.28203684 0.9342395 -0.45767814 -0.027015386 0.07282733 0.0739212
0.16545865 -0.31304222 -0.15843077 1.0122772 0.06329473 -0.32252333 0.07367419 0.021350816
0.08921832 -0.18755937 -0.10064924 -0.31988394 -0.13325563 -0.2664917 -0.25820845 -0.16960885
0.059588652 -0.28162375 -0.20668647 0.008738004 0.083431266 -0.021852452 0.03657688 -0.12164989
0.018578315 0.21557257 0.021504935 0.07733182 0.14529583 0.09788299 -0.07921735 -0.045154

sequential.4.Gamma.bias f4 [70]
00000000: 1df2 133f b227 c9be 5d99 7b3d bd7c 10bf
00000010: cfbf 4dbf 6eb8 39be c47a 173f 7052 8dbe
00000020: 18a0 953e 2060 f5bd 6dc6 c7be 699b cbbe
00000030: 2249 95be 2882 a7be 59cc 6ebe eb59 94be
00000040: 34f2 25bf 6795 11bd 6367 9c3e e2b4 023f
00000050: 28b0 06bf 9ea7 86be 1d7b 0abf c11b acbe
00000060: a90d d53e 45a7 29bf e189 c9be d8c9 e23b
00000070: 0d29 82bf ff07 04bf 2b58 2d3e 8994 a7bd
00000080: 0803 2bbf 10b2 14be 9a8b a4be b839 e4be
00000090: ea07 00bf 3df4 93be f42d 12bf 7d67 573e
000000a0: e932 01bf a522 8abe abf3 d73d b3c5 7dbe
000000b0: 3335 453f 0953 febe 39fa c0be 0e1c 54be
000000c0: e91e 253f 6557 31bf b6bd 10bf f2e2 af3a
000000d0: 046a d8be 769b 3fbf 8029 433f 0416 99be
000000e0: 2dbf b1be e7c6 03bf 7f18 43be 6020 82be
000000f0: 25d6 b7be a01c 4d3f 3c1c f6be 8603 4abf
00000100: e2b1 fabd 98e2 1cbf 557f 68bf 1422 2ebe
00000110: a5db f2be 247c 4bbe
0.5779131 -0.39288098 0.061425555 -0.56440336 -0.803708 -0.1813676 0.591717 -0.27601957
0.29223704 -0.11981225 -0.39018574 -0.39767006 -0.29157358 -0.3271649 -0.2332014 -0.28974852
-0.648227 -0.03554287 0.30547628 0.51057255 -0.52612543 -0.26299757 -0.54094106 -0.33614925
0.41611984 -0.6627086 -0.39363006 0.0069210343 -1.0168778 -0.515747 0.16928165 -0.08182628
-0.668015 -0.1452105 -0.32137758 -0.44575286 -0.50012076 -0.28897277 -0.5710137 0.21035571
-0.5046831 -0.26979557 0.10544523 -0.24782448 0.770343 -0.49672726 -0.37690905 -0.20713827
0.6450029 -0.6927398 -0.56539476 0.0013419075 -0.42268384 -0.7484659 0.762352 -0.2989961
-0.34716168 -0.51475376 -0.19052313 -0.25415325 -0.35905567 0.80121803 -0.48068416 -0.78911626
-0.1224096 -0.61283255 -0.90819293 -0.17005187 -0.474332 -0.19871575
