Models/Z_100GeV_50.pth (torch, 197904 bytes, 36 tensors)

sequential.0.Gamma.weight f4 [80, 5]
000000 33 8e 25 bf 1c a7 5e 3e df f4 3a 3f 8b 6f be 3e
       -0.64670104 0.21743435 0.73029894 0.37194476
000010 6c 9a 6a be 64 0d 2d 3e d5 83 e7 be 95 25 7c 3f
       -0.2291047 0.1689964 -0.45217767 0.98494846
000020 12 ac 0b be a5 27 46 bf 63 3b fc 3e 90 a9 3d 3f
       -0.13639858 -0.7740424 0.49264058 0.74086857
000030 6c d5 36 3f cf c9 8f be 00 af 18 3e 2c b9 80 3f
       0.71419406 -0.28083655 0.14910507 1.005651
000040 d1 e9 4d 3f a0 e3 58 be 54 70 1b bf 45 92 a1 3e
       0.804349 -0.21180582 -0.60718274 0.31556907
000050 3c 25 94 be 5c 38 16 bf 5d 74 68 3e bb 02 60 be
       -0.28934658 -0.5867975 0.22700639 -0.21876042
000060 eb 80 fc 3e 60 67 2b bf 18 3e 12 3f e9 a8 73 3e
       0.49317107 -0.6695461 0.57126 0.23794903
000070 e4 ba a5 be 35 7a da b9 58 6e 26 3f 9f f9 09 c0
       -0.3236915 -0.00041671252 0.6501212 -2.1558607
000080 1d 17 c1 bd 0f 26 28 3f 4f 98 9c 3d d8 36 84 3f
       -0.09428237 0.6568307 0.07646238 1.0329237
000090 aa 7a 90 3f 5c 30 54 bd 65 b2 23 3f 08 85 8e 3f
       1.1287434 -0.05180393 0.63944083 1.1134348
0000a0 a7 49 1e bd 0b ed df 3e c0 27 33 3f f0 2c d3 3e
       -0.03864446 0.43735537 0.6998253 0.41245222
0000b0 6a 86 d2 bf 10 14 03 3e 88 16 e8 3e 12 92 8b be
       -1.644727 0.12800622 0.4532969 -0.2725988
0000c0 ed 4b bd be 7a f2 9e be d9 9f eb 3e ab 1d c4 bf
       -0.3697199 -0.3104437 0.46020392 -1.5321554
0000d0 0a 47 55 be ca 82 17 3e 62 03 c9 3e 8e 9a 43 3f
       -0.2082788 0.14795986 0.39260393 0.76407707
0000e0 39 fe e7 be 90 7d fe 3d c8 ca c6 3d ca 59 04 bf
       -0.45311144 0.12426293 0.09706646 -0.5169951
0000f0 4c 9d 00 bf fa a3 33 3d e9 48 9d 3e 61 6a af bd
       -0.50240016 0.043857552 0.3071969 -0.08565212
000100 80 f7 23 3f d9 44 0c 3f bc 09 06 be ec 5e 0a 3f
       0.6404953 0.54792553 -0.13089651 0.5405109
000110 ea 63 e4 3e 8b 6c 91 be 7c 43 ca be a4 8c 9a be
       0.44607478 -0.28403124 -0.39504611 -0.30185425
000120 57 95 07 be 4a 89 e0 3e f6 2a c3 be 46 f2 be 3e
       -0.13240562 0.43854743 -0.38118714 0.37294215
000130 d2 db 42 3f e3 44 f1 3e 61 50 57 bf e7 93 3a bf
       0.7611667 0.4712287 -0.84107023 -0.7288193
000140 65 be e8 be 72 26 c7 3d 1d c8 a4 3f d5 5d 59 3f
       -0.4545776 0.0972413 1.287357 0.849088
000150 b6 21 71 3d a0 5c 55 bf 2d ce 31 3e 69 61 c4 bf
       0.05887004 -0.8334446 0.17363806 -1.5342227
000160 fa b8 99 3d 2c 9e 13 3f eb 2b b9 3e 46 b4 5d 3e
       0.075059846 0.57663226 0.3616632 0.216508
000170 41 ae 89 3f 4e 44 cb 3b 4c 5d 01 3e 11 15 a1 3f
       1.0756303 0.006203211 0.12633246 1.2584554
000180 12 42 3c bf af b0 68 3f fc c7 83 3e 7c f6 25 3f
       -0.73538315 0.908946 0.25738513 0.6482923
000190 6b c8 82 bf 69 bd 91 3e 46 cf 65 3f 7d 46 b8 be
       -1.0217413 0.2846482 0.897694 -0.35991278
0001a0 87 ff 4c bf ab cb a0 3f 7a d0 13 3f 20 b1 6a 3f
       -0.80077404 1.2562155 0.57739985 0.9167652
0001b0 de b6 88 be 0a 3c 8b 3e d6 3d b4 bf fc 2e ee 3e
       -0.26702017 0.27194244 -1.4081371 0.4652022
0001c0 77 3b 23 3e d2 ff 2f bf 11 16 03 3f 4a 98 86 3f
       0.15940653 -0.68749726 0.51205546 1.0515225
0001d0 7b a3 d0 3f a0 29 80 bf 69 03 07 bf ab 73 e9 bf
       1.629989 -1.0012703 -0.5273958 -1.8238424
0001e0 ec f2 a1 bd d7 6e 7a bf 05 57 7b 3f 20 36 16 3d
       -0.07907662 -0.9782538 0.98179656 0.03667271
0001f0 dc ea 98 be 07 3e 4b bf 1d cc 88 3d a4 6d da 3f
       -0.29866683 -0.7939152 0.066795565 1.706471
000200 3b a4 22 bf f3 d4 2b bf 08 e5 a6 3f a4 d9 b9 3e
       -0.63531846 -0.6712181 1.3038645 0.3629886
000210 65 e1 71 bf 7c 15 bb 3e 87 bc 84 bf f0 3b 63 3e
       -0.9448455 0.3653983 -1.0370034 0.22190833
000220 66 b8 2d 3e 34 8a 1a 3e 81 42 9a be c6 91 c0 3e
       0.16964874 0.15091783 -0.30128863 0.37611216
000230 48 34 49 be c2 c6 3a 3e e4 fe 1e bf 93 fe eb 3e
       -0.1964885 0.18239883 -0.6210768 0.46092662
000240 50 4b 80 3e 81 97 c9 3d 43 ea 14 bf 93 20 ab bf
       0.2505746 0.0984335 -0.58169955 -1.3369316
000250 75 95 17 3f ab b3 0e 3e b0 55 d7 3b c2 dc bb 3d
       0.5921243 0.13935725 0.006571494 0.091729656
000260 16 52 a1 be 5b 37 94 be 07 94 ac 3e 03 62 f3 3e
       -0.3150794 -0.28948483 0.33706686 0.47535715
000270 55 5b b9 3e 9b 91 64 bf 9e 27 c6 3f 6b 56 f9 3d
       0.36202493 -0.89284676 1.548084 0.12174686
000280 16 61 6d 3e 36 27 03 bf c7 8f 5d bd ff e8 29 3f
       0.23181567 -0.51231706 -0.054092195 0.6637115
000290 b5 b4 37 bf 7f f7 3f 3e 47 e1 8c 3f a8 7c 4c 3e
       -0.7176011 0.18746756 1.1006249 0.19969428
0002a0 2a bb 8a be 05 8f 24 3f c6 8f a7 3e 4b bf 01 3f
       -0.2709592 0.6428073 0.32726878 0.50682515
0002b0 86 61 cd be f3 e5 10 be fe 31 8f 3e 9d e9 1e 40
       -0.40113467 -0.14150219 0.2796783 2.4830086
0002c0 c1 87 a8 3f e6 5e b0 bd d6 51 62 bf 61 aa 0f 3e
       1.3166429 -0.086118504 -0.8840612 0.14029838
0002d0 b4 19 93 3d 97 29 90 3f 8a 77 b1 bf 0d 0d 92 3d
       0.07182637 1.1262692 -1.3864605 0.071313955
0002e0 12 a6 ce bd f6 21 ec bd db 9f 3b 3f 4d d5 5d 3e
       -0.10090269 -0.11529915 0.73290795 0.21663399
0002f0 ca f4 85 be d3 4a 0e 3d 6d 17 54 bf fd b6 1d be
       -0.26163322 0.034739327 -0.82848245 -0.15401836
000300 9f 53 bc 3e d8 3f f9 3e 54 a5 4b 3e 4a 35 06 bf
       0.36782548 0.4868152 0.19887286 -0.5242506
000310 33 bb 9f bf ac 63 6a 3c 50 61 38 bf 3e 30 80 3f
       -1.2479004 0.01430599 -0.7202349 1.0014722
000320 46 24 90 3d e2 d4 bf be 82 98 02 3f a7 0e 0b be
       0.070381686 -0.37467104 0.5101396 -0.13579808
000330 a2 ca 1f 3f 86 91 ec 3e a9 5f 6d bf 0e 62 b4 3d
       0.6241857 0.46204776 -0.9272409 0.08807765
000340 60 7a 95 bf e1 60 ae 3e 57 b7 67 3f 08 0f 15 bf
       -1.1677971 0.34058288 0.9051413 -0.5822606
000350 ba 19 44 bf e1 74 4f be 5c c1 59 3f ad a0 d9 3f
       -0.76601756 -0.2025943 0.8506067 1.7002159
000360 4e af 82 3e 92 d3 0e bf 1b 48 54 be 82 5f 70 bf
       0.25524372 -0.5579158 -0.20730631 -0.93895733
000370 a0 9f d8 3e ac 02 c0 be ce ff 9d 3e d3 a5 6c b9
       0.42309284 -0.37502038 0.30859226 -0.00022568488
000380 4b 04 5c 3f c9 83 1e bf 44 4f 86 3e b8 e8 6a bd
       0.8594405 -0.6191984 0.2623235 -0.057350844
000390 bf a6 aa 3f f3 c1 58 3e 76 b4 d6 3d bf 34 b2 3e
       1.3332137 0.21167736 0.10483639 0.34805867
0003a0 4d d4 17 be 6f 72 90 bf a5 ca c0 3d 29 15 8c 3f
       -0.1482708 -1.1284922 0.094136514 1.0943958
0003b0 76 ac b7 3f f5 a1 48 3f 9e b5 93 3f e3 d9 14 be
       1.4349506 0.78372127 1.15398 -0.14536242
0003c0 5f da 8a bc 9e 6c 98 bf 2c 5e 73 3f bc 3b 2f be
       -0.01694983 -1.1908147 0.9506557 -0.1711263
0003d0 fe 40 be 3f 5f ca ad be ab 88 1d 3f 52 10 3b 3f
       1.4863584 -0.3394346 0.61536664 0.7307178
0003e0 71 21 22 3e 9c eb e4 be 90 9e 34 3f db 4a 1c be
       0.1583307 -0.44711006 0.7055445 -0.1526293
0003f0 3e bc 83 bf 63 d3 70 be a9 3b 36 3e 63 b2 07 3f
       -1.0291822 -0.23518138 0.17796196 0.5300657

sequential.0.Gamma.bias f4 [80]
000000 b9 ab 0b 3e d2 6a fe be 9e 20 fc be 9b 6e 4d be
       0.13639726 -0.49690872 -0.49243635 -0.20061724
000010 c2 06 fa be 03 2b 8a be 56 0a ee be f1 4c d5 3e
       -0.4883328 -0.2698594 -0.4649226 0.41660264
000020 b5 60 bd 3e 8a 83 f6 be 22 0b 98 3a 12 e7 11 bf
       0.36987844 -0.4814723 0.0011599998 -0.5699321
000030 44 b2 48 3e 4f 7d de be 72 d7 b6 be 83 70 e1 3d
       0.19599253 -0.43454978 -0.35711247 0.11007788
000040 0f db 30 be 9e 28 22 be b2 1f 8b bd 6b 77 39 bf
       -0.17271064 -0.15835807 -0.06793155 -0.7244784
000050 50 1b 5a bc 0e 63 79 3e ba b4 00 3e ff e6 47 3d
       -0.013312176 0.24354193 0.12568942 0.04880428
000060 fe 29 29 bd a0 b3 1e be a2 16 20 be a2 a3 9c bb
       -0.041299812 -0.15498209 -0.15633634 -0.0047802487
000070 ed 1a c0 3d 26 4c 1b bf db 35 e8 be 55 60 36 bf
       0.09380136 -0.6066307 -0.45353588 -0.7124074
000080 de 47 4e bf fc 08 0d 3d 77 8c 19 3e 3a a6 ae 3b
       -0.8057841 0.034432396 0.1499499 0.0053298743
000090 e2 c9 14 bf 5f 74 60 be a3 51 9e be 37 c2 69 be
       -0.5812055 -0.21919392 -0.3092166 -0.22827993
0000a0 25 dc 8b 3d a8 84 df be f2 51 4a 3e bc a1 a5 be
       0.068290986 -0.43655896 0.19757822 -0.32349956
0000b0 64 6f ee be db d8 03 bf 80 72 20 be c4 9d 55 3f
       -0.4656936 -0.5150277 -0.15668678 0.83443856
0000c0 c5 d8 38 be 50 15 5d be 0f 8e b7 be 3d 1b a1 be
       -0.18051441 -0.21590161 -0.3585057 -0.31466094
0000d0 35 13 cd bd ad 99 a6 3e e1 1e 93 be 7d 46 90 3d
       -0.10013429 0.3253912 -0.28734496 0.070446946
0000e0 7a 41 02 bd 29 3c 77 bc cc aa 4d 3e f5 c2 19 bf
       -0.031800725 -0.015090027 0.20084685 -0.60063106
0000f0 f6 c5 b7 3e e3 58 42 be 72 d5 ec be 6f 30 fe bd
       0.3589322 -0.1897922 -0.46256596 -0.12411582
000100 8f 38 3b bf 93 4c 4c bd 72 29 d7 3e 12 d1 74 be
       -0.73133177 -0.049877714 0.42023808 -0.23907879
000110 ab 07 81 3d 43 a1 6d bf 1d 0e 54 be 1f 9d 25 bf
       0.06300291 -0.9282419 -0.20708509 -0.6469287
000120 d3 d4 1c 3f fa 75 c3 be f3 6b 0f bf 2b 72 56 3b
       0.61262244 -0.38175946 -0.5602409 0.0032721858
000130 e4 ba 50 3e 0b 12 10 bf 94 88 a5 be 97 39 bb be
       0.20383793 -0.5627753 -0.32330763 -0.36567375

sequential.0.Lambda.weight f4 [80, 5]
000000 6d 6d 40 3f b6 58 9d bd f5 2b a7 3e 90 39 b8 be
       0.7516697 -0.07682936 0.32650724 -0.35981417
000010 a2 31 3c bf 95 1b 93 be 58 79 a8 3e ab 16 b5 3d
       -0.73513234 -0.2873198 0.32905078 0.08842214
000020 8a 92 49 3e 2f 45 9d 3e 15 5d c9 be 9c 15 b0 be
       0.19684806 0.30716845 -0.39328828 -0.34391487
000030 e3 53 a1 bf 0b fe 8a 3f 9e a4 8b 3f c2 1e 9b 3d
       -1.2603725 1.0858778 1.0909612 0.07574226
000040 8b 0a 1a 3f 29 cf 0c be c3 19 5e bf cc ce 30 bf
       0.6017234 -0.137509 -0.8675806 -0.69065547
000050 c8 36 3b 3f 03 8b cb 3c 92 42 b4 bf c5 4a b1 3d
       0.73130465 0.02484656 -1.4082816 0.08656839
000060 10 43 78 be 5c 71 ef 3e 42 e6 c2 3e 2c 89 7d 3f
       -0.24244332 0.46766174 0.38066298 0.9903743
000070 18 49 12 bf d4 79 39 bf 95 a1 eb be 56 43 70 bd
       -0.5714278 -0.7245152 -0.46021715 -0.058657967
000080 17 d2 84 3e 32 15 55 3f 75 51 c0 be 4e e1 a5 be
       0.25941536 0.83235466 -0.37562147 -0.32398456
000090 5e 10 b0 bd 9b c3 cc bd 9d 27 95 3d e0 f7 19 3e
       -0.08596872 -0.09998246 0.07282946 0.15035963
0000a0 f1 43 28 3f 90 bb 5c bf 87 76 89 3f 81 bc f0 be
       0.6572867 -0.862237 1.0739297 -0.47018817
0000b0 d2 0f 07 bd f8 90 a1 bd 83 01 6f be 90 a8 f5 bd
       -0.03297407 -0.07888979 -0.2334042 -0.11995041
0000c0 1c dc e3 bd 7b c8 8a 3f 52 d1 43 bf 22 30 70 be
       -0.11125967 1.0842432 -0.7649127 -0.23455861
0000d0 32 35 87 3c 53 c7 e9 bd 1e 2f b9 3e 4e 39 19 3d
       0.016504858 -0.11414971 0.3616876 0.037408166
0000e0 ad 6b 00 bf 78 71 0c be 52 70 a2 3f c8 38 3a be
       -0.501643 -0.1371516 1.2690527 -0.18185723
0000f0 4b ef 0f 3d d6 ba 8c bc a6 f6 51 bf 63 05 42 bf
       0.035140317 -0.017178934 -0.8201698 -0.7578947
000100 7a a8 f1 3f fd bb 85 3f 55 96 e1 be a0 dc 51 bf
       1.887954 1.0447994 -0.44060007 -0.8197727
000110 b9 12 88 3e 76 d9 77 bc 44 be 88 be 5b d4 41 bf
       0.26576784 -0.01512753 -0.2670766 -0.75714654
000120 a6 90 05 bf b5 6c 2a 3f 45 cd 6d 3f d2 93 72 3e
       -0.5217384 0.66572124 0.9289134 0.23689201
000130 b2 ef e7 be dc d2 41 be 43 3f 1f bf 4c a2 02 3f
       -0.4530006 -0.18928093 -0.62205905 0.51028895
000140 99 b4 9d 3e 59 d8 3f bf 4d 73 fb be e0 73 6c be
       0.30801848 -0.74939495 -0.49111405 -0.23091078
000150 8a de 36 bf 1c 6f a4 be 8b 09 23 3f 05 90 3e 3f
       -0.7143332 -0.3211602 0.63686436 0.74438506
000160 31 06 be be 3b b2 1b 3f 83 c6 00 bf 49 46 3c bf
       -0.371141 0.60818833 -0.50302905 -0.73544747
000170 3d ae 04 be 8b 20 2d bf d0 e3 cd be c3 26 f4 be
       -0.12957092 -0.6762778 -0.4021287 -0.47685823
000180 47 22 a1 3f 0f b1 10 bf 03 f0 50 3f 82 be 1d bf
       1.2588586 -0.5652017 0.8161623 -0.61618817
000190 99 c4 a8 3d e2 a1 90 3e 0a 7b 39 3f 18 62 37 3f
       0.08240623 0.28248507 0.7245337 0.71634054
0001a0 01 44 6b bf a1 20 d1 3d c8 c9 5e be a2 3e 1a 3d
       -0.9190064 0.102113016 -0.21756661 0.037657388
0001b0 c7 5e c4 3e fa 44 e6 be 23 cd e1 be ad 33 80 3f
       0.3835356 -0.449745 -0.4410182 1.001577
0001c0 25 a7 77 3e e5 c2 d8 bd 3d 53 43 bf 74 dc 51 bf
       0.24184854 -0.10584048 -0.76298887 -0.8197701
0001d0 95 0c 28 3f d2 c8 85 3f cd 10 5b bd 86 ad 48 3e
       0.656442 1.045191 -0.05348282 0.19597444
0001e0 1e 65 93 3d 9b 1e fb be b2 c2 73 3f ec f5 f8 be
       0.07197021 -0.49046788 0.95218956 -0.48625124
0001f0 e0 7c 8a 3e 1e 53 84 3f b4 5a 5a be 82 61 3c be
       0.27048397 1.0337865 -0.21323663 -0.18396571
000200 78 94 15 3f 42 1d 93 bf 0e b8 7f bf 8c b6 b4 3e
       0.5842967 -1.1493304 -0.9989022 0.35295522
000210 b3 22 25 3f 8e 1a 48 be a9 c0 7c be bc 16 98 be
       0.6450607 -0.1954138 -0.24682869 -0.29704845
000220 b6 3d 9d 3f 1c cb 5a 3f f0 9c e5 bf 66 62 01 be
       1.2284458 0.8546617 -1.7938519 -0.12635192
000230 bd 71 59 be f6 71 37 bf 73 ac a0 bc 68 da c5 bd
       -0.21234794 -0.71658266 -0.01961348 -0.09660798
000240 c5 86 57 3f 2d 8d 81 3e d3 38 8f 3d 33 d5 87 be
       0.84190017 0.2530302 0.0699326 -0.26529846
000250 40 31 3e 3f bc 4f 76 3f 67 61 2a 3e 5b ef 46 3f
       0.742939 0.96215415 0.16638719 0.7770898
000260 0b 22 7d bf 60 04 47 3f b8 1a f4 be c4 3c 06 be
       -0.9888007 0.7774105 -0.47676635 -0.13109118
000270 3c e4 89 bf 36 07 c4 3e d1 49 35 3f 4b 75 16 3f
       -1.0772777 0.38286752 0.7081576 0.58772725
000280 c9 0c fa bd e5 b6 b0 bd f7 a9 4e bf f3 26 83 3e
       -0.1220947 -0.08628634 -0.80728096 0.25615653
000290 15 d4 ba be dc c4 4b bf 71 ca 72 bf 6a 87 a7 be
       -0.3648993 -0.7959726 -0.9484015 -0.327205
0002a0 0f 3c e2 be 77 8c 0c 3f a0 6f 5c 3f bf fb 5b bf
       -0.44186446 0.5490183 0.86107826 -0.8593101
0002b0 5f 23 9d bf 59 45 69 be f7 cb 48 3f 25 c7 49 3e
       -1.2276419 -0.2278036 0.78436226 0.19704874
0002c0 1d 8d 18 3f 92 5d a8 bf 61 94 04 be b8 ac 70 3f
       0.5959032 -1.3153555 -0.12947227 0.9401355
0002d0 71 42 71 be 11 4c f2 3e a1 da 99 bf 81 fa 23 3f
       -0.23560502 0.4732366 -1.2019845 0.64054114
0002e0 bd 61 04 be 12 89 09 3f de 41 87 be e0 03 7b bf
       -0.12927909 0.5372478 -0.2641744 -0.9805279
0002f0 88 9c b8 3e 8c e3 3e 3f 7b 37 47 be c3 e8 bb be
       0.36056924 0.7456596 -0.19454758 -0.3670102
000300 1d 98 88 be a9 a3 52 3f 35 22 d0 bd 04 6d 88 3e
       -0.26678553 0.82280976 -0.101627745 0.26645672
000310 a4 cd 78 3f 0d 0a 37 bf 54 4a 5c 3f e2 76 96 3d
       0.9718878 -0.7149971 0.86050916 0.07346894
000320 24 35 c4 3e 69 9c 22 3e fb 89 32 3f 7f 69 53 3e
       0.38321793 0.15879978 0.6974179 0.20645712
000330 65 e6 ca bf 53 37 2c 3e 4c 3e 89 3f db 22 10 bf
       -1.5851561 0.1681798 1.0722136 -0.56303185
000340 36 d1 ad 3e a2 f3 2c 3c 2c 84 70 3f a2 d1 65 bf
       0.33948678 0.010556133 0.9395168 -0.89773
000350 28 ca b8 be 14 de c7 bd d4 44 2e 3f f5 07 b1 3d
       -0.36091733 -0.09759155 0.68073773 0.08644096
000360 bf 63 21 3f 4f 2b 97 be 2c f8 f1 be 45 8f 0b 3f
       0.63042825 -0.2952523 -0.47259653 0.54515487
000370 cf db 7d bf 12 0d 31 3f ac 24 9e be fb 5b 15 3f
       -0.99163526 0.6916057 -0.30887353 0.58343476
000380 29 f5 2b bf 08 bd e9 be a8 2e f5 be d3 51 36 3e
       -0.6717096 -0.45652032 -0.47887158 0.17804651
000390 81 de 1d 3f 7a 91 dc 3c cb a8 1e 3f df f1 68 3e
       0.6166764 0.026924837 0.6197631 0.22748516
0003a0 e5 06 52 bf bf 95 81 3f f6 e0 c9 be 4d 94 18 bf
       -0.8204177 1.0123824 -0.39429444 -0.5960129
0003b0 36 dc 7f bf 78 93 90 3f 0b 0a be be 14 19 d4 3e
       -0.9994539 1.1295004 -0.37117037 0.41425383
0003c0 cb 07 81 be 9d 1d 34 3d b9 42 24 bf 41 b7 76 be
       -0.25201258 0.043973554 -0.6416431 -0.24093343
0003d0 7f a3 93 3d 39 a4 d6 be 4b 5f 7b 3f ee 22 51 bf
       0.07208919 -0.41922167 0.9819228 -0.81693923
0003e0 3b ba 9b be 99 56 d5 be 1c 4f 0d bd c8 3d 2b 3f
       -0.3041552 -0.4166763 -0.034499273 0.66891146
0003f0 df 67 7d be 57 b1 22 3e f5 42 a7 3e 45 63 52 3f
       -0.24746655 0.15887962 0.32668272 0.82182723

sequential.0.Lambda.bias f4 [80]
000000 b9 ab 0b 3e d2 6a fe be 9e 20 fc be 9b 6e 4d be
       0.13639726 -0.49690872 -0.49243635 -0.20061724
000010 c2 06 fa be 03 2b 8a be 56 0a ee be f1 4c d5 3e
       -0.4883328 -0.2698594 -0.4649226 0.41660264
000020 b5 60 bd 3e 8a 83 f6 be 22 0b 98 3a 12 e7 11 bf
       0.36987844 -0.4814723 0.0011599998 -0.5699321
000030 44 b2 48 3e 4f 7d de be 72 d7 b6 be 83 70 e1 3d
       0.19599253 -0.43454978 -0.35711247 0.11007788
000040 0f db 30 be 9e 28 22 be b2 1f 8b bd 6b 77 39 bf
       -0.17271064 -0.15835807 -0.06793155 -0.7244784
000050 50 1b 5a bc 0e 63 79 3e ba b4 00 3e ff e6 47 3d
       -0.013312176 0.24354193 0.12568942 0.04880428
000060 fe 29 29 bd a0 b3 1e be a2 16 20 be a2 a3 9c bb
       -0.041299812 -0.15498209 -0.15633634 -0.0047802487
000070 ed 1a c0 3d 26 4c 1b bf db 35 e8 be 55 60 36 bf
       0.09380136 -0.6066307 -0.45353588 -0.7124074
000080 de 47 4e bf fc 08 0d 3d 77 8c 19 3e 3a a6 ae 3b
       -0.8057841 0.034432396 0.1499499 0.0053298743
000090 e2 c9 14 bf 5f 74 60 be a3 51 9e be 37 c2 69 be
       -0.5812055 -0.21919392 -0.3092166 -0.22827993
0000a0 25 dc 8b 3d a8 84 df be f2 51 4a 3e bc a1 a5 be
       0.068290986 -0.43655896 0.19757822 -0.32349956
0000b0 64 6f ee be db d8 03 bf 80 72 20 be c4 9d 55 3f
       -0.4656936 -0.5150277 -0.15668678 0.83443856
0000c0 c5 d8 38 be 50 15 5d be 0f 8e b7 be 3d 1b a1 be
       -0.18051441 -0.21590161 -0.3585057 -0.31466094
0000d0 35 13 cd bd ad 99 a6 3e e1 1e 93 be 7d 46 90 3d
       -0.10013429 0.3253912 -0.28734496 0.070446946
0000e0 7a 41 02 bd 29 3c 77 bc cc aa 4d 3e f5 c2 19 bf
       -0.031800725 -0.015090027 0.20084685 -0.60063106
0000f0 f6 c5 b7 3e e3 58 42 be 72 d5 ec be 6f 30 fe bd
       0.3589322 -0.1897922 -0.46256596 -0.12411582
000100 8f 38 3b bf 93 4c 4c bd 72 29 d7 3e 12 d1 74 be
       -0.73133177 -0.049877714 0.42023808 -0.23907879
000110 ab 07 81 3d 43 a1 6d bf 1d 0e 54 be 1f 9d 25 bf
       0.06300291 -0.9282419 -0.20708509 -0.6469287
000120 d3 d4 1c 3f fa 75 c3 be f3 6b 0f bf 2b 72 56 3b
       0.61262244 -0.38175946 -0.5602409 0.0032721858
000130 e4 ba 50 3e 0b 12 10 bf 94 88 a5 be 97 39 bb be
       0.20383793 -0.5627753 -0.32330763 -0.36567375

sequential.0.bn.running_mean f4 [80]
000000 00 00 00 00 00 00 00 00 00 00 00 00 00 00 00 00
       0.0 0.0 0.0 0.0
000010 00 00 00 00 00 00 00 00 00 00 00 00 00 00 00 00
       0.0 0.0 0.0 0.0
000020 00 00 00 00 00 00 00 00 00 00 00 00 00 00 00 00
       0.0 0.0 0.0 0.0
000030 00 00 00 00 00 00 00 00 00 00 00 00 00 00 00 00
       0.0 0.0 0.0 0.0
000040 00 00 00 00 00 00 00 00 00 00 00 00 00 00 00 00
       0.0 0.0 0.0 0.0
000050 00 00 00 00 00 00 00 00 00 00 00 00 00 00 00 00
       0.0 0.0 0.0 0.0
000060 00 00 00 00 00 00 00 00 00 00 00 00 00 00 00 00
       0.0 0.0 0.0 0.0
000070 00 00 00 00 00 00 00 00 00 00 00 00 00 00 00 00
       0.0 0.0 0.0 0.0
000080 00 00 00 00 00 00 00 00 00 00 00 00 00 00 00 00
       0.0 0.0 0.0 0.0
000090 00 00 00 00 00 00 00 00 00 00 00 00 00 00 00 00
       0.0 0.0 0.0 0.0
0000a0 00 00 00 00 00 00 00 00 00 00 00 00 00 00 00 00
       0.0 0.0 0.0 0.0
0000b0 00 00 00 00 00 00 00 00 00 00 00 00 00 00 00 00
       0.0 0.0 0.0 0.0
0000c0 00 00 00 00 00 00 00 00 00 00 00 00 00 00 00 00
       0.0 0.0 0.0 0.0
0000d0 00 00 00 00 00 00 00 00 00 00 00 00 00 00 00 00
       0.0 0.0 0.0 0.0
0000e0 00 00 00 00 00 00 00 00 00 00 00 00 00 00 00 00
       0.0 0.0 0.0 0.0
0000f0 00 00 00 00 00 00 00 00 00 00 00 00 00 00 00 00
       0.0 0.0 0.0 0.0
000100 00 00 00 00 00 00 00 00 00 00 00 00 00 00 00 00
       0.0 0.0 0.0 0.0
000110 00 00 00 00 00 00 00 00 00 00 00 00 00 00 00 00
       0.0 0.0 0.0 0.0
000120 00 00 00 00 00 00 00 00 00 00 00 00 00 00 00 00
       0.0 0.0 0.0 0.0
000130 00 00 00 00 00 00 00 00 00 00 00 00 00 00 00 00
       0.0 0.0 0.0 0.0

sequential.0.bn.running_var f4 [80]
000000 00 00 80 3f 00 00 80 3f 00 00 80 3f 00 00 80 3f
       1.0 1.0 1.0 1.0
000010 00 00 80 3f 00 00 80 3f 00 00 80 3f 00 00 80 3f
       1.0 1.0 1.0 1.0
000020 00 00 80 3f 00 00 80 3f 00 00 80 3f 00 00 80 3f
       1.0 1.0 1.0 1.0
000030 00 00 80 3f 00 00 80 3f 00 00 80 3f 00 00 80 3f
       1.0 1.0 1.0 1.0
000040 00 00 80 3f 00 00 80 3f 00 00 80 3f 00 00 80 3f
       1.0 1.0 1.0 1.0
000050 00 00 80 3f 00 00 80 3f 00 00 80 3f 00 00 80 3f
       1.0 1.0 1.0 1.0
000060 00 00 80 3f 00 00 80 3f 00 00 80 3f 00 00 80 3f
       1.0 1.0 1.0 1.0
000070 00 00 80 3f 00 00 80 3f 00 00 80 3f 00 00 80 3f
       1.0 1.0 1.0 1.0
000080 00 00 80 3f 00 00 80 3f 00 00 80 3f 00 00 80 3f
       1.0 1.0 1.0 1.0
000090 00 00 80 3f 00 00 80 3f 00 00 80 3f 00 00 80 3f
       1.0 1.0 1.0 1.0
0000a0 00 00 80 3f 00 00 80 3f 00 00 80 3f 00 00 80 3f
       1.0 1.0 1.0 1.0
0000b0 00 00 80 3f 00 00 80 3f 00 00 80 3f 00 00 80 3f
       1.0 1.0 1.0 1.0
0000c0 00 00 80 3f 00 00 80 3f 00 00 80 3f 00 00 80 3f
       1.0 1.0 1.0 1.0
0000d0 00 00 80 3f 00 00 80 3f 00 00 80 3f 00 00 80 3f
       1.0 1.0 1.0 1.0
0000e0 00 00 80 3f 00 00 80 3f 00 00 80 3f 00 00 80 3f
       1.0 1.0 1.0 1.0
0000f0 00 00 80 3f 00 00 80 3f 00 00 80 3f 00 00 80 3f
       1.0 1.0 1.0 1.0
000100 00 00 80 3f 00 00 80 3f 00 00 80 3f 00 00 80 3f
       1.0 1.0 1.0 1.0
000110 00 00 80 3f 00 00 80 3f 00 00 80 3f 00 00 80 3f
       1.0 1.0 1.0 1.0
000120 00 00 80 3f 00 00 80 3f 00 00 80 3f 00 00 80 3f
       1.0 1.0 1.0 1.0
000130 00 00 80 3f 00 00 80 3f 00 00 80 3f 00 00 80 3f
       1.0 1.0 1.0 1.0

sequential.2.Gamma.weight f4 [120, 80]
000000 6b 98 dc be c9 8d e9 bd 6c af c1 3d df 8b b8 be
       -0.43085036 -0.114039965 0.09457287 -0.36044213
000010 b6 79 db bd e4 ec f3 be 6e 6e 99 3e 73 70 80 bc
       -0.10716574 -0.4764167 0.29967064 -0.01567862
000020 2d 05 99 be 21 79 fa 3d 82 d9 96 3d 01 67 79 3e
       -0.2988676 0.12230135 0.07365705 0.24355699
000030 a9 37 de be 74 98 0d 3f 51 69 bf be 78 46 fb be
       -0.4340184 0.5531075 -0.37385038 -0.490772
000040 a7 24 19 3f a4 9c 23 bf d4 63 c5 be d9 85 34 3e
       0.5982155 -0.6391089 -0.38552725 0.17629184
000050 54 61 6c be f6 c7 0a be 80 ec b2 be 08 67 db 3d
       -0.23084003 -0.13552842 -0.3494606 0.10713011
000060 69 c7 b2 bd aa 3c ba bd 03 25 d7 3e 7f 6d 12 bf
       -0.08729441 -0.09093602 0.42020425 -0.5719833
000070 92 cd 6e be 34 b6 ff 3d ce 86 bb bd 1c 85 07 3e
       -0.23320606 0.12485924 -0.09156571 0.13234371
000080 aa 19 c9 bd 7e 0c c9 be 7b c4 12 bf 07 8f ed bd
       -0.09819348 -0.39267343 -0.57331055 -0.11599546
000090 1e 93 bd bb 54 f3 c0 3c d5 3e a1 3d 99 d3 a0 3c
       -0.00578536 0.023553528 0.078733124 0.019632148
0000a0 19 c2 96 be 56 65 8d be 39 65 9a bc 1d af 07 be
       -0.2944496 -0.27616376 -0.018847095 -0.13250394
0000b0 74 2c 73 bd f9 5c e9 bd e7 83 74 be c5 eb e6 bd
       -0.059368566 -0.11394686 -0.23878442 -0.11275438
0000c0 e8 f5 90 be c9 65 b8 be 27 dd 5a 3e e5 2b 20 3e
       -0.28312612 -0.36015156 0.21373425 0.15641744
0000d0 ab fb 72 3e 4c a5 84 bf 72 4a ae be ca ef 45 bd
       0.23728816 -1.0362945 -0.34041172 -0.048324384
0000e0 07 df c8 be f2 32 2b be 8e 1c 87 be 90 90 c8 3e
       -0.39232656 -0.16718653 -0.26388973 0.39172792
0000f0 34 f8 64 be ae de c1 3e 7f 44 da 3d d8 eb 3b be
       -0.22360307 0.37865204 0.10657596 -0.18351686
000100 39 da 91 3e cc 66 cc bd 89 8f 25 bf 1a 92 61 bd
       0.28486803 -0.099805444 -0.6467214 -0.055070974
000110 b6 c8 97 3d a8 c6 75 3e 24 e8 a5 be db 6f 45 be
       0.074113294 0.24001563 -0.32403672 -0.1928095
000120 35 95 29 bf d7 77 b4 bd f9 b9 22 3e 2e 92 1a be
       -0.66243297 -0.0881192 0.15891255 -0.15094826
000130 05 86 b0 3e bc 39 42 3e 74 03 9b 3e cb 47 3d 3c
       0.3447725 0.18967336 0.30276072 0.011552761
000140 cf 5b 3b bc 72 77 40 be c6 1a 9a be f9 fe 1d bf
       -0.011435463 -0.18795565 -0.30098552 -0.6171718
000150 aa 77 d3 be 29 8b 4c be 32 56 54 bf 35 4e eb bd
       -0.41302234 -0.1997496 -0.82944024 -0.11489526
000160 57 be 8c 3c e3 b3 a2 be ce 15 7a be 0e 3d 34 bd
       0.017180605 -0.31777868 -0.2442238 -0.04400354
000170 f4 86 eb be ca e1 78 be 11 14 93 be ca f5 22 be
       -0.460014 -0.24304882 -0.28726247 -0.15914074
000180 c5 d4 82 be ba 9e ac be 05 c9 c2 bd 3a 9e b7 be
       -0.25552955 -0.3371485 -0.09510998 -0.35862905
000190 f7 83 92 bc cf 95 b2 bd 1f 81 29 bf 42 59 85 3d
       -0.017885191 -0.0871998 -0.6621265 0.06511165
0001a0 ad 5a 2b bf 1a 50 b3 3d 92 d3 5e 3e 19 f3 1e be
       -0.66935235 0.087555125 0.21760395 -0.15522422
0001b0 dd 51 db be 83 1c 4c be 91 53 3c 3e 83 73 1b bf
       -0.42835894 -0.19932751 0.18391253 -0.6072313
0001c0 f6 3b a2 bc ca 5c 57 be 19 f9 65 be 55 69 f7 bd
       -0.019803982 -0.2103149 -0.22458304 -0.12080637
0001d0 2a 64 5f 3e 30 03 a3 3e 7c 3a 0d bf cc a2 32 3d
       0.21815553 0.3183837 -0.55167365 0.043612286
0001e0 cc 79 f9 3d b8 bb 4f 3e 35 8f 0d bf 19 53 fa bd
       0.12181434 0.20286453 -0.5529664 -0.12222881
0001f0 91 2c a1 bd 61 09 28 bf 76 03 9c 3e b0 41 c0 be
       -0.078698285 -0.6563931 0.3047139 -0.37550116
000200 e6 83 39 bf 9c 7d 80 be 26 46 c5 3b 88 4d 89 3c
       -0.72466886 -0.25095832 0.0060203252 0.016760603
000210 7e 92 a1 be d5 64 88 bf 8a c9 3e bd b7 29 73 be
       -0.31557077 -1.0655771 -0.04657892 -0.23746382
000220 33 b3 07 be ab fc f5 3d 9b e9 bc 3d b8 7f 56 be
       -0.13251953 0.12011083 0.09224244 -0.20947158
000230 48 45 02 bf 02 35 95 3d 5f eb 84 bf 27 06 a6 3e
       -0.50886965 0.07285501 -1.038433 0.3242657
000240 62 df e2 be f5 a1 66 3d 0e 8b 84 be ba df 5a be
       -0.44311053 0.056306798 -0.2588734 -0.21374407
000250 04 a0 68 bf 3e b9 0f be d2 ab cc be 12 33 18 be
       -0.90869164 -0.14035508 -0.39974838 -0.14863232
000260 ee 2e 4a bf 79 3a 85 bf ce c9 29 be 60 5e 82 bf
       -0.7897786 -1.040847 -0.16580889 -1.0185051
000270 b8 0f 30 be 26 10 2e 3e 0e 6b 8d bd 24 43 c0 3d
       -0.17193496 0.16998348 -0.06905185 0.09387806
000280 7e 4e ac be ae d2 4f be ca b4 0b bf b1 fb d8 be
       -0.33653635 -0.20295212 -0.5457274 -0.42379525
000290 04 3d 00 bd af 02 03 3e 70 cf e5 bd 34 ef 04 bf
       -0.03130819 0.12793992 -0.11221206 -0.51927495
0002a0 b5 11 27 bf cf a1 22 bc 5e e4 c8 bd fe bd 22 3e
       -0.65261394 -0.0099262735 -0.098091826 0.15892789
0002b0 4a 86 9b 3d ad 5d d8 3d c8 de 8a be 7b 03 13 3d
       0.07593973 0.10564742 -0.27123094 0.03589199
0002c0 85 45 9e 3d 9d ac 07 3e d7 5f 08 be 02 2e 3f be
       0.077281035 0.1324944 -0.1331781 -0.18669894
0002d0 48 00 91 be d4 c5 6b bd 95 57 97 be 36 04 67 bc
       -0.28320527 -0.05756171 -0.29559007 -0.014100125
0002e0 bf fc 89 3e c5 8f 98 bd 56 f9 3b 3d bf 72 70 3b
       0.26950642 -0.07449297 0.045892082 0.0036689488
0002f0 0e c6 05 be 53 3c 34 bd 32 2c bd bb 4b 9b 50 3e
       -0.13063833 -0.044002842 -0.0057730908 0.2037174
000300 11 8c fd 3d 1d 4d b1 be 86 df 89 be 31 7b fe 3d
       0.12380231 -0.34629145 -0.26928347 0.12425841
000310 12 08 36 3d 07 a1 c4 be b8 bd 3a be 74 06 4f 3d
       0.04444129 -0.38404104 -0.18236434 0.050543264
000320 cd 73 43 bd de ce b0 bd 46 ed 52 be 87 e4 c8 bd
       -0.047717858 -0.08633207 -0.20598325 -0.09809213
000330 df 5d 43 3e 98 e0 39 be dd 5f 8b be 0d b7 98 be
       0.19078778 -0.18152082 -0.27221575 -0.29827157
000340 b1 a4 16 be 1f 9d 80 be 5d f0 e9 3e fe a4 8c bd
       -0.14711262 -0.25119874 0.45691195 -0.06867407
000350 49 b6 81 be db 49 a1 bc fa 44 cc bc e5 05 89 3d
       -0.25334385 -0.019688537 -0.024935234 0.066905774
000360 2d 33 d3 be b2 cc 07 be 83 cc dd be 3c 75 a7 be
       -0.41249982 -0.13261679 -0.43320093 -0.3270663
000370 2e 41 27 3c fa 34 4b 3e 7f b5 e7 3d 21 ce e6 be
       0.010208411 0.19844428 0.113139145 -0.4507914
000380 98 c4 37 3d 1c ac 70 be 96 2f e2 be 92 d1 6a be
       0.04486522 -0.23503155 -0.4417693 -0.22931507
000390 5e a9 13 3b 1a 88 e1 3d 7e e0 aa bc 7f 46 84 3e
       0.002253137 0.110122874 -0.020859 0.25835034
0003a0 c7 54 5d 3c 6b b6 d0 3b a3 d5 f4 bc 98 55 87 3e
       0.013508982 0.006369402 -0.029887026 0.2643249
0003b0 18 38 54 3e 41 b2 37 3e 65 04 ab bd be 5d 4c be
       0.20724523 0.17939092 -0.083504476 -0.19957635
0003c0 c0 d1 bc 3d 82 e6 cb 3b ac af 08 3e 18 18 0c 3e
       0.09219694 0.006222547 0.13348264 0.13681066
0003d0 10 81 b0 bd 85 88 a4 3d dc 47 b2 bd e7 29 aa 3e
       -0.08618367 0.080338515 -0.08705112 0.33235094
0003e0 e9 32 fe bd 89 e6 a8 be 9d 20 4a be c0 0c 20 be
       -0.12412054 -0.32988384 -0.19739003 -0.15629864
0003f0 91 d5 43 3b fd 7d 7b bd 5f ea a8 3c 5d 09 99 be
       0.0029881934 -0.06139945 0.02061957 -0.29889956

sequential.2.Gamma.bias f4 [120]
000000 a1 03 34 bf 1a 27 65 3d c9 68 ae be cb 4c c0 be
       -0.7031804 0.055945493 -0.3406432 -0.37558588
000010 11 82 15 bf 9a d2 ed be 14 ef 04 3b 03 1a 73 3e
       -0.5840159 -0.4644974 0.0020284103 0.23740391
000020 61 f5 35 3c e7 4e 86 be 0d 93 07 bf 64 2f b2 be
       0.011105866 -0.26232073 -0.52958757 -0.3480178
000030 a1 b9 ce be 0a d2 b4 bd 98 c7 18 bf 94 b2 9e 3e
       -0.40376 -0.08829124 -0.59679556 0.3099562
000040 2d ab 7d bd 94 48 5b bd 61 1a 51 be ef 41 b6 be
       -0.061930824 -0.053536013 -0.20420219 -0.35597178
000050 26 5f 7e be 7a 81 e5 bd 79 fd 09 bf e8 e0 94 3c
       -0.24840984 -0.11206336 -0.53902394 0.01817365
000060 fd b3 08 bd b6 41 c4 bd 4b 3b 69 be ba f2 91 be
       -0.033374775 -0.09582846 -0.22776525 -0.28505498
000070 c0 95 59 bd 8f d0 6b 3d e1 f0 58 be fd 25 b0 bd
       -0.05312133 0.057571944 -0.21185638 -0.08600996
000080 1b da 8c be d3 d4 46 be 21 d2 0e be e2 da 97 be
       -0.2751015 -0.19417123 -0.13947345 -0.29659182
000090 75 f0 2a be bd ed af bb 3b 11 50 3e ed 32 35 bd
       -0.1669329 -0.005368917 0.20319073 -0.04423802
0000a0 0b c6 23 bf e1 2c b6 3d 90 b8 19 3e 6a 61 fc 3d
       -0.63974065 0.08895279 0.15011811 0.12323268
0000b0 fa 96 94 bd 9f 41 b3 be 67 b7 81 be 36 52 a3 be
       -0.07255359 -0.35011002 -0.25335237 -0.3189866
0000c0 3b e5 cf be 8d 44 a2 b9 51 95 9d 3d 7c 1d 28 3c
       -0.40604576 -0.00030950122 0.076944955 0.010260936
0000d0 97 d0 b8 be 18 8d ea bd c4 83 bd 3e 21 eb c2 3e
       -0.3609664 -0.11452693 0.37014592 0.38070014
0000e0 95 f0 0e 3e fa 0c c0 be 71 bd 3c bf 94 ab b9 3c
       0.13958962 -0.375099 -0.73726565 0.022664823
0000f0 18 2e 0a 3d c8 45 08 bf d4 a4 8c be f0 d9 57 be
       0.033735365 -0.5323148 -0.27469504 -0.2107923
000100 d9 bf 45 3e 38 19 05 bd dc 25 02 3f 01 4f 79 be
       0.19311465 -0.032494754 0.5083902 -0.24346544
000110 a8 9e ce be 33 bc 73 bc 1e 8a 8b be 87 c0 70 be
       -0.4035542 -0.014876413 -0.27253813 -0.23510943
000120 49 09 03 3e ec 37 6e bd 98 0e 8c bd 88 35 96 be
       0.12796511 -0.0581588 -0.06838721 -0.29337716
000130 7e e4 3d bd e5 ff 55 3d 49 d2 1c bb 7f a7 cf bd
       -0.046360485 0.052245993 -0.002392905 -0.10139369
000140 ce ad 16 bf 39 74 b2 be ea 65 15 bf 41 56 8b be
       -0.58858955 -0.34854296 -0.58358634 -0.27214244
000150 4b 9a c2 be 69 18 8e be 52 74 9b bd b3 e1 9b bd
       -0.3800834 -0.27752998 -0.07590546 -0.07611408
000160 ef 87 0f be 5e e7 68 be 80 ec 01 bf c5 a8 cb be
       -0.14016698 -0.2274451 -0.50751495 -0.39777198
000170 d9 25 c1 bd 24 81 de bd 62 42 ba be 34 86 ba bd
       -0.09431047 -0.10864475 -0.3637877 -0.091076285
000180 3c 22 29 be 74 27 3a 3d 17 ec 9a be d6 47 0b bf
       -0.16516966 0.04544778 -0.30258247 -0.5440649
000190 10 8c 05 bf df 83 c8 be 15 69 13 be 29 42 dd bb
       -0.52166843 -0.3916311 -0.14395554 -0.0067522717
0001a0 42 c2 3a be 8c ba bd bd ed 4a 6a be 0f 06 15 be
       -0.18238166 -0.092640966 -0.22880144 -0.14553092
0001b0 69 88 cf be 79 ff 8f bc c4 81 2b be ac d1 d3 be
       -0.4053376 -0.017577874 -0.1674872 -0.41370904
0001c0 d9 30 f0 bd ce 76 ca 3d 7a a0 39 be 98 03 5c 3d
       -0.11728067 0.098859414 -0.18127623 0.053714365
0001d0 e1 09 f9 bd 7a 26 85 bf cc 21 69 3e 1e 01 23 be
       -0.121600874 -1.0402367 0.22766799 -0.15918395

sequential.2.Lambda.weight f4 [120, 80]
000000 32 ee f7 3c 19 ee 12 3e 72 04 94 3e d5 f6 59 3e
       0.030264948 0.1434864 0.28909642 0.21285565
000010 c7 9e b6 3d 21 d3 a7 bd ce 37 c1 3e d4 e3 0e 3f
       0.08917003 -0.081945665 0.37737888 0.5581639
000020 1c e1 84 3e e9 90 59 be a8 c6 7d bd 82 96 ef 3e
       0.25952995 -0.21246685 -0.06195703 0.46794516
000030 c6 6a be 3e 72 9e 54 3f 28 41 27 3e 65 ff e4 3e
       0.37190837 0.8305427 0.16333449 0.447261
000040 45 23 11 3f 5d 9f 73 be 81 2a 0f 3d 50 3d 8a 3e
       0.5669444 -0.23791261 0.034952644 0.26999903
000050 3e ac 53 3b a5 0e 4b 3e 57 e2 01 3f 3b ae 66 3e
       0.003229871 0.19829805 0.5073599 0.22527401
000060 ba 1a 83 3e 3f 4e 29 3e 51 ee d1 3b f5 94 ee 3d
       0.25606328 0.16533755 0.0064065834 0.11649505
000070 f4 89 e6 bd 60 04 13 3e 1a 9e be 3d c3 35 fb 3e
       -0.11256781 0.14357138 0.09307499 0.49064454
000080 17 55 b0 3e 01 50 13 3e 2b 7a 17 be e0 ea 08 3e
       0.34439918 0.14385988 -0.14792697 0.13370848
000090 51 d0 ca 3d e6 6b 04 3d 04 aa 05 be 55 20 95 bd
       0.099030145 0.032329462 -0.13053137 -0.072815575
0000a0 76 24 8e 3c 92 0e 42 be 72 69 30 3e 82 98 2f be
       0.01735137 -0.1895087 0.17227724 -0.17148021
0000b0 b0 7d 2a be 14 12 99 3e 38 25 6e 3e 5c 10 12 3e
       -0.16649508 0.29896605 0.23256385 0.14264053
0000c0 6e 55 85 3d d6 4d 1a 3e a9 53 bc 3d 4b f0 12 3f
       0.06510435 0.15068755 0.091956444 0.5739791
0000d0 54 98 6d 3e b6 13 98 3e 86 d2 1e bf 56 5c 47 3d
       0.2320264 0.29702538 -0.62039983 0.048672043
0000e0 2c 57 0d 3e 6b b9 ef bb 3b 6e 31 be 67 ee de 3e
       0.13802785 -0.0073158047 -0.17327206 0.43541262
0000f0 ce 40 ab 3e f8 9e ed 3e ca ee ea 3a e2 e2 13 3f
       0.3344788 0.46410346 0.0017923948 0.5776807
000100 e3 2d 4a 3e 1e ec 15 3c 43 1e 0d be 45 b4 a0 3e
       0.19744067 0.009150533 -0.13781075 0.31387535
000110 e1 0e 7a 3e 26 01 a6 3d 48 7a d0 3d 87 26 6c 3e
       0.24419738 0.08105688 0.10179573 0.23061572
000120 70 73 62 bd 2e 68 8b 3d c2 84 cb 3e 05 eb 92 3d
       -0.05528587 0.0680698 0.39749724 0.07173733
000130 0e f8 b4 3e ad 53 6b 3e 85 b6 6a 3f 6d 75 44 3e
       0.353455 0.22981139 0.9168475 0.1918542
000140 21 da 9a be 3d 2d 3d bd 4b 75 61 be 78 87 c0 be
       -0.30244544 -0.04618572 -0.220174 -0.37603354
000150 84 ea dd be 4f 74 6b be 9b f6 0b bf 4c d2 e5 be
       -0.43342984 -0.22993587 -0.54673165 -0.44887006
000160 69 d9 ca bd 60 3d 22 be ed 7d 81 bd 81 60 9b 3d
       -0.09904749 -0.15843725 -0.063228466 0.07586766
000170 eb a0 46 be 29 5a ed be 6e 59 bc be a0 0b 83 bd
       -0.19397323 -0.4635785 -0.3678698 -0.06398702
000180 aa 1a b8 3e 64 44 0d bf 12 36 91 3c 08 a3 3a bf
       0.35957843 -0.5518248 0.017725978 -0.72905016
000190 f4 98 20 be 1b ba 8a be a1 32 83 be d4 bf 36 3e
       -0.15683347 -0.27095112 -0.25624564 0.17846614
0001a0 43 00 64 bd ac a1 3b be 0c 4b e8 bc c7 e7 10 be
       -0.055664312 -0.18323392 -0.028356098 -0.14150916
0001b0 b8 cc 15 3d 6e ab 3d be a0 d0 24 3e 31 bf 14 bf
       0.03657219 -0.18522426 0.16095209 -0.58104235
0001c0 f8 40 cb be 3a d9 48 3e ce dd bd bc e3 56 59 be
       -0.39698005 0.19614115 -0.023177054 -0.21224551
0001d0 8a 3f a9 3d c2 31 8f be d0 21 bf be ad 83 0c be
       0.08264072 -0.2796765 -0.37330484 -0.13722105
0001e0 dd dc e0 be fa e3 a2 be c2 e3 1c be 1a 92 34 3e
       -0.43918505 -0.31814557 -0.15321258 0.17633858
0001f0 1b 06 61 3e 99 8b 49 bf 9d 4c b7 3e ce 0f 5e be
       0.21974985 -0.78728634 0.3580064 -0.21685717
000200 07 cd e5 3d b4 96 02 be 11 ea b1 3e 1c 13 19 bf
       0.112207465 -0.12752801 0.3474889 -0.59794784
000210 54 33 8b be 6e ab 50 be f7 f0 03 be 2d 5c c3 bd
       -0.27187598 -0.20377895 -0.1288489 -0.095390655
000220 4f b0 5e be 5f 7a 05 3d e1 95 71 bd e1 6a da be
       -0.21746944 0.032587405 -0.058980826 -0.42659667
000230 3b 66 e4 be f4 3e e0 3e c5 14 a9 bf c6 a4 e2 bd
       -0.44609246 0.4379803 -1.3209463 -0.11066584
000240 bb 44 58 bf f2 f0 27 3e 7f 33 2d be f3 a9 38 3e
       -0.84479874 0.16400507 -0.16914175 0.1803358
000250 a1 34 73 be 9f de 31 3e 87 d5 f9 3b 4a f9 8e be
       -0.23750545 0.1737008 0.0076243314 -0.27924567
000260 89 dc 1b bf 5b cc 50 bf 96 5b 3b be 59 4c e0 be
       -0.60883385 -0.8156182 -0.18296656 -0.4380825
000270 dd 65 f4 3d 3f 03 5f bd 45 ee 7e be 27 f6 99 be
       0.119334914 -0.054446455 -0.2489558 -0.30070612
000280 b9 8b a5 3d 45 a9 a3 be fe d7 bd bd f5 7d d8 3e
       0.080832906 -0.3196508 -0.09269713 0.42283598
000290 8e 61 75 3d 9b 80 4f 3d c6 d0 bb bd 9b 22 b8 3d
       0.05990749 0.050659757 -0.0917068 0.089909755
0002a0 ed 61 97 be 91 ae 9b 3d 4a a0 28 3e be 88 90 3e
       -0.295669 0.07601655 0.16467395 0.28229326
0002b0 ce ef 39 3e bc 40 1e 3e 96 89 47 3d 5b 55 a3 3d
       0.18157884 0.15454382 0.048715197 0.07975265
0002c0 db be 29 be fd b7 4e be 55 0f 1f 3e d3 d8 7b 3e
       -0.16576712 -0.20187373 0.15533192 0.2459443
0002d0 da 45 03 3e 9c b0 c8 3d 82 f9 78 3d ad 1a 06 bd
       0.12819615 0.097993106 0.060784824 -0.032740284
0002e0 37 0b d4 3d bc 3f 8e bd 8e 2c ce be 85 14 12 3e
       0.103537016 -0.0694575 -0.40268368 0.1426564
0002f0 c2 89 f8 3d 4d 70 67 bd 4e f0 b7 3d 1f e9 a1 3c
       0.1213565 -0.056503583 0.08981381 0.019764481
000300 4a 65 c7 bd ba f5 4f be 64 ad 18 3e 08 e0 44 3e
       -0.09736116 -0.20308581 0.14909893 0.19226086
000310 15 ae 62 bd f0 f9 99 3d 8b 27 bb be 7c 77 80 3d
       -0.0553418 0.07518375 -0.36553606 0.0627279
000320 1a ca 2d 3e cd ea 97 3c 3c 46 4c 3e 18 f8 94 be
       0.16971627 0.018544579 0.19948667 -0.2909553
000330 a2 9c 8d bd 70 d1 65 3e 3f 96 91 bd 76 75 fc 3c
       -0.06914641 0.22443175 -0.07108735 0.030817728
000340 09 39 1d be 3c 3d b2 3e c5 4e f0 be d6 b6 66 3e
       -0.15353788 0.34812343 -0.46935096 0.22530684
000350 f8 25 00 be 4c 05 7d be 5e 2b 42 bd 30 0c ea 3d
       -0.12514484 -0.24709052 -0.04740464 0.11428106
000360 b2 60 4b 3e f1 cd cd bd 82 bf 5d be e9 b7 65 be
       0.19861105 -0.10049046 -0.21655086 -0.22433437
000370 cb 9d 02 3e 5c 1c c9 3d 24 39 d2 bd 01 13 07 be
       0.12755506 0.09819862 -0.10264805 -0.13190843
000380 14 c2 d9 3d 40 42 1b 3b 48 89 99 3d 86 97 0f be
       0.106327206 0.002369061 0.074968874 -0.14022645
000390 ac 3d 31 be fb b5 49 be 73 4d e8 3c a6 72 01 bd
       -0.17308682 -0.19698326 0.028357243 -0.031603478
0003a0 ee 66 b0 3d a4 07 00 3e 88 81 d1 3e 14 ce 03 3e
       0.08613382 0.12502915 0.40919137 0.12871581
0003b0 9d 6e 34 be eb f1 91 bd 8c a4 89 3e 99 07 a0 be
       -0.1762032 -0.0712622 0.26883352 -0.31255797
0003c0 f5 88 e7 3d 93 c4 f7 3d 3f 17 24 be de 28 42 3e
       0.11305419 0.120980404 -0.16024493 0.18960902
0003d0 78 62 e3 3d 8e 07 b6 bc 23 c7 b8 bc 0e d1 25 be
       0.11102766 -0.0222204 -0.022555893 -0.1619303
0003e0 90 45 0d 3e 23 f4 8f 3e 57 46 20 be 2d cd 91 3c
       0.13796067 0.2811595 -0.15651833 0.01779803
0003f0 a3 b2 b5 be 84 d1 1a 3d d9 ce 9c be 82 cf de 3e
       -0.35487852 0.037797466 -0.30626562 0.4351769

sequential.2.Lambda.bias f4 [120]
000000 a1 03 34 bf 1a 27 65 3d c9 68 ae be cb 4c c0 be
       -0.7031804 0.055945493 -0.3406432 -0.37558588
000010 11 82 15 bf 9a d2 ed be 14 ef 04 3b 03 1a 73 3e
       -0.5840159 -0.4644974 0.0020284103 0.23740391
000020 61 f5 35 3c e7 4e 86 be 0d 93 07 bf 64 2f b2 be
       0.011105866 -0.26232073 -0.52958757 -0.3480178
000030 a1 b9 ce be 0a d2 b4 bd 98 c7 18 bf 94 b2 9e 3e
       -0.40376 -0.08829124 -0.59679556 0.3099562
000040 2d ab 7d bd 94 48 5b bd 61 1a 51 be ef 41 b6 be
       -0.061930824 -0.053536013 -0.20420219 -0.35597178
000050 26 5f 7e be 7a 81 e5 bd 79 fd 09 bf e8 e0 94 3c
       -0.24840984 -0.11206336 -0.53902394 0.01817365
000060 fd b3 08 bd b6 41 c4 bd 4b 3b 69 be ba f2 91 be
       -0.033374775 -0.09582846 -0.22776525 -0.28505498
000070 c0 95 59 bd 8f d0 6b 3d e1 f0 58 be fd 25 b0 bd
       -0.05312133 0.057571944 -0.21185638 -0.08600996
000080 1b da 8c be d3 d4 46 be 21 d2 0e be e2 da 97 be
       -0.2751015 -0.19417123 -0.13947345 -0.29659182
000090 75 f0 2a be bd ed af bb 3b 11 50 3e ed 32 35 bd
       -0.1669329 -0.005368917 0.20319073 -0.04423802
0000a0 0b c6 23 bf e1 2c b6 3d 90 b8 19 3e 6a 61 fc 3d
       -0.63974065 0.08895279 0.15011811 0.12323268
0000b0 fa 96 94 bd 9f 41 b3 be 67 b7 81 be 36 52 a3 be
       -0.07255359 -0.35011002 -0.25335237 -0.3189866
0000c0 3b e5 cf be 8d 44 a2 b9 51 95 9d 3d 7c 1d 28 3c
       -0.40604576 -0.00030950122 0.076944955 0.010260936
0000d0 97 d0 b8 be 18 8d ea bd c4 83 bd 3e 21 eb c2 3e
       -0.3609664 -0.11452693 0.37014592 0.38070014
0000e0 95 f0 0e 3e fa 0c c0 be 71 bd 3c bf 94 ab b9 3c
       0.13958962 -0.375099 -0.73726565 0.022664823
0000f0 18 2e 0a 3d c8 45 08 bf d4 a4 8c be f0 d9 57 be
       0.033735365 -0.5323148 -0.27469504 -0.2107923
000100 d9 bf 45 3e 38 19 05 bd dc 25 02 3f 01 4f 79 be
       0.19311465 -0.032494754 0.5083902 -0.24346544
000110 a8 9e ce be 33 bc 73 bc 1e 8a 8b be 87 c0 70 be
       -0.4035542 -0.014876413 -0.27253813 -0.23510943
000120 49 09 03 3e ec 37 6e bd 98 0e 8c bd 88 35 96 be
       0.12796511 -0.0581588 -0.06838721 -0.29337716
000130 7e e4 3d bd e5 ff 55 3d 49 d2 1c bb 7f a7 cf bd
       -0.046360485 0.052245993 -0.002392905 -0.10139369
000140 ce ad 16 bf 39 74 b2 be ea 65 15 bf 41 56 8b be
       -0.58858955 -0.34854296 -0.58358634 -0.27214244
000150 4b 9a c2 be 69 18 8e be 52 74 9b bd b3 e1 9b bd
       -0.3800834 -0.27752998 -0.07590546 -0.07611408
000160 ef 87 0f be 5e e7 68 be 80 ec 01 bf c5 a8 cb be
       -0.14016698 -0.2274451 -0.50751495 -0.39777198
000170 d9 25 c1 bd 24 81 de bd 62 42 ba be 34 86 ba bd
       -0.09431047 -0.10864475 -0.3637877 -0.091076285
000180 3c 22 29 be 74 27 3a 3d 17 ec 9a be d6 47 0b bf
       -0.16516966 0.04544778 -0.30258247 -0.5440649
000190 10 8c 05 bf df 83 c8 be 15 69 13 be 29 42 dd bb
       -0.52166843 -0.3916311 -0.14395554 -0.0067522717
0001a0 42 c2 3a be 8c ba bd bd ed 4a 6a be 0f 06 15 be
       -0.18238166 -0.092640966 -0.22880144 -0.14553092
0001b0 69 88 cf be 79 ff 8f bc c4 81 2b be ac d1 d3 be
       -0.4053376 -0.017577874 -0.1674872 -0.41370904
0001c0 d9 30 f0 bd ce 76 ca 3d 7a a0 39 be 98 03 5c 3d
       -0.11728067 0.098859414 -0.18127623 0.053714365
0001d0 e1 09 f9 bd 7a 26 85 bf cc 21 69 3e 1e 01 23 be
       -0.121600874 -1.0402367 0.22766799 -0.15918395

sequential.2.bn.running_mean f4 [120]
000000 00 00 00 00 00 00 00 00 00 00 00 00 00 00 00 00
       0.0 0.0 0.0 0.0
000010 00 00 00 00 00 00 00 00 00 00 00 00 00 00 00 00
       0.0 0.0 0.0 0.0
000020 00 00 00 00 00 00 00 00 00 00 00 00 00 00 00 00
       0.0 0.0 0.0 0.0
000030 00 00 00 00 00 00 00 00 00 00 00 00 00 00 00 00
       0.0 0.0 0.0 0.0
000040 00 00 00 00 00 00 00 00 00 00 00 00 00 00 00 00
       0.0 0.0 0.0 0.0
000050 00 00 00 00 00 00 00 00 00 00 00 00 00 00 00 00
       0.0 0.0 0.0 0.0
000060 00 00 00 00 00 00 00 00 00 00 00 00 00 00 00 00
       0.0 0.0 0.0 0.0
000070 00 00 00 00 00 00 00 00 00 00 00 00 00 00 00 00
       0.0 0.0 0.0 0.0
000080 00 00 00 00 00 00 00 00 00 00 00 00 00 00 00 00
       0.0 0.0 0.0 0.0
000090 00 00 00 00 00 00 00 00 00 00 00 00 00 00 00 00
       0.0 0.0 0.0 0.0
0000a0 00 00 00 00 00 00 00 00 00 00 00 00 00 00 00 00
       0.0 0.0 0.0 0.0
0000b0 00 00 00 00 00 00 00 00 00 00 00 00 00 00 00 00
       0.0 0.0 0.0 0.0
0000c0 00 00 00 00 00 00 00 00 00 00 00 00 00 00 00 00
       0.0 0.0 0.0 0.0
0000d0 00 00 00 00 00 00 00 00 00 00 00 00 00 00 00 00
       0.0 0.0 0.0 0.0
0000e0 00 00 00 00 00 00 00 00 00 00 00 00 00 00 00 00
       0.0 0.0 0.0 0.0
0000f0 00 00 00 00 00 00 00 00 00 00 00 00 00 00 00 00
       0.0 0.0 0.0 0.0
000100 00 00 00 00 00 00 00 00 00 00 00 00 00 00 00 00
       0.0 0.0 0.0 0.0
000110 00 00 00 00 00 00 00 00 00 00 00 00 00 00 00 00
       0.0 0.0 0.0 0.0
000120 00 00 00 00 00 00 00 00 00 00 00 00 00 00 00 00
       0.0 0.0 0.0 0.0
000130 00 00 00 00 00 00 00 00 00 00 00 00 00 00 00 00
       0.0 0.0 0.0 0.0
000140 00 00 00 00 00 00 00 00 00 00 00 00 00 00 00 00
       0.0 0.0 0.0 0.0
000150 00 00 00 00 00 00 00 00 00 00 00 00 00 00 00 00
       0.0 0.0 0.0 0.0
000160 00 00 00 00 00 00 00 00 00 00 00 00 00 00 00 00
       0.0 0.0 0.0 0.0
000170 00 00 00 00 00 00 00 00 00 00 00 00 00 00 00 00
       0.0 0.0 0.0 0.0
000180 00 00 00 00 00 00 00 00 00 00 00 00 00 00 00 00
       0.0 0.0 0.0 0.0
000190 00 00 00 00 00 00 00 00 00 00 00 00 00 00 00 00
       0.0 0.0 0.0 0.0
0001a0 00 00 00 00 00 00 00 00 00 00 00 00 00 00 00 00
       0.0 0.0 0.0 0.0
0001b0 00 00 00 00 00 00 00 00 00 00 00 00 00 00 00 00
       0.0 0.0 0.0 0.0
0001c0 00 00 00 00 00 00 00 00 00 00 00 00 00 00 00 00
       0.0 0.0 0.0 0.0
0001d0 00 00 00 00 00 00 00 00 00 00 00 00 00 00 00 00
       0.0 0.0 0.0 0.0

sequential.2.bn.running_var f4 [120]
000000 00 00 80 3f 00 00 80 3f 00 00 80 3f 00 00 80 3f
       1.0 1.0 1.0 1.0
000010 00 00 80 3f 00 00 80 3f 00 00 80 3f 00 00 80 3f
       1.0 1.0 1.0 1.0
000020 00 00 80 3f 00 00 80 3f 00 00 80 3f 00 00 80 3f
       1.0 1.0 1.0 1.0
000030 00 00 80 3f 00 00 80 3f 00 00 80 3f 00 00 80 3f
       1.0 1.0 1.0 1.0
000040 00 00 80 3f 00 00 80 3f 00 00 80 3f 00 00 80 3f
       1.0 1.0 1.0 1.0
000050 00 00 80 3f 00 00 80 3f 00 00 80 3f 00 00 80 3f
       1.0 1.0 1.0 1.0
000060 00 00 80 3f 00 00 80 3f 00 00 80 3f 00 00 80 3f
       1.0 1.0 1.0 1.0
000070 00 00 80 3f 00 00 80 3f 00 00 80 3f 00 00 80 3f
       1.0 1.0 1.0 1.0
000080 00 00 80 3f 00 00 80 3f 00 00 80 3f 00 00 80 3f
       1.0 1.0 1.0 1.0
000090 00 00 80 3f 00 00 80 3f 00 00 80 3f 00 00 80 3f
       1.0 1.0 1.0 1.0
0000a0 00 00 80 3f 00 00 80 3f 00 00 80 3f 00 00 80 3f
       1.0 1.0 1.0 1.0
0000b0 00 00 80 3f 00 00 80 3f 00 00 80 3f 00 00 80 3f
       1.0 1.0 1.0 1.0
0000c0 00 00 80 3f 00 00 80 3f 00 00 80 3f 00 00 80 3f
       1.0 1.0 1.0 1.0
0000d0 00 00 80 3f 00 00 80 3f 00 00 80 3f 00 00 80 3f
       1.0 1.0 1.0 1.0
0000e0 00 00 80 3f 00 00 80 3f 00 00 80 3f 00 00 80 3f
       1.0 1.0 1.0 1.0
0000f0 00 00 80 3f 00 00 80 3f 00 00 80 3f 00 00 80 3f
       1.0 1.0 1.0 1.0
000100 00 00 80 3f 00 00 80 3f 00 00 80 3f 00 00 80 3f
       1.0 1.0 1.0 1.0
000110 00 00 80 3f 00 00 80 3f 00 00 80 3f 00 00 80 3f
       1.0 1.0 1.0 1.0
000120 00 00 80 3f 00 00 80 3f 00 00 80 3f 00 00 80 3f
       1.0 1.0 1.0 1.0
000130 00 00 80 3f 00 00 80 3f 00 00 80 3f 00 00 80 3f
       1.0 1.0 1.0 1.0
000140 00 00 80 3f 00 00 80 3f 00 00 80 3f 00 00 80 3f
       1.0 1.0 1.0 1.0
000150 00 00 80 3f 00 00 80 3f 00 00 80 3f 00 00 80 3f
       1.0 1.0 1.0 1.0
000160 00 00 80 3f 00 00 80 3f 00 00 80 3f 00 00 80 3f
       1.0 1.0 1.0 1.0
000170 00 00 80 3f 00 00 80 3f 00 00 80 3f 00 00 80 3f
       1.0 1.0 1.0 1.0
000180 00 00 80 3f 00 00 80 3f 00 00 80 3f 00 00 80 3f
       1.0 1.0 1.0 1.0
000190 00 00 80 3f 00 00 80 3f 00 00 80 3f 00 00 80 3f
       1.0 1.0 1.0 1.0
0001a0 00 00 80 3f 00 00 80 3f 00 00 80 3f 00 00 80 3f
       1.0 1.0 1.0 1.0
0001b0 00 00 80 3f 00 00 80 3f 00 00 80 3f 00 00 80 3f
       1.0 1.0 1.0 1.0
0001c0 00 00 80 3f 00 00 80 3f 00 00 80 3f 00 00 80 3f
       1.0 1.0 1.0 1.0
0001d0 00 00 80 3f 00 00 80 3f 00 00 80 3f 00 00 80 3f
       1.0 1.0 1.0 1.0
