Models/Z_10GeV_200.pth (torch, 197904 bytes, 36 tensors)

sequential.0.Gamma.weight f4 [80, 5]
00000000: b72f ab3c 81b1 383f 424b f43e 2dd3 263f
00000010: f0d0 a3bf ebf4 62be 4763 cebe ca92 debe
00000020: c16c 923f baa7 30bf b1da 07be cba8 a83f
00000030: 95f3 8c3e 2e84 0b3f ed67 6e3f 11e7 f9bd
00000040: a46f 66be abf1 b3be 0497 19bf 966f 4d3f
00000050: d6f1 ca3e 9722 943f a4fc aa3e 029a 5c3e
00000060: 292a 26bf 915a 263f 6195 f13e fdbf 703f
00000070: 5aa8 16bf e6d6 9ebf ccbe 5cbf 847a 643f
00000080: ffc4 49bf bee2 2bbf 1a02 a93f 9406 bc3f
00000090: b50d 07bf 8e20 1abf dc05 fc3e 7cba 7f3f
000000a0: f12d 35be a7a2 17bf 682c 423f a640 72be
000000b0: bf9d 113f 0544 8b3f cb08 f0be 0716 2ebf
000000c0: 3a9e 36bf 5549 633f c8f9 863f fa0b 4fbf
000000d0: 4090 ec3f c203 893e c30e 16c0 4e3f 9eb9
000000e0: c29f af3f f8d8 c3bf f0a0 963c 98a8 343e
000000f0: f3a2 b5be 8f6d 18bd 2c18 f93f a6b8 933f
00000100: 29a8 07c0 7821 a3be 831b 923f 14cd 1f3e
00000110: ddf3 133f f8cf 94be 71b7 6e3d 57ab cf3f
00000120: 8919 54bf 427a a8be 8aba 9d3e c07f 903f
00000130: bfb2 27bf c8f6 113f eff5 e93e 2742 b4bf
00000140: 9764 8ebd f781 02bf f56d ac3e 1998 cb3e
00000150: e65a d63e eae6 813f ae69 22bf e95d 913e
00000160: cdeb 14be 2487 b0be ba09 f2be a296 87be
00000170: 2cab 53bf 771a 3cbf a429 d13f 60a2 283e
00000180: 63d8 3bbe 6909 e63f 4440 723d b7ad 823e
00000190: 78ba 153d 6fd1 67bc 6199 683f c905 4c3e
000001a0: afcb dd3e cfed 34bf d489 553f da9b 97bd
000001b0: 2300 473f bf13 0f3f 476e 993e da03 f2be
000001c0: ce7b 0ebf ed84 93be 0f7d 543f 9307 473f
000001d0: 1e92 bc3f c65a f63e 5ba9 803f 124d cc3d
000001e0: 5ee6 d73f 2421 ccbf f227 3d3e 78c5 193f
000001f0: 4db1 edbe 055d b4bd 8c40 f0be 9edb 1f3f
00000200: f86c 493e 95bc bcbe 5155 d1bd ec13 243f
00000210: 1781 9c3e eb07 903e 8c78 993e 45de 303f
00000220: 9f39 36bf bcc7 4f3c 0c87 00bf 6975 043f
00000230: 71ed 7c3f 20da 6cbd c6c0 9abe fe7e 0e3f
00000240: 5de9 a6bf 32e1 f8bd e019 efbf 3cd3 133f
00000250: 4628 793f 1109 b3be e34d f93e 59b2 053d
00000260: b4dd 203f 3dc0 61be c1a0 9ebe 8025 8c3e
00000270: 6d33 7ebf 9693 29be 038e 813f ca5e 1f3e
00000280: 0d7e a13d 0644 c7be a4d5 a33e 5682 9c3d
00000290: 19de 323e 31aa b93e 3948 a63d 9b4b f13d
000002a0: 00e4 5bbf feae ba3e 0fab 473e b5d1 88be
000002b0: 04a3 b93e ef98 103f e1cd 433e 15fb 1bbf
000002c0: 0429 093f 8e7b ae3e f0a2 6dbe ef09 7f3f
000002d0: 4ce1 3b3f 5fcd 56bf 5e59 073f 4a89 a23f
000002e0: 5ebc 933e 79d4 24bf 8f8d bebe 2acb 16be
000002f0: 6ef7 593f f692 a43e 39c0 263e 03db 063b
00000300: bd68 663e 226d 1b3c df5c 8cbd 3392 213d
00000310: f123 6cbf acf7 553f 3bcf 423f 7fe8 21bf
00000320: 49f1 463f 58ac c03e aa81 ed3e 3685 533f
00000330: 5912 acbe 4204 143f 3377 3dbe 05ba 70be
00000340: f5b8 a9bf 720e e33e 34dd a63d efbd 60be
00000350: dad3 a5bf acd4 c13f 7948 833f abbc 393e
00000360: 4d6d 743e b903 d5be 6325 d0bf 0387 ae3f
00000370: c8f0 77bd 0fdf a63c 67af b53d 45bb 8fbf
00000380: 8619 8e3f 2aab 2b3f df7a 5bbe 94fe 2c3e
00000390: f1f9 edbe 6d30 c1bf c2b9 f4bd 14fa f83e
000003a0: 9875 02be 24cd a23f 28a3 ebbf 1833 873f
000003b0: a622 57bf ee55 76ba 5f89 04bd 9ef0 c33e
000003c0: b474 af3e 8bdc 0ebf a256 d8bf fe82 92bd
000003d0: 0d84 5a3f c83a b33e c0c3 acbe 5986 d53e
000003e0: 5c68 873f 208e b0bf a3fd e2be 0962 d1be
000003f0: bc31 9c3e 766f 813f 5a53 c2be 05a8 653e
0.020896776 0.7214585 0.47713667 0.6516598 -1.2798138 -0.22163741 -0.40310118 -0.43471366
1.1439439 -0.6900593 -0.13267018 1.3176512 0.27529588 0.54498565 0.9312733 -0.122022755
-0.22503525 -0.35145316 -0.59996057 0.8024839 0.3963763 1.1573056 0.33395875 0.21543124
-0.6490808 0.64981943 0.4718428 0.9404295 -0.58850634 -1.2409332 -0.8622863 0.89249444
-0.7881622 -0.67142856 1.3203766 1.4689507 -0.5275529 -0.60205925 0.4922322 0.9989393
-0.17693307 -0.5923256 0.7584901 -0.23657474 0.56881326 1.0880133 -0.46881709 -0.6800236
-0.71335185 0.8878377 1.0544977 -0.8087765 1.8481522 0.2676068 -2.344651 -0.00030183274
1.3720629 -1.5300589 0.018387288 0.17642438 -0.35475883 -0.03721386 1.9460502 1.1540725
-2.1196387 -0.31861472 1.1414646 0.15605575 0.5779398 -0.29064918 0.058280412 1.6224164
-0.82851464 -0.32905775 0.3080638 1.1288986 -0.6550712 0.57017183 0.45695445 -1.4082688
-0.0695278 -0.5097956 0.3367764 0.3976448 0.41866225 1.0148594 -0.63442504 0.2839196
-0.14543076 -0.34478104 -0.47273046 -0.2648211 -0.8268306 -0.7347788 1.6340833 0.16468191
-0.18344264 1.7971622 0.05914332 0.2552316 0.036554784 -0.014149054 0.9085904 0.19924082
0.4331946 -0.7067537 0.83413434 -0.07402773 0.77734584 0.55889505 0.29966947 -0.47268564
-0.5565766 -0.28812352 0.83003324 0.7774593 1.4732091 0.4811613 1.0051683 0.099756375
1.6867177 -1.5947614 0.18472269 0.6006694 -0.46424332 -0.088068046 -0.46924245 0.62444484
0.19670475 -0.36862627 -0.10221351 0.640929 0.30567238 0.2813104 0.29974782 0.69089156
-0.7118167 0.012681898 -0.50206065 0.51741654 0.98799807 -0.057825208 -0.302252 0.55662525
-1.3039967 -0.121523276 -1.8679771 0.57744193 0.9732708 -0.34967855 0.48692235 0.03264079
0.6283829 -0.2204599 -0.3098202 0.2737236 -0.9929722 -0.16560206 1.0121464 0.15563503
0.078853704 -0.38919085 0.31998932 0.07642047 0.17467536 0.36262658 0.08119244 0.11781999
-0.85894775 0.36461633 0.19498847 -0.26722494 0.36257184 0.5648336 0.19121505 -0.60929996
0.5357821 0.3407864 -0.23206687 0.9962453 0.7339065 -0.8390712 0.5287074 1.2698147
0.2885465 -0.6438671 -0.37217376 -0.14725938 0.8514317 0.32143372 0.16284265 0.0020577319
0.22500892 0.0094864685 -0.06853651 0.039446067 -0.9224234 0.8358104 0.7609746 -0.63245386
0.7771192 0.37631488 0.46387988 0.8262514 -0.33607748 0.57818997 -0.18502502 -0.23508461
-1.325957 0.44346958 0.0814766 -0.21947454 -1.2955277 1.5143027 1.0256492 0.18138377
0.2386982 -0.41604403 -1.626141 1.3634952 -0.06053236 0.020370035 0.08871346 -1.1229025
1.1101539 0.6705805 -0.2143359 0.16893989 -0.46479753 -1.5092903 -0.11949493 0.48628294
-0.12740171 1.2718854 -1.8409166 1.0562468 -0.84037244 -0.000939696 -0.03235757 0.38269514
0.34268725 -0.5580527 -1.6901438 -0.07153891 0.85357744 0.35005784 -0.33743095 0.41704062
1.0578723 -1.3793373 -0.44334134 -0.40895107 0.30506694 1.011214 -0.37954217 0.22427376

sequential.0.Gamma.bias f4 [80]
00000000: 4bc4 2bbe 7935 fdbe 4e26 f83e 832c 96be
00000010: 2f3f 71be a427 adbe e42a 17bf d626 893e
00000020: 242a ddbe 80c0 e93d 9b4f 6e3d 9ee3 50be
00000030: 50d9 693e 650d 653e 8e0b 743b 0e24 22be
00000040: 4584 1cbf e25d c8be 14be 35be bc28 83be
00000050: 89ad 103e 19e0 443e b07a d2bd 9e8b 123e
00000060: bed7 cebd 8e61 90be ef06 49bf ea7d 733d
00000070: 93c0 b1be a8a4 c13e 7df4 c8be 497d 813e
00000080: d003 08bf 5919 8cbe d0af 9dbc 7e58 3cbf
00000090: 9b49 2abf f476 08be 5264 d5be be4c d5bd
000000a0: 8195 28be 6c8c 213d ab80 3d3e add1 83bb
000000b0: 285e e6bb d291 e1be 4787 15be 9b9f febe
000000c0: d8cb 66be 6338 da3d 5ac1 0ebe a3d1 f0bd
000000d0: f5d1 69bd abe6 78bf 0602 00bf 95ac 75bd
000000e0: 73fe 603d 0f43 15bf 9c50 633d cb48 f7bd
000000f0: 7894 14bf 30c8 35bf 8f7e a3be a63a 873d
00000100: 2ade f13d 2ec3 913e 7171 b3be d292 ddbe
00000110: ac76 9e3e 777e 12be 8803 423e 510d 8ebd
00000120: 805a c0be cc72 cd3e 4750 20bf 2f09 b63c
00000130: 3906 14bf abde 07bd dafc a93b fac0 a4bd
-0.16774099 -0.4945486 0.48466724 -0.29330835 -0.23559259 -0.33819306 -0.5904982 0.26787442
-0.43196213 0.114136696 0.058181386 -0.20399329 0.22836804 0.22368391 0.0037238332 -0.15834066
-0.6113933 -0.39134127 -0.1774829 -0.25617015 0.14128698 0.19226111 -0.10277307 0.14311072
-0.10099743 -0.28199428 -0.78526205 0.059446253 -0.34717235 0.37820935 -0.3924903 0.25290897
-0.5313082 -0.2736309 -0.019248873 -0.7357253 -0.66518563 -0.13326627 -0.416781 -0.10415028
-0.16463281 0.039440557 0.18506114 -0.004022798 -0.0070302673 -0.44056565 -0.14602385 -0.49731144
-0.22538698 0.10655286 -0.13940945 -0.11758735 -0.057084996 -0.9722697 -0.5000309 -0.05997904
0.05493016 -0.5830545 0.055496797 -0.12074431 -0.58039045 -0.71008587 -0.31932494 0.06602983
0.118099526 0.28469223 -0.35047486 -0.43276078 0.30949914 -0.14306055 0.1894666 -0.06936134
-0.37569046 0.40126646 -0.62622494 0.022221176 -0.57821995 -0.033171337 0.005187613 -0.0804462

sequential.0.Lambda.weight f4 [80, 5]
00000000: 90b0 1a3e d3c2 fcb9 133b 583e 8fe4 e9be
00000010: eb87 ce3c 39ee ae3e 8e3a 77be 95c7 19bf
00000020: 5a55 703f be5c 07be 0ac4 ec3e c9c2 b8be
00000030: c52a 30be 8b64 53be 1ec7 233e 822f b73e
00000040: 6e03 d33c 65c7 61be 8283 e13e 1302 0bbd
00000050: 2e18 753d ade0 df3e ed51 e4be 611c 723e
00000060: 03c4 07bf 7b2c 8b3e c385 e8be 0a40 3bbe
00000070: bebb 873e bd1d c43d b73e 943e 576e 173d
00000080: 05f2 16bf 48ad 14bf 58d1 123d 38a7 44be
00000090: e08e a03e 4069 453f 226c 10bf 8e60 e2be
000000a0: 8993 073e 3f6f 113f 3e10 73bd 5add e7bb
000000b0: 8495 b7be 32b4 90be c298 593e 6e42 843e
000000c0: 1424 b33e 17c8 13bf 741d 413e 722e febd
000000d0: 1f06 9fbe 02e4 e5bd 8b73 d53e 49bd 0dbe
000000e0: bd26 8f3f 4b29 94be 2633 463c ff6a 4fbf
000000f0: 90b2 213e f993 09bf b709 a83e 58ea 143f
00000100: 10bf 01bf c45f bc3e a6f6 fbbe bda6 02bf
00000110: e614 f3be 6bd1 7e3f 1583 62bf 1dde c83d
00000120: adf0 aabe d2d6 39bf 0704 8e3f 4165 f9be
00000130: c826 093f 9e38 7fbf 6b5f d53d d8b2 e53e
00000140: 52b6 323d 7076 07bf 2358 7bbf f4e7 913e
00000150: 2228 943e 96d6 b6be 9326 c83e e77d 723e
00000160: daa4 d0be e72d b73e 6ea3 c93e f4b6 09bf
00000170: b1b3 b63e dbc4 0d3e db5d d63e af3e 343f
00000180: 1632 973e 66e1 23bf 9aef cfbe 84a2 a5be
00000190: 9c99 8b3e e511 c5bd e8df 4b3d 266f a3be
000001a0: c9f7 33be 16c2 eabd b5fd 07be 123c 78be
000001b0: decf bebe ea59 1dbf 7ea5 883f 02d4 41be
000001c0: b149 41bf 86c4 7dbd 10a4 993e 33d7 1b3f
000001d0: 8104 15be 46c9 ccbe 0e69 0ebf ac03 123f
000001e0: 66a8 f13e de4b dbbd 4485 a2bd 6fb0 ccbe
000001f0: f35e 783d fdb8 45bf 84ee d43f 8c45 473f
00000200: 25ee 2dbf 3e70 39bf e3b8 bbbd 38d0 88bf
00000210: d79f d6be 7bc0 123f d496 873f dfe8 cfbd
00000220: 2061 54bf a340 09bf 0461 813f ee59 033f
00000230: 889e bbbd ecd0 953d f41f 8d3e 1629 01be
00000240: f198 b3bd d2e9 fb3e ed99 973e dd28 21bf
00000250: 6a3c 0c3e 63fa a03d bc0b 593e 148b 63bf
00000260: cb82 1d3e 996d 6fbe f06d 27bf fbd3 b73e
00000270: c1aa 673f 06cc 74bf 1d17 62bf d793 d23e
00000280: afca e23e aafa ea3d 79da 10bf b853 693e
00000290: 4b42 d73d 46a3 4e3f 0aca f13c d52b 083f
000002a0: 2c7e 8dbf fad1 05bf 0ccc c2be a16e 803e
000002b0: fd08 6c3f 246e 9bbf 4c08 113e 8759 d83d
000002c0: 9aa8 18bf 3f27 b4bd 709b c1be baeb 26bf
000002d0: 42d8 cbbb 5cac a5be 295c 5abe 06ca 663e
000002e0: aa89 8dbf 79b1 87bd 5535 1c3f 0ae6 8abd
000002f0: 8191 c5bd 9655 a9be c652 583f eb22 6f3e
00000300: 195a 11bf d9f5 f73d 839d 20bf a9b8 d6bf
00000310: 7abb 65be 4a26 bc3f 3a23 cb3e b450 0b3e
00000320: ec0c 18be 9ecd 87be 1fb1 97be e0f3 a4bc
00000330: 5ee8 47be f0ad 4c3d d131 cdbd 73b2 6a3e
00000340: f53b 00bf c31e 053f 0dc9 ea3d 3135 8cbe
00000350: 5c7d 7a3f 85e6 a2bf d978 ab3e 8592 803f
00000360: a60e 0cbf f791 93be 9b78 c5be 4cfa 783e
00000370: 4417 443d 43f8 70bd 6b8d aabe d291 debe
00000380: ffaf 563f 2720 96bd c002 2dbe 66bc 71be
00000390: 4d5f 5a3e 761c 053f 32da 283e a862 803c
000003a0: b706 ab3e fe60 183f cd9c 1bbf 2d3c 8bbe
000003b0: 06be 113e 07e4 1abf e405 17bf 528f 1a3f
000003c0: d408 b13c 44a1 ae3e 395a b8be 9dd8 ca3e
000003d0: 821a 1f3f c4f4 34bd f27b 1bbf cfcf 093f
000003e0: a851 6ebe d501 573e 1aa7 253f 969f 30bf
000003f0: d7fa d2be 8684 0dbf f4c2 4b3f 4b00 183f
0.15106416 -0.0004821034 0.21116285 -0.4568219 0.025211295 0.34166124 -0.2414343 -0.60070163
0.93880236 -0.13218972 0.46243316 -0.3608611 -0.17203815 -0.20643823 0.15993926 0.35778433
0.025758471 -0.22048719 0.44045645 -0.033937525 0.059837513 0.43726102 -0.44593754 0.23643638
-0.53033465 0.27182373 -0.45414552 -0.18286148 0.26510423 0.095759846 0.28954098 0.036970463
-0.5896304 -0.58076906 0.035844177 -0.19204414 0.31359005 0.77113724 -0.56415 -0.4421429
0.13239874 0.56810373 -0.05934166 -0.0070759477 -0.3585626 -0.28262478 0.21249679 0.25831932
0.34988463 -0.5772719 0.18858892 -0.124112025 -0.31059358 -0.1122513 0.41689715 -0.13841738
1.1183697 -0.28937754 0.012097156 -0.8102264 0.15790772 -0.53741413 0.32819912 0.5817008
-0.50682163 0.36791813 -0.49211615 -0.5103567 -0.47476882 0.99538296 -0.88481265 0.0980799
-0.33386746 -0.72593415 1.1094979 -0.48710063 0.535748 -0.99695766 0.1041859 0.4486301
0.043630905 -0.52915096 -0.9818136 0.2849728 0.2893687 -0.3571059 0.3909193 0.2368084
-0.40750772 0.35777208 0.393825 -0.5379479 0.3568397 0.13844626 0.4186848 0.7040815
0.295304 -0.64015806 -0.4061249 -0.32350552 0.27265632 -0.09622554 0.04977408 -0.31920737
-0.17574991 -0.114628 -0.13280375 -0.24241665 -0.37267965 -0.6146532 1.0675504 -0.18928531
-0.7550307 -0.061954997 0.30007982 0.6087524 -0.145525 -0.3999731 -0.5562905 0.5703685
0.4719879 -0.1070783 -0.07935575 -0.39978358 0.060637426 -0.77235395 1.6635289 0.77840495
-0.67941505 -0.72436893 -0.09166124 -1.0688543 -0.41918823 0.5732495 1.0592904 -0.101518385
-0.829607 -0.5361425 1.0107732 0.51309097 -0.09161097 0.07315239 0.2756344 -0.1261333
-0.08769406 0.49201828 0.29609624 -0.6295298 0.13694921 0.078602575 0.21195883 -0.8888409
0.15381925 -0.23381652 -0.65402126 0.35903916 0.90494925 -0.95623815 -0.8831652 0.41128418
0.4429526 0.114735916 -0.5658336 0.22785842 0.10510691 0.80717885 0.029515285 0.5319188
-1.105413 -0.52273524 -0.380463 0.25084403 0.92201215 -1.2142987 0.14163321 0.10563951
-0.59632266 -0.08796548 -0.37813902 -0.6520344 -0.0062208483 -0.32358062 -0.21324219 0.22538003
-1.1057637 -0.06625647 0.6101888 -0.06782158 -0.09646893 -0.3307311 0.845013 0.23353164
-0.56778103 0.121074386 -0.62740344 -1.6775104 -0.22434798 1.4699185 0.39675313 0.13605005
-0.1484868 -0.2652406 -0.2962732 -0.02013582 -0.19522235 0.049970567 -0.10019267 0.22919635
-0.5009149 0.52000064 0.11464129 -0.27384332 0.97847533 -1.2726599 0.33490637 1.0044714
-0.5470985 -0.288223 -0.38568577 0.2431423 0.04787375 -0.05883051 -0.33311018 -0.43470627
0.838623 -0.07330351 -0.1689558 -0.23607025 0.21325417 0.5199655 0.16489485 0.015672043
0.3340356 0.59523 -0.60786134 -0.27194348 0.14232644 -0.6050419 -0.58993363 0.6037494
0.021610655 0.3410741 -0.36006334 0.39618388 0.6214982 -0.04417874 -0.60736 0.53832716
-0.23273337 0.20996793 0.647081 -0.6899351 -0.41207 -0.5528034 0.7959435 0.5937545

sequential.0.Lambda.bias f4 [80]
00000000: 4bc4 2bbe 7935 fdbe 4e26 f83e 832c 96be
00000010: 2f3f 71be a427 adbe e42a 17bf d626 893e
00000020: 242a ddbe 80c0 e93d 9b4f 6e3d 9ee3 50be
00000030: 50d9 693e 650d 653e 8e0b 743b 0e24 22be
00000040: 4584 1cbf e25d c8be 14be 35be bc28 83be
00000050: 89ad 103e 19e0 443e b07a d2bd 9e8b 123e
00000060: bed7 cebd 8e61 90be ef06 49bf ea7d 733d
00000070: 93c0 b1be a8a4 c13e 7df4 c8be 497d 813e
00000080: d003 08bf 5919 8cbe d0af 9dbc 7e58 3cbf
00000090: 9b49 2abf f476 08be 5264 d5be be4c d5bd
000000a0: 8195 28be 6c8c 213d ab80 3d3e add1 83bb
000000b0: 285e e6bb d291 e1be 4787 15be 9b9f febe
000000c0: d8cb 66be 6338 da3d 5ac1 0ebe a3d1 f0bd
000000d0: f5d1 69bd abe6 78bf 0602 00bf 95ac 75bd
000000e0: 73fe 603d 0f43 15bf 9c50 633d cb48 f7bd
000000f0: 7894 14bf 30c8 35bf 8f7e a3be a63a 873d
00000100: 2ade f13d 2ec3 913e 7171 b3be d292 ddbe
00000110: ac76 9e3e 777e 12be 8803 423e 510d 8ebd
00000120: 805a c0be cc72 cd3e 4750 20bf 2f09 b63c
00000130: 3906 14bf abde 07bd dafc a93b fac0 a4bd
-0.16774099 -0.4945486 0.48466724 -0.29330835 -0.23559259 -0.33819306 -0.5904982 0.26787442
-0.43196213 0.114136696 0.058181386 -0.20399329 0.22836804 0.22368391 0.0037238332 -0.15834066
-0.6113933 -0.39134127 -0.1774829 -0.25617015 0.14128698 0.19226111 -0.10277307 0.14311072
-0.10099743 -0.28199428 -0.78526205 0.059446253 -0.34717235 0.37820935 -0.3924903 0.25290897
-0.5313082 -0.2736309 -0.019248873 -0.7357253 -0.66518563 -0.13326627 -0.416781 -0.10415028
-0.16463281 0.039440557 0.18506114 -0.004022798 -0.0070302673 -0.44056565 -0.14602385 -0.49731144
-0.22538698 0.10655286 -0.13940945 -0.11758735 -0.057084996 -0.9722697 -0.5000309 -0.05997904
0.05493016 -0.5830545 0.055496797 -0.12074431 -0.58039045 -0.71008587 -0.31932494 0.06602983
0.118099526 0.28469223 -0.35047486 -0.43276078 0.30949914 -0.14306055 0.1894666 -0.06936134
-0.37569046 0.40126646 -0.62622494 0.022221176 -0.57821995 -0.033171337 0.005187613 -0.0804462

sequential.0.bn.running_mean f4 [80]
00000000: 0000 0000 0000 0000 0000 0000 0000 0000
00000010: 0000 0000 0000 0000 0000 0000 0000 0000
00000020: 0000 0000 0000 0000 0000 0000 0000 0000
00000030: 0000 0000 0000 0000 0000 0000 0000 0000
00000040: 0000 0000 0000 0000 0000 0000 0000 0000
00000050: 0000 0000 0000 0000 0000 0000 0000 0000
00000060: 0000 0000 0000 0000 0000 0000 0000 0000
00000070: 0000 0000 0000 0000 0000 0000 0000 0000
00000080: 0000 0000 0000 0000 0000 0000 0000 0000
00000090: 0000 0000 0000 0000 0000 0000 0000 0000
000000a0: 0000 0000 0000 0000 0000 0000 0000 0000
000000b0: 0000 0000 0000 0000 0000 0000 0000 0000
000000c0: 0000 0000 0000 0000 0000 0000 0000 0000
000000d0: 0000 0000 0000 0000 0000 0000 0000 0000
000000e0: 0000 0000 0000 0000 0000 0000 0000 0000
000000f0: 0000 0000 0000 0000 0000 0000 0000 0000
00000100: 0000 0000 0000 0000 0000 0000 0000 0000
00000110: 0000 0000 0000 0000 0000 0000 0000 0000
00000120: 0000 0000 0000 0000 0000 0000 0000 0000
00000130: 0000 0000 0000 0000 0000 0000 0000 0000
0.0 0.0 0.0 0.0 0.0 0.0 0.0 0.0
0.0 0.0 0.0 0.0 0.0 0.0 0.0 0.0
0.0 0.0 0.0 0.0 0.0 0.0 0.0 0.0
0.0 0.0 0.0 0.0 0.0 0.0 0.0 0.0
0.0 0.0 0.0 0.0 0.0 0.0 0.0 0.0
0.0 0.0 0.0 0.0 0.0 0.0 0.0 0.0
0.0 0.0 0.0 0.0 0.0 0.0 0.0 0.0
0.0 0.0 0.0 0.0 0.0 0.0 0.0 0.0
0.0 0.0 0.0 0.0 0.0 0.0 0.0 0.0
0.0 0.0 0.0 0.0 0.0 0.0 0.0 0.0

sequential.0.bn.running_var f4 [80]
00000000: 0000 803f 0000 803f 0000 803f 0000 803f
00000010: 0000 803f 0000 803f 0000 803f 0000 803f
00000020: 0000 803f 0000 803f 0000 803f 0000 803f
00000030: 0000 803f 0000 803f 0000 803f 0000 803f
00000040: 0000 803f 0000 803f 0000 803f 0000 803f
00000050: 0000 803f 0000 803f 0000 803f 0000 803f
00000060: 0000 803f 0000 803f 0000 803f 0000 803f
00000070: 0000 803f 0000 803f 0000 803f 0000 803f
00000080: 0000 803f 0000 803f 0000 803f 0000 803f
00000090: 0000 803f 0000 803f 0000 803f 0000 803f
000000a0: 0000 803f 0000 803f 0000 803f 0000 803f
000000b0: 0000 803f 0000 803f 0000 803f 0000 803f
000000c0: 0000 803f 0000 803f 0000 803f 0000 803f
000000d0: 0000 803f 0000 803f 0000 803f 0000 803f
000000e0: 0000 803f 0000 803f 0000 803f 0000 803f
000000f0: 0000 803f 0000 803f 0000 803f 0000 803f
00000100: 0000 803f 0000 803f 0000 803f 0000 803f
00000110: 0000 803f 0000 803f 0000 803f 0000 803f
00000120: 0000 803f 0000 803f 0000 803f 0000 803f
00000130: 0000 803f 0000 803f 0000 803f 0000 803f
1.0 1.0 1.0 1.0 1.0 1.0 1.0 1.0
1.0 1.0 1.0 1.0 1.0 1.0 1.0 1.0
1.0 1.0 1.0 1.0 1.0 1.0 1.0 1.0
1.0 1.0 1.0 1.0 1.0 1.0 1.0 1.0
1.0 1.0 1.0 1.0 1.0 1.0 1.0 1.0
1.0 1.0 1.0 1.0 1.0 1.0 1.0 1.0
1.0 1.0 1.0 1.0 1.0 1.0 1.0 1.0
1.0 1.0 1.0 1.0 1.0 1.0 1.0 1.0
1.0 1.0 1.0 1.0 1.0 1.0 1.0 1.0
1.0 1.0 1.0 1.0 1.0 1.0 1.0 1.0

sequential.2.Gamma.weight f4 [120, 80]
00000000: 106f 77bd 7ac1 923d 9b44 f4bc b2e3 223e
00000010: 93c2 c0bd dd9f 9f3e ba1e 6e3e 7e17 58bd
00000020: 186f 9bbd f7da f63d ce5c 3a3d 320d 86bf
00000030: 6d62 0c3f ae32 96be f1d4 c0be 5146 f3be
00000040: b565 c03e a5ae b53e 3e3c 553e ca88 82bd
00000050: 6d6f 443e 57f5 46be 5b30 cc3d 8457 d3bd
00000060: 0899 0abe 5b33 2e3d db24 823e feb7 763e
00000070: 95a9 0abf d513 aa3e e22b 643e e2f1 97bc
00000080: fb23 a53e ca07 603d 81f1 19be c75a 50bd
00000090: baf2 3bbe 82d9 753e 973d 59bf ac20 0ebe
000000a0: 9605 673e 4382 6ebe 6abb 53bf 1a8f 903d
000000b0: fc23 c83e cd2f 603e 4619 79be b615 573e
000000c0: e573 51bc 0cec a8be 5f3c 6fbd 7ef7 7dbe
000000d0: e402 45be 08e4 e03d 308f aebe 4c1e dcbe
000000e0: 5351 923e 2c39 fe3c dc76 053e 4887 03bf
000000f0: 1f7c 3dbc 631b 0a3f f2a8 3b3e cf14 613e
00000100: 3ded 9f3d 2a88 71bf ff4e dcbd ffe3 58be
00000110: 1b59 39be 4da1 1abf 4281 77be c79e 9fbe
00000120: 5ddc bdbe 0161 073c 6a2b 14bd 6000 a1bb
00000130: 98b1 ccbe fbb8 e63d d8b5 2ebe 9edd d3bd
00000140: 99da e6bd 40db 773e 0de6 0fbf fb9d 593b
00000150: fdec b6be 39e4 10bf c94d 88be 5597 00bf
00000160: e076 13be bf82 84bf 767c 9f3c 002d bf3e
00000170: 7892 76be 597d b0be f0ac 213d e665 12bf
00000180: c116 9abe 36ab 933e 335e e9bd 420d edbc
00000190: dcb2 dcbd 881d adbe 795d 08be 8c8f 9cbe
000001a0: d305 24be dfeb 873e 73eb 2b3e fe87 9bbd
000001b0: cc76 823e bd3e 2ebe f19c 993d 1d02 7ebe
000001c0: aadb bdbd 6af1 cbbe 1b21 ae3e d554 fbbd
000001d0: fc0e 1bbf d918 ca3e 7d00 923e 0e00 75bd
000001e0: 7e17 efbe 3239 85bd 26a3 c4be e31b f2be
000001f0: 23b1 3fbe 6ec2 01bf 6d81 873e e068 bfbf
00000200: e969 d2bd 36b2 593b 29ac 02be 69a2 003e
00000210: a808 0e3c ea7c 013f 1a38 393e 14bc 553e
00000220: 5a6a 0f3c 0141 21be eebb 86be abec 95be
00000230: bb9f 073d 7b69 bcbe afcb 50bf 3c98 3fbf
00000240: a77a f9be e6ad 6b3e dcf6 883e 7653 c93d
00000250: ef81 0fbe 0fce 793e 9384 c3bc 3512 8e3b
00000260: e131 d53e 94cc d9be 7518 b53d 18e1 17bf
00000270: 7159 b23d 1e2a cd3c 2a67 3e3b e1c6 7bbe
00000280: e19f 2c3e 9b92 17bd eef0 36be f8a7 b4bd
00000290: 11d8 1f3d b0b4 133e b5e1 8e3d 1092 ee3d
000002a0: 2bef afbd 145d e1be 1124 f53e 7f55 a8be
000002b0: b6b1 bc3e 5664 033f b383 a6be 4e17 bebd
000002c0: 13de 34bb 4c99 b9be 0fe2 20be 99db 673e
000002d0: 0d3f f43d c5b8 afbe 6f02 c6be 3dda 013e
000002e0: 0b0e 4c3d 360e 453e d6c2 18be 2de7 7ebe
000002f0: 3ecf ecbe f794 8d3e 1f72 9f3e 1e09 e2bd
00000300: 4227 b93d 4464 3a3e fad7 c8be 0f4c c7ba
00000310: 98e1 323e 7508 01be 76b8 cdbe 0a99 bebe
00000320: ace7 163e 5342 6ebe 8951 1cbf 12a2 903e
00000330: bb85 003e 3ed3 8d3e c186 ebbd 9581 cd3b
00000340: f4dd 5dbe dae7 ca3d 7dd2 8dbd 536c 80be
00000350: 37e9 2a3d fc32 d53d 4946 64bc 9ed9 8bbe
00000360: 040f ff3e 28f0 73bd 6efd e3bd 3509 d4be
00000370: 39ee f2be 92fe ca3e ac1a 073e 9527 203f
00000380: 87d7 a2be 9c9a 6cbf fb15 04bf bc8a 57be
00000390: d309 a7be 07d6 cabe 11c8 fbbe d9cb a1be
000003a0: 250b 9abd 9a83 bbbd ccff 5abe e0dd 013e
000003b0: f431 84be 59a5 5dbd 377c de3d 14a4 0cbe
000003c0: 860a a13e 86f6 673d b3c9 05bf 6425 eabc
000003d0: 2b9c 203e 163e 31be 1c71 e9be b17a 6c3e
000003e0: c868 3dbd 21c7 c7be f6dd 3d3f 538b 4f3f
000003f0: b731 363f 7aab 13bf c9f8 9dbd 6814 fa3d
-0.06040865 0.07165809 -0.02981787 0.15907171 -0.09412112 0.31176654 0.23253909 -0.05275678
-0.07589549 0.12053483 0.04549866 -1.0472777 0.54837686 -0.2933554 -0.3766246 -0.47514585
0.37577596 0.35484806 0.20823762 -0.06373747 0.1918313 -0.19429527 0.099701606 -0.10319427
-0.1353494 0.042529445 0.25418743 0.24093625 -0.5416501 0.33218256 0.22282365 -0.018547956
0.32254013 0.05469493 -0.15033533 -0.050867822 -0.18354312 0.24008754 -0.84859604 -0.13879651
0.22560725 -0.23291878 -0.82707846 0.070585445 0.39089954 0.21893235 -0.24326047 0.21004376
-0.012783979 -0.3299259 -0.058407184 -0.24801442 -0.19239384 0.109809935 -0.34093618 -0.42991865
0.2857767 0.031033121 0.13033623 -0.513783 -0.011565237 0.5394804 0.18326166 0.21980594
0.078089215 -0.94348395 -0.10757255 -0.21180724 -0.18100397 -0.60402375 -0.24170402 -0.31175825
-0.37082186 0.008262874 -0.036174215 -0.004913375 -0.39979243 0.11265751 -0.17061555 -0.103450045
-0.11272163 0.24204731 -0.56210405 0.0033205736 -0.35727683 -0.5659824 -0.26621845 -0.50230914
-0.14400816 -1.03524 0.019468527 0.3733902 -0.24079311 -0.34470633 0.039471567 -0.57186735
-0.30095485 0.2884156 -0.1139492 -0.028936986 -0.10776302 -0.33811593 -0.13316907 -0.30578268
-0.16017847 0.26547143 0.16789035 -0.07594298 0.2548126 -0.1701612 0.07500637 -0.24805494
-0.09270413 -0.39832622 0.34009632 -0.1227204 -0.6056974 0.39472082 0.28515998 -0.059814505
-0.4669761 -0.0650505 -0.38405722 -0.472869 -0.18719916 -0.506873 0.26465932 -1.495388
-0.10274107 0.0033217794 -0.12760986 0.12561955 0.008669056 0.5058123 0.18087807 0.20872527
0.0087533835 -0.15747453 -0.26315254 -0.29282126 0.033111315 -0.36799225 -0.81560796 -0.74841666
-0.4872639 0.23015556 0.2675084 0.09830372 -0.1401441 0.24395011 -0.023866927 0.0043356665
0.41639617 -0.42538893 0.088425554 -0.5932784 0.08708466 0.025044497 0.002905319 -0.24587585
0.16857864 -0.03700505 -0.17865345 -0.088211 0.039024416 0.14424396 0.06976644 0.11648953
-0.085905395 -0.44016325 0.4787908 -0.32877728 0.36854333 0.51324975 -0.32522354 -0.09281789
-0.0027598187 -0.3624977 -0.15711235 0.22642364 0.119260885 -0.34320655 -0.38673732 0.12680908
0.04981808 0.19243702 -0.14918074 -0.24892874 -0.46251863 0.27652714 0.31141755 -0.11036895
0.09040691 0.18202311 -0.39227277 -0.0015205162 0.1746887 -0.12600882 -0.40179795 -0.37226135
0.14736813 -0.23267488 -0.6106191 0.2824865 0.12551014 0.27700227 -0.11500312 0.006271551
-0.216667 0.099075034 -0.06924913 -0.25082645 0.041726317 0.10410115 -0.013932773 -0.27314466
0.49816144 -0.059555203 -0.11132322 -0.41413274 -0.47447374 0.39647347 0.13193768 0.625604
-0.3180506 -0.92423415 -0.5159604 -0.21049017 -0.32624683 -0.39616415 -0.49176076 -0.31600836
-0.07521657 -0.091559604 -0.21386641 0.12682295 -0.2581936 -0.054112766 0.10863536 -0.13734466
0.3145334 0.056631587 -0.52260894 -0.028582282 0.15684573 -0.1730884 -0.45594108 0.23093678
-0.046242505 -0.3901911 0.7416681 0.81071967 0.7116961 -0.5768353 -0.07713468 0.122109234

sequential.2.Gamma.bias f4 [120]
00000000: 9f76 9bbd 2d10 2abf 2b64 e2bb 1971 c0bd
00000010: 0f0d 02be 1343 293e 9165 4abe f13e 08bf
00000020: 1b58 c0bd bd0f 95be 015d c3be b0d6 ef3c
00000030: 0262 91be 41d5 e73d 2b2b 52be f065 763c
00000040: 1fb5 8f3d 9a3b 4bbe 97a4 27bf 36d1 0ebf
00000050: e09a 73bd 55b2 9bbe 4ac6 08be 2980 9a3e
00000060: c85a 04bf 5341 1bbf 17f1 173d 7163 11bf
00000070: ddd1 ccbe a558 83be 2511 0bbf 7856 683e
00000080: 5a7f 71bb 58fe 53bf be90 823e df14 103e
00000090: f273 47be 362d 73be 8437 5ebe fc77 1bbe
000000a0: f790 cabd da21 b3be 2363 a1bd 392a e3be
000000b0: 62da 09be 2765 5ebe ac5f 19be f241 1bbc
000000c0: 57c4 c0be d149 66bf 2df0 82bd e8ea 213d
000000d0: f8a2 9c3c 5c6c 79be edfb 35bf 6793 263e
000000e0: 16ae cbbe 08e6 85bd c1e7 c6bd 71d1 663e
000000f0: 6035 e5bd b96d 1ebe 2017 893e e0ee 82be
00000100: 9b4b 40be f00a 64bd ab59 0abf 66e4 debe
00000110: 8746 90bd 02bf b0be e40a 5a3d 3474 3cbd
00000120: c123 6b3e d7ee 2e3e 66c6 883e 13fe cabe
00000130: b0a6 3bbe 10b3 dd3d 9768 6cbd 4d8d 94be
00000140: 8858 88bc 91a1 09be e2e7 1b3e 1f7b b7bd
00000150: 4094 25bd ebcf f13d ce9c 93be 9dd9 21be
00000160: c96e 013e d013 853d 9e42 38be c312 97be
00000170: 5a92 a2be 8dbe e7bd 0b67 0dbd e32a adbc
00000180: 0f17 6cbe f25f efbd 1973 82be 64b5 6e3e
00000190: 904d 29be 33ee 9bbc 52e9 463d 25e1 ffbd
000001a0: 4909 44bd 62e7 1bbe 26f7 063e 5d04 29be
000001b0: 95af e53d f802 603e c46a c8bd fbde d03c
000001c0: ff1c 3cbe 7039 8cbe 782b 89bf 8219 e3be
000001d0: 995a ca3d 228c ac3c a44c b8be 40c1 20bd
-0.075909846 -0.6643093 -0.0069089136 -0.09396572 -0.12700294 0.16529493 -0.19765307 -0.5322104
-0.09391805 -0.2911357 -0.38156894 0.029277176 -0.28395087 0.11319972 -0.2052428 0.015038952
0.07016968 -0.19846955 -0.6548552 -0.5578798 -0.059473872 -0.30409494 -0.13356891 0.30175903
-0.5170102 -0.6064655 0.037095156 -0.5679236 -0.40003863 -0.25653568 -0.54323035 0.22689235
-0.003684959 -0.8280997 0.25501055 0.14070462 -0.19477823 -0.23747715 -0.21700865 -0.15182489
-0.09890931 -0.34986764 -0.07880237 -0.4436815 -0.13462213 -0.21718274 -0.14977902 -0.009476172
-0.37649795 -0.89956385 -0.06393466 0.039530665 0.019120678 -0.24357742 -0.71087533 0.16267167
-0.39781255 -0.065380156 -0.09712172 0.22540833 -0.11191821 -0.15471543 0.26775455 -0.25572872
-0.18778841 -0.055674493 -0.5404307 -0.4353363 -0.07044702 -0.34520727 0.053233042 -0.046009257
0.22962858 0.17083298 0.26713866 -0.39646968 -0.18325305 0.10825169 -0.057716932 -0.29014054
-0.016643777 -0.13440539 0.15225175 -0.0895903 -0.040424585 0.11807235 -0.2883057 -0.15805669
0.12639917 0.064979196 -0.17994162 -0.29506502 -0.31752282 -0.113156416 -0.034522098 -0.021138614
-0.23055671 -0.11688222 -0.25478438 0.23311383 -0.16533494 -0.01903448 0.048562355 -0.12494115
-0.047860418 -0.15224984 0.13180217 -0.1650557 0.1121513 0.21876132 -0.09785989 0.02549695
-0.18370436 -0.2738757 -1.0716391 -0.44355398 0.098805614 0.021062914 -0.35995972 -0.039246798

sequential.2.Lambda.weight f4 [120, 80]
00000000: a450 da3e 8604 41be 2644 8fbe 8d7e 80be
00000010: 9bb0 0b3f e3c6 2f3f c867 d3be 48cc 08bf
00000020: 37f4 633e 7a09 1d3e 59b8 3f3d dfc8 2fbf
00000030: 2eab 1c3f 3e7f c13e b271 d13e 7476 a5be
00000040: d36d e13d cfa5 e83e 4495 153e fd29 d4be
00000050: 5959 33bf 02cb 83bd 9ba3 333e e490 be3d
00000060: de9b a13c 48bc 2d3e d1a0 5a3f ea4c babe
00000070: 3f4a eebd 6079 37be 6a4f c03d e0e3 bc3e
00000080: 0e79 123e c558 723e 415e e43e 989c 4a3e
00000090: f2c5 b73e c5d1 933e a639 d5be d297 afbe
000000a0: 9102 9c3e e219 483e 5153 4dbf ee7e 53be
000000b0: 8d08 7c3e 7280 d4bc 17a9 5b3e 26f3 d73e
000000c0: 90ce 33be 4a90 13be 62e0 463f b99c d6bd
000000d0: 9963 c73c 2b44 9a3e 1189 99bb e865 36be
000000e0: fbe6 323f 1ebd b63e 23f2 223e 98a7 35bd
000000f0: 6aff c2bd 3f2d ba3c 890e 043f 3981 883e
00000100: b13d 02bf 8896 febc b3b3 5c3e a458 583e
00000110: 3889 95bd f1c3 d33d ac16 18be 8ba3 b33d
00000120: f3c1 0c3f e304 23be 84fe 8a3f f9ff 113e
00000130: 9cc9 61be bd20 13bd 11bc 053f 0c4d 1bbe
00000140: d3a6 0a3e 0951 863e eadf 893d 5028 f9bc
00000150: e3ae 0f3e 2d42 053d fe0b 163f 24eb 8f3e
00000160: 5127 6e3d 45cb a9be 0a8d ce3d 81ed b53d
00000170: 44f9 00bf 16a4 873e e3b6 06be 2834 be3e
00000180: 2e5b 3b3e ab63 073f 43e4 233e 440c 1a3f
00000190: f202 f53e 2415 86bd 3f55 2fbd 059a 493e
000001a0: 3a9e 1a3f b88a d23e edf2 b33e d840 bbbd
000001b0: 1af3 2fbd 65df 9d3d b1c4 7f3f d73e 2ebe
000001c0: 398d 323f 23d5 a6bd 53a4 883e 2a0a 2e3f
000001d0: d328 353d 0ed6 563e 2a1f b73e 2bc4 343d
000001e0: 9fa1 da3d 5b2e 17be 5261 a83e a118 9fbe
000001f0: 7721 2a3f 4192 4abe 2acd cc3c 17a5 6abf
00000200: 86d9 d3be 4c2f 8abe 49bd a23e 8d96 5b3e
00000210: 59a3 9fbb 9426 a63e 16e6 9b3e ba86 b43e
00000220: 76d2 55bc 98e3 a7be 7856 a93e a680 64bc
00000230: 2a4f f63e 423b bdbd 2bc0 fabe b7d7 5d3c
00000240: cd71 2b3f a34f 1bbc 0fb5 1c3d 6a22 903e
00000250: ec0e ba3e e7d8 d73d 63f1 163d 1607 7dbd
00000260: 8a98 943e 7cac 493e fc22 1d3e 041a af3d
00000270: 9487 9abd 6176 843c c07d 003f acb4 9dbe
00000280: 4db3 b73c 75b1 a23e ce15 ecbe 6e45 16be
00000290: 4d3d 833e 6a1c fe3e 0b26 bdbd 0568 24be
000002a0: e9e2 2b3e 4a6f 0abe 2e09 f73e 05be 05be
000002b0: d654 083f 236b 64be 34fa e03d 49e2 42be
000002c0: 346b 563e 3139 303e 186d 293d 2864 653e
000002d0: 49eb a53d b38b e73d 3e92 a13e e2a0 e7bd
000002e0: 3675 ff3e 3d6c e93d 4173 1f3f 6be6 acbe
000002f0: bf4c a13e 955e 08be 744d efbd 2707 b83e
00000300: 0ef6 d83e 20f9 c23e c2df 143c 89f0 b8bd
00000310: cbec 803e 3aa1 3f3e 7a54 273c 49e1 a4bd
00000320: c617 f23d d8a7 f6bd 40bb 19bf bec8 9c3d
00000330: b778 753e 5668 d73d 8804 cb3c b341 67be
00000340: cd50 afbd 68b8 a93c 3092 323e 0dbd 413e
00000350: cbe0 aebd 199d b9be 64c9 3e3f bde3 1b3f
00000360: cf04 2d3f a83c 7dbe 1f12 adbe 3a9f 983e
00000370: 37e8 833e e68d 21bd 1ce2 9f3b fd2b 093f
00000380: 6864 babe 8976 f8be d755 1c3f 1ad2 16be
00000390: 25f4 afbe 9100 413e 452e b9be 40b5 183f
000003a0: 7d34 d33e 4eb8 48bc 2f8d 833f b51a 17bd
000003b0: a014 8a3d 982c 3a3d 36da 083f 849c 89bd
000003c0: 3af8 9d3d c290 17be 4cc8 15bf 3c91 ab3d
000003d0: 945a 06bd cff7 823e 2f8f a9bd 95d4 8abe
000003e0: 7a78 843e c927 003f f967 bb3e 15a7 6b3f
000003f0: 2207 0d3f 55c3 10bf 524f 983e 19f4 ab3e
0.4263965 -0.18849382 -0.2798168 -0.2509655 0.54566354 0.6866285 -0.41290116 -0.5343671
0.2226113 0.15335646 0.046806667 -0.6866588 0.611987 0.3779239 0.40907055 -0.32316935
0.110072754 0.45439002 0.14607722 -0.41438285 -0.7005821 -0.06435205 0.1754288 0.093049794
0.019727644 0.16966355 0.85401636 -0.36386806 -0.11635255 -0.17917395 0.09390147 0.36892605
0.14303991 0.23666675 0.4460316 0.19786298 0.35893208 0.2887098 -0.41645545 -0.34295517
0.30470708 0.19541124 -0.80205256 -0.20653889 0.24612637 -0.025940154 0.21451221 0.42177695
-0.17559266 -0.1441051 0.7768613 -0.10479111 0.024339484 0.30130133 -0.004685529 -0.17812312
0.698837 0.3569116 0.1591268 -0.044349283 -0.095213726 0.022726653 0.5158468 0.2666109
-0.50875384 -0.031077638 0.21552925 0.21127564 -0.07301563 0.10340107 -0.14852399 0.08771428
0.54983443 -0.15919833 1.0858922 0.14257802 -0.22049564 -0.035919894 0.5224009 -0.1516611
0.13540201 0.262337 0.06732161 -0.03041473 0.14031558 0.032533813 0.5861205 0.28109086
0.058142964 -0.33162895 0.10085495 0.08883191 -0.5038035 0.26492375 -0.13155703 0.37149167
0.18296501 0.52886456 0.16005044 0.60174966 0.4785381 -0.06547001 -0.042805906 0.1968766
0.60397685 0.4112146 0.35146275 -0.09143227 -0.04295645 0.07708625 0.999095 -0.17016159
0.6974674 -0.08146121 0.2668787 0.6798426 0.044228386 0.20980093 0.35765964 0.044132393
0.10675358 -0.14763777 0.3288675 -0.31073478 0.66457313 -0.19782354 0.025000174 -0.9165816
-0.41376895 -0.2698921 0.31785038 0.2144415 -0.0048717675 0.32451308 0.3044898 0.35259038
-0.013050666 -0.32790828 0.33073783 -0.013946688 0.48107272 -0.09239818 -0.48974738 0.0135402
0.6697052 -0.009479436 0.03825861 0.28151256 0.3633951 0.10539418 0.036851298 -0.061774336
0.29022628 0.19694704 0.15345377 0.08549884 -0.07545391 0.016169729 0.5019188 -0.30801904
0.022424364 0.31776014 -0.46110386 -0.14674923 0.25632706 0.49631053 -0.09235772 -0.16055305
0.16785778 -0.13519016 0.4824919 -0.13060768 0.5325445 -0.22306494 0.109852225 -0.19031633
0.20939332 0.17209317 0.041363806 0.22401488 0.08101518 0.113059424 0.31556886 -0.11309983
0.49894112 0.11397598 0.6228524 -0.33769545 0.31503865 -0.1331733 -0.11684695 0.35942957
0.42375225 0.38080692 0.009086551 -0.090302534 0.2518066 0.18713847 0.010213012 -0.08050782
0.11820941 -0.120437324 -0.60051346 0.07655476 0.2397183 0.105179474 0.024782434 -0.22583656
-0.085603334 0.020717815 0.17438579 0.18919773 -0.085389696 -0.36252668 0.7452605 0.60894376
0.6758546 -0.2473017 -0.33802888 0.2980898 0.25763103 -0.039441966 0.0048792493 0.53582746
-0.3640473 -0.48527935 0.6106848 -0.14728585 -0.34365955 0.18847872 -0.36168113 0.59651566
0.41250983 -0.012250973 1.0277461 -0.036890704 0.06742215 0.045452684 0.53457963 -0.06719306
0.07713361 -0.14801314 -0.58508754 0.08377311 -0.032801226 0.25579688 -0.08279263 -0.27115312
0.25873166 0.5006071 0.36602762 0.9205182 0.5508901 -0.56548053 0.29748017 0.3358467

sequential.2.Lambda.bias f4 [120]
00000000: 9f76 9bbd 2d10 2abf 2b64 e2bb 1971 c0bd
00000010: 0f0d 02be 1343 293e 9165 4abe f13e 08bf
00000020: 1b58 c0bd bd0f 95be 015d c3be b0d6 ef3c
00000030: 0262 91be 41d5 e73d 2b2b 52be f065 763c
00000040: 1fb5 8f3d 9a3b 4bbe 97a4 27bf 36d1 0ebf
00000050: e09a 73bd 55b2 9bbe 4ac6 08be 2980 9a3e
00000060: c85a 04bf 5341 1bbf 17f1 173d 7163 11bf
00000070: ddd1 ccbe a558 83be 2511 0bbf 7856 683e
00000080: 5a7f 71bb 58fe 53bf be90 823e df14 103e
00000090: f273 47be 362d 73be 8437 5ebe fc77 1bbe
000000a0: f790 cabd da21 b3be 2363 a1bd 392a e3be
000000b0: 62da 09be 2765 5ebe ac5f 19be f241 1bbc
000000c0: 57c4 c0be d149 66bf 2df0 82bd e8ea 213d
000000d0: f8a2 9c3c 5c6c 79be edfb 35bf 6793 263e
000000e0: 16ae cbbe 08e6 85bd c1e7 c6bd 71d1 663e
000000f0: 6035 e5bd b96d 1ebe 2017 893e e0ee 82be
00000100: 9b4b 40be f00a 64bd ab59 0abf 66e4 debe
00000110: 8746 90bd 02bf b0be e40a 5a3d 3474 3cbd
00000120: c123 6b3e d7ee 2e3e 66c6 883e 13fe cabe
00000130: b0a6 3bbe 10b3 dd3d 9768 6cbd 4d8d 94be
00000140: 8858 88bc 91a1 09be e2e7 1b3e 1f7b b7bd
00000150: 4094 25bd ebcf f13d ce9c 93be 9dd9 21be
00000160: c96e 013e d013 853d 9e42 38be c312 97be
00000170: 5a92 a2be 8dbe e7bd 0b67 0dbd e32a adbc
00000180: 0f17 6cbe f25f efbd 1973 82be 64b5 6e3e
00000190: 904d 29be 33ee 9bbc 52e9 463d 25e1 ffbd
000001a0: 4909 44bd 62e7 1bbe 26f7 063e 5d04 29be
000001b0: 95af e53d f802 603e c46a c8bd fbde d03c
000001c0: ff1c 3cbe 7039 8cbe 782b 89bf 8219 e3be
000001d0: 995a ca3d 228c ac3c a44c b8be 40c1 20bd
-0.075909846 -0.6643093 -0.0069089136 -0.09396572 -0.12700294 0.16529493 -0.19765307 -0.5322104
-0.09391805 -0.2911357 -0.38156894 0.029277176 -0.28395087 0.11319972 -0.2052428 0.015038952
0.07016968 -0.19846955 -0.6548552 -0.5578798 -0.059473872 -0.30409494 -0.13356891 0.30175903
-0.5170102 -0.6064655 0.037095156 -0.5679236 -0.40003863 -0.25653568 -0.54323035 0.22689235
-0.003684959 -0.8280997 0.25501055 0.14070462 -0.19477823 -0.23747715 -0.21700865 -0.15182489
-0.09890931 -0.34986764 -0.07880237 -0.4436815 -0.13462213 -0.21718274 -0.14977902 -0.009476172
-0.37649795 -0.89956385 -0.06393466 0.039530665 0.019120678 -0.24357742 -0.71087533 0.16267167
-0.39781255 -0.065380156 -0.09712172 0.22540833 -0.11191821 -0.15471543 0.26775455 -0.25572872
-0.18778841 -0.055674493 -0.5404307 -0.4353363 -0.07044702 -0.34520727 0.053233042 -0.046009257
0.22962858 0.17083298 0.26713866 -0.39646968 -0.18325305 0.10825169 -0.057716932 -0.29014054
-0.016643777 -0.13440539 0.15225175 -0.0895903 -0.040424585 0.11807235 -0.2883057 -0.15805669
0.12639917 0.064979196 -0.17994162 -0.29506502 -0.31752282 -0.113156416 -0.034522098 -0.021138614
-0.23055671 -0.11688222 -0.25478438 0.23311383 -0.16533494 -0.01903448 0.048562355 -0.12494115
-0.047860418 -0.15224984 0.13180217 -0.1650557 0.1121513 0.21876132 -0.09785989 0.02549695
-0.18370436 -0.2738757 -1.0716391 -0.44355398 0.098805614 0.021062914 -0.35995972 -0.039246798

sequential.2.bn.running_mean f4 [120]
00000000: 0000 0000 0000 0000 0000 0000 0000 0000
00000010: 0000 0000 0000 0000 0000 0000 0000 0000
00000020: 0000 0000 0000 0000 0000 0000 0000 0000
00000030: 0000 0000 0000 0000 0000 0000 0000 0000
00000040: 0000 0000 0000 0000 0000 0000 0000 0000
00000050: 0000 0000 0000 0000 0000 0000 0000 0000
00000060: 0000 0000 0000 0000 0000 0000 0000 0000
00000070: 0000 0000 0000 0000 0000 0000 0000 0000
00000080: 0000 0000 0000 0000 0000 0000 0000 0000
00000090: 0000 0000 0000 0000 0000 0000 0000 0000
000000a0: 0000 0000 0000 0000 0000 0000 0000 0000
000000b0: 0000 0000 0000 0000 0000 0000 0000 0000
000000c0: 0000 0000 0000 0000 0000 0000 0000 0000
000000d0: 0000 0000 0000 0000 0000 0000 0000 0000
000000e0: 0000 0000 0000 0000 0000 0000 0000 0000
000000f0: 0000 0000 0000 0000 0000 0000 0000 0000
00000100: 0000 0000 0000 0000 0000 0000 0000 0000
00000110: 0000 0000 0000 0000 0000 0000 0000 0000
00000120: 0000 0000 0000 0000 0000 0000 0000 0000
00000130: 0000 0000 0000 0000 0000 0000 0000 0000
00000140: 0000 0000 0000 0000 0000 0000 0000 0000
00000150: 0000 0000 0000 0000 0000 0000 0000 0000
00000160: 0000 0000 0000 0000 0000 0000 0000 0000
00000170: 0000 0000 0000 0000 0000 0000 0000 0000
00000180: 0000 0000 0000 0000 0000 0000 0000 0000
00000190: 0000 0000 0000 0000 0000 0000 0000 0000
000001a0: 0000 0000 0000 0000 0000 0000 0000 0000
000001b0: 0000 0000 0000 0000 0000 0000 0000 0000
000001c0: 0000 0000 0000 0000 0000 0000 0000 0000
000001d0: 0000 0000 0000 0000 0000 0000 0000 0000
0.0 0.0 0.0 0.0 0.0 0.0 0.0 0.0
0.0 0.0 0.0 0.0 0.0 0.0 0.0 0.0
0.0 0.0 0.0 0.0 0.0 0.0 0.0 0.0
0.0 0.0 0.0 0.0 0.0 0.0 0.0 0.0
0.0 0.0 0.0 0.0 0.0 0.0 0.0 0.0
0.0 0.0 0.0 0.0 0.0 0.0 0.0 0.0
0.0 0.0 0.0 0.0 0.0 0.0 0.0 0.0
0.0 0.0 0.0 0.0 0.0 0.0 0.0 0.0
0.0 0.0 0.0 0.0 0.0 0.0 0.0 0.0
0.0 0.0 0.0 0.0 0.0 0.0 0.0 0.0
0.0 0.0 0.0 0.0 0.0 0.0 0.0 0.0
0.0 0.0 0.0 0.0 0.0 0.0 0.0 0.0
0.0 0.0 0.0 0.0 0.0 0.0 0.0 0.0
0.0 0.0 0.0 0.0 0.0 0.0 0.0 0.0
0.0 0.0 0.0 0.0 0.0 0.0 0.0 0.0

sequential.2.bn.running_var f4 [120]
00000000: 0000 803f 0000 803f 0000 803f 0000 803f
00000010: 0000 803f 0000 803f 0000 803f 0000 803f
00000020: 0000 803f 0000 803f 0000 803f 0000 803f
00000030: 0000 803f 0000 803f 0000 803f 0000 803f
00000040: 0000 803f 0000 803f 0000 803f 0000 803f
00000050: 0000 803f 0000 803f 0000 803f 0000 803f
00000060: 0000 803f 0000 803f 0000 803f 0000 803f
00000070: 0000 803f 0000 803f 0000 803f 0000 803f
00000080: 0000 803f 0000 803f 0000 803f 0000 803f
00000090: 0000 803f 0000 803f 0000 803f 0000 803f
000000a0: 0000 803f 0000 803f 0000 803f 0000 803f
000000b0: 0000 803f 0000 803f 0000 803f 0000 803f
000000c0: 0000 803f 0000 803f 0000 803f 0000 803f
000000d0: 0000 803f 0000 803f 0000 803f 0000 803f
000000e0: 0000 803f 0000 803f 0000 803f 0000 803f
000000f0: 0000 803f 0000 803f 0000 803f 0000 803f
00000100: 0000 803f 0000 803f 0000 803f 0000 803f
00000110: 0000 803f 0000 803f 0000 803f 0000 803f
00000120: 0000 803f 0000 803f 0000 803f 0000 803f
00000130: 0000 803f 0000 803f 0000 803f 0000 803f
00000140: 0000 803f 0000 803f 0000 803f 0000 803f
00000150: 0000 803f 0000 803f 0000 803f 0000 803f
00000160: 0000 803f 0000 803f 0000 803f 0000 803f
00000170: 0000 803f 0000 803f 0000 803f 0000 803f
00000180: 0000 803f 0000 803f 0000 803f 0000 803f
00000190: 0000 803f 0000 803f 0000 803f 0000 803f
000001a0: 0000 803f 0000 803f 0000 803f 0000 803f
000001b0: 0000 803f 0000 803f 0000 803f 0000 803f
000001c0: 0000 803f 0000 803f 0000 803f 0000 803f
000001d0: 0000 803f 0000 803f 0000 803f 0000 803f
1.0 1.0 1.0 1.0 1.0 1.0 1.0 1.0
1.0 1.0 1.0 1.0 1.0 1.0 1.0 1.0
1.0 1.0 1.0 1.0 1.0 1.0 1.0 1.0
1.0 1.0 1.0 1.0 1.0 1.0 1.0 1.0
1.0 1.0 1.0 1.0 1.0 1.0 1.0 1.0
1.0 1.0 1.0 1.0 1.0 1.0 1.0 1.0
1.0 1.0 1.0 1.0 1.0 1.0 1.0 1.0
1.0 1.0 1.0 1.0 1.0 1.0 1.0 1.0
1.0 1.0 1.0 1.0 1.0 1.0 1.0 1.0
1.0 1.0 1.0 1.0 1.0 1.0 1.0 1.0
1.0 1.0 1.0 1.0 1.0 1.0 1.0 1.0
1.0 1.0 1.0 1.0 1.0 1.0 1.0 1.0
1.0 1.0 1.0 1.0 1.0 1.0 1.0 1.0
1.0 1.0 1.0 1.0 1.0 1.0 1.0 1.0
1.0 1.0 1.0 1.0 1.0 1.0 1.0 1.0

sequential.4.Gamma.weight f4 [70, 120]
00000000: f91b 58be 2f5a 6bbe e4f7 41be 149e 0e3d
00000010: b837 82bf fafb 0e3e 383c 4abe e6b3 1f3f
00000020: 97bc 36be 9ac7 ad3e 8c5e a73e 494e 8e3e
00000030: 244b 89bf 78d2 96be 2d57 a8bb d8df bfbd
00000040: 418d 80bf 5937 c23d c664 723d 82b0 c23a
00000050: 4ff1 0fbf acb7 a4be 1eba fd3b 055e 2bbe
00000060: 61d8 183f 797a 843c f87c dfbe f537 87bf
00000070: ee99 7bbd ad58 13bd e414 7a3d bf1a a6be
00000080: 77be 283e 1f9a 4f3e e433 b0bc f36a 82be
00000090: 445c 323d 4e4d 20be 466f 3ebe 516a 56be
000000a0: 595e 14be 245a 38be 4cf1 93be 1a81 80ba
000000b0: 25fe d2bd 3227 c2bd 044a e0be 1751 98be
000000c0: 40f4 43bf 70e7 bd3d d62e 71bf 4e4c c1bd
000000d0: 29d7 4dbf 6af8 753d c3b4 8cbd 742b 0d3c
000000e0: 77e1 d93c b50b 23bf 78be 7f3d e25e 71bf
000000f0: c3d5 9bbe d8f7 ee3d 6100 9bbe d7ef cfbd
00000100: 1d36 3d3e abca 43be ad23 7fbd 9927 2abe
00000110: 1fa4 a0bd e3c4 b8bd 873e 26bf 9fc3 0dbf
00000120: 7ea1 cebe 4905 9dbd a2ca f7be 5f41 08be
00000130: 8d31 c33d a699 503e 1174 9f3d a47b 46be
00000140: 8e46 1ebe 5884 9dbd e368 fdbe 4488 bebd
00000150: 8282 b43d 2d29 413f 173d 24bf ed31 e1bd
00000160: abf9 cdbe 3cd7 04bf c152 863c 56f9 f1bc
00000170: 72f6 a13e 00ae 57be ffd2 3c3f 2e72 4a3e
00000180: f95f debc 4c0d d2be b535 df3e f7aa aebe
00000190: 8d15 993e ef12 4dbe 9b63 88be 2ea5 14be
000001a0: 3e87 1d3d 46c9 1fbe 81b6 f9bd d390 9dbd
000001b0: d4c4 1cbe 8660 29bf f998 263e b2fe a43e
000001c0: 41c6 93bd 8275 85be 6b05 4c3e 3fc8 1abf
000001d0: dd34 b1be 4c0b cfbd 2ea6 68bf d972 7fbe
000001e0: 301a 2abe 1bf6 14bd cac2 fdbe ac55 3ebf
000001f0: 4370 063e 64ac 1f3e a522 443d 3dda de3e
00000200: 7650 2ebe 9a8f bbbe 6f3f 6b3e 4445 243c
00000210: 8a5b bfbe 7d7d 69be 6f18 b8bb 9dd0 ad3e
00000220: 09d7 72be 753e d03d a52e 31be 3a90 8cbe
00000230: 8443 0e3e 9f4b 23be 27f8 1fbf f69c e2be
00000240: 5b55 a13e 5c22 87be d1e1 fabd 2e25 8e3d
00000250: b9f9 6abd 95e7 c13d d4d2 183f 3eef 97be
00000260: 95a8 dd3d 450f 12be 3f9c a53b 4a8d b5be
00000270: cc5a adbe 4e57 de3e 606e cb3d 3aed 1ebe
00000280: 26a1 7e3e d1e1 943e a732 f93e bc79 d5be
00000290: 42ee 023e e7e4 b1be 3806 aabd c4ce 74be
000002a0: defc 28bd 5e76 33bf c6c0 36be 3914 3abe
000002b0: ce04 4a3b 1391 5a3e b1b8 db3d 7e0d 40bc
000002c0: 3969 86be cc26 67be 07ff cfbd 52d2 90be
000002d0: bb9c 183f 3b89 2cbe 7e78 3ebe 2a2c 5dbe
000002e0: 3d25 89b9 bc46 a7bd 31d3 05be 42b7 b1bd
000002f0: 232d 5dbe 3f2c 44be bda8 87bd 3084 04bf
00000300: 4ca9 16bf c3ba 4e3e 101a 1d3e b94b 5c3c
00000310: 9095 4cbe caff cbbe 7647 a83e 9939 00be
00000320: 15a8 0e3d 1d9c 863e 0745 34bd de6a 60be
00000330: 07b4 c3be 880e 6d3e a117 e43e 964c e3bd
00000340: 9203 9ebe cb86 0ebf 78c0 523e b709 9abe
00000350: 4cd8 7a3e 787c 1a3e cbb9 64bf c8d9 e4be
00000360: 7af1 bebe c44d dbbd 2636 f6bd b291 aebe
00000370: 041f 7bbe c2e5 2cbe d4e8 4dbe 91ad 29be
00000380: 716e debe e846 263d 82b2 cb3c 93e8 6a3e
00000390: 4ed3 94be adc3 c9bd dec1 a63b fc3e 5dbf
000003a0: cfcb c6bd 4faa a43e e98a 563e 0142 9c3d
000003b0: 7846 2cbe e921 39be 5336 5dbe 2c52 bc3e
000003c0: 3c53 04bf e83a d8bd a64d 03bf 0507 193c
000003d0: 164f 17bd dd55 86be 8f35 3bbf 49fb c03e
000003e0: f3ee fb3c 8d79 3abe 63f6 833e 0463 333d
000003f0: 4e8c 8ebe 470e 05be 3e20 c7be d192 193e
-0.2110442 -0.22983621 -0.18942219 0.034818724 -1.0173254 0.13963309 -0.19749534 0.6238388
-0.17845379 0.33941346 0.3268932 0.27794102 -1.0726056 -0.2945745 -0.0051373453 -0.09368867
-1.0043107 0.09483213 0.059178136 0.0014853629 -0.5622758 -0.3217138 0.007743134 -0.16735084
0.5970517 0.01617168 -0.4365003 -1.0563952 -0.061426096 -0.03597324 0.06105508 -0.3244228
0.16478907 0.20273636 -0.021509118 -0.2547222 0.043545023 -0.1565449 -0.18597135 -0.20938994
-0.14489116 -0.18003136 -0.28895032 -0.00098041 -0.103023805 -0.09480132 -0.4380647 -0.29749367
-0.7654457 0.09272659 -0.9421209 -0.09438382 -0.80406433 0.06005136 -0.06870415 0.008616317
0.026596768 -0.6368974 0.062437505 -0.94285405 -0.30436525 0.11668366 -0.30273727 -0.10153168
0.18477674 -0.1912028 -0.062289882 -0.16616668 -0.078438036 -0.09021928 -0.6493916 -0.5537662
-0.40357584 -0.07667024 -0.48396784 -0.13306187 0.095309354 0.20371112 0.0778581 -0.19383103
-0.15456602 -0.07691258 -0.49494085 -0.09303334 0.08813955 0.75453454 -0.64155716 -0.10995851
-0.40229544 -0.5189092 0.016396882 -0.029537838 0.31633335 -0.2106247 0.73759454 0.19770119
-0.027145373 -0.4102577 0.43595663 -0.3411481 0.29899254 -0.20026754 -0.26638493 -0.14516136
0.038459055 -0.15604123 -0.12193013 -0.07693639 -0.15309459 -0.6616291 0.16269292 0.32225567
-0.07215548 -0.26066214 0.19923942 -0.604618 -0.34610644 -0.101095766 -0.9087857 -0.24946155
-0.16611552 -0.036367517 -0.49562675 -0.74349475 0.13128762 0.15593106 0.047884602 0.43525878
-0.17022881 -0.36632997 0.22973417 0.01002628 -0.37374526 -0.22801776 -0.005618147 0.33948222
-0.23714842 0.10168163 -0.1730295 -0.27453786 0.13892943 -0.15946816 -0.62488025 -0.44260377
0.31510434 -0.26393402 -0.12250102 0.06940685 -0.05736706 0.09467999 0.596967 -0.29674715
0.1082317 -0.14263637 0.0050540264 -0.35459358 -0.33858335 0.43425983 0.09933162 -0.15520182
0.24866161 0.29078534 0.48671457 -0.41694438 0.127862 -0.3474495 -0.083019674 -0.23907
-0.041256778 -0.7010249 -0.17846975 -0.18171777 0.0030825618 0.21344404 0.107285865 -0.011721967
-0.26252154 -0.22573394 -0.101560645 -0.28285462 0.5961415 -0.16849224 -0.18600652 -0.21598879
-0.0002615842 -0.081677884 -0.13068844 -0.08677532 -0.2159925 -0.19157504 -0.06623981 -0.517642
-0.58852077 0.20188431 0.15341973 0.013445788 -0.19978929 -0.3984359 0.3286702 -0.12521972
0.034828264 0.2629098 -0.044011142 -0.21915767 -0.38223287 0.23150074 0.44549277 -0.11098592
-0.308621 -0.5567443 0.20581234 -0.30085537 0.24496573 0.15086544 -0.89346 -0.44697404
-0.37293607 -0.10708192 -0.12022047 -0.34095532 -0.2452355 -0.1688452 -0.20108348 -0.16570117
-0.43443635 0.040594965 0.024865393 0.22940283 -0.29067463 -0.09851775 0.0050890287 -0.8642423
-0.09706842 0.32161185 0.20951428 0.07629777 -0.16823757 -0.18079342 -0.21602754 0.36781442
-0.51689506 -0.105581105 -0.5129036 0.0093400525 -0.036940657 -0.26237383 -0.731286 0.37691715
0.030753588 -0.1821043 0.25773916 0.0437956 -0.2784142 -0.12993728 -0.38891786 0.14997412

sequential.4.Gamma.bias f4 [70]
00000000: 3cce 5bbf 45a6 d3be 2a24 5ebe a130 61be
00000010: 3fdf 84be abb7 813d 6ee7 6cbe 9805 a3be
00000020: 03ee 42bd 971e 5e3d 8c3d a5be 9992 fbbe
00000030: 6d4b 25bd 2d86 d33d d5b0 50be 988e 41be
00000040: b135 0bbf 2e55 73be 6e54 163d 0589 36bf
00000050: d5fa f3be 5448 08bf 8adc 37be cb9b 70be
00000060: 8048 babe 3a2a 6cbe 338f 7a3e f623 aebe
00000070: 717d bcbe f6c6 783e fe5a 0ebf 8737 6f3d
00000080: bbbc 5dbe 3933 f3be f7d6 d4bc 829f e5bd
00000090: 5d38 8dbf 9f13 e93c a1af 12be 9800 04bf
000000a0: dd03 923d 2860 c2bd c63e ce3c 17b1 04bf
000000b0: c1b3 67be 24b5 8ebd d463 39be 697a c5bd
000000c0: 6a46 323d b630 9bbc 233d 57bf 2230 d6bd
000000d0: 9e29 153e e118 45be ecab cbbe fb7e 4cbe
000000e0: 1fe3 803e d498 3bbe 7aee 94bd 4b7f a0be
000000f0: d9f4 74be 53b6 b5be 1ad8 88be 880b 92be
00000100: 1dda 24bd 2589 723d d947 61bc 8214 4cbe
00000110: 4a21 80be 906d 69be
-0.85861564 -0.4133779 -0.21693483 -0.21991207 -0.25951573 0.0633386 -0.23135158 -0.31840205
-0.047590267 0.05422839 -0.3227352 -0.49135283 -0.040355135 0.103283264 -0.20379956 -0.18902051
-0.543788 -0.23762962 0.036701612 -0.71302825 -0.47652307 -0.53235364 -0.17955223 -0.2349693
-0.36383438 -0.23062983 0.24468689 -0.3401181 -0.36814454 0.24294648 -0.55607593 0.058402564
-0.21654026 -0.47500017 -0.02598141 -0.11212064 -1.1032826 0.028451739 -0.1432481 -0.51563406
0.07129643 -0.094909966 0.025176417 -0.5183272 -0.22627164 -0.069681436 -0.18104488 -0.096424885
0.043524183 -0.018944126 -0.8407766 -0.10458399 0.14566657 -0.19247772 -0.39779603 -0.19970314
0.2517328 -0.18320018 -0.07272048 -0.31347117 -0.23921527 -0.35490665 -0.26727372 -0.28524423
-0.04024707 0.059212822 -0.01375004 -0.19929698 -0.25025398 -0.22795701
