Models/Z_100GeV_1.pth (torch, 197858 bytes, 36 tensors)

sequential.0.Gamma.weight f4 [80, 5]
0	0x3deaa601	0.11457444
1	0xbe420f4b	-0.18951146
2	0x3eb32a02	0.34992987
3	0xbe5e9887	-0.21737872
4	0xbf14ec8e	-0.58173454
5	0x3e8debe8	0.27719045
6	0xbf0d1e5d	-0.55124456
7	0xbf1c9526	-0.6116508
8	0xbe8c6151	-0.27417997
9	0x3e333191	0.17499377
10	0x3dc30cfa	0.095239595
11	0xbfade4e5	-1.3585478
12	0xbe8edd69	-0.27903298
13	0xbe8239ff	-0.25434873
14	0x3ebb82c3	0.366232
15	0xbf3c0f90	-0.73461246
16	0x3f26f36f	0.652152
17	0x3eae7cfa	0.34079725
18	0x3f4392d7	0.76395935
19	0xbf12862a	-0.5723597
20	0x3e3746cf	0.17898105
21	0x3fae28e3	1.3606228
22	0x3e7567e5	0.23965414
23	0xbc5335f7	-0.012891284
24	0x3eb152c5	0.3463346
25	0xbf0c7e56	-0.54880273
26	0xbf25530e	-0.64579856
27	0x3e6babdf	0.23014782
28	0xbda8c606	-0.08240895
29	0xbe8eb8fe	-0.27875513
30	0x3daa72ac	0.08322653
31	0x3f033232	0.51248467
32	0x3f1939b0	0.5985365
33	0xbfe4429e	-1.783283
34	0x3f57c31d	0.84282094
35	0x3efba702	0.49150854
36	0x3e282b84	0.1642285
37	0x3f148417	0.58014053
38	0x3f532cf8	0.8249049
39	0xbf6de66a	-0.9292971
40	0x3e5c8ae0	0.21537352
41	0x3f115654	0.5677235
42	0x3e7cef4b	0.24700658
43	0xbf800ab5	-1.0003268
44	0xbef965d7	-0.4871051
45	0x3ef8691d	0.48517695
46	0x3f1dd03f	0.61645883
47	0xbfc3d83d	-1.5300366
48	0x3f24af26	0.64329755
49	0xbf2c67a5	-0.6734565
50	0x3e966f5d	0.29381838
51	0x3f98ac82	1.1927645
52	0x3ea61535	0.32438055
53	0x3f766c76	0.9625925
54	0xbdfb3c76	-0.122673914
55	0x3ddfb97d	0.10924051
56	0x3d245929	0.040124092
57	0x3eca1a15	0.39473024
58	0xbf0acde2	-0.542204
59	0x3f28a72e	0.65880096
60	0xbfa10d10	-1.2582111
61	0xbf97d9dd	-1.1863362
62	0xbe4ce586	-0.20009431
63	0x3d915863	0.070969366
64	0x3fc3b33c	1.5289073
65	0xbf10bf41	-0.5654183
66	0xbf52c48d	-0.8233116
67	0x3ed40c45	0.4141561
68	0x3f88fd5e	1.0702322
69	0xbf88ee6a	-1.0697758
70	0x3f2a40c1	0.66505057
71	0x3edba754	0.429011
72	0xbeec234c	-0.4612068
73	0x3e8d65a7	0.27616617
74	0xbfe0b3db	-1.7554888
75	0x3eab2b66	0.33431548
76	0x3e95c452	0.29251343
77	0xbf95b72e	-1.1696527
78	0x3e1d6168	0.15369189
79	0xbf5c99b0	-0.8617201
80	0xbeee651c	-0.46561515
81	0xbf04f6f4	-0.5193932
82	0x3f0b693a	0.5445744
83	0xbf2e3a7d	-0.68057996
84	0x3f5365d8	0.82577276
85	0x3f274895	0.65345126
86	0x3f5a9915	0.85389835
87	0xbf7702a6	-0.96488416
88	0xbf6ebb5a	-0.93254626
89	0x3bffe4a1	0.007809237
90	0x3ed0bbf8	0.4076841
91	0xbec773ad	-0.3895544
92	0xbf27dfc7	-0.6557583
93	0x3d13ae22	0.036054738
94	0x3de0f4fa	0.109842256
95	0xbcb033c7	-0.021509064
96	0xbe2dec60	-0.16984701
97	0x3ee38007	0.44433615
98	0xbd23d431	-0.039997283
99	0xbf14ec6d	-0.5817326
100	0xbf198ba6	-0.5997871
101	0xbfcf2795	-1.6183954
102	0xbf51ad15	-0.8190473
103	0xbf67bcd1	-0.90522486
104	0xbf1b9d92	-0.6078731
105	0x3e6aca4a	0.2292873
106	0x3e9e636d	0.3093523
107	0x3de6bc8d	0.11266432
108	0xbcc6417d	-0.02420115
109	0xbf22a585	-0.6353381
110	0xbbf095b1	-0.0073420634
111	0x3e807635	0.25090185
112	0x3eb1f75b	0.3475903
113	0x3e6be5cf	0.23036884
114	0x3e9965ef	0.29960582
115	0x3f03f0c0	0.5153923
116	0xbd6f3689	-0.05840162
117	0x3e7bdbba	0.24595538
118	0xbf8ed54a	-1.1158841
119	0x3fa45d91	1.2841054
120	0x3ec18caa	0.3780263
121	0x3e9209e7	0.2852318
122	0xbf8bb697	-1.0915097
123	0xbd4abbc7	-0.049495485
124	0x3ebdf062	0.3709746
125	0xbd8d5f7d	-0.069029786
126	0xbf0836bd	-0.53208524
127	0x3dae33db	0.085059844
128	0x3f59b8c0	0.8504753
129	0x3f77b7d2	0.9676486
130	0x3f1ea4b2	0.61970055
131	0x3da4e445	0.080513515
132	0x3f874df9	1.057067
133	0x3f00b2b1	0.5027266
134	0xbce02392	-0.027360711
135	0x3f4df615	0.80453616
136	0x3e99e350	0.30056238
137	0x3f671acc	0.90275264
138	0xbc236ceb	-0.009974699
139	0xbea3f0cf	-0.3201966
140	0x3e810bc7	0.25204298
141	0x3d1f3532	0.03886909
142	0x3e90bf82	0.2827111
143	0x3e7bd323	0.24592261
144	0xbfa1d212	-1.2642233
145	0xbf03c38d	-0.5147026
146	0xbd6cdb5b	-0.05782638
147	0xbd476e69	-0.04868928
148	0x3dc18aac	0.09450278
149	0x3f5dd345	0.86650497
150	0xbe111dff	-0.14171599
151	0x3d012f73	0.03153939
152	0x3f915d5d	1.1356617
153	0xbef16f2d	-0.47155133
154	0x3f4f59ef	0.809966
155	0x3d966b7f	0.07344722
156	0x3d84e0eb	0.06488212
157	0x3d465fab	0.04843108
158	0x3d9223d2	0.071357384
159	0x3e55516a	0.20831838
160	0xbe0316b5	-0.12801631
161	0xbf709013	-0.9396984
162	0xbedf91d8	-0.43665957
163	0x3f46bcbd	0.7763174
164	0xbdbf0be8	-0.09328443
165	0x3eb27dd1	0.34861615
166	0xbfbdd6f8	-1.4831228
167	0xbf421112	-0.758073
168	0x3de4cd75	0.11172
169	0xbc6924a9	-0.014229932
170	0xbf087a49	-0.5331159
171	0xbc5694f6	-0.0130970385
172	0xbeaf710f	-0.34265944
173	0xbec9ed77	-0.39438984
174	0xbf2956e9	-0.6614824
175	0xbe11e813	-0.14248686
176	0x3ef439c7	0.4770033
177	0xbd3b34f1	-0.045704786
178	0xbe54acee	-0.20769092
179	0x3e88407f	0.26611707
180	0xbf97c04f	-1.1855563
181	0xbe8d9d54	-0.27659094
182	0x3f52557a	0.82161677
183	0xbf934653	-1.1505836
184	0x3dc45125	0.095857896
185	0x3f4bf420	0.7966938
186	0xbfb3cc28	-1.4046679
187	0xbe14c3d2	-0.14527825
188	0x3da9fedb	0.08300563
189	0x3f5e9fba	0.86962473
190	0xbe369c93	-0.17833166
191	0xc000c337	-2.011915
192	0x3da8c650	0.0824095
193	0x3f01e304	0.50737023
194	0xbdb1fde1	-0.08691002
195	0x3ecb3118	0.39685893
196	0xbf032e0e	-0.5124215
197	0xbf0f69f8	-0.5602107
198	0x3ec6dfc3	0.38842592
199	0xbed75380	-0.42055893
200	0xbf366338	-0.71245146
201	0x3f8bfea5	1.0937086
202	0x3f66875e	0.90050304
203	0xbc4fb0a1	-0.012676389
204	0xbf6f19de	-0.93398845
205	0xbe9af144	-0.30262196
206	0x3de66640	0.112499714
207	0x3dedcc07	0.11611181
208	0x3eab486c	0.3345369
209	0x3f2d6764	0.67735887
210	0xbdd3219d	-0.103091456
211	0xbf1ec456	-0.62018335
212	0xbf32249b	-0.69587106
213	0xbeb04a19	-0.34431532
214	0x3fc89da2	1.5673106
215	0x3e12265b	0.14272444
216	0xbf11cc1a	-0.5695206
217	0x3e27e152	0.16394547
218	0x3e0d2db4	0.13786966
219	0xbf44a336	-0.7681154
220	0xbf6c79c6	-0.9237331
221	0xbf267398	-0.6502013
222	0x3f009336	0.50224626
223	0xbd9394b8	-0.072061
224	0xbde3a34c	-0.11115131
225	0xbea60513	-0.32425746
226	0x3f87d5a8	1.0612078
227	0x3d9aaf33	0.07552948
228	0xbe4258da	-0.18979207
229	0xbed9a9f9	-0.4251249
230	0x3e8f9f30	0.28051138
231	0xbf33c338	-0.70219755
232	0x3f35e26c	0.7104862
233	0xbf269950	-0.65077686
234	0xbd7cd8c2	-0.061730154
235	0x3f4af3c6	0.7927822
236	0x3ecdcb4f	0.40194175
237	0xbfaa55f1	-1.3307477
238	0x3e046052	0.12927368
239	0x3f210869	0.6290346
240	0x3f4ba496	0.79548013
241	0xbed773cd	-0.42080536
242	0xbeeeb3ea	-0.4662164
243	0xbed34e3a	-0.4127062
244	0x3e8b6869	0.27228096
245	0x3f7a4da7	0.9777474
246	0xbf65a2b1	-0.8970137
247	0xbcc9b704	-0.024623401
248	0xbbbb1381	-0.005709112
249	0xbff7205d	-1.9306751
250	0xbe776629	-0.24160065
251	0xbf59026b	-0.84769315
252	0xbf2124fc	-0.6294706
253	0xbecc25db	-0.3987263
254	0x3f6b9784	0.9202807
255	0xbdabb54b	-0.08384188

sequential.0.Gamma.bias f4 [80]
0	0x3cdd13a6	0.026986908
1	0x3dbdfede	0.09277128
2	0x3e935e12	0.28782707
3	0xbe87e5ef	-0.26542613
4	0xbe0fbbce	-0.14036486
5	0xbde61170	-0.11233795
6	0xbe8528f2	-0.260078
7	0xbdf5603d	-0.119812466
8	0x3d0b79c8	0.034051687
9	0x3b8d7597	0.0043169963
10	0xbdafb775	-0.085799135
11	0x3d951faa	0.0728143
12	0x3e0e1324	0.13874489
13	0xbccd60dd	-0.025070602
14	0xbcc07fca	-0.023498435
15	0xbe330d59	-0.1748556
16	0x3debba75	0.11510173
17	0x3d53c124	0.051697865
18	0xbe6057bf	-0.21908472
19	0x3d0d3fa8	0.034484535
20	0x3d93ea2f	0.07222401
21	0xbcdb04d4	-0.0267357
22	0x3d165c3e	0.036709063
23	0x3d0d4f19	0.03449926
24	0x3e0e74b5	0.13911708
25	0xbdf30027	-0.118652634
26	0xbe4db0ae	-0.20086929
27	0xbdea56e2	-0.11442353
28	0xbdc7fb7d	-0.097647645
29	0xbe57f789	-0.21090521
30	0x3e0b2e64	0.13591915
31	0xbd97c7dc	-0.07411167
32	0xbdbdde2f	-0.09270894
33	0xbdf413c2	-0.11917831
34	0xbd810831	-0.063003905
35	0x3e242e83	0.16033368
36	0xbdd8ab4e	-0.10579549
37	0x3d884de4	0.066554815
38	0xbebb58d9	-0.36591223
39	0xbe1751d4	-0.14777309
40	0x3e06a300	0.13148117
41	0x3a651abb	0.000873964
42	0x3ca64de2	0.02030081
43	0x3dab7def	0.08373629
44	0x3e2867d9	0.16445865
45	0xbc584a4a	-0.013201306
46	0xbdb2db0d	-0.08733187
47	0xbe7f8001	-0.24951173
48	0xbd8af531	-0.06785048
49	0xbe60c0ff	-0.21948622
50	0x3daad87b	0.083420716
51	0x3d5f9487	0.054585006
52	0xbcd02b52	-0.025411282
53	0xbe0d014f	-0.1377003
54	0x3cc00443	0.023439532
55	0x3e5f4e5b	0.21807234
56	0xbce2c72e	-0.027682867
57	0xbe4a1933	-0.19736175
58	0xbe356db4	-0.1771763
59	0xbe4919fe	-0.19638821
60	0xbe0cf105	-0.13763817
61	0xbe46a422	-0.19398549
62	0x3e17c73a	0.14822093
63	0xbe1049c6	-0.14090642
64	0xbe1e3a67	-0.15451966
65	0xbd8e35f2	-0.06943883
66	0x3db3e396	0.08783643
67	0x3dd536ad	0.10410819
68	0xbe5abe78	-0.2136172
69	0x3d67b508	0.05656913
70	0x3c98bdc7	0.01864518
71	0x3e3dd4c4	0.18538195
72	0x3b9bd344	0.0047554094
73	0xbd82b8b3	-0.06382885
74	0xba5d8b22	-0.00084512134
75	0xbe11d854	-0.14242679
76	0xbe057f46	-0.13036832
77	0xbea661da	-0.3249653
78	0x3da69e8b	0.081357084
79	0xbe68fd0a	-0.22752777

sequential.0.Lambda.weight f4 [80, 5]
0	0x3f631f69	0.88719803
1	0x3ec1e1c3	0.37867555
2	0xbf7130ba	-0.94214976
3	0x3dd3a315	0.1033384
4	0xbeb26f4a	-0.34850532
5	0x3f35b369	0.70976883
6	0xbf3f6921	-0.7476979
7	0xbcb5e857	-0.022205515
8	0xbeeee8f3	-0.466621
9	0x3f573c15	0.8407605
10	0xbfbd2d75	-1.4779497
11	0x3e64897f	0.22318076
12	0x3e1b7617	0.15181766
13	0x3e94b1c4	0.29041874
14	0x3edff20a	0.4373935
15	0x3eeae617	0.4587867
16	0xbed76880	-0.42071915
17	0x3eb6c96e	0.35700554
18	0x3e984c4e	0.29745716
19	0xbed10ad2	-0.40828568
20	0x3ec57098	0.38562465
21	0xbe18dd54	-0.1492818
22	0x3f82112f	1.0161494
23	0x3eb15973	0.34638557
24	0x3de384a3	0.11109283
25	0x3f1c7331	0.6111327
26	0x3df7189b	0.1206524
27	0x3da83caf	0.082146995
28	0xbf9d8dd3	-1.2308906
29	0xbf32c742	-0.69835293
30	0xbefd836e	-0.49514335
31	0xbec1f441	-0.37881663
32	0x3f87ad2f	1.0599726
33	0xbe7ac942	-0.24490836
34	0xbf067f8c	-0.5253837
35	0x3d3ddc35	0.046352584
36	0x3cd19a45	0.025586257
37	0xbe4b3ab7	-0.19846617
38	0xbe316e9f	-0.17327355
39	0x3d837e5b	0.06420585
40	0xbeee6a55	-0.465655
41	0x3e105491	0.1409476
42	0xbdab0e59	-0.08352346
43	0x3ee942b1	0.45558694
44	0x3e82991b	0.25507435
45	0x3f110ad1	0.5665713
46	0xbe3a1e87	-0.18175708
47	0x3e1d38cc	0.15353698
48	0x3f935d7e	1.1512907
49	0x3e8f5415	0.27993837
50	0x3e8ec140	0.27881813
51	0x3f11aab4	0.569011
52	0xbf1bfc7f	-0.60932153
53	0x3f28bbf6	0.65911806
54	0x3d39c213	0.0453511
55	0x3eaa24fb	0.3323134
56	0x3fc29082	1.520035
57	0x3e2bd36e	0.16779873
58	0x3ede870e	0.43462414
59	0xbf92b055	-1.1460062
60	0x3ef73148	0.48279786
61	0x3e466207	0.19373332
62	0x3f2ee2a2	0.68314564
63	0x3f106da8	0.5641732
64	0xbf1400a3	-0.5781347
65	0xbf259847	-0.6468548
66	0xbfb495ab	-1.4108175
67	0xbf320d34	-0.69551396
68	0xbf372c20	-0.71551704
69	0xbf2cd2dc	-0.67509246
70	0xbec99296	-0.3936965
71	0xbeb7274b	-0.35772166
72	0xbf879cf4	-1.0594773
73	0xbf5c9ef6	-0.86180055
74	0xbe8b90b8	-0.2725885
75	0xbf07b382	-0.5300828
76	0xbed0eb14	-0.4080435
77	0xbe95481f	-0.29156587
78	0x3e02daf7	0.12778841
79	0xbf6b3b84	-0.9188769
80	0x3af5f8d4	0.0018766173
81	0xbe43dfa2	-0.19128278
82	0x3f102287	0.56302685
83	0x3f83040f	1.0235614
84	0x3f35c16d	0.7099827
85	0x3ea52586	0.3225519
86	0xbed1e79b	-0.40997013
87	0x3e062e39	0.1310357
88	0xbe8cbfd5	-0.27490106
89	0xbe451177	-0.19244944
90	0xbf31c997	-0.69448227
91	0xbf710991	-0.9415522
92	0xbe0f0a8d	-0.13968869
93	0xbfc4c840	-1.5373611
94	0xbf557e35	-0.833957
95	0x3e53ee9b	0.2069649
96	0x3e396301	0.18104173
97	0xbe68e0e3	-0.22742037
98	0x3f408490	0.75202274
99	0x3ee1ab16	0.4407584
100	0xbf74dcbc	-0.95649314
101	0x3e40b55d	0.18819185
102	0x3f937648	1.1520472
103	0x3f3884f0	0.72077847
104	0xbde0c865	-0.10975722
105	0xbe5dc0ae	-0.21655533
106	0xbeebb1d5	-0.46034113
107	0x3f6c5722	0.92320454
108	0xbe323141	-0.17401601
109	0x3ef09a66	0.46992797
110	0x3ea3d440	0.3199787
111	0x3eaa9052	0.33313233
112	0xbf4a2e1b	-0.789766
113	0xbe3e286e	-0.1857011
114	0xbf2769e5	-0.6539596
115	0x3d3d034f	0.046145733
116	0x3f805137	1.0024785
117	0xbf60a576	-0.87752473
118	0xbe413c0a	-0.1887056
119	0x3e6783c5	0.2260886
120	0x3f24e089	0.64405113
121	0xbe59f2c8	-0.2128402
122	0xbf8195d8	-1.0123854
123	0xbe90d64b	-0.28288493
124	0x3f329b6b	0.697684
125	0xbee235b8	-0.4418161
126	0xbf629a32	-0.88516533
127	0xbe5e19d3	-0.21689539
128	0x3f60db9b	0.8783509
129	0x3e27e410	0.16395593
130	0xbf8c30e2	-1.0952418
131	0xbf9b0f57	-1.2114056
132	0xbec99cf2	-0.39377552
133	0x3e5200fc	0.20508188
134	0xbfa674b6	-1.3004367
135	0x3e96bb51	0.29439786
136	0x3f0c59e8	0.54824686
137	0x3e0c24ef	0.13685964
138	0xc00c5766	-2.1928344
139	0x3e89a60e	0.26884502
140	0x3e1cade3	0.15300708
141	0x3f456007	0.7709965
142	0x3e76c52b	0.24098651
143	0x3fa7fbbd	1.31237
144	0x3f13c084	0.5771563
145	0xbe27eb6f	-0.16398405
146	0xbe2bfce0	-0.16795683
147	0x3f038c0e	0.5138558
148	0x3e03e069	0.12878574
149	0x3e3721ef	0.17884038
150	0x3f1622ae	0.58646667
151	0xbdb9ccd9	-0.09072275
152	0x3e406578	0.18788707
153	0x3e163c17	0.1467136
154	0x3e14d16f	0.14533018
155	0x3f0f9229	0.560824
156	0x3f2c5344	0.67314553
157	0x3bada1c8	0.005298827
158	0xbf531e73	-0.82468337
159	0x3ee0d6b8	0.43913817
160	0x3f2f3533	0.6844055
161	0xbf30558c	-0.68880534
162	0xbe0e5cd8	-0.13902605
163	0x3e1ec695	0.1550544
164	0x3e2b0b3e	0.16703507
165	0x3f1d11b8	0.6135516
166	0x3c6d6c75	0.01449119
167	0xbf609f13	-0.8774273
168	0x3ddcab4e	0.10774861
169	0xbb2a5d9f	-0.0025995744
170	0x3e001b52	0.12510422
171	0x3e9a7ffb	0.30175766
172	0x3e01c056	0.12671027
173	0x3ea0def1	0.3142009
174	0x3fe90754	1.8205361
175	0x3f66003e	0.8984412
176	0xbca70510	-0.020388156
177	0x3ece8280	0.4033394
178	0xbf0fc3f6	-0.5615839
179	0x3f1e4739	0.6182743
180	0xbe96c043	-0.2944356
181	0x3fa4a39a	1.2862427
182	0xbce39838	-0.027782544
183	0xbc159ea0	-0.009132057
184	0xbf2dbe43	-0.6786844
185	0xbf0cc153	-0.5498249
186	0x3e2234f7	0.15840517
187	0xbf0c03d6	-0.54693353
188	0xbf8964fe	-1.0733945
189	0xbdd12b08	-0.10213286
190	0xbd495853	-0.0491565
191	0xbe749493	-0.23884802
192	0xbf1bd2b4	-0.6086838
193	0xbf3543ef	-0.70806783
194	0x3f2ee819	0.683229
195	0x3d9166bc	0.07099673
196	0xbf2ab2b1	-0.6667891
197	0xbf83fe5d	-1.0312
198	0x3c9f6127	0.019455506
199	0x3f543fbb	0.82909745
200	0x3e352a7e	0.1769199
201	0x3f1a5547	0.6028637
202	0x3ee8c106	0.45459765
203	0x3ec3b315	0.38222566
204	0x3d6e3910	0.058159888
205	0xbe53ef87	-0.20696841
206	0x3e8d099b	0.2754639
207	0xbf33a177	-0.7016825
208	0xbf398203	-0.7246401
209	0x3d8f5961	0.069994695
210	0xbfa96a2b	-1.3235525
211	0xbe5c5328	-0.21516097
212	0x3e8197a3	0.25311002
213	0xbc87ffa7	-0.016601397
214	0xbf088830	-0.53332806
215	0x3f8a2fd5	1.0795847
216	0xbf4fcdbb	-0.81173295
217	0xbcf80241	-0.030274512
218	0xbe83f0b9	-0.25769594
219	0xbf06df77	-0.5268473
220	0x3f3bc71a	0.7335068
221	0xbedb3392	-0.42812783
222	0x3f016eeb	0.5055987
223	0x3f22f5d3	0.6365635
224	0xbf21e45e	-0.63239086
225	0x3e405518	0.1878246
226	0x3eff3c99	0.4985092
227	0x3f10b826	0.5653099
228	0xbe8ffbf5	-0.28121915
229	0xbd537a1d	-0.05163013
230	0x3f2819a2	0.6566411
231	0x3b94f178	0.004545387
232	0x3ed4d600	0.4156952
233	0xbf7ea5ba	-0.9947163
234	0x3ebfdf9c	0.37475288
235	0xbe149155	-0.14508565
236	0x3f4d048b	0.8008506
237	0xbe0afa44	-0.13572031
238	0x3f46f316	0.7771467
239	0xbf36f460	-0.71466637
240	0xbee2e9bc	-0.4431895
241	0xbebaab30	-0.3645873
242	0x3ed36bbf	0.4129314
243	0xbed54d28	-0.41660428
244	0xbf3a4a9a	-0.7277008
245	0x3e840800	0.25787354
246	0xbdb70856	-0.08937137
247	0x3f6e312b	0.93043774
248	0xbd6917f6	-0.056907617
249	0x3e9ea772	0.30987126
250	0xbe6cc2dd	-0.2312121
251	0xbeb4d114	-0.35315764
252	0xbee679b4	-0.45014727
253	0xbf55b4d5	-0.8347905
254	0xbe7408ba	-0.23831454
255	0xbf4f36ca	-0.80942976

sequential.0.Lambda.bias f4 [80]
0	0x3cdd13a6	0.026986908
1	0x3dbdfede	0.09277128
2	0x3e935e12	0.28782707
3	0xbe87e5ef	-0.26542613
4	0xbe0fbbce	-0.14036486
5	0xbde61170	-0.11233795
6	0xbe8528f2	-0.260078
7	0xbdf5603d	-0.119812466
8	0x3d0b79c8	0.034051687
9	0x3b8d7597	0.0043169963
10	0xbdafb775	-0.085799135
11	0x3d951faa	0.0728143
12	0x3e0e1324	0.13874489
13	0xbccd60dd	-0.025070602
14	0xbcc07fca	-0.023498435
15	0xbe330d59	-0.1748556
16	0x3debba75	0.11510173
17	0x3d53c124	0.051697865
18	0xbe6057bf	-0.21908472
19	0x3d0d3fa8	0.034484535
20	0x3d93ea2f	0.07222401
21	0xbcdb04d4	-0.0267357
22	0x3d165c3e	0.036709063
23	0x3d0d4f19	0.03449926
24	0x3e0e74b5	0.13911708
25	0xbdf30027	-0.118652634
26	0xbe4db0ae	-0.20086929
27	0xbdea56e2	-0.11442353
28	0xbdc7fb7d	-0.097647645
29	0xbe57f789	-0.21090521
30	0x3e0b2e64	0.13591915
31	0xbd97c7dc	-0.07411167
32	0xbdbdde2f	-0.09270894
33	0xbdf413c2	-0.11917831
34	0xbd810831	-0.063003905
35	0x3e242e83	0.16033368
36	0xbdd8ab4e	-0.10579549
37	0x3d884de4	0.066554815
38	0xbebb58d9	-0.36591223
39	0xbe1751d4	-0.14777309
40	0x3e06a300	0.13148117
41	0x3a651abb	0.000873964
42	0x3ca64de2	0.02030081
43	0x3dab7def	0.08373629
44	0x3e2867d9	0.16445865
45	0xbc584a4a	-0.013201306
46	0xbdb2db0d	-0.08733187
47	0xbe7f8001	-0.24951173
48	0xbd8af531	-0.06785048
49	0xbe60c0ff	-0.21948622
50	0x3daad87b	0.083420716
51	0x3d5f9487	0.054585006
52	0xbcd02b52	-0.025411282
53	0xbe0d014f	-0.1377003
54	0x3cc00443	0.023439532
55	0x3e5f4e5b	0.21807234
56	0xbce2c72e	-0.027682867
57	0xbe4a1933	-0.19736175
58	0xbe356db4	-0.1771763
59	0xbe4919fe	-0.19638821
60	0xbe0cf105	-0.13763817
61	0xbe46a422	-0.19398549
62	0x3e17c73a	0.14822093
63	0xbe1049c6	-0.14090642
64	0xbe1e3a67	-0.15451966
65	0xbd8e35f2	-0.06943883
66	0x3db3e396	0.08783643
67	0x3dd536ad	0.10410819
68	0xbe5abe78	-0.2136172
69	0x3d67b508	0.05656913
70	0x3c98bdc7	0.01864518
71	0x3e3dd4c4	0.18538195
72	0x3b9bd344	0.0047554094
73	0xbd82b8b3	-0.06382885
74	0xba5d8b22	-0.00084512134
75	0xbe11d854	-0.14242679
76	0xbe057f46	-0.13036832
77	0xbea661da	-0.3249653
78	0x3da69e8b	0.081357084
79	0xbe68fd0a	-0.22752777

sequential.0.bn.running_mean f4 [80]
0	0x00000000	0.0
1	0x00000000	0.0
2	0x00000000	0.0
3	0x00000000	0.0
4	0x00000000	0.0
5	0x00000000	0.0
6	0x00000000	0.0
7	0x00000000	0.0
8	0x00000000	0.0
9	0x00000000	0.0
10	0x00000000	0.0
11	0x00000000	0.0
12	0x00000000	0.0
13	0x00000000	0.0
14	0x00000000	0.0
15	0x00000000	0.0
16	0x00000000	0.0
17	0x00000000	0.0
18	0x00000000	0.0
19	0x00000000	0.0
20	0x00000000	0.0
21	0x00000000	0.0
22	0x00000000	0.0
23	0x00000000	0.0
24	0x00000000	0.0
25	0x00000000	0.0
26	0x00000000	0.0
27	0x00000000	0.0
28	0x00000000	0.0
29	0x00000000	0.0
30	0x00000000	0.0
31	0x00000000	0.0
32	0x00000000	0.0
33	0x00000000	0.0
34	0x00000000	0.0
35	0x00000000	0.0
36	0x00000000	0.0
37	0x00000000	0.0
38	0x00000000	0.0
39	0x00000000	0.0
40	0x00000000	0.0
41	0x00000000	0.0
42	0x00000000	0.0
43	0x00000000	0.0
44	0x00000000	0.0
45	0x00000000	0.0
46	0x00000000	0.0
47	0x00000000	0.0
48	0x00000000	0.0
49	0x00000000	0.0
50	0x00000000	0.0
51	0x00000000	0.0
52	0x00000000	0.0
53	0x00000000	0.0
54	0x00000000	0.0
55	0x00000000	0.0
56	0x00000000	0.0
57	0x00000000	0.0
58	0x00000000	0.0
59	0x00000000	0.0
60	0x00000000	0.0
61	0x00000000	0.0
62	0x00000000	0.0
63	0x00000000	0.0
64	0x00000000	0.0
65	0x00000000	0.0
66	0x00000000	0.0
67	0x00000000	0.0
68	0x00000000	0.0
69	0x00000000	0.0
70	0x00000000	0.0
71	0x00000000	0.0
72	0x00000000	0.0
73	0x00000000	0.0
74	0x00000000	0.0
75	0x00000000	0.0
76	0x00000000	0.0
77	0x00000000	0.0
78	0x00000000	0.0
79	0x00000000	0.0

sequential.0.bn.running_var f4 [80]
0	0x3f800000	1.0
1	0x3f800000	1.0
2	0x3f800000	1.0
3	0x3f800000	1.0
4	0x3f800000	1.0
5	0x3f800000	1.0
6	0x3f800000	1.0
7	0x3f800000	1.0
8	0x3f800000	1.0
9	0x3f800000	1.0
10	0x3f800000	1.0
11	0x3f800000	1.0
12	0x3f800000	1.0
13	0x3f800000	1.0
14	0x3f800000	1.0
15	0x3f800000	1.0
16	0x3f800000	1.0
17	0x3f800000	1.0
18	0x3f800000	1.0
19	0x3f800000	1.0
20	0x3f800000	1.0
21	0x3f800000	1.0
22	0x3f800000	1.0
23	0x3f800000	1.0
24	0x3f800000	1.0
25	0x3f800000	1.0
26	0x3f800000	1.0
27	0x3f800000	1.0
28	0x3f800000	1.0
29	0x3f800000	1.0
30	0x3f800000	1.0
31	0x3f800000	1.0
32	0x3f800000	1.0
33	0x3f800000	1.0
34	0x3f800000	1.0
35	0x3f800000	1.0
36	0x3f800000	1.0
37	0x3f800000	1.0
38	0x3f800000	1.0
39	0x3f800000	1.0
40	0x3f800000	1.0
41	0x3f800000	1.0
42	0x3f800000	1.0
43	0x3f800000	1.0
44	0x3f800000	1.0
45	0x3f800000	1.0
46	0x3f800000	1.0
47	0x3f800000	1.0
48	0x3f800000	1.0
49	0x3f800000	1.0
50	0x3f800000	1.0
51	0x3f800000	1.0
52	0x3f800000	1.0
53	0x3f800000	1.0
54	0x3f800000	1.0
55	0x3f800000	1.0
56	0x3f800000	1.0
57	0x3f800000	1.0
58	0x3f800000	1.0
59	0x3f800000	1.0
60	0x3f800000	1.0
61	0x3f800000	1.0
62	0x3f800000	1.0
63	0x3f800000	1.0
64	0x3f800000	1.0
65	0x3f800000	1.0
66	0x3f800000	1.0
67	0x3f800000	1.0
68	0x3f800000	1.0
69	0x3f800000	1.0
70	0x3f800000	1.0
71	0x3f800000	1.0
72	0x3f800000	1.0
73	0x3f800000	1.0
74	0x3f800000	1.0
75	0x3f800000	1.0
76	0x3f800000	1.0
77	0x3f800000	1.0
78	0x3f800000	1.0
79	0x3f800000	1.0

sequential.2.Gamma.weight f4 [120, 80]
0	0x3e8d68a6	0.27618903
1	0x3ec7e226	0.39039725
2	0x3dfb91f6	0.12283699
3	0xbe2a9cd6	-0.1666139
4	0xbec24f65	-0.37951198
5	0x3e6f0f21	0.23345615
6	0x3e54fd67	0.2079979
7	0xbe5ebb95	-0.21751244
8	0x3eb046b4	0.34428942
9	0xbf094823	-0.53625697
10	0xbe9dd7a5	-0.30828586
11	0x3d7ad0de	0.061234348
12	0x3ea021fb	0.31275925
13	0xbf06e4db	-0.52692956
14	0xbd9db67e	-0.07700823
15	0xbe3fb596	-0.18721613
16	0x3e29e265	0.16590269
17	0x3e60355b	0.21895353
18	0xbe96bae9	-0.29439476
19	0x3e013e39	0.12621392
20	0x3ef6e357	0.48220322
21	0x3d1014bf	0.035176035
22	0xbe228437	-0.15870748
23	0xbe0d6c52	-0.13810852
24	0x3f00ed01	0.5036164
25	0xbe0c6003	-0.137085
26	0xbe106ecc	-0.14104766
27	0x3e61ad96	0.22038874
28	0xbdd6f2e9	-0.1049555
29	0xbeb29319	-0.34877852
30	0x3e470cb0	0.19438434
31	0xbeb9f6a1	-0.36320975
32	0xbe8efba3	-0.2792636
33	0xbeac4e0f	-0.33653304
34	0x3e9447c9	0.28961018
35	0x3ba98007	0.0051727328
36	0x3e5b42e0	0.2141223
37	0x3e896bb0	0.26839972
38	0x3e412d0d	0.18864842
39	0xbe983b9f	-0.29732987
40	0x3eb1613c	0.34644496
41	0xbec56a6f	-0.38557765
42	0x3e802494	0.25027907
43	0xbdc8f615	-0.098125614
44	0x3e81f2f3	0.25380668
45	0x3ec8fe0e	0.39256328
46	0xbca42dc9	-0.020041363
47	0xbe394616	-0.18093142
48	0xbce1d3aa	-0.02756675
49	0xbe4181cc	-0.1889717
50	0x3e37699b	0.17911379
51	0x3e5d3556	0.21602377
52	0xbeb42e1d	-0.35191432
53	0xbed3041c	-0.41214073
54	0xbe3d6752	-0.18496445
55	0x3ea49a6f	0.32149073
56	0x3ead9daa	0.3390935
57	0x3d66d087	0.05635121
58	0xbe540e0f	-0.20708488
59	0xbe811d5e	-0.25217718
60	0xbe45e9cc	-0.19327468
61	0xbe84c37a	-0.25930387
62	0x3eeda422	0.46414286
63	0xbe68ba4e	-0.2272732
64	0x3e2f8eb4	0.1714428
65	0xbed16a68	-0.40901494
66	0x3ec22c33	0.37924346
67	0x3d41a625	0.04727759
68	0xbe08e6bc	-0.13369268
69	0x3eb5e000	0.3552246
70	0x3ec5bc88	0.386204
71	0x3ec39998	0.3820312
72	0x3e5d7b0f	0.21628974
73	0xbe428293	-0.18995123
74	0xbd7c1c39	-0.061550353
75	0x3c781f20	0.0151441395
76	0xbdcc7fe5	-0.099853314
77	0xbe2c31f2	-0.16815928
78	0x3e802053	0.2502466
79	0xbdd6f00e	-0.104950055
80	0xbe1e0012	-0.15429714
81	0x3e83ae31	0.25718835
82	0xbe586a44	-0.21134287
83	0x3e0f50f7	0.1399573
84	0x3db2a776	0.08723347
85	0x3d01207a	0.031525113
86	0x3dbc1c47	0.09185081
87	0xbe90ea42	-0.28303725
88	0x3e7d301b	0.24725382
89	0x3ea723ae	0.3264441
90	0x3e5a1a14	0.2129901
91	0x3e5e2046	0.21691999
92	0x3edd5aca	0.4323333
93	0xbe823d2a	-0.2543729
94	0x3e5bc9d2	0.21463707
95	0xbe0fa374	-0.14027196
96	0x3d936fe2	0.07199074
97	0x3dbf0d53	0.09328713
98	0x3be97f48	0.007125769
99	0x3e1740d7	0.14770828
100	0x3d5cdfb6	0.053924285
101	0xbd447ae2	-0.047968753
102	0x3db20a18	0.086933315
103	0x3c92e292	0.017930303
104	0xbd34193e	-0.043969385
105	0x3d814700	0.0631237
106	0xbe98c8f3	-0.29840812
107	0xbe1e21d9	-0.154426
108	0x3d8821d9	0.06647081
109	0x3cd1baed	0.025601828
110	0x3e4476e9	0.19185986
111	0xbdfca32c	-0.1233581
112	0x3c99d158	0.01877658
113	0xbd3d182c	-0.04616563
114	0x3d159b26	0.036524914
115	0x3d66cca5	0.056347508
116	0x3e1cb9eb	0.15305297
117	0x3ead2b62	0.3382216
118	0xbe304493	-0.17213659
119	0xbd71af43	-0.059005033
120	0xbe256c49	-0.16154589
121	0xbe803420	-0.25039768
122	0x3ea1428a	0.31496078
123	0x3e08c3f1	0.13355996
124	0x3dacf55c	0.08445236
125	0x3e3a19bf	0.18173884
126	0x3e3d799b	0.1850342
127	0x3d66d1ba	0.056352355
128	0xbd4aef5b	-0.049544673
129	0x3ddc9ad9	0.10771722
130	0xbdcf5d55	-0.101252235
131	0xbe4f78ea	-0.20260969
132	0xbddc67b9	-0.10761971
133	0xbe23d818	-0.16000402
134	0xbe30f73f	-0.17281817
135	0xbc3d4a57	-0.0115533685
136	0xbdcd4021	-0.10021997
137	0x3e34e396	0.17664942
138	0xbe4e13ee	-0.2012479
139	0x3d83da38	0.06438106
140	0xbdf03c4d	-0.117302515
141	0x3e9d47fb	0.3071898
142	0xbd566ebb	-0.052351695
143	0x3d5bc717	0.053656664
144	0x3dff98b9	0.124803014
145	0x3da4ae52	0.080410615
146	0x3db83103	0.08993723
147	0xbde7a196	-0.11310117
148	0x3e3d5292	0.1848853
149	0xbe8c2d6b	-0.273784
150	0xbd7b4b45	-0.06135108
151	0x3beb6e20	0.007184759
152	0x3db15ea4	0.086606294
153	0x3e51bfe5	0.20483358
154	0x3e51e191	0.20496203
155	0x3e015604	0.12630469
156	0xbe248618	-0.16066778
157	0xbe219d44	-0.15782648
158	0x3e5ffc8d	0.21873684
159	0xbd9ee57b	-0.07758614
160	0xbd6d4602	-0.057928093
161	0xbe287a30	-0.16452861
162	0xbe029219	-0.12751044
163	0xbe09c36e	-0.13453457
164	0xbdbc33c2	-0.091895595
165	0x3ebaf05e	0.3651151
166	0xbe1740dc	-0.14770836
167	0x3c5241cc	0.01283307
168	0x3e57b5a2	0.21065381
169	0x3e3a122f	0.18170999
170	0xbd6c04de	-0.05762183
171	0x3c84e04b	0.016220232
172	0x3e2846f6	0.1643332
173	0x3dfc607f	0.12323093
174	0xbd2eba77	-0.042658295
175	0x3b9d8ff5	0.004808421
176	0x3ebea41b	0.37234578
177	0x3e9496ff	0.2902145
178	0xbe1d1076	-0.1533831
179	0x3e923ed3	0.28563556
180	0x3de0b02c	0.10971102
181	0xbe859505	-0.26090255
182	0x3cb8e95c	0.022572212
183	0xbe6b2295	-0.22962411
184	0xbde0a0ad	-0.109681465
185	0xbe9d2278	-0.3069036
186	0xbddbfefc	-0.10741994
187	0x3dca636d	0.09882245
188	0xbce05984	-0.027386434
189	0xbc9d01b4	-0.019165851
190	0x3e9a7565	0.3016769
191	0x3e72c1c5	0.2370673
192	0x3d89600b	0.06707772
193	0xbe2bc0fc	-0.16772836
194	0xbe7a5b53	-0.244489
195	0xbe99b4df	-0.30020806
196	0x3e90596b	0.2819322
197	0x3ead43ef	0.33840892
198	0xbdc0f739	-0.09422154
199	0xbde7f65c	-0.11326286
200	0x3d1a5143	0.037675153
201	0x3df75794	0.12077251
202	0xbe5dbd40	-0.21654224
203	0x3e2e78fe	0.17038342
204	0x3cf507a6	0.029910874
205	0x3c0eb794	0.008710761
206	0xbe3bff32	-0.18359068
207	0xbdf4d3d7	-0.11954468
208	0xbe1c91c9	-0.15289988
209	0xbd3f9408	-0.046772033
210	0xbb8a0a79	-0.004212674
211	0xbcadce5c	-0.021216564
212	0xbc9c23b3	-0.019059991
213	0x3db88a45	0.09010748
214	0xbd9c63ae	-0.076362
215	0x3decdd35	0.115656294
216	0x3e003d2c	0.12523335
217	0xbeae39f9	-0.34028605
218	0xbe27efa2	-0.16400006
219	0x3c3182cf	0.01083441
220	0x3e200488	0.15626729
221	0xbddcf758	-0.107893646
222	0x3ebf4eea	0.37364894
223	0xbdc3f79a	-0.095687106
224	0xbd9f1817	-0.07768267
225	0x3e47d197	0.19513546
226	0xbd2128a2	-0.03934539
227	0x3e48f282	0.1962376
228	0xbd965b01	-0.07341576
229	0xbb8369b1	-0.004010402
230	0x3e2b85f4	0.16750318
231	0x3dcb9b83	0.09941771
232	0xbd643ad8	-0.05572018
233	0x3e338ba3	0.17533736
234	0xbde12a11	-0.10994352
235	0xbe945436	-0.28970498
236	0xbcf85c30	-0.030317396
237	0x3dc34286	0.09534173
238	0xbd9fa138	-0.07794422
239	0x3e74743a	0.23872462
240	0xbeb2765d	-0.3485593
241	0x3d7774ff	0.06041431
242	0xbdcb2f4c	-0.099211305
243	0xbd5e92ff	-0.054339405
244	0x3e53cd2f	0.2068374
245	0x3eb2d36b	0.34926924
246	0xbeb2869f	-0.34868333
247	0x3dacef1b	0.08444043
248	0xbc5ece00	-0.013598919
249	0x3d0f440d	0.034977008
250	0xbd4f6d4b	-0.05064134
251	0xbe179389	-0.14802374
252	0xbe5a63e3	-0.21327166
253	0xbd32f949	-0.043694768
254	0x3e1dd3fa	0.15412894
255	0xbea471f0	-0.32118177

sequential.2.Gamma.bias f4 [120]
0	0xbe2af192	-0.16693714
1	0xbc21bb86	-0.009871369
2	0xbd2cdbd9	-0.04220185
3	0x3d6afece	0.057371907
4	0xbc88c623	-0.016696041
5	0x3d1f60f7	0.038910832
6	0xbd8c6cc4	-0.06856683
7	0xbd4bf7c2	-0.049796827
8	0xbd966aed	-0.07344613
9	0x3df5d564	0.12003592
10	0xbd9c73c3	-0.07639267
11	0xbdd21f35	-0.102598585
12	0xbe95c9cb	-0.29255518
13	0xbd876ef0	-0.066129565
14	0x3b92fda0	0.004485801
15	0xbd07a046	-0.033111833
16	0xbd31cb14	-0.04340656
17	0x3d96a029	0.07354767
18	0xbd4e29fd	-0.050333012
19	0xbdceeec4	-0.10104135
20	0xbdcf288f	-0.10115158
21	0xbc52199a	-0.012823487
22	0xbd20c49a	-0.039249994
23	0xbc3f326f	-0.011669739
24	0xbc4b8a19	-0.012423062
25	0xbe8f51d7	-0.27992126
26	0xbd85bd0d	-0.06530199
27	0xbd11c8fd	-0.035592068
28	0xbd6f49d2	-0.05842001
29	0x3b8593b6	0.0040764464
30	0xbcf1cab1	-0.029515596
31	0x3d8b4f25	0.06802205
32	0xbd334747	-0.043769147
33	0x3ca58cbb	0.020208707
34	0xbd95ccef	-0.073144786
35	0x3aec562d	0.0018031053
36	0xbdb74fe5	-0.089507855
37	0xbd3adc61	-0.045620326
38	0xbc5ac4c9	-0.013352581
39	0xbd9c2886	-0.07624917
40	0xbe168bb8	-0.14701736
41	0xbce8059b	-0.028322985
42	0x3d225303	0.039629947
43	0xbd3e78aa	-0.046501793
44	0x3cd2311a	0.02565818
45	0xbdf97636	-0.1218075
46	0xbcfa45d2	-0.030550871
47	0xbd94fe89	-0.07275111
48	0xbe0f88ca	-0.14017025
49	0xbdb815d8	-0.08988541
50	0x3d84afe9	0.06478865
51	0xbdcd9a0f	-0.1003915
52	0xbcfaaa6f	-0.030598847
53	0xbd3fc2d6	-0.04681667
54	0x3ca87a22	0.02056605
55	0x3d123e76	0.0357041
56	0xbda61d99	-0.08111114
57	0xbc83fd3b	-0.01611196
58	0xbe2470c6	-0.16058645
59	0xbbdd6ffc	-0.0067577343
60	0xbda1aac4	-0.07893899
61	0xbd0f2d02	-0.034955032
62	0xbcecfe82	-0.028929953
63	0xbd7c6f3b	-0.061629515
64	0x3d7928a8	0.06082979
65	0xbbad7e1d	-0.005294575
66	0xbdc256e9	-0.09489233
67	0xbd9c4d5e	-0.07631944
68	0xbd0242d6	-0.03180202
69	0x3d4198a3	0.047264706
70	0xbdfc12aa	-0.123082474
71	0xbe659abd	-0.22422309
72	0xbe0cf5aa	-0.13765588
73	0x3e037caa	0.12840524
74	0xbd75e994	-0.06003721
75	0xbd04e09e	-0.032440774
76	0xbd32ecbf	-0.04368281
77	0xbcae3c40	-0.021268964
78	0x394b9822	0.00019416263
79	0xbd936d36	-0.07198565
80	0x3ccf9da3	0.025343722
81	0xbaa607ab	-0.001266708
82	0xbcf331df	-0.029686866
83	0x3c96657d	0.01835894
84	0x3dadb3a3	0.084815286
85	0xbd234a8b	-0.03986601
86	0xbeab48be	-0.33453935
87	0x3c175413	0.009236353
88	0x3c4237d0	0.011854127
89	0xbe235a5a	-0.15952435
90	0xbdcd8015	-0.10034195
91	0x3b2f5113	0.0026751205
92	0xbd0b033d	-0.033938635
93	0xbca38c84	-0.019964464
94	0x3b40b629	0.002940545
95	0x3d33ab97	0.043864813
96	0xbd2efa7d	-0.042719353
97	0xbd372e9c	-0.044722185
98	0x3cc622d5	0.024186531
99	0xbd7904ef	-0.06079572
100	0x3d87c1c0	0.06628752
101	0x3ca2d86c	0.019878589
102	0xbd809a9f	-0.06279492
103	0x3d3d628a	0.046236552
104	0xbe3cbd62	-0.18431619
105	0x3dce86ec	0.10084328
106	0xbd234d9d	-0.03986894
107	0x3d6563bb	0.056003314
108	0xbd23c669	-0.03998414
109	0x3dc5e86f	0.09663474
110	0xbc8252f2	-0.015908692
111	0xbe3656b7	-0.17806517
112	0xbdbb9d90	-0.09160912
113	0x3c9b8ffa	0.018989552
114	0xbd4b06b4	-0.04956694
115	0xbd62baf9	-0.055354092
116	0x3d29007b	0.041260224
117	0xbde7ba61	-0.11314846
118	0x3cc01698	0.023448274
119	0xbcb5a55f	-0.022173582

sequential.2.Lambda.weight f4 [120, 80]
0	0x3de8cf5f	0.11367678
1	0xbe19cef2	-0.1502035
2	0x3cc1971b	0.023631623
3	0xbe27b615	-0.16378053
4	0xbdc214dd	-0.094766356
5	0x3e3bfc54	0.18357974
6	0x3ddb1455	0.106972374
7	0x3e0de2d2	0.13856056
8	0x3dd4ca27	0.1039012
9	0xbd374218	-0.044740766
10	0xbe88b629	-0.26701477
11	0xbcdd5bdb	-0.02702134
12	0xbea07ce7	-0.31345293
13	0xbb7bb77b	-0.0038408923
14	0x3e2538ed	0.16134997
15	0xbe223da4	-0.15843827
16	0xbe075bf7	-0.13218676
17	0xbee276ff	-0.44231412
18	0xbd79f986	-0.06102898
19	0x3d7bd55b	0.06148277
20	0x3deafb53	0.114737175
21	0x3dfe8faf	0.12429749
22	0xbd373415	-0.044727404
23	0x3e326649	0.17421831
24	0xbdc05eb0	-0.0939306
25	0x3ebf82bb	0.37404427
26	0x3d6a68b4	0.05722876
27	0xbdbd0f4d	-0.09231434
28	0xbb2ff0d8	-0.0026846435
29	0x3d739ae1	0.059473876
30	0x3e668f06	0.22515497
31	0xbd9eb1a1	-0.07748724
32	0xbe749e8b	-0.23888604
33	0xbe0ff051	-0.14056517
34	0xbeccdad0	-0.4001069
35	0xbe1c6369	-0.15272297
36	0x3d9b955a	0.07596846
37	0xbce78c9e	-0.028265294
38	0x3b1f0649	0.002426522
39	0x3bd15ed8	0.00638948
40	0xbcaeeb8e	-0.021352556
41	0xbde58254	-0.11206499
42	0xbe660560	-0.22462988
43	0x3dd30cb0	0.10305154
44	0x3e669808	0.22518933
45	0xbe76e68c	-0.24111384
46	0xbd46d3b2	-0.048541732
47	0xbe84ab4b	-0.25911936
48	0x3e6cf528	0.23140395
49	0xbd6228cb	-0.055214684
50	0xbe3af6aa	-0.18258157
51	0xbc176773	-0.009240973
52	0x3dc9e6e0	0.09858489
53	0x3e7552d4	0.23957378
54	0x3d1ae791	0.037818495
55	0x3e289b57	0.16465507
56	0xbdfb7937	-0.12278979
57	0x3e2f0974	0.1709345
58	0xbdb7860b	-0.089611135
59	0xba854ce2	-0.0010170008
60	0xbe6402ee	-0.22266743
61	0xbc3a3f9a	-0.011367703
62	0x3ce8a239	0.028397666
63	0x3e3d239d	0.18470617
64	0xbe2c3fd6	-0.16821226
65	0xbd154075	-0.036438424
66	0xbc18978e	-0.009313477
67	0x3dd76c1b	0.10518666
68	0xbd18aa29	-0.037271652
69	0x3d11d7d8	0.035606235
70	0x3e003f2e	0.12524101
71	0xbdcd8f80	-0.10037136
72	0x3c8f2ecc	0.01747837
73	0xbe540aa0	-0.20707178
74	0xbe2a3881	-0.16623117
75	0xbd7b0891	-0.061287466
76	0x3eb5cb4b	0.35506663
77	0xbd7e8237	-0.0621359
78	0xbd88f2b1	-0.06686915
79	0x3e821101	0.25403598
80	0xbebd8e04	-0.37022412
81	0xbe34b045	-0.17645366
82	0x3cc21bf1	0.023694964
83	0x3d718c1c	0.05897151
84	0xbce9ba2c	-0.028531156
85	0x3dcf6d52	0.10128273
86	0x3da0bfc9	0.0784908
87	0x3e571cda	0.210071
88	0xbd816abc	-0.06319186
89	0xbe8244e8	-0.25443196
90	0xbd18c11e	-0.037293546
91	0x3e651195	0.22369988
92	0xbbb7624b	-0.005596434
93	0x3e106ed4	0.14104778
94	0x3d062966	0.032754324
95	0xbda4206f	-0.08013999
96	0xbe734afa	-0.2375907
97	0xbd6a76cc	-0.0572422
98	0xbd3de685	-0.04636242
99	0xbdd008cf	-0.1015793
100	0xbe329653	-0.17440157
101	0xbcc3d10f	-0.023903398
102	0x3d7bfd96	0.061521135
103	0xbd238de5	-0.039930243
104	0x3dc8d53b	0.098062955
105	0x3e9f74ed	0.31143895
106	0x3e1424a1	0.14467098
107	0xbe4bd6a4	-0.19906098
108	0xbd1e13cf	-0.03859311
109	0x3e04d151	0.12970473
110	0xbeb2e730	-0.34942007
111	0xbe40b128	-0.1881758
112	0xbe5ab79d	-0.21359105
113	0xbc00b79f	-0.007856279
114	0x3dfc571a	0.12321301
115	0x3be27750	0.006911196
116	0x3ea396eb	0.3195108
117	0xbe2fc969	-0.17166676
118	0x3e032e50	0.12810636
119	0xbe47e152	-0.19519547
120	0x3d2161a5	0.03939976
121	0x3da7b20f	0.08188259
122	0x3da1fb90	0.0790931
123	0x3dea0146	0.11426024
124	0x3e0a9bdc	0.13536018
125	0xbe363d68	-0.17796862
126	0xbd920b90	-0.071311116
127	0xbcae3097	-0.021263404
128	0x3e4c7aa4	0.19968659
129	0xbdbd878c	-0.09254369
130	0xbdf7515b	-0.12076064
131	0x3bb2a2ed	0.005451551
132	0x3db961b0	0.090518355
133	0xbcf50eb9	-0.029914247
134	0x3dcaa4de	0.09894727
135	0xbd7527a6	-0.059852265
136	0x3e9178dc	0.2841252
137	0x3e37fdca	0.17967907
138	0xbb97102a	-0.004610081
139	0x3d89854b	0.06714877
140	0xbe1eab2f	-0.15494989
141	0xbd80c67d	-0.06287859
142	0xbe0c98d7	-0.13730179
143	0x3e4608ac	0.19339246
144	0xbe13b900	-0.1442604
145	0xbc320717	-0.010865948
146	0x3c7034c7	0.014661021
147	0x3e062b53	0.13102464
148	0xbdd0792b	-0.10179361
149	0x3ec7c4d0	0.39017344
150	0x3db0ad7b	0.08626839
151	0xbe931e41	-0.2873402
152	0xbe51b8da	-0.20480672
153	0x3d9d4021	0.07678247
154	0xbe6d8272	-0.23194292
155	0x3cc04b8d	0.023473525
156	0xbe5b40ee	-0.21411487
157	0xbd564c28	-0.052318722
158	0x3d2f1389	0.04274324
159	0xbe0ec060	-0.13940573
160	0x3e5e305d	0.21698137
161	0xbd78f0a1	-0.060776357
162	0xbe4673af	-0.19380067
163	0xbdbabee3	-0.0911844
164	0xbe199594	-0.14998466
165	0xbd5d8f3c	-0.054091677
166	0x3d502604	0.050817505
167	0xbdb40388	-0.08789736
168	0x3c283703	0.010267022
169	0xbd676224	-0.05649008
170	0xbc218364	-0.009857986
171	0xbe32e71b	-0.17470972
172	0x3ddc18f0	0.10746944
173	0xbe1a88e7	-0.15091287
174	0xbe2c14cc	-0.16804808
175	0x3de33c81	0.110955246
176	0xbe8809a6	-0.2656986
177	0x3d33dd19	0.043912027
178	0x3dbf1636	0.09330408
179	0x3d9871e8	0.07443601
180	0x3e9a2ce4	0.30112374
181	0x3e19f929	0.15036453
182	0x3c1ebf0c	0.009689104
183	0x3e7487e9	0.2387997
184	0xbe8c51d5	-0.27406183
185	0xbec61a72	-0.3869205
186	0x3db29871	0.08720482
187	0x3e0ceccc	0.13762206
188	0xbdd7c5b9	-0.105357595
189	0xbc4eff08	-0.012634046
190	0xbe0f8c55	-0.14018376
191	0xbd6ed925	-0.058312554
192	0xbd85186f	-0.06498801
193	0x3d4610de	0.04835593
194	0x3d8c1783	0.06840422
195	0xbe90fb31	-0.28316644
196	0x3e215d7d	0.15758319
197	0xbd0d8f85	-0.0345607
198	0x3e5b91e0	0.21442366
199	0xbe7555fa	-0.23958579
200	0x3e19228b	0.14954583
201	0xbd9a0a8a	-0.075215414
202	0xbba446e7	-0.005013335
203	0x3dca20d4	0.09869543
204	0xbe7764a6	-0.24159488
205	0x3e44acf1	0.19206597
206	0x3ccf5407	0.025308622
207	0xbd91e072	-0.07122888
208	0xbe0d56e6	-0.1380268
209	0xbd332958	-0.0437406
210	0x3d30838d	0.043094207
211	0x3d53a377	0.051669564
212	0xbe3a4d16	-0.18193468
213	0x3ca25177	0.019814236
214	0xbe059467	-0.13044892
215	0xbe8e5144	-0.27796376
216	0xbe1a7db1	-0.1508701
217	0xbbf7cd96	-0.0075623496
218	0x3e2bff08	0.16796505
219	0xbdd7eca7	-0.10543185
220	0x3e18bba8	0.14915335
221	0xbee6a6b8	-0.4504907
222	0x3de4c63e	0.11170624
223	0x3e031bc2	0.12803558
224	0x3e107eb9	0.14110841
225	0xbe28b7e5	-0.164764
226	0xbdfdd0d1	-0.12393344
227	0x3dc301db	0.09521838
228	0xbdfca754	-0.12336603
229	0x3dbda729	0.09260399
230	0x3d9cac0f	0.07650005
231	0xbe3bef7a	-0.18353072
232	0x3d6c0b05	0.057627697
233	0x3d35a949	0.044350896
234	0x3d3246f2	0.04352469
235	0x3dbd02e5	0.09229068
236	0x3cde7ba2	0.027158562
237	0xbbcbab2d	-0.006215474
238	0xbd742257	-0.05960306
239	0x3de98757	0.11402767
240	0x3da2638b	0.079291426
241	0x3dad6c37	0.08467906
242	0xbded5113	-0.11587729
243	0xbe1f30f9	-0.15546025
244	0x3caf0fa5	0.021369765
245	0xbe143e6b	-0.14476936
246	0xbeb716cd	-0.35759583
247	0x3e4de3fd	0.20106502
248	0x3e3eaaf7	0.18619905
249	0x3c2dd64a	0.0106101725
250	0x3b6b4cd2	0.0035903943
251	0x3e12fde5	0.14354666
252	0x3c0caedd	0.0085866125
253	0x3e0238ad	0.12716933
254	0x3e1432fc	0.14472574
255	0xbd26687a	-0.04062698

sequential.2.Lambda.bias f4 [120]
0	0xbe2af192	-0.16693714
1	0xbc21bb86	-0.009871369
2	0xbd2cdbd9	-0.04220185
3	0x3d6afece	0.057371907
4	0xbc88c623	-0.016696041
5	0x3d1f60f7	0.038910832
6	0xbd8c6cc4	-0.06856683
7	0xbd4bf7c2	-0.049796827
8	0xbd966aed	-0.07344613
9	0x3df5d564	0.12003592
10	0xbd9c73c3	-0.07639267
11	0xbdd21f35	-0.102598585
12	0xbe95c9cb	-0.29255518
13	0xbd876ef0	-0.066129565
14	0x3b92fda0	0.004485801
15	0xbd07a046	-0.033111833
16	0xbd31cb14	-0.04340656
17	0x3d96a029	0.07354767
18	0xbd4e29fd	-0.050333012
19	0xbdceeec4	-0.10104135
20	0xbdcf288f	-0.10115158
21	0xbc52199a	-0.012823487
22	0xbd20c49a	-0.039249994
23	0xbc3f326f	-0.011669739
24	0xbc4b8a19	-0.012423062
25	0xbe8f51d7	-0.27992126
26	0xbd85bd0d	-0.06530199
27	0xbd11c8fd	-0.035592068
28	0xbd6f49d2	-0.05842001
29	0x3b8593b6	0.0040764464
30	0xbcf1cab1	-0.029515596
31	0x3d8b4f25	0.06802205
32	0xbd334747	-0.043769147
33	0x3ca58cbb	0.020208707
34	0xbd95ccef	-0.073144786
35	0x3aec562d	0.0018031053
36	0xbdb74fe5	-0.089507855
37	0xbd3adc61	-0.045620326
38	0xbc5ac4c9	-0.013352581
39	0xbd9c2886	-0.07624917
40	0xbe168bb8	-0.14701736
41	0xbce8059b	-0.028322985
42	0x3d225303	0.039629947
43	0xbd3e78aa	-0.046501793
44	0x3cd2311a	0.02565818
45	0xbdf97636	-0.1218075
46	0xbcfa45d2	-0.030550871
47	0xbd94fe89	-0.07275111
48	0xbe0f88ca	-0.14017025
49	0xbdb815d8	-0.08988541
50	0x3d84afe9	0.06478865
51	0xbdcd9a0f	-0.1003915
52	0xbcfaaa6f	-0.030598847
53	0xbd3fc2d6	-0.04681667
54	0x3ca87a22	0.02056605
55	0x3d123e76	0.0357041
56	0xbda61d99	-0.08111114
57	0xbc83fd3b	-0.01611196
58	0xbe2470c6	-0.16058645
59	0xbbdd6ffc	-0.0067577343
60	0xbda1aac4	-0.07893899
61	0xbd0f2d02	-0.034955032
62	0xbcecfe82	-0.028929953
63	0xbd7c6f3b	-0.061629515
64	0x3d7928a8	0.06082979
65	0xbbad7e1d	-0.005294575
66	0xbdc256e9	-0.09489233
67	0xbd9c4d5e	-0.07631944
68	0xbd0242d6	-0.03180202
69	0x3d4198a3	0.047264706
70	0xbdfc12aa	-0.123082474
71	0xbe659abd	-0.22422309
72	0xbe0cf5aa	-0.13765588
73	0x3e037caa	0.12840524
74	0xbd75e994	-0.06003721
75	0xbd04e09e	-0.032440774
76	0xbd32ecbf	-0.04368281
77	0xbcae3c40	-0.021268964
78	0x394b9822	0.00019416263
79	0xbd936d36	-0.07198565
80	0x3ccf9da3	0.025343722
81	0xbaa607ab	-0.001266708
82	0xbcf331df	-0.029686866
83	0x3c96657d	0.01835894
84	0x3dadb3a3	0.084815286
85	0xbd234a8b	-0.03986601
86	0xbeab48be	-0.33453935
87	0x3c175413	0.009236353
88	0x3c4237d0	0.011854127
89	0xbe235a5a	-0.15952435
90	0xbdcd8015	-0.10034195
91	0x3b2f5113	0.0026751205
92	0xbd0b033d	-0.033938635
93	0xbca38c84	-0.019964464
94	0x3b40b629	0.002940545
95	0x3d33ab97	0.043864813
96	0xbd2efa7d	-0.042719353
97	0xbd372e9c	-0.044722185
98	0x3cc622d5	0.024186531
99	0xbd7904ef	-0.06079572
100	0x3d87c1c0	0.06628752
101	0x3ca2d86c	0.019878589
102	0xbd809a9f	-0.06279492
103	0x3d3d628a	0.046236552
104	0xbe3cbd62	-0.18431619
105	0x3dce86ec	0.10084328
106	0xbd234d9d	-0.03986894
107	0x3d6563bb	0.056003314
108	0xbd23c669	-0.03998414
109	0x3dc5e86f	0.09663474
110	0xbc8252f2	-0.015908692
111	0xbe3656b7	-0.17806517
112	0xbdbb9d90	-0.09160912
113	0x3c9b8ffa	0.018989552
114	0xbd4b06b4	-0.04956694
115	0xbd62baf9	-0.055354092
116	0x3d29007b	0.041260224
117	0xbde7ba61	-0.11314846
118	0x3cc01698	0.023448274
119	0xbcb5a55f	-0.022173582

sequential.2.bn.running_mean f4 [120]
0	0x00000000	0.0
1	0x00000000	0.0
2	0x00000000	0.0
3	0x00000000	0.0
4	0x00000000	0.0
5	0x00000000	0.0
6	0x00000000	0.0
7	0x00000000	0.0
8	0x00000000	0.0
9	0x00000000	0.0
10	0x00000000	0.0
11	0x00000000	0.0
12	0x00000000	0.0
13	0x00000000	0.0
14	0x00000000	0.0
15	0x00000000	0.0
16	0x00000000	0.0
17	0x00000000	0.0
18	0x00000000	0.0
19	0x00000000	0.0
20	0x00000000	0.0
21	0x00000000	0.0
22	0x00000000	0.0
23	0x00000000	0.0
24	0x00000000	0.0
25	0x00000000	0.0
26	0x00000000	0.0
27	0x00000000	0.0
28	0x00000000	0.0
29	0x00000000	0.0
30	0x00000000	0.0
31	0x00000000	0.0
32	0x00000000	0.0
33	0x00000000	0.0
34	0x00000000	0.0
35	0x00000000	0.0
36	0x00000000	0.0
37	0x00000000	0.0
38	0x00000000	0.0
39	0x00000000	0.0
40	0x00000000	0.0
41	0x00000000	0.0
42	0x00000000	0.0
43	0x00000000	0.0
44	0x00000000	0.0
45	0x00000000	0.0
46	0x00000000	0.0
47	0x00000000	0.0
48	0x00000000	0.0
49	0x00000000	0.0
50	0x00000000	0.0
51	0x00000000	0.0
52	0x00000000	0.0
53	0x00000000	0.0
54	0x00000000	0.0
55	0x00000000	0.0
56	0x00000000	0.0
57	0x00000000	0.0
58	0x00000000	0.0
59	0x00000000	0.0
60	0x00000000	0.0
61	0x00000000	0.0
62	0x00000000	0.0
63	0x00000000	0.0
64	0x00000000	0.0
65	0x00000000	0.0
66	0x00000000	0.0
67	0x00000000	0.0
68	0x00000000	0.0
69	0x00000000	0.0
70	0x00000000	0.0
71	0x00000000	0.0
72	0x00000000	0.0
73	0x00000000	0.0
74	0x00000000	0.0
75	0x00000000	0.0
76	0x00000000	0.0
77	0x00000000	0.0
78	0x00000000	0.0
79	0x00000000	0.0
80	0x00000000	0.0
81	0x00000000	0.0
82	0x00000000	0.0
83	0x00000000	0.0
84	0x00000000	0.0
85	0x00000000	0.0
86	0x00000000	0.0
87	0x00000000	0.0
88	0x00000000	0.0
89	0x00000000	0.0
90	0x00000000	0.0
91	0x00000000	0.0
92	0x00000000	0.0
93	0x00000000	0.0
94	0x00000000	0.0
95	0x00000000	0.0
96	0x00000000	0.0
97	0x00000000	0.0
98	0x00000000	0.0
99	0x00000000	0.0
100	0x00000000	0.0
101	0x00000000	0.0
102	0x00000000	0.0
103	0x00000000	0.0
104	0x00000000	0.0
105	0x00000000	0.0
106	0x00000000	0.0
107	0x00000000	0.0
108	0x00000000	0.0
109	0x00000000	0.0
110	0x00000000	0.0
111	0x00000000	0.0
112	0x00000000	0.0
113	0x00000000	0.0
114	0x00000000	0.0
115	0x00000000	0.0
116	0x00000000	0.0
117	0x00000000	0.0
118	0x00000000	0.0
119	0x00000000	0.0

sequential.2.bn.running_var f4 [120]
0	0x3f800000	1.0
1	0x3f800000	1.0
2	0x3f800000	1.0
3	0x3f800000	1.0
4	0x3f800000	1.0
5	0x3f800000	1.0
6	0x3f800000	1.0
7	0x3f800000	1.0
8	0x3f800000	1.0
9	0x3f800000	1.0
10	0x3f800000	1.0
11	0x3f800000	1.0
12	0x3f800000	1.0
13	0x3f800000	1.0
14	0x3f800000	1.0
15	0x3f800000	1.0
16	0x3f800000	1.0
17	0x3f800000	1.0
18	0x3f800000	1.0
19	0x3f800000	1.0
20	0x3f800000	1.0
21	0x3f800000	1.0
22	0x3f800000	1.0
23	0x3f800000	1.0
24	0x3f800000	1.0
25	0x3f800000	1.0
26	0x3f800000	1.0
27	0x3f800000	1.0
28	0x3f800000	1.0
29	0x3f800000	1.0
30	0x3f800000	1.0
31	0x3f800000	1.0
32	0x3f800000	1.0
33	0x3f800000	1.0
34	0x3f800000	1.0
35	0x3f800000	1.0
36	0x3f800000	1.0
37	0x3f800000	1.0
38	0x3f800000	1.0
39	0x3f800000	1.0
40	0x3f800000	1.0
41	0x3f800000	1.0
42	0x3f800000	1.0
43	0x3f800000	1.0
44	0x3f800000	1.0
45	0x3f800000	1.0
46	0x3f800000	1.0
47	0x3f800000	1.0
48	0x3f800000	1.0
49	0x3f800000	1.0
50	0x3f800000	1.0
51	0x3f800000	1.0
52	0x3f800000	1.0
53	0x3f800000	1.0
54	0x3f800000	1.0
55	0x3f800000	1.0
56	0x3f800000	1.0
57	0x3f800000	1.0
58	0x3f800000	1.0
59	0x3f800000	1.0
60	0x3f800000	1.0
61	0x3f800000	1.0
62	0x3f800000	1.0
63	0x3f800000	1.0
64	0x3f800000	1.0
65	0x3f800000	1.0
66	0x3f800000	1.0
67	0x3f800000	1.0
68	0x3f800000	1.0
69	0x3f800000	1.0
70	0x3f800000	1.0
71	0x3f800000	1.0
72	0x3f800000	1.0
73	0x3f800000	1.0
74	0x3f800000	1.0
75	0x3f800000	1.0
76	0x3f800000	1.0
77	0x3f800000	1.0
78	0x3f800000	1.0
79	0x3f800000	1.0
80	0x3f800000	1.0
81	0x3f800000	1.0
82	0x3f800000	1.0
83	0x3f800000	1.0
84	0x3f800000	1.0
85	0x3f800000	1.0
86	0x3f800000	1.0
87	0x3f800000	1.0
88	0x3f800000	1.0
89	0x3f800000	1.0
90	0x3f800000	1.0
91	0x3f800000	1.0
92	0x3f800000	1.0
93	0x3f800000	1.0
94	0x3f800000	1.0
95	0x3f800000	1.0
96	0x3f800000	1.0
97	0x3f800000	1.0
98	0x3f800000	1.0
99	0x3f800000	1.0
100	0x3f800000	1.0
101	0x3f800000	1.0
102	0x3f800000	1.0
103	0x3f800000	1.0
104	0x3f800000	1.0
105	0x3f800000	1.0
106	0x3f800000	1.0
107	0x3f800000	1.0
108	0x3f800000	1.0
109	0x3f800000	1.0
110	0x3f800000	1.0
111	0x3f800000	1.0
112	0x3f800000	1.0
113	0x3f800000	1.0
114	0x3f800000	1.0
115	0x3f800000	1.0
116	0x3f800000	1.0
117	0x3f800000	1.0
118	0x3f800000	1.0
119	0x3f800000	1.0
