Models/Z_100GeV_200.pth (torch, 197950 bytes, 36 tensors)

sequential.0.Gamma.weight f4 [80, 5]
000000 34 1a b8 3e 4b 6b 36 3f d3 69 2c 3f f5 c1 bc 3e
       0.3595749 0.71257466 0.67348975 0.36866727
000010 ea 1c 07 3f 2e fc 62 3f 19 00 26 40 88 f5 3a 3f
       0.52778494 0.88666046 2.593756 0.730309
000020 e6 23 74 3f 75 16 0a be 79 cf f1 3e 32 08 91 bf
       0.95367277 -0.13485129 0.47228602 -1.1330626
000030 b0 74 0d be b7 43 ad be 04 6b 2e be 20 34 d1 bf
       -0.13814044 -0.33840725 -0.1703301 -1.6344032
000040 0b 67 83 3e 32 77 c1 3e 8b ab 2b bd 05 1f 77 bd
       0.25664553 0.3778625 -0.041911643 -0.060332317
000050 c1 f8 3b 3f da 33 0e bf db 8c ae 3e 32 50 90 3f
       0.73426443 -0.5554787 0.3409184 1.1274474
000060 d9 e1 b7 be f7 a1 16 bd 56 19 18 3f bd 9e 43 be
       -0.35914496 -0.036775555 0.5941366 -0.19103523
000070 cb b9 c0 3e 44 6c 54 3f 99 0e 7c be ac 51 56 3f
       0.3764175 0.829777 -0.24614944 0.8371837
000080 2c 75 83 be b1 55 06 bf 08 32 41 3e a4 14 cf 3e
       -0.25675333 -0.52474505 0.18866742 0.40445435
000090 15 01 00 3f 80 44 b4 bd ce 74 61 3f f9 6b b6 bd
       0.5000165 -0.08802128 0.88068855 -0.08907313
0000a0 24 93 c0 bf 36 dd 19 3f 12 05 09 bd 42 5e 9f be
       -1.5044904 0.60103166 -0.0334521 -0.311266
0000b0 45 aa e6 3e b7 3b ef 3e a4 95 63 3f 55 dd 47 3f
       0.4505178 0.46725246 0.8890021 0.780721
0000c0 6e fc 0e be b2 e1 87 3e 9b dc ee bd 9f 90 bf 3f
       -0.13963482 0.2653938 -0.11663171 1.496601
0000d0 f6 95 21 bf d7 d3 b9 3e 94 9d 9e bf 57 7d 67 bf
       -0.6311945 0.36294433 -1.2391839 -0.9042563
0000e0 db e0 15 be 6a db 9f be a7 c0 15 3e 2e ad f5 3e
       -0.14636557 -0.31222087 0.14624272 0.47983688
0000f0 21 ba ab be 16 37 65 b9 94 3f 59 3f 2e e0 96 be
       -0.33540443 -0.00021859663 0.8486264 -0.2946791
000100 7c 26 15 bf c1 bb 6d bf f2 52 e7 3f 0e 34 23 be
       -0.5826185 -0.92864615 1.8072188 -0.15937826
000110 91 aa 5b bf d9 80 84 3e 52 ab 4e be bb c9 1b be
       -0.8580714 0.25879553 -0.20182541 -0.15213673
000120 ee 5f f6 be b4 af 41 bd 3c ca bb be 88 86 fa 3c
       -0.48120064 -0.047286704 -0.3667773 0.030581728
000130 24 13 6a 3e ec 2f 68 3f 0a 21 df 3e 35 e3 05 3f
       0.22858864 0.9069812 0.43579894 0.52299815
000140 b8 53 b1 3f 13 b0 94 3f a4 f5 93 be 10 92 9e bf
       1.3853674 1.1616234 -0.28898346 -1.2388325
000150 bb c9 60 3e db d1 25 be 21 46 2a be 64 e7 ba be
       0.21951954 -0.16193335 -0.16628315 -0.36504662
000160 9b 64 8a 3e 53 ee d2 be 32 11 b0 3f 77 0f d2 3f
       0.2702988 -0.41197452 1.3755248 1.641097
000170 62 38 c5 3e fd 90 7e 3f bf af d6 bc 04 fd b4 be
       0.3851958 0.99439985 -0.02620685 -0.35349286
000180 8e 30 02 3f f4 68 e7 bb 65 f6 fc bc 96 da 9a be
       0.5085534 -0.007062072 -0.030879209 -0.30244893
000190 54 44 da be e5 9b ae be 63 32 e4 3e a0 c1 aa be
       -0.42630255 -0.34103313 0.44569692 -0.3335085
0001a0 8d 32 8d bd c5 08 e3 3d 90 29 1c bf 01 ea ef be
       -0.068944074 0.11085657 -0.6100092 -0.46858218
0001b0 11 1f b4 be 85 fc 9c 3d 89 92 a6 be 3f 58 0b 3f
       -0.35179952 0.07665352 -0.32533672 0.5443153
0001c0 98 da 85 be cc 32 73 3e 61 88 ea bd 2c f7 02 3f
       -0.26143336 0.23749846 -0.114517935 0.51158404
0001d0 39 99 23 3f e1 3e 15 be 09 86 70 3f 9c 67 07 bf
       0.63905674 -0.14574768 0.9395452 -0.5289247
0001e0 69 d5 b3 bd f0 3d ca be fd 78 25 3e 94 d6 86 3e
       -0.08780939 -0.3950038 0.16159435 0.26335585
0001f0 6e c8 3c be 37 d9 66 3f a6 d3 24 bf 5e 3f 00 bd
       -0.18435833 0.90175194 -0.6438545 -0.03131043
000200 e9 7a f9 3e 60 10 7a be 58 38 23 3f ff 5d fb be
       0.48726586 -0.24420309 0.6375785 -0.4909515
000210 70 5f 2e bf 60 e3 c3 3e 25 51 bd bd 2c 81 aa bd
       -0.68114376 0.3825941 -0.09243993 -0.08325419
000220 f4 a3 a2 3f e5 4d 0c bf 4e be 9c bf bf 95 55 be
       1.2706285 -0.5480636 -1.2245576 -0.20857905
000230 c0 cf a6 3f 02 31 85 3f f2 23 08 3f d8 9b 0a bf
       1.303215 1.0405581 0.5317985 -0.5414405
000240 16 96 31 bf da 64 96 bd 76 dc 86 3e 21 b6 1e bf
       -0.6936964 -0.07343455 0.26340073 -0.61996657
000250 d4 88 ec bf 31 6f 3f 3f f3 5c de be 32 19 66 bf
       -1.8479257 0.7477904 -0.4343029 -0.89882195
000260 f3 68 34 be d6 d5 1c 3f 52 db 32 3e 11 02 8e 3f
       -0.1761816 0.6126379 0.17466477 1.1094381
000270 73 5a 05 be 88 04 53 bf 35 e8 60 3f 27 2c 95 3f
       -0.13022785 -0.8242879 0.8785432 1.1654099
000280 6c d4 19 3f 87 a5 09 be 77 93 9a bd 36 c7 87 3e
       0.60089755 -0.1344205 -0.07547658 0.26519173
000290 dd 2d f0 3e 24 ff 06 3f 6a d0 24 3f 11 ec f6 3e
       0.4690999 0.52733064 0.64380515 0.4822698
0002a0 3f 29 bf be 1e 78 73 3d 86 2a 17 3f 27 9a 48 3e
       -0.37336156 0.059440725 0.5904926 0.19590054
0002b0 b4 c2 a4 3f bb 93 76 3e bf 32 ce be 8e f9 fd bc
       1.2871919 0.24079792 -0.4027309 -0.031002786
0002c0 4f 57 cb 3e fe 90 88 3e b1 0c 7f bf 94 fb 16 3f
       0.3971505 0.2667312 -0.9962874 0.5897763
0002d0 96 99 c9 3d 9f d8 85 3d 2e 6d 47 bc d7 fa 15 bf
       0.09843747 0.06535458 -0.012172027 -0.58585876
0002e0 ad 57 72 3e 0e 3b 6c 3f 3d 72 0a bf 83 cc cf 3d
       0.23666258 0.9227761 -0.54080564 0.101464294
0002f0 81 01 35 3f 4d ec b7 bd aa 56 23 be db 3b 5a 3f
       0.7070542 -0.08980618 -0.15951028 0.8524758
000300 39 ce 2d 3f ca 3e 22 3f f1 c7 1b bf 25 1c 0d 3d
       0.67892796 0.6337706 -0.6085196 0.03445067
000310 1a 38 c3 bd ad b1 0c bf 74 36 bd 3f f2 d0 e4 bc
       -0.09532185 -0.5495861 1.4782243 -0.027931664
000320 4e 64 0a be 26 bc 2a 3e 58 7f 44 3f d1 47 02 3f
       -0.13514826 0.16673335 0.7675681 0.50890833
000330 a4 5d 4a 3f 8b ce 7b 3e 80 49 dc be f6 bd c7 be
       0.79049134 0.24590509 -0.43024826 -0.39012116
000340 07 04 7e 3f 16 cf f0 be fa 80 ab 3e 8f 9e cd 3e
       0.99224895 -0.47032994 0.3349684 0.40160033
000350 16 7d 91 3e 4a cc b3 be 98 a7 3a be 73 e2 7b 3f
       0.28415745 -0.35116798 -0.18227994 0.9839241
000360 d6 c0 1c 3d 2c d2 58 be f9 59 3d bf 35 e8 01 3e
       0.03826984 -0.21173924 -0.7396541 0.12686236
000370 c4 5e 36 3f a7 c3 1c 3e 41 cc 51 3f cb 79 02 3e
       0.7123835 0.1530901 0.8195229 0.12741773
000380 d1 a4 88 bf 5e 1b a3 3f 84 61 53 3e c7 e2 9b 3e
       -1.0675298 1.2742727 0.20642668 0.30446455
000390 7b 3a 72 be 89 fa d5 3e ce bd 01 bf d7 83 09 bd
       -0.23655121 0.41792706 -0.50680244 -0.033572998
0003a0 0d c1 c1 be af 39 33 be db 69 b2 be 70 cf 0e 3f
       -0.378426 -0.17502473 -0.34846386 0.55785275
0003b0 ae 0a 6a 3b 60 69 26 3f 3c 0f ed 3d 7a 3d dd 3f
       0.0035711932 0.6500454 0.11575171 1.7284386
0003c0 02 41 82 3d 16 97 d1 3f 79 60 a9 be 3f 16 a4 be
       0.063600555 1.6374233 -0.33081415 -0.32048222
0003d0 4e a2 92 bf 0b 70 41 bf 0c f4 12 bf ea 88 1c 3f
       -1.1455781 -0.7556159 -0.57403636 0.61146414
0003e0 cc 42 fe 3e 68 85 bd bd fc 2f a9 3f 17 5c 0f 3e
       0.49660337 -0.09253961 1.3217769 0.13999973
0003f0 55 76 31 3f 27 95 7e be 6a 11 1a bf b4 ac 66 be
       0.69321185 -0.24861585 -0.6018282 -0.22526819

sequential.0.Gamma.bias f4 [80]
000000 86 2d d1 be 78 69 18 3f 3e 0e b9 be e1 54 4b 3c
       -0.40855044 0.5953593 -0.36143678 0.012410373
000010 a6 07 d0 be 7b f2 3b 3d 93 57 fd bc d1 9a 06 bf
       -0.40630835 0.045885544 -0.030925548 -0.5257998
000020 ca f3 87 3d 3a 58 bc be da f6 29 bf c9 49 23 bf
       0.06638296 -0.36786062 -0.6639229 -0.6378446
000030 19 c4 a1 3c fa 4a 2e 3e 7a d5 1b be 2f eb bc be
       0.019746827 0.17020789 -0.15218154 -0.3689818
000040 86 2d 9f be 08 94 8a be fe 4f 48 be 9d d4 25 bf
       -0.3108942 -0.27066064 -0.19561765 -0.6477755
000050 59 f8 42 3e 24 bf 31 bf 52 85 10 bf f9 b2 17 bf
       0.1904005 -0.6943228 -0.5645343 -0.59257466
000060 5b 1d 1d bf 10 fb 2b 3d 3a 8c be be db 15 e7 bd
       -0.6137292 0.04198748 -0.3721636 -0.112834655
000070 04 e0 76 be c4 98 8d be a8 bd ed be fa 08 43 3d
       -0.24108893 -0.27655613 -0.4643376 0.047615983
000080 f7 bf 90 be 12 1b 98 be ab da fb 3e 30 b3 21 bd
       -0.28271458 -0.29708153 0.49190268 -0.039477527
000090 56 5b 39 bf 5c 1f 5e 3d f4 54 fb 3d ed ef e4 bd
       -0.7240499 0.054229125 0.12272063 -0.11178575
0000a0 0c ea 11 be 03 ba be be 6e 77 8a be 3e 17 c4 be
       -0.14249438 -0.3725129 -0.27044243 -0.38298982
0000b0 a4 d6 fa 3d d9 60 93 3e 54 d5 e1 be a3 8c 8e be
       0.12247971 0.28784826 -0.4410807 -0.27841672
0000c0 f7 17 9b be b8 a9 ac be 5b 05 80 3c 9a 12 c2 be
       -0.3029172 -0.33723235 0.015627554 -0.37904817
0000d0 02 81 c8 3e d0 a7 a6 3d 70 36 ac be b9 d5 39 bd
       0.39160925 0.081374764 -0.33635283 -0.045369837
0000e0 ca fe c5 3c 50 e1 d7 be 8c 28 ea bd ac 8f 93 be
       0.024169344 -0.42164087 -0.11433515 -0.2882055
0000f0 91 40 01 bf 90 e5 88 be 31 ac e7 be e6 c4 e6 bd
       -0.50489146 -0.26737642 -0.4524856 -0.11268024
000100 31 77 bd bd 03 5d a3 3e e2 65 ba be 32 13 ef 3d
       -0.092512496 0.319069 -0.36405855 0.11673583
000110 40 35 32 3e 08 86 6e be eb 75 f2 be 14 c2 b4 3b
       0.17403126 -0.23293316 -0.4735559 0.0055163
000120 6b 60 38 3e bb 05 4e be 4f 9f 59 bb e8 86 aa 3c
       0.1800553 -0.20119374 -0.0033206528 0.020816281
000130 f2 52 f8 be 3c 73 80 3c 7c 77 a8 be b5 31 19 be
       -0.48500782 0.015679948 -0.3290366 -0.14960368

sequential.0.Lambda.weight f4 [80, 5]
000000 23 a2 94 3f 87 da 18 3f 08 5b 31 bf 25 0d 1b 3e
       1.161198 0.59708446 -0.6927953 0.15141733
000010 76 ca 6d bf 5c 2d 24 3f 92 92 14 be bb ed b5 be
       -0.92887056 0.6413171 -0.14509037 -0.35532936
000020 ca c0 46 be 70 63 ae 3d 21 87 4e 3f dd ac af 3e
       -0.1940948 0.0851506 0.8067494 0.34311572
000030 d4 77 43 bf ad 5b c1 be 18 d6 fe 3e 17 6f f4 bb
       -0.7635472 -0.37765256 0.49772716 -0.007459532
000040 91 2e 5b 3f 8e 51 9c be 14 d4 82 3f 46 28 86 bf
       0.8561793 -0.3053097 1.0220971 -1.048104
000050 71 76 84 3f e7 63 c5 be ca 76 8c bf a6 89 77 be
       1.0348645 -0.38552782 -1.0973752 -0.24173602
000060 8f 46 0f bf a1 0e 83 be b9 e7 a2 3e d9 f3 99 be
       -0.5596704 -0.25597098 0.31817415 -0.30068853
000070 a8 78 8e bf 27 94 c0 be 82 3b eb be 83 c3 09 3f
       -1.1130571 -0.3761303 -0.45943838 0.5381395
000080 fb 72 bb bc 83 c2 17 3f 4d bf 04 bf bc 43 e8 3e
       -0.022881975 0.59281176 -0.518544 0.45364177
000090 a9 79 74 bf 0a b9 e2 3e a6 ac 2f bf 79 0a 61 bf
       -0.9549814 0.442818 -0.68622816 -0.87906605
0000a0 e7 f4 d9 3e dd ac 19 3f b7 04 7c bf 66 c4 fc 3e
       0.42569658 0.60029393 -0.98444694 0.4936859
0000b0 35 81 fe bc 95 0a 16 bf 86 17 9b be db c1 44 3e
       -0.03106747 -0.58609897 -0.30291384 0.19214575
0000c0 59 fc f2 bd 88 f1 99 bd d9 d7 c4 3e 4d 45 06 3e
       -0.11864538 -0.075167716 0.3844593 0.13112374
0000d0 00 04 31 bf ba f0 ee 3e 6c 37 27 be 15 25 38 be
       -0.6914673 0.46668035 -0.16329736 -0.17982896
0000e0 48 63 ff 3e 01 bb 09 3e 4c 19 f9 3e 93 d1 2c 3c
       0.49880433 0.13450243 0.48652112 0.010548013
0000f0 c8 93 82 3e ff 86 f6 bd ae eb b1 3f 01 16 97 3e
       0.25503373 -0.12037467 1.3900049 0.29508975
000100 b3 f0 9b bf 78 d8 e4 be 04 4b 5d 3e 13 19 4e be
       -1.218283 -0.44696403 0.21610647 -0.20126753
000110 3b 56 24 3f 3e f8 a1 bd 48 c2 37 3f 83 d7 9a ba
       0.6419408 -0.079086766 0.71780825 -0.0011813495
000120 67 4f 80 bf 04 17 62 3f 0a 42 34 bf 86 93 c2 be
       -1.0024232 0.8831637 -0.7041327 -0.38003176
000130 6c 0e 06 bf 59 db 0d bf 07 4e 5d bf e5 61 91 3e
       -0.52365756 -0.5541282 -0.86447185 0.28395
000140 5e 1b f2 3e df f0 08 3f 04 d2 8f be 96 92 71 3e
       0.47286505 0.5349254 -0.28089917 0.23591074
000150 2d d8 98 be 00 3e cb be 94 34 80 3f 6f b3 6e 3e
       -0.2985243 -0.3969574 1.0016046 0.23310636
000160 c2 06 b1 be 56 80 c1 3e 34 44 b3 be d1 17 51 be
       -0.34575468 0.37793225 -0.35012972 -0.20419241
000170 55 96 27 be fc ed 95 bf 70 34 78 3f 00 41 1c bf
       -0.16365941 -1.1713252 0.96955013 -0.6103668
000180 c3 2d db 3e 1e ad c4 3c cb 22 31 be d8 11 8d 3f
       0.4280835 0.02400833 -0.17298429 1.102107
000190 0e cb ac be 91 a9 0f 3f c5 51 19 bf 63 62 f8 3e
       -0.33748668 0.5611811 -0.59890395 0.48512563
0001a0 52 37 52 3e 1f 7e 0d bd 98 58 82 3e 07 8f 01 bf
       0.20528916 -0.034544107 0.25458217 -0.5060887
0001b0 c5 9b 2b be d8 54 ea 3e 24 58 63 3f d0 8d 32 bf
       -0.1675864 0.45767856 0.88806367 -0.6974764
0001c0 ff fc 9e be b5 3c 7b 3d 27 81 80 3f 32 67 26 3f
       -0.31052396 0.06133719 1.0039414 0.65001214
0001d0 03 4c 26 3e 40 b7 a4 3d 5d 86 85 be 95 75 23 bf
       0.16239934 0.08042765 -0.26079074 -0.6385129
0001e0 20 59 2a bf 0e 75 85 bf a9 f8 21 3d e3 88 b1 3f
       -0.66542244 -1.0426347 0.03954378 1.38699
0001f0 66 69 d1 3e 83 61 f0 3d 18 00 cf 3f 3e 3d 3d bf
       0.40900725 0.11737349 1.6171904 -0.73921573
000200 3a 67 0b bf 7a 7a 42 bf dc 02 10 bf 1f 31 de be
       -0.54454386 -0.75968134 -0.56254363 -0.4339685
000210 a5 c3 2e bf 6e 34 4b 3f 0f 43 66 3f d4 0a bf be
       -0.6826728 0.79376876 0.89946073 -0.3731295
000220 17 f3 e0 3d 55 67 a2 3f 22 4e 4b bf 99 71 a5 3e
       0.10983866 1.2687784 -0.79416096 0.3231323
000230 db 3d b6 be 28 cd 42 bf 3c bf d9 3e 00 12 ef 3d
       -0.35594067 -0.76094294 0.42528713 0.11673355
000240 c3 28 52 bf 5b 38 ed 3e b7 b7 0d 3f b6 1f d1 3e
       -0.8209345 0.46332058 0.5535845 0.40844506
000250 a5 45 e9 be 0d ee c8 be 9c 93 82 3e 47 09 c0 be
       -0.45560947 -0.39244118 0.25503242 -0.37507078
000260 b5 1d e4 be 7e f8 9a 3e 5d 44 2e 3f 57 7a 09 bf
       -0.44553915 0.3026771 0.68073064 -0.537023
000270 44 a9 64 3f 29 50 54 be 52 2c bf bd b1 ae f0 3e
       0.8932078 -0.20733704 -0.09334625 0.4700828
000280 32 91 07 be 2d 6e 8d 3e 32 c6 cb bf 58 37 41 3f
       -0.13238981 0.2762312 -1.591986 0.7547507
000290 02 3e 50 3f 36 a6 23 3e 6b e0 6f be 4a 36 41 bf
       0.81344616 0.15981373 -0.23425452 -0.75473464
0002a0 24 57 4c bf 61 85 44 3e 78 08 6a be 57 eb 1a 3d
       -0.79820466 0.19191505 -0.22854793 0.037822094
0002b0 81 fc a1 3f 18 18 a9 3e 29 7d be bf a7 61 9b 3f
       1.2655183 0.33026195 -1.4881946 1.2139176
0002c0 87 72 99 bb a5 37 6d be 26 b2 49 bf 3f c0 17 bf
       -0.004682842 -0.23165758 -0.7878746 -0.5927772
0002d0 3e e1 29 3d 0f 99 fd bc 68 a7 35 3f f6 73 28 bd
       0.041474573 -0.030956773 0.70958567 -0.041126214
0002e0 1c f4 e6 3d fa 84 79 3f 66 5d e1 be b5 a5 2c bd
       0.11277029 0.9746853 -0.4401657 -0.042150218
0002f0 27 6c e8 3d fc 42 2c bf 54 4b 7d bf 3d 6c 0b bf
       0.113487534 -0.6728971 -0.98943067 -0.54462034
000300 8b e6 34 3f 5a 5f 7a 3e fe 36 17 3e 53 44 85 be
       0.7066428 0.24450436 0.14767072 -0.2602869
000310 7e d7 39 bd d0 1a ea 3e 41 10 1a be 81 c8 20 bc
       -0.045371525 0.4572358 -0.15045263 -0.009813429
000320 81 6e 82 bf b9 cc 94 bf 73 f6 6a 3f 4c 57 77 bf
       -1.0189973 -1.1624976 0.917823 -0.9661758
000330 92 5f 81 3f 00 e5 98 be d0 a2 d4 be 3f b3 45 3d
       1.0107291 -0.29862213 -0.41530466 0.048266646
000340 0b 0c 4d 3f db b9 91 bf 03 53 33 bf af e8 95 3f
       0.800965 -1.1384844 -0.7004854 1.1711634
000350 27 b2 85 3e 4f 23 86 bf 06 81 09 3e 0f 6b c2 be
       0.26112482 -1.0479525 0.13428125 -0.37972304
000360 3a bf cd 3b 31 9f 4b bd 6d 9e d8 be 9f 59 0b 3f
       0.0062788995 -0.049712364 -0.4230837 0.54433626
000370 d5 4f 4e bf 80 14 36 3f f3 7a 4b 3e 06 99 15 bc
       -0.80590564 0.7112503 0.1987112 -0.009130722
000380 10 15 40 bd b7 90 63 3f 73 bd b8 be 23 48 42 bf
       -0.046895087 0.8889269 -0.36082038 -0.7589132
000390 d2 c8 67 bd 4c 5f b6 3e 50 00 3f 3f 68 a8 bd be
       -0.056588 0.3561958 0.7460985 -0.37042546
0003a0 bc fb 9c 3f ed e6 84 3e 7d b5 0e bf 5b d7 3d bf
       1.2264323 0.25957432 -0.5574568 -0.7415673
0003b0 e1 2f 06 3f 44 ce 98 bf cc 79 37 3f de 43 b9 3e
       0.5241681 -1.1937947 0.7167022 0.3618459
0003c0 7c ac 7e be ee b5 97 3e 27 f6 4b bf 6c f8 b9 3d
       -0.24870485 0.2963099 -0.79672474 0.09080586
0003d0 de 60 80 3f cd d0 82 be 16 c2 b9 be 7c b0 b7 3d
       1.0029562 -0.25549927 -0.36280888 0.089692086
0003e0 3d 9e d1 3e 5e 7b f3 be cc 83 f5 bd b9 63 11 bf
       0.4094104 -0.4755506 -0.11988029 -0.5679279
0003f0 7c fe ed be c6 c5 69 3e 0e d4 34 3f c5 be 85 3e
       -0.4648322 0.22829351 0.7063607 0.26122108

sequential.0.Lambda.bias f4 [80]
000000 86 2d d1 be 78 69 18 3f 3e 0e b9 be e1 54 4b 3c
       -0.40855044 0.5953593 -0.36143678 0.012410373
000010 a6 07 d0 be 7b f2 3b 3d 93 57 fd bc d1 9a 06 bf
       -0.40630835 0.045885544 -0.030925548 -0.5257998
000020 ca f3 87 3d 3a 58 bc be da f6 29 bf c9 49 23 bf
       0.06638296 -0.36786062 -0.6639229 -0.6378446
000030 19 c4 a1 3c fa 4a 2e 3e 7a d5 1b be 2f eb bc be
       0.019746827 0.17020789 -0.15218154 -0.3689818
000040 86 2d 9f be 08 94 8a be fe 4f 48 be 9d d4 25 bf
       -0.3108942 -0.27066064 -0.19561765 -0.6477755
000050 59 f8 42 3e 24 bf 31 bf 52 85 10 bf f9 b2 17 bf
       0.1904005 -0.6943228 -0.5645343 -0.59257466
000060 5b 1d 1d bf 10 fb 2b 3d 3a 8c be be db 15 e7 bd
       -0.6137292 0.04198748 -0.3721636 -0.112834655
000070 04 e0 76 be c4 98 8d be a8 bd ed be fa 08 43 3d
       -0.24108893 -0.27655613 -0.4643376 0.047615983
000080 f7 bf 90 be 12 1b 98 be ab da fb 3e 30 b3 21 bd
       -0.28271458 -0.29708153 0.49190268 -0.039477527
000090 56 5b 39 bf 5c 1f 5e 3d f4 54 fb 3d ed ef e4 bd
       -0.7240499 0.054229125 0.12272063 -0.11178575
0000a0 0c ea 11 be 03 ba be be 6e 77 8a be 3e 17 c4 be
       -0.14249438 -0.3725129 -0.27044243 -0.38298982
0000b0 a4 d6 fa 3d d9 60 93 3e 54 d5 e1 be a3 8c 8e be
       0.12247971 0.28784826 -0.4410807 -0.27841672
0000c0 f7 17 9b be b8 a9 ac be 5b 05 80 3c 9a 12 c2 be
       -0.3029172 -0.33723235 0.015627554 -0.37904817
0000d0 02 81 c8 3e d0 a7 a6 3d 70 36 ac be b9 d5 39 bd
       0.39160925 0.081374764 -0.33635283 -0.045369837
0000e0 ca fe c5 3c 50 e1 d7 be 8c 28 ea bd ac 8f 93 be
       0.024169344 -0.42164087 -0.11433515 -0.2882055
0000f0 91 40 01 bf 90 e5 88 be 31 ac e7 be e6 c4 e6 bd
       -0.50489146 -0.26737642 -0.4524856 -0.11268024
000100 31 77 bd bd 03 5d a3 3e e2 65 ba be 32 13 ef 3d
       -0.092512496 0.319069 -0.36405855 0.11673583
000110 40 35 32 3e 08 86 6e be eb 75 f2 be 14 c2 b4 3b
       0.17403126 -0.23293316 -0.4735559 0.0055163
000120 6b 60 38 3e bb 05 4e be 4f 9f 59 bb e8 86 aa 3c
       0.1800553 -0.20119374 -0.0033206528 0.020816281
000130 f2 52 f8 be 3c 73 80 3c 7c 77 a8 be b5 31 19 be
       -0.48500782 0.015679948 -0.3290366 -0.14960368

sequential.0.bn.running_mean f4 [80]
000000 00 00 00 00 00 00 00 00 00 00 00 00 00 00 00 00
       0.0 0.0 0.0 0.0
000010 00 00 00 00 00 00 00 00 00 00 00 00 00 00 00 00
       0.0 0.0 0.0 0.0
000020 00 00 00 00 00 00 00 00 00 00 00 00 00 00 00 00
       0.0 0.0 0.0 0.0
000030 00 00 00 00 00 00 00 00 00 00 00 00 00 00 00 00
       0.0 0.0 0.0 0.0
000040 00 00 00 00 00 00 00 00 00 00 00 00 00 00 00 00
       0.0 0.0 0.0 0.0
000050 00 00 00 00 00 00 00 00 00 00 00 00 00 00 00 00
       0.0 0.0 0.0 0.0
000060 00 00 00 00 00 00 00 00 00 00 00 00 00 00 00 00
       0.0 0.0 0.0 0.0
000070 00 00 00 00 00 00 00 00 00 00 00 00 00 00 00 00
       0.0 0.0 0.0 0.0
000080 00 00 00 00 00 00 00 00 00 00 00 00 00 00 00 00
       0.0 0.0 0.0 0.0
000090 00 00 00 00 00 00 00 00 00 00 00 00 00 00 00 00
       0.0 0.0 0.0 0.0
0000a0 00 00 00 00 00 00 00 00 00 00 00 00 00 00 00 00
       0.0 0.0 0.0 0.0
0000b0 00 00 00 00 00 00 00 00 00 00 00 00 00 00 00 00
       0.0 0.0 0.0 0.0
0000c0 00 00 00 00 00 00 00 00 00 00 00 00 00 00 00 00
       0.0 0.0 0.0 0.0
0000d0 00 00 00 00 00 00 00 00 00 00 00 00 00 00 00 00
       0.0 0.0 0.0 0.0
0000e0 00 00 00 00 00 00 00 00 00 00 00 00 00 00 00 00
       0.0 0.0 0.0 0.0
0000f0 00 00 00 00 00 00 00 00 00 00 00 00 00 00 00 00
       0.0 0.0 0.0 0.0
000100 00 00 00 00 00 00 00 00 00 00 00 00 00 00 00 00
       0.0 0.0 0.0 0.0
000110 00 00 00 00 00 00 00 00 00 00 00 00 00 00 00 00
       0.0 0.0 0.0 0.0
000120 00 00 00 00 00 00 00 00 00 00 00 00 00 00 00 00
       0.0 0.0 0.0 0.0
000130 00 00 00 00 00 00 00 00 00 00 00 00 00 00 00 00
       0.0 0.0 0.0 0.0

sequential.0.bn.running_var f4 [80]
000000 00 00 80 3f 00 00 80 3f 00 00 80 3f 00 00 80 3f
       1.0 1.0 1.0 1.0
000010 00 00 80 3f 00 00 80 3f 00 00 80 3f 00 00 80 3f
       1.0 1.0 1.0 1.0
000020 00 00 80 3f 00 00 80 3f 00 00 80 3f 00 00 80 3f
       1.0 1.0 1.0 1.0
000030 00 00 80 3f 00 00 80 3f 00 00 80 3f 00 00 80 3f
       1.0 1.0 1.0 1.0
000040 00 00 80 3f 00 00 80 3f 00 00 80 3f 00 00 80 3f
       1.0 1.0 1.0 1.0
000050 00 00 80 3f 00 00 80 3f 00 00 80 3f 00 00 80 3f
       1.0 1.0 1.0 1.0
000060 00 00 80 3f 00 00 80 3f 00 00 80 3f 00 00 80 3f
       1.0 1.0 1.0 1.0
000070 00 00 80 3f 00 00 80 3f 00 00 80 3f 00 00 80 3f
       1.0 1.0 1.0 1.0
000080 00 00 80 3f 00 00 80 3f 00 00 80 3f 00 00 80 3f
       1.0 1.0 1.0 1.0
000090 00 00 80 3f 00 00 80 3f 00 00 80 3f 00 00 80 3f
       1.0 1.0 1.0 1.0
0000a0 00 00 80 3f 00 00 80 3f 00 00 80 3f 00 00 80 3f
       1.0 1.0 1.0 1.0
0000b0 00 00 80 3f 00 00 80 3f 00 00 80 3f 00 00 80 3f
       1.0 1.0 1.0 1.0
0000c0 00 00 80 3f 00 00 80 3f 00 00 80 3f 00 00 80 3f
       1.0 1.0 1.0 1.0
0000d0 00 00 80 3f 00 00 80 3f 00 00 80 3f 00 00 80 3f
       1.0 1.0 1.0 1.0
0000e0 00 00 80 3f 00 00 80 3f 00 00 80 3f 00 00 80 3f
       1.0 1.0 1.0 1.0
0000f0 00 00 80 3f 00 00 80 3f 00 00 80 3f 00 00 80 3f
       1.0 1.0 1.0 1.0
000100 00 00 80 3f 00 00 80 3f 00 00 80 3f 00 00 80 3f
       1.0 1.0 1.0 1.0
000110 00 00 80 3f 00 00 80 3f 00 00 80 3f 00 00 80 3f
       1.0 1.0 1.0 1.0
000120 00 00 80 3f 00 00 80 3f 00 00 80 3f 00 00 80 3f
       1.0 1.0 1.0 1.0
000130 00 00 80 3f 00 00 80 3f 00 00 80 3f 00 00 80 3f
       1.0 1.0 1.0 1.0

sequential.2.Gamma.weight f4 [120, 80]
000000 70 2c b8 3e de 8e 34 bd 8d 01 8a bf af 5b 82 be
       0.35971403 -0.04408156 -1.0781723 -0.25460574
000010 71 a5 23 bf a2 22 f1 3e c9 e2 ca be f9 c1 32 bf
       -0.6392432 0.47096735 -0.39626148 -0.6982723
000020 11 cd f7 be 86 17 a0 bc 9a e3 40 3e 2c 91 3f be
       -0.4839864 -0.019542467 0.18836823 -0.18707722
000030 14 29 bb 3d e2 4f 6c be 2a c6 2f 3f ac 82 95 3d
       0.091386944 -0.23077348 0.6866175 0.07300314
000040 b0 63 00 bf 34 b8 d1 bf 5e 3a 8e 3e 86 d3 36 bf
       -0.5015211 -1.6384339 0.27778906 -0.7141651
000050 88 5e a2 be 31 07 c2 bd bb ba 78 be 5a d8 88 bf
       -0.31712747 -0.09474028 -0.24289982 -1.0691025
000060 e9 d8 17 be 86 30 1a bf 8d 4b f5 be da 5a d1 be
       -0.14828838 -0.6023029 -0.47909203 -0.40889627
000070 2d 8d 0d bf cf 17 8c be 4a 4a eb bd 8c 49 2d be
       -0.5529354 -0.27361915 -0.11488779 -0.16922587
000080 94 01 0a bf da 2a ad 3b 6e fd f8 3d 9d fb da 3e
       -0.5390866 0.0052846493 0.12157713 0.4277009
000090 2f 96 7a be 09 0c 7d be 65 12 85 3e 0e 6c 7d 3d
       -0.24471353 -0.24711622 0.25990596 0.061870627
0000a0 ea b9 bb 3e 55 ca 81 be 0c bc 5a 3e 31 15 34 3d
       0.3666528 -0.2534968 0.21360797 0.043965522
0000b0 36 ec c3 be 82 ba 72 3d 7d c4 11 be 91 4e 2c 3e
       -0.38266152 0.0592599 -0.1423511 0.16826846
0000c0 e4 1e 28 be 8a 74 2a be 99 f2 15 3e 21 2c ae 3e
       -0.16418034 -0.16646019 0.14643325 0.34018043
0000d0 38 b1 f6 be a9 41 f6 be e5 ea 71 be 08 d5 a8 bc
       -0.48182082 -0.4809697 -0.23624761 -0.020609394
0000e0 ad c5 e8 be d7 a1 ca bf f8 c0 07 3b dd bc 68 3e
       -0.45463315 -1.583064 0.0020714384 0.22728296
0000f0 e5 01 ae 3d be 6f 43 bd 4b 3c ce be 84 a5 e4 be
       0.08496455 -0.047713988 -0.40280375 -0.44657528
000100 13 1c 43 bf a5 e2 25 3c b5 af 87 be c1 49 93 3c
       -0.7621471 0.010124837 -0.2650124 0.017979505
000110 da 58 2a bf a9 0b 25 3e b0 b4 f1 bc 1a c7 b9 bb
       -0.66541827 0.16117729 -0.029505104 -0.0056694867
000120 20 33 3b be ed 92 85 be ee c7 81 be ca 1e ae 3d
       -0.18281221 -0.26088658 -0.25347847 0.08501966
000130 f5 a3 23 be 78 ce a0 be af 99 51 3e d9 3f 80 3e
       -0.15980513 -0.31407523 0.20468782 0.25048712
000140 19 96 49 3e 1d b9 b5 bc 50 91 be be 14 c2 68 be
       0.19686164 -0.022182995 -0.3722024 -0.22730285
000150 1b aa 06 3e 85 c3 33 bf b0 fb 34 3e b2 9a 1c be
       0.13150828 -0.70220214 0.17674136 -0.15293387
000160 bd ee 54 be 9e 49 60 3d 95 e7 43 3e ac 6f 49 be
       -0.20794196 0.054757707 0.1913131 -0.19671506
000170 cb 7e c6 bd 68 c2 26 be ad b8 3c bd e7 17 c8 be
       -0.096921526 -0.16285098 -0.046074558 -0.39080736
000180 52 d7 4b 3d d7 38 f1 3c 54 2e 62 3d 95 1b a6 3d
       0.049765892 0.029446049 0.055219963 0.081107296
000190 e4 5c 0e bf 0c 93 19 bf b5 ff 13 be a5 55 84 3e
       -0.5561049 -0.5999 -0.14453013 0.25846592
0001a0 78 a6 c7 be 04 09 97 3e 57 92 91 be d9 3b 82 bd
       -0.38994193 0.29499066 -0.2843196 -0.06359071
0001b0 8e e5 df bd 3f 10 2a bf ca f4 2d be 85 f4 3c 3e
       -0.10932456 -0.6643104 -0.16987911 0.18452652
0001c0 51 60 30 3e 9f 67 c8 be ea 22 30 be 34 6f 71 bf
       0.17224242 -0.39141557 -0.17200819 -0.9431031
0001d0 41 fe 9a 3e 14 7c b8 bc f9 c6 9d be 36 2d 9d bc
       0.30272105 -0.022520103 -0.30815867 -0.019186597
0001e0 54 08 16 3e 6d d6 ef 3d ab c7 92 3d bd c1 d2 be
       0.14651614 0.1171082 0.0716699 -0.41163436
0001f0 ae bc aa ba a8 3e a3 bd 58 6e 35 3d 4b bc 44 3e
       -0.0013026202 -0.07970935 0.044294685 0.19212453
000200 7f a4 ee bd d5 f4 74 be e8 52 9d be ab c7 9c 3e
       -0.11652469 -0.23921521 -0.30727315 0.30621085
000210 fa ab fb 3c e1 ed 17 3d b5 cd 91 3e ef c3 14 3e
       0.030721653 0.037092093 0.28477255 0.14527868
000220 93 83 d7 bc a8 83 99 3e 99 20 40 be a7 27 46 bf
       -0.026307857 0.29983258 -0.18762435 -0.77404255
000230 02 10 c7 3e 02 25 1a 3e a8 2b 8f 3e a3 df bb 3e
       0.388794 0.1505318 0.27962995 0.3669406
000240 d2 32 89 be c6 bc c2 bd 15 c7 50 bf 11 9c b1 3b
       -0.26796585 -0.09508662 -0.81553775 0.005420216
000250 1b 0b dd be 08 45 dc bc d5 a2 4f be 2c 06 1c be
       -0.43172535 -0.026888385 -0.20276959 -0.1523673
000260 b7 2e 8f be 43 8c 48 be ed a2 ce be e0 d9 a4 bd
       -0.27965328 -0.19584756 -0.40358678 -0.08049369
000270 70 ef e8 bd a0 e5 e6 bd 64 f2 c5 bd 48 c1 cd 3c
       -0.11373794 -0.11274266 -0.09665373 0.025116578
000280 12 4a 90 be b1 60 bd bc 80 2c 1d bf be 54 c9 bf
       -0.2818151 -0.023117395 -0.61396027 -1.5728986
000290 1b b7 1f be e7 a5 b4 be dd 8b 9c be 50 f2 14 3e
       -0.15597193 -0.35282823 -0.30575457 0.1454556
0002a0 d9 00 e5 be 8e bd 34 be a6 fe 33 bf ee 75 a9 be
       -0.4472721 -0.17650434 -0.7031044 -0.33097786
0002b0 af 5a 2c 3d c2 bb 50 bd cc b9 63 be 98 b6 e0 be
       0.04207867 -0.05096031 -0.22238845 -0.43889308
0002c0 33 0e 10 be a5 7c de bd 81 d7 4a be e8 55 0c 3e
       -0.14067917 -0.10863618 -0.1980877 0.13704646
0002d0 40 28 9c 3c 76 db b4 be e3 f8 29 3e 93 66 a7 bf
       0.019062161 -0.35323685 0.16598849 -1.3078178
0002e0 d1 73 1c bf 77 8e 37 3d 4e bf 1d be ff 4b d4 3d
       -0.6111422 0.0448136 -0.15405008 0.103660576
0002f0 da 62 62 bd 50 aa 03 3e 47 2c e6 be 70 9b 53 3d
       -0.055270053 0.12857938 -0.44955656 0.05166191
000300 9c 5a 6a bf b4 e3 8c bd e8 e2 ac 3e d8 7c 89 bd
       -0.9154451 -0.068793684 0.33766866 -0.06713265
000310 5d cf 1a 3e 0f 77 2e bf 6a 85 40 bf 09 19 99 bf
       0.15118165 -0.6815042 -0.75203574 -1.1960765
000320 2a db a4 bd 4e 03 da be d9 3f 86 be 52 77 1d 3d
       -0.08049615 -0.42580646 -0.26220587 0.03844387
000330 7e 72 d3 3e 5a b6 3f be 4b 3e 9c 3d 8a 72 d3 be
       0.41298288 -0.18721905 0.07629069 -0.41298324
000340 07 25 04 bf ab f2 0a bf 0a c4 78 be 82 98 2f be
       -0.51619 -0.5427653 -0.24293533 -0.17148021
000350 b3 49 12 3c 44 75 51 bf c3 f2 56 3d 23 21 51 3e
       0.008928704 -0.8181956 0.05247761 0.20422797
000360 1a dd be 3d c8 32 05 be d4 e8 de be 6a 3e d8 bd
       0.093195155 -0.13007653 -0.4353701 -0.105587795
000370 9b 72 e1 3e 5f a6 25 3e 69 bd 05 be bd c6 a3 be
       0.4403275 0.16176747 -0.13060535 -0.31987563
000380 91 ae 9b bd b8 1e 93 bc 4c ea 47 3d 84 68 f8 bd
       -0.07601655 -0.017958984 0.048807427 -0.1212931
000390 f9 67 bb be 47 a8 45 be 66 8d 86 bc c6 4f fc be
       -0.36602762 -0.19302474 -0.016424846 -0.49279612
0003a0 6c 70 5a bc eb 9f 27 bf 3b d4 f9 bd 66 32 79 bb
       -0.0133324675 -0.6547839 -0.12198683 -0.0038024425
0003b0 91 e5 15 bf 4e 2d 85 be cf 87 9a bf 14 57 b4 be
       -0.58553416 -0.26011127 -1.2072695 -0.35222685
0003c0 c3 58 03 3e fa 6b b0 bd 9e f5 61 3d 4c 5c 54 be
       0.12826829 -0.08614345 0.05516588 -0.20738333
0003d0 ed f3 e3 3d bf 35 fb bd 57 a7 13 be 33 be ae 3d
       0.111305095 -0.12266111 -0.14419304 0.08532371
0003e0 f0 ee 8a bf 3e e2 2c 3e 7f 10 07 3e 6a 6c 48 bf
       -1.0854168 0.1688318 0.13189887 -0.78290427
0003f0 aa 56 b5 be c1 05 8a bf 68 a4 c8 bd 3d 40 a9 bc
       -0.35417682 -1.0783006 -0.09796983 -0.020660514

sequential.2.Gamma.bias f4 [120]
000000 cc 9d 6a be 43 d8 a1 be 43 02 c5 bd 45 1a 92 bd
       -0.22911757 -0.31610307 -0.09619572 -0.07133917
000010 76 6c c4 bd f4 2f af bd 51 28 06 be de e1 0a be
       -0.09591 -0.08554068 -0.13101317 -0.13562724
000020 fe d2 31 be 16 ec 9c be 9d ec 87 bc 80 59 60 bd
       -0.17365643 -0.3064887 -0.016592318 -0.054772854
000030 4e e6 ed bd 17 0a 2f be 8e b1 b4 be fc c3 f1 be
       -0.11616193 -0.17093693 -0.35291713 -0.47219837
000040 a9 6a 34 be 19 ef 0a be b9 b8 3d 3d 8e c0 ce be
       -0.17618813 -0.13567771 0.046318743 -0.40381283
000050 c4 e9 01 3e c8 f2 de be 96 37 40 be 7e bf 03 be
       0.12686831 -0.43544602 -0.18771204 -0.12866017
000060 38 5b e8 be eb 45 5c 3c c0 03 bf be bd e7 84 bb
       -0.45382094 0.013444404 -0.3730755 -0.0040559457
000070 7d f9 52 be 03 1d 5e bc 14 50 eb be 91 5f ec 3e
       -0.20602985 -0.013556722 -0.45959532 0.4616666
000080 fd 42 20 bf 1d 24 b3 bd 8b 87 c2 be 53 87 38 be
       -0.62602216 -0.087471224 -0.37994036 -0.18020372
000090 ff 75 b2 be e0 06 fc be ff 40 84 bd 8d 39 50 3d
       -0.3485565 -0.49223995 -0.064577095 0.050836135
0000a0 b5 f0 e2 bd 5c c8 b5 3d 3e 24 a8 3d 74 9e 65 bf
       -0.110810675 0.08876106 0.08210038 -0.89694905
0000b0 ca 42 65 3e 4c 80 b3 be 55 da 0e be 92 79 8a be
       0.2238876 -0.3505882 -0.13950475 -0.27045876
0000c0 04 83 d6 bd 7c 61 1e bf 21 bb ca be 07 7a bc be
       -0.10474208 -0.618675 -0.39595893 -0.3681185
0000d0 1e 48 d8 be 7c c4 ce 3c e6 80 ea bd 0f c8 71 3d
       -0.4224252 0.025240175 -0.11450367 0.05902868
0000e0 0d a3 17 3e 7b 33 09 be b2 f7 d4 bd 22 47 81 be
       0.14808293 -0.13398544 -0.10398807 -0.25249583
0000f0 0c ee 9f bd 22 60 5a 3d c1 2b 09 bf ec 24 a6 be
       -0.07809076 0.053314336 -0.5358239 -0.32450044
000100 53 a5 3d bd d9 78 5e bd 82 97 a5 be 3a 12 19 be
       -0.046300244 -0.054314468 -0.32342154 -0.14948359
000110 73 93 a3 be 2d 02 60 be 19 e1 1f be 53 e3 9b 3c
       -0.31948432 -0.2187583 -0.15613212 0.019029295
000120 0e 56 3e 3d fa 52 49 bf 90 f0 00 3e 8e 93 0f bf
       0.046468787 -0.7864224 0.12591767 -0.56084526
000130 5f c0 35 be 4c 25 84 be ed 95 09 bf d2 e5 0a bf
       -0.17749165 -0.25809705 -0.53744394 -0.5425693
000140 55 03 4b bd 46 36 0e be 38 75 35 3d db 5c ef be
       -0.049563725 -0.13887891 0.04430124 -0.4675053
000150 6b 5e 23 bf b5 02 a4 be 0d 22 ee bd 05 1d 1c be
       -0.63815945 -0.32033315 -0.116275884 -0.15245445
000160 d2 d6 fc be 20 15 86 be 78 2c 6b be 23 52 d6 bd
       -0.49382645 -0.26187992 -0.22966182 -0.10464885
000170 1a 0d 23 3e 52 85 ee be 8a 39 40 be 77 19 e2 bc
       0.15922967 -0.4658609 -0.1877195 -0.027600033
000180 41 00 5d be 18 75 28 3d c7 82 aa be 51 16 0f bf
       -0.21582128 0.041127294 -0.333029 -0.5589343
000190 bd 79 4d bd 45 ee b2 be 54 b4 66 3e c5 3f 1c be
       -0.050164927 -0.3494741 0.22529727 -0.15258701
0001a0 d4 1f 3c bd d1 fb b7 bd 99 a4 91 bd 97 b9 92 be
       -0.04592879 -0.08983577 -0.07111473 -0.2865722
0001b0 f2 c1 ae bd d4 41 79 be 3b cf 44 3d 03 af 75 be
       -0.08533086 -0.24341518 0.048049193 -0.23992543
0001c0 90 ed c4 be 1e a2 90 bc 3f 6f ba bd af fd 2b be
       -0.38462496 -0.017655428 -0.0910325 -0.16795991
0001d0 b1 19 68 be 46 ce 4b bf aa 17 0b be ce bd a2 3e
       -0.2266605 -0.79611623 -0.13583246 0.31785434

sequential.2.Lambda.weight f4 [120, 80]
000000 6c fa 1a 3e 6b 23 00 3d 1a ad e5 3d bf 3a a6 3d
       0.15134591 0.031283777 0.11214657 0.08116674
000010 1c dd 19 bf 94 09 4e be d6 72 b6 be 85 ea 03 bf
       -0.6010301 -0.20120841 -0.35634488 -0.51529723
000020 df 62 59 be b2 61 4a 3e 06 8f ea 3d 95 33 6f 3d
       -0.21229123 0.1976383 0.11453061 0.0583988
000030 10 30 c9 3d 38 d5 36 be cf f6 64 3e 22 89 c6 3d
       0.0982362 -0.17854774 0.22359775 0.09694125
000040 c8 fa 13 bd 46 6a 5d bd a0 7a d0 3e 4d c1 39 bf
       -0.036127836 -0.05405643 0.40718555 -0.7256058
000050 0e 86 05 be bd 52 32 3f 7b 78 50 3e ac 88 e6 be
       -0.13039419 0.696575 0.2035846 -0.45026147
000060 8d fc 3f 3e 58 4c 24 be f3 31 71 3e 40 c4 18 be
       0.18748684 -0.16044748 0.2355421 -0.14918613
000070 af 7a 43 be ba 50 99 3e 0b de 0e 3f 53 9b 7a 3e
       -0.19089769 0.29944402 0.5580756 0.24473314
000080 b4 0a 29 bf 97 7b a2 bc cc 39 c6 3e ad 2f f1 3d
       -0.66031957 -0.019834323 0.3871597 0.117766716
000090 14 e2 6a 3e 55 b2 ef bc 5f 44 4f 3e d8 dc f6 3d
       0.22937804 -0.02925984 0.20240925 0.12053841
0000a0 4f 79 c0 3e 57 3e eb 3c 19 f1 2b be b5 7e b0 3d
       0.3759255 0.02871625 -0.1679119 0.086179174
0000b0 fe 08 93 bd 44 5a 09 3e 7a a1 be 3e 7c 49 26 3f
       -0.071794495 0.1341334 0.37232572 0.6495588
0000c0 9c 8e 02 3e c4 0d b0 3e be 06 d0 3e 01 91 ff 3c
       0.12749714 0.34385502 0.40630144 0.031197073
0000d0 46 5f 2c 3c 50 60 51 be d5 c4 46 3e 6f fe 14 bd
       0.010520762 -0.20446897 0.19411023 -0.03637546
0000e0 08 05 7f 3d 1c 5a db 3d ef d9 ed 3e f6 60 bb bd
       0.062260658 0.107105464 0.46455333 -0.09149353
0000f0 e1 f1 a5 3e ce a6 9d 3e b0 bf a5 be 03 9f ff be
       0.324111 0.30791324 -0.32372808 -0.49926004
000100 1e 53 d6 be ea 62 f3 3e 6d 51 57 bc 4b aa 6c bc
       -0.41860288 0.47536403 -0.013141972 -0.014444898
000110 fa e9 2f 3d 06 0e 00 be a1 fc 93 be dc f2 e1 3d
       0.042947747 -0.1250535 -0.28903678 0.1103265
000120 1c ef 1d 3d dd a8 d5 be 05 fd 83 be d8 c0 b7 3e
       0.03855811 -0.41730395 -0.25778976 0.35889316
000130 6c 47 1f be 81 d0 43 3e 45 cc bc 3e e4 04 57 3e
       -0.15554589 0.19122507 0.36874595 0.2099796
000140 67 50 52 3d 83 52 9c 3e 74 85 35 be 35 41 19 3e
       0.05134621 0.305317 -0.1772669 0.14966281
000150 62 5e 21 3e 99 1e a6 3e 61 41 85 3e 4e 5c a9 3d
       0.1575866 0.3244522 0.26026443 0.08269559
000160 26 3c 81 3c b2 9f cd 3e 59 d6 1c 3f d5 e3 15 3e
       0.015775751 0.401609 0.6126457 0.14637692
000170 fa e2 41 be 65 12 13 be 72 86 01 3f 90 8d 5d 3d
       -0.18934241 -0.14362486 0.5059577 0.054090083
000180 28 e4 42 3e 83 0b 9e 3e 81 6a 07 be b0 c9 80 3e
       0.19032347 0.30868158 -0.13224222 0.25153875
000190 3d c5 d2 3d 4b ab ab 3d 14 0c 50 bd 73 04 ee 3e
       0.102915265 0.08382281 -0.05079277 0.4648777
0001a0 d1 71 03 bc 02 3d d8 3e 0e df de bd 48 fb 87 3e
       -0.008022741 0.42234045 -0.10882388 0.265589
0001b0 68 b8 c9 3d 0c 8e 17 be 7d 9f 47 be 58 0e 7e 3e
       0.09849626 -0.1480028 -0.19494434 0.24810159
0001c0 75 e9 11 3e 3d 0c 87 be 12 bd 0c be 2d b0 52 bf
       0.14249213 -0.26376525 -0.13744 -0.8230007
0001d0 d5 90 eb 3e 5f be a0 3e ea 77 81 3d d7 f8 18 3e
       0.46008936 0.31395242 0.063217 0.14938675
0001e0 95 e0 f4 3e 9f ff 40 3d d7 1e dc 3d ca 3a 78 3d
       0.47827592 0.04711878 0.1074807 0.06060294
0001f0 df 77 aa 3e 51 93 8e 3d 00 61 9e 3e 4e 6b 84 3e
       0.3329458 0.06961692 0.3093338 0.25863117
000200 66 dd 5c 3e bd b8 1b be ce 7e f3 bd aa 0f a9 3e
       0.21568832 -0.15207191 -0.118894204 0.33019763
000210 55 c5 c5 3e bc 5b a5 3e 2d 0f b7 3d e6 db 3f 3e
       0.38627115 0.3229655 0.089384414 0.18736228
000220 11 dc 86 3e 96 93 a3 3e 0d 3b c7 3e e9 53 30 bf
       0.26339772 0.31948537 0.3891224 -0.68878037
000230 65 0e dc 3d 62 d6 c6 3c 18 e8 e9 3e e4 1a a1 3d
       0.10744933 0.024272148 0.45684886 0.07866457
000240 56 7f 92 3e 73 7e 22 be 89 fe b6 be 09 2d 6e 3e
       0.28612775 -0.15868549 -0.3574107 0.23259367
000250 f1 54 b0 be dc b4 cf 3d 4f 06 18 3d 00 9d 2e 3e
       -0.34439805 0.10141918 0.03711539 0.17052078
000260 d3 28 dd 3d 9d 62 e7 3d 19 40 db 3d 06 a0 1a 3d
       0.10798802 0.11298106 0.10705585 0.037750266
000270 40 e7 8c 3e 62 5a bf 3e 09 19 22 3e 50 2f 08 3f
       0.2752018 0.37373644 0.15829863 0.53197193
000280 46 45 f3 be 30 d0 36 be 4a 44 26 be c8 70 1e bf
       -0.4751379 -0.17852855 -0.16236988 -0.6189084
000290 f0 2c d6 bd da 22 d3 be 6f 88 b4 be a6 1e a5 be
       -0.1045779 -0.41237527 -0.3526034 -0.32249945
0002a0 49 dd be be 91 ad a6 bd 6e 2b de be 57 40 af be
       -0.37278202 -0.08138574 -0.4339251 -0.34228775
0002b0 0e ec 3f 3c 40 1e d5 bc 12 d9 8f be 48 a6 09 3d
       0.011713995 -0.0260154 -0.280953 0.033605844
0002c0 b0 8d b0 bd f3 c5 3a 3e 39 ff 26 bf 5d ed 17 3f
       -0.08620775 0.18239574 -0.6523319 0.5934656
0002d0 3e de e3 3c 1c 3d 84 be ce 2c 08 bf 58 d7 cf be
       0.027815934 -0.25827873 -0.53193367 -0.40593982
0002e0 5f ed dd 3e 2c 39 ef be 4b a0 26 3e d4 ac 1e 3f
       0.43345162 -0.46723306 0.16272084 0.61982465
0002f0 e2 33 34 be 67 17 a2 3e 68 f9 ab 3d 41 5f 17 bf
       -0.17597917 0.3165848 0.0839718 -0.5912972
000300 da 8d 71 be 78 84 01 be 41 17 b1 be 1c e1 82 3e
       -0.23589268 -0.12648189 -0.34588054 0.2556237
000310 eb 7c 9a 3d 22 57 e8 be b7 6b 2b bf f6 9c 88 3e
       0.075433575 -0.45378977 -0.66961235 0.26682252
000320 40 5a 1e bf f6 6e 84 be 61 54 d8 3d f3 6e 3e be
       -0.6185646 -0.25865906 0.10562969 -0.18597011
000330 f7 5a 37 3f 9c ed c8 bd 05 d0 7c bd 17 da c2 be
       0.71623176 -0.098109454 -0.06172182 -0.38057014
000340 f6 09 b2 be 33 0d 1e 3c 62 7a 97 be f5 ea 01 bf
       -0.34773225 0.009646702 -0.29585558 -0.5074914
000350 35 af e8 bd 97 16 89 bd e7 2a 03 be b5 df 0f bf
       -0.11361543 -0.06693762 -0.12809335 -0.56200725
000360 37 49 3e 3e cb 58 7a be b2 be 0f bf 4f 04 08 3d
       0.18582617 -0.24447934 -0.5615035 0.033207234
000370 62 81 71 3e 41 c1 44 3e 5c 4b 05 bf da 13 bd be
       0.23584512 0.19214346 -0.52068114 -0.36929208
000380 0d cc df be cd 45 1d be cc 6b a3 3e 54 0a d7 bd
       -0.43710366 -0.15358658 0.3191818 -0.10500017
000390 30 3c 12 bd a6 cf 6a be e6 6b 09 3f 88 ee ce be
       -0.03570193 -0.22930774 0.53680265 -0.4041636
0003a0 72 44 85 bd 8b b0 bf bd 5a 23 1e bd 60 0f 93 3d
       -0.065071955 -0.09359845 -0.038607933 0.07180667
0003b0 79 30 92 3e f1 f9 0b be 44 c8 db 3b b2 03 ac bd
       0.28552607 -0.13669564 0.006707223 -0.08399142
0003c0 b2 6a bc 3e 18 b1 79 3e 93 32 f2 bd 2f b5 12 bf
       0.36800152 0.24383962 -0.118260525 -0.57307714
0003d0 b4 64 dd 3e aa ed 3a 3c 21 78 e6 be 36 01 c1 3e
       0.43240893 0.011409203 -0.45013526 0.37696236
0003e0 05 0f 8d bf b3 c4 90 bb e5 3e 46 be 1a 89 be be
       -1.1020209 -0.0044179796 -0.1935993 -0.37213975
0003f0 36 6f dc 3e 12 4b 40 bf fb 87 12 bc a9 66 b1 3a
       0.43053597 -0.7511455 -0.008943553 0.0013534623

sequential.2.Lambda.bias f4 [120]
000000 cc 9d 6a be 43 d8 a1 be 43 02 c5 bd 45 1a 92 bd
       -0.22911757 -0.31610307 -0.09619572 -0.07133917
000010 76 6c c4 bd f4 2f af bd 51 28 06 be de e1 0a be
       -0.09591 -0.08554068 -0.13101317 -0.13562724
000020 fe d2 31 be 16 ec 9c be 9d ec 87 bc 80 59 60 bd
       -0.17365643 -0.3064887 -0.016592318 -0.054772854
000030 4e e6 ed bd 17 0a 2f be 8e b1 b4 be fc c3 f1 be
       -0.11616193 -0.17093693 -0.35291713 -0.47219837
000040 a9 6a 34 be 19 ef 0a be b9 b8 3d 3d 8e c0 ce be
       -0.17618813 -0.13567771 0.046318743 -0.40381283
000050 c4 e9 01 3e c8 f2 de be 96 37 40 be 7e bf 03 be
       0.12686831 -0.43544602 -0.18771204 -0.12866017
000060 38 5b e8 be eb 45 5c 3c c0 03 bf be bd e7 84 bb
       -0.45382094 0.013444404 -0.3730755 -0.0040559457
000070 7d f9 52 be 03 1d 5e bc 14 50 eb be 91 5f ec 3e
       -0.20602985 -0.013556722 -0.45959532 0.4616666
000080 fd 42 20 bf 1d 24 b3 bd 8b 87 c2 be 53 87 38 be
       -0.62602216 -0.087471224 -0.37994036 -0.18020372
000090 ff 75 b2 be e0 06 fc be ff 40 84 bd 8d 39 50 3d
       -0.3485565 -0.49223995 -0.064577095 0.050836135
0000a0 b5 f0 e2 bd 5c c8 b5 3d 3e 24 a8 3d 74 9e 65 bf
       -0.110810675 0.08876106 0.08210038 -0.89694905
0000b0 ca 42 65 3e 4c 80 b3 be 55 da 0e be 92 79 8a be
       0.2238876 -0.3505882 -0.13950475 -0.27045876
0000c0 04 83 d6 bd 7c 61 1e bf 21 bb ca be 07 7a bc be
       -0.10474208 -0.618675 -0.39595893 -0.3681185
0000d0 1e 48 d8 be 7c c4 ce 3c e6 80 ea bd 0f c8 71 3d
       -0.4224252 0.025240175 -0.11450367 0.05902868
0000e0 0d a3 17 3e 7b 33 09 be b2 f7 d4 bd 22 47 81 be
       0.14808293 -0.13398544 -0.10398807 -0.25249583
0000f0 0c ee 9f bd 22 60 5a 3d c1 2b 09 bf ec 24 a6 be
       -0.07809076 0.053314336 -0.5358239 -0.32450044
000100 53 a5 3d bd d9 78 5e bd 82 97 a5 be 3a 12 19 be
       -0.046300244 -0.054314468 -0.32342154 -0.14948359
000110 73 93 a3 be 2d 02 60 be 19 e1 1f be 53 e3 9b 3c
       -0.31948432 -0.2187583 -0.15613212 0.019029295
000120 0e 56 3e 3d fa 52 49 bf 90 f0 00 3e 8e 93 0f bf
       0.046468787 -0.7864224 0.12591767 -0.56084526
000130 5f c0 35 be 4c 25 84 be ed 95 09 bf d2 e5 0a bf
       -0.17749165 -0.25809705 -0.53744394 -0.5425693
000140 55 03 4b bd 46 36 0e be 38 75 35 3d db 5c ef be
       -0.049563725 -0.13887891 0.04430124 -0.4675053
000150 6b 5e 23 bf b5 02 a4 be 0d 22 ee bd 05 1d 1c be
       -0.63815945 -0.32033315 -0.116275884 -0.15245445
000160 d2 d6 fc be 20 15 86 be 78 2c 6b be 23 52 d6 bd
       -0.49382645 -0.26187992 -0.22966182 -0.10464885
000170 1a 0d 23 3e 52 85 ee be 8a 39 40 be 77 19 e2 bc
       0.15922967 -0.4658609 -0.1877195 -0.027600033
000180 41 00 5d be 18 75 28 3d c7 82 aa be 51 16 0f bf
       -0.21582128 0.041127294 -0.333029 -0.5589343
000190 bd 79 4d bd 45 ee b2 be 54 b4 66 3e c5 3f 1c be
       -0.050164927 -0.3494741 0.22529727 -0.15258701
0001a0 d4 1f 3c bd d1 fb b7 bd 99 a4 91 bd 97 b9 92 be
       -0.04592879 -0.08983577 -0.07111473 -0.2865722
0001b0 f2 c1 ae bd d4 41 79 be 3b cf 44 3d 03 af 75 be
       -0.08533086 -0.24341518 0.048049193 -0.23992543
0001c0 90 ed c4 be 1e a2 90 bc 3f 6f ba bd af fd 2b be
       -0.38462496 -0.017655428 -0.0910325 -0.16795991
0001d0 b1 19 68 be 46 ce 4b bf aa 17 0b be ce bd a2 3e
       -0.2266605 -0.79611623 -0.13583246 0.31785434

sequential.2.bn.running_mean f4 [120]
000000 00 00 00 00 00 00 00 00 00 00 00 00 00 00 00 00
       0.0 0.0 0.0 0.0
000010 00 00 00 00 00 00 00 00 00 00 00 00 00 00 00 00
       0.0 0.0 0.0 0.0
000020 00 00 00 00 00 00 00 00 00 00 00 00 00 00 00 00
       0.0 0.0 0.0 0.0
000030 00 00 00 00 00 00 00 00 00 00 00 00 00 00 00 00
       0.0 0.0 0.0 0.0
000040 00 00 00 00 00 00 00 00 00 00 00 00 00 00 00 00
       0.0 0.0 0.0 0.0
000050 00 00 00 00 00 00 00 00 00 00 00 00 00 00 00 00
       0.0 0.0 0.0 0.0
000060 00 00 00 00 00 00 00 00 00 00 00 00 00 00 00 00
       0.0 0.0 0.0 0.0
000070 00 00 00 00 00 00 00 00 00 00 00 00 00 00 00 00
       0.0 0.0 0.0 0.0
000080 00 00 00 00 00 00 00 00 00 00 00 00 00 00 00 00
       0.0 0.0 0.0 0.0
000090 00 00 00 00 00 00 00 00 00 00 00 00 00 00 00 00
       0.0 0.0 0.0 0.0
0000a0 00 00 00 00 00 00 00 00 00 00 00 00 00 00 00 00
       0.0 0.0 0.0 0.0
0000b0 00 00 00 00 00 00 00 00 00 00 00 00 00 00 00 00
       0.0 0.0 0.0 0.0
0000c0 00 00 00 00 00 00 00 00 00 00 00 00 00 00 00 00
       0.0 0.0 0.0 0.0
0000d0 00 00 00 00 00 00 00 00 00 00 00 00 00 00 00 00
       0.0 0.0 0.0 0.0
0000e0 00 00 00 00 00 00 00 00 00 00 00 00 00 00 00 00
       0.0 0.0 0.0 0.0
0000f0 00 00 00 00 00 00 00 00 00 00 00 00 00 00 00 00
       0.0 0.0 0.0 0.0
000100 00 00 00 00 00 00 00 00 00 00 00 00 00 00 00 00
       0.0 0.0 0.0 0.0
000110 00 00 00 00 00 00 00 00 00 00 00 00 00 00 00 00
       0.0 0.0 0.0 0.0
000120 00 00 00 00 00 00 00 00 00 00 00 00 00 00 00 00
       0.0 0.0 0.0 0.0
000130 00 00 00 00 00 00 00 00 00 00 00 00 00 00 00 00
       0.0 0.0 0.0 0.0
000140 00 00 00 00 00 00 00 00 00 00 00 00 00 00 00 00
       0.0 0.0 0.0 0.0
000150 00 00 00 00 00 00 00 00 00 00 00 00 00 00 00 00
       0.0 0.0 0.0 0.0
000160 00 00 00 00 00 00 00 00 00 00 00 00 00 00 00 00
       0.0 0.0 0.0 0.0
000170 00 00 00 00 00 00 00 00 00 00 00 00 00 00 00 00
       0.0 0.0 0.0 0.0
000180 00 00 00 00 00 00 00 00 00 00 00 00 00 00 00 00
       0.0 0.0 0.0 0.0
000190 00 00 00 00 00 00 00 00 00 00 00 00 00 00 00 00
       0.0 0.0 0.0 0.0
0001a0 00 00 00 00 00 00 00 00 00 00 00 00 00 00 00 00
       0.0 0.0 0.0 0.0
0001b0 00 00 00 00 00 00 00 00 00 00 00 00 00 00 00 00
       0.0 0.0 0.0 0.0
0001c0 00 00 00 00 00 00 00 00 00 00 00 00 00 00 00 00
       0.0 0.0 0.0 0.0
0001d0 00 00 00 00 00 00 00 00 00 00 00 00 00 00 00 00
       0.0 0.0 0.0 0.0

sequential.2.bn.running_var f4 [120]
000000 00 00 80 3f 00 00 80 3f 00 00 80 3f 00 00 80 3f
       1.0 1.0 1.0 1.0
000010 00 00 80 3f 00 00 80 3f 00 00 80 3f 00 00 80 3f
       1.0 1.0 1.0 1.0
000020 00 00 80 3f 00 00 80 3f 00 00 80 3f 00 00 80 3f
       1.0 1.0 1.0 1.0
000030 00 00 80 3f 00 00 80 3f 00 00 80 3f 00 00 80 3f
       1.0 1.0 1.0 1.0
000040 00 00 80 3f 00 00 80 3f 00 00 80 3f 00 00 80 3f
       1.0 1.0 1.0 1.0
000050 00 00 80 3f 00 00 80 3f 00 00 80 3f 00 00 80 3f
       1.0 1.0 1.0 1.0
000060 00 00 80 3f 00 00 80 3f 00 00 80 3f 00 00 80 3f
       1.0 1.0 1.0 1.0
000070 00 00 80 3f 00 00 80 3f 00 00 80 3f 00 00 80 3f
       1.0 1.0 1.0 1.0
000080 00 00 80 3f 00 00 80 3f 00 00 80 3f 00 00 80 3f
       1.0 1.0 1.0 1.0
000090 00 00 80 3f 00 00 80 3f 00 00 80 3f 00 00 80 3f
       1.0 1.0 1.0 1.0
0000a0 00 00 80 3f 00 00 80 3f 00 00 80 3f 00 00 80 3f
       1.0 1.0 1.0 1.0
0000b0 00 00 80 3f 00 00 80 3f 00 00 80 3f 00 00 80 3f
       1.0 1.0 1.0 1.0
0000c0 00 00 80 3f 00 00 80 3f 00 00 80 3f 00 00 80 3f
       1.0 1.0 1.0 1.0
0000d0 00 00 80 3f 00 00 80 3f 00 00 80 3f 00 00 80 3f
       1.0 1.0 1.0 1.0
0000e0 00 00 80 3f 00 00 80 3f 00 00 80 3f 00 00 80 3f
       1.0 1.0 1.0 1.0
0000f0 00 00 80 3f 00 00 80 3f 00 00 80 3f 00 00 80 3f
       1.0 1.0 1.0 1.0
000100 00 00 80 3f 00 00 80 3f 00 00 80 3f 00 00 80 3f
       1.0 1.0 1.0 1.0
000110 00 00 80 3f 00 00 80 3f 00 00 80 3f 00 00 80 3f
       1.0 1.0 1.0 1.0
000120 00 00 80 3f 00 00 80 3f 00 00 80 3f 00 00 80 3f
       1.0 1.0 1.0 1.0
000130 00 00 80 3f 00 00 80 3f 00 00 80 3f 00 00 80 3f
       1.0 1.0 1.0 1.0
000140 00 00 80 3f 00 00 80 3f 00 00 80 3f 00 00 80 3f
       1.0 1.0 1.0 1.0
000150 00 00 80 3f 00 00 80 3f 00 00 80 3f 00 00 80 3f
       1.0 1.0 1.0 1.0
000160 00 00 80 3f 00 00 80 3f 00 00 80 3f 00 00 80 3f
       1.0 1.0 1.0 1.0
000170 00 00 80 3f 00 00 80 3f 00 00 80 3f 00 00 80 3f
       1.0 1.0 1.0 1.0
000180 00 00 80 3f 00 00 80 3f 00 00 80 3f 00 00 80 3f
       1.0 1.0 1.0 1.0
000190 00 00 80 3f 00 00 80 3f 00 00 80 3f 00 00 80 3f
       1.0 1.0 1.0 1.0
0001a0 00 00 80 3f 00 00 80 3f 00 00 80 3f 00 00 80 3f
       1.0 1.0 1.0 1.0
0001b0 00 00 80 3f 00 00 80 3f 00 00 80 3f 00 00 80 3f
       1.0 1.0 1.0 1.0
0001c0 00 00 80 3f 00 00 80 3f 00 00 80 3f 00 00 80 3f
       1.0 1.0 1.0 1.0
0001d0 00 00 80 3f 00 00 80 3f 00 00 80 3f 00 00 80 3f
       1.0 1.0 1.0 1.0
