Models/Z_25GeV_200.pth (torch, 197858 bytes, 36 tensors)

sequential.0.Gamma.weight f4 [80, 5]
000000 68 c1 44 3e c2 e7 a5 3e 0a e8 4a 3f f0 5e 7e bd
       0.19214404 0.3240338 0.79260314 -0.06210226
000010 57 25 cb 37 4f 96 5e 3f 24 41 1a 3d b1 50 59 be
       2.4216873e-05 0.869481 0.03765978 -0.21222188
000020 cc 13 d5 3f 5c cc 51 bf c7 f6 0e bf 90 a8 a9 bf
       1.6646667 -0.8195245 -0.558453 -1.3254566
000030 c0 a5 c2 be 96 1b 22 be dc 71 79 3e 56 e3 02 3f
       -0.38017082 -0.15830836 0.2435984 0.5112814
000040 28 62 15 3d 04 3a 93 bf 8c 68 8e 3d 48 7f d5 bf
       0.036470562 -1.150208 0.069535345 -1.6679468
000050 71 34 c9 3e ca a7 8e be 96 33 08 3f 4e 75 65 be
       0.39297822 -0.27862388 0.53203714 -0.2240803
000060 fe 72 7a bf 84 24 de bd 2c d6 ba bd e2 25 62 3f
       -0.97831714 -0.108468086 -0.09122881 0.88339055
000070 b4 c6 0e bf 39 37 28 be 07 bc 01 bf cc 6d 7a 3f
       -0.55771947 -0.16427316 -0.5067753 0.97823787
000080 61 44 6f 3e 70 71 98 bf d0 33 67 3e a5 46 91 3f
       0.23365928 -1.1909618 0.22578359 1.1349684
000090 30 27 f6 be 93 34 ce 3d 64 d9 28 3e 1a bb f1 bd
       -0.48076773 0.100686215 0.16489178 -0.11803265
0000a0 e4 29 c7 3d bd 33 1b bf 60 bc d7 bc 99 13 a5 3f
       0.09724787 -0.6062582 -0.026334941 1.2896606
0000b0 ec b9 32 bd 7e a0 67 3e 0d e1 0d 3f b4 83 be be
       -0.04363434 0.22619817 0.55421525 -0.37209857
0000c0 b3 3b 6c bf e6 9c 0c 3f e5 b0 a1 3e e2 7b 6c bf
       -0.92278594 0.5492691 0.31580272 -0.9237653
0000d0 5f be 26 3f 9c a6 fb be 35 8c 02 3f 54 6a b1 bf
       0.65134233 -0.4915055 0.5099519 -1.3860574
0000e0 f9 8c 94 bf d9 9b 71 bf 9d 57 2e bf 82 1d a7 bf
       -1.1605521 -0.9437843 -0.6810244 -1.305588
0000f0 3c bf e7 3e cc cb 51 3f 07 b1 ea bd 0a f1 b1 bd
       0.45263088 0.81951594 -0.114595465 -0.08688553
000100 bc 69 30 bf 0e 38 eb 3e f9 7c e8 be a6 a0 0c 3e
       -0.6891134 0.45941204 -0.45407847 0.13733158
000110 e0 8d 54 be eb 82 1d bf 5c e2 7e bf e2 ea 20 3f
       -0.20757246 -0.6152789 -0.99564147 0.628584
000120 37 71 dc bc fe 53 35 3e a6 a9 64 3f 00 ae 15 3f
       -0.026909454 0.17707822 0.8932136 0.5846863
000130 7e d9 a6 bd 0b aa 75 be 84 fb 80 3e 51 11 a7 bc
       -0.08146952 -0.23990647 0.2519189 -0.020394
000140 4b 0e a3 bd a8 9a 04 bf 43 2f f7 3e e1 82 93 3e
       -0.079617105 -0.51798487 0.48278245 0.2881079
000150 de 62 f3 3e cf ab 25 bf 1e 4b e5 3e 0b fa bb 3e
       0.47536367 -0.64715284 0.44783872 0.36714205
000160 50 9f b7 bf 89 e9 0f 3f 21 49 96 3e 87 cc 80 be
       -1.4345493 0.5621572 0.29352668 -0.25156042
000170 3d 75 d7 be a1 0b 6b be 6e 38 53 3f c2 24 51 3f
       -0.42081633 -0.22953655 0.8250798 0.8169671
000180 34 bb 91 bf e2 06 cb be 04 8d 49 3f 1d a8 a4 3d
       -1.1385255 -0.3965369 0.787308 0.080398776
000190 89 d6 37 bf ba 38 10 be d4 d8 cf bc 9c 22 75 3f
       -0.7181173 -0.1408414 -0.025371946 0.95755935
0001a0 a8 58 9b be a6 b8 97 bf c5 66 ac 3f 87 4c a5 bd
       -0.30341077 -1.1853225 1.3468863 -0.08071237
0001b0 0f 28 9a 3e 35 42 a3 bf ff 38 b3 3e b9 37 21 be
       0.30108687 -1.275458 0.35004422 -0.15743913
0001c0 7c ca 1d be 2c 00 46 3e d3 a2 45 3e ff dd 33 40
       -0.15409273 0.19336003 0.19300394 2.8104246
0001d0 b5 b1 b9 3f 5e 3b a2 bb aa 62 bd 3c fd ec 16 bd
       1.4507357 -0.004950925 0.023118336 -0.036847103
0001e0 f6 64 18 bf 74 e2 8e 3e 7e 9f 7a be 7c fb fe 3e
       -0.59529054 0.27907145 -0.24474904 0.49801242
0001f0 3a c9 90 3e cd f8 54 be d7 e1 95 be 7b 89 f0 bb
       0.28278524 -0.20798035 -0.29273865 -0.0073406077
000200 2c e7 41 3f db 7c f9 3e f1 31 a9 bd 9f 84 20 bf
       0.75743365 0.4872807 -0.08261479 -0.62702364
000210 b9 9a ba bf 73 fb 3a 3f b3 60 30 bf 6d 24 27 be
       -1.4578468 0.7303993 -0.6889755 -0.16322489
000220 3d e3 39 be 55 3b 40 be 3d de 38 bf 6d 10 3f bd
       -0.18153091 -0.18772633 -0.7221411 -0.046646524
000230 fb 8e 47 3d 44 d6 08 be dc e8 bc be 62 fd 8d bf
       0.04872034 -0.13362986 -0.36896408 -1.1092951
000240 33 4f d9 3e b7 ae ef 3f bb 7e 05 c0 29 67 6e bf
       0.42443237 1.8725194 -2.08586 -0.9312616
000250 ce 98 d7 3d b4 da 25 3f e5 ef 93 bf 35 e5 97 bf
       0.10527192 0.6478684 -1.1557585 -1.1866823
000260 5f 97 7f bf a4 23 ab be 88 76 73 3f 70 31 a2 3e
       -0.9984035 -0.3342563 0.9510274 0.31678343
000270 b3 9c 3d 3f 39 cd d7 3e 0c 1b 05 bf 84 35 41 be
       0.7406723 0.4214876 -0.51994395 -0.18868071
000280 81 8f 5e 3f 9c 4c bc 3f 83 da 5d bf 2a d9 20 40
       0.8693772 1.4710879 -0.8666155 2.5132546
000290 35 3b 9c 3e 1b 6e e2 3e 96 de 80 3f ad 8a 3f 3f
       0.3051392 0.4422463 1.0067928 0.7482098
0002a0 93 7d a9 3f 78 a2 bf 3e b6 12 b7 3f 55 4e c0 bf
       1.3241447 0.3742864 1.4302585 -1.5023905
0002b0 f7 2a 0f 3f 21 55 95 3e 66 4c 5b 3e a9 4b 14 3f
       0.55924934 0.2916651 0.21415862 0.5792795
0002c0 b5 b4 99 be 48 e5 07 bd a6 dd 16 3f 0b cc 4d c0
       -0.3002068 -0.033177644 0.5893196 -3.2155788
0002d0 04 32 ea bf 76 61 2e 3f 53 19 71 bf cc c5 cf 3e
       -1.8296514 0.68117464 -0.94179267 0.40580595
0002e0 da 15 1b bf ee 24 06 40 3b a9 7e 3f ac 4a 8c 3e
       -0.6058022 2.096004 0.99476975 0.2740072
0002f0 bc 3a 0b 3f 3d ae f5 bf a5 85 75 bf be e4 02 bf
       0.54386497 -1.9193798 -0.9590705 -0.5113028
000300 8f 47 ea be a4 d1 8d 3f 9b f8 de be 2d 29 63 bf
       -0.4575772 1.1079602 -0.43549046 -0.88734704
000310 52 ba c1 3d 8e 3c 41 bf 2a f5 82 3f 9f 27 fd be
       0.09459366 -0.75483024 1.0231068 -0.4944429
000320 d8 39 32 3d 78 f8 5b bf b1 f7 a5 3f 5c e0 55 3f
       0.043512195 -0.8592601 1.2966214 0.8354547
000330 71 9e 01 bf b3 df 52 be 96 c8 1f bf ab cb 4d 3c
       -0.5063239 -0.20593147 -0.62415445 0.012560765
000340 48 3b df 3e a4 2e 98 3e 35 30 06 3f de 4d d0 be
       0.43599916 0.29723084 0.5241731 -0.40684408
000350 fb c8 d0 be 11 9c 20 bd 6e bd 51 3f 39 d0 53 3e
       -0.40778336 -0.039211337 0.8192967 0.206849
000360 58 60 e2 3e 52 1f 00 3f 2d 2a ac 3f 37 d3 20 bf
       0.4421413 0.5004779 1.3450371 -0.6282229
000370 82 0f 7e be d7 5c ab be db 08 75 3f 04 6f 83 3f
       -0.24810603 -0.3346927 0.9571664 1.0268254
000380 bd c8 bb bf 10 51 dd be 41 66 03 bf cf 61 26 3f
       -1.4670635 -0.43225908 -0.513279 0.64992994
000390 5d 5d 57 3f b9 aa e1 3e db fa 5d 3f 77 38 bf be
       0.84126836 0.44075564 0.867109 -0.37347767
0003a0 0a 35 d6 3e dd 50 5d 3e 13 1d 1c bf 18 e8 9a 3d
       0.4183734 0.21612878 -0.60981864 0.075637996
0003b0 4f 80 f9 3e 92 7c 89 3f be 43 27 40 28 1f 2a bf
       0.48730704 1.0741141 2.6135097 -0.6645379
0003c0 bd 55 ad ba d6 1c 37 bf 2a a6 64 3f 3b 38 8d be
       -0.0013224405 -0.71528375 0.89316046 -0.27581963
0003d0 58 75 d5 3e ff ff f8 3e 59 b3 f2 3d dd 3d 79 be
       0.4169109 0.4863281 0.11850614 -0.24340005
0003e0 e3 30 93 be 14 71 c2 3d 80 53 9c 3e 3c 12 f5 3e
       -0.28748235 0.09494224 0.30532455 0.47865474
0003f0 4f 66 54 3e 25 ec 9f bf a5 ac dc bc d2 d3 1a 3f
       0.20742153 -1.249394 -0.026937792 0.6047946

sequential.0.Gamma.bias f4 [80]
000000 3f 71 41 be 21 8b 44 be dc 91 5b be 32 e1 c3 be
       -0.18890856 -0.19193698 -0.2144236 -0.38257748
000010 00 30 25 3e c8 80 5a bd 68 f9 6d 3e 02 b1 ca 3d
       0.16131592 -0.05334547 0.23239672 0.09897043
000020 cd d3 56 3d 24 fb 17 be ad 5a 79 bd 8f a1 63 be
       0.052448083 -0.14841896 -0.06087749 -0.22229598
000030 fa 1d 17 be ac 17 a2 be b8 2d f7 bd 2e 15 c2 be
       -0.14757529 -0.31658685 -0.12069267 -0.37906784
000040 1d 21 61 3d 98 62 2d bb 34 72 25 be 60 a7 35 3e
       0.05496322 -0.0026456472 -0.16156846 0.1773963
000050 ef 25 ce be ac f9 0f bd aa 2c 86 be 21 bd f2 be
       -0.40263316 -0.035150215 -0.2620595 -0.4740992
000060 01 7c 15 bf 93 f7 67 be 41 4c 69 be 32 63 20 3d
       -0.5839234 -0.22653036 -0.22782995 0.0391571
000070 1c 7f 35 3d 5f 34 80 bd 15 ae b7 bd d6 1b 41 bd
       0.044310674 -0.06259989 -0.089687504 -0.047145687
000080 e1 77 23 3f 36 b1 a9 3d 15 6d 3d be fc 77 5a be
       0.63854796 0.082857534 -0.18498643 -0.21334833
000090 45 ce 77 be cd 36 39 be fc 03 8e 3e 2e da 96 be
       -0.2419978 -0.18087311 0.27737415 -0.29463333
0000a0 ef 3b d6 be 16 2a 66 3e e6 8f 2d be c0 19 4a 3e
       -0.418426 0.22476992 -0.16949424 0.19736385
0000b0 6d f6 a9 be 87 8f 3b 3e ce fb 06 3e 89 f8 0e 3e
       -0.3319582 0.1831647 0.13181993 0.13961996
0000c0 e8 6a d6 3d 7c b2 88 be 2d 14 54 be 33 dd 77 bd
       0.104696095 -0.26698673 -0.20710821 -0.060513686
0000d0 22 bd b8 3d e7 1d 12 3e f7 39 ec 3d e7 9e 3a 3e
       0.09020449 0.1426922 0.115344934 0.18224679
0000e0 dd c3 23 3d 81 d1 14 3e 33 4b b5 3c 3e 49 a1 3e
       0.03998171 0.14533044 0.022130584 0.31501192
0000f0 d8 28 6b 3e a1 74 2c be 44 99 17 bd 4a e9 8b be
       0.229648 -0.16841365 -0.0370114 -0.27326423
000100 93 66 06 be 8d 04 d4 be 3b 67 58 be 8d bd bf be
       -0.13125066 -0.41409722 -0.2113313 -0.37449303
000110 11 aa da 3d 80 0b 13 be 9f 46 67 3d bd 44 87 bd
       0.10676969 -0.14359856 0.056463834 -0.06604908
000120 63 ef a9 bd 38 6a 65 bf cb 77 2e be 60 80 cb 3c
       -0.082976125 -0.896152 -0.17037885 0.024841487
000130 35 f3 56 3e e3 a0 0f 3d 42 b0 5d be 0a b1 53 3e
       0.20991214 0.035065543 -0.21649268 0.20673004

sequential.0.Lambda.weight f4 [80, 5]
000000 1c 21 bf be 05 b5 a9 be 07 aa 5e bf 78 76 a5 bd
       -0.37329948 -0.3314592 -0.8697819 -0.08079237
000010 d7 8c d9 3e 11 0a 03 bf 5d b2 d5 be 39 2c 07 be
       0.42490265 -0.51187235 -0.41737643 -0.13200463
000020 f6 19 21 3f e1 2f af 3f 4a f9 19 3d d2 51 32 3d
       0.6293024 1.3686486 0.037591256 0.04353506
000030 d4 96 60 bf bd 5e 61 3f 46 6c aa 3e 3f 93 fc 3e
       -0.87730145 0.88035184 0.3328573 0.4933109
000040 83 a2 21 3e 5d d5 8f 3e 97 45 fb 3d 3d 41 74 bf
       0.1578465 0.2809247 0.122691326 -0.95412046
000050 00 ca 16 3f 4b c5 b3 be d3 1c 04 bf 00 24 c3 3f
       0.5890198 -0.3511146 -0.5160648 1.5245361
000060 30 24 1b bf 5c 94 17 3e c2 4c 61 3f 4f f2 5c be
       -0.6060209 0.14802688 0.8800775 -0.21576808
000070 61 b6 2c bc f3 62 8a 3f 8b 91 0b bc 1f 0a 1a 3f
       -0.010541529 1.0811447 -0.008518587 0.60171694
000080 84 bc a0 be fb 2b 3c bf 08 6f e3 be 7e 92 3f 3f
       -0.31393826 -0.7350461 -0.44420648 0.74832904
000090 34 fc b3 3f c9 f7 94 be da 46 70 be 23 d0 ee be
       1.4061341 -0.29095295 -0.23464528 -0.4664317
0000a0 12 1c c6 3e 0e a9 87 3d 84 16 e6 3e 19 c7 1c bf
       0.3869329 0.066240415 0.44939053 -0.612413
0000b0 e4 cc f0 3e 0b 54 67 bf 3f c1 91 be 91 4e c6 be
       0.4703132 -0.90362614 -0.28467748 -0.38731816
0000c0 e2 a8 82 3f 94 a8 74 3f 07 6c 17 be 39 2d 0a 3f
       1.0207789 0.9556973 -0.14787303 0.53975254
0000d0 46 15 eb be 45 b9 f5 3f e1 ee 12 be b6 40 e1 3e
       -0.45914668 1.9197165 -0.14348938 0.43994683
0000e0 ab 09 e0 bd 5e e1 dd 3e 14 06 ba 3d d9 f6 16 3f
       -0.10939344 0.43336004 0.090831906 0.5897041
0000f0 19 c8 06 3e ad 21 8e be b0 22 11 3e 49 b0 c7 3e
       0.13162269 -0.27760068 0.14173388 0.39001682
000100 4d 9e 98 3e 7d 59 ff 3e b9 6e 3a 3f 72 eb 7d be
       0.29808274 0.49872962 0.728252 -0.24796847
000110 d0 57 48 be 3c 9f b7 be 31 64 74 3d 72 2b f7 3d
       -0.19564748 -0.35863674 0.059665862 0.120688334
000120 5d 80 2d 3f a9 0b d3 3e 4a 57 21 bf 2e 27 0b 3f
       0.6777399 0.41219833 -0.6302382 0.5435666
000130 e9 96 a9 bf 74 f9 6b 3f 28 ea 0e 3e dc 07 85 3f
       -1.3249179 0.9217751 0.13956511 1.0393023
000140 c5 69 2a 3e a6 46 d5 3d 2d fd 87 bf a4 e9 0a 3e
       0.1664191 0.10413866 -1.0624138 0.1356569
000150 c9 64 e4 3e 64 52 e6 bc 57 4e 0b 3e 38 8e 1b be
       0.44608143 -0.028115459 0.13604103 -0.15190971
000160 0c 10 6d be fe 12 50 be ea e2 6d 3e a7 cd 44 be
       -0.23150653 -0.20319745 0.23231092 -0.19219075
000170 b7 b3 49 3e 41 9d ec 3d 4d 81 45 bf 71 b6 3b bf
       0.19697462 0.11553431 -0.7715042 -0.7332526
000180 fd cc 00 be 73 80 b9 bd 93 e3 aa 3e 1c d2 12 bf
       -0.12578197 -0.09057703 0.3337675 -0.5735185
000190 97 30 81 3f ba be dc be 0b 4e 00 bf 71 24 76 bf
       1.0092953 -0.43114263 -0.50119084 -0.96149355
0001a0 37 1f 83 3f ea 34 70 3e 48 44 fb bd 48 f6 99 3e
       1.0243901 0.23457685 -0.12268883 0.3007071
0001b0 b9 a4 32 be a0 25 97 3e 0e 36 f8 be d5 84 66 bd
       -0.17445649 0.29520893 -0.4847874 -0.056279022
0001c0 ff 3a d4 3e 61 df 64 bf af df 13 3e 72 6c 6b bc
       0.4145126 -0.8940335 0.14440797 -0.014369117
0001d0 79 ad 55 3c 1e 89 ad 3b 9c 73 cb bb ba 86 14 bb
       0.013041847 0.0052958867 -0.00620885 -0.002266331
0001e0 d9 0d 93 3e a8 a9 a4 be cb df 5c 3f 83 38 12 bf
       0.28721502 -0.32160687 0.8627898 -0.5711748
0001f0 71 7e ff be 26 92 78 bc 63 43 65 3e 53 25 89 be
       -0.49901155 -0.015171563 0.22388987 -0.2678629
000200 f6 aa 62 bf dd 8f 76 3d d9 e6 5c 3f bb 6b 15 3e
       -0.88542116 0.060195792 0.86289746 0.14591877
000210 0b 32 de bd b7 1b db 3f 4e 3e be 3e 62 29 2f 3f
       -0.10849389 1.7117833 0.3715691 0.6842252
000220 cd 16 27 3f ba b0 f1 3e 0e 1d 0b bf b4 89 89 3e
       0.65269166 0.47205144 -0.5434121 0.26862872
000230 21 7c e0 3d 0f c5 c6 3c 44 f6 95 bd 37 a3 54 bf
       0.10961176 0.024263887 -0.07322362 -0.83061546
000240 2d d8 d2 be e2 ed da 3b 26 98 87 bd 25 93 ab bd
       -0.41180554 0.00668119 -0.06620817 -0.08377675
000250 ff 48 aa bc 2f 95 ce bc cb 07 05 bf d2 96 91 be
       -0.02078676 -0.02521762 -0.51965016 -0.2843538
000260 65 88 7a 3f 3c 29 25 3f c5 36 ad bd dc 22 0b be
       0.9786437 0.64516044 -0.08457712 -0.13587517
000270 bd 3d 0c 3e 76 90 23 bf ad 77 1b 3f 05 40 2e be
       0.13695426 -0.63892305 0.60729486 -0.17016609
000280 20 d4 53 bf 30 de b0 3e 7e a1 07 be 49 08 77 bf
       -0.8274555 0.34544516 -0.13245198 -0.9649702
000290 b9 77 18 3f a6 44 56 bd 04 99 6a 3c b3 95 13 3f
       0.5955768 -0.052311562 0.014318708 0.576503
0002a0 0d 22 05 3f 02 2a 47 3d f3 f8 55 be a2 43 dc bc
       0.5200508 0.048624046 -0.20895748 -0.026887719
0002b0 d1 62 b2 3e e0 a4 b3 3e df 7f 27 3e 02 f9 91 3e
       0.34841016 0.35086727 0.16357373 0.2851029
0002c0 55 5f 55 be e0 89 26 be 94 84 10 40 07 c3 e3 be
       -0.20837148 -0.16263533 2.258092 -0.44484732
0002d0 20 1a 32 3f a6 a4 93 3e 2f 15 8b 3d 4a e9 cc be
       0.69571114 0.28836554 0.0679115 -0.40021735
0002e0 20 fd 27 3e 1b 6a 1e 3c ed 84 08 3f b0 b8 0f bf
       0.16405153 0.009668852 0.5332783 -0.56141186
0002f0 3b e5 37 3f 2c f0 f1 be 87 ae 64 3e 89 38 88 3d
       0.7183415 -0.4725355 0.22332202 0.06651408
000300 9d ed e4 be f1 45 04 bf 4f 58 c5 3e 29 77 1f 3d
       -0.44712535 -0.5166922 0.38543937 0.038932
000310 86 a9 1a 3e 9e 2d 17 3f 28 3a b5 3e 8f aa 10 bf
       0.1510373 0.5905398 0.35395932 -0.5651025
000320 b5 4d 33 3e f1 32 a9 3e 0d 51 0f bd e2 08 3e bf
       0.17510112 0.33046678 -0.034989405 -0.74232304
000330 da 6d 0b bf e0 7c cb be 3c cd 94 3f fd f7 a8 3e
       -0.54464495 -0.3974371 1.1625133 0.330017
000340 e0 a9 a6 be 26 eb af bf 60 47 ac be 87 65 26 3f
       -0.3255148 -1.3743637 -0.33648205 0.6499867
000350 f4 99 5b bf 2e fb bf 3e bd 85 c9 3f a1 13 60 3d
       -0.8578179 0.37496322 1.5743939 0.05470622
000360 c5 99 d7 3e 66 19 9c be 1c 23 b4 bd 0d 17 b4 bf
       0.42109504 -0.30488127 -0.08795759 -1.4069535
000370 46 28 4b be 44 7d 10 bf 56 49 ea bd 13 e2 fc bd
       -0.19839582 -0.5644114 -0.11439769 -0.12347808
000380 44 48 95 3e d8 9c c1 3e 85 55 1d 3f a2 07 4c 3f
       0.29156697 0.37814975 0.6145862 0.79699147
000390 1e 3a 8c 3e 17 90 6d 3f f8 64 48 3e 2d a1 29 bd
       0.2738809 0.9279799 0.19569767 -0.041413475
0003a0 4d 7e 14 bf 5b bd 1b bf f3 21 96 3e e6 7a 6d 3c
       -0.5800522 -0.6083581 0.29322776 0.014494633
0003b0 88 53 11 bc f5 6f fe be 22 fb 2b bd 58 1c a8 bd
       -0.008870013 -0.4969479 -0.041987546 -0.08208531
0003c0 8e 1d 73 3d a6 f7 be 3e 09 c8 0a 3f ad b0 a5 be
       0.059354357 0.37298316 0.5421148 -0.32361355
0003d0 bc 7b ac 3e 06 eb 91 3e 6d 92 9b 3e 4c d1 3f 3e
       0.33688152 0.2849962 0.30385152 0.18732184
0003e0 5e bb fa be 31 39 74 3e d7 78 cd 3e 00 ee 5d 3d
       -0.48971075 0.23849942 0.40131256 0.054182053
0003f0 ea f8 77 bd 2b f1 d5 be e1 d0 49 bf 81 04 fd bd
       -0.060540117 -0.4178556 -0.7883435 -0.12354375

sequential.0.Lambda.bias f4 [80]
000000 3f 71 41 be 21 8b 44 be dc 91 5b be 32 e1 c3 be
       -0.18890856 -0.19193698 -0.2144236 -0.38257748
000010 00 30 25 3e c8 80 5a bd 68 f9 6d 3e 02 b1 ca 3d
       0.16131592 -0.05334547 0.23239672 0.09897043
000020 cd d3 56 3d 24 fb 17 be ad 5a 79 bd 8f a1 63 be
       0.052448083 -0.14841896 -0.06087749 -0.22229598
000030 fa 1d 17 be ac 17 a2 be b8 2d f7 bd 2e 15 c2 be
       -0.14757529 -0.31658685 -0.12069267 -0.37906784
000040 1d 21 61 3d 98 62 2d bb 34 72 25 be 60 a7 35 3e
       0.05496322 -0.0026456472 -0.16156846 0.1773963
000050 ef 25 ce be ac f9 0f bd aa 2c 86 be 21 bd f2 be
       -0.40263316 -0.035150215 -0.2620595 -0.4740992
000060 01 7c 15 bf 93 f7 67 be 41 4c 69 be 32 63 20 3d
       -0.5839234 -0.22653036 -0.22782995 0.0391571
000070 1c 7f 35 3d 5f 34 80 bd 15 ae b7 bd d6 1b 41 bd
       0.044310674 -0.06259989 -0.089687504 -0.047145687
000080 e1 77 23 3f 36 b1 a9 3d 15 6d 3d be fc 77 5a be
       0.63854796 0.082857534 -0.18498643 -0.21334833
000090 45 ce 77 be cd 36 39 be fc 03 8e 3e 2e da 96 be
       -0.2419978 -0.18087311 0.27737415 -0.29463333
0000a0 ef 3b d6 be 16 2a 66 3e e6 8f 2d be c0 19 4a 3e
       -0.418426 0.22476992 -0.16949424 0.19736385
0000b0 6d f6 a9 be 87 8f 3b 3e ce fb 06 3e 89 f8 0e 3e
       -0.3319582 0.1831647 0.13181993 0.13961996
0000c0 e8 6a d6 3d 7c b2 88 be 2d 14 54 be 33 dd 77 bd
       0.104696095 -0.26698673 -0.20710821 -0.060513686
0000d0 22 bd b8 3d e7 1d 12 3e f7 39 ec 3d e7 9e 3a 3e
       0.09020449 0.1426922 0.115344934 0.18224679
0000e0 dd c3 23 3d 81 d1 14 3e 33 4b b5 3c 3e 49 a1 3e
       0.03998171 0.14533044 0.022130584 0.31501192
0000f0 d8 28 6b 3e a1 74 2c be 44 99 17 bd 4a e9 8b be
       0.229648 -0.16841365 -0.0370114 -0.27326423
000100 93 66 06 be 8d 04 d4 be 3b 67 58 be 8d bd bf be
       -0.13125066 -0.41409722 -0.2113313 -0.37449303
000110 11 aa da 3d 80 0b 13 be 9f 46 67 3d bd 44 87 bd
       0.10676969 -0.14359856 0.056463834 -0.06604908
000120 63 ef a9 bd 38 6a 65 bf cb 77 2e be 60 80 cb 3c
       -0.082976125 -0.896152 -0.17037885 0.024841487
000130 35 f3 56 3e e3 a0 0f 3d 42 b0 5d be 0a b1 53 3e
       0.20991214 0.035065543 -0.21649268 0.20673004

sequential.0.bn.running_mean f4 [80]
000000 00 00 00 00 00 00 00 00 00 00 00 00 00 00 00 00
       0.0 0.0 0.0 0.0
000010 00 00 00 00 00 00 00 00 00 00 00 00 00 00 00 00
       0.0 0.0 0.0 0.0
000020 00 00 00 00 00 00 00 00 00 00 00 00 00 00 00 00
       0.0 0.0 0.0 0.0
000030 00 00 00 00 00 00 00 00 00 00 00 00 00 00 00 00
       0.0 0.0 0.0 0.0
000040 00 00 00 00 00 00 00 00 00 00 00 00 00 00 00 00
       0.0 0.0 0.0 0.0
000050 00 00 00 00 00 00 00 00 00 00 00 00 00 00 00 00
       0.0 0.0 0.0 0.0
000060 00 00 00 00 00 00 00 00 00 00 00 00 00 00 00 00
       0.0 0.0 0.0 0.0
000070 00 00 00 00 00 00 00 00 00 00 00 00 00 00 00 00
       0.0 0.0 0.0 0.0
000080 00 00 00 00 00 00 00 00 00 00 00 00 00 00 00 00
       0.0 0.0 0.0 0.0
000090 00 00 00 00 00 00 00 00 00 00 00 00 00 00 00 00
       0.0 0.0 0.0 0.0
0000a0 00 00 00 00 00 00 00 00 00 00 00 00 00 00 00 00
       0.0 0.0 0.0 0.0
0000b0 00 00 00 00 00 00 00 00 00 00 00 00 00 00 00 00
       0.0 0.0 0.0 0.0
0000c0 00 00 00 00 00 00 00 00 00 00 00 00 00 00 00 00
       0.0 0.0 0.0 0.0
0000d0 00 00 00 00 00 00 00 00 00 00 00 00 00 00 00 00
       0.0 0.0 0.0 0.0
0000e0 00 00 00 00 00 00 00 00 00 00 00 00 00 00 00 00
       0.0 0.0 0.0 0.0
0000f0 00 00 00 00 00 00 00 00 00 00 00 00 00 00 00 00
       0.0 0.0 0.0 0.0
000100 00 00 00 00 00 00 00 00 00 00 00 00 00 00 00 00
       0.0 0.0 0.0 0.0
000110 00 00 00 00 00 00 00 00 00 00 00 00 00 00 00 00
       0.0 0.0 0.0 0.0
000120 00 00 00 00 00 00 00 00 00 00 00 00 00 00 00 00
       0.0 0.0 0.0 0.0
000130 00 00 00 00 00 00 00 00 00 00 00 00 00 00 00 00
       0.0 0.0 0.0 0.0

sequential.0.bn.running_var f4 [80]
000000 00 00 80 3f 00 00 80 3f 00 00 80 3f 00 00 80 3f
       1.0 1.0 1.0 1.0
000010 00 00 80 3f 00 00 80 3f 00 00 80 3f 00 00 80 3f
       1.0 1.0 1.0 1.0
000020 00 00 80 3f 00 00 80 3f 00 00 80 3f 00 00 80 3f
       1.0 1.0 1.0 1.0
000030 00 00 80 3f 00 00 80 3f 00 00 80 3f 00 00 80 3f
       1.0 1.0 1.0 1.0
000040 00 00 80 3f 00 00 80 3f 00 00 80 3f 00 00 80 3f
       1.0 1.0 1.0 1.0
000050 00 00 80 3f 00 00 80 3f 00 00 80 3f 00 00 80 3f
       1.0 1.0 1.0 1.0
000060 00 00 80 3f 00 00 80 3f 00 00 80 3f 00 00 80 3f
       1.0 1.0 1.0 1.0
000070 00 00 80 3f 00 00 80 3f 00 00 80 3f 00 00 80 3f
       1.0 1.0 1.0 1.0
000080 00 00 80 3f 00 00 80 3f 00 00 80 3f 00 00 80 3f
       1.0 1.0 1.0 1.0
000090 00 00 80 3f 00 00 80 3f 00 00 80 3f 00 00 80 3f
       1.0 1.0 1.0 1.0
0000a0 00 00 80 3f 00 00 80 3f 00 00 80 3f 00 00 80 3f
       1.0 1.0 1.0 1.0
0000b0 00 00 80 3f 00 00 80 3f 00 00 80 3f 00 00 80 3f
       1.0 1.0 1.0 1.0
0000c0 00 00 80 3f 00 00 80 3f 00 00 80 3f 00 00 80 3f
       1.0 1.0 1.0 1.0
0000d0 00 00 80 3f 00 00 80 3f 00 00 80 3f 00 00 80 3f
       1.0 1.0 1.0 1.0
0000e0 00 00 80 3f 00 00 80 3f 00 00 80 3f 00 00 80 3f
       1.0 1.0 1.0 1.0
0000f0 00 00 80 3f 00 00 80 3f 00 00 80 3f 00 00 80 3f
       1.0 1.0 1.0 1.0
000100 00 00 80 3f 00 00 80 3f 00 00 80 3f 00 00 80 3f
       1.0 1.0 1.0 1.0
000110 00 00 80 3f 00 00 80 3f 00 00 80 3f 00 00 80 3f
       1.0 1.0 1.0 1.0
000120 00 00 80 3f 00 00 80 3f 00 00 80 3f 00 00 80 3f
       1.0 1.0 1.0 1.0
000130 00 00 80 3f 00 00 80 3f 00 00 80 3f 00 00 80 3f
       1.0 1.0 1.0 1.0

sequential.2.Gamma.weight f4 [120, 80]
000000 05 7c 20 be 58 9a 94 3e 4b 7a b6 be 7e 4f 2b 3d
       -0.1567231 0.29024005 -0.35640177 0.041823857
000010 c0 17 e8 3d f9 de e6 be 89 e7 88 be ad b1 2a 3c
       0.11332655 -0.4509199 -0.26739147 0.010418338
000020 a7 bd 21 be 6a d3 3e be 75 b3 89 be 41 8b de be
       -0.15795003 -0.18635336 -0.26894727 -0.43465617
000030 fe 40 52 3e 0a 58 5c 3e 02 80 09 be 3b f9 8c be
       0.20532605 0.21517959 -0.13427737 -0.27533898
000040 17 5e f8 bd 44 60 4e be db 27 6a 3e 82 65 43 3e
       -0.12127321 -0.2015391 0.22866766 0.19081691
000050 25 81 4c be 79 fe 8a bf 2a 61 1a be f0 11 26 c0
       -0.1997114 -1.0858909 -0.15076128 -2.5948448
000060 82 41 5f be be de a7 be 4c ab 7d be 70 b3 c7 be
       -0.21802333 -0.32787126 -0.24772376 -0.39004087
000070 07 cc 77 3e 1c b1 1f bf 63 e9 32 bf 2b 70 0d be
       0.24198924 -0.6237962 -0.6988737 -0.1381232
000080 b7 a9 f3 be c4 66 bc bb b2 98 d4 be 13 8a 7a bd
       -0.4759042 -0.0057495553 -0.41522747 -0.061166834
000090 de a0 62 be 81 3b c1 be 6f 2b 87 3e 39 18 02 3e
       -0.22131678 -0.3774071 0.26400325 0.12704553
0000a0 58 2d 0a 3e 09 47 8f 3d 2e 92 dd 3e 78 4f 62 3e
       0.1349386 0.06995971 0.4327559 0.22100627
0000b0 a9 61 f4 3d 34 b1 c2 be 30 cd 86 3e 91 d7 89 3c
       0.1193269 -0.3802582 0.2632842 0.016826423
0000c0 93 30 cc be 68 a2 1a 3e a6 9a cf 3d e0 7b fc bd
       -0.3988081 0.15101016 0.10136919 -0.12328315
0000d0 31 15 fd bc fd 8d d0 3d 21 fb 32 be 4c ec cc bd
       -0.030893894 0.10183332 -0.1747861 -0.100060076
0000e0 41 11 00 be c9 c2 23 be 6f 08 85 3d 23 b4 1e be
       -0.12506582 -0.15992273 0.06495749 -0.15498404
0000f0 a1 12 b7 be 3c 74 27 be 9b 54 db 3d 68 9b 0c be
       -0.357564 -0.16352934 0.107094966 -0.13731158
000100 0b ba 11 c0 bd 75 46 be 4b 31 b3 3e 57 de 71 be
       -2.2769802 -0.19380851 0.34998545 -0.23619972
000110 e8 a6 17 bc 26 75 8b be 12 70 3d bf e5 3a 1c 3e
       -0.009256102 -0.27237815 -0.7399913 0.15256841
000120 cc d2 58 3f 99 99 84 3e fd d3 18 be 6d 3f 8b 3d
       0.8469665 0.25898436 -0.14924617 0.06799207
000130 3e 9d f6 3d 26 29 a9 bf 64 c4 ff 3e 26 eb c7 be
       0.1204171 -1.3215683 0.49954522 -0.39046592
000140 38 8a 04 3e 65 a9 f4 bd e4 dd 56 bf bf 2b a9 be
       0.12943351 -0.11946372 -0.8393233 -0.33041188
000150 4e 5d 52 3e bb e7 83 3e 5f eb 2b be d3 9f 1b 3d
       0.20543405 0.25762734 -0.16789006 0.037994217
000160 3d 8d 10 3e 7c 60 b6 3e f6 73 8c 3e 15 a1 d4 bc
       0.14116378 0.35620487 0.2743222 -0.025955716
000170 d1 0e 58 3e 3a 53 15 3e f4 ab 3e 3e 3e e7 52 bc
       0.21099402 0.1458253 0.18620282 -0.012872515
000180 ab c5 a4 3e ce 82 a7 3d 3b 23 92 3e 04 7e 80 be
       0.3218206 0.08179246 0.28542504 -0.25096142
000190 07 93 00 3e 98 3c ce 3d bd c4 3f be ea 8f 77 3e
       0.12556086 0.10070151 -0.18727393 0.24175993
0001a0 bb 42 d6 be e3 54 7c 3d 88 92 66 be 9f a7 af 3e
       -0.41847786 0.06160439 -0.22516835 0.34307572
0001b0 36 55 ce 3d 67 75 3c 3d 1c 36 d9 be 21 20 1c 3f
       0.100748464 0.0460104 -0.42424095 0.60986525
0001c0 14 57 fc bc a4 54 f4 3c 6a 77 30 3d 72 a5 2d be
       -0.03080324 0.029825516 0.043082632 -0.16957644
0001d0 61 b7 35 be 78 41 b8 3d f1 df 33 be 28 b5 3f 3e
       -0.17745735 0.08996862 -0.17565896 0.1872145
0001e0 06 1f 64 3e 33 94 8e 3b 0f ec 99 3e 4b e4 79 bc
       0.2227746 0.004351163 0.3006291 -0.015252183
0001f0 4f 0d 67 be 9e 30 e1 3d ca 54 b1 3d ff c5 f2 3e
       -0.2256367 0.10995601 0.0865875 0.47416684
000200 92 c7 33 3e 48 e3 3e 3e 61 84 9d 3d 30 52 c8 bd
       0.17556599 0.18641388 0.07691265 -0.09781301
000210 ff 93 3c be 13 47 38 3e d5 a6 f3 bd 34 1b 87 be
       -0.18415831 0.17995863 -0.11897055 -0.26387942
000220 28 93 77 be cd c6 19 3e c3 0e 07 bf 78 05 44 3f
       -0.2417723 0.15017243 -0.527569 0.76570845
000230 17 40 92 be e7 6e cb be 38 af 30 3c 5b 57 8e be
       -0.28564522 -0.3973305 0.010783963 -0.27801022
000240 b5 6a d0 3e c7 6b 73 3d e4 4a 2f be f1 41 68 bd
       0.4070641 0.059428956 -0.17118412 -0.05670351
000250 79 62 4c 3e b2 8c b7 3c 4f 21 37 3e f0 10 f4 3d
       0.1995944 0.022405956 0.178838 0.11917293
000260 cc 3c a5 be 4d 5b ef 3c 82 02 8b 3e 08 72 92 3d
       -0.32272947 0.02921834 0.2715035 0.07150656
000270 4f d1 7c 3d ac af dd 3e a1 7d 00 3e 55 fb af 3e
       0.06172305 0.4329809 0.12547924 0.3437144
000280 6e 48 2e ba c5 85 96 bd a2 19 4a be 21 9b 43 3e
       -0.0006648366 -0.07349733 -0.1973634 0.19102146
000290 86 a7 16 bf 1d 86 d7 3e cf ed b2 bd 1f e0 f0 3d
       -0.5884937 0.42094508 -0.08736765 0.11761498
0002a0 4a 07 5d be 80 90 0e be e7 1d 99 3e 46 4f 3a 3f
       -0.21584812 -0.1392231 0.29905626 0.7277721
0002b0 e5 fa 34 3f cf d9 33 bd f1 05 be be 03 75 cb bd
       0.70695335 -0.04390889 -0.37113908 -0.099344276
0002c0 01 e5 2f 3e bc d5 0d be 13 84 e2 3e ea 92 3a be
       0.17177202 -0.13851064 0.4424139 -0.18220106
0002d0 26 4a 1a bf 33 cb 27 3e 4b c4 3e 3e 55 b5 eb be
       -0.6026939 0.16386108 0.18629567 -0.46036783
0002e0 e4 10 4c 3e e6 3a ce bd 45 08 35 3e 6c df 23 3e
       0.19928318 -0.10069828 0.17678936 0.16003197
0002f0 3f 98 af be c0 3b 16 be fb 21 8f 3e e7 2e e9 3d
       -0.34295842 -0.1467123 0.27955613 0.11385899
000300 31 c1 ba bd cf 23 54 3e 97 bc 52 be 64 29 07 bf
       -0.091188796 0.20716785 -0.20579754 -0.5279753
000310 e4 ad 6e bd 01 f7 40 3d f8 bc 2e bf 21 a1 bb be
       -0.058271304 0.04711056 -0.68257093 -0.3664637
000320 70 64 a6 be b4 68 46 be 90 80 81 3e 36 51 87 bd
       -0.32498503 -0.19375879 0.25293398 -0.06607287
000330 16 0b 07 bf 65 3d 0e bf 49 2b 7f be ee ad e1 3d
       -0.5275129 -0.5556243 -0.24918856 0.110195026
000340 0f 14 a0 3e b6 05 a0 3d 45 16 01 3e c1 23 48 be
       0.31265303 0.07813589 0.12606151 -0.19544889
000350 1f f2 46 bd ec 51 06 bf fe 1a dc be fb 80 9d 3c
       -0.04857075 -0.5246875 -0.42989343 0.019226542
000360 02 aa b7 bc 13 9b cc 39 7a bf 56 be 69 b0 2e 3e
       -0.022419933 0.0003902545 -0.2097148 0.17059483
000370 7b 9c 61 3d ea e9 82 3e bc a7 ae be 78 c1 03 3d
       0.055080872 0.25569087 -0.34112346 0.032166928
000380 0f f1 19 bf 44 84 a6 be 3c 12 89 3c 0c 98 07 3e
       -0.6013345 -0.32522786 0.016732328 0.13241595
000390 d4 c2 14 be 3d c7 9d be ae 98 0f bf af 19 ea 3c
       -0.14527446 -0.3081607 -0.56092346 0.0285767
0003a0 4c 91 cc 3e f3 09 c8 bd 8d 0d a9 be 6c e9 c5 bd
       0.39954603 -0.09767523 -0.3301815 -0.09663662
0003b0 9c ef 40 3d 7d b1 1a bf a7 20 2b 3f 7b 06 97 bd
       0.04710351 -0.60427076 0.668467 -0.07374283
0003c0 fe c7 1f be f3 07 9f be 4d 23 df bd 50 9b a9 3e
       -0.15603635 -0.31060752 -0.10895405 0.33126307
0003d0 d4 20 9f 3e d4 2e 4a be af ed 3d be b0 b0 73 3e
       0.31079733 -0.19744426 -0.185477 0.2379787
0003e0 6c 14 2d bf c2 8d a0 3e ee f1 19 be 51 1b 87 bf
       -0.67609286 0.31358153 -0.15033695 -1.0555211
0003f0 61 bc 1e bf f1 4a 21 be 22 68 79 3e 33 04 30 be
       -0.62006193 -0.15751244 0.2435613 -0.17189102

sequential.2.Gamma.bias f4 [120]
000000 1f 54 b1 bd 2c fd b0 3d be e2 e8 3d 6c 5c d7 bd
       -0.08658623 0.08642039 0.11371373 -0.10515675
000010 f4 2b 0f bd 4a c1 19 3c e7 02 92 3d 5f 66 f7 bd
       -0.034954026 0.009384463 0.0712946 -0.120800726
000020 a3 0a 23 be 8c 55 1b 3e c3 59 dd be 2a 57 2f be
       -0.15922026 0.15169352 -0.43232545 -0.17123094
000030 03 a5 27 bd a3 e1 f8 bc e7 8b 18 3e fa 49 2a be
       -0.04092885 -0.03038103 0.14897119 -0.16629782
000040 40 fa 98 be 72 bd a1 bc b7 5c 53 bd 07 b2 1c be
       -0.29878426 -0.019743655 -0.05160209 -0.15302287
000050 70 73 33 be 3c d4 1d be 83 99 21 3e e0 6d 46 be
       -0.17524505 -0.15412992 0.15781216 -0.19377851
000060 fc 0a 11 be 8e 1c 42 3d 23 1b 0f bc 5e c0 91 be
       -0.14164346 0.047390513 -0.008734497 -0.28467077
000070 85 82 40 be 36 2e 0e be b7 48 8a 3d bb 26 bc bd
       -0.18799789 -0.13884816 0.067521505 -0.09187075
000080 88 2c 0a be 7f f5 1e bd be b0 bb bc 8d 35 a6 3d
       -0.1349355 -0.038808342 -0.022911426 0.08115683
000090 81 35 67 be d0 68 34 be 73 fd 21 be 23 63 fd bd
       -0.22579004 -0.17618108 -0.1581934 -0.123724245
0000a0 1a 9f 00 be 7f c9 ca 3c 3d 5c 9c bd ab e7 0d 3c
       -0.12560692 0.024754284 -0.076347806 0.008661191
0000b0 43 f4 83 bd fc 96 02 be ec bf 0e bd 9f 4f 10 bd
       -0.064430736 -0.12752908 -0.034851 -0.035232183
0000c0 3e 0f 2c bd b5 15 07 3d 21 03 17 bc e4 a6 84 be
       -0.042006724 0.032979686 -0.009217055 -0.25908577
0000d0 04 e2 c2 3e b2 81 b0 bc 2c 6f 0a 3e ee da 79 bd
       0.3806306 -0.021546219 0.13518971 -0.060999803
0000e0 43 e9 0b be 6d 50 96 3d 87 1c c4 bc 81 ad db 3b
       -0.13663201 0.07339559 -0.023939384 0.006704033
0000f0 7b df 30 3e 08 40 16 be 61 ef 7e be 2d 25 18 3c
       0.17272751 -0.14672863 -0.24896003 0.009286207
000100 27 40 b5 bd 0b d2 6a bd a8 09 ec bd 99 48 91 bd
       -0.08850127 -0.05732922 -0.11525279 -0.07093925
000110 15 ac 02 be f9 20 a8 3e 7f 20 69 3d d4 03 9b 3d
       -0.12760957 0.32837656 0.056915756 0.075690895
000120 bb f5 44 3d fc 54 0a 3e a6 32 c5 3d 4d f6 93 be
       0.04808591 0.13508981 0.09628801 -0.2889885
000130 fa 27 98 3e 18 d0 98 bc 1f 52 5a 3d c2 f3 f4 bb
       0.29718 -0.018653914 0.053300973 -0.0074753473
000140 a3 f6 c9 3d 6e 93 95 3d 04 75 b7 bc 3e e2 05 be
       0.09861495 0.073035106 -0.022394665 -0.13074586
000150 e9 56 6d be bb 32 30 bd dd e0 26 be f5 1f 4c 3d
       -0.23177685 -0.04301713 -0.16296716 0.049835164
000160 55 56 ab bd c9 45 4a bd 82 5a b4 bd d6 f5 b4 bd
       -0.08366076 -0.04938296 -0.088063255 -0.08835952
000170 71 b1 a1 3d a6 57 e7 3d 6f bb 9d bd 82 20 87 be
       0.078951724 0.112960145 -0.07701766 -0.2639199
000180 2b 05 4f 3e 3c 95 24 3e e9 db 86 bd 48 49 e6 3c
       0.20216815 0.16072553 -0.06584913 0.028111115
000190 58 c3 fe bd a5 5f 03 be c8 f3 31 bd 0a 1d 59 be
       -0.124396026 -0.12829454 -0.04344538 -0.21202484
0001a0 0e 0d 2b bd aa 55 7c bd 50 05 84 be ab d8 ff bd
       -0.041760497 -0.061605133 -0.25785303 -0.12492498
0001b0 68 df 1a 3d 25 c0 01 3e be 53 66 3d 5f 17 1e be
       0.037810713 0.12670954 0.056232207 -0.15438603
0001c0 8d e5 72 bd b8 c5 0d 3b eb 89 0a be ef 30 9a bd
       -0.059300948 0.0021632742 -0.13529174 -0.075288646
0001d0 44 aa 1e 3d a5 b1 72 3c da 8b 88 3d de 13 ed 3d
       0.038736597 0.014812862 0.066672996 0.11576055

sequential.2.Lambda.weight f4 [120, 80]
000000 3c 69 a3 be bb e4 be 3d 2d 8a e2 3c 21 12 51 3c
       -0.31916225 0.093209706 0.027653778 0.01276067
000010 dd 34 81 3d 18 5a da 3e 9d b1 a1 be 71 6d 5f 3d
       0.06308911 0.4264686 -0.3158082 0.05454773
000020 81 0b e6 3c 8f c6 09 be e5 df 17 3e f2 49 3b bc
       0.028081657 -0.1345465 0.14831503 -0.011431204
000030 f9 0a 8f 3f c3 30 de bd e4 47 b6 3e e9 5c f6 3d
       1.1175224 -0.10849144 0.35601723 0.1202944
000040 7a 75 b9 3d 90 d8 23 be 13 cb bd 3e c9 57 f5 3e
       0.0905561 -0.16000581 0.37068996 0.47918537
000050 de 24 41 be 3e 4d 8a 3e 57 46 71 be 29 91 81 bf
       -0.1886172 0.27012056 -0.23561989 -1.0122424
000060 36 0e 00 be e8 5d 0f be 7b a9 07 3f da 79 f5 3e
       -0.12505421 -0.14000666 0.5299298 0.47944528
000070 a0 9d 05 3e ee 57 9e be 0e 47 6a 3e 14 6b b3 3c
       0.1304841 -0.3092646 0.22878668 0.021901645
000080 d6 e9 af be e9 fa 8a 3e ca e0 79 3d 44 6b 04 bc
       -0.3435809 0.27144554 0.06100539 -0.008082215
000090 b1 a8 b0 be b0 a7 a0 bd 6d 9a 7e 3e 59 21 e0 bd
       -0.345037 -0.07844484 0.24863596 -0.109438606
0000a0 da 07 a7 be e5 81 9e 3d 8a a7 8f be b2 2e c6 bd
       -0.32623178 0.07739619 -0.2805751 -0.09676875
0000b0 88 df ef 3c 33 fa ce 3e 00 63 ae 3d a4 30 0e be
       0.029281393 0.40425262 0.085149765 -0.13885742
0000c0 c2 43 92 bd d4 4a e2 3d ac e3 f5 3d 97 f7 ad be
       -0.0714183 0.110494286 0.120063156 -0.3397796
0000d0 36 ab 8b bd 41 92 ca 3e a6 f5 5f be b4 b2 85 be
       -0.06819765 0.39564708 -0.21871051 -0.26112902
0000e0 e6 fb 46 3e fb ae 28 3d a1 85 0b bd 14 56 e0 3b
       0.19432029 0.0411825 -0.034062985 0.006846199
0000f0 41 1a 42 3e 52 a4 2b 3d d6 47 65 3d d9 1e 12 3e
       0.18955328 0.041904755 0.05597671 0.1426958
000100 33 b5 5d bf e5 d1 02 3c 38 f1 e3 3d 3c 58 c0 3d
       -0.86604613 0.007984613 0.11129993 0.09391829
000110 a8 b8 04 3e da f0 33 3d f5 ba 5a be 3a e8 83 3c
       0.12961066 0.043930866 -0.21360381 0.016101945
000120 05 6e b0 3e 39 6c 92 3e 25 1e 9e bd 13 69 7a be
       0.34458938 0.28598192 -0.07720593 -0.24454145
000130 29 a0 6b 3d 6e 62 52 bf d7 06 aa bc 78 68 15 3f
       0.057525788 -0.8218144 -0.020755215 0.5836253
000140 dd c8 fc bd cd c6 7c bd ab ed 5d 3e 41 7f 6d 3e
       -0.12342999 -0.06171303 0.21672694 0.23193075
000150 e0 e1 ad be 32 8b 8b be 34 72 e1 be 27 c5 49 bb
       -0.3396139 -0.27254635 -0.44032443 -0.0030787678
000160 50 a8 13 bd 9e 1a 64 3b 69 32 1c bf 12 39 2a 3e
       -0.036049187 0.0034805904 -0.6101442 0.16623333
000170 68 61 5f 3d e7 da 98 be 34 16 6c 3e 8d a0 05 3f
       0.054536253 -0.2985451 0.23055345 0.52198106
000180 3f af 4e be 71 b3 23 bf f1 67 82 3e c3 c7 28 bc
       -0.20184039 -0.6394568 0.25469926 -0.010301533
000190 5c 62 5a be 6b a1 8e 3e 86 18 b4 be b5 8c 1e 3e
       -0.21326584 0.27857527 -0.3517496 0.15483363
0001a0 7d 24 30 be e5 16 c9 3b f0 1a 45 be ff 64 49 be
       -0.17201419 0.0061367624 -0.19248557 -0.19667433
0001b0 67 3c 91 3e e0 7d 84 3e 56 2f 47 3e d6 4d 01 be
       0.28366396 0.25877285 0.19451651 -0.12627348
0001c0 96 e0 3f be 48 76 ac bd fe c8 fd 3c 06 71 85 bd
       -0.18738016 -0.08420998 0.03097963 -0.06515698
0001d0 11 40 5b 3e cf ae f5 3c 46 95 b4 3d f3 b4 ad bc
       0.21411158 0.029990582 0.08817534 -0.021204447
0001e0 a2 89 b6 3d 6b cd 05 3e cf 19 c1 bd 33 87 08 be
       0.0891297 0.13066642 -0.09428751 -0.13332824
0001f0 24 72 c9 3d 1f 80 0e bf 33 3a dd 3d d5 df 7b bd
       0.09836224 -0.5566425 0.10802116 -0.06149276
000200 2d cc 93 be 5d d2 a5 3e 62 9e d2 bd 64 eb 45 bd
       -0.2886671 0.32387057 -0.102841154 -0.04832019
000210 0a b8 52 3e 7c 36 18 be a8 78 88 3d d0 ee fe 3e
       0.20578018 -0.14864534 0.06663638 0.49791574
000220 49 c1 8f 3d 19 fb 67 bc b9 85 02 be e7 4d 09 3d
       0.07019288 -0.014158987 -0.12746324 0.03352156
000230 9a f8 91 3e ec 70 ac 3d 3d 6b d8 bd ea 69 5c 3e
       0.2850998 0.08419976 -0.10567329 0.21524778
000240 3f 08 c5 bd 6c 9e 85 3d 16 06 e7 3d df aa 7d 3d
       -0.096207134 0.06524357 0.11280458 0.061930533
000250 70 13 1b be a0 11 48 bd 72 18 25 bf f2 62 bb 3e
       -0.15144134 -0.048844934 -0.64490426 0.36598927
000260 35 06 a8 bd 81 36 54 3e 47 fe 4a 3e 5f 89 7c 3e
       -0.08204309 0.20723917 0.19823562 0.24661778
000270 08 87 39 bd 01 3c cd 3e bf a1 8f 3a 49 3d 8b be
       -0.04529479 0.40084842 0.0010958238 -0.27195194
000280 14 58 02 3e 95 7d ec bc b0 45 84 be 09 b2 2e bd
       0.12728912 -0.028868476 -0.25834417 -0.042650256
000290 40 51 14 be 9a 09 3f 3e 0c 4b 5b 3c a3 45 ad be
       -0.1448412 0.18656006 0.013384592 -0.3384219
0002a0 76 ee 1f 3d 19 73 ad 3e 86 aa 17 be d8 54 8c 3e
       0.039045773 0.33876875 -0.14811143 0.2740848
0002b0 49 31 89 3e 23 5c ad 3d 70 68 51 be f3 b3 10 bd
       0.26795414 0.08464839 -0.20449996 -0.035327863
0002c0 9c bc 0b 3e 73 88 84 be 75 6b c7 3e 8a a7 1a 3e
       0.13646168 -0.25885352 0.3894917 0.15102974
0002d0 99 64 2f bd d2 a1 01 be 48 56 de bd 33 a5 e8 3d
       -0.042820547 -0.12659386 -0.108563006 0.11359634
0002e0 57 c5 15 be 30 3f 8e be e6 3d ce be 2c 2c a8 3c
       -0.1462606 -0.27782583 -0.402816 0.020528875
0002f0 b3 d7 bf 3d 3f bc a7 bc 01 af da bc a2 d4 8c 3e
       0.09367313 -0.020475505 -0.026694776 0.27505976
000300 41 8c a3 3e 09 06 91 3d 4d dc d8 bd cb 13 39 bd
       0.31942943 0.07081229 -0.10588894 -0.04518489
000310 f4 ed 3b be d1 19 2b be 15 52 ff 3d 9b e0 4b be
       -0.1835249 -0.16709067 0.12466828 -0.19909899
000320 d1 17 59 be 65 db 2a 3e 4d f2 dd 3b c5 23 94 3e
       -0.21200491 0.16685255 0.0067732693 0.2893354
000330 ed 25 96 3d a0 02 80 be 59 7e fd 3d 20 0e 93 3e
       0.073314525 -0.25002003 0.123776145 0.28721714
000340 da 87 3e 3d 41 77 75 be 46 dd 27 3e c1 f2 6d 3e
       0.046516277 -0.23971273 0.16393003 0.23237135
000350 e2 b1 73 3e 97 fa 78 be d5 73 14 be d0 fc 4c 3e
       0.23798326 -0.24314342 -0.14497311 0.20018315
000360 26 2b 3f 3e c2 8b 42 be 10 db 84 3d ee 20 c7 3d
       0.18668804 -0.18998626 0.06487095 0.09723078
000370 e3 9d 6b bd 54 6c 86 3e 03 d6 04 be 64 05 2a 3e
       -0.05752362 0.26254523 -0.12972264 0.16603619
000380 8f 8f ad bd 11 61 0f be 75 71 ae 3d 0f c3 10 3e
       -0.08474647 -0.14001872 0.08517734 0.14136909
000390 16 d0 0f 3e 0e e7 ef 3e 62 6e 94 be 9c 2c 63 3e
       0.14044222 0.46855968 -0.28990465 0.22184986
0003a0 95 13 22 be 80 1f 03 3e cf 33 81 3d 64 93 80 3d
       -0.15827782 0.12804985 0.0630871 0.062781125
0003b0 02 06 64 3b 1f ad a3 be 68 fb d6 3e 21 da 5a 3d
       0.003479362 -0.31968018 0.41988683 0.05343068
0003c0 1a 4f 5f bd 3f 46 8f bd 5d b6 97 bc b2 e8 43 bd
       -0.054518797 -0.0699582 -0.018519575 -0.047829337
0003d0 b5 ee 83 bd d0 0f 1b 3e f8 0f a5 3d e9 d7 62 bd
       -0.06442014 0.1514275 0.080596864 -0.05538169
0003e0 65 62 69 bd b8 7f 01 3d 57 13 c6 3d b4 0d c0 bc
       -0.056978602 0.031615943 0.096716575 -0.023444034
0003f0 78 ce 52 3c 84 fc 87 3e 16 7a 4d 3d 87 c4 eb bd
       0.012866609 0.26559842 0.05016526 -0.11512094

sequential.2.Lambda.bias f4 [120]
000000 1f 54 b1 bd 2c fd b0 3d be e2 e8 3d 6c 5c d7 bd
       -0.08658623 0.08642039 0.11371373 -0.10515675
000010 f4 2b 0f bd 4a c1 19 3c e7 02 92 3d 5f 66 f7 bd
       -0.034954026 0.009384463 0.0712946 -0.120800726
000020 a3 0a 23 be 8c 55 1b 3e c3 59 dd be 2a 57 2f be
       -0.15922026 0.15169352 -0.43232545 -0.17123094
000030 03 a5 27 bd a3 e1 f8 bc e7 8b 18 3e fa 49 2a be
       -0.04092885 -0.03038103 0.14897119 -0.16629782
000040 40 fa 98 be 72 bd a1 bc b7 5c 53 bd 07 b2 1c be
       -0.29878426 -0.019743655 -0.05160209 -0.15302287
000050 70 73 33 be 3c d4 1d be 83 99 21 3e e0 6d 46 be
       -0.17524505 -0.15412992 0.15781216 -0.19377851
000060 fc 0a 11 be 8e 1c 42 3d 23 1b 0f bc 5e c0 91 be
       -0.14164346 0.047390513 -0.008734497 -0.28467077
000070 85 82 40 be 36 2e 0e be b7 48 8a 3d bb 26 bc bd
       -0.18799789 -0.13884816 0.067521505 -0.09187075
000080 88 2c 0a be 7f f5 1e bd be b0 bb bc 8d 35 a6 3d
       -0.1349355 -0.038808342 -0.022911426 0.08115683
000090 81 35 67 be d0 68 34 be 73 fd 21 be 23 63 fd bd
       -0.22579004 -0.17618108 -0.1581934 -0.123724245
0000a0 1a 9f 00 be 7f c9 ca 3c 3d 5c 9c bd ab e7 0d 3c
       -0.12560692 0.024754284 -0.076347806 0.008661191
0000b0 43 f4 83 bd fc 96 02 be ec bf 0e bd 9f 4f 10 bd
       -0.064430736 -0.12752908 -0.034851 -0.035232183
0000c0 3e 0f 2c bd b5 15 07 3d 21 03 17 bc e4 a6 84 be
       -0.042006724 0.032979686 -0.009217055 -0.25908577
0000d0 04 e2 c2 3e b2 81 b0 bc 2c 6f 0a 3e ee da 79 bd
       0.3806306 -0.021546219 0.13518971 -0.060999803
0000e0 43 e9 0b be 6d 50 96 3d 87 1c c4 bc 81 ad db 3b
       -0.13663201 0.07339559 -0.023939384 0.006704033
0000f0 7b df 30 3e 08 40 16 be 61 ef 7e be 2d 25 18 3c
       0.17272751 -0.14672863 -0.24896003 0.009286207
000100 27 40 b5 bd 0b d2 6a bd a8 09 ec bd 99 48 91 bd
       -0.08850127 -0.05732922 -0.11525279 -0.07093925
000110 15 ac 02 be f9 20 a8 3e 7f 20 69 3d d4 03 9b 3d
       -0.12760957 0.32837656 0.056915756 0.075690895
000120 bb f5 44 3d fc 54 0a 3e a6 32 c5 3d 4d f6 93 be
       0.04808591 0.13508981 0.09628801 -0.2889885
000130 fa 27 98 3e 18 d0 98 bc 1f 52 5a 3d c2 f3 f4 bb
       0.29718 -0.018653914 0.053300973 -0.0074753473
000140 a3 f6 c9 3d 6e 93 95 3d 04 75 b7 bc 3e e2 05 be
       0.09861495 0.073035106 -0.022394665 -0.13074586
000150 e9 56 6d be bb 32 30 bd dd e0 26 be f5 1f 4c 3d
       -0.23177685 -0.04301713 -0.16296716 0.049835164
000160 55 56 ab bd c9 45 4a bd 82 5a b4 bd d6 f5 b4 bd
       -0.08366076 -0.04938296 -0.088063255 -0.08835952
000170 71 b1 a1 3d a6 57 e7 3d 6f bb 9d bd 82 20 87 be
       0.078951724 0.112960145 -0.07701766 -0.2639199
000180 2b 05 4f 3e 3c 95 24 3e e9 db 86 bd 48 49 e6 3c
       0.20216815 0.16072553 -0.06584913 0.028111115
000190 58 c3 fe bd a5 5f 03 be c8 f3 31 bd 0a 1d 59 be
       -0.124396026 -0.12829454 -0.04344538 -0.21202484
0001a0 0e 0d 2b bd aa 55 7c bd 50 05 84 be ab d8 ff bd
       -0.041760497 -0.061605133 -0.25785303 -0.12492498
0001b0 68 df 1a 3d 25 c0 01 3e be 53 66 3d 5f 17 1e be
       0.037810713 0.12670954 0.056232207 -0.15438603
0001c0 8d e5 72 bd b8 c5 0d 3b eb 89 0a be ef 30 9a bd
       -0.059300948 0.0021632742 -0.13529174 -0.075288646
0001d0 44 aa 1e 3d a5 b1 72 3c da 8b 88 3d de 13 ed 3d
       0.038736597 0.014812862 0.066672996 0.11576055

sequential.2.bn.running_mean f4 [120]
000000 00 00 00 00 00 00 00 00 00 00 00 00 00 00 00 00
       0.0 0.0 0.0 0.0
000010 00 00 00 00 00 00 00 00 00 00 00 00 00 00 00 00
       0.0 0.0 0.0 0.0
000020 00 00 00 00 00 00 00 00 00 00 00 00 00 00 00 00
       0.0 0.0 0.0 0.0
000030 00 00 00 00 00 00 00 00 00 00 00 00 00 00 00 00
       0.0 0.0 0.0 0.0
000040 00 00 00 00 00 00 00 00 00 00 00 00 00 00 00 00
       0.0 0.0 0.0 0.0
000050 00 00 00 00 00 00 00 00 00 00 00 00 00 00 00 00
       0.0 0.0 0.0 0.0
000060 00 00 00 00 00 00 00 00 00 00 00 00 00 00 00 00
       0.0 0.0 0.0 0.0
000070 00 00 00 00 00 00 00 00 00 00 00 00 00 00 00 00
       0.0 0.0 0.0 0.0
000080 00 00 00 00 00 00 00 00 00 00 00 00 00 00 00 00
       0.0 0.0 0.0 0.0
000090 00 00 00 00 00 00 00 00 00 00 00 00 00 00 00 00
       0.0 0.0 0.0 0.0
0000a0 00 00 00 00 00 00 00 00 00 00 00 00 00 00 00 00
       0.0 0.0 0.0 0.0
0000b0 00 00 00 00 00 00 00 00 00 00 00 00 00 00 00 00
       0.0 0.0 0.0 0.0
0000c0 00 00 00 00 00 00 00 00 00 00 00 00 00 00 00 00
       0.0 0.0 0.0 0.0
0000d0 00 00 00 00 00 00 00 00 00 00 00 00 00 00 00 00
       0.0 0.0 0.0 0.0
0000e0 00 00 00 00 00 00 00 00 00 00 00 00 00 00 00 00
       0.0 0.0 0.0 0.0
0000f0 00 00 00 00 00 00 00 00 00 00 00 00 00 00 00 00
       0.0 0.0 0.0 0.0
000100 00 00 00 00 00 00 00 00 00 00 00 00 00 00 00 00
       0.0 0.0 0.0 0.0
000110 00 00 00 00 00 00 00 00 00 00 00 00 00 00 00 00
       0.0 0.0 0.0 0.0
000120 00 00 00 00 00 00 00 00 00 00 00 00 00 00 00 00
       0.0 0.0 0.0 0.0
000130 00 00 00 00 00 00 00 00 00 00 00 00 00 00 00 00
       0.0 0.0 0.0 0.0
000140 00 00 00 00 00 00 00 00 00 00 00 00 00 00 00 00
       0.0 0.0 0.0 0.0
000150 00 00 00 00 00 00 00 00 00 00 00 00 00 00 00 00
       0.0 0.0 0.0 0.0
000160 00 00 00 00 00 00 00 00 00 00 00 00 00 00 00 00
       0.0 0.0 0.0 0.0
000170 00 00 00 00 00 00 00 00 00 00 00 00 00 00 00 00
       0.0 0.0 0.0 0.0
000180 00 00 00 00 00 00 00 00 00 00 00 00 00 00 00 00
       0.0 0.0 0.0 0.0
000190 00 00 00 00 00 00 00 00 00 00 00 00 00 00 00 00
       0.0 0.0 0.0 0.0
0001a0 00 00 00 00 00 00 00 00 00 00 00 00 00 00 00 00
       0.0 0.0 0.0 0.0
0001b0 00 00 00 00 00 00 00 00 00 00 00 00 00 00 00 00
       0.0 0.0 0.0 0.0
0001c0 00 00 00 00 00 00 00 00 00 00 00 00 00 00 00 00
       0.0 0.0 0.0 0.0
0001d0 00 00 00 00 00 00 00 00 00 00 00 00 00 00 00 00
       0.0 0.0 0.0 0.0

sequential.2.bn.running_var f4 [120]
000000 00 00 80 3f 00 00 80 3f 00 00 80 3f 00 00 80 3f
       1.0 1.0 1.0 1.0
000010 00 00 80 3f 00 00 80 3f 00 00 80 3f 00 00 80 3f
       1.0 1.0 1.0 1.0
000020 00 00 80 3f 00 00 80 3f 00 00 80 3f 00 00 80 3f
       1.0 1.0 1.0 1.0
000030 00 00 80 3f 00 00 80 3f 00 00 80 3f 00 00 80 3f
       1.0 1.0 1.0 1.0
000040 00 00 80 3f 00 00 80 3f 00 00 80 3f 00 00 80 3f
       1.0 1.0 1.0 1.0
000050 00 00 80 3f 00 00 80 3f 00 00 80 3f 00 00 80 3f
       1.0 1.0 1.0 1.0
000060 00 00 80 3f 00 00 80 3f 00 00 80 3f 00 00 80 3f
       1.0 1.0 1.0 1.0
000070 00 00 80 3f 00 00 80 3f 00 00 80 3f 00 00 80 3f
       1.0 1.0 1.0 1.0
000080 00 00 80 3f 00 00 80 3f 00 00 80 3f 00 00 80 3f
       1.0 1.0 1.0 1.0
000090 00 00 80 3f 00 00 80 3f 00 00 80 3f 00 00 80 3f
       1.0 1.0 1.0 1.0
0000a0 00 00 80 3f 00 00 80 3f 00 00 80 3f 00 00 80 3f
       1.0 1.0 1.0 1.0
0000b0 00 00 80 3f 00 00 80 3f 00 00 80 3f 00 00 80 3f
       1.0 1.0 1.0 1.0
0000c0 00 00 80 3f 00 00 80 3f 00 00 80 3f 00 00 80 3f
       1.0 1.0 1.0 1.0
0000d0 00 00 80 3f 00 00 80 3f 00 00 80 3f 00 00 80 3f
       1.0 1.0 1.0 1.0
0000e0 00 00 80 3f 00 00 80 3f 00 00 80 3f 00 00 80 3f
       1.0 1.0 1.0 1.0
0000f0 00 00 80 3f 00 00 80 3f 00 00 80 3f 00 00 80 3f
       1.0 1.0 1.0 1.0
000100 00 00 80 3f 00 00 80 3f 00 00 80 3f 00 00 80 3f
       1.0 1.0 1.0 1.0
000110 00 00 80 3f 00 00 80 3f 00 00 80 3f 00 00 80 3f
       1.0 1.0 1.0 1.0
000120 00 00 80 3f 00 00 80 3f 00 00 80 3f 00 00 80 3f
       1.0 1.0 1.0 1.0
000130 00 00 80 3f 00 00 80 3f 00 00 80 3f 00 00 80 3f
       1.0 1.0 1.0 1.0
000140 00 00 80 3f 00 00 80 3f 00 00 80 3f 00 00 80 3f
       1.0 1.0 1.0 1.0
000150 00 00 80 3f 00 00 80 3f 00 00 80 3f 00 00 80 3f
       1.0 1.0 1.0 1.0
000160 00 00 80 3f 00 00 80 3f 00 00 80 3f 00 00 80 3f
       1.0 1.0 1.0 1.0
000170 00 00 80 3f 00 00 80 3f 00 00 80 3f 00 00 80 3f
       1.0 1.0 1.0 1.0
000180 00 00 80 3f 00 00 80 3f 00 00 80 3f 00 00 80 3f
       1.0 1.0 1.0 1.0
000190 00 00 80 3f 00 00 80 3f 00 00 80 3f 00 00 80 3f
       1.0 1.0 1.0 1.0
0001a0 00 00 80 3f 00 00 80 3f 00 00 80 3f 00 00 80 3f
       1.0 1.0 1.0 1.0
0001b0 00 00 80 3f 00 00 80 3f 00 00 80 3f 00 00 80 3f
       1.0 1.0 1.0 1.0
0001c0 00 00 80 3f 00 00 80 3f 00 00 80 3f 00 00 80 3f
       1.0 1.0 1.0 1.0
0001d0 00 00 80 3f 00 00 80 3f 00 00 80 3f 00 00 80 3f
       1.0 1.0 1.0 1.0
