Models/Z_25GeV_50.pth (torch, 196686 bytes, 36 tensors)

sequential.0.Gamma.weight f4 [80, 5]
000000 82 94 f9 be 40 44 85 be ac 10 65 3f c4 d9 3f bf
       -0.48746115 -0.26028633 0.89478564 -0.7494166
000010 7b 55 00 3f 17 17 8b 3e 1d 69 4a be dc 0b 93 3e
       0.5013043 0.27166054 -0.1976666 0.28719985
000020 3b 52 13 3f ef d6 fe be 6e d5 d6 bd 8e 96 eb 3e
       0.5754735 -0.49773356 -0.10489927 0.46013302
000030 05 2a 7a 3d e3 b4 6a 3f f4 9e 2b bf f9 ec 46 3f
       0.06107523 0.9168226 -0.6703942 0.7770534
000040 30 7e 57 bd 81 e7 42 be dc 30 37 3e b9 0e 83 3e
       -0.052610576 -0.19033624 0.17889732 0.2559717
000050 de 10 da be 15 6d 5d bd c5 d7 0f 3f 8d 18 16 3f
       -0.42590994 -0.054059107 0.56188613 0.5863121
000060 3c 1e a2 3e cd df 40 3f 2a 54 90 bf 38 9e 37 bf
       0.31663692 0.7534149 -1.1275685 -0.717258
000070 8d 88 28 be 3e df 2b 3f 10 23 20 3f 39 c6 9a 3c
       -0.1645834 0.67137516 0.625535 0.018893348
000080 5c bb 1e be 83 62 d1 3e 76 4b eb be d4 f0 7e 3f
       -0.1550116 0.4089547 -0.4595601 0.99586225
000090 f6 61 31 bf 33 f6 5f 3e cf 44 78 bf 5a bd 7c bf
       -0.692901 0.21871261 -0.96979994 -0.9872643
0000a0 33 c3 2a be fb 35 38 3f 63 2b 03 bf cd d2 8b be
       -0.16676025 0.7195737 -0.5123808 -0.27309266
0000b0 86 11 6c 3c 26 69 9f 3e 1b 7d 5e bd 04 dc 11 3f
       0.014408475 0.3113491 -0.05431853 0.5697634
0000c0 1c de 99 3f 26 fe 7c bf 47 24 b6 be a7 5a 1a bf
       1.2020907 -0.988253 -0.35574552 -0.60294574
0000d0 dc 2b c0 be 3c 76 6c 3e 31 e6 4a bf 76 63 e8 3e
       -0.37533462 0.23091978 -0.79257494 0.45388383
0000e0 97 cb b2 be 22 fd 55 bf 36 1d 04 3f 1a 33 09 bf
       -0.34920952 -0.83589375 0.5160707 -0.535936
0000f0 53 c3 1f bf f9 89 89 bd a0 e0 69 bf f6 65 31 be
       -0.62407416 -0.06715769 -0.91358376 -0.17324051
000100 97 d8 44 3f a3 aa b6 3e 63 02 65 bc d0 2c 97 3f
       0.7689299 0.3567706 -0.01397762 1.1810551
000110 54 0c f9 bd 92 4b 3a bf 89 1b a0 bf 80 82 6a be
       -0.121605545 -0.7277156 -1.2508403 -0.22901344
000120 e4 32 76 3f 09 4e 64 3f 9f 0a 14 bf a8 ab 21 3e
       0.961714 0.8918157 -0.57828707 0.15788138
000130 0f da dd 3e 2a e4 20 3f 78 ac 42 3f 9a b7 06 be
       0.43330428 0.6284815 0.76044416 -0.13155976
000140 b8 7e 30 3e 4e 6f 17 3f 6c 4c a4 bf f1 ba 8c 3e
       0.1723584 0.5915421 -1.2835822 0.27486375
000150 9a 97 a1 be 2c af ab 3f a4 4e 07 bf 65 18 8a be
       -0.31560975 1.3412833 -0.5285437 -0.26971737
000160 4a c4 a0 bb 9d 0c 2f bd fa 75 d4 3d e3 b8 04 bf
       -0.004906212 -0.04273664 0.10374065 -0.51844615
000170 8f 8e 1b bc f2 6e 48 be 4c 6e 89 be f9 76 8f bf
       -0.009494438 -0.19573572 -0.26841962 -1.1208183
000180 dc 8b ee 3e 5a 2e b9 be 95 8e 44 bf 9f df 69 bf
       0.4659108 -0.36168176 -0.7678006 -0.91356844
000190 76 ef fa bd c5 29 8f 3f f3 d6 24 bd dd e6 3e be
       -0.12252705 1.1184622 -0.040244054 -0.18642755
0001a0 7d d8 4c be 5c 80 58 3f c6 61 97 be 72 89 b8 3e
       -0.20004459 0.8457086 -0.29566783 0.36042362
0001b0 3e 2e e7 bf 54 dd b4 3e 3c 08 19 3f 31 56 bc be
       -1.8060987 0.3532511 0.5977819 -0.3678451
0001c0 ba a4 a5 3e 21 e5 69 3f 3a ea bf be 65 e4 89 3e
       0.3235224 0.9136525 -0.37483388 0.26932064
0001d0 3a 5e 72 3f 11 43 84 3e f5 2b a2 3e d6 48 84 3e
       0.9467503 0.25832418 0.31674162 0.2583682
0001e0 43 78 81 3f 37 05 6b bf 09 0c 03 3f 6b c3 25 bf
       1.0114826 -0.9180483 0.5119024 -0.6475131
0001f0 ce 62 56 3b b2 e6 97 bf f7 78 b6 3e ce 99 6e 3f
       0.00327127 -1.1867278 0.35639164 0.9320344
000200 02 e9 31 bf 9f f9 b3 3e 65 a9 21 bf 0b a5 8a be
       -0.69496167 0.35151383 -0.631491 -0.27079043
000210 e4 1e 4c be 32 11 55 bf 14 f1 91 3f bb cb 3c 3f
       -0.19933659 -0.8322936 1.1401696 0.7374837
000220 cc 6b e6 bd 4a c3 01 bf ac dc 99 3e 51 8e 65 be
       -0.11251029 -0.5068861 0.30051172 -0.2241757
000230 4a 16 c1 3e c1 3d 5c bc df 66 39 3e d9 62 20 40
       0.37712318 -0.013442458 0.18105648 2.5060332
000240 f9 6c 17 3c f9 50 07 3e 7d 04 13 bc f7 dc 3a 3f
       0.00924229 0.13214482 -0.008973238 0.72993416
000250 ab 4b d0 3f 5f bb 88 bf 9c 51 b9 be e9 2c 57 3f
       1.6273092 -1.0682181 -0.36195076 0.840529
000260 52 af bd 3d 8e ad 92 3e 3f 33 98 3e c1 76 43 3e
       0.09261955 0.28648037 0.29726598 0.1908827
000270 bf 95 38 3f 52 fa 77 bf c5 48 b0 bd 3d e4 65 bf
       0.72103494 -0.96866333 -0.0860763 -0.8980139
000280 04 de 2f 3f 82 c5 53 be fa 24 42 3f e4 90 0a be
       0.68698144 -0.20680812 0.7583767 -0.13531834
000290 3d 9c bf be 42 38 5c be fc 1e 01 3e 31 d3 d3 3e
       -0.37423888 -0.21505836 0.12609476 0.41372064
0002a0 24 87 e8 3e a2 24 87 3d 47 36 b7 3e 8f db ce 3e
       0.45415604 0.06598784 0.35783598 0.40401885
0002b0 b2 84 71 3e 37 cd c6 be a9 be a2 bf 38 e8 ff be
       0.23585775 -0.38828442 -1.2714435 -0.49981856
0002c0 b7 68 31 bf d4 44 d3 bc eb 38 84 3e c8 72 1e bf
       -0.6930041 -0.025789656 0.25824675 -0.6189389
0002d0 db 7f c2 bf 07 b5 49 bf d0 ad e8 bd 5c ff 35 3f
       -1.5195268 -0.7879185 -0.11361277 0.7109277
0002e0 16 e7 0e 3e ab a9 3c bf cd a6 12 bf fd 04 34 3e
       0.1395534 -0.7369639 -0.5728577 0.17580028
0002f0 29 54 3d bf 04 56 16 bf f0 be 03 bf 86 bd 9f bf
       -0.73956543 -0.58725 -0.5146322 -1.2479713
000300 16 44 48 bf d3 c0 a0 be 9a 05 7a 3d 11 3d a3 3e
       -0.7822889 -0.31397113 0.0610405 0.31882527
000310 6e 6a 49 3d 4c ac 4e 3f fa e9 5d 3f 2b 05 9b bf
       0.049173765 0.80731654 0.86685145 -1.2110952
000320 75 7f 38 bf 7f 2b b6 be 56 f8 f0 3e b6 3e 1b 3f
       -0.72069484 -0.3558006 0.47064465 0.60642564
000330 38 37 82 3f 9d b9 59 bf 80 b8 0b be 5a 70 a8 3c
       1.0173101 -0.8504885 -0.136446 0.020561386
000340 e7 9e a0 be 25 c7 ef 3e 15 3e 91 3e da 34 d1 3e
       -0.31371233 0.46831623 0.28367677 0.40860635
000350 d3 df 9e be 8f 29 7c be ed 12 d1 bd 34 17 87 3d
       -0.3103014 -0.24625228 -0.10208688 0.065962225
000360 bb 32 73 3e de 01 07 be ec 61 51 3e 01 31 5d bf
       0.23749821 -0.13184306 0.2044751 -0.864029
000370 3d 2e 8b 3e 82 7d 2d bf e8 6f 28 3d ab 77 02 bf
       0.27183715 -0.67769635 0.041122347 -0.5096385
000380 e3 33 c9 bf b3 63 97 bf ae 60 bb bd 4a c2 3e 3f
       -1.571896 -1.1827301 -0.091492996 0.7451521
000390 18 2b 02 40 75 1e 8d bf e9 74 39 bf db 98 a7 be
       2.0338802 -1.102492 -0.72444016 -0.32733807
0003a0 1a c2 b2 be 53 fa 4f 3f 41 d8 e6 be d4 37 e5 3d
       -0.34913713 0.8124134 -0.45086864 0.11192289
0003b0 ff 37 c8 be b1 79 00 be a4 3f a0 3f b5 af 47 3f
       -0.39105222 -0.12546422 1.2519422 0.7800248
0003c0 cb f1 36 bd c8 62 0c be 6f a7 4f 3e 69 f6 13 3f
       -0.044664185 -0.13709557 0.20278715 0.5779787
0003d0 65 d5 2e bd 24 37 06 3e f4 19 f4 be bf ec 64 bd
       -0.042683978 0.13106972 -0.4767605 -0.05588984
0003e0 2c 87 f3 3d 4e 0a be be 0e e3 6c bc 76 c0 dc bd
       0.11891016 -0.37117237 -0.014458431 -0.107788965
0003f0 e1 d6 36 3f 32 ac 55 bf 5a c4 2b 3f 05 78 2e be
       0.7142163 -0.83465874 0.67096484 -0.17037971

sequential.0.Gamma.bias f4 [80]
000000 af 51 16 bf 59 08 da be c5 9d ce be 3e 59 90 3e
       -0.5871839 -0.42584494 -0.40354744 0.28193086
000010 e7 99 10 bf b1 47 c5 3e 77 a6 42 be 3b 18 1b 3e
       -0.56484836 0.3853126 -0.19008814 0.15145962
000020 01 9a 87 3e d4 19 3d bf 9a 4d 2f be c8 99 9c 3d
       0.26484683 -0.73867536 -0.17119446 0.07646519
000030 ab 3b 22 be 4c f4 99 be b8 4b 43 bf 95 23 0f bf
       -0.15843074 -0.30069196 -0.7628741 -0.5591367
000040 91 22 31 bf d5 c2 ee bd df fe 82 bd 40 c9 c4 bd
       -0.6919337 -0.11658255 -0.06396269 -0.09608698
000050 ca 9c 99 3d 4e f4 f0 3e f4 f0 b6 bd d8 8e e1 bd
       0.07500608 0.4706139 -0.08932677 -0.110135734
000060 13 50 97 be bc 6e 43 be 28 da 8f 3e 47 5a 07 bf
       -0.2955328 -0.1908521 0.28096128 -0.5287213
000070 18 3f 05 bf 3c 98 0a bf 2d 9d 22 be 91 5e 98 be
       -0.520494 -0.5413854 -0.1588027 -0.29759648
000080 0c c1 14 3d 3a ee e9 bd 91 a9 c8 3d 8f 14 1f be
       0.036316916 -0.11422391 0.09797967 -0.15535186
000090 ab 94 2b be 83 42 06 bd 8b a0 b8 bd 99 37 98 be
       -0.16755931 -0.032778274 -0.09014996 -0.29729918
0000a0 30 a8 6a be 3e 35 84 bd f0 d1 06 3e 1a 35 63 be
       -0.22915721 -0.06455468 0.13166022 -0.22188225
0000b0 6e 6a f3 bc 5a af 15 bf 43 ec 9e be 87 24 6d be
       -0.029713836 -0.5847069 -0.31039628 -0.23158465
0000c0 47 32 a7 be be 8e 99 be aa 6a 32 3d f6 49 e4 bd
       -0.32655546 -0.29991716 0.043558754 -0.111469194
0000d0 57 b6 9f 3d cf 1b c8 be 86 8a cc bb 5a cf 7a be
       0.077984504 -0.39083716 -0.006242099 -0.24493161
0000e0 36 0b 06 be dd 0a ad be db 54 18 be 52 18 aa 3e
       -0.13090214 -0.3379735 -0.1487612 0.3322168
0000f0 3f 91 4a be 1a 3b 02 bf 6b c5 14 bf 1c eb d0 be
       -0.1978197 -0.5087143 -0.58113736 -0.40804374
000100 7c 21 49 3e fd 6b cc be 95 fe 9e bd 18 b5 0d be
       0.1964168 -0.3992614 -0.077634014 -0.13838613
000110 54 8a 05 bf ad a7 63 3e 94 25 2e bf 75 57 fc be
       -0.52164197 0.22231932 -0.6802609 -0.49285474
000120 f1 37 0b bf 81 90 4a be 84 d6 98 be a6 06 45 be
       -0.54382235 -0.19781686 -0.29851162 -0.19240817
000130 94 70 b8 be d6 2b 3e bd 43 7e a1 be a3 36 e9 be
       -0.3602339 -0.046428524 -0.31541643 -0.45549497

sequential.0.Lambda.weight f4 [80, 5]
000000 72 72 d7 3e a3 50 20 3e d9 28 ab be 3f 72 c1 be
       0.42079502 0.1565576 -0.33429602 -0.37782475
000010 98 03 5a 3e 4a 39 42 3f 04 1e b1 3d e1 c0 5e be
       0.21290433 0.75868666 0.08648303 -0.21753265
000020 58 e3 bd 3d 8e 71 1f 3e b4 a6 21 3f 19 22 37 b8
       0.09271878 0.15570661 0.63144994 -4.3662356e-05
000030 19 2f b1 be 3c 15 91 3e 58 ec 14 be 66 d7 87 be
       -0.34606245 0.28336513 -0.14543283 -0.26531523
000040 5e e9 b3 3f a4 98 87 3f ee 66 63 3f 30 a0 e6 be
       1.4055593 1.0593457 0.88828933 -0.45044088
000050 18 d6 b2 3e 82 16 50 be bf 04 e8 3d 24 54 36 3e
       0.34928966 -0.20321086 0.1132903 0.17805535
000060 5b d9 3b bf 56 ab bd 3c 36 2e 74 3d 70 b8 f9 3d
       -0.73378533 0.023152988 0.059614383 0.12193382
000070 ee 1c 85 bc 73 6a cc 3c c2 24 d1 be ba 83 30 bc
       -0.016249146 0.024953103 -0.40848356 -0.010773594
000080 52 53 2e 3f a8 71 86 3e dc da 4d 3e f8 c0 16 3f
       0.68095887 0.26258588 0.2010302 0.58888197
000090 a7 16 35 3f f4 41 a3 bf a8 d6 eb 3e c5 fe 14 3f
       0.7073769 -1.2754502 0.46062207 0.5820125
0000a0 49 9e 6f 3d 24 19 c5 bd 00 46 1f 3d e3 8b 85 be
       0.058500562 -0.09623936 0.038885117 -0.26083288
0000b0 4d 0a 1b 3e 1a 99 31 3e c0 42 25 3e bb 3d 2f bf
       0.15140648 0.1734356 0.16138744 -0.6845357
0000c0 6a 47 63 3d bb ba ad be 8f 4c a0 bd 7c 74 74 bc
       0.055488028 -0.33931527 -0.078271024 -0.01492035
0000d0 aa 9d 3e bf db 69 58 3f 05 31 a2 3a c8 05 b6 3d
       -0.74459326 0.8453652 0.0012374228 0.088878214
0000e0 0c ad a9 3d 2a 86 4e 3f 62 0f 22 bd e5 9e b7 be
       0.08284959 0.8067347 -0.03956545 -0.35863414
0000f0 e4 a7 3b 3f da df f7 3a 76 28 2c 3f 28 5f 51 bd
       0.73303056 0.0018911317 0.6724924 -0.05111614
000100 3c 2e 07 3f 3e f6 03 bf 4c 92 c1 3d 9c 63 6b 3f
       0.52804923 -0.5154761 0.09451732 0.91948867
000110 44 f2 5b bd 8d 2f 97 bf 2f 1d 06 3e ef 14 ca be
       -0.05369784 -1.1811386 0.1309707 -0.39469096
000120 d6 f5 40 bf 6c 38 f1 3e 15 07 f0 be 2e ee 61 bd
       -0.75375116 0.4711336 -0.46880403 -0.055158786
000130 8f 3b 24 3d 64 e0 94 3e ba d5 18 bf 46 99 79 3e
       0.040095862 0.29077446 -0.5970112 0.24374875
000140 9d 56 8a 3f 92 0e d7 be ff 20 c1 3e 42 09 76 be
       1.0807682 -0.42003304 0.37720487 -0.24026969
000150 5d d4 9a 3f 48 b7 87 be cd 3c 32 3f f8 19 7e bd
       1.2096058 -0.2650702 0.69624025 -0.062036484
000160 b2 f2 07 3e a6 38 95 3f dc 9a 9b 3f 6a bc 83 3e
       0.13276175 1.1657913 1.2156634 0.25729686
000170 25 bb 9c be a9 9d 01 3f c9 20 a6 be 5c 2b 16 3e
       -0.3061153 0.50631195 -0.32446888 0.14664978
000180 e6 ca 79 3f 0f 71 c7 3e 11 34 62 3d 10 c7 78 be
       0.97575223 0.38953444 0.055225436 -0.24294686
000190 24 64 4f bc b8 cc 52 bc 06 5b 14 3d 3f 29 93 bd
       -0.012658153 -0.012866192 0.03621962 -0.071856014
0001a0 9f c3 92 3d c4 91 e5 be 1f 7e 3a 3e 40 17 ee 3d
       0.07166218 -0.44837773 0.18212174 0.11625528
0001b0 39 05 23 3c e4 8b e9 3d cb 68 ae be 51 e8 5a 3f
       0.009949976 0.11403635 -0.34064326 0.85510737
0001c0 cc 72 d2 3e 37 d1 19 bf c2 6e c6 bf 94 0e b9 be
       0.41103208 -0.6008486 -1.5502551 -0.36143935
0001d0 d0 91 19 3d f5 4f 4e bd 25 bd c5 3d 15 7e 07 be
       0.037492573 -0.05036922 0.09655217 -0.1323169
0001e0 d9 c4 3d be d4 f3 d2 bb 6e 58 04 3e 9b 89 91 3c
       -0.18532123 -0.006437758 0.12924358 0.01776581
0001f0 e3 ba 85 3f 81 af c7 3e 58 6b 27 be 34 4c 36 be
       1.0447658 0.39001086 -0.16349542 -0.17802507
000200 ab bb 64 3f 05 14 22 3e 29 bb 61 bd ee a1 5d be
       0.8934886 0.1582795 -0.05511013 -0.21643803
000210 33 35 0f bf a1 cd 05 3f 23 ac f0 be e9 4c 00 bf
       -0.5594055 0.5226689 -0.4700633 -0.50117356
000220 e8 d9 65 3e 94 d8 a2 3f 02 a5 0c bf 21 70 e5 be
       0.22446406 1.2722344 -0.5493928 -0.4481211
000230 6f ce a2 3d 40 50 6b 3d a1 5e 04 3e c2 2b 79 3e
       0.0794953 0.05744958 0.12926723 0.24333099
000240 ef 81 b7 bd b2 7f f0 bd 13 fc a1 3d 83 45 9d 3c
       -0.0896033 -0.11743106 0.079094075 0.019198185
000250 a5 62 04 be 20 38 31 3e 0e dc 43 3f c3 e9 64 3f
       -0.12928255 0.17306566 0.7650765 0.8941919
000260 ff f6 c6 be 5a e8 76 3f 22 75 4b 3f 3a f7 a4 3d
       -0.38860318 0.9644829 0.79475605 0.08054967
000270 ed 43 ea 3d f2 0f 02 be 5c 35 e9 3e dd a8 ae be
       0.11438737 -0.12701395 0.45548522 -0.34113207
000280 4a 0a 6a bf d9 58 4e 3b fa 79 2b 3f 8e e3 cf 3e
       -0.9142195 0.0031486063 0.66982996 0.40603298
000290 cd db 7e bf 89 ea 5a 3f a6 32 0f bf d9 51 61 3f
       -0.9955414 0.8551412 -0.5593666 0.88015515
0002a0 61 33 04 3e 72 5b 3a 3e a9 ea 38 3e a1 16 34 3f
       0.12910224 0.18198946 0.18058266 0.7034703
0002b0 5d 61 79 be 79 6e b4 3d 4f 07 fc 3e 26 0b 8a 3f
       -0.24353547 0.088101335 0.49224326 1.0784652
0002c0 f1 a2 25 3f 21 bf 11 bf 7c 41 58 bf df 11 b0 3f
       0.64701754 -0.56932265 -0.8447492 1.3755454
0002d0 3a 97 7b 3d dc 3d 53 bd 2c 80 13 3e 0c 13 1c be
       0.061423518 -0.051572666 0.14404362 -0.15241641
0002e0 3b 6c 02 3e d5 9b 41 3f 50 2d 5e 3e 96 a5 24 3f
       0.12736599 0.75628406 0.21696973 0.64315164
0002f0 e8 d0 99 3e 9f 4f cc be 92 c7 b9 be b6 a5 33 3f
       0.30042195 -0.39904496 -0.36285073 0.7017473
000300 50 6b 58 3e 6d 14 4d 3f ce 6c 52 3d 83 66 6e bd
       0.21134686 0.8010929 0.051373295 -0.05820323
000310 a7 1b 0a 3f b2 67 ca 3e 78 20 7a 3e bc 94 af be
       0.53948444 0.39532238 0.24426448 -0.34293163
000320 45 f0 87 3f e0 b7 03 3f 1b 8d 7a bf 25 2e 8d 3e
       1.06202 0.51452446 -0.9787156 0.27574268
000330 62 70 9e be 28 cc 62 3e 0e ed 35 3f 96 8a c8 ba
       -0.30945116 0.22148192 0.7106484 -0.0015300091
000340 d1 c7 ab 3e 87 d5 25 bf 02 5f 8e 3c 8c 96 1a bd
       0.33550885 -0.6477894 0.017379288 -0.03774123
000350 91 d8 8f 3e c9 67 5c bf 4f b0 8c 3e 41 cd 3c be
       0.28094915 -0.86095864 0.27478263 -0.18437673
000360 01 4a 56 3f 7b 8c 29 3f 3e f2 74 bd 9f fe a4 be
       0.8370667 0.6622998 -0.059801333 -0.3222551
000370 0f 8c d0 bd a9 c4 5b 3e 2d 22 c4 3f 3f 58 36 bc
       -0.10182964 0.21461739 1.532293 -0.011129438
000380 86 27 16 bd 56 eb 86 bd 88 1d 5a be fb 5f 79 bd
       -0.036658786 -0.065878555 -0.21300328 -0.06088255
000390 5d 1d 14 be 11 d3 df 3e a2 28 87 3f 40 17 53 bf
       -0.14464326 0.43715718 1.0559275 -0.8245735
0003a0 75 3f 4e be 25 47 ce be a4 16 d4 3f f6 44 d8 3c
       -0.20141394 -0.40288654 1.6569409 0.02640007
0003b0 44 4d 97 3f dd f0 34 3e c0 53 8c 3e bb 81 60 3f
       1.1820455 0.17670007 0.27407646 0.87697953
0003c0 7b 7d 8b be c5 93 fc 3e 7e 19 fd be 3d 16 50 be
       -0.27244172 0.4933149 -0.49433511 -0.20320983
0003d0 52 0e 14 3f 86 49 9d 3f 73 3e ce 3d 2c 43 26 be
       0.5783435 1.2288063 0.10070505 -0.16236562
0003e0 17 60 82 be d7 cf a6 be 3e d9 a9 3f 03 1c 85 3f
       -0.25463936 -0.32580444 1.3269422 1.0399173
0003f0 5c 9b 61 3f 58 6f f6 3e 02 72 99 be af b1 b6 3d
       0.88127685 0.48131824 -0.29969794 0.08920609

sequential.0.Lambda.bias f4 [80]
000000 af 51 16 bf 59 08 da be c5 9d ce be 3e 59 90 3e
       -0.5871839 -0.42584494 -0.40354744 0.28193086
000010 e7 99 10 bf b1 47 c5 3e 77 a6 42 be 3b 18 1b 3e
       -0.56484836 0.3853126 -0.19008814 0.15145962
000020 01 9a 87 3e d4 19 3d bf 9a 4d 2f be c8 99 9c 3d
       0.26484683 -0.73867536 -0.17119446 0.07646519
000030 ab 3b 22 be 4c f4 99 be b8 4b 43 bf 95 23 0f bf
       -0.15843074 -0.30069196 -0.7628741 -0.5591367
000040 91 22 31 bf d5 c2 ee bd df fe 82 bd 40 c9 c4 bd
       -0.6919337 -0.11658255 -0.06396269 -0.09608698
000050 ca 9c 99 3d 4e f4 f0 3e f4 f0 b6 bd d8 8e e1 bd
       0.07500608 0.4706139 -0.08932677 -0.110135734
000060 13 50 97 be bc 6e 43 be 28 da 8f 3e 47 5a 07 bf
       -0.2955328 -0.1908521 0.28096128 -0.5287213
000070 18 3f 05 bf 3c 98 0a bf 2d 9d 22 be 91 5e 98 be
       -0.520494 -0.5413854 -0.1588027 -0.29759648
000080 0c c1 14 3d 3a ee e9 bd 91 a9 c8 3d 8f 14 1f be
       0.036316916 -0.11422391 0.09797967 -0.15535186
000090 ab 94 2b be 83 42 06 bd 8b a0 b8 bd 99 37 98 be
       -0.16755931 -0.032778274 -0.09014996 -0.29729918
0000a0 30 a8 6a be 3e 35 84 bd f0 d1 06 3e 1a 35 63 be
       -0.22915721 -0.06455468 0.13166022 -0.22188225
0000b0 6e 6a f3 bc 5a af 15 bf 43 ec 9e be 87 24 6d be
       -0.029713836 -0.5847069 -0.31039628 -0.23158465
0000c0 47 32 a7 be be 8e 99 be aa 6a 32 3d f6 49 e4 bd
       -0.32655546 -0.29991716 0.043558754 -0.111469194
0000d0 57 b6 9f 3d cf 1b c8 be 86 8a cc bb 5a cf 7a be
       0.077984504 -0.39083716 -0.006242099 -0.24493161
0000e0 36 0b 06 be dd 0a ad be db 54 18 be 52 18 aa 3e
       -0.13090214 -0.3379735 -0.1487612 0.3322168
0000f0 3f 91 4a be 1a 3b 02 bf 6b c5 14 bf 1c eb d0 be
       -0.1978197 -0.5087143 -0.58113736 -0.40804374
000100 7c 21 49 3e fd 6b cc be 95 fe 9e bd 18 b5 0d be
       0.1964168 -0.3992614 -0.077634014 -0.13838613
000110 54 8a 05 bf ad a7 63 3e 94 25 2e bf 75 57 fc be
       -0.52164197 0.22231932 -0.6802609 -0.49285474
000120 f1 37 0b bf 81 90 4a be 84 d6 98 be a6 06 45 be
       -0.54382235 -0.19781686 -0.29851162 -0.19240817
000130 94 70 b8 be d6 2b 3e bd 43 7e a1 be a3 36 e9 be
       -0.3602339 -0.046428524 -0.31541643 -0.45549497

sequential.0.bn.running_mean f4 [80]
000000 00 00 00 00 00 00 00 00 00 00 00 00 00 00 00 00
       0.0 0.0 0.0 0.0
000010 00 00 00 00 00 00 00 00 00 00 00 00 00 00 00 00
       0.0 0.0 0.0 0.0
000020 00 00 00 00 00 00 00 00 00 00 00 00 00 00 00 00
       0.0 0.0 0.0 0.0
000030 00 00 00 00 00 00 00 00 00 00 00 00 00 00 00 00
       0.0 0.0 0.0 0.0
000040 00 00 00 00 00 00 00 00 00 00 00 00 00 00 00 00
       0.0 0.0 0.0 0.0
000050 00 00 00 00 00 00 00 00 00 00 00 00 00 00 00 00
       0.0 0.0 0.0 0.0
000060 00 00 00 00 00 00 00 00 00 00 00 00 00 00 00 00
       0.0 0.0 0.0 0.0
000070 00 00 00 00 00 00 00 00 00 00 00 00 00 00 00 00
       0.0 0.0 0.0 0.0
000080 00 00 00 00 00 00 00 00 00 00 00 00 00 00 00 00
       0.0 0.0 0.0 0.0
000090 00 00 00 00 00 00 00 00 00 00 00 00 00 00 00 00
       0.0 0.0 0.0 0.0
0000a0 00 00 00 00 00 00 00 00 00 00 00 00 00 00 00 00
       0.0 0.0 0.0 0.0
0000b0 00 00 00 00 00 00 00 00 00 00 00 00 00 00 00 00
       0.0 0.0 0.0 0.0
0000c0 00 00 00 00 00 00 00 00 00 00 00 00 00 00 00 00
       0.0 0.0 0.0 0.0
0000d0 00 00 00 00 00 00 00 00 00 00 00 00 00 00 00 00
       0.0 0.0 0.0 0.0
0000e0 00 00 00 00 00 00 00 00 00 00 00 00 00 00 00 00
       0.0 0.0 0.0 0.0
0000f0 00 00 00 00 00 00 00 00 00 00 00 00 00 00 00 00
       0.0 0.0 0.0 0.0
000100 00 00 00 00 00 00 00 00 00 00 00 00 00 00 00 00
       0.0 0.0 0.0 0.0
000110 00 00 00 00 00 00 00 00 00 00 00 00 00 00 00 00
       0.0 0.0 0.0 0.0
000120 00 00 00 00 00 00 00 00 00 00 00 00 00 00 00 00
       0.0 0.0 0.0 0.0
000130 00 00 00 00 00 00 00 00 00 00 00 00 00 00 00 00
       0.0 0.0 0.0 0.0

sequential.0.bn.running_var f4 [80]
000000 00 00 80 3f 00 00 80 3f 00 00 80 3f 00 00 80 3f
       1.0 1.0 1.0 1.0
000010 00 00 80 3f 00 00 80 3f 00 00 80 3f 00 00 80 3f
       1.0 1.0 1.0 1.0
000020 00 00 80 3f 00 00 80 3f 00 00 80 3f 00 00 80 3f
       1.0 1.0 1.0 1.0
000030 00 00 80 3f 00 00 80 3f 00 00 80 3f 00 00 80 3f
       1.0 1.0 1.0 1.0
000040 00 00 80 3f 00 00 80 3f 00 00 80 3f 00 00 80 3f
       1.0 1.0 1.0 1.0
000050 00 00 80 3f 00 00 80 3f 00 00 80 3f 00 00 80 3f
       1.0 1.0 1.0 1.0
000060 00 00 80 3f 00 00 80 3f 00 00 80 3f 00 00 80 3f
       1.0 1.0 1.0 1.0
000070 00 00 80 3f 00 00 80 3f 00 00 80 3f 00 00 80 3f
       1.0 1.0 1.0 1.0
000080 00 00 80 3f 00 00 80 3f 00 00 80 3f 00 00 80 3f
       1.0 1.0 1.0 1.0
000090 00 00 80 3f 00 00 80 3f 00 00 80 3f 00 00 80 3f
       1.0 1.0 1.0 1.0
0000a0 00 00 80 3f 00 00 80 3f 00 00 80 3f 00 00 80 3f
       1.0 1.0 1.0 1.0
0000b0 00 00 80 3f 00 00 80 3f 00 00 80 3f 00 00 80 3f
       1.0 1.0 1.0 1.0
0000c0 00 00 80 3f 00 00 80 3f 00 00 80 3f 00 00 80 3f
       1.0 1.0 1.0 1.0
0000d0 00 00 80 3f 00 00 80 3f 00 00 80 3f 00 00 80 3f
       1.0 1.0 1.0 1.0
0000e0 00 00 80 3f 00 00 80 3f 00 00 80 3f 00 00 80 3f
       1.0 1.0 1.0 1.0
0000f0 00 00 80 3f 00 00 80 3f 00 00 80 3f 00 00 80 3f
       1.0 1.0 1.0 1.0
000100 00 00 80 3f 00 00 80 3f 00 00 80 3f 00 00 80 3f
       1.0 1.0 1.0 1.0
000110 00 00 80 3f 00 00 80 3f 00 00 80 3f 00 00 80 3f
       1.0 1.0 1.0 1.0
000120 00 00 80 3f 00 00 80 3f 00 00 80 3f 00 00 80 3f
       1.0 1.0 1.0 1.0
000130 00 00 80 3f 00 00 80 3f 00 00 80 3f 00 00 80 3f
       1.0 1.0 1.0 1.0

sequential.2.Gamma.weight f4 [120, 80]
000000 e2 b4 34 3e 5c 3f 8f bd 76 8c 01 3e 37 07 07 3f
       0.17647126 -0.06994507 0.12651238 0.52745384
000010 04 e1 5a be d5 bd 25 bf b8 26 54 be e3 39 23 3d
       -0.21374899 -0.64742786 -0.20717895 0.039850127
000020 a7 60 19 3d 5b 0c a8 3e 11 15 62 bd fa c3 9f bd
       0.03744569 0.32821926 -0.05519587 -0.078010514
000030 2f 40 ab 3d db c3 02 3d 09 18 3f be 5a cf 79 3c
       0.083618514 0.031925064 -0.18661512 0.01524719
000040 c3 38 ac be e3 b0 b8 bd 7b b6 3b be 66 fb e3 bd
       -0.33637056 -0.090181135 -0.1833133 -0.11131935
000050 6c 7d 6b be 00 fc 44 3d 24 96 25 3e 39 ee cb 3e
       -0.22997063 0.04809189 0.16170555 0.39830187
000060 d8 99 82 3d bf ec 5f bd 59 32 ad be 80 a6 16 be
       0.063769996 -0.054669138 -0.33827475 -0.14711952
000070 ec 8b 8d bf 3c 27 14 bf b5 63 72 3c a3 91 96 3e
       -1.1058326 -0.57872367 0.01479428 0.29407987
000080 51 b3 72 be 70 ab af 3e 7c 23 81 3e 84 79 fa 3e
       -0.23701216 0.34310484 0.25222385 0.48920834
000090 f3 45 aa be d6 b8 a4 3e 82 f9 18 be b3 9e b6 bd
       -0.33256492 0.3217227 -0.1493893 -0.08916988
0000a0 57 aa 89 3e 9b 8d d9 be cd 21 c4 be d5 a0 9c 3e
       0.2688777 -0.4249085 -0.38307038 0.30591455
0000b0 3c e3 a3 bd c2 2a f3 be c2 2a ff be 7f 05 39 bd
       -0.08002326 -0.4749356 -0.4983731 -0.045171257
0000c0 0c cf eb 3c cc 1a e8 bd 6a e9 09 3e 89 1b 84 bd
       0.028785251 -0.11333236 0.13467947 -0.064505644
0000d0 cc ec b3 3d ca d1 1e 3d c3 06 5e bf ae 1a 04 3e
       0.087854 0.03877429 -0.8672907 0.12900802
0000e0 cd 19 e3 bd f7 25 2d 3e ef 08 a7 be 55 db 0b be
       -0.110889055 0.16909014 -0.32624003 -0.13657887
0000f0 f0 4a c7 3e 86 b3 be bc 7c b4 25 3c a0 56 12 3b
       0.3892436 -0.023278963 0.010113832 0.0022329465
000100 61 c0 ba be 3e 3d b5 bd fb ee e2 be 17 5c 8b 3e
       -0.36474898 -0.08849572 -0.44322953 0.27218696
000110 7c 91 27 bf 43 81 e3 be 0b d4 44 3e 89 d7 16 be
       -0.65456367 -0.44434556 0.19221513 -0.14730658
000120 fc c0 52 3e f4 0b eb be 11 ec c6 be 10 0c e7 bd
       0.2058143 -0.45907557 -0.3885198 -0.112815976
000130 df b0 92 be e5 2b ab bf 75 00 08 3c be 5b 88 3e
       -0.28650567 -1.337277 0.00830089 0.26632494
000140 84 61 75 bf 87 c4 86 3e c2 fe 77 be c6 03 b2 be
       -0.9585192 0.26321813 -0.24218276 -0.34768504
000150 95 25 e2 3e 5f de 68 be 9e 61 7a 3d 5f 38 c4 be
       0.44169298 -0.22741078 0.06112825 -0.38324258
000160 ed c1 32 be 01 2f 1d be 41 ec 47 be 93 54 d8 3d
       -0.1745679 -0.15349962 -0.19523717 0.10563006
000170 7e f2 0d 3e 67 51 14 3f cf 9e dc 3d 14 3d ca 3e
       0.13862035 0.5793671 0.10772478 0.39499724
000180 ed d5 02 3e 23 b3 de 3d 99 be db be 62 34 e1 be
       0.12776919 0.10874011 -0.42918852 -0.43985277
000190 b5 52 6b 3d 82 71 11 bf 95 52 98 bd e7 74 20 3e
       0.057451922 -0.56813824 -0.07437626 0.15669595
0001a0 06 9b 96 bd d9 6d 27 bf 79 07 89 be 4e 8a 92 3e
       -0.07353787 -0.6540199 -0.26763514 0.28621143
0001b0 5b b9 08 bf 48 48 3e 3e 00 bd 68 be d3 1d b6 be
       -0.5340783 0.1858226 -0.22728348 -0.3556963
0001c0 5b 0c da 3e 9b 07 b1 bd d5 b8 b6 be c2 35 82 be
       0.4258755 -0.08644029 -0.3568789 -0.2543164
0001d0 70 91 92 be 3d f5 4d 3d 15 9b d4 be fd f4 b5 3e
       -0.28626585 0.050282706 -0.41524568 0.35538474
0001e0 f8 69 65 3e b3 6a 9f 3e ec 96 f8 be da e6 fd bc
       0.22403705 0.31136093 -0.48552644 -0.030993868
0001f0 3b 81 ba 3e 72 48 c8 bc a0 74 b2 be 92 e7 99 3e
       0.3642672 -0.024448607 -0.34854603 0.30059487
000200 9d c8 10 3d f5 0e b6 be 6b 2c 40 be c3 da 33 3e
       0.03534757 -0.35558286 -0.18766944 0.1756392
000210 97 d5 89 bf eb fa af 3e 48 bd 87 3e 7d 10 38 be
       -1.0768307 0.34371123 0.26511598 -0.1797504
000220 81 5a 8e bd d5 e5 75 3e 4a 19 4f be f6 b8 88 be
       -0.06950856 0.24013455 -0.20224491 -0.26703614
000230 25 34 e6 bd e4 02 a5 3e 82 f2 a4 3e 35 4d 57 3e
       -0.112404145 0.32228768 0.3221627 0.21025546
000240 74 2c 4c 3e 48 05 bd be 33 b8 bf bf 40 bf 3d 3e
       0.19938833 -0.36918092 -1.4978088 0.18529987
000250 86 9f e0 be 8f ca 37 bf 23 81 f5 bd f5 a2 e5 3d
       -0.43871707 -0.71793455 -0.119875215 0.11212722
000260 dc 8a 54 bd 62 93 57 3e 4a 33 b2 bf 7b 59 09 be
       -0.05189024 0.21052316 -1.3921902 -0.1341304
000270 37 2b 84 3d 0a 4e 40 bf fe 01 09 3e 7f ac 2b be
       0.06453555 -0.7511908 0.13379666 -0.16765021
000280 49 64 b1 3e 6c a5 a8 bd 02 69 17 3d 84 7f 4d 3c
       0.34646824 -0.08234677 0.036965378 0.012542609
000290 30 54 0b 3e 32 96 d8 be 72 f8 d8 3e aa ac d8 3e
       0.13606334 -0.4230209 0.4237705 0.42319232
0002a0 49 8d 9b bd d3 42 6d 3d b0 69 b0 bd b7 d8 53 bc
       -0.075953074 0.057925057 -0.08613908 -0.012930087
0002b0 71 2f c2 3e 69 2f 79 be 7e f2 2f 3e 2d 41 06 bf
       0.3792682 -0.24334492 0.17182347 -0.524432
0002c0 be e6 2a 3d 5a 57 2d be 7d db cc 3e 6d ce a4 3d
       0.04172396 -0.16927853 0.40011206 0.08047185
0002d0 2a 53 00 be 20 d6 b5 be cc ad 97 be c9 f7 0a be
       -0.12531725 -0.35514927 -0.29624784 -0.13571085
0002e0 8c bf a1 be f6 99 05 3e 9c 10 6d be ce a4 fd 3d
       -0.3159145 0.13047013 -0.23150867 0.123849496
0002f0 a3 05 85 be 66 94 83 be 76 eb de 3e e8 24 1e bf
       -0.25980863 -0.25699157 0.43539017 -0.61775064
000300 c8 0a 8c bc a2 38 9a be d5 46 a2 bd 1b 4c bf 3e
       -0.017094985 -0.30121332 -0.079236664 0.3736275
000310 2c 43 84 be 1d b7 51 be 8f e3 d4 3b b2 34 cf 3e
       -0.25832498 -0.20480008 0.0064968537 0.4046989
000320 1f 2e c2 bb ec 57 02 3e a7 8c 14 bf 86 28 a8 bd
       -0.005925908 0.12728852 -0.5802712 -0.08210854
000330 02 21 bd be 8c aa a7 be d5 25 c8 be 4e b0 a4 3e
       -0.36939245 -0.32747304 -0.39091364 0.3216576
000340 5b 9a cc be d8 61 a6 3d 43 3b fc 3d 49 bd be be
       -0.39961514 0.08124131 0.12315991 -0.37253788
000350 0f 64 e6 3c 89 93 78 be 7f 94 69 bf 0f 36 77 3d
       0.028123884 -0.2427503 -0.9124221 0.06035429
000360 e0 83 ae bd cd 6c 97 3d ad c3 87 3e a0 5c ba be
       -0.08521247 0.07393799 0.26516476 -0.36398792
000370 74 7a cb 3b b2 f7 b1 bc 21 a4 26 be f4 e7 d9 be
       0.006209666 -0.021724556 -0.16273548 -0.4255978
000380 da d4 d3 be 35 51 be be b8 29 d6 bd a8 3f 90 3e
       -0.4137333 -0.3717133 -0.10457176 0.28173566
000390 79 9f a7 3d e1 4b 11 be 31 c7 ba 3e f5 15 f1 bd
       0.08184714 -0.14189102 0.36480096 -0.11771766
0003a0 2a d7 33 bd c6 9f eb be cb 57 15 3f bd 8f cb 3e
       -0.04390637 -0.46020335 0.58337086 0.397581
0003b0 90 6c 9b be 4a 52 27 bf a2 5f c6 3d a8 9e 85 3e
       -0.30356264 -0.6535994 0.09686209 0.26097608
0003c0 bc 61 05 3e e1 fd ad 3d 51 a9 1f bf 2a 18 70 bf
       0.13025564 0.08495689 -0.6236773 -0.9378687
0003d0 9e cb c3 bc cf 73 3d bf 90 8f 86 bf 33 1d c1 3e
       -0.023900803 -0.74004835 -1.0512562 0.3771759
0003e0 3a e5 7b 3e 65 e0 87 bd 01 c5 eb bc a5 53 11 be
       0.24599162 -0.06634597 -0.028780462 -0.14192064
0003f0 42 76 35 bd 07 e7 ef 3d dc 03 4a be 1e 47 13 3d
       -0.044302233 0.11713987 -0.19728035 0.035956495

sequential.2.Gamma.bias f4 [120]
000000 53 c1 0e be fd ec 0e 3e e0 c0 58 3d 6c df 77 be
       -0.13940935 0.13957591 0.052918315 -0.24206322
000010 53 6a 2d be 2d 44 5c 3e 9b 7b bd bd 8f dc fc 3d
       -0.1693509 0.21510382 -0.092520915 0.12346756
000020 43 04 72 be 23 10 9e be 0e 14 75 be b3 3e 03 bd
       -0.23634438 -0.30871686 -0.23933432 -0.032042217
000030 58 15 53 be 47 6b 04 bc 31 82 83 bd dd a9 be 3d
       -0.2061361 -0.008082218 -0.064213164 0.093097426
000040 65 10 7f 3e 88 4b c2 3e 1a d2 20 be cd e2 67 3e
       0.24908598 0.3794825 -0.15705147 0.22645111
000050 41 42 68 bd 4f 74 3b be 12 3d b4 be 33 bf 2c be
       -0.05670381 -0.18306087 -0.35202843 -0.16869812
000060 6e 3b 83 3e a4 10 95 be 41 0b a2 bd 7a b8 3d 3d
       0.2563128 -0.29114258 -0.07912303 0.04631851
000070 2f 46 9c 3d 0f 5d 19 bd 5f 46 41 3e d8 be a4 be
       0.07630574 -0.037442263 0.188745 -0.32176852
000080 c2 2a 07 be 3a 7b 64 be fe bf 1a be db 5d 9d 3e
       -0.13199905 -0.22312632 -0.15112302 0.3073567
000090 dd b2 31 be f6 1a 8f be 64 20 34 3d 9b 57 19 be
       -0.17353387 -0.27950257 0.043976203 -0.14974825
0000a0 1e b4 80 be 97 a6 2d be df d7 7e be c1 9b 5f bd
       -0.25137419 -0.1695808 -0.24887036 -0.054591898
0000b0 d6 3d 0d be e2 4a ac bd 44 24 d3 be 02 89 eb 3d
       -0.1379312 -0.0841272 -0.41238606 0.115007415
0000c0 82 fa d8 3d e4 88 a3 be ff 50 3a 3d e1 d8 12 be
       0.105946556 -0.31940377 0.0454874 -0.14340545
0000d0 c0 9b eb be 14 77 11 bd 34 c1 8a be 6d ac 80 be
       -0.46017265 -0.035513952 -0.27100527 -0.2513155
0000e0 71 da 87 bd 22 95 18 be 5f 20 bf be 9f a5 c1 be
       -0.06633461 -0.1490064 -0.37329385 -0.3782167
0000f0 c4 84 c9 be 9d 28 09 be a8 77 32 bd 1a e2 bc bd
       -0.39359105 -0.13394399 -0.043571144 -0.09222813
000100 fe 45 04 be 7f d8 8f bd 36 5f 60 be 2c 8f 92 bd
       -0.12917325 -0.07023715 -0.2191132 -0.07156214
000110 47 bc a6 bd 0c ed d1 bd ed 56 7e 3d d8 25 c5 bd
       -0.0814138 -0.10250291 0.062094618 -0.09626359
000120 28 f7 ae be cf 59 a8 be ef d5 4a 3e 8b a2 92 be
       -0.3417294 -0.3288102 0.19808172 -0.28639635
000130 d0 59 d0 be b4 87 ef 3c f0 45 5d 3d a2 bc 7b be
       -0.40693521 0.029239513 0.054021776 -0.24583676
000140 7d 52 a7 3e 24 e0 79 3e 93 bf 9b be 82 df e2 bd
       0.3268012 0.24401909 -0.30419597 -0.11077787
000150 9f 21 c6 3d 0c 9f 77 be f6 35 ab 3e e4 e1 b1 bd
       0.096743815 -0.24181765 0.33439606 -0.08685663
000160 10 29 06 be 2a 0d 16 be 55 16 a8 be 0f 2c 1b be
       -0.13101602 -0.14653459 -0.32829538 -0.15153526
000170 2f 7b f7 bd 12 15 76 bd 84 8d 4a 3e 2a 59 a5 3d
       -0.12084042 -0.060078688 0.19780546 0.08073647
000180 8a 3f 3b be 32 d4 49 be 82 6e ad be cf 76 b2 3e
       -0.18285957 -0.19709852 -0.33873373 0.3485627
000190 20 25 d6 3d db b7 cb 3d b8 c7 ad be 7d 14 5f be
       0.104563 0.09947177 -0.33941436 -0.2178516
0001a0 e8 62 a6 be e1 44 a0 be aa 93 3c 3d 25 aa fe bd
       -0.32497334 -0.3130255 0.04603926 -0.12434796
0001b0 7e 83 89 be 34 45 cb 3d 6f 38 ce 3d f4 f3 d1 3e
       -0.26858133 0.09925309 0.100693576 0.41006434
0001c0 e3 83 4a be ae 29 61 be 6d 17 3b be 52 fe 93 3d
       -0.19776873 -0.21988556 -0.18270655 0.07226242
0001d0 5f a8 92 3a 58 6e 81 be ad 99 b9 3e f5 7c c5 bd
       0.0011189095 -0.25279498 0.36250058 -0.09642974

sequential.2.Lambda.weight f4 [120, 80]
000000 a7 2e bc bd fd 8b 74 be de c4 c4 3d fd 32 0c 3e
       -0.09188586 -0.23881526 0.09607862 0.13691325
000010 3c eb 80 be ac 0e f5 be d6 6c 02 be 65 53 16 3a
       -0.2517947 -0.47862756 -0.1273683 0.00057344727
000020 dd 68 5a bc 74 a4 1f 3e 98 7e 2d bc d2 09 3e 3e
       -0.013330665 0.15590078 -0.010589264 0.18558434
000030 33 3f 97 3e da 8f d5 3d d7 f3 93 bd f8 fa 87 3e
       0.29540405 0.10427828 -0.07224243 0.2655866
000040 68 6e 11 3e b9 99 2b be 6a 86 0c 3c ee 22 3b be
       0.14202273 -0.1675786 0.008576969 -0.18275043
000050 f0 1d b3 be fc 10 20 3e b0 e2 1b 3e 80 4d 53 3e
       -0.34983778 0.15631479 0.15223193 0.20635033
000060 eb 4f b6 3d c1 c6 09 bd 66 66 30 3e 20 67 00 bd
       0.08901962 -0.033636812 0.17226562 -0.031348348
000070 94 78 89 bf 74 b6 85 be 8e 3f 3b be 03 00 85 3e
       -1.0739923 -0.26115763 -0.18285963 0.2597657
000080 f4 c6 1b bc 1c 06 9f 3c 3f 3b c3 be 3f 11 4a 3d
       -0.009507883 0.019412093 -0.3813114 0.049332853
000090 63 95 36 bd 16 35 ce bc f6 91 37 3e 5e 83 8a be
       -0.04457606 -0.025171798 0.17926773 -0.2705335
0000a0 cb 42 cd bd 1f 3d d7 bc 0b 2b 4a 3e b3 c4 8e be
       -0.100225054 -0.026274262 0.19742982 -0.27884445
0000b0 4b 7e 47 be 33 ad e0 be c6 de 05 3e 84 5c b8 3d
       -0.1948177 -0.4388214 0.13073263 0.09002021
0000c0 b8 da 9e 3d 2d 0c 64 be 2c 31 e6 3c 5b f2 39 3e
       0.07756561 -0.2227027 0.028099619 0.18158858
0000d0 49 c1 9c 3e e6 7f eb bd fc 27 9a bd f6 97 95 bd
       0.30616215 -0.11499004 -0.07527158 -0.07304375
0000e0 13 94 43 3d 09 1a 29 3e e3 a2 46 3e fe 69 4a be
       0.047748636 0.16513838 0.19398074 -0.19766995
0000f0 a9 bc df 3d 5b e5 f3 3e e3 45 34 be a8 fe 11 be
       0.10924656 0.47635922 -0.17604785 -0.142573
000100 e5 ec 8b be 54 50 97 bd 43 ec 97 bd 8c f1 4b 3e
       -0.27329174 -0.07388368 -0.0741811 0.19916362
000110 69 50 f9 bb 59 ec 58 be da 72 a8 be e6 00 01 bd
       -0.0076084626 -0.2118391 -0.32900125 -0.031494997
000120 10 ce 61 3e f5 13 27 be 64 2f 2f 3e f7 20 8e 3e
       0.22051263 -0.16316207 0.17107922 0.27759525
000130 f5 48 72 bd 37 ce 92 3e 9b 56 1e ba c3 8c ce bd
       -0.05915161 0.28672954 -0.0006040127 -0.10085442
000140 33 04 ee 3c 48 db 08 3e ae 59 a4 be 23 3c 40 3d
       0.029054737 0.13364899 -0.3209967 0.04693235
000150 b7 95 4e 3d b0 e6 7b 3e 20 08 e9 be 45 ff 2e be
       0.050435748 0.24599719 -0.4551401 -0.17089565
000160 b8 fe a9 be b6 dd 7f bd 71 ae 1d be 66 74 1e bd
       -0.33202147 -0.0624673 -0.15398575 -0.038685225
000170 21 e9 a5 3e 2e 40 17 3f 04 d5 53 3d 1a e6 99 3e
       0.32404426 0.59082305 0.05171682 0.30058366
000180 3d c9 88 3d 9f 57 de be b7 73 b1 3e 45 48 1f be
       0.06679008 -0.43426225 0.34658596 -0.15554912
000190 98 00 d6 3d d3 e1 25 be c4 a0 f6 3d 1b c9 9b 3e
       0.10449332 -0.16199426 0.12042382 0.3042687
0001a0 cf 9c 16 be 59 89 c4 3e 90 bd f4 bd 34 82 fe 3e
       -0.14708255 0.38386038 -0.11950219 0.49708712
0001b0 f5 28 9e bd 9f 62 85 be cf fe 8f bd 00 53 ff bd
       -0.07722656 -0.26051804 -0.07031023 -0.12467003
0001c0 d5 c5 1c 3f 58 36 f0 bd 79 a3 f2 bd 61 1e bf be
       0.6123937 -0.11729115 -0.11847586 -0.37327865
0001d0 ce 27 ba bd aa f4 77 3d 72 a7 0c be c2 60 45 bb
       -0.090896234 0.060536064 -0.1373575 -0.0030117487
0001e0 e9 cb 29 3e a5 4e bd 3d 75 a8 87 3d 28 d2 17 bd
       0.16581692 0.09243516 0.066239275 -0.037065655
0001f0 5f 6e 4f bd 54 4e 26 3e f8 65 fe bd 63 06 b1 be
       -0.050642367 0.16240817 -0.12421793 -0.34575185
000200 a9 a1 e0 bd 12 ac 43 bd e0 b1 b3 3c 94 c1 bd 3c
       -0.10968334 -0.04777152 0.021935403 0.023163594
000210 5a 91 2c bf 3b 4d cc 3e 45 0e 19 3e df 6c b1 be
       -0.6740929 0.39902672 0.1494685 -0.34653375
000220 ce ea c5 be 3f 00 90 3e 8f b9 e0 3d f0 38 8e bd
       -0.38655704 0.28125188 0.109728925 -0.06944454
000230 2a 07 33 3e b3 d8 00 be ca 4c 59 3e a5 ff 8f 3d
       0.17483202 -0.12582664 0.21220699 0.07031182
000240 e3 cc e6 3d a1 7d 14 3e ac 71 ac bf ad 9b 69 be
       0.11269548 0.14501049 -1.347219 -0.22813292
000250 c9 1c 8a be ac 73 f2 be 12 c9 dd 3d 34 85 b9 bd
       -0.26975086 -0.47353876 0.10829367 -0.090586096
000260 6d ef 08 3e 51 0f 09 3c 06 d9 d9 be 2a e5 ef 3e
       0.13372584 0.008365468 -0.42548388 0.46854526
000270 46 ef 2e be e7 5a 1e 3e 43 18 bd 3b 2b d0 45 3e
       -0.17083463 0.15464364 0.0057707145 0.19317691
000280 c5 8d 23 3f 4d 94 3d bd ce b3 91 bd 63 22 8e be
       0.638882 -0.04628401 -0.07114373 -0.2776061
000290 99 da 68 3e a9 c5 e5 3d 29 1e 5b be 65 59 ce 3e
       0.22739638 0.11219341 -0.21398224 0.40302578
0002a0 6f 84 ba 3c cd 1a a9 3e 65 31 e6 3d 89 cf de 3c
       0.022768227 0.3302826 0.1123989 0.02719857
0002b0 16 ad 8a 3e a5 e5 72 3e ca 62 5f bd 16 f7 36 3d
       0.2708518 0.23720415 -0.054537572 0.044669233
0002c0 47 de d3 3c 9e c3 97 bd c6 8d c6 3d ea cd 0f 3e
       0.025862826 -0.07410358 0.0969501 0.14043394
0002d0 e0 5d c7 3d e6 77 cb 3c 93 c2 34 3d 49 9c 8c 3e
       0.09734702 0.024837445 0.044130873 0.27462986
0002e0 6f 1c 7b be e6 00 6f be e3 75 83 3c d5 0b af bd
       -0.24522565 -0.23340186 0.016047424 -0.08547179
0002f0 34 d1 15 be 6a be 55 bd 99 b5 8f 3d 53 bc 7b 3d
       -0.14630586 -0.052183546 0.07017059 0.061458897
000300 83 14 e0 bd 80 16 55 bd 6d 6f 98 be d2 e7 d1 bc
       -0.10941412 -0.05202341 -0.2977251 -0.025623236
000310 01 71 7b 3e 31 d8 68 bd a9 39 52 be 6e 94 01 be
       0.24554826 -0.0568468 -0.20529808 -0.12654278
000320 fc f0 48 3e ef 91 ac 3e 8f 80 95 bd 59 9a d1 3d
       0.19623178 0.33705088 -0.07299911 0.102345176
000330 35 68 ab be e2 43 cb bd 14 32 90 be f2 34 35 3d
       -0.3347794 -0.09925057 -0.28163207 0.044239946
000340 32 92 99 bd 7c c4 d4 bc 32 50 7b be 94 ca e1 3d
       -0.07498588 -0.025972597 -0.24542311 0.11024967
000350 f9 2b 72 bd 26 d8 4b 3e 8b d2 02 be 9c e5 1a bd
       -0.059123967 0.19906673 -0.12775628 -0.03781663
000360 18 0a 09 be 09 c3 8c 3d f9 ea 2d 3e fe 28 da 3d
       -0.13382757 0.068731375 0.16984166 0.1065235
000370 1b 4d 81 be b6 31 3c 3e 87 0e cd 3e 12 3f 82 bd
       -0.2525414 0.18378338 0.40050146 -0.06359686
000380 bf 4b 93 be 6e 73 ae 3b f9 24 bd bd 0a 3a 23 3e
       -0.28768727 0.005323819 -0.092355676 0.15940109
000390 57 f9 b6 3d 4f e8 96 3d 91 42 32 3e 62 fe a5 3e
       0.089342766 0.07368528 0.17408206 0.3242064
0003a0 cd 99 02 bb 8a d1 ac be 7a a3 13 be 14 6f 37 3d
       -0.0019928098 -0.33753616 -0.1441783 0.044783667
0003b0 ba b9 f1 3c 5b 79 bf be b2 95 ab bc f9 24 c4 3d
       0.029507507 -0.37397274 -0.020945404 0.095773645
0003c0 e2 13 5f 3e d0 8c 20 be 56 c6 91 bd a5 40 10 bf
       0.21784928 -0.15678716 -0.07117908 -0.5634864
0003d0 16 8f 53 be 8d 08 97 be 49 22 cc be 8d 58 09 3f
       -0.20660052 -0.2949871 -0.39869907 0.5365074
0003e0 af 05 23 3f c8 d8 33 3e b5 d1 af 3e 90 df 44 be
       0.6368055 0.17563164 0.3433968 -0.19225907
0003f0 22 38 76 be fe be 09 3f c1 f0 60 be 97 96 75 3e
       -0.2404485 0.53807056 -0.2196684 0.23983227

sequential.2.Lambda.bias f4 [120]
000000 53 c1 0e be fd ec 0e 3e e0 c0 58 3d 6c df 77 be
       -0.13940935 0.13957591 0.052918315 -0.24206322
000010 53 6a 2d be 2d 44 5c 3e 9b 7b bd bd 8f dc fc 3d
       -0.1693509 0.21510382 -0.092520915 0.12346756
000020 43 04 72 be 23 10 9e be 0e 14 75 be b3 3e 03 bd
       -0.23634438 -0.30871686 -0.23933432 -0.032042217
000030 58 15 53 be 47 6b 04 bc 31 82 83 bd dd a9 be 3d
       -0.2061361 -0.008082218 -0.064213164 0.093097426
000040 65 10 7f 3e 88 4b c2 3e 1a d2 20 be cd e2 67 3e
       0.24908598 0.3794825 -0.15705147 0.22645111
000050 41 42 68 bd 4f 74 3b be 12 3d b4 be 33 bf 2c be
       -0.05670381 -0.18306087 -0.35202843 -0.16869812
000060 6e 3b 83 3e a4 10 95 be 41 0b a2 bd 7a b8 3d 3d
       0.2563128 -0.29114258 -0.07912303 0.04631851
000070 2f 46 9c 3d 0f 5d 19 bd 5f 46 41 3e d8 be a4 be
       0.07630574 -0.037442263 0.188745 -0.32176852
000080 c2 2a 07 be 3a 7b 64 be fe bf 1a be db 5d 9d 3e
       -0.13199905 -0.22312632 -0.15112302 0.3073567
000090 dd b2 31 be f6 1a 8f be 64 20 34 3d 9b 57 19 be
       -0.17353387 -0.27950257 0.043976203 -0.14974825
0000a0 1e b4 80 be 97 a6 2d be df d7 7e be c1 9b 5f bd
       -0.25137419 -0.1695808 -0.24887036 -0.054591898
0000b0 d6 3d 0d be e2 4a ac bd 44 24 d3 be 02 89 eb 3d
       -0.1379312 -0.0841272 -0.41238606 0.115007415
0000c0 82 fa d8 3d e4 88 a3 be ff 50 3a 3d e1 d8 12 be
       0.105946556 -0.31940377 0.0454874 -0.14340545
0000d0 c0 9b eb be 14 77 11 bd 34 c1 8a be 6d ac 80 be
       -0.46017265 -0.035513952 -0.27100527 -0.2513155
0000e0 71 da 87 bd 22 95 18 be 5f 20 bf be 9f a5 c1 be
       -0.06633461 -0.1490064 -0.37329385 -0.3782167
0000f0 c4 84 c9 be 9d 28 09 be a8 77 32 bd 1a e2 bc bd
       -0.39359105 -0.13394399 -0.043571144 -0.09222813
000100 fe 45 04 be 7f d8 8f bd 36 5f 60 be 2c 8f 92 bd
       -0.12917325 -0.07023715 -0.2191132 -0.07156214
000110 47 bc a6 bd 0c ed d1 bd ed 56 7e 3d d8 25 c5 bd
       -0.0814138 -0.10250291 0.062094618 -0.09626359
000120 28 f7 ae be cf 59 a8 be ef d5 4a 3e 8b a2 92 be
       -0.3417294 -0.3288102 0.19808172 -0.28639635
000130 d0 59 d0 be b4 87 ef 3c f0 45 5d 3d a2 bc 7b be
       -0.40693521 0.029239513 0.054021776 -0.24583676
000140 7d 52 a7 3e 24 e0 79 3e 93 bf 9b be 82 df e2 bd
       0.3268012 0.24401909 -0.30419597 -0.11077787
000150 9f 21 c6 3d 0c 9f 77 be f6 35 ab 3e e4 e1 b1 bd
       0.096743815 -0.24181765 0.33439606 -0.08685663
000160 10 29 06 be 2a 0d 16 be 55 16 a8 be 0f 2c 1b be
       -0.13101602 -0.14653459 -0.32829538 -0.15153526
000170 2f 7b f7 bd 12 15 76 bd 84 8d 4a 3e 2a 59 a5 3d
       -0.12084042 -0.060078688 0.19780546 0.08073647
000180 8a 3f 3b be 32 d4 49 be 82 6e ad be cf 76 b2 3e
       -0.18285957 -0.19709852 -0.33873373 0.3485627
000190 20 25 d6 3d db b7 cb 3d b8 c7 ad be 7d 14 5f be
       0.104563 0.09947177 -0.33941436 -0.2178516
0001a0 e8 62 a6 be e1 44 a0 be aa 93 3c 3d 25 aa fe bd
       -0.32497334 -0.3130255 0.04603926 -0.12434796
0001b0 7e 83 89 be 34 45 cb 3d 6f 38 ce 3d f4 f3 d1 3e
       -0.26858133 0.09925309 0.100693576 0.41006434
0001c0 e3 83 4a be ae 29 61 be 6d 17 3b be 52 fe 93 3d
       -0.19776873 -0.21988556 -0.18270655 0.07226242
0001d0 5f a8 92 3a 58 6e 81 be ad 99 b9 3e f5 7c c5 bd
       0.0011189095 -0.25279498 0.36250058 -0.09642974

sequential.2.bn.running_mean f4 [120]
000000 00 00 00 00 00 00 00 00 00 00 00 00 00 00 00 00
       0.0 0.0 0.0 0.0
000010 00 00 00 00 00 00 00 00 00 00 00 00 00 00 00 00
       0.0 0.0 0.0 0.0
000020 00 00 00 00 00 00 00 00 00 00 00 00 00 00 00 00
       0.0 0.0 0.0 0.0
000030 00 00 00 00 00 00 00 00 00 00 00 00 00 00 00 00
       0.0 0.0 0.0 0.0
000040 00 00 00 00 00 00 00 00 00 00 00 00 00 00 00 00
       0.0 0.0 0.0 0.0
000050 00 00 00 00 00 00 00 00 00 00 00 00 00 00 00 00
       0.0 0.0 0.0 0.0
000060 00 00 00 00 00 00 00 00 00 00 00 00 00 00 00 00
       0.0 0.0 0.0 0.0
000070 00 00 00 00 00 00 00 00 00 00 00 00 00 00 00 00
       0.0 0.0 0.0 0.0
000080 00 00 00 00 00 00 00 00 00 00 00 00 00 00 00 00
       0.0 0.0 0.0 0.0
000090 00 00 00 00 00 00 00 00 00 00 00 00 00 00 00 00
       0.0 0.0 0.0 0.0
0000a0 00 00 00 00 00 00 00 00 00 00 00 00 00 00 00 00
       0.0 0.0 0.0 0.0
0000b0 00 00 00 00 00 00 00 00 00 00 00 00 00 00 00 00
       0.0 0.0 0.0 0.0
0000c0 00 00 00 00 00 00 00 00 00 00 00 00 00 00 00 00
       0.0 0.0 0.0 0.0
0000d0 00 00 00 00 00 00 00 00 00 00 00 00 00 00 00 00
       0.0 0.0 0.0 0.0
0000e0 00 00 00 00 00 00 00 00 00 00 00 00 00 00 00 00
       0.0 0.0 0.0 0.0
0000f0 00 00 00 00 00 00 00 00 00 00 00 00 00 00 00 00
       0.0 0.0 0.0 0.0
000100 00 00 00 00 00 00 00 00 00 00 00 00 00 00 00 00
       0.0 0.0 0.0 0.0
000110 00 00 00 00 00 00 00 00 00 00 00 00 00 00 00 00
       0.0 0.0 0.0 0.0
000120 00 00 00 00 00 00 00 00 00 00 00 00 00 00 00 00
       0.0 0.0 0.0 0.0
000130 00 00 00 00 00 00 00 00 00 00 00 00 00 00 00 00
       0.0 0.0 0.0 0.0
000140 00 00 00 00 00 00 00 00 00 00 00 00 00 00 00 00
       0.0 0.0 0.0 0.0
000150 00 00 00 00 00 00 00 00 00 00 00 00 00 00 00 00
       0.0 0.0 0.0 0.0
000160 00 00 00 00 00 00 00 00 00 00 00 00 00 00 00 00
       0.0 0.0 0.0 0.0
000170 00 00 00 00 00 00 00 00 00 00 00 00 00 00 00 00
       0.0 0.0 0.0 0.0
000180 00 00 00 00 00 00 00 00 00 00 00 00 00 00 00 00
       0.0 0.0 0.0 0.0
000190 00 00 00 00 00 00 00 00 00 00 00 00 00 00 00 00
       0.0 0.0 0.0 0.0
0001a0 00 00 00 00 00 00 00 00 00 00 00 00 00 00 00 00
       0.0 0.0 0.0 0.0
0001b0 00 00 00 00 00 00 00 00 00 00 00 00 00 00 00 00
       0.0 0.0 0.0 0.0
0001c0 00 00 00 00 00 00 00 00 00 00 00 00 00 00 00 00
       0.0 0.0 0.0 0.0
0001d0 00 00 00 00 00 00 00 00 00 00 00 00 00 00 00 00
       0.0 0.0 0.0 0.0

sequential.2.bn.running_var f4 [120]
000000 00 00 80 3f 00 00 80 3f 00 00 80 3f 00 00 80 3f
       1.0 1.0 1.0 1.0
000010 00 00 80 3f 00 00 80 3f 00 00 80 3f 00 00 80 3f
       1.0 1.0 1.0 1.0
000020 00 00 80 3f 00 00 80 3f 00 00 80 3f 00 00 80 3f
       1.0 1.0 1.0 1.0
000030 00 00 80 3f 00 00 80 3f 00 00 80 3f 00 00 80 3f
       1.0 1.0 1.0 1.0
000040 00 00 80 3f 00 00 80 3f 00 00 80 3f 00 00 80 3f
       1.0 1.0 1.0 1.0
000050 00 00 80 3f 00 00 80 3f 00 00 80 3f 00 00 80 3f
       1.0 1.0 1.0 1.0
000060 00 00 80 3f 00 00 80 3f 00 00 80 3f 00 00 80 3f
       1.0 1.0 1.0 1.0
000070 00 00 80 3f 00 00 80 3f 00 00 80 3f 00 00 80 3f
       1.0 1.0 1.0 1.0
000080 00 00 80 3f 00 00 80 3f 00 00 80 3f 00 00 80 3f
       1.0 1.0 1.0 1.0
000090 00 00 80 3f 00 00 80 3f 00 00 80 3f 00 00 80 3f
       1.0 1.0 1.0 1.0
0000a0 00 00 80 3f 00 00 80 3f 00 00 80 3f 00 00 80 3f
       1.0 1.0 1.0 1.0
0000b0 00 00 80 3f 00 00 80 3f 00 00 80 3f 00 00 80 3f
       1.0 1.0 1.0 1.0
0000c0 00 00 80 3f 00 00 80 3f 00 00 80 3f 00 00 80 3f
       1.0 1.0 1.0 1.0
0000d0 00 00 80 3f 00 00 80 3f 00 00 80 3f 00 00 80 3f
       1.0 1.0 1.0 1.0
0000e0 00 00 80 3f 00 00 80 3f 00 00 80 3f 00 00 80 3f
       1.0 1.0 1.0 1.0
0000f0 00 00 80 3f 00 00 80 3f 00 00 80 3f 00 00 80 3f
       1.0 1.0 1.0 1.0
000100 00 00 80 3f 00 00 80 3f 00 00 80 3f 00 00 80 3f
       1.0 1.0 1.0 1.0
000110 00 00 80 3f 00 00 80 3f 00 00 80 3f 00 00 80 3f
       1.0 1.0 1.0 1.0
000120 00 00 80 3f 00 00 80 3f 00 00 80 3f 00 00 80 3f
       1.0 1.0 1.0 1.0
000130 00 00 80 3f 00 00 80 3f 00 00 80 3f 00 00 80 3f
       1.0 1.0 1.0 1.0
000140 00 00 80 3f 00 00 80 3f 00 00 80 3f 00 00 80 3f
       1.0 1.0 1.0 1.0
000150 00 00 80 3f 00 00 80 3f 00 00 80 3f 00 00 80 3f
       1.0 1.0 1.0 1.0
000160 00 00 80 3f 00 00 80 3f 00 00 80 3f 00 00 80 3f
       1.0 1.0 1.0 1.0
000170 00 00 80 3f 00 00 80 3f 00 00 80 3f 00 00 80 3f
       1.0 1.0 1.0 1.0
000180 00 00 80 3f 00 00 80 3f 00 00 80 3f 00 00 80 3f
       1.0 1.0 1.0 1.0
000190 00 00 80 3f 00 00 80 3f 00 00 80 3f 00 00 80 3f
       1.0 1.0 1.0 1.0
0001a0 00 00 80 3f 00 00 80 3f 00 00 80 3f 00 00 80 3f
       1.0 1.0 1.0 1.0
0001b0 00 00 80 3f 00 00 80 3f 00 00 80 3f 00 00 80 3f
       1.0 1.0 1.0 1.0
0001c0 00 00 80 3f 00 00 80 3f 00 00 80 3f 00 00 80 3f
       1.0 1.0 1.0 1.0
0001d0 00 00 80 3f 00 00 80 3f 00 00 80 3f 00 00 80 3f
       1.0 1.0 1.0 1.0
