Models/Z_25GeV_50.pth (torch, 197282 bytes, 36 tensors)

sequential.0.Gamma.weight f4 [80, 5]
000000 ba 33 31 3f 2c c0 f6 be 8f 0f 2c 3e c0 51 f9 bd
       0.69219553 -0.4819349 0.1680281 -0.12173796
000010 21 4b 53 3f cf b8 4a be 5b f6 a6 be de a5 56 be
       0.8253651 -0.19797061 -0.3260983 -0.20961711
000020 f6 75 27 3f 57 a8 43 3f 9c 76 5e 3f 21 ce 5e 3f
       0.6541437 0.7642874 0.86899734 0.8703328
000030 5e f3 d8 be b2 d0 09 3e c7 8f 92 3f d7 39 a9 3e
       -0.42373174 0.13458517 1.1450127 0.3305194
000040 35 a6 23 3f 00 19 94 be af 4a f3 be c1 8c 92 bb
       0.63925487 -0.28925323 -0.47517917 -0.0044723456
000050 da e0 e2 be 34 a5 4d be 3d da ff 3e c2 5f 5a 3f
       -0.44312173 -0.20082551 0.4997119 0.85302365
000060 56 2c 90 be 2d c9 1f be fb c0 0a be fa e9 18 40
       -0.28158826 -0.15604086 -0.13550179 2.3892808
000070 10 f8 98 be a6 8b a9 bf 44 c6 69 3e e5 fc 1b 3e
       -0.29876757 -1.3245742 0.22829539 0.1523319
000080 83 73 ab be 82 87 98 be 40 94 68 3e da f4 19 3f
       -0.33486566 -0.29790884 0.22712803 0.6013924
000090 96 b8 93 3f 0d 74 ed be 5a 3b c9 3d bc ac ad 3e
       1.1540706 -0.46377602 0.098257735 0.33920848
0000a0 a1 22 4d bf ed d2 13 3f 1b ab e8 3e 6e b8 9d bc
       -0.80130965 0.5774372 0.45443043 -0.019252982
0000b0 1b e4 10 3e 69 4f b0 be ce 48 d4 3f 1c 20 2b be
       0.14149515 -0.34435585 1.6584718 -0.16711468
0000c0 25 8b 4b bb 16 a3 2a 3f 1b 7e cd 3e a6 6a 1a 3e
       -0.0031058278 0.666551 0.40135273 0.15079746
0000d0 f3 47 2d bf 86 07 17 bf 4c bf 2f bd 38 28 21 3f
       -0.6768791 -0.58995855 -0.042907044 0.62951994
0000e0 0e 02 88 be a1 b8 60 3f e3 be 58 bf 55 1f 0c bf
       -0.26564068 0.8778172 -0.8466627 -0.5473531
0000f0 29 b5 f0 3e d5 d1 5d 3f 71 f4 8d 3e 4a f1 8d 3e
       0.47013214 0.86648303 0.27725556 0.2772315
000100 77 09 1d bf 1e 29 ac be 7d 0a d1 be 86 7a 54 bf
       -0.6134257 -0.3362512 -0.40828314 -0.82999456
000110 af 3b 87 3e 97 55 99 3f e4 53 d9 3c b0 60 14 3f
       0.26412722 1.1979245 0.02652926 0.57960033
000120 b0 9b 1d 3e 44 e7 39 3e 00 b7 8a 3e 01 f5 df bc
       0.15391421 0.18154627 0.27092743 -0.027338507
000130 53 73 c7 3e 58 23 b6 be 36 30 25 bd 30 c3 b1 3f
       0.38955173 -0.3557384 -0.04032918 1.3887691
000140 4e b1 c3 be 98 e9 dd be fd 89 4d be 7b 2d 32 bf
       -0.3822121 -0.4334228 -0.2007217 -0.6960065
000150 e3 7d 2a 3f 18 7c be be 8d e6 9e 3e 6f 13 59 be
       0.6659834 -0.3720405 0.3103527 -0.2119882
000160 85 cc 10 3f 3b 1b b0 bd 1e 4b 3c 3e bc 06 f8 3e
       0.5656207 -0.08598944 0.1838803 0.48442638
000170 ab 9b 16 be 25 88 06 3f 65 fc 3e bf fc 12 b2 be
       -0.1470782 0.5255149 -0.74603873 -0.3478011
000180 37 23 32 3d d4 0e 94 3f d6 e4 9f 3f f7 a3 ae bf
       0.043490615 1.1567025 1.249171 -1.3643788
000190 97 a9 10 3f 89 04 1d 3e aa 60 0e bf 94 24 dd 3b
       0.56508774 0.15333761 -0.5561625 0.006748745
0001a0 50 9b 37 be 42 59 31 3f 93 2e a8 be f9 38 b2 bf
       -0.17930341 0.6927682 -0.32848033 -1.3923637
0001b0 e5 f8 03 bf 68 1d 13 40 c5 60 80 bf 9d 14 91 be
       -0.5155166 2.2986698 -1.0029532 -0.2833604
0001c0 a6 c8 a6 3f 55 80 76 3f b5 7a b9 bf b6 d4 01 bf
       1.3029983 0.9628957 -1.4490572 -0.50715196
0001d0 e5 15 fa 3d 21 42 fb be ce 21 ff 3c 50 12 d0 3e
       0.12211207 -0.4907389 0.031144049 0.4063897
0001e0 73 25 ba be 5c 64 e9 be a8 eb 14 bd b5 95 12 3f
       -0.36356696 -0.4558438 -0.03635755 0.57259685
0001f0 63 99 cb bd 7e 0b 05 3f 68 b1 37 be 67 4f 8c bd
       -0.099413656 0.5197066 -0.17938769 -0.06851082
000200 ea cd 0f be 1e d3 32 be 15 22 30 3e e5 ca b1 3f
       -0.14043394 -0.17463347 0.17200501 1.3890043
000210 37 5a 74 3e b7 05 23 bf 23 ab fe be 8d c2 d4 3e
       0.23862539 -0.63680595 -0.49739942 0.4155468
000220 b6 ba 48 be 98 63 36 3f 2e 1c 2b 3e d4 b1 66 bf
       -0.19602475 0.7124572 0.16709968 -0.90115094
000230 d5 1d f9 bc 72 15 ed be 8e 72 c3 be c1 9c e4 bb
       -0.030409733 -0.46305424 -0.38173336 -0.0069766943
000240 de 64 e8 3c c3 25 d5 3d 8c 54 54 3f e4 a2 b1 bf
       0.02836841 0.10407593 0.8294151 -1.3877835
000250 ae 71 3d be 78 e6 a8 bd 46 e2 9f 3f 31 7e f4 bf
       -0.18500397 -0.082470834 1.2490928 -1.910101
000260 3d 54 54 3e 84 b8 cb be 22 f5 32 3e b6 6b fd 3e
       0.2073526 -0.39789212 0.17476323 0.4949624
000270 bb cd 20 3f e3 87 81 be 29 c6 66 3e cd 6a 7c 3e
       0.6281392 -0.25298986 0.2253653 0.24650116
000280 33 a4 c2 3e 2a 72 95 be e0 f2 20 3e 45 dc 13 3f
       0.380159 -0.29188663 0.1571765 0.5775798
000290 4c 2b b7 be 4e 79 ad 3f 44 2c 86 3f ed be 97 3e
       -0.3577522 1.3552644 1.0482259 0.29637852
0002a0 f1 95 a9 3d c1 15 7a be 71 e6 18 3f 4c 65 81 3e
       0.08280552 -0.24422361 0.59726626 0.25272596
0002b0 7f ac 44 be 8f 49 84 bf e8 29 e0 3e df 83 b5 3e
       -0.19206427 -1.0334948 0.43781972 0.35452172
0002c0 33 66 d6 3e e4 80 9b bd 85 3f 00 bf 90 f9 b4 3d
       0.41874847 -0.07592943 -0.50096923 0.08836663
0002d0 b8 94 bb be 3e 00 fe 3e 2a ff 48 be 86 b5 0e bf
       -0.366369 0.4960956 -0.19628587 -0.5574573
0002e0 40 86 c0 3e c9 05 b6 3e 48 7c a4 3d d9 94 4b be
       0.37602425 0.3555129 0.08031517 -0.19881
0002f0 f7 b0 10 bf bd 25 e7 3e 6e 5e a0 3f 88 24 51 3f
       -0.56520027 0.4514598 1.2528818 0.8169637
000300 b3 49 00 bf 73 63 98 bd 12 be b5 3e 02 a5 bb be
       -0.50112456 -0.074408434 0.35496575 -0.36649328
000310 81 46 93 be 8c 9f ff 3d 9b 87 3c 3f ce 0e d9 be
       -0.28764728 0.12481603 0.7364442 -0.42394108
000320 49 94 4d 3f bb f5 6c bf 85 f4 86 bf d3 49 6c 3e
       0.8030439 -0.92562455 -1.0543371 0.23075037
000330 7a b5 57 3f f0 90 66 3f 61 63 2a be e4 92 e9 3e
       0.84261286 0.9006491 -0.16639473 0.4561988
000340 f6 07 d1 3e 2d a1 57 be 0e 3c 5c bf 34 87 cd be
       0.40826386 -0.21057577 -0.86029136 -0.40142214
000350 84 67 c8 3e 32 2e ac bf 94 97 16 3f 57 dd 82 be
       0.39141476 -1.3451598 0.5882504 -0.25559494
000360 fa f5 3d 3e 82 65 93 be c0 5d 7e 3f ab 14 b8 3e
       0.18550864 -0.28788382 0.993618 0.35953268
000370 87 6d 30 3f ce 40 02 3e 63 66 2b 3e 2e 29 e3 3c
       0.68917125 0.12720034 0.16738276 0.027729597
000380 35 99 98 bf df dd 1f 3f 1b 77 dd be 43 18 fb bd
       -1.1921755 0.62447923 -0.43254933 -0.12260487
000390 4c 7c 34 bf c1 ea 5a bd 94 22 8b bf 11 e1 42 3c
       -0.7050216 -0.053446535 -1.0869927 0.01189448
0003a0 51 e5 e4 be e7 ff c0 3f 6d 8b 64 bc a3 5f d8 3d
       -0.44706205 1.5078095 -0.013949257 0.10565116
0003b0 af 65 81 be e6 01 8a bc 37 28 d2 bf 9a 16 98 3f
       -0.2527289 -0.016846608 -1.6418523 1.1881897
0003c0 f8 16 79 3e af 36 aa 3e fe fc 32 3f e6 a5 43 3f
       0.24325168 0.33244845 0.69917285 0.76425016
0003d0 a8 61 97 be 78 c7 85 3f 6b 03 71 3f 55 73 56 be
       -0.29566693 1.0451498 0.9414584 -0.20942433
0003e0 f3 02 37 3f a9 9a 01 3f 42 0a 50 3f 77 f2 eb 3e
       0.71488875 0.5062662 0.8126565 0.46083423
0003f0 e5 f4 d4 be 0f 21 81 3f 86 52 39 bf 4f 77 8c 3f
       -0.4159309 1.0088214 -0.72391546 1.097391

sequential.0.Gamma.bias f4 [80]
000000 70 a0 e0 be 0e 9a e2 be 8d b7 cf be 26 26 ad 3e
       -0.43872404 -0.4425816 -0.40569726 0.33818167
000010 47 0d fd be 0b 49 27 3e 80 4b 4e bf bc c1 ef bd
       -0.49424192 0.16336457 -0.80583954 -0.11706874
000020 28 17 8a 3e bc 72 aa 3e 34 f2 2a 3e b0 f0 8b 3e
       0.26970792 0.3329066 0.16693956 0.27332067
000030 4e 31 69 be 74 04 57 be 97 bc 60 3d bb 32 2d 3c
       -0.22772714 -0.20997792 0.054867353 0.010571177
000040 ce 78 3c bf 33 e0 ff be e5 dc 89 bd 10 6d 39 3d
       -0.73621833 -0.49975738 -0.067315854 0.045270026
000050 5b 49 20 bf d7 bd 98 3e 88 22 78 3d 3c 57 1a be
       -0.6261193 0.29832336 0.060579807 -0.1507234
000060 cc f9 04 bf 50 bd c5 be 24 cd bb be ac 5a bf 3e
       -0.5194366 -0.38620996 -0.36679947 0.37373865
000070 5a 6a 0b bf 9b fc a2 be 1b 02 25 3d a0 de 23 bf
       -0.54459155 -0.31833348 0.04028521 -0.64011574
000080 7e 31 fe bd 2a 27 d0 be f4 59 3d 3e 43 4b f8 3e
       -0.12411784 -0.4065488 0.18491346 0.4849492
000090 9f ab a0 3d ef cd 81 bd 0e 53 66 3e 3f 0a d1 be
       0.07845234 -0.06338107 0.2249262 -0.4082813
0000a0 3e 39 c5 be 46 19 25 3e 8c af 5a 3d 3a c2 0c bf
       -0.38520235 0.16122922 0.05339007 -0.54983866
0000b0 d2 e5 96 bd 86 16 c7 bd 22 7a 36 bf d5 e1 df 3e
       -0.073680535 -0.09721093 -0.7128011 0.43726984
0000c0 ac 7e 06 bf a3 90 db be b3 a6 05 bf c9 bd 84 be
       -0.52537036 -0.42883787 -0.5220749 -0.25926045
0000d0 38 62 33 3d 71 e1 c1 3e 30 47 d8 3e 35 12 dc be
       0.04379484 0.3786731 0.42241812 -0.4298264
0000e0 a8 95 c2 bd 79 74 56 bf 63 6f 35 be 11 fc 73 bd
       -0.09501201 -0.83771473 -0.17718272 -0.05956656
0000f0 6f 40 16 bf 44 42 27 bf 93 f1 b1 be d1 0e 24 3c
       -0.5869207 -0.6533549 -0.3475462 0.010013298
000100 17 68 31 be 48 db 54 bf d1 6c 75 be 1c 5b a6 3e
       -0.17324863 -0.83147097 -0.23967291 0.32491386
000110 01 a0 6f 3b 9c 69 d7 3d 83 65 05 bf c8 f2 70 be
       0.0036563876 0.1051819 -0.5210802 -0.23530114
000120 d5 1d e5 be 90 f2 c3 be f1 e4 0b bf 6f c5 0f bf
       -0.44749323 -0.38270998 -0.5464621 -0.56160635
000130 91 5a 9c 3d 0e 14 d5 be be 25 19 bf d9 46 8a 3e
       0.07634462 -0.41616863 -0.59823215 0.27007177

sequential.0.Lambda.weight f4 [80, 5]
000000 ba 27 1b bd 88 66 d9 be 6d f5 e3 be e9 17 fc 3d
       -0.037879683 -0.42461038 -0.44523183 0.12309248
000010 93 e0 a7 be 56 69 4b bf 94 1b a3 bd 2c d3 e9 be
       -0.32788524 -0.79457605 -0.079642445 -0.45668924
000020 72 8c ca bc 4c d0 0f 3f 3e 05 4d bf 6c 13 9d bf
       -0.024725173 0.5617721 -0.80086124 -1.2271552
000030 e3 25 97 bd 93 a6 76 3f 39 0e 07 3f 84 a4 46 bc
       -0.07380273 0.9634792 0.5275608 -0.0121241845
000040 60 70 c6 3e bd d4 16 bf 10 52 49 be aa 85 df 3e
       0.3875761 -0.5891836 -0.1966021 0.43656665
000050 ea 8f ba 3e 9f 98 a2 bf 43 e6 25 3f 1c 31 57 3f
       0.36437923 -1.2702826 0.64804476 0.8405931
000060 9e ce 20 bf 47 21 c9 3d ba ff f7 3d 12 4e 24 be
       -0.6281527 0.098208 0.12109323 -0.16045406
000070 3b 08 74 3e 0e 8b 94 be 49 6f 5d 3f f5 94 96 bf
       0.23831265 -0.2901234 0.8649793 -1.1764208
000080 f8 03 55 3e fd d0 83 3f 64 f1 33 bf 0a ea 95 3e
       0.20802295 1.0298153 -0.7029021 0.2928012
000090 16 c6 35 bf 44 ac 92 bd 7e 3a 22 bf 18 b1 0e bf
       -0.7100538 -0.07161763 -0.633705 -0.55738974
0000a0 14 11 f5 bd e0 fc 72 3f 4f a9 33 3d 0e 16 80 be
       -0.11966148 0.94917107 0.043862637 -0.25016826
0000b0 8a 7b 67 bf 63 f0 84 3e b4 5b 11 bf c1 9c 1f bf
       -0.9042288 0.2596465 -0.5678055 -0.6234856
0000c0 02 4b 83 bd c6 c0 87 3f bd 81 0e 3f 57 2b 63 bc
       -0.06410791 1.0605705 0.55666715 -0.0138653135
0000d0 15 43 e0 bd 5d a0 9c bd c1 7f ed bd 81 2a 66 be
       -0.10950295 -0.07647774 -0.11596633 -0.22477151
0000e0 1f 4d ad 3e fe 2c d1 3e 00 62 fe 3e 54 25 3c bf
       0.338479 0.4085464 0.49684143 -0.7349446
0000f0 1b da 08 bf 0b 50 35 3f b5 68 81 be b8 87 da be
       -0.534578 0.7082526 -0.25275198 -0.4268167
000100 f7 78 cf 3e c3 d5 e0 be 6f f4 bb 3e 19 42 a5 bd
       0.40521976 -0.43913087 0.36709926 -0.08069248
000110 8d a9 d5 3e 34 89 39 be e6 a3 06 bf 59 28 61 bf
       0.4173092 -0.18118745 -0.5259384 -0.8795219
000120 15 58 dc 3f 6f 51 1d bf 34 ce 34 be 08 3f ae 3e
       1.721438 -0.6145238 -0.17656785 0.34032464
000130 0c 06 17 bf 33 7f 80 3b 30 cc 1a 3d 79 3b 9a 3e
       -0.589936 0.0039214133 0.037792385 0.301235
000140 c5 c2 06 3f e3 55 8d 3e 3d 87 7e be 89 f3 ec 3e
       0.52640945 0.2760459 -0.24856277 0.46279553
000150 c0 1c 95 3e eb 8a 5a bf 11 97 cf 3d aa b1 21 3f
       0.29123497 -0.8536822 0.101362355 0.6316172
000160 6c b5 65 be 71 92 11 3d 8a df 57 be 57 07 e1 be
       -0.22432488 0.035540048 -0.21081367 -0.43950912
000170 fa 4e 00 3f c9 7c e7 be 48 f7 3f 3f e1 08 fc 3e
       0.5012051 -0.4521239 0.74986696 0.49225524
000180 a3 3a 2e 3e 27 d1 d3 3e f9 30 9b bf 2e e6 db 3d
       0.17014556 0.41370508 -1.212432 0.10737263
000190 f8 e0 b6 3e e4 94 3d 3e ec f1 3c bf 1b 59 db bc
       0.35718513 0.18513829 -0.73806643 -0.026775887
0001a0 ba a8 64 3e b7 15 3a bf 88 e8 da 3d e5 d6 11 3f
       0.22329989 -0.72689384 0.10688883 0.5696853
0001b0 05 a5 02 3f 49 81 25 bf 1a 3d 5b bf 30 ee aa 3f
       0.5103305 -0.646504 -0.8564011 1.3353939
0001c0 93 9f 86 3f cb 4b a7 be 88 05 9a bf bc c5 18 bf
       1.0517448 -0.32675013 -1.2032938 -0.5967672
0001d0 58 4d 8c 3d a8 43 ba bd cc c4 66 be 63 e1 95 3f
       0.0685069 -0.09094936 -0.2253601 1.1709408
0001e0 2c 61 17 bd 0a f7 d3 be 5f 33 07 bd bd 80 36 3f
       -0.036957905 -0.41399413 -0.033007976 0.7129019
0001f0 15 48 e0 bd 3a f1 1e 3f b7 ad 05 be 06 d5 62 be
       -0.109512486 0.6208683 -0.13054548 -0.22151574
000200 44 42 34 bd ae fc 70 ba 76 21 eb 3c 9b c9 39 bf
       -0.04400851 -0.00091929256 0.028702479 -0.7257325
000210 65 36 aa 3f 63 97 dc bf 61 a0 a8 3e 3d 6f 8d 3e
       1.329785 -1.72337 0.3293486 0.2762393
000220 82 fd 12 bf 9c 2f ae 3f f0 9b f6 be e0 98 07 bf
       -0.5741807 1.3608279 -0.48165846 -0.52967644
000230 9c 5f d7 be 9b 98 40 3f 2b f7 39 3f 78 ac b0 3e
       -0.42065132 0.7523286 0.72642773 0.34506583
000240 d2 d8 96 bf ec b1 94 3e b5 87 03 3f 73 f9 2d be
       -1.1784918 0.29041994 0.5137895 -0.16989689
000250 a6 c4 1c be 92 04 be bd 50 af 34 3e cd f0 8c 3d
       -0.1530939 -0.092782155 0.17645001 0.068818666
000260 a3 69 d5 be ae ad b1 3e 4d 0e f0 bd d9 11 48 bd
       -0.41682157 0.3470282 -0.11721478 -0.048845146
000270 f3 4e fe bf 54 33 27 bf 4c 86 22 3f 58 b5 20 3f
       -1.9867843 -0.65312696 0.6348617 0.6277671
000280 6b ec 59 bf 46 ad e3 be 65 c0 50 3e 13 88 11 bf
       -0.8512637 -0.44468135 0.20385893 -0.5684826
000290 7d ee e3 3f 67 d0 3a be c4 37 77 3e 65 fe 9a 3e
       1.7807156 -0.18243562 0.24142367 0.30272213
0002a0 ec a2 94 3e db 57 09 bf c2 b2 08 bf 51 a8 f2 3d
       0.2903055 -0.5364968 -0.5339776 0.1184851
0002b0 51 49 04 3e 70 96 3f 3f b9 6c 89 be 2b b4 9c 3d
       0.12918593 0.74838924 -0.2684076 0.07651552
0002c0 3c a5 77 3b 18 64 87 3f a1 e7 5e be 72 33 94 bf
       0.0037787696 1.0577421 -0.21768047 -1.15782
0002d0 c2 de 00 bf 4d 86 8a 3f 03 93 84 3e a5 2c 0e 3e
       -0.503399 1.0822235 0.2589341 0.13884218
0002e0 37 05 30 bf 50 33 94 3f a7 5a 82 bd a5 48 62 3f
       -0.6875796 1.1578159 -0.06364947 0.88392097
0002f0 d2 6c e1 be 28 ed ca bf ea 42 d6 be 5e 64 1d bf
       -0.44028336 -1.5853624 -0.41847926 -0.61481273
000300 00 bd c0 3e dd 23 c5 be 7a 38 21 3f 52 81 dd 3c
       0.37644196 -0.38503924 0.629768 0.027039204
000310 ec 63 1b 3f 4b 97 36 be 6c f5 50 be 02 e0 89 be
       0.60699344 -0.17831151 -0.20406121 -0.26928717
000320 3e 84 12 3f de e3 66 be 53 30 8e 3e d4 a4 39 bf
       0.57233036 -0.22547862 0.27771243 -0.7251713
000330 80 59 66 3e d3 37 2f bf 93 cc 2a 3e 01 19 1b bf
       0.22495079 -0.68444556 0.16679601 -0.6058503
000340 1a ef 1d bc 48 73 87 3f b2 b5 30 be b2 20 5c 3f
       -0.009639526 1.0582056 -0.17256811 0.8598739
000350 3b c3 a8 3e 74 93 6d 3f a3 6a 2e bf 5a 63 3d bd
       0.3296145 0.9280312 -0.68131465 -0.046237327
000360 1a 70 de 3d b4 18 95 bf 3b e0 32 3e 85 7b 7e 3f
       0.108612254 -1.1648164 0.1746835 0.99407226
000370 b3 cf 3e be c1 b0 29 be cb 42 ba 3f 31 0a e9 bd
       -0.18633918 -0.16571333 1.4551634 -0.11378897
000380 50 d9 51 bf 57 3b c5 be df c1 f3 3e 66 59 8a bf
       -0.8197222 -0.38521835 0.4760885 -1.0808532
000390 fd 62 fa 3e 36 cc ad 3f fc f3 a8 3f 0c c9 0a bc
       0.48903647 1.3577945 1.3199458 -0.008470785
0003a0 2d fe 69 bf 70 ee 59 3e 0f 4d af be a8 49 81 3e
       -0.91403466 0.21282363 -0.3423848 0.25251508
0003b0 64 31 cf 3e a0 4c 22 bf 8e a5 4f 3f d1 f4 7e be
       0.4046737 -0.6339817 0.8111199 -0.24898078
0003c0 98 70 8a be a5 b5 0e 3d d7 cb 46 bf 60 10 f8 3e
       -0.27039027 0.0348412 -0.77654785 0.48449993
0003d0 fa 4b 84 3e d7 0d 0f 3f 6a a2 1a 3f 2f c1 16 be
       0.25839216 0.5588049 0.60404074 -0.14722131
0003e0 3d f1 1d bf 2f da 09 bf a7 bf aa 3e bf 1d a7 3e
       -0.61696225 -0.53848547 0.33349344 0.32639882
0003f0 11 dd 53 3e c9 37 17 bf e9 b3 96 be 7f 45 cd be
       0.20689799 -0.59069496 -0.29434136 -0.40092084

sequential.0.Lambda.bias f4 [80]
000000 70 a0 e0 be 0e 9a e2 be 8d b7 cf be 26 26 ad 3e
       -0.43872404 -0.4425816 -0.40569726 0.33818167
000010 47 0d fd be 0b 49 27 3e 80 4b 4e bf bc c1 ef bd
       -0.49424192 0.16336457 -0.80583954 -0.11706874
000020 28 17 8a 3e bc 72 aa 3e 34 f2 2a 3e b0 f0 8b 3e
       0.26970792 0.3329066 0.16693956 0.27332067
000030 4e 31 69 be 74 04 57 be 97 bc 60 3d bb 32 2d 3c
       -0.22772714 -0.20997792 0.054867353 0.010571177
000040 ce 78 3c bf 33 e0 ff be e5 dc 89 bd 10 6d 39 3d
       -0.73621833 -0.49975738 -0.067315854 0.045270026
000050 5b 49 20 bf d7 bd 98 3e 88 22 78 3d 3c 57 1a be
       -0.6261193 0.29832336 0.060579807 -0.1507234
000060 cc f9 04 bf 50 bd c5 be 24 cd bb be ac 5a bf 3e
       -0.5194366 -0.38620996 -0.36679947 0.37373865
000070 5a 6a 0b bf 9b fc a2 be 1b 02 25 3d a0 de 23 bf
       -0.54459155 -0.31833348 0.04028521 -0.64011574
000080 7e 31 fe bd 2a 27 d0 be f4 59 3d 3e 43 4b f8 3e
       -0.12411784 -0.4065488 0.18491346 0.4849492
000090 9f ab a0 3d ef cd 81 bd 0e 53 66 3e 3f 0a d1 be
       0.07845234 -0.06338107 0.2249262 -0.4082813
0000a0 3e 39 c5 be 46 19 25 3e 8c af 5a 3d 3a c2 0c bf
       -0.38520235 0.16122922 0.05339007 -0.54983866
0000b0 d2 e5 96 bd 86 16 c7 bd 22 7a 36 bf d5 e1 df 3e
       -0.073680535 -0.09721093 -0.7128011 0.43726984
0000c0 ac 7e 06 bf a3 90 db be b3 a6 05 bf c9 bd 84 be
       -0.52537036 -0.42883787 -0.5220749 -0.25926045
0000d0 38 62 33 3d 71 e1 c1 3e 30 47 d8 3e 35 12 dc be
       0.04379484 0.3786731 0.42241812 -0.4298264
0000e0 a8 95 c2 bd 79 74 56 bf 63 6f 35 be 11 fc 73 bd
       -0.09501201 -0.83771473 -0.17718272 -0.05956656
0000f0 6f 40 16 bf 44 42 27 bf 93 f1 b1 be d1 0e 24 3c
       -0.5869207 -0.6533549 -0.3475462 0.010013298
000100 17 68 31 be 48 db 54 bf d1 6c 75 be 1c 5b a6 3e
       -0.17324863 -0.83147097 -0.23967291 0.32491386
000110 01 a0 6f 3b 9c 69 d7 3d 83 65 05 bf c8 f2 70 be
       0.0036563876 0.1051819 -0.5210802 -0.23530114
000120 d5 1d e5 be 90 f2 c3 be f1 e4 0b bf 6f c5 0f bf
       -0.44749323 -0.38270998 -0.5464621 -0.56160635
000130 91 5a 9c 3d 0e 14 d5 be be 25 19 bf d9 46 8a 3e
       0.07634462 -0.41616863 -0.59823215 0.27007177

sequential.0.bn.running_mean f4 [80]
000000 00 00 00 00 00 00 00 00 00 00 00 00 00 00 00 00
       0.0 0.0 0.0 0.0
000010 00 00 00 00 00 00 00 00 00 00 00 00 00 00 00 00
       0.0 0.0 0.0 0.0
000020 00 00 00 00 00 00 00 00 00 00 00 00 00 00 00 00
       0.0 0.0 0.0 0.0
000030 00 00 00 00 00 00 00 00 00 00 00 00 00 00 00 00
       0.0 0.0 0.0 0.0
000040 00 00 00 00 00 00 00 00 00 00 00 00 00 00 00 00
       0.0 0.0 0.0 0.0
000050 00 00 00 00 00 00 00 00 00 00 00 00 00 00 00 00
       0.0 0.0 0.0 0.0
000060 00 00 00 00 00 00 00 00 00 00 00 00 00 00 00 00
       0.0 0.0 0.0 0.0
000070 00 00 00 00 00 00 00 00 00 00 00 00 00 00 00 00
       0.0 0.0 0.0 0.0
000080 00 00 00 00 00 00 00 00 00 00 00 00 00 00 00 00
       0.0 0.0 0.0 0.0
000090 00 00 00 00 00 00 00 00 00 00 00 00 00 00 00 00
       0.0 0.0 0.0 0.0
0000a0 00 00 00 00 00 00 00 00 00 00 00 00 00 00 00 00
       0.0 0.0 0.0 0.0
0000b0 00 00 00 00 00 00 00 00 00 00 00 00 00 00 00 00
       0.0 0.0 0.0 0.0
0000c0 00 00 00 00 00 00 00 00 00 00 00 00 00 00 00 00
       0.0 0.0 0.0 0.0
0000d0 00 00 00 00 00 00 00 00 00 00 00 00 00 00 00 00
       0.0 0.0 0.0 0.0
0000e0 00 00 00 00 00 00 00 00 00 00 00 00 00 00 00 00
       0.0 0.0 0.0 0.0
0000f0 00 00 00 00 00 00 00 00 00 00 00 00 00 00 00 00
       0.0 0.0 0.0 0.0
000100 00 00 00 00 00 00 00 00 00 00 00 00 00 00 00 00
       0.0 0.0 0.0 0.0
000110 00 00 00 00 00 00 00 00 00 00 00 00 00 00 00 00
       0.0 0.0 0.0 0.0
000120 00 00 00 00 00 00 00 00 00 00 00 00 00 00 00 00
       0.0 0.0 0.0 0.0
000130 00 00 00 00 00 00 00 00 00 00 00 00 00 00 00 00
       0.0 0.0 0.0 0.0

sequential.0.bn.running_var f4 [80]
000000 00 00 80 3f 00 00 80 3f 00 00 80 3f 00 00 80 3f
       1.0 1.0 1.0 1.0
000010 00 00 80 3f 00 00 80 3f 00 00 80 3f 00 00 80 3f
       1.0 1.0 1.0 1.0
000020 00 00 80 3f 00 00 80 3f 00 00 80 3f 00 00 80 3f
       1.0 1.0 1.0 1.0
000030 00 00 80 3f 00 00 80 3f 00 00 80 3f 00 00 80 3f
       1.0 1.0 1.0 1.0
000040 00 00 80 3f 00 00 80 3f 00 00 80 3f 00 00 80 3f
       1.0 1.0 1.0 1.0
000050 00 00 80 3f 00 00 80 3f 00 00 80 3f 00 00 80 3f
       1.0 1.0 1.0 1.0
000060 00 00 80 3f 00 00 80 3f 00 00 80 3f 00 00 80 3f
       1.0 1.0 1.0 1.0
000070 00 00 80 3f 00 00 80 3f 00 00 80 3f 00 00 80 3f
       1.0 1.0 1.0 1.0
000080 00 00 80 3f 00 00 80 3f 00 00 80 3f 00 00 80 3f
       1.0 1.0 1.0 1.0
000090 00 00 80 3f 00 00 80 3f 00 00 80 3f 00 00 80 3f
       1.0 1.0 1.0 1.0
0000a0 00 00 80 3f 00 00 80 3f 00 00 80 3f 00 00 80 3f
       1.0 1.0 1.0 1.0
0000b0 00 00 80 3f 00 00 80 3f 00 00 80 3f 00 00 80 3f
       1.0 1.0 1.0 1.0
0000c0 00 00 80 3f 00 00 80 3f 00 00 80 3f 00 00 80 3f
       1.0 1.0 1.0 1.0
0000d0 00 00 80 3f 00 00 80 3f 00 00 80 3f 00 00 80 3f
       1.0 1.0 1.0 1.0
0000e0 00 00 80 3f 00 00 80 3f 00 00 80 3f 00 00 80 3f
       1.0 1.0 1.0 1.0
0000f0 00 00 80 3f 00 00 80 3f 00 00 80 3f 00 00 80 3f
       1.0 1.0 1.0 1.0
000100 00 00 80 3f 00 00 80 3f 00 00 80 3f 00 00 80 3f
       1.0 1.0 1.0 1.0
000110 00 00 80 3f 00 00 80 3f 00 00 80 3f 00 00 80 3f
       1.0 1.0 1.0 1.0
000120 00 00 80 3f 00 00 80 3f 00 00 80 3f 00 00 80 3f
       1.0 1.0 1.0 1.0
000130 00 00 80 3f 00 00 80 3f 00 00 80 3f 00 00 80 3f
       1.0 1.0 1.0 1.0

sequential.2.Gamma.weight f4 [120, 80]
000000 bd 65 99 bd b1 e2 15 bb b6 ec 4d be a9 72 ab 3d
       -0.07490108 -0.0022870714 -0.2010983 0.08371479
000010 33 ff 06 bf 62 dc 0c 3e 07 20 e1 bd d4 21 e1 3e
       -0.52733153 0.13755944 -0.10992437 0.4397112
000020 7f fa fa 3d 9a f9 55 bf 0b 12 3f be 5f 3d 06 be
       0.122548096 -0.83583987 -0.18659227 -0.13109349
000030 b4 fb 3e be d5 b1 15 3f 0a 44 28 bf bb 39 bc bd
       -0.18650705 0.58474475 -0.6572882 -0.09190699
000040 36 f3 0c be b3 05 9a be ee b4 44 bf 25 6a a5 bd
       -0.13764653 -0.30082473 -0.76838577 -0.08076886
000050 f4 f8 fd 3b 00 d5 87 3e 08 12 85 be 01 dd b0 be
       0.007750625 0.26529694 -0.2599032 -0.34543613
000060 19 5e 52 bf cc 72 fe 3b 90 97 01 bf 35 63 9e be
       -0.8217483 0.0077651497 -0.5062189 -0.30935064
000070 cf f9 de be 49 92 bb 3d d0 3a 56 be a8 b4 68 bc
       -0.43549964 0.09158761 -0.20920873 -0.014203228
000080 d3 f7 45 3d 6a fc 01 3e d3 92 47 be 7a 11 c5 bc
       0.048332047 0.12693945 -0.19489603 -0.024056185
000090 a6 ba 59 be e9 77 ce 3d 2a e1 d7 be 33 5a 16 bf
       -0.21262607 0.10081465 -0.42163974 -0.58731383
0000a0 25 c7 07 bf eb 7e dd be e0 ff 9f be 6f 9a cd be
       -0.53038245 -0.43260893 -0.31249905 -0.40156886
0000b0 3e df 0e 3f c4 a0 9b 3d 83 06 e7 3d 90 c4 59 3d
       0.5580939 0.07599023 0.11280539 0.053165972
0000c0 9d 72 ba be 3a 0b e6 3d 4b 9f 81 3e 0d 10 2e bd
       -0.36415568 0.1123261 0.25316843 -0.042495776
0000d0 97 0d e7 be e4 4b ed be 8e 5b 3e 3e 11 e8 17 bf
       -0.45127556 -0.46346962 0.18589613 -0.5933848
0000e0 da 8d 8b be 40 8d 7a bd 9a 6c 34 bf ac 93 d5 3d
       -0.27256662 -0.061169863 -0.7047821 0.10428557
0000f0 a1 cf 72 be 9e a0 81 be 58 7e e5 bc 2c 9a c2 3c
       -0.23712017 -0.25317854 -0.028014347 0.023755156
000100 6c f3 85 bb 27 ce aa 3e e5 64 de 3e 01 89 ac be
       -0.004087856 0.33360407 0.4343635 -0.33698276
000110 e7 15 ba be 97 5b f1 be 6c f2 70 be 1e fd 17 bd
       -0.36344835 -0.4714019 -0.23529977 -0.037106626
000120 6e 17 5b bc 83 bc 85 be 96 57 98 be ef b3 9d be
       -0.013372285 -0.26120386 -0.29754323 -0.3080134
000130 0e 18 6a 3d f2 5b 12 bf da c3 2f bf 44 bc c0 3e
       0.057151847 -0.5717155 -0.6865822 0.37643635
000140 7d b3 97 3e 04 eb 23 be b8 8f b0 3c 1a 80 69 3e
       0.29629126 -0.1600762 0.021552905 0.22802773
000150 ea 5e 46 3a 78 6f 55 be 95 e8 f3 be 63 87 0e be
       0.0007567244 -0.20843303 -0.47638384 -0.13918833
000160 0f 83 5e bd b3 03 1a bf da 26 55 be 27 f7 dd 3e
       -0.054324206 -0.60161895 -0.20815602 0.43352625
000170 b2 83 d7 be 64 a1 a0 bd 44 72 72 3e 4f aa b2 be
       -0.42092663 -0.07843283 0.23676401 -0.3489556
000180 18 40 b0 be 01 75 d1 bc c4 fc dd 3e 73 37 34 3c
       -0.344239 -0.025568487 0.43356907 0.010999548
000190 a1 6f 45 be ec 2a 1e bd 67 e4 5c 3e ec c8 8e bd
       -0.19280864 -0.038615152 0.21571504 -0.069719166
0001a0 a1 41 1e 3e 22 65 14 bf a3 7a 88 be 5d de 0d 3f
       0.15454723 -0.57966816 -0.26656064 0.55417424
0001b0 81 fb a0 bd 0a 12 29 be 4a 52 37 bb 75 02 1b 3e
       -0.078604706 -0.16510788 -0.0027972632 0.15137656
0001c0 d9 f7 7c bd ac 26 bf be cf 22 6d be f5 e0 f1 3e
       -0.061759803 -0.37334192 -0.2315781 0.4724194
0001d0 a0 af e8 3c 75 6b b2 be f2 ac 06 be 1f cc c7 be
       0.028404057 -0.34847608 -0.13151911 -0.3902292
0001e0 d1 55 12 bf 3e ea 8f bd 42 5d a7 be 15 f6 a9 be
       -0.57162195 -0.070271 -0.32688338 -0.33195558
0001f0 e4 88 ec 3d aa d6 36 be 6a b2 4e bf b4 6b 19 3e
       0.11549547 -0.17855325 -0.8074099 0.14982492
000200 8b 38 3b bf 2e 73 b2 be cb 25 53 be 97 e6 20 be
       -0.7313315 -0.348535 -0.20619886 -0.15712963
000210 33 e8 50 3e 36 e1 31 be ba aa 99 3e 7b 62 21 be
       0.20401077 -0.17371067 0.30013067 -0.15760224
000220 4f 5f 18 3e ec 71 07 be 9b 20 9f bd 68 df 9c 3d
       0.14880107 -0.13227051 -0.07769891 0.07659799
000230 cf 2d de be 07 c1 11 3e 57 aa 32 bd 49 fe f8 3d
       -0.43394324 0.1423379 -0.04361948 0.12157876
000240 d4 a0 56 be 12 d0 74 bf f7 23 81 be cd 6a 24 be
       -0.20959789 -0.9562999 -0.25222751 -0.16056366
000250 bd 30 9f 3d 3f 92 3d 3d c8 dd f5 bd 88 b9 98 bd
       0.07772968 0.04628205 -0.12005192 -0.07457262
000260 56 76 b6 be ca 01 f6 3e 0c af 22 bf 5c e7 b4 3d
       -0.35637158 0.4804824 -0.6354835 0.08833191
000270 d6 5c c2 be 34 81 ab be 29 06 17 bf c7 77 3c 3e
       -0.37961453 -0.33497012 -0.58993775 0.18405066
000280 5f 0f 98 be 65 e7 cf 3d 85 dc 93 be ca e8 21 bf
       -0.29699227 0.10151557 -0.2887918 -0.6324583
000290 3a d1 55 3e c4 b5 e0 3e f7 b0 c7 3d a0 58 51 3e
       0.20880595 0.43888676 0.0975055 0.20443964
0002a0 e0 01 6b bf ec 36 88 bf c4 0b c4 be 5e e1 88 3e
       -0.91799736 -1.0641761 -0.38290226 0.26734442
0002b0 af 33 9e be c5 22 1f be 83 29 cf be 90 6f 65 bd
       -0.30898806 -0.15540607 -0.40461358 -0.056014597
0002c0 80 e6 2a 3d af c4 30 bf 1e 21 d2 be ee e6 90 3d
       0.04172373 -0.69050115 -0.4104089 0.07075296
0002d0 2b 52 90 3e b8 63 54 be 5e bc 08 be ae d9 82 be
       0.2818769 -0.20741165 -0.13353106 -0.255567
0002e0 fc 13 e6 3e c4 e3 9f be 00 44 98 be 70 e4 88 3e
       0.44937122 -0.3122846 -0.2973938 0.26736784
0002f0 5e ba a4 be b0 0d 64 be 26 28 ef 3e 5e f4 82 bc
       -0.32173437 -0.22270846 0.46710318 -0.015985664
000300 61 95 da 3e b6 47 47 bf 37 c0 f6 bd 1e b5 21 be
       0.42692092 -0.778438 -0.12048381 -0.15791747
000310 b6 a5 26 bf 9b 7b 25 3e a2 a0 c4 be 8e 47 10 be
       -0.65096605 0.16160433 -0.38403803 -0.14089796
000320 50 b5 00 be af 86 97 3e 6c 01 42 3e 28 b3 0a bf
       -0.12569165 0.29594943 0.18945855 -0.5417962
000330 58 07 30 be 1e 0a 5a bc a6 ae 44 be a8 f2 1c 3e
       -0.17190301 -0.013308076 -0.19207248 0.15326941
000340 4a 36 54 bd ad b2 5c be 04 52 27 be d0 b3 18 3f
       -0.051809587 -0.21552534 -0.1633988 0.5964937
000350 9b e6 c8 3c 7d 17 0f be 75 39 8e 3c 2b 55 14 3e
       0.024524024 -0.13973804 0.017361382 0.14485614
000360 9d 9e be be 4c 24 ae bd e8 d2 68 be d6 64 7e 3e
       -0.37230387 -0.08503017 -0.22736704 0.24843153
000370 2c 43 2d 3e 1e 85 ae 3d c1 bc f5 bd 11 25 f9 be
       0.16920155 0.08521484 -0.119988926 -0.48661092
000380 eb f5 ce 3d 87 96 d1 be 03 ab d7 be 05 f2 2d 3e
       0.10105499 -0.40935156 -0.4212266 0.16986854
000390 b0 60 d3 be 38 00 4e be c2 f0 2f be dd b1 dc 3d
       -0.41284704 -0.20117271 -0.17181686 0.10776112
0003a0 aa 2d 96 bd ba 81 c5 be 44 64 76 be b4 93 60 3c
       -0.073329285 -0.38575536 -0.24061686 0.01370709
0003b0 57 a1 71 be f4 22 5c be f6 6f a2 bd cb 05 2a bf
       -0.23596703 -0.21497709 -0.07931511 -0.6641509
0003c0 d2 b9 e5 be e5 d7 8f 3e 36 7a f0 be 4e 56 84 3e
       -0.44868332 0.28094402 -0.4696824 0.25847095
0003d0 59 c3 9d bf 3f 8e 26 bf ca 96 df be fa c3 dc bd
       -1.232524 -0.650608 -0.4366973 -0.10779567
0003e0 49 6c 41 be af 7f fd be 8a 1f c6 3e b3 85 32 be
       -0.18888964 -0.49511477 0.38695937 -0.17433815
0003f0 d5 af 2b bf f2 f4 eb 3c f5 53 a6 3c f7 bd 0b bf
       -0.67065173 0.028803322 0.020303706 -0.5458674

sequential.2.Gamma.bias f4 [120]
000000 c0 fd 1d 3c 4a 0c e7 3e 67 82 d9 3d e2 b7 12 be
       0.009643018 0.45126563 0.106205754 -0.14327958
000010 72 37 37 3e ab b0 04 bf db 17 12 3e 05 7a cf 3e
       0.17892244 -0.51832074 0.14266913 0.4052278
000020 a9 9e 3f 3e 03 f7 18 bf da 0b cc 3d 0f 34 7e be
       0.18712868 -0.5975191 0.09963198 -0.24824546
000030 f3 e0 e9 be 80 36 43 be b4 4d b2 3e 25 b2 85 be
       -0.45679435 -0.19063759 0.34824908 -0.26112476
000040 46 03 56 be 86 c4 82 3e 6f 3f 6c bf d8 b0 b6 be
       -0.20899686 0.2554056 -0.9228429 -0.35681796
000050 78 a6 4f 3e a9 46 9a 3e b0 c1 65 be c9 0d 3c 3e
       0.20278347 0.30132034 -0.22437167 0.18364634
000060 2c 3e b5 bc 97 75 6a 3e a8 4f 0b bf 45 ba 97 3e
       -0.022124372 0.2289642 -0.5441842 0.296343
000070 77 c9 b1 be 83 c2 88 be a0 56 ad 3e 35 51 9e 3e
       -0.34724018 -0.267109 0.33855152 0.3092133
000080 12 18 da be 03 f5 8d be 59 e5 9d 3e 15 dc ba bd
       -0.4259649 -0.27725992 0.3083904 -0.091240086
000090 6a 34 e5 3d 29 84 c5 be 65 f1 da be f5 2c cc bc
       0.11191638 -0.38577393 -0.42762294 -0.024923781
0000a0 93 91 32 bf 05 a5 0c bd ba 44 9b be d8 31 ad 3d
       -0.6975338 -0.034337062 -0.30325872 0.084567726
0000b0 dc 7f b1 be 9b e0 b1 bc ef 99 3c bf 88 d0 08 bf
       -0.3466786 -0.021713546 -0.73672384 -0.53443193
0000c0 70 6e f0 3e 68 af c5 be 07 63 34 be fa 00 9f bd
       0.46959257 -0.38610387 -0.17615901 -0.07763858
0000d0 c7 33 a1 3e a4 ee 1a be 71 58 c0 be 3b ee 59 bf
       0.31484815 -0.15130097 -0.37567475 -0.85129136
0000e0 55 dc c9 3c 73 27 b8 3e 32 c5 cb 3e 3e 2b 02 bf
       0.024641195 0.35967597 0.39798886 -0.5084723
0000f0 dc 6b 74 be d7 5c 04 be cb 2e 6e 3e e7 26 02 3e
       -0.2386927 -0.1292604 0.23260038 0.12710153
000100 19 b8 93 be 73 70 be be f9 40 ac 3d 76 27 74 3d
       -0.28851393 -0.37195167 0.0841083 0.059607945
000110 20 33 3f bd f0 7c d0 be 4b a0 8c be 2c ac 55 be
       -0.046679616 -0.4072032 -0.27466044 -0.2086646
000120 a1 e8 a4 3e 0f 8b 28 be 12 5f 4a be 86 ee 6e be
       0.32208732 -0.16459297 -0.19762829 -0.23333177
000130 5b 63 a3 3d 22 31 b6 bd ba 91 1d bf ec 9b 95 be
       0.07977935 -0.0889609 -0.61550486 -0.2922052
000140 88 e7 60 bc db b2 c7 3d 31 fb 8f be e7 22 56 bf
       -0.013727076 0.09750911 -0.2812133 -0.83647007
000150 2d a0 dc 3d d1 7c d6 bd f6 75 09 bf 59 79 e4 3b
       0.107727386 -0.104730256 -0.5369562 0.0069724736
000160 16 03 02 3e 09 1c 1d bf f0 98 a8 be 3a a6 aa 3d
       0.1269649 -0.61370903 -0.32929182 0.083324865
000170 34 bb 69 be 24 bc f3 bd b2 ab a5 be 25 8b b5 be
       -0.22825319 -0.11901119 -0.32357556 -0.3545772
000180 b1 bc d0 be 42 b8 d8 3d 12 a2 1f bd 41 f1 a1 be
       -0.4076896 0.105820194 -0.03897292 -0.31629375
000190 31 bf fe be 3a d6 28 bf d6 61 23 3e 0f 43 78 3c
       -0.49755242 -0.65951884 0.1595529 0.015152707
0001a0 86 e8 8d be 75 aa 56 3e 4d a2 6b be 86 5e 33 be
       -0.27716464 0.20963462 -0.23011132 -0.17516527
0001b0 b0 81 08 bf 84 98 4b 3e 12 0a 66 be 0d ef 94 bd
       -0.5332289 0.19882399 -0.22464779 -0.07272158
0001c0 70 5a cb be f2 fb ce 3e fd d7 cb be 5d c8 ef bc
       -0.39717436 0.40426594 -0.39813223 -0.029270345
0001d0 5c 48 ad be 2a fa bf be 0a 6f 5f bd b0 59 05 bf
       -0.33844268 -0.37495548 -0.054549254 -0.5208998

sequential.2.Lambda.weight f4 [120, 80]
000000 47 d9 1c be 35 a9 63 be 16 16 cf bc f2 9c e4 3e
       -0.1531726 -0.22232516 -0.025279086 0.4465099
000010 bd 5d e1 be e1 41 f6 bd 29 bc 30 3c 2a 28 dc 3d
       -0.4401683 -0.12024284 0.010787048 0.10749848
000020 c7 28 aa 3d d7 88 29 bf 12 9b 84 bd 3c 6a 2e 3d
       0.08308559 -0.66224426 -0.0647489 0.04258178
000030 a7 2a 3e be 85 95 e8 bc 1a b9 42 3d 4d a9 a5 be
       -0.18570958 -0.028391609 0.047539808 -0.3235573
000040 aa d9 d3 be ce 0c e1 3c 9d a6 d7 be c8 85 bf 3e
       -0.41377002 0.027471926 -0.42119303 0.37406754
000050 9e 88 18 be 18 f5 29 be 90 cb 4a 3d ba 42 2b be
       -0.14895865 -0.16597402 0.04951054 -0.16724673
000060 5f ca 8d bf de 58 8a 3d 5e 23 9f 3d 17 ed 33 bd
       -1.1077384 0.06755231 0.07770418 -0.04392728
000070 bc b1 9c be dc ab 55 3d ad 3d bc bb af 38 d6 be
       -0.3060435 0.05216585 -0.005744657 -0.4184012
000080 f3 59 23 3e e0 3b d7 be 9e b9 70 be 14 b9 2c be
       0.15952282 -0.42037868 -0.23508307 -0.16867477
000090 da b7 1a be 9f 67 51 be 63 9d 48 be d6 96 83 be
       -0.15109196 -0.20449685 -0.19591288 -0.25701016
0000a0 cd e2 8f be 5e 21 b9 be 6c 9c 9a be f2 db ba be
       -0.28102723 -0.3615827 -0.30197465 -0.3649593
0000b0 c3 2e 95 3e 7a 76 8f 3d d3 fd 5e 3d d0 4e 83 be
       0.2913724 0.070050195 0.054441284 -0.25646067
0000c0 20 26 b9 be a8 5d 97 be d0 9e b3 3e 2d f7 b3 3d
       -0.361619 -0.29563642 0.35082102 0.087873794
0000d0 f8 e3 22 3d 27 c4 02 bf b3 08 5c be be 2b 46 3d
       0.03976819 -0.51080555 -0.21487693 0.04838156
0000e0 c9 a1 c9 be 91 65 af bd 5c a3 0c be 51 a3 7b 3e
       -0.39381245 -0.08564294 -0.13734192 0.24574019
0000f0 79 57 a0 3d a5 39 9b bd ff 0b e7 bc b1 7c 5f 3e
       0.07829184 -0.07579354 -0.028203962 0.2182491
000100 b7 35 6a bd 55 1e 21 3f 14 c3 1c 3f da fa c4 3d
       -0.057180133 0.6293691 0.61235166 0.09618159
000110 cc 2e a1 be 08 da ad bd fc fe f8 bd 7a b9 6e 3e
       -0.31481016 -0.08488852 -0.121580094 0.23312941
000120 7a 3d d6 3d b1 fb 8d 3e 1b ff 91 be f7 51 c8 bd
       0.104609445 0.27731088 -0.28514943 -0.097812586
000130 96 17 da bd a9 8f 45 bf 42 30 42 bf 14 65 d3 be
       -0.1064903 -0.77172333 -0.75854886 -0.41288054
000140 25 a5 8e 3e 8c 50 46 3c 26 71 3a 3d 24 d9 9a bd
       0.2786037 0.012104165 0.045518063 -0.075609475
000150 c3 4a a9 3e aa e7 f9 3d 44 b9 32 be c5 25 df be
       0.3306485 0.122023895 -0.17453486 -0.43583503
000160 22 86 e4 be a3 2d 08 bf ec dc a3 be 33 70 36 3f
       -0.44633585 -0.53194636 -0.32004488 0.7126495
000170 62 93 5b be 79 64 08 3d f3 19 fa 3d 65 c1 36 be
       -0.21442941 0.033298943 0.12211981 -0.17847212
000180 7e 4e de be 87 b7 8b be 4e 67 4d 3e f7 b9 a9 3e
       -0.4341926 -0.27288458 0.20058939 0.33149692
000190 e5 ac 02 bf 2b f9 b3 be d3 79 88 be 33 06 34 be
       -0.51045066 -0.35151038 -0.26655445 -0.1758049
0001a0 af 54 66 3e 51 17 32 bf 47 58 de 3e 2a 1a 70 3e
       0.22493242 -0.6956683 0.43426725 0.23447481
0001b0 20 58 63 be 50 67 bc be a6 34 bd be e9 de ac 3e
       -0.22201586 -0.3679757 -0.3695423 0.33763817
0001c0 4c f6 cc bd fa 0a 68 bc f0 05 bb 3e 4c bf 8f 3e
       -0.10007915 -0.014162773 0.36527967 0.28075635
0001d0 aa c0 cc 3d 1b c8 a9 bd 67 ec ce 3e 3b e5 3f 3e
       0.09997685 -0.0829012 0.40414736 0.18739788
0001e0 d9 0d 82 bf 41 5f db 3c 7f 93 1c 3e c4 85 22 be
       -1.0160476 0.026778819 0.1529064 -0.1587134
0001f0 2c 98 9c 3e 25 af a0 be 23 89 8e be 73 28 0c bd
       0.30584848 -0.31383625 -0.27839002 -0.034218263
000200 77 50 90 bc 51 e3 50 be 8b 20 f0 be d1 14 22 bf
       -0.017616494 -0.20399214 -0.46899828 -0.63313013
000210 f9 d5 89 be 7f a8 d7 be ca 1b 6a be 88 89 09 bd
       -0.2692106 -0.4212074 -0.22862163 -0.033578426
000220 a0 58 d8 bb 26 0c 02 3c 67 8d 08 bd a1 e3 2f 3e
       -0.006602362 0.007937467 -0.033337977 0.17176677
000230 eb ed 8c 3d 50 62 ca 3e 6b 2c 4a 3e 73 d4 39 3d
       0.06881317 0.3952813 0.19743507 0.045368623
000240 11 9b 3b be 03 95 a5 bd 2d fa 10 3d 6e 77 af be
       -0.18320872 -0.08085062 0.035394836 -0.34270805
000250 b8 04 e9 3e b6 e9 48 3e d1 9f 23 be 61 b8 c0 3d
       0.45511413 0.19620404 -0.15978934 0.094101675
000260 04 7f 89 3e 3b 9f be 3d c2 40 37 bf 54 aa 25 3e
       0.26854718 0.093077146 -0.7158319 0.16178256
000270 da e2 97 be 73 ab 9f 3e 9d eb c3 3d 76 1d f2 be
       -0.29665262 0.31185493 0.09566424 -0.47288102
000280 b1 4d b0 be 1f 15 04 bf c1 37 dc 3d 3c 88 4f be
       -0.34434274 -0.5159473 0.10752822 -0.20266813
000290 15 51 79 3e b3 e8 0a 3e bd 4f d3 3d 1f 51 bf 3e
       0.24347337 0.1356533 0.10317943 0.37366578
0002a0 39 e3 0f bc a6 ae 10 be 30 ee 14 bf b6 cc 5b 3e
       -0.008782201 -0.14129123 -0.58175945 0.2146481
0002b0 5e e3 02 3f 40 0a f3 bd 71 45 a7 3c 73 27 06 bf
       0.51128185 -0.118671894 0.020418854 -0.52403945
0002c0 87 d3 08 3f e8 59 5f 3e 4a 15 5b bf 2f 33 ef be
       0.53447765 0.2181164 -0.8557936 -0.46718737
0002d0 63 a7 70 3e fa 13 ad be d3 0d 1e be f1 1e de bc
       0.23501353 -0.33804303 -0.15434961 -0.027114363
0002e0 31 31 66 3e 75 88 33 bd 5f 0d b5 3e 2c da 4f 3e
       0.22479703 -0.043831307 0.35361764 0.2029807
0002f0 6b 2e 76 be 2f bd 3e 3d d4 2c ba 3e 5f d0 84 3d
       -0.24041145 0.04656714 0.36362326 0.06485056
000300 a1 10 2e be 60 15 dd be 78 ca 02 bd 76 b9 01 3e
       -0.16998531 -0.4318037 -0.03193137 0.12668404
000310 b2 f7 c5 3d 10 cf 66 3e 70 aa 07 3c 6b 41 b9 be
       0.09666385 0.22539926 0.008280382 -0.36182722
000320 ec d1 e9 3d 49 fe 71 be ca e9 63 be cc 4f 7f be
       0.114169925 -0.23632158 -0.22257152 -0.24932784
000330 a5 f3 8a 3b f0 9b 11 3e 17 af eb bd d5 12 00 3e
       0.0042404705 0.14219642 -0.11508005 0.12507184
000340 94 61 bf 3e 42 8a c1 bc 01 93 d2 be 55 63 2f 3f
       0.37379134 -0.023625497 -0.4112778 0.68510944
000350 43 e4 51 3e bf 6a 26 bf b8 36 9f be a3 6c 52 3f
       0.20497231 -0.6500663 -0.31096435 0.82197016
000360 20 a3 9f be 29 13 45 3e c5 21 a0 bc d1 7d 9b 3e
       -0.31179142 0.1924559 -0.019547353 0.30369428
000370 bb 2c c5 3d 7d 33 9c 3e 70 e8 fc be 6a 32 97 be
       0.09627672 0.30508032 -0.49396086 -0.2953065
000380 93 0a a5 3d c0 0b 9e bd 89 b1 15 3e a0 2b 1b 3c
       0.080586575 -0.07717085 0.14618506 0.00947085
000390 05 58 88 3f b9 84 7d be 9d 1a 82 3e 8d b4 cf 3e
       1.0651861 -0.24757661 0.2541093 0.40567437
0003a0 79 23 bc 3e bb 8a 12 3d 3a e9 e8 3d e6 31 b5 bd
       0.36745813 0.035776835 0.113726094 -0.08847408
0003b0 07 a4 1e 3e 7f e6 a6 3e 42 b5 2d 3e a5 c1 3b be
       0.15492259 0.3259773 0.16963676 -0.18335588
0003c0 ab a7 01 bf ab 38 8f 3e df 34 93 be 16 19 0e 3f
       -0.50646466 0.27972922 -0.28751275 0.5550703
0003d0 c7 e4 10 bf 72 bf 5c be 05 42 0f bf c8 11 85 3e
       -0.56599087 -0.21557406 -0.5596011 0.2599013
0003e0 6e 5b f8 bd b6 1d 75 be c3 cb 4c 3e 91 17 e3 3d
       -0.12126814 -0.23937115 0.19999604 0.11088479
0003f0 27 c3 0d bf 3f b8 41 3d 9f 2b 40 be 90 91 d3 be
       -0.55375904 0.04729485 -0.1876664 -0.41321993

sequential.2.Lambda.bias f4 [120]
000000 c0 fd 1d 3c 4a 0c e7 3e 67 82 d9 3d e2 b7 12 be
       0.009643018 0.45126563 0.106205754 -0.14327958
000010 72 37 37 3e ab b0 04 bf db 17 12 3e 05 7a cf 3e
       0.17892244 -0.51832074 0.14266913 0.4052278
000020 a9 9e 3f 3e 03 f7 18 bf da 0b cc 3d 0f 34 7e be
       0.18712868 -0.5975191 0.09963198 -0.24824546
000030 f3 e0 e9 be 80 36 43 be b4 4d b2 3e 25 b2 85 be
       -0.45679435 -0.19063759 0.34824908 -0.26112476
000040 46 03 56 be 86 c4 82 3e 6f 3f 6c bf d8 b0 b6 be
       -0.20899686 0.2554056 -0.9228429 -0.35681796
000050 78 a6 4f 3e a9 46 9a 3e b0 c1 65 be c9 0d 3c 3e
       0.20278347 0.30132034 -0.22437167 0.18364634
000060 2c 3e b5 bc 97 75 6a 3e a8 4f 0b bf 45 ba 97 3e
       -0.022124372 0.2289642 -0.5441842 0.296343
000070 77 c9 b1 be 83 c2 88 be a0 56 ad 3e 35 51 9e 3e
       -0.34724018 -0.267109 0.33855152 0.3092133
000080 12 18 da be 03 f5 8d be 59 e5 9d 3e 15 dc ba bd
       -0.4259649 -0.27725992 0.3083904 -0.091240086
000090 6a 34 e5 3d 29 84 c5 be 65 f1 da be f5 2c cc bc
       0.11191638 -0.38577393 -0.42762294 -0.024923781
0000a0 93 91 32 bf 05 a5 0c bd ba 44 9b be d8 31 ad 3d
       -0.6975338 -0.034337062 -0.30325872 0.084567726
0000b0 dc 7f b1 be 9b e0 b1 bc ef 99 3c bf 88 d0 08 bf
       -0.3466786 -0.021713546 -0.73672384 -0.53443193
0000c0 70 6e f0 3e 68 af c5 be 07 63 34 be fa 00 9f bd
       0.46959257 -0.38610387 -0.17615901 -0.07763858
0000d0 c7 33 a1 3e a4 ee 1a be 71 58 c0 be 3b ee 59 bf
       0.31484815 -0.15130097 -0.37567475 -0.85129136
0000e0 55 dc c9 3c 73 27 b8 3e 32 c5 cb 3e 3e 2b 02 bf
       0.024641195 0.35967597 0.39798886 -0.5084723
0000f0 dc 6b 74 be d7 5c 04 be cb 2e 6e 3e e7 26 02 3e
       -0.2386927 -0.1292604 0.23260038 0.12710153
000100 19 b8 93 be 73 70 be be f9 40 ac 3d 76 27 74 3d
       -0.28851393 -0.37195167 0.0841083 0.059607945
000110 20 33 3f bd f0 7c d0 be 4b a0 8c be 2c ac 55 be
       -0.046679616 -0.4072032 -0.27466044 -0.2086646
000120 a1 e8 a4 3e 0f 8b 28 be 12 5f 4a be 86 ee 6e be
       0.32208732 -0.16459297 -0.19762829 -0.23333177
000130 5b 63 a3 3d 22 31 b6 bd ba 91 1d bf ec 9b 95 be
       0.07977935 -0.0889609 -0.61550486 -0.2922052
000140 88 e7 60 bc db b2 c7 3d 31 fb 8f be e7 22 56 bf
       -0.013727076 0.09750911 -0.2812133 -0.83647007
000150 2d a0 dc 3d d1 7c d6 bd f6 75 09 bf 59 79 e4 3b
       0.107727386 -0.104730256 -0.5369562 0.0069724736
000160 16 03 02 3e 09 1c 1d bf f0 98 a8 be 3a a6 aa 3d
       0.1269649 -0.61370903 -0.32929182 0.083324865
000170 34 bb 69 be 24 bc f3 bd b2 ab a5 be 25 8b b5 be
       -0.22825319 -0.11901119 -0.32357556 -0.3545772
000180 b1 bc d0 be 42 b8 d8 3d 12 a2 1f bd 41 f1 a1 be
       -0.4076896 0.105820194 -0.03897292 -0.31629375
000190 31 bf fe be 3a d6 28 bf d6 61 23 3e 0f 43 78 3c
       -0.49755242 -0.65951884 0.1595529 0.015152707
0001a0 86 e8 8d be 75 aa 56 3e 4d a2 6b be 86 5e 33 be
       -0.27716464 0.20963462 -0.23011132 -0.17516527
0001b0 b0 81 08 bf 84 98 4b 3e 12 0a 66 be 0d ef 94 bd
       -0.5332289 0.19882399 -0.22464779 -0.07272158
0001c0 70 5a cb be f2 fb ce 3e fd d7 cb be 5d c8 ef bc
       -0.39717436 0.40426594 -0.39813223 -0.029270345
0001d0 5c 48 ad be 2a fa bf be 0a 6f 5f bd b0 59 05 bf
       -0.33844268 -0.37495548 -0.054549254 -0.5208998

sequential.2.bn.running_mean f4 [120]
000000 00 00 00 00 00 00 00 00 00 00 00 00 00 00 00 00
       0.0 0.0 0.0 0.0
000010 00 00 00 00 00 00 00 00 00 00 00 00 00 00 00 00
       0.0 0.0 0.0 0.0
000020 00 00 00 00 00 00 00 00 00 00 00 00 00 00 00 00
       0.0 0.0 0.0 0.0
000030 00 00 00 00 00 00 00 00 00 00 00 00 00 00 00 00
       0.0 0.0 0.0 0.0
000040 00 00 00 00 00 00 00 00 00 00 00 00 00 00 00 00
       0.0 0.0 0.0 0.0
000050 00 00 00 00 00 00 00 00 00 00 00 00 00 00 00 00
       0.0 0.0 0.0 0.0
000060 00 00 00 00 00 00 00 00 00 00 00 00 00 00 00 00
       0.0 0.0 0.0 0.0
000070 00 00 00 00 00 00 00 00 00 00 00 00 00 00 00 00
       0.0 0.0 0.0 0.0
000080 00 00 00 00 00 00 00 00 00 00 00 00 00 00 00 00
       0.0 0.0 0.0 0.0
000090 00 00 00 00 00 00 00 00 00 00 00 00 00 00 00 00
       0.0 0.0 0.0 0.0
0000a0 00 00 00 00 00 00 00 00 00 00 00 00 00 00 00 00
       0.0 0.0 0.0 0.0
0000b0 00 00 00 00 00 00 00 00 00 00 00 00 00 00 00 00
       0.0 0.0 0.0 0.0
0000c0 00 00 00 00 00 00 00 00 00 00 00 00 00 00 00 00
       0.0 0.0 0.0 0.0
0000d0 00 00 00 00 00 00 00 00 00 00 00 00 00 00 00 00
       0.0 0.0 0.0 0.0
0000e0 00 00 00 00 00 00 00 00 00 00 00 00 00 00 00 00
       0.0 0.0 0.0 0.0
0000f0 00 00 00 00 00 00 00 00 00 00 00 00 00 00 00 00
       0.0 0.0 0.0 0.0
000100 00 00 00 00 00 00 00 00 00 00 00 00 00 00 00 00
       0.0 0.0 0.0 0.0
000110 00 00 00 00 00 00 00 00 00 00 00 00 00 00 00 00
       0.0 0.0 0.0 0.0
000120 00 00 00 00 00 00 00 00 00 00 00 00 00 00 00 00
       0.0 0.0 0.0 0.0
000130 00 00 00 00 00 00 00 00 00 00 00 00 00 00 00 00
       0.0 0.0 0.0 0.0
000140 00 00 00 00 00 00 00 00 00 00 00 00 00 00 00 00
       0.0 0.0 0.0 0.0
000150 00 00 00 00 00 00 00 00 00 00 00 00 00 00 00 00
       0.0 0.0 0.0 0.0
000160 00 00 00 00 00 00 00 00 00 00 00 00 00 00 00 00
       0.0 0.0 0.0 0.0
000170 00 00 00 00 00 00 00 00 00 00 00 00 00 00 00 00
       0.0 0.0 0.0 0.0
000180 00 00 00 00 00 00 00 00 00 00 00 00 00 00 00 00
       0.0 0.0 0.0 0.0
000190 00 00 00 00 00 00 00 00 00 00 00 00 00 00 00 00
       0.0 0.0 0.0 0.0
0001a0 00 00 00 00 00 00 00 00 00 00 00 00 00 00 00 00
       0.0 0.0 0.0 0.0
0001b0 00 00 00 00 00 00 00 00 00 00 00 00 00 00 00 00
       0.0 0.0 0.0 0.0
0001c0 00 00 00 00 00 00 00 00 00 00 00 00 00 00 00 00
       0.0 0.0 0.0 0.0
0001d0 00 00 00 00 00 00 00 00 00 00 00 00 00 00 00 00
       0.0 0.0 0.0 0.0

sequential.2.bn.running_var f4 [120]
000000 00 00 80 3f 00 00 80 3f 00 00 80 3f 00 00 80 3f
       1.0 1.0 1.0 1.0
000010 00 00 80 3f 00 00 80 3f 00 00 80 3f 00 00 80 3f
       1.0 1.0 1.0 1.0
000020 00 00 80 3f 00 00 80 3f 00 00 80 3f 00 00 80 3f
       1.0 1.0 1.0 1.0
000030 00 00 80 3f 00 00 80 3f 00 00 80 3f 00 00 80 3f
       1.0 1.0 1.0 1.0
000040 00 00 80 3f 00 00 80 3f 00 00 80 3f 00 00 80 3f
       1.0 1.0 1.0 1.0
000050 00 00 80 3f 00 00 80 3f 00 00 80 3f 00 00 80 3f
       1.0 1.0 1.0 1.0
000060 00 00 80 3f 00 00 80 3f 00 00 80 3f 00 00 80 3f
       1.0 1.0 1.0 1.0
000070 00 00 80 3f 00 00 80 3f 00 00 80 3f 00 00 80 3f
       1.0 1.0 1.0 1.0
000080 00 00 80 3f 00 00 80 3f 00 00 80 3f 00 00 80 3f
       1.0 1.0 1.0 1.0
000090 00 00 80 3f 00 00 80 3f 00 00 80 3f 00 00 80 3f
       1.0 1.0 1.0 1.0
0000a0 00 00 80 3f 00 00 80 3f 00 00 80 3f 00 00 80 3f
       1.0 1.0 1.0 1.0
0000b0 00 00 80 3f 00 00 80 3f 00 00 80 3f 00 00 80 3f
       1.0 1.0 1.0 1.0
0000c0 00 00 80 3f 00 00 80 3f 00 00 80 3f 00 00 80 3f
       1.0 1.0 1.0 1.0
0000d0 00 00 80 3f 00 00 80 3f 00 00 80 3f 00 00 80 3f
       1.0 1.0 1.0 1.0
0000e0 00 00 80 3f 00 00 80 3f 00 00 80 3f 00 00 80 3f
       1.0 1.0 1.0 1.0
0000f0 00 00 80 3f 00 00 80 3f 00 00 80 3f 00 00 80 3f
       1.0 1.0 1.0 1.0
000100 00 00 80 3f 00 00 80 3f 00 00 80 3f 00 00 80 3f
       1.0 1.0 1.0 1.0
000110 00 00 80 3f 00 00 80 3f 00 00 80 3f 00 00 80 3f
       1.0 1.0 1.0 1.0
000120 00 00 80 3f 00 00 80 3f 00 00 80 3f 00 00 80 3f
       1.0 1.0 1.0 1.0
000130 00 00 80 3f 00 00 80 3f 00 00 80 3f 00 00 80 3f
       1.0 1.0 1.0 1.0
000140 00 00 80 3f 00 00 80 3f 00 00 80 3f 00 00 80 3f
       1.0 1.0 1.0 1.0
000150 00 00 80 3f 00 00 80 3f 00 00 80 3f 00 00 80 3f
       1.0 1.0 1.0 1.0
000160 00 00 80 3f 00 00 80 3f 00 00 80 3f 00 00 80 3f
       1.0 1.0 1.0 1.0
000170 00 00 80 3f 00 00 80 3f 00 00 80 3f 00 00 80 3f
       1.0 1.0 1.0 1.0
000180 00 00 80 3f 00 00 80 3f 00 00 80 3f 00 00 80 3f
       1.0 1.0 1.0 1.0
000190 00 00 80 3f 00 00 80 3f 00 00 80 3f 00 00 80 3f
       1.0 1.0 1.0 1.0
0001a0 00 00 80 3f 00 00 80 3f 00 00 80 3f 00 00 80 3f
       1.0 1.0 1.0 1.0
0001b0 00 00 80 3f 00 00 80 3f 00 00 80 3f 00 00 80 3f
       1.0 1.0 1.0 1.0
0001c0 00 00 80 3f 00 00 80 3f 00 00 80 3f 00 00 80 3f
       1.0 1.0 1.0 1.0
0001d0 00 00 80 3f 00 00 80 3f 00 00 80 3f 00 00 80 3f
       1.0 1.0 1.0 1.0
