Models/Z_25GeV_1.pth (torch, 197812 bytes, 36 tensors)

sequential.0.Gamma.weight f4 [80, 5]
000000 18 30 30 3f 21 ca 4f 3f 51 e9 ea 3e bd 85 9f bc
       0.68823385 0.811678 0.4588113 -0.019472951
000010 c7 53 88 be ec b5 05 3e 43 7e aa be 11 31 08 3f
       -0.26626417 0.13057679 -0.33299455 0.5319987
000020 20 df 9c bb b5 b5 f6 bd 26 fe 41 3e 58 85 1d 3f
       -0.0047873408 -0.120463766 0.18944606 0.6153159
000030 ef be 9c be e0 63 37 bd 40 d3 db be 96 45 5e 3f
       -0.3061442 -0.044772983 -0.42934608 0.8682493
000040 1c 5b 47 3f 6b 4a 1d 3e 3f 47 1c 3f 83 1c 24 3e
       0.77873397 0.1536042 0.6104621 0.16026501
000050 38 51 d6 be 73 9d 08 bf c4 27 11 be b0 f3 9f 3e
       -0.4185884 -0.5336525 -0.14175326 0.31240606
000060 e2 38 a1 bf 88 fb 6a 3f 55 19 e9 3e 81 be 64 bf
       -1.2595484 0.91790056 0.4552714 -0.89353186
000070 e7 d3 8e 3e 2a 89 22 3f a9 44 c2 3e 7b 55 0c 3f
       0.27896044 0.63490546 0.3794301 0.5481793
000080 e8 41 5e bf 9d 82 30 bf 10 1f ae 3f 94 75 25 be
       -0.86819315 -0.689493 1.360323 -0.16158134
000090 8b d4 21 3f 69 7e 02 3f a8 9c 8a bf 11 5c 8e bd
       0.6321494 0.50974137 -1.0829058 -0.06951154
0000a0 9f c2 a6 3e d2 77 00 3f b2 8e 9c bf cb 7d bd bd
       0.3257036 0.5018283 -1.2231047 -0.09252509
0000b0 c1 c6 36 3f 2f c5 d6 3e fa 74 46 3f 95 a6 5f bf
       0.71397024 0.41947314 0.7752224 -0.8736356
0000c0 d6 5f 03 3f 73 d0 88 bf eb 70 c5 be aa 02 ff 3e
       0.5131811 -1.0688614 -0.38562712 0.4980672
0000d0 58 53 5a 3f 61 9f 32 3e b0 4d fc be bf 4d 9f be
       0.8528342 0.1744361 -0.4927802 -0.31114003
0000e0 1e 77 18 be 2a 07 04 3f d2 95 3f 3f 57 54 a9 be
       -0.1488919 0.5157343 0.7483798 -0.3307216
0000f0 47 3f 15 3f df a7 58 3c ba 3c 54 3f 9b 70 c8 bd
       0.5829968 0.013223617 0.8290516 -0.09787103
000100 d5 eb a0 3e fe de cd be 18 06 78 bf 08 e9 aa 3d
       0.31429926 -0.40209192 -0.968843 0.083452284
000110 28 58 36 3f 4a d2 96 3e c0 cd 4f bf e5 94 90 3e
       0.71228266 0.29457313 -0.81173325 0.28238598
000120 bd 23 28 3f eb ea bd 3c 93 6a 9f 3f ad 22 e1 3d
       0.6567953 0.023183307 1.2454399 0.10992942
000130 15 3d c6 be bd 9f 55 bf ed 60 9e be 22 e6 a8 be
       -0.38718477 -0.83446866 -0.30933324 -0.32988077
000140 91 a9 44 3f 0b 83 14 be 9c 93 17 bf e4 77 04 bf
       0.7682124 -0.14503114 -0.5920961 -0.5174544
000150 48 e1 f6 3e 2f 0b 3f 3f 81 c9 08 bf 93 58 80 be
       0.4821875 0.7462644 -0.5343247 -0.25067577
000160 de de 25 bf 97 3f 12 3f 35 fd 45 bd db c6 8b 3f
       -0.64793193 0.5712828 -0.04833718 1.0920061
000170 bd f7 fb bb e5 a8 ff 3e f3 e5 19 3e 23 3d e9 3e
       -0.007689445 0.49933544 0.15029125 0.45554456
000180 1d ba 04 bf 15 6f 58 3e 0f 97 55 3f 06 8a 90 be
       -0.51846486 0.21136124 0.8343362 -0.28230304
000190 64 32 ca bd 65 90 f9 3e 39 bc 55 be 81 81 9e be
       -0.098728925 0.48742977 -0.20872582 -0.3095818
0001a0 aa 43 d1 be 3c 68 91 3e 8d 57 2c bf ba 82 7e bf
       -0.40871936 0.28399837 -0.6732109 -0.9941822
0001b0 2a 3c 59 be a3 15 89 bf e0 08 03 bf e6 6e 96 bf
       -0.21214357 -1.0709728 -0.5118542 -1.1752594
0001c0 3b 83 7f be 2b 1e 29 bc 70 67 03 be 99 83 04 bd
       -0.24952404 -0.010322134 -0.12832427 -0.032352064
0001d0 82 9e 14 bf 2e ad 3f 3f 88 85 82 be 17 94 9d 3d
       -0.58054364 0.74873626 -0.254925 0.076942615
0001e0 b4 d3 b4 bf 57 60 66 be bd 78 76 3d 43 fb 04 3f
       -1.4127107 -0.22497688 0.06017374 0.51945895
0001f0 e0 ba fe be ab 95 a2 3f 98 7b 7e bf da c4 ea 3c
       -0.4975195 1.2701925 -0.9940734 0.02865832
000200 fb f3 98 be cc f9 4d be 16 cb 51 3d 31 4e 30 3f
       -0.29873642 -0.20114821 0.05121907 0.6886931
000210 9a b0 27 be cb 0c 50 bf 25 1e 4e bf f2 8b 19 be
       -0.16375962 -0.8126952 -0.80514747 -0.14994791
000220 aa a4 12 3f 4f 25 41 3f 0d 8a ee 3d e7 42 cd be
       0.5728251 0.75447553 0.11647425 -0.40090105
000230 9a df 55 3e 5d 39 0d bf e7 1a 03 3d 84 8d 88 be
       0.20886078 -0.55165654 0.032008078 -0.26670468
000240 7f 5d 81 3e b2 54 8d 3e 12 94 af 3e fe d1 ac 3e
       0.25266644 0.2760368 0.34292656 0.3375396
000250 32 ad 9b 3f 17 88 51 bf 55 f4 d4 3d e9 e0 7e 3f
       1.216223 -0.8184828 0.10398165 0.99561936
000260 b6 37 77 3f f8 46 6e be 69 2e 04 3c 4a 4a 7b bd
       0.96569383 -0.2326926 0.008067706 -0.061350144
000270 12 01 85 be 04 8a 0d bf f5 0e 19 3f 3f d3 66 3f
       -0.2597738 -0.5528872 0.5978845 0.90166086
000280 c4 d4 99 bf 40 7e fd 3e 71 1b 13 bf d5 bd 76 3f
       -1.2018056 0.49510384 -0.5746375 0.9638341
000290 f3 d3 57 bf 11 39 6c be 03 34 2c 3e b5 3e 5a be
       -0.84307784 -0.23068644 0.16816716 -0.21312983
0002a0 1c 02 f8 be 56 0a ea 3e d8 63 bc 3f 43 4f f5 be
       -0.4843911 0.4571101 1.471797 -0.47912034
0002b0 91 51 80 3e 50 51 13 3d 3e 20 1e 3f 53 b1 73 bd
       0.2506223 0.035966218 0.6176795 -0.05949528
0002c0 7a b8 26 bf 3d a7 2b 3e 16 da 4a 3f 4e 7c c1 3d
       -0.6512524 0.16763015 0.7923902 0.09447537
0002d0 95 10 5d be 0b c3 60 be a5 18 ed be 54 29 26 bf
       -0.21588357 -0.21949403 -0.46307865 -0.6490681
0002e0 d5 8a 6b bb a9 2d 7b 3e 19 d0 3a bf c3 fd 1e 3d
       -0.0035940905 0.24529137 -0.7297378 0.038816225
0002f0 31 df ba bd df 86 cc 3e 2d 9e 47 bf 4f 1f 00 3f
       -0.09124602 0.39946648 -0.7797573 0.50047773
000300 73 97 46 3f a3 ec 41 3e 99 f0 e2 3e 36 f7 3a bd
       0.77574843 0.18937926 0.44324186 -0.045645915
000310 99 1c 16 be 38 a0 42 bf 49 bb 8d be 09 2d b4 3f
       -0.14659347 -0.76025724 -0.2768195 1.4076244
000320 c8 c6 f6 be bc ae f3 be c8 59 23 bf c4 94 a1 3c
       -0.48198533 -0.4759425 -0.6380887 0.019724257
000330 36 84 4a 3f 44 08 97 3d e2 97 64 be e5 c2 53 bd
       0.7910799 0.073746234 -0.22323564 -0.051699538
000340 6a 64 f0 be 47 9d 74 3f 9b fb aa be b7 75 23 3f
       -0.4695161 0.95552486 -0.33395085 0.63851494
000350 b8 df c5 3d 5b f8 ca 3e e9 d3 74 3f 9c 7f 44 3e
       0.096618116 0.39642605 0.9563585 0.19189304
000360 8d 45 cb bd fb f3 f7 3e f2 9f c8 bd 0a 99 b3 bc
       -0.09925375 0.4842833 -0.09796132 -0.02192356
000370 85 21 83 3f 85 59 2a 3c 4a 34 e4 be 7d fb a2 be
       1.0244604 0.01039732 -0.44571143 -0.31832495
000380 21 4f f7 3e 66 6e bb be 43 46 a0 bd dc c8 00 bf
       0.48302558 -0.36607665 -0.07825901 -0.5030649
000390 f1 10 af be 80 ed 30 be 60 af 28 bf 26 d3 3d be
       -0.34192613 -0.17278099 -0.658926 -0.18537578
0003a0 95 c2 01 3f b6 b7 5a be 5b c9 61 3e 74 b6 97 be
       0.50687534 -0.21359143 0.22049467 -0.29631388
0003b0 4f 46 2c bf ba b9 19 3e 25 73 57 3f 97 85 2d bf
       -0.6729478 0.15012255 0.8416007 -0.67781967
0003c0 81 73 1d bf c4 47 3c 3f 95 1d c2 be 77 d2 4c bf
       -0.6150437 0.73547006 -0.37913194 -0.80008644
0003d0 71 f0 54 be 90 29 88 3f 66 ae e6 3e 12 49 51 3d
       -0.20794846 1.0637684 0.4505493 0.051095076
0003e0 71 e4 45 3f db 13 7a bf d0 51 2f bf f5 e8 97 3e
       0.773017 -0.9768655 -0.6848421 0.2966992
0003f0 ff 4f f7 3e 4a f4 9b bc 7d e6 9d bf 98 17 33 bf
       0.4830322 -0.019037385 -1.2335964 -0.69957876

sequential.0.Gamma.bias f4 [80]
000000 8c c5 48 3e fa 94 3b bd 56 b8 24 3e cf d7 c7 3b
       0.19606608 -0.045796372 0.16085944 0.0060987244
000010 50 49 51 be 6c e6 3f 3e 33 54 50 3e 68 b6 4b 3e
       -0.20438123 0.18740243 0.2034462 0.19893801
000020 c1 83 71 3e 09 59 85 be 43 26 5e 3c fc 8c 4c bc
       0.23585416 -0.2604449 0.013558927 -0.012484785
000030 f4 bf fa bd dd dc 93 bd 23 80 96 bc e7 0a 2b be
       -0.122436434 -0.07219861 -0.018371647 -0.16703378
000040 09 84 33 3e 1f 24 b1 3c c2 c3 83 be 7d de 66 be
       0.17530836 0.02162367 -0.2573529 -0.2254581
000050 bb 6c 85 bd b0 d6 29 be 0d ad 8f 3e e5 78 ae bd
       -0.06514879 -0.16585803 0.28061715 -0.085191526
000060 e5 66 af 3d c0 e9 09 3d f2 e1 23 3e 54 d1 4d be
       0.085645474 0.033670187 0.1600416 -0.20099384
000070 30 f2 30 3e c7 ac 56 be f5 ee dd 3d 9b 5c 2b bd
       0.17279887 -0.20964347 0.10836593 -0.041836362
000080 46 d7 93 be 4a e8 3a 3d 30 e6 a9 bb 75 f0 e4 3c
       -0.28875178 0.045631684 -0.005184911 0.02794669
000090 1c 42 1f 3e 2c 58 34 3e c5 af ec bc 53 f8 fb 3d
       0.15552562 0.1761176 -0.028892407 0.123032235
0000a0 45 e4 a2 be ac c8 76 3d 29 6b 07 3d 4e 95 b6 bd
       -0.3181478 0.06024997 0.03306118 -0.08915196
0000b0 ac 5f f4 3d 91 9b f4 3d 00 d7 6a 3d 16 21 4d be
       0.119323105 0.119437344 0.057333946 -0.20032153
0000c0 22 1a dc bc d7 f3 ed bd 45 f3 0a be 37 d5 17 be
       -0.02686793 -0.116187744 -0.13569362 -0.14827429
0000d0 5f 25 8b bd 05 3a 90 bd 74 16 3d 3e a0 1a f2 3b
       -0.06794237 -0.07042316 0.18465596 0.007388428
0000e0 69 b0 9e 3c ed 78 9c 3d 7d ec 3f 3e 0b d0 03 be
       0.019371228 0.07640252 0.18742557 -0.12872331
0000f0 92 65 7a 3a 2b 50 44 3d f9 07 27 3d 1f 8b e9 3d
       0.00095518783 0.047928017 0.040779088 0.11403488
000100 55 f7 bc 3d 8c e0 77 be 87 42 fa bd a1 7f f4 3d
       0.09226862 -0.24206752 -0.1221972 0.11938406
000110 fe fe 9e 3e 06 37 8b bd 80 8d 81 3e bd 00 41 3d
       0.3105392 -0.06797604 0.25303268 0.047119845
000120 68 0e ab 3c 2d c2 af bd 67 ce 1f 3b b1 9c 48 be
       0.020880893 -0.08581958 0.00243845 -0.19591023
000130 99 5b 29 be f2 40 1a be f7 19 27 be 0d 0b 3d be
       -0.16538848 -0.15063837 -0.16318499 -0.18461247

sequential.0.Lambda.weight f4 [80, 5]
000000 ab ca ef 3e 2b 3d 83 3e 87 f2 46 3f f9 32 53 3e
       0.4683431 0.25632605 0.7771382 0.20624913
000010 40 62 7c bf 40 e6 cb be 4b d2 80 3c 4a 1b 05 bf
       -0.9858742 -0.39824104 0.015725276 -0.51994765
000020 7d 9d 7d 3e 46 cd 08 3f 67 c8 09 bf 45 a0 48 3f
       0.24767108 0.5343822 -0.53821415 0.7836955
000030 29 72 00 c0 db c6 77 bf 98 ab 4f bf 2e 09 4d 3f
       -2.0069678 -0.96787804 -0.81121206 0.8009213
000040 e3 12 91 bf db ae 8f be e3 4e 5a 3f 05 12 89 3e
       -1.1333889 -0.28063092 0.8527662 0.2677156
000050 aa 3e a3 3f 96 ae 07 3e b1 d6 68 bf 90 35 6b 3e
       1.2753499 0.13250193 -0.90952593 0.22969651
000060 00 56 2e bf 1c b1 19 3a 9c 5f 34 bf cc 18 cb 3e
       -0.68099976 0.0005862878 -0.7045839 0.39667356
000070 17 1a 80 bf ad d0 ac bd fd be 5c 3f 10 43 b2 3f
       -1.0007962 -0.08438239 0.86228925 1.3926716
000080 34 4b c5 3e 6f 90 bb bd c9 1f e7 3e 64 3a f0 bd
       0.38533938 -0.09158408 0.45141438 -0.11729887
000090 a4 46 ea be 21 a6 2b 3e a0 f0 6e bf 91 fb b4 3f
       -0.4575702 0.16762592 -0.93335915 1.4139272
0000a0 2d 2f 37 bd e8 dd 20 be b9 ba 98 3d 2a 35 61 3e
       -0.044722725 -0.1570965 0.074574895 0.21992937
0000b0 b8 52 aa 3f 25 de 77 bf d1 1f 37 bf ef 53 88 bf
       1.3306494 -0.9682334 -0.71532923 -1.0650615
0000c0 ac b8 4d 3e cf 41 59 3e 93 38 11 bf 7d ac ce be
       0.20089978 0.2121651 -0.5672695 -0.40365973
0000d0 68 85 5e bf a2 ce 76 bd 3b df 95 3f ed d2 22 bf
       -0.8692231 -0.060255654 1.170875 -0.636031
0000e0 61 27 f1 be f6 d2 65 be 75 1e 32 bf 2d 20 c1 3f
       -0.47100356 -0.22443756 -0.69577724 1.5087944
0000f0 e9 d9 e4 be 80 fa 94 3e 36 a6 6a bd 2a 90 b6 bd
       -0.44697502 0.29097366 -0.057287417 -0.08914216
000100 24 4b 49 3f fe 2d 5c be c3 3e 16 bd 10 8b ca be
       0.7863028 -0.2150192 -0.036680948 -0.3955922
000110 a3 7f df bb f3 ac 45 bf 67 ec bd bf 62 23 e0 3e
       -0.0068206354 -0.77217025 -1.4837769 0.43776995
000120 72 d9 8a bf 8e 10 bd 3e e0 c8 80 bf 3e 85 5f bf
       -1.0847609 0.36926693 -1.0061302 -0.87312686
000130 0c fc 09 3f 27 7c 6f bf 49 03 08 be 1b 7f 82 3f
       0.5390022 -0.93548816 -0.13282503 1.019504
000140 6c ed 5d 3d 2c fe d3 be 30 a3 5d 3f ba 63 4e be
       0.0541815 -0.41404855 0.8657713 -0.2015523
000150 ea 90 6d 3f 35 4e 4e bf df 63 19 bf 10 bc 88 bf
       0.92799246 -0.80588084 -0.59918016 -1.0682392
000160 f1 ba 55 3f 56 c2 c5 3e d3 74 e1 be 4b d0 b4 3e
       0.83488375 0.3862483 -0.44034442 0.35315165
000170 c0 30 ef 3e 85 62 de be ba 88 1d 3f 7d 2b 7e 3e
       0.4671688 -0.4343454 0.61536753 0.24821277
000180 8a 2f f5 be 12 87 4b 3d 5d a2 22 3f f3 78 3a be
       -0.47887832 0.04968936 0.63528997 -0.18210201
000190 9e ea 78 bf 48 8d 2c bf 25 bb 3a bf 78 7b 98 3d
       -0.97233 -0.6740308 -0.7294181 0.07445425
0001a0 50 63 e5 3c 0f 8c a6 3e fb 00 91 bf bd c9 4a be
       0.028001457 0.3252873 -1.1328424 -0.1980352
0001b0 49 53 bb 3e 0d 43 d7 bf d6 86 26 be f2 d0 d2 be
       0.3658698 -1.6817337 -0.16262373 -0.41175038
0001c0 c1 12 94 3a 3b be 70 3f 71 03 53 3e 99 aa 50 be
       0.0011297093 0.9404027 0.20606782 -0.20377578
0001d0 b5 61 20 3f c4 b3 e8 be ee 45 23 bf 21 a2 93 3e
       0.6264909 -0.4544965 -0.6377858 0.28834632
0001e0 1f 8b c9 3f 05 3c 6b 3e 17 e9 bf bd 73 5e 2e bf
       1.5745581 0.22972114 -0.0937063 -0.6811287
0001f0 4e 85 0b 3e 78 bf 23 3f 0b 02 bc 3e b0 19 05 3f
       0.1362507 0.63964033 0.3672031 0.5199232
000200 02 07 37 3e eb f4 34 bc 5f db b1 be 5f a7 7d bd
       0.17873767 -0.011044721 -0.3473768 -0.061927196
000210 f7 1d 8c be fa 2b bb be e4 cf 78 3f 6e 36 57 be
       -0.2736661 -0.3655699 0.97192216 -0.21016857
000220 6f e6 85 3f 12 ed bd bc 47 19 67 bd 97 c1 38 be
       1.0460948 -0.023184333 -0.05642059 -0.18042599
000230 bb ec 9b be 1b e5 60 be 84 5c 66 3f 64 d0 f5 bc
       -0.3045405 -0.21962397 0.8998492 -0.030006595
000240 17 30 bf 3d e6 a7 21 bf 3c 5d af 3e 7d f3 94 be
       0.09335344 -0.6314682 0.3425082 -0.29092017
000250 48 51 88 be 7b 89 77 bd 62 ca 82 3f 31 55 43 bf
       -0.26624513 -0.060433846 1.0218012 -0.76301867
000260 4f 9c 1d bf 62 d3 82 be 25 07 df 3e 6f e0 c6 be
       -0.61566633 -0.25551897 0.43560138 -0.38843104
000270 61 88 a9 3f d4 a2 8b 3c 3f 59 36 3f 59 c9 5f bf
       1.3244745 0.017045416 0.7122993 -0.8741661
000280 83 8a c2 3d f7 f1 5c 3e ba 88 37 bf b3 19 65 bd
       0.09499075 0.21576677 -0.71693003 -0.05593271
000290 df be b1 bf de 5a a7 be cf 84 23 be 33 77 39 3f
       -1.3886374 -0.32686514 -0.15968631 0.7244751
0002a0 f1 0a f8 3f 43 a4 82 bf e7 b4 0f bd e6 ab 85 3f
       1.9378339 -1.0206379 -0.03508463 1.0443084
0002b0 82 d6 55 3e ab de c6 be c6 df f7 be 4c 55 a7 bf
       0.2088261 -0.38841757 -0.48412913 -1.3072906
0002c0 7f 7f 99 be 8a 10 a2 3f 37 a8 0a be bd dd ef bd
       -0.29980084 1.2661297 -0.13540731 -0.11712215
0002d0 4a 53 68 bd d6 bf 9f bf 7e da dc 3b 69 58 fd 3e
       -0.056720056 -1.2480419 0.0067399135 0.49481514
0002e0 3f c7 a6 3f 23 a2 87 bf da be 23 3c 0f fc 8c 3f
       1.3029555 -1.0596355 0.009994233 1.1014422
0002f0 9b d8 c1 bd 77 09 8c 3f c6 fb 9d bc 6a ba e9 3e
       -0.09465142 1.0940388 -0.019285094 0.45650035
000300 76 d8 85 3f e7 2e 80 3e 1a a8 1e bf 7d 01 89 be
       1.0456684 0.25035784 -0.6197525 -0.26758948
000310 6d ce 21 be f2 7e 8f 3c 6a 52 aa 3e b2 df 86 bf
       -0.15801401 0.017516587 0.33266002 -1.0537016
000320 01 b4 67 bf 79 58 18 bd 37 4d 8a bf 28 ed 21 bf
       -0.9050904 -0.03719375 -1.0804814 -0.63252497
000330 6e ee 7a 3e db e6 7f 3e cd b2 e5 bd b4 35 b5 bd
       0.24505016 0.24990408 -0.11215744 -0.08848134
000340 0c dc 70 3f 17 cb fb bd 47 f5 ac 3d cd d4 4c 3f
       0.94085765 -0.12294596 0.084452204 0.8001221
000350 13 9f 91 3e a9 ae db be 8d af 03 bb 8a 9e 04 bf
       0.28441676 -0.42906693 -0.002009365 -0.5180441
000360 ef c0 10 3f 71 99 2f 3e 91 0d 46 3f 76 f9 10 3f
       0.56544393 0.17148377 0.7736445 0.5663065
000370 82 f5 84 3d 8a 24 dc bd 54 69 a9 3e db 81 ff bd
       0.064921394 -0.10749157 0.3308817 -0.1247594
000380 85 fe bd 3e 8b 20 bf be 25 0a 24 bf 17 51 e9 3e
       0.37108245 -0.37329516 -0.6407798 0.4556968
000390 3f 2b 11 bf 43 39 81 3e 3d 07 63 bf 94 bc 89 3f
       -0.56706613 0.25239 -0.8868292 1.0760674
0003a0 dc 71 b8 3d 6e 24 99 be 9f af 98 be 07 f8 16 3f
       0.09006092 -0.29910606 -0.29821488 0.5897221
0003b0 4e 69 5b 3e 0e ce 92 3f 23 6b a9 be df d7 5a bf
       0.2142689 1.1469133 -0.3308955 -0.85485643
0003c0 b8 62 f5 3e dc c1 26 be 4f f5 34 bf 34 75 af 3e
       0.4792688 -0.16284889 -0.7068681 0.34269106
0003d0 56 11 18 3f 4a 2f 33 bf 78 81 38 bf 89 c9 fa 3e
       0.5940145 -0.6999403 -0.72072554 0.48981884
0003e0 b5 9b 1a 3e c6 58 cc 3e 0a 0f ff be e2 0e d3 3f
       0.1509846 0.3991148 -0.4981616 1.6488917
0003f0 42 67 d2 3f a8 61 20 3e 24 57 a9 3c 0b 55 c7 bf
       1.6437762 0.15662253 0.020671435 -1.5572828

sequential.0.Lambda.bias f4 [80]
000000 8c c5 48 3e fa 94 3b bd 56 b8 24 3e cf d7 c7 3b
       0.19606608 -0.045796372 0.16085944 0.0060987244
000010 50 49 51 be 6c e6 3f 3e 33 54 50 3e 68 b6 4b 3e
       -0.20438123 0.18740243 0.2034462 0.19893801
000020 c1 83 71 3e 09 59 85 be 43 26 5e 3c fc 8c 4c bc
       0.23585416 -0.2604449 0.013558927 -0.012484785
000030 f4 bf fa bd dd dc 93 bd 23 80 96 bc e7 0a 2b be
       -0.122436434 -0.07219861 -0.018371647 -0.16703378
000040 09 84 33 3e 1f 24 b1 3c c2 c3 83 be 7d de 66 be
       0.17530836 0.02162367 -0.2573529 -0.2254581
000050 bb 6c 85 bd b0 d6 29 be 0d ad 8f 3e e5 78 ae bd
       -0.06514879 -0.16585803 0.28061715 -0.085191526
000060 e5 66 af 3d c0 e9 09 3d f2 e1 23 3e 54 d1 4d be
       0.085645474 0.033670187 0.1600416 -0.20099384
000070 30 f2 30 3e c7 ac 56 be f5 ee dd 3d 9b 5c 2b bd
       0.17279887 -0.20964347 0.10836593 -0.041836362
000080 46 d7 93 be 4a e8 3a 3d 30 e6 a9 bb 75 f0 e4 3c
       -0.28875178 0.045631684 -0.005184911 0.02794669
000090 1c 42 1f 3e 2c 58 34 3e c5 af ec bc 53 f8 fb 3d
       0.15552562 0.1761176 -0.028892407 0.123032235
0000a0 45 e4 a2 be ac c8 76 3d 29 6b 07 3d 4e 95 b6 bd
       -0.3181478 0.06024997 0.03306118 -0.08915196
0000b0 ac 5f f4 3d 91 9b f4 3d 00 d7 6a 3d 16 21 4d be
       0.119323105 0.119437344 0.057333946 -0.20032153
0000c0 22 1a dc bc d7 f3 ed bd 45 f3 0a be 37 d5 17 be
       -0.02686793 -0.116187744 -0.13569362 -0.14827429
0000d0 5f 25 8b bd 05 3a 90 bd 74 16 3d 3e a0 1a f2 3b
       -0.06794237 -0.07042316 0.18465596 0.007388428
0000e0 69 b0 9e 3c ed 78 9c 3d 7d ec 3f 3e 0b d0 03 be
       0.019371228 0.07640252 0.18742557 -0.12872331
0000f0 92 65 7a 3a 2b 50 44 3d f9 07 27 3d 1f 8b e9 3d
       0.00095518783 0.047928017 0.040779088 0.11403488
000100 55 f7 bc 3d 8c e0 77 be 87 42 fa bd a1 7f f4 3d
       0.09226862 -0.24206752 -0.1221972 0.11938406
000110 fe fe 9e 3e 06 37 8b bd 80 8d 81 3e bd 00 41 3d
       0.3105392 -0.06797604 0.25303268 0.047119845
000120 68 0e ab 3c 2d c2 af bd 67 ce 1f 3b b1 9c 48 be
       0.020880893 -0.08581958 0.00243845 -0.19591023
000130 99 5b 29 be f2 40 1a be f7 19 27 be 0d 0b 3d be
       -0.16538848 -0.15063837 -0.16318499 -0.18461247

sequential.0.bn.running_mean f4 [80]
000000 00 00 00 00 00 00 00 00 00 00 00 00 00 00 00 00
       0.0 0.0 0.0 0.0
000010 00 00 00 00 00 00 00 00 00 00 00 00 00 00 00 00
       0.0 0.0 0.0 0.0
000020 00 00 00 00 00 00 00 00 00 00 00 00 00 00 00 00
       0.0 0.0 0.0 0.0
000030 00 00 00 00 00 00 00 00 00 00 00 00 00 00 00 00
       0.0 0.0 0.0 0.0
000040 00 00 00 00 00 00 00 00 00 00 00 00 00 00 00 00
       0.0 0.0 0.0 0.0
000050 00 00 00 00 00 00 00 00 00 00 00 00 00 00 00 00
       0.0 0.0 0.0 0.0
000060 00 00 00 00 00 00 00 00 00 00 00 00 00 00 00 00
       0.0 0.0 0.0 0.0
000070 00 00 00 00 00 00 00 00 00 00 00 00 00 00 00 00
       0.0 0.0 0.0 0.0
000080 00 00 00 00 00 00 00 00 00 00 00 00 00 00 00 00
       0.0 0.0 0.0 0.0
000090 00 00 00 00 00 00 00 00 00 00 00 00 00 00 00 00
       0.0 0.0 0.0 0.0
0000a0 00 00 00 00 00 00 00 00 00 00 00 00 00 00 00 00
       0.0 0.0 0.0 0.0
0000b0 00 00 00 00 00 00 00 00 00 00 00 00 00 00 00 00
       0.0 0.0 0.0 0.0
0000c0 00 00 00 00 00 00 00 00 00 00 00 00 00 00 00 00
       0.0 0.0 0.0 0.0
0000d0 00 00 00 00 00 00 00 00 00 00 00 00 00 00 00 00
       0.0 0.0 0.0 0.0
0000e0 00 00 00 00 00 00 00 00 00 00 00 00 00 00 00 00
       0.0 0.0 0.0 0.0
0000f0 00 00 00 00 00 00 00 00 00 00 00 00 00 00 00 00
       0.0 0.0 0.0 0.0
000100 00 00 00 00 00 00 00 00 00 00 00 00 00 00 00 00
       0.0 0.0 0.0 0.0
000110 00 00 00 00 00 00 00 00 00 00 00 00 00 00 00 00
       0.0 0.0 0.0 0.0
000120 00 00 00 00 00 00 00 00 00 00 00 00 00 00 00 00
       0.0 0.0 0.0 0.0
000130 00 00 00 00 00 00 00 00 00 00 00 00 00 00 00 00
       0.0 0.0 0.0 0.0

sequential.0.bn.running_var f4 [80]
000000 00 00 80 3f 00 00 80 3f 00 00 80 3f 00 00 80 3f
       1.0 1.0 1.0 1.0
000010 00 00 80 3f 00 00 80 3f 00 00 80 3f 00 00 80 3f
       1.0 1.0 1.0 1.0
000020 00 00 80 3f 00 00 80 3f 00 00 80 3f 00 00 80 3f
       1.0 1.0 1.0 1.0
000030 00 00 80 3f 00 00 80 3f 00 00 80 3f 00 00 80 3f
       1.0 1.0 1.0 1.0
000040 00 00 80 3f 00 00 80 3f 00 00 80 3f 00 00 80 3f
       1.0 1.0 1.0 1.0
000050 00 00 80 3f 00 00 80 3f 00 00 80 3f 00 00 80 3f
       1.0 1.0 1.0 1.0
000060 00 00 80 3f 00 00 80 3f 00 00 80 3f 00 00 80 3f
       1.0 1.0 1.0 1.0
000070 00 00 80 3f 00 00 80 3f 00 00 80 3f 00 00 80 3f
       1.0 1.0 1.0 1.0
000080 00 00 80 3f 00 00 80 3f 00 00 80 3f 00 00 80 3f
       1.0 1.0 1.0 1.0
000090 00 00 80 3f 00 00 80 3f 00 00 80 3f 00 00 80 3f
       1.0 1.0 1.0 1.0
0000a0 00 00 80 3f 00 00 80 3f 00 00 80 3f 00 00 80 3f
       1.0 1.0 1.0 1.0
0000b0 00 00 80 3f 00 00 80 3f 00 00 80 3f 00 00 80 3f
       1.0 1.0 1.0 1.0
0000c0 00 00 80 3f 00 00 80 3f 00 00 80 3f 00 00 80 3f
       1.0 1.0 1.0 1.0
0000d0 00 00 80 3f 00 00 80 3f 00 00 80 3f 00 00 80 3f
       1.0 1.0 1.0 1.0
0000e0 00 00 80 3f 00 00 80 3f 00 00 80 3f 00 00 80 3f
       1.0 1.0 1.0 1.0
0000f0 00 00 80 3f 00 00 80 3f 00 00 80 3f 00 00 80 3f
       1.0 1.0 1.0 1.0
000100 00 00 80 3f 00 00 80 3f 00 00 80 3f 00 00 80 3f
       1.0 1.0 1.0 1.0
000110 00 00 80 3f 00 00 80 3f 00 00 80 3f 00 00 80 3f
       1.0 1.0 1.0 1.0
000120 00 00 80 3f 00 00 80 3f 00 00 80 3f 00 00 80 3f
       1.0 1.0 1.0 1.0
000130 00 00 80 3f 00 00 80 3f 00 00 80 3f 00 00 80 3f
       1.0 1.0 1.0 1.0

sequential.2.Gamma.weight f4 [120, 80]
000000 96 d6 15 3e 9b c7 c4 3d 73 45 15 3e 02 c5 42 be
       0.1463264 0.09608384 0.14577274 -0.19020465
000010 85 2a 61 3c 79 91 a4 3c 58 71 27 be b5 67 b8 bd
       0.013743048 0.020088898 -0.16351831 -0.090041555
000020 cc 07 13 be 66 7b 81 3c 70 b2 6d be 9b 58 80 be
       -0.14358443 0.015805911 -0.232126 -0.250676
000030 2d 77 24 3e 8d 28 e5 3d d5 97 af bc 93 9e 09 be
       0.16061087 0.11189375 -0.021434704 -0.13439398
000040 80 33 a9 3e 00 1d 20 bc d0 bd 0b 3e bc 98 69 be
       0.33047104 -0.009772539 0.13646626 -0.2281217
000050 4e b8 5f 3d 95 c2 d2 3d 31 80 c4 bd 0c d9 1d be
       0.054619126 0.1029102 -0.09594763 -0.15414828
000060 3d 35 7b bd 89 9d e5 3c 0e 6f 1d 3d 71 83 65 be
       -0.06133007 0.02802922 0.038435988 -0.22413422
000070 39 10 34 3d 53 17 48 be 1f 5a 3d 3e 2f 81 29 bd
       0.043960784 -0.19540147 0.1849141 -0.041382965
000080 71 f9 08 3e 08 11 63 3e 13 84 2f be e6 b1 d0 bd
       0.13376404 0.22174466 -0.17140226 -0.101901814
000090 b3 03 c6 bb 85 11 bb 3d ce af 6f 3d c4 ed af 3d
       -0.0060429214 0.09134201 0.05851727 0.08590272
0000a0 96 59 70 3d fd 81 76 bd 62 08 2a be 01 b9 fe b9
       0.058679186 -0.06018256 -0.1660476 -0.00048584494
0000b0 a2 69 ba 3d 92 4e f9 3c b6 65 d3 3b ff 3b 20 be
       0.09102179 0.030432973 0.006451334 -0.15647887
0000c0 94 1a 0d be 5f c8 14 3e e8 b8 86 be fe 18 c2 bd
       -0.1377967 0.1452956 -0.26312947 -0.09477423
0000d0 de 37 be 3e b2 64 02 be 86 38 15 be 76 06 e1 3d
       0.37151998 -0.12733725 -0.14572343 0.109875605
0000e0 f6 0f c3 bd df 74 ef bc d0 35 4a be 15 bf c7 3d
       -0.09524529 -0.029230533 -0.1974709 0.09753243
0000f0 8f 19 88 be fe 45 f1 3d b2 a0 29 bd f9 ab da 3d
       -0.26582 0.11780928 -0.041413017 0.106773324
000100 6a 72 3b 3e e5 7f 2d be 53 2c 7e be 1a a9 ac 3e
       0.18305364 -0.16943319 -0.24821596 0.33722764
000110 68 93 c3 3d 6e 49 86 be 1b 38 be bd 76 7a 95 3d
       0.095496 -0.26227897 -0.09288045 0.07298748
000120 8e 87 0a be c5 23 bc bb da 7a 52 be 18 85 bf 3d
       -0.13528273 -0.0057415687 -0.20554677 0.093515575
000130 b5 c5 aa 3d 03 2b ae be 9f 5b 8e be fc ac a1 3d
       0.08338491 -0.3401719 -0.27804276 0.07894322
000140 74 79 c7 3d 0c 25 31 be e6 9d b5 3e 11 0e c1 3d
       0.09739962 -0.17299289 0.3547203 0.09426511
000150 bb b0 e5 bd 3e 91 e0 bd f0 9f 37 be 41 bc 8b 3d
       -0.11215349 -0.10965203 -0.17932105 0.06823016
000160 89 92 05 3e b7 38 0f 3d 17 fd a1 3d 09 37 36 3e
       0.1304418 0.034966197 0.07909601 0.17794432
000170 fc c8 97 3e f7 fe b6 bc da e3 7c be 48 53 0b 3b
       0.29645526 -0.022338374 -0.24696293 0.0021259356
000180 b7 27 b4 3e b5 e0 62 3d a8 83 36 bc 21 ef 21 be
       0.3518655 0.05539008 -0.011139788 -0.15813877
000190 d2 32 80 3e db 74 2d 3d 55 57 02 bd 16 ee 4c 3e
       0.25038773 0.04234777 -0.031821568 0.20012698
0001a0 ef 9e 12 3e 21 a2 86 be c6 23 43 be 26 8c 9c bc
       0.14318441 -0.2629557 -0.19056615 -0.019109797
0001b0 e7 c5 1d be 85 bc 7a 3d 45 3a 1f be cd aa 6f be
       -0.15407525 0.061214942 -0.15549572 -0.23404999
0001c0 93 8d 14 3e 6a 99 4b 3e 82 ac 42 b8 4c 69 0f 3e
       0.14507131 0.19882742 -4.6413865e-05 0.14005011
0001d0 8e a0 0e 3d 8c 1b f2 3c 6c 41 f1 3d 29 1e 26 3e
       0.034821086 0.029554151 0.11780056 0.16222443
0001e0 57 48 d4 bc b2 d5 8a 3d ac c4 f2 3d 5f 30 57 3e
       -0.0259134 0.067790404 0.118539184 0.21014546
0001f0 fb 9f 95 bd 08 e3 46 3e ca 81 56 3d 91 b3 b2 3c
       -0.073059045 0.19422543 0.05236987 0.02181414
000200 bd 4b 78 3e cd 44 a9 bd 4b 47 39 3e 28 b6 a5 be
       0.24247642 -0.08265076 0.18093602 -0.32365537
000210 a1 bc c7 3d 0b a6 92 be 46 b0 2c be 78 00 c6 3d
       0.09752775 -0.28642306 -0.16864118 0.09668058
000220 a0 cb 37 3e f4 fb 89 be 5c 39 3c be ba 73 4b bc
       0.1794877 -0.26950037 -0.18381256 -0.012417728
000230 51 8a db bc 9e da 11 3e 65 9b 50 be 38 52 c1 bc
       -0.026799353 0.14243552 -0.20371778 -0.023598775
000240 d5 25 b7 3b 4f eb fb 3d ea fb 77 3e 5c 2e 30 3d
       0.0055892267 0.12300741 0.24217191 0.04301296
000250 57 b1 e1 bd b0 f2 8a bd 60 6e 1f bd 00 26 ae bc
       -0.11020153 -0.0678457 -0.03892362 -0.021258354
000260 70 00 a5 bd 8a e9 07 3e f0 ea 9d 3e 0a 38 77 3e
       -0.08056724 0.13272682 0.30843306 0.24142471
000270 ef a0 19 3c c0 c1 ff bc 75 57 35 3e f5 8e f8 bd
       0.009376748 -0.031220317 0.17709143 -0.12136642
000280 ad 7b 66 bc bf 28 db bd e8 14 5e bd c1 15 e0 3d
       -0.014067573 -0.10701131 -0.054219157 0.10941649
000290 fe 5e 70 be 34 90 74 3d ce a8 98 be 31 7b 33 3e
       -0.23473737 0.059707835 -0.29816288 0.17527463
0002a0 ea 76 63 bd 65 66 cb bd a3 7c 35 3d 0d 2f f2 3c
       -0.055533327 -0.099316396 0.044308316 0.029563451
0002b0 c1 76 08 bd 8e e8 ee 3d 02 e5 a3 bc 45 b4 82 bd
       -0.033316378 0.1166545 -0.02000666 -0.0638204
0002c0 62 3b 2c be 05 50 46 bc 1e 44 cc bd d6 a4 29 3d
       -0.16819528 -0.012104039 -0.0997393 0.041416965
0002d0 12 8e 9b be d1 65 31 bd da b9 7b 3e 0b da 42 3d
       -0.3038183 -0.04330999 0.24582615 0.047571223
0002e0 b8 85 9b bb d1 ce 1f 3c b1 4f 9d 3c 99 04 b2 3d
       -0.004746165 0.009753899 0.019203039 0.08692283
0002f0 4d 6e 52 be fd d3 15 3e 40 21 9d bd 0c 6b fd 3d
       -0.20549889 0.14631648 -0.076723576 0.12373933
000300 c7 5a 88 3e 7e 40 db 3b d4 33 cd bd 1d 15 72 3e
       0.26631758 0.0066910377 -0.10019651 0.23640867
000310 9a af 13 be 78 4f 1d be 9c 7b 33 3b 13 93 24 3e
       -0.14422455 -0.15362346 0.002738691 0.1607173
000320 e4 2f 83 bd 6c 31 48 be 09 f3 ba bd 8c f4 e5 3c
       -0.06405619 -0.19550103 -0.091283865 0.02807071
000330 7b 60 ab 3e d8 9e 15 3e cb 6b 32 3c 22 26 8a bd
       0.33472046 0.14611375 0.010889958 -0.067455545
000340 a5 2b 03 bd 4f 8c 89 bd 47 d3 46 bd dd ee 13 be
       -0.032024045 -0.06716215 -0.048541334 -0.14446588
000350 c9 df 47 be e9 aa bf be d9 86 8c bd f4 77 1d bd
       -0.19518961 -0.37435082 -0.06861658 -0.038444474
000360 a6 fe b8 3d a7 ba 85 bd 0b 6c 2b be ab 76 25 bc
       0.09032945 -0.06529742 -0.16740434 -0.010099093
000370 49 34 62 be 3e 0a 88 be a1 85 52 3d 3e 7b 05 be
       -0.22090258 -0.26570314 0.05139697 -0.13035294
000380 40 67 82 3d 01 d4 7f bd 03 19 bf 3a 66 45 9a bd
       0.063673496 -0.062458042 0.0014579598 -0.07532768
000390 14 db 3c 3d 44 a1 e9 3c 9d 37 99 bd 8d 8a 8f be
       0.046107367 0.02851928 -0.074813105 -0.28035393
0003a0 c5 62 50 be 3d cb 22 be 79 2e 15 be 87 54 22 be
       -0.20350178 -0.15897842 -0.14568509 -0.15852557
0003b0 62 57 7d 3e 16 af 17 be ed a0 59 be 3c c7 93 bc
       0.24740365 -0.14812884 -0.21252795 -0.018039338
0003c0 7e fe 5d 3d 81 12 a5 be db 70 9d ba 9b 49 d0 bd
       0.05419778 -0.3224068 -0.0012011783 -0.10170289
0003d0 7f 77 70 be f9 0b b1 bd 54 5e e7 3c 86 e8 33 bc
       -0.23483084 -0.08644862 0.028243221 -0.010980731
0003e0 83 e2 14 3d c6 61 4a 3b a3 37 53 be bc 10 e1 bd
       0.03634883 0.0030881031 -0.20626692 -0.1098952
0003f0 6c b8 91 bd 18 fe 3c be fc 53 02 3e 30 2d 2c 3e
       -0.07115254 -0.18456304 0.1272735 0.16814113

sequential.2.Gamma.bias f4 [120]
000000 f1 e2 42 bd c7 1b a9 bd 52 95 ae bc 3b 5f cf 3d
       -0.04757971 -0.08257251 -0.021311436 0.10125586
000010 53 98 1c bc df 00 4f be e5 23 2e 3e 2d 71 cb bb
       -0.009557801 -0.20215176 0.1700588 -0.00620856
000020 e2 53 8b bd 0f a3 02 3e a2 4a 0c be ad 33 29 be
       -0.06803109 0.12757514 -0.13700345 -0.16523619
000030 39 93 2c 3d b6 d9 37 be 38 df 90 bc a2 6e d0 bd
       0.04213259 -0.17954144 -0.017684564 -0.101773515
000040 f5 c2 01 3c ef 25 e1 3c 5b 77 8f 3d 36 bd ab bd
       0.007920017 0.027483908 0.07005187 -0.083856985
000050 66 f8 23 be 3b fe 46 3c f4 b7 f4 bd 37 0c 92 bd
       -0.16012725 0.012145574 -0.11949149 -0.07131236
000060 a4 7b 46 3e 79 6e 1d bc f2 03 9b 3d d2 82 a7 3b
       0.19383103 -0.009608858 0.07569112 0.0051120305
000070 d5 f4 19 3d 03 21 5a bd 5b d2 ee 3d 27 7d 28 bd
       0.037587006 -0.05325414 0.11661216 -0.04113498
000080 8e d6 5d 3c 21 cd 8a 3d 0e 40 18 3e 58 83 8b 3d
       0.013539923 0.067774065 0.14868185 0.06812161
000090 f8 46 25 bc b9 f0 9b 3d 03 d4 9a be f6 8b 76 3d
       -0.010087721 0.076142736 -0.30239877 0.06019207
0000a0 26 97 4b 3e 69 fe 71 3c a5 5f e5 bc ac 64 1b 3e
       0.19881877 0.014770129 -0.027999708 0.15175122
0000b0 f2 ce 05 3d ce f9 b3 bd 7f 0d 13 bd 2f ad 19 3e
       0.03266806 -0.08787881 -0.035901543 0.1500747
0000c0 95 ee 3a be 9a d6 15 3e 10 63 69 3d 26 99 7b 3d
       -0.18255074 0.14632645 0.05697924 0.06142535
0000d0 e1 1a c3 bd e1 47 e2 3c 42 33 13 be 80 13 26 3e
       -0.09526611 0.027622165 -0.14375022 0.16218376
0000e0 9b 17 b6 3d 41 5f 6c be 1a f3 5b be ec 17 5a 3a
       0.08891221 -0.23083211 -0.21479455 0.00083196047
0000f0 32 1d 9e 3d 04 80 06 be ed 8f b4 bd 2b b3 6b be
       0.07720412 -0.13134772 -0.08816514 -0.23017566
000100 cf 25 00 bd 2e 00 a2 bb 75 9d 81 bd 41 68 50 3e
       -0.031286057 -0.004943869 -0.06328861 0.2035227
000110 b3 92 2d 3e 96 42 08 be 4c d2 47 be c1 fb 85 3d
       0.16950493 -0.1330665 -0.19513816 0.06542159
000120 c5 98 ce bc 58 88 51 3c 93 3e af 3c 28 c4 d9 3d
       -0.02521933 0.012788855 0.021392142 0.10633117
000130 55 8a fd bd 28 2d 92 bd 0a 7d 38 bd 96 57 c7 bd
       -0.123799 -0.07137519 -0.04504112 -0.097335026
000140 da 61 78 bc c4 85 be 3d fb 3f 1e be 73 37 41 3c
       -0.015160048 0.093028575 -0.15454094 0.011793005
000150 fc 9c 40 3e 98 35 c2 3d 36 8f 83 bd 91 89 26 3e
       0.18809885 0.094828784 -0.064238 0.16263415
000160 c3 31 f9 3d d0 e6 46 be f2 8a 3c 3e 69 f7 d9 bb
       0.121676944 -0.19423985 0.18412378 -0.006651808
000170 cc 46 a2 bd 4a 8a 82 bd 81 89 fc bb 77 5b 36 bd
       -0.0792366 -0.06374033 -0.0077068214 -0.04452082
000180 05 6e f4 3d 70 99 53 3d 06 6a 48 bd c8 c5 e3 bc
       0.11935047 0.05166 -0.048929237 -0.02780427
000190 b2 a7 54 be 4e e3 d0 3d 62 1a be 3d 34 e1 7d 3d
       -0.20767096 0.10199605 0.09282376 0.06198235
0001a0 83 f8 36 be d9 e9 ce bc 47 20 60 3b 19 cc d4 3d
       -0.17868237 -0.025257992 0.0034198926 0.10390491
0001b0 04 87 cc 3d d2 ae 43 3e 54 6f 6f bd a0 91 23 3c
       0.0998669 0.19109657 -0.05845578 0.00998345
0001c0 11 1f 11 bd 77 7d 41 be b2 7d 03 3e 8b 7d 01 be
       -0.035430018 -0.18895517 0.12840918 -0.12645547
0001d0 de bc f4 3d 53 c1 19 bd 31 70 d2 bd 07 31 95 3d
       0.11950086 -0.037537884 -0.10275305 0.07284742

sequential.2.Lambda.weight f4 [120, 80]
000000 bf 1b d5 bd 5e e1 5a 3c 57 42 e3 3d 90 94 59 be
       -0.10405683 0.013359396 0.11096638 -0.21248078
000010 4b 7e 94 3d fb 82 28 be 89 fd 91 3c d5 a0 c9 bd
       0.07250651 -0.16456215 0.01782109 -0.098451294
000020 7e d5 5b 3e 69 6e 3d be d9 44 45 3d a0 32 94 be
       0.2146816 -0.1849915 0.04816136 -0.28944874
000030 52 c9 90 3d 9d e2 74 be fc 4e 55 be b1 98 40 3e
       0.07069649 -0.23914571 -0.20830911 0.18808247
000040 3b 97 c6 bd 05 06 15 3e c9 79 69 3e ef 4d 73 be
       -0.09696814 0.14553078 0.22800364 -0.23760198
000050 78 70 4c 3e 9e 3c 11 be 40 2a 42 3e 0b e7 e1 3c
       0.19964778 -0.1418328 0.1896143 0.02757599
000060 d2 a7 37 bd 38 55 80 be 4d 29 c4 bd cf e3 c2 be
       -0.04483778 -0.25065017 -0.0957819 -0.3806443
000070 4a bb b9 bd b3 20 9c 3e 15 66 21 3e 36 73 b2 be
       -0.09068926 0.30493698 0.15761597 -0.34853524
000080 d6 32 b9 3e 27 70 70 bc 53 7d 03 3e 88 d8 6f be
       0.36171597 -0.014675177 0.12840776 -0.23422444
000090 1a bb 84 be 45 0d f7 3c ab 59 2c 3c 11 37 5d bd
       -0.25923997 0.030157695 0.010519425 -0.054007594
0000a0 41 38 6a be bd 66 39 bd f2 9f 34 bd 5a d9 9f be
       -0.22873022 -0.045263994 -0.04409785 -0.31220514
0000b0 0e a7 9e be 68 12 8a 3d 1f d7 c4 3d a4 60 5f be
       -0.30986828 0.06741792 0.096113436 -0.21814209
0000c0 71 f2 8c 3e 62 f2 dd 3d ef 9d d1 3e 73 79 52 bd
       0.27528718 0.108372465 0.40940806 -0.051385354
0000d0 90 cf 60 3e 5b da db 3d 84 70 20 be 3e 98 e9 bc
       0.21954179 0.107350074 -0.15667921 -0.028514978
0000e0 8f 89 9c be b4 b1 a4 bd ea 61 05 be 8e 14 1e 3e
       -0.305737 -0.08041707 -0.13025633 0.15437528
0000f0 03 41 a2 3e 6e ee 13 3e 95 79 ed bb cf fc c8 3d
       0.31690225 0.14446422 -0.0072471597 0.098138444
000100 48 10 ab bd 8b 4c 44 3e c5 f0 f8 3d 21 cc b3 3c
       -0.08352715 0.19169824 0.12155298 0.021947922
000110 c0 a4 ea 3d 42 13 97 3e de 74 37 bd fb d1 c5 3d
       0.11457205 0.2950688 -0.044789188 0.09659191
000120 68 4a 0a be fa 33 1f be f8 a3 8d bd b3 10 cd bd
       -0.13504946 -0.15547171 -0.0691604 -0.10012951
000130 2c a7 df be 90 c1 a0 3c cd 51 5c be 47 86 ad 3e
       -0.4368223 0.019623548 -0.2151558 0.33891508
000140 25 e1 9a 3e d0 5d 3f be 8c 99 a1 3e 12 c7 4a 3d
       0.30249897 -0.1868813 0.3156246 0.049506254
000150 5a a7 34 3c db 8d fa 3c fc a0 7f 3d 20 59 0c bd
       0.011026228 0.03058522 0.062409386 -0.034264684
000160 34 fc 06 3e 06 d2 8b 3e 00 dc 52 bc 18 89 7c 3d
       0.13182145 0.27308673 -0.012869835 0.06165418
000170 d0 d2 d9 3c c4 f8 55 3e 61 75 89 3e 37 92 7c 3d
       0.026589781 0.20895678 0.26847365 0.06166288
000180 47 08 b2 be 39 e0 a6 be d1 57 1b bd fa f0 56 3e
       -0.3477194 -0.32592943 -0.037925545 0.20990363
000190 c9 2d 86 3e d3 14 f8 bc 6b 6d 87 bd bc 5b 94 3e
       0.26206806 -0.030283367 -0.06612667 0.28976238
0001a0 cd d7 29 be b3 76 3d be 14 f9 bc bb 2e e7 19 be
       -0.16586228 -0.18502311 -0.005766997 -0.15029594
0001b0 ed 17 14 3d f3 f4 61 be 7b 6b 98 bd 00 56 b9 3d
       0.03615563 -0.22066097 -0.07442375 0.09049606
0001c0 f8 f7 af 3e 4b bb 01 bd 59 67 bb be 14 23 91 bd
       0.34368873 -0.031672757 -0.36602286 -0.07086769
0001d0 59 78 87 3e dc 8b bd 3d 07 fd 09 be b9 d1 84 be
       0.26459005 0.09255192 -0.13475429 -0.25941256
0001e0 a5 eb 83 3c 56 81 01 bf bc 54 8d bc ba 9a 70 be
       0.016103575 -0.50587976 -0.017252319 -0.23496523
0001f0 ef 1e fb bc 47 c6 c0 3e 1d 0b 13 bc ef 12 b5 3d
       -0.030654399 0.37651274 -0.008974818 0.08841502
000200 fc 0c 4a 3e fb d7 83 bb eb 3d 58 be a8 b6 cf 3d
       0.19731516 -0.0040235496 -0.2111737 0.10142261
000210 33 dd 6e bd bb e3 cf bc ff eb 19 bc c2 f9 44 3e
       -0.05831642 -0.025377145 -0.009394645 0.192359
000220 4c eb 84 bd 6b 31 48 3d 70 ed 34 3e c6 9a ec bd
       -0.06490192 0.048875254 0.176687 -0.11552958
000230 f0 41 0a bd ca 2b af 3e d6 8d e9 3d 31 f4 08 bd
       -0.03375429 0.34213096 0.11404006 -0.033436004
000240 80 86 0c be 3a d3 3c be a8 47 ce be 5e fb 78 3e
       -0.13723183 -0.18439952 -0.40289044 0.24314639
000250 a2 85 95 3b c1 a7 59 bd de e6 b3 bd 72 62 89 be
       0.0045630494 -0.0531385 -0.08784269 -0.2683292
000260 61 84 c1 bd 7d 25 96 3d c0 98 ac 3d ee 87 32 3d
       -0.094490774 0.07331369 0.08427572 0.043586664
000270 15 0a 22 3e 76 81 b2 bd 4f 35 2c 3e af 24 37 be
       0.15824158 -0.08716099 0.1681721 -0.17885087
000280 89 f0 52 3e 91 9a e6 3d 6c dd 6b be d0 dc e4 bd
       0.2059957 0.1125995 -0.23033684 -0.11174929
000290 0d a8 ee bd 13 fe 9c 3d 89 0e 84 3e 20 af 27 3e
       -0.11653147 0.07665648 0.2579234 0.16375399
0002a0 8a de 45 be d7 41 e4 3d 7b 24 df 3e 50 7c d2 3b
       -0.19323173 0.111453705 0.4358252 0.0064235106
0002b0 a4 e4 4a 3e 7b 1e c5 3d 06 b8 1d be ca 89 6e 3e
       0.19813782 0.09624954 -0.1540223 0.2329475
0002c0 93 07 be bd f6 8b 9c 3e ce 82 08 be 8e c1 ab 3d
       -0.092787884 0.30575532 -0.13331148 0.08386527
0002d0 1e 59 a1 3d af 19 14 bc 05 51 5f 3e b9 51 f8 bd
       0.07878326 -0.009039327 0.2180825 -0.12124962
0002e0 2f b4 73 3e cf 6c 4d 3c ae 96 59 bd c9 fb 98 3d
       0.23799203 0.012538149 -0.053122215 0.07469899
0002f0 1b 9e 5c be 2c 1e bf 3d 79 be 66 be 47 63 4c 3e
       -0.21544687 0.09331927 -0.22533597 0.19959746
000300 de 51 d6 3e f1 fa 8f 3e d6 84 bf 3d 8e a6 bc 3d
       0.41859335 0.2812114 0.09351508 0.09211455
000310 93 d7 f5 3d 3c 59 41 3e a8 70 18 3e ee 95 09 be
       0.12004008 0.18881696 0.14886725 -0.134361
000320 f0 d9 45 3d fc 88 09 be 34 73 8c bd 0d 76 b9 bc
       0.048303545 -0.13431162 -0.06857911 -0.022639299
000330 6f 90 89 3d a0 53 b3 bd 71 bc 4f bd c1 9d ae be
       0.06717002 -0.087561846 -0.05071682 -0.34104732
000340 49 3d 98 3e 0f 77 fb bd a9 95 d7 bd 80 b5 a8 3d
       0.29734257 -0.12278568 -0.10526592 0.082377434
000350 c9 bd 71 be bc 4c 52 be 23 8a cd be fa ac 9b 3e
       -0.23607554 -0.20537084 -0.40144452 0.30405408
000360 6c 50 93 3d 2d 33 50 3e 84 12 2b be fd 6a 42 3d
       0.07193074 0.20332022 -0.16706282 0.047465313
000370 3d bf 98 3d a2 04 15 be c9 0c 45 be bd 98 5a 3d
       0.07458351 -0.14552549 -0.19243158 0.05336832
000380 4b f6 5f 3e fe d0 df 3d 0c 16 43 be eb b7 ae 3c
       0.21871297 0.10928534 -0.19051379 0.021327933
000390 f5 a5 93 be aa ed 77 be f8 27 52 be 89 5d 22 3d
       -0.28837553 -0.24211755 -0.2052306 0.039639983
0003a0 27 ef 05 be 14 57 84 be ec aa 92 be ea c5 ae 3d
       -0.1307951 -0.25847685 -0.28646028 0.08533843
0003b0 6c 87 16 3e c2 22 59 3d f9 c3 00 be dd 25 b4 bd
       0.14700097 0.053011663 -0.12574758 -0.08796284
0003c0 b9 66 eb bd 11 6e 17 be 8b 68 b2 bc 30 99 a4 bc
       -0.11494202 -0.14788081 -0.021778366 -0.020092577
0003d0 ec 0c a1 be 2c 75 87 bd 78 f5 6a bd 95 78 e0 bd
       -0.3145517 -0.06614146 -0.057363003 -0.10960499
0003e0 7a dd c5 3c de 39 f7 bd 24 a8 26 bd 12 07 25 be
       0.02415346 -0.12071584 -0.040687695 -0.16115978
0003f0 ac 08 31 3e 8a e3 5a 3d 39 6c 44 be 94 a1 07 be
       0.17288464 0.053439654 -0.19181909 -0.13245231

sequential.2.Lambda.bias f4 [120]
000000 f1 e2 42 bd c7 1b a9 bd 52 95 ae bc 3b 5f cf 3d
       -0.04757971 -0.08257251 -0.021311436 0.10125586
000010 53 98 1c bc df 00 4f be e5 23 2e 3e 2d 71 cb bb
       -0.009557801 -0.20215176 0.1700588 -0.00620856
000020 e2 53 8b bd 0f a3 02 3e a2 4a 0c be ad 33 29 be
       -0.06803109 0.12757514 -0.13700345 -0.16523619
000030 39 93 2c 3d b6 d9 37 be 38 df 90 bc a2 6e d0 bd
       0.04213259 -0.17954144 -0.017684564 -0.101773515
000040 f5 c2 01 3c ef 25 e1 3c 5b 77 8f 3d 36 bd ab bd
       0.007920017 0.027483908 0.07005187 -0.083856985
000050 66 f8 23 be 3b fe 46 3c f4 b7 f4 bd 37 0c 92 bd
       -0.16012725 0.012145574 -0.11949149 -0.07131236
000060 a4 7b 46 3e 79 6e 1d bc f2 03 9b 3d d2 82 a7 3b
       0.19383103 -0.009608858 0.07569112 0.0051120305
000070 d5 f4 19 3d 03 21 5a bd 5b d2 ee 3d 27 7d 28 bd
       0.037587006 -0.05325414 0.11661216 -0.04113498
000080 8e d6 5d 3c 21 cd 8a 3d 0e 40 18 3e 58 83 8b 3d
       0.013539923 0.067774065 0.14868185 0.06812161
000090 f8 46 25 bc b9 f0 9b 3d 03 d4 9a be f6 8b 76 3d
       -0.010087721 0.076142736 -0.30239877 0.06019207
0000a0 26 97 4b 3e 69 fe 71 3c a5 5f e5 bc ac 64 1b 3e
       0.19881877 0.014770129 -0.027999708 0.15175122
0000b0 f2 ce 05 3d ce f9 b3 bd 7f 0d 13 bd 2f ad 19 3e
       0.03266806 -0.08787881 -0.035901543 0.1500747
0000c0 95 ee 3a be 9a d6 15 3e 10 63 69 3d 26 99 7b 3d
       -0.18255074 0.14632645 0.05697924 0.06142535
0000d0 e1 1a c3 bd e1 47 e2 3c 42 33 13 be 80 13 26 3e
       -0.09526611 0.027622165 -0.14375022 0.16218376
0000e0 9b 17 b6 3d 41 5f 6c be 1a f3 5b be ec 17 5a 3a
       0.08891221 -0.23083211 -0.21479455 0.00083196047
0000f0 32 1d 9e 3d 04 80 06 be ed 8f b4 bd 2b b3 6b be
       0.07720412 -0.13134772 -0.08816514 -0.23017566
000100 cf 25 00 bd 2e 00 a2 bb 75 9d 81 bd 41 68 50 3e
       -0.031286057 -0.004943869 -0.06328861 0.2035227
000110 b3 92 2d 3e 96 42 08 be 4c d2 47 be c1 fb 85 3d
       0.16950493 -0.1330665 -0.19513816 0.06542159
000120 c5 98 ce bc 58 88 51 3c 93 3e af 3c 28 c4 d9 3d
       -0.02521933 0.012788855 0.021392142 0.10633117
000130 55 8a fd bd 28 2d 92 bd 0a 7d 38 bd 96 57 c7 bd
       -0.123799 -0.07137519 -0.04504112 -0.097335026
000140 da 61 78 bc c4 85 be 3d fb 3f 1e be 73 37 41 3c
       -0.015160048 0.093028575 -0.15454094 0.011793005
000150 fc 9c 40 3e 98 35 c2 3d 36 8f 83 bd 91 89 26 3e
       0.18809885 0.094828784 -0.064238 0.16263415
000160 c3 31 f9 3d d0 e6 46 be f2 8a 3c 3e 69 f7 d9 bb
       0.121676944 -0.19423985 0.18412378 -0.006651808
000170 cc 46 a2 bd 4a 8a 82 bd 81 89 fc bb 77 5b 36 bd
       -0.0792366 -0.06374033 -0.0077068214 -0.04452082
000180 05 6e f4 3d 70 99 53 3d 06 6a 48 bd c8 c5 e3 bc
       0.11935047 0.05166 -0.048929237 -0.02780427
000190 b2 a7 54 be 4e e3 d0 3d 62 1a be 3d 34 e1 7d 3d
       -0.20767096 0.10199605 0.09282376 0.06198235
0001a0 83 f8 36 be d9 e9 ce bc 47 20 60 3b 19 cc d4 3d
       -0.17868237 -0.025257992 0.0034198926 0.10390491
0001b0 04 87 cc 3d d2 ae 43 3e 54 6f 6f bd a0 91 23 3c
       0.0998669 0.19109657 -0.05845578 0.00998345
0001c0 11 1f 11 bd 77 7d 41 be b2 7d 03 3e 8b 7d 01 be
       -0.035430018 -0.18895517 0.12840918 -0.12645547
0001d0 de bc f4 3d 53 c1 19 bd 31 70 d2 bd 07 31 95 3d
       0.11950086 -0.037537884 -0.10275305 0.07284742

sequential.2.bn.running_mean f4 [120]
000000 00 00 00 00 00 00 00 00 00 00 00 00 00 00 00 00
       0.0 0.0 0.0 0.0
000010 00 00 00 00 00 00 00 00 00 00 00 00 00 00 00 00
       0.0 0.0 0.0 0.0
000020 00 00 00 00 00 00 00 00 00 00 00 00 00 00 00 00
       0.0 0.0 0.0 0.0
000030 00 00 00 00 00 00 00 00 00 00 00 00 00 00 00 00
       0.0 0.0 0.0 0.0
000040 00 00 00 00 00 00 00 00 00 00 00 00 00 00 00 00
       0.0 0.0 0.0 0.0
000050 00 00 00 00 00 00 00 00 00 00 00 00 00 00 00 00
       0.0 0.0 0.0 0.0
000060 00 00 00 00 00 00 00 00 00 00 00 00 00 00 00 00
       0.0 0.0 0.0 0.0
000070 00 00 00 00 00 00 00 00 00 00 00 00 00 00 00 00
       0.0 0.0 0.0 0.0
000080 00 00 00 00 00 00 00 00 00 00 00 00 00 00 00 00
       0.0 0.0 0.0 0.0
000090 00 00 00 00 00 00 00 00 00 00 00 00 00 00 00 00
       0.0 0.0 0.0 0.0
0000a0 00 00 00 00 00 00 00 00 00 00 00 00 00 00 00 00
       0.0 0.0 0.0 0.0
0000b0 00 00 00 00 00 00 00 00 00 00 00 00 00 00 00 00
       0.0 0.0 0.0 0.0
0000c0 00 00 00 00 00 00 00 00 00 00 00 00 00 00 00 00
       0.0 0.0 0.0 0.0
0000d0 00 00 00 00 00 00 00 00 00 00 00 00 00 00 00 00
       0.0 0.0 0.0 0.0
0000e0 00 00 00 00 00 00 00 00 00 00 00 00 00 00 00 00
       0.0 0.0 0.0 0.0
0000f0 00 00 00 00 00 00 00 00 00 00 00 00 00 00 00 00
       0.0 0.0 0.0 0.0
000100 00 00 00 00 00 00 00 00 00 00 00 00 00 00 00 00
       0.0 0.0 0.0 0.0
000110 00 00 00 00 00 00 00 00 00 00 00 00 00 00 00 00
       0.0 0.0 0.0 0.0
000120 00 00 00 00 00 00 00 00 00 00 00 00 00 00 00 00
       0.0 0.0 0.0 0.0
000130 00 00 00 00 00 00 00 00 00 00 00 00 00 00 00 00
       0.0 0.0 0.0 0.0
000140 00 00 00 00 00 00 00 00 00 00 00 00 00 00 00 00
       0.0 0.0 0.0 0.0
000150 00 00 00 00 00 00 00 00 00 00 00 00 00 00 00 00
       0.0 0.0 0.0 0.0
000160 00 00 00 00 00 00 00 00 00 00 00 00 00 00 00 00
       0.0 0.0 0.0 0.0
000170 00 00 00 00 00 00 00 00 00 00 00 00 00 00 00 00
       0.0 0.0 0.0 0.0
000180 00 00 00 00 00 00 00 00 00 00 00 00 00 00 00 00
       0.0 0.0 0.0 0.0
000190 00 00 00 00 00 00 00 00 00 00 00 00 00 00 00 00
       0.0 0.0 0.0 0.0
0001a0 00 00 00 00 00 00 00 00 00 00 00 00 00 00 00 00
       0.0 0.0 0.0 0.0
0001b0 00 00 00 00 00 00 00 00 00 00 00 00 00 00 00 00
       0.0 0.0 0.0 0.0
0001c0 00 00 00 00 00 00 00 00 00 00 00 00 00 00 00 00
       0.0 0.0 0.0 0.0
0001d0 00 00 00 00 00 00 00 00 00 00 00 00 00 00 00 00
       0.0 0.0 0.0 0.0

sequential.2.bn.running_var f4 [120]
000000 00 00 80 3f 00 00 80 3f 00 00 80 3f 00 00 80 3f
       1.0 1.0 1.0 1.0
000010 00 00 80 3f 00 00 80 3f 00 00 80 3f 00 00 80 3f
       1.0 1.0 1.0 1.0
000020 00 00 80 3f 00 00 80 3f 00 00 80 3f 00 00 80 3f
       1.0 1.0 1.0 1.0
000030 00 00 80 3f 00 00 80 3f 00 00 80 3f 00 00 80 3f
       1.0 1.0 1.0 1.0
000040 00 00 80 3f 00 00 80 3f 00 00 80 3f 00 00 80 3f
       1.0 1.0 1.0 1.0
000050 00 00 80 3f 00 00 80 3f 00 00 80 3f 00 00 80 3f
       1.0 1.0 1.0 1.0
000060 00 00 80 3f 00 00 80 3f 00 00 80 3f 00 00 80 3f
       1.0 1.0 1.0 1.0
000070 00 00 80 3f 00 00 80 3f 00 00 80 3f 00 00 80 3f
       1.0 1.0 1.0 1.0
000080 00 00 80 3f 00 00 80 3f 00 00 80 3f 00 00 80 3f
       1.0 1.0 1.0 1.0
000090 00 00 80 3f 00 00 80 3f 00 00 80 3f 00 00 80 3f
       1.0 1.0 1.0 1.0
0000a0 00 00 80 3f 00 00 80 3f 00 00 80 3f 00 00 80 3f
       1.0 1.0 1.0 1.0
0000b0 00 00 80 3f 00 00 80 3f 00 00 80 3f 00 00 80 3f
       1.0 1.0 1.0 1.0
0000c0 00 00 80 3f 00 00 80 3f 00 00 80 3f 00 00 80 3f
       1.0 1.0 1.0 1.0
0000d0 00 00 80 3f 00 00 80 3f 00 00 80 3f 00 00 80 3f
       1.0 1.0 1.0 1.0
0000e0 00 00 80 3f 00 00 80 3f 00 00 80 3f 00 00 80 3f
       1.0 1.0 1.0 1.0
0000f0 00 00 80 3f 00 00 80 3f 00 00 80 3f 00 00 80 3f
       1.0 1.0 1.0 1.0
000100 00 00 80 3f 00 00 80 3f 00 00 80 3f 00 00 80 3f
       1.0 1.0 1.0 1.0
000110 00 00 80 3f 00 00 80 3f 00 00 80 3f 00 00 80 3f
       1.0 1.0 1.0 1.0
000120 00 00 80 3f 00 00 80 3f 00 00 80 3f 00 00 80 3f
       1.0 1.0 1.0 1.0
000130 00 00 80 3f 00 00 80 3f 00 00 80 3f 00 00 80 3f
       1.0 1.0 1.0 1.0
000140 00 00 80 3f 00 00 80 3f 00 00 80 3f 00 00 80 3f
       1.0 1.0 1.0 1.0
000150 00 00 80 3f 00 00 80 3f 00 00 80 3f 00 00 80 3f
       1.0 1.0 1.0 1.0
000160 00 00 80 3f 00 00 80 3f 00 00 80 3f 00 00 80 3f
       1.0 1.0 1.0 1.0
000170 00 00 80 3f 00 00 80 3f 00 00 80 3f 00 00 80 3f
       1.0 1.0 1.0 1.0
000180 00 00 80 3f 00 00 80 3f 00 00 80 3f 00 00 80 3f
       1.0 1.0 1.0 1.0
000190 00 00 80 3f 00 00 80 3f 00 00 80 3f 00 00 80 3f
       1.0 1.0 1.0 1.0
0001a0 00 00 80 3f 00 00 80 3f 00 00 80 3f 00 00 80 3f
       1.0 1.0 1.0 1.0
0001b0 00 00 80 3f 00 00 80 3f 00 00 80 3f 00 00 80 3f
       1.0 1.0 1.0 1.0
0001c0 00 00 80 3f 00 00 80 3f 00 00 80 3f 00 00 80 3f
       1.0 1.0 1.0 1.0
0001d0 00 00 80 3f 00 00 80 3f 00 00 80 3f 00 00 80 3f
       1.0 1.0 1.0 1.0
