Models/Z_25GeV_100.pth (torch, 197858 bytes, 36 tensors)

sequential.0.Gamma.weight f4 [80, 5]
0.9394653 1.8756016 -0.28903794 -2.2026522 0.5696285 0.088701315 0.6241848 -0.5609314
0.21590081 0.9291252 0.8048393 -0.35215515 -0.08654243 0.66323924 0.14027694 0.62704754
0.6329647 0.6520313 1.0325454 0.6007954 -0.41615134 -0.40675595 0.29706025 1.346088
-0.8435066 -0.72513986 0.6859302 -0.44576475 -0.7858546 0.18936402 -0.0878708 -0.37104228
0.83108234 -0.21475887 0.3162785 -0.02784045 0.028601145 0.13340648 1.110305 0.018196763
0.340759 0.3711247 0.01122732 1.3334634 -0.2375145 -0.23117383 0.05316201 0.52139705
0.57050884 0.13105656 0.28616822 0.86435395 0.10377081 -0.5407554 -0.65641916 -0.34999835
0.40159005 0.18438305 -0.58814764 0.03688464 1.4629533 -0.63834196 0.53665364 -1.551699
0.545204 -0.16574118 0.5992127 0.11006732 0.042641714 0.06313285 0.30765995 0.34815568
0.93987703 -0.7627693 0.34723607 -0.719667 -0.49943554 0.48766387 2.0167603 -0.99153537
0.70652914 0.16206694 0.15801273 0.56495905 -0.86538255 0.22873703 0.31204197 -0.23299734
-0.7162499 0.56394017 0.29887286 0.06864365 -0.73139423 -0.22340876 0.05746585 0.08182548
0.038918097 0.24732374 -0.59572417 -0.69631994 0.29300395 0.7187217 -0.023263954 -0.2709975
-1.7950495 0.17816253 0.4131069 -0.22931924 0.83714396 -1.3551457 -0.21313815 -0.08712586
0.45460033 0.7513504 0.134134 0.8014343 -1.1721054 0.07195311 -0.59200424 -0.54292303
-0.14356673 0.99637365 -0.35449195 0.7523102 0.48436975 -0.7067142 0.056632947 -0.015167158
0.23720968 -0.011253456 -0.03967129 -0.52620804 0.8279812 0.43923143 -0.34037313 0.29270563
-1.241993 -0.50322366 0.077991486 -1.7058253 -0.43200463 -0.15637752 0.68559986 -0.010596407
0.19829479 -0.06007446 0.0939041 -0.26823866 0.5994342 -0.25230795 -0.11805652 -1.0790738
-0.4694929 0.987987 0.07931311 -0.17699678 0.99023736 0.5672357 1.778691 -1.1332523
-0.6726337 -0.09245696 -0.45259383 -0.047407817 0.2049189 -0.5524731 -0.70072156 0.20465381
2.3140583 -0.3467627 0.7672897 0.44125512 -0.7668643 0.14385535 1.7683424 0.78497005
0.40669134 -0.22126071 1.4554079 -0.3555462 -0.5285784 -0.2791706 -0.46212402 0.16181882
0.98658115 -0.85666853 0.3977849 -0.018509602 1.2342713 0.12705417 -0.4801008 -0.04498095
-1.305667 -0.35972235 -0.7763951 0.05157596 -0.33010593 -0.09656727 -0.50662607 0.1437785
-0.1405178 -0.15174207 -0.21657005 0.17683779 0.27101362 0.21541518 0.5041543 -0.79882133
1.2854949 0.26183233 0.10235906 0.07238341 0.22072712 1.4015797 0.6673531 0.92032725
1.2348241 0.48013183 1.8893591 0.44448403 1.0972337 -1.1321354 0.043926515 0.95370626
-0.35769323 -0.6223689 0.7556922 -0.71961987 -1.0542345 -0.28545436 -0.1818797 0.6536194
-0.06012892 -0.303656 0.05813232 -0.23262915 -0.13956149 -0.29738525 -1.1385626 1.7086276
-0.090695955 2.721415 0.0015035089 0.16961868 -0.45979822 -0.41064322 0.13180664 0.61462736
2.7024279 0.10569944 0.38071078 0.6811208 -0.11903467 -1.6214737 -0.6090009 0.032721274
00000000: cc80 703f b713 f03f c8fc 93be 41f8 0cc0
00000010: 2cd3 113f 09a9 b53d 93ca 1f3f 3399 0fbf
00000020: 1a15 5d3e 26db 6d3f f309 4e3f ae4d b4be
00000030: 283d b1bd 0cca 293f c2a4 0f3e 3086 203f
00000040: f909 223f 86eb 263f 732a 843f bacd 193f
00000050: ca11 d5be 5142 d0be 4818 983e 9d4c ac3f
00000060: 0cf0 57bf c4a2 39bf 1f99 2f3f 473b e4be
00000070: c42d 49bf a4e8 413e 9bf5 b3bd 41f9 bdbe
00000080: d0c1 543f c0e9 5bbe 41ef a13e a811 e4bc
00000090: f34c ea3c b59b 083e 791e 8e3f 6111 953c
000000a0: f777 ae3e 0f04 be3e cbf2 373c eeae aa3f
000000b0: 0037 73be d5b8 6cbe 68c0 593d 477a 053f
000000c0: de0c 123f b133 063e a484 923e 4d46 5d3f
000000d0: ca85 d43d f26e 0abf 160b 28bf fc32 b3be
000000e0: 369d cd3e e9ce 3c3e d890 16bf 5914 173d
000000f0: 0e42 bb3f 616a 23bf 2262 093f 139e c6bf
00000100: 7d92 0b3f 0eb8 29be 0166 193f fa6a e13d
00000110: 14a9 2e3d cc4b 813d 9b85 9d3e 7641 b23e
00000120: c89b 703f d944 43bf edc8 b13e 193c 38bf
00000130: 04b6 ffbe 14af f93e 9a12 0140 43d5 7dbf
00000140: 18df 343f e0f4 253e 17ce 213e 28a1 103f
00000150: b689 5dbf 0a3a 6a3e f7c3 9f3e db96 6ebe
00000160: 275c 37bf 625e 103f dd05 993e 0b95 8c3d
00000170: a73c 3bbf 44c5 64be 5061 6b3d 1e94 a73d
00000180: 9568 1f3d 6f42 7d3e 6181 18bf 0642 32bf
00000190: 9d04 963e 25fe 373f 0c94 bebc 2fc0 8abe
000001a0: 2fc4 e5bf 3d70 363e bf82 d33e aad2 6abe
000001b0: 114f 563f 6a75 adbf e340 5abe 0b6f b2bd
000001c0: 60c1 e83e 8058 403f 6c5a 093e cc2a 4d3f
000001d0: 8d07 96bf 275c 933d 978d 17bf 01fd 0abf
000001e0: 2803 13be 5812 7f3f f87f b5be 6797 403f
000001f0: 50ff f73e 39eb 34bf f3f7 673d ac7f 78bc
00000200: 18e7 723e 6a60 38bc 5d7e 22bd 92b5 06bf
00000210: 93f6 533f f1e2 e03e 6345 aebe 83dd 953e
00000220: a0f9 9ebf 44d3 00bf 00ba 9f3d 7c58 dabf
00000230: b62f ddbe 6e21 20be 7983 2f3f 8d9c 2dbc
00000240: ca0d 4b3e a310 76bd cb50 c03d 9456 89be
00000250: 8574 193f 822e 81be 9ec7 f1bd 171f 8abf
00000260: 6061 f0be b7ec 7c3f e96e a23d a53e 35be
00000270: 3280 7d3f 5c36 113f 26ac e33f 690e 91bf
00000280: b931 2cbf 135a bdbd 61ba e7be b32e 42bd
00000290: 43d6 513e e16e 0dbf 7d62 33bf c590 513e
000002a0: 8819 1440 e18a b1be 196d 443f 31ec e13e
000002b0: 3851 44bf d14e 133e 0b59 e23f ccf3 483f
000002c0: d939 d03e 2b92 62be ce4a ba3f 270a b6be
000002d0: ea50 07bf 73ef 8ebe 859b ecbe d5b3 253e
000002e0: 9590 7c3f a14e 5bbf 76aa cb3e 73a1 97bc
000002f0: 9afc 9d3f 7d1a 023e c6cf f5be f23d 38bd
00000300: 1920 a7bf 872d b8be d4c1 46bf 5041 533d
00000310: a503 a9be 10c5 c5bd 3fb2 01bf ac3a 133e
00000320: e6e3 0fbe 4662 1bbe 8ac4 5dbe f714 353e
00000330: 4cc2 8a3e cc95 5c3e 4210 013f 8e7f 4cbf
00000340: 198b a43f e30e 863e a0a1 d13d c13d 943d
00000350: 4a06 623e f766 b33f a7d7 2a3f 919a 6b3f
00000360: b70e 9e3f d7d3 f53e 85d6 f13f 6993 e33e
00000370: 2772 8c3f d0e9 90bf 4aec 333d 1826 743f
00000380: 9123 b7be 9153 1fbf 0b75 413f 0239 38bf
00000390: 28f1 86bf 1327 92be ac3e 3abe 9a53 273f
000003a0: be49 76bd cd78 9bbe 281c 6e3d 5636 6ebe
000003b0: 35e9 0ebe e142 98be 6bbc 91bf 4fb4 da3f
000003c0: cdbe b9bd aa2b 2e40 6311 c53a 85b0 2d3e
000003d0: ac6a ebbe d43f d2be 52f8 063e 3858 1d3f
000003e0: 94f4 2c40 f378 d83d 86ec c23e ef5d 2e3f
000003f0: 73c8 f3bd 738c cfbf 7ce7 1bbf be06 063d

sequential.0.Gamma.bias f4 [80]
0.06505815 -0.26482344 0.21744497 -0.6749457 -0.24632515 0.124163345 0.20211865 0.026988836
-0.049031164 -0.56775236 0.57917243 -0.047955103 0.14431266 -0.005771563 -0.11304471 -0.15650468
-0.27744454 0.09157866 -0.01052978 0.212059 0.18031788 -0.6478582 -0.2704541 -0.39751154
-0.08338651 -0.32197437 -0.30272254 0.049298488 0.0004757225 -0.35731807 -0.21641634 -0.29851732
-0.14600268 -0.46213868 -0.06293621 -0.34884393 -0.4847681 -0.26405352 0.06250705 0.23714079
0.23968652 -0.32656017 -0.16390097 -0.022144848 -0.15223865 0.20543356 -0.05350071 -0.19361229
-0.19819628 -0.36571798 0.45460352 -0.81756735 -0.6338746 -0.45550743 -0.009381716 -0.1794181
-0.11329026 -0.34079045 -0.1628872 -0.35684618 0.4366379 0.17085089 -0.123539396 0.025964696
0.37061077 -0.22117925 -0.34587032 -0.21603468 -0.20964384 -0.094797835 -0.10966774 -0.49315277
0.013791074 0.2720531 -0.027317652 0.16513458 0.24882478 -0.6774094 -0.2756251 -0.4474767
00000000: 353d 853d f096 87be e5a9 5e3e 3ec9 2cbf
00000010: a93c 7cbe 5a49 fe3d 31f8 4e3e b117 dd3c
00000020: e7d4 48bd 3858 11bf a544 143f 926c 44bd
00000030: b3c6 133e 611f bdbb fc83 e7bd c342 20be
00000040: 360d 8ebe 988d bb3d 1985 2cbc ff25 593e
00000050: 40a5 383e 09da 25bf f678 8abe a286 cbbe
00000060: 8cc6 aabd d3d9 a4be 73fe 9abe 36ed 493d
00000070: 656a f939 65f2 b6be 3f9c 5dbe 43d7 98be
00000080: ba81 15be 719d ecbe b3e4 80bd ac9b b2be
00000090: 8633 f8be 0632 87be b203 803d 09d5 723e
000000a0: 6270 753e e532 a7be a8d5 27be 1d69 b5bc
000000b0: 73e4 1bbe 2d5d 523e 8f23 5bbd 4d42 46be
000000c0: f7f3 4abe 633f bbbe cbc1 e83e 184c 51bf
000000d0: 9b45 22bf 4538 e9be c5b5 19bc 61b9 37be
000000e0: b904 e8bd 167c aebe e7cb 26be 8bb4 b6be
000000f0: 018f df3e 89f3 2e3e 3902 fdbd eab3 d43c
00000100: b2c0 bd3e d07c 62be ea15 b1be 3238 5dbe
00000110: e0ac 56be 5e25 c2bd 7b99 e0bd 857e fcbe
00000120: f5f3 613c 8b4a 8b3e 45c9 dfbc 0a19 293e
00000130: eccb 7e3e b46a 2dbf bc1e 8dbe ab1b e5be

sequential.0.Lambda.weight f4 [80, 5]
-0.036884166 -0.018487759 -0.0135597605 -0.05414446 -0.13912423 -0.11844581 -0.46219653 -0.12334003
0.3338759 -0.38341212 -0.13527168 0.26737952 1.4959517 0.051011547 0.08908484 -1.0689254
-0.30235833 0.13357873 -0.25801584 0.29391643 0.281021 0.8429783 0.7871429 -1.4844642
-0.06731124 -0.15195097 1.3386114 -0.060052082 1.4645871 -0.0024741276 0.4429743 0.1000452
-0.5119494 0.3177942 -0.18437044 0.6244718 0.61823475 1.4402186 0.7573227 0.56783026
-0.29666784 0.30957237 0.14567325 0.025968496 -1.1379383 0.21633664 -0.036049895 -0.5936082
-0.55876863 -0.008424875 0.29781634 0.0071606142 0.124917276 -0.22057894 -0.4528561 -0.26407853
-0.26286507 -0.55379665 0.8207231 0.49632397 0.0499136 -0.004497776 0.038726 0.44790328
-0.20900495 -0.0013051706 -0.5996905 0.2078801 -0.53753 0.19986413 -0.054595143 -0.54091364
-0.10517247 0.0692124 -0.72934234 -0.051555432 -0.1845586 -0.05806998 0.09434708 0.21857435
-0.5861925 -0.02506695 -0.2977359 -0.95435536 1.0668237 -0.08322271 1.7370876 -0.06557237
1.2162584 -0.8314166 -0.17750336 0.054215085 0.84039265 0.79175806 -1.2058483 -0.024677258
-0.05306913 0.4084298 -0.30505836 -0.612361 0.84198004 -0.06307092 0.055183653 0.16902204
-0.38821483 0.27478334 0.18001352 0.1765206 -0.10056027 -0.75396997 0.029835492 0.29639563
-0.049753662 -0.74398875 1.5352839 1.7575401 0.69145906 1.6787546 -0.1363795 -0.16615358
0.97512573 0.36580512 -0.7702474 -0.09581642 -0.27897513 0.13685553 -0.19149591 0.3094915
-0.22836097 0.35765433 -0.14973603 0.2662562 1.0806594 0.5259605 1.1546344 0.4324278
1.1877552 0.83686745 0.4658783 -0.9109575 -0.010166719 0.39889345 -0.36744 0.9125084
-0.23256664 0.04918257 0.08693616 0.5917866 -1.405474 0.33034036 -0.5426702 0.074326545
-0.409348 -0.1014669 0.4389928 0.4656967 0.6097336 -0.6100806 0.8715482 -0.82933766
-0.5539664 0.41367683 0.60947734 0.5347816 0.23724125 -0.20826888 0.3759968 -0.113420896
-0.02297174 -0.5783828 0.12706067 0.1640561 0.028712325 0.56159884 0.30871594 -0.2909514
-0.11747158 0.068451665 -0.23038346 0.26262137 -0.6541303 0.05226731 0.0036515193 0.040515903
-0.34130114 0.30796048 0.34141412 -0.0724955 0.42008606 -0.25769392 -0.13285363 0.031853072
-0.34479386 0.92597306 0.5606674 -0.37416148 -0.9255672 0.20054111 0.583761 0.36100453
1.3591443 0.09004375 -0.11852243 1.0407587 -0.7161404 0.32449088 -0.03614972 0.10790704
0.10347166 0.4148674 -0.323944 -0.09099702 -0.094569825 0.04477173 0.11261087 0.1135122
-0.14241965 -0.015100237 -0.067918606 -0.04846787 -5.716896e-05 -0.06721654 -0.18059996 -0.6037661
0.7645087 -0.14713973 1.0962981 -0.02949555 0.75038224 1.7084097 0.04026963 -0.32567212
-0.27013525 -0.15757452 0.17821933 -0.22009079 -0.06933804 -0.7862003 0.573996 0.119279146
0.021584956 0.01835009 -0.016767722 0.0058573917 0.06486192 0.23021322 -0.5187632 -0.44339514
-0.38062632 0.27791762 0.4277225 -0.43487105 -0.16651864 -0.22690201 0.7019768 -0.39861733
00000000: da13 17bd a473 97bc c229 5ebc 95c6 5dbd
00000010: 9576 0ebe b893 f2bd 06a5 ecbe b399 fcbd
00000020: c8f1 aa3e 984e c4be a984 0abe f8e5 883e
00000030: 587b bf3f 7cf1 503d 1d72 b63d 8cd2 88bf
00000040: b6ce 9abe ddc8 083e a71a 84be 377c 963e
00000050: fce1 8f3e 6dcd 573f 3282 493f ec02 bebf
00000060: 7ada 89bd 0999 1bbe 9e57 ab3f 2cf9 75bd
00000070: 9777 bb3f f924 22bb 87cd e23e 7fe4 cc3d
00000080: 1e0f 03bf ecb5 a23e 9bcb 3cbe 62dd 1f3f
00000090: a244 1e3f 1559 b83f e7df 413f 535d 113f
000000a0: d9e4 97be 4580 9e3e 5e2b 153e e2bb d43c
000000b0: f6a7 91bf 5a87 5d3e 0ea9 13bd b5f6 17bf
000000c0: 760b 0fbf 7d08 0abc 627b 983e 96a3 ea3b
000000d0: a1d4 ff3d 72df 61be c1dc e7be 4d35 87be
000000e0: 4096 86be 9ec5 0dbf e91a 523f 2d1e fe3e
000000f0: 3472 4c3d 1462 93bb 279f 1e3d 9453 e53e
00000100: 6505 56be 4212 abba 5185 19bf 85de 543e
00000110: 919b 09bf 2fa9 4c3e 289f 5fbd 5179 0abf
00000120: aa64 d7bd 3bbf 8d3d 2eb6 3abf ca2b 53bd
00000130: eefc 3cbe cada 6dbd 0b39 c13d f4d1 5f3e
00000140: b610 16bf 3459 cdbc d770 98be a250 74bf
00000150: ae8d 883f ab70 aabd e358 de3f cf4a 86bd
00000160: 5bae 9b3f b8d7 54bf 71c3 35be a310 5e3d
00000170: f923 573f a8b0 4a3f 3d59 9abf f627 cabc
00000180: 045f 59bd b61d d13e 9c30 9cbe b1c3 1cbf
00000190: 018c 573f 542b 81bd 4108 623d 1d14 2d3e
000001a0: 18c4 c6be 67b0 8c3e 7755 383e d1c1 343e
000001b0: 8bf2 cdbd 2d04 41bf 9069 f43c 2bc1 973e
000001c0: 7fca 4bbd 0c76 3ebf 2f84 c43f 13f7 e03f
000001d0: 7603 313f 6ee1 d63f 11a7 0bbe 2a24 2abe
000001e0: d7a1 793f cf4a bb3e ef2e 45bf 663b c4bd
000001f0: d4d5 8ebe db23 0c3e 8117 44be ab75 9e3e
00000200: 75d7 69be 781e b73e 6754 19be bc52 883e
00000210: 0c53 8a3f 59a5 063f 0fcb 933f 2d67 dd3e
00000220: 5d08 983f f23c 563f 9a87 ee3e 8334 69bf
00000230: 4f92 26bc c33b cc3e 1821 bcbe 279a 693f
00000240: f325 6ebe aa73 493d 960b b23d 547f 173f
00000250: 92e6 b3bf 5f22 a93e 6fec 0abf 8438 983d
00000260: 1096 d1be e1cd cfbd aac3 e03e cc6f ee3e
00000270: 8017 1c3f 3e2e 1cbf c81d 5f3f 794f 54bf
00000280: bed0 0dbf 73cd d33e b506 1c3f 72e7 083f
00000290: 5fef 723e 7044 55be a782 c03e 3749 e8bd
000002a0: 3b2f bcbc e510 14bf 311c 023e 53fe 273e
000002b0: 1c36 eb3c f1c4 0f3f 0410 9e3e 95f7 94be
000002c0: f194 f0bd 6330 8c3d a4e9 6bbe 4f76 863e
000002d0: 1575 27bf 3f16 563d 544e 6f3b 01f4 253d
000002e0: 06bf aebe ffac 9d3e d5cd ae3e 8578 94bd
000002f0: 8515 d73e 75f0 83be c80a 08be 5e78 023d
00000300: d288 b0be 920c 6d3f e687 0f3f 1892 bfbe
00000310: f9f1 6cbf a65a 4d3e 5c71 153f 96d5 b83e
00000320: 71f8 ad3f dc68 b83d e3bb f2bd 9537 853f
00000330: fa54 37bf ab23 a63e bb11 14bd 5efe dc3d
00000340: f3e8 d33d 8069 d43e fddb a5be a55c babd
00000350: d3ad c1bd 9062 373d 87a0 e63d 1679 e83d
00000360: 75d6 11be fc66 77bc e918 8bbd 3f86 46bd
00000370: b4c8 6fb8 d3a8 89bd 32ef 38be 6a90 1abf
00000380: d8b6 433f ccab 16be 7f53 8c3f a7a0 f1bc
00000390: 0d19 403f 2bad da3f c4f1 243d 7fbe a6be
000003a0: 2b4f 8abe 375b 21be 217f 363e 7b5f 61be
000003b0: 1a01 8ebd 6c44 49bf 67f1 123f a048 f43d
000003c0: efd2 b03c ee52 963c 765c 89bc 5def bf3b
000003d0: 54d6 843d 04bd 6b3e aacd 04bf b004 e3be
000003e0: 74e1 c2be 384b 8e3e 72fe da3e 6ba7 debe
000003f0: dd83 2abe 0059 68be c0b4 333f 9217 ccbe

sequential.0.Lambda.bias f4 [80]
0.06505815 -0.26482344 0.21744497 -0.6749457 -0.24632515 0.124163345 0.20211865 0.026988836
-0.049031164 -0.56775236 0.57917243 -0.047955103 0.14431266 -0.005771563 -0.11304471 -0.15650468
-0.27744454 0.09157866 -0.01052978 0.212059 0.18031788 -0.6478582 -0.2704541 -0.39751154
-0.08338651 -0.32197437 -0.30272254 0.049298488 0.0004757225 -0.35731807 -0.21641634 -0.29851732
-0.14600268 -0.46213868 -0.06293621 -0.34884393 -0.4847681 -0.26405352 0.06250705 0.23714079
0.23968652 -0.32656017 -0.16390097 -0.022144848 -0.15223865 0.20543356 -0.05350071 -0.19361229
-0.19819628 -0.36571798 0.45460352 -0.81756735 -0.6338746 -0.45550743 -0.009381716 -0.1794181
-0.11329026 -0.34079045 -0.1628872 -0.35684618 0.4366379 0.17085089 -0.123539396 0.025964696
0.37061077 -0.22117925 -0.34587032 -0.21603468 -0.20964384 -0.094797835 -0.10966774 -0.49315277
0.013791074 0.2720531 -0.027317652 0.16513458 0.24882478 -0.6774094 -0.2756251 -0.4474767
00000000: 353d 853d f096 87be e5a9 5e3e 3ec9 2cbf
00000010: a93c 7cbe 5a49 fe3d 31f8 4e3e b117 dd3c
00000020: e7d4 48bd 3858 11bf a544 143f 926c 44bd
00000030: b3c6 133e 611f bdbb fc83 e7bd c342 20be
00000040: 360d 8ebe 988d bb3d 1985 2cbc ff25 593e
00000050: 40a5 383e 09da 25bf f678 8abe a286 cbbe
00000060: 8cc6 aabd d3d9 a4be 73fe 9abe 36ed 493d
00000070: 656a f939 65f2 b6be 3f9c 5dbe 43d7 98be
00000080: ba81 15be 719d ecbe b3e4 80bd ac9b b2be
00000090: 8633 f8be 0632 87be b203 803d 09d5 723e
000000a0: 6270 753e e532 a7be a8d5 27be 1d69 b5bc
000000b0: 73e4 1bbe 2d5d 523e 8f23 5bbd 4d42 46be
000000c0: f7f3 4abe 633f bbbe cbc1 e83e 184c 51bf
000000d0: 9b45 22bf 4538 e9be c5b5 19bc 61b9 37be
000000e0: b904 e8bd 167c aebe e7cb 26be 8bb4 b6be
000000f0: 018f df3e 89f3 2e3e 3902 fdbd eab3 d43c
00000100: b2c0 bd3e d07c 62be ea15 b1be 3238 5dbe
00000110: e0ac 56be 5e25 c2bd 7b99 e0bd 857e fcbe
00000120: f5f3 613c 8b4a 8b3e 45c9 dfbc 0a19 293e
00000130: eccb 7e3e b46a 2dbf bc1e 8dbe ab1b e5be

sequential.0.bn.running_mean f4 [80]
0.0 0.0 0.0 0.0 0.0 0.0 0.0 0.0
0.0 0.0 0.0 0.0 0.0 0.0 0.0 0.0
0.0 0.0 0.0 0.0 0.0 0.0 0.0 0.0
0.0 0.0 0.0 0.0 0.0 0.0 0.0 0.0
0.0 0.0 0.0 0.0 0.0 0.0 0.0 0.0
0.0 0.0 0.0 0.0 0.0 0.0 0.0 0.0
0.0 0.0 0.0 0.0 0.0 0.0 0.0 0.0
0.0 0.0 0.0 0.0 0.0 0.0 0.0 0.0
0.0 0.0 0.0 0.0 0.0 0.0 0.0 0.0
0.0 0.0 0.0 0.0 0.0 0.0 0.0 0.0
00000000: 0000 0000 0000 0000 0000 0000 0000 0000
00000010: 0000 0000 0000 0000 0000 0000 0000 0000
00000020: 0000 0000 0000 0000 0000 0000 0000 0000
00000030: 0000 0000 0000 0000 0000 0000 0000 0000
00000040: 0000 0000 0000 0000 0000 0000 0000 0000
00000050: 0000 0000 0000 0000 0000 0000 0000 0000
00000060: 0000 0000 0000 0000 0000 0000 0000 0000
00000070: 0000 0000 0000 0000 0000 0000 0000 0000
00000080: 0000 0000 0000 0000 0000 0000 0000 0000
00000090: 0000 0000 0000 0000 0000 0000 0000 0000
000000a0: 0000 0000 0000 0000 0000 0000 0000 0000
000000b0: 0000 0000 0000 0000 0000 0000 0000 0000
000000c0: 0000 0000 0000 0000 0000 0000 0000 0000
000000d0: 0000 0000 0000 0000 0000 0000 0000 0000
000000e0: 0000 0000 0000 0000 0000 0000 0000 0000
000000f0: 0000 0000 0000 0000 0000 0000 0000 0000
00000100: 0000 0000 0000 0000 0000 0000 0000 0000
00000110: 0000 0000 0000 0000 0000 0000 0000 0000
00000120: 0000 0000 0000 0000 0000 0000 0000 0000
00000130: 0000 0000 0000 0000 0000 0000 0000 0000

sequential.0.bn.running_var f4 [80]
1.0 1.0 1.0 1.0 1.0 1.0 1.0 1.0
1.0 1.0 1.0 1.0 1.0 1.0 1.0 1.0
1.0 1.0 1.0 1.0 1.0 1.0 1.0 1.0
1.0 1.0 1.0 1.0 1.0 1.0 1.0 1.0
1.0 1.0 1.0 1.0 1.0 1.0 1.0 1.0
1.0 1.0 1.0 1.0 1.0 1.0 1.0 1.0
1.0 1.0 1.0 1.0 1.0 1.0 1.0 1.0
1.0 1.0 1.0 1.0 1.0 1.0 1.0 1.0
1.0 1.0 1.0 1.0 1.0 1.0 1.0 1.0
1.0 1.0 1.0 1.0 1.0 1.0 1.0 1.0
00000000: 0000 803f 0000 803f 0000 803f 0000 803f
00000010: 0000 803f 0000 803f 0000 803f 0000 803f
00000020: 0000 803f 0000 803f 0000 803f 0000 803f
00000030: 0000 803f 0000 803f 0000 803f 0000 803f
00000040: 0000 803f 0000 803f 0000 803f 0000 803f
00000050: 0000 803f 0000 803f 0000 803f 0000 803f
00000060: 0000 803f 0000 803f 0000 803f 0000 803f
00000070: 0000 803f 0000 803f 0000 803f 0000 803f
00000080: 0000 803f 0000 803f 0000 803f 0000 803f
00000090: 0000 803f 0000 803f 0000 803f 0000 803f
000000a0: 0000 803f 0000 803f 0000 803f 0000 803f
000000b0: 0000 803f 0000 803f 0000 803f 0000 803f
000000c0: 0000 803f 0000 803f 0000 803f 0000 803f
000000d0: 0000 803f 0000 803f 0000 803f 0000 803f
000000e0: 0000 803f 0000 803f 0000 803f 0000 803f
000000f0: 0000 803f 0000 803f 0000 803f 0000 803f
00000100: 0000 803f 0000 803f 0000 803f 0000 803f
00000110: 0000 803f 0000 803f 0000 803f 0000 803f
00000120: 0000 803f 0000 803f 0000 803f 0000 803f
00000130: 0000 803f 0000 803f 0000 803f 0000 803f

sequential.2.Gamma.weight f4 [120, 80]
0.10401325 -0.009571818 -0.83000404 -0.32380414 0.3476581 -0.591633 -0.111923985 -0.07363828
-0.06885731 -0.29436648 0.26742956 -0.08902011 -0.31519908 -0.45569658 -0.1707463 -0.14905247
-0.14871965 -0.5299325 -0.26903468 -0.08289396 0.32155848 -0.23227838 -0.08549267 -0.15409599
-0.016132543 1.1717122 -0.13358489 -0.29405436 -0.09104538 -0.58341956 -0.29907915 -0.114081636
0.6540686 -0.68610996 -1.2401131 -0.4214861 -0.04050649 0.11067601 0.060311902 0.38976744
0.18859331 -0.3066684 -0.023940766 0.13151947 -0.3367315 -0.0093859 -0.18797185 0.3284106
0.49460277 -0.3499411 -0.090508945 -0.42755988 0.013789432 0.04763705 -0.25942618 0.14461438
-0.09605206 -0.1292674 -0.19437538 -0.46099168 0.6550418 0.15682746 -0.39519957 0.1205587
0.6202801 0.123588316 -0.7041182 -0.26728538 -0.1530905 0.026107455 0.11229655 -0.5444427
-0.48949853 0.19382879 -0.11990577 -0.50228345 -0.35285375 -0.23930033 1.1005344 0.04379481
-0.2987479 -0.2082235 -0.33711743 -0.26296568 -0.005789892 0.064486034 -0.24294004 -0.46030807
-0.09041801 -0.22748548 0.29443616 -0.23926218 -1.0658722 -0.18829526 -0.32697743 0.39662066
-0.030817645 0.4638121 0.23643708 0.116617806 -0.0038203849 -0.09854971 -0.33551472 -0.005015437
0.0023657815 0.6376649 0.14379495 -0.21584103 -0.03808592 0.23546086 0.07096819 0.055839937
0.34694874 0.28667977 0.14242008 0.22706173 -0.6320993 0.16354634 0.17506862 0.27481145
0.1214393 -0.44804227 0.067031704 0.35508907 0.01943746 0.20323926 -0.11177967 0.10395783
-1.3718835 0.24417779 0.33333224 -0.27345356 -0.17116936 0.37858304 -0.0034048364 0.062254783
0.30663183 -0.03151674 0.20843071 0.45106784 -0.5608636 0.27501824 -0.13578011 -0.14325573
-0.7474997 0.24365123 -0.35381225 -0.34554613 -0.46687555 -0.29794592 0.15148857 -0.2840585
-0.8367778 -0.012676477 0.23228836 -0.29551345 0.41114405 -0.067256555 -0.003588151 0.20615208
-1.0169407 -0.26722795 -0.047273785 -0.03531096 -0.38899893 0.11683696 0.16984889 0.099490024
0.014171651 -0.32956746 0.1319234 0.30991492 -1.1233319 0.013755932 -0.02716218 0.20178835
-0.26338017 -0.2653301 0.2203506 -0.33405045 -0.30993623 -0.21767594 -1.0352172 0.46085587
-0.46063456 -0.38584566 -0.07741318 -0.008685689 -0.6112535 0.08652574 -0.04532044 -0.2635284
-0.22574997 -0.5311775 -2.649168 -0.43962458 -0.0069999457 -0.6405615 -0.061533157 0.25152022
-0.0030240295 0.6512885 -0.24336544 -0.33283484 -1.2949874 0.090699166 -0.13563587 0.10012168
-0.59039515 -0.41216728 0.21186677 -0.368034 -0.09524091 -0.24988654 -0.34489465 -0.6150383
0.31060812 -0.10118081 -0.12039153 0.6937846 0.28265324 -0.5966829 -0.22797655 -0.029630827
0.15354523 -1.6679714 -0.10007736 -0.3343008 -0.7628464 -0.022858335 0.08267878 -0.30414104
-0.17740247 -0.15395993 0.22566393 -0.97566223 -1.3813864 -1.0881171 -0.17563489 -0.8134692
-0.5807614 -0.3036266 0.08042119 -0.38937405 0.1791735 0.6378555 0.26802546 -0.012234089
0.3804266 -0.17019333 -0.78350735 -0.24876727 -0.4941145 -0.40958026 -0.02631527 -0.92001176
00000000: e604 d53d 1dd3 1cbc 257b 54bf a8c9 a5be
00000010: 3e00 b23e 4375 17bf 6738 e5bd abcf 96bd
00000020: 1005 8dbd 34b7 96be 87ec 883e 2d50 b6bd
00000030: c661 a1be 1051 e9be 1ed8 2ebe 36a1 18be
00000040: f749 18be a8a9 07bf eabe 89be 4fc4 a9bd
00000050: 50a3 a43e 62da 6dbe c816 afbd 57cb 1dbe
00000060: 6528 84bc aafa 953f 7aca 08be 4b8e 96be
00000070: 0076 babd fc5a 15bf e720 99be a2a3 e9bd
00000080: 0a71 273f e7a4 2fbf 07bc 9ebf 07cd d7be
00000090: 22ea 25bd 1baa e23d 9d09 773d 998f c73e
000000a0: 9b1e 413e a403 9dbe 6d1f c4bc 0aad 063e
000000b0: 1268 acbe 51c7 19bc b17b 40be 6f25 a83e
000000c0: 933c fd3e 7b2b b3be c15c b9bd 21e9 dabe
000000d0: 12ed 613c 111f 433d 82d3 84be cb15 143e
000000e0: f1b6 c4bd ac5e 04be 570a 47be 1a07 ecbe
000000f0: d2b0 273f 6197 203e 9957 cabe 7be7 f63d
00000100: adca 1e3f df1b fd3d 1741 34bf a1d9 88be
00000110: c2c3 1cbe 4ddf d53c bcfb e53d 9960 0bbf
00000120: 8d9f fabe 0e7b 463e 2891 f5bd a695 00bf
00000130: 3fa9 b4be 250b 75be 50de 8c3f 3062 333d
00000140: 7cf5 98be 8b38 55be a89a acbe 70a3 86be
00000150: 22b9 bdbb 4111 843d 46c5 78be 80ad ebbe
00000160: 142d b9bd f4f1 68be 56c0 963e 2501 75be
00000170: 806e 88bf 79d0 40be 9669 a7be dd11 cb3e
00000180: 4975 fcbc c878 ed3e 901c 723e 51d5 ee3d
00000190: 6c5f 7abb 6ed4 c9bd 96c8 abbe 8958 a4bb
000001a0: 3a0b 1b3b 023e 233f fc3e 133e 6e05 5dbe
000001b0: fbff 1bbd a71c 713e c557 913d 6bb8 643d
000001c0: 44a3 b13e b1c7 923e 92d6 113e df82 683e
000001d0: 42d1 21bf b178 273e 3045 333e 16b4 8c3e
000001e0: 2bb5 f83d cc65 e5be eb47 893d 3cce b53e
000001f0: 4f3b 9f3c f41d 503e bdec e4bd d8e7 d43d
00000200: e199 afbf be09 7a3e 86aa aa3e 1b02 8cbe
00000210: 0547 2fbe a3d5 c13e ad23 5fbb dffe 7e3d
00000220: d9fe 9c3e b217 01bd dc6e 553e 5df2 e63e
00000230: c294 0fbf 31cf 8c3e f109 0bbe a1b1 12be
00000240: 245c 3fbf b57f 793e e126 b5be 6ceb b0be
00000250: 500a efbe 5e8c 98be d21f 1b3e 1e70 91be
00000260: 1237 56bf 00b1 4fbc 00dd 6d3e 8a4d 97be
00000270: 7981 d23e cebd 89bd 2f27 6bbb 8819 533e
00000280: 1d2b 82bf 1ad2 88be 28a2 41bd 3aa2 10bd
00000290: de2a c7be 3748 ef3d deec 2d3e 6dc1 cb3d
000002a0: 3630 683c 11bd a8be ee16 073e 2bad 9e3e
000002b0: 57c9 8fbf 9060 613c 3883 debc 9ba1 4e3e
000002c0: c4d9 86be 59d9 87be 96a3 613e a908 abbe
000002d0: f6af 9ebe 71e6 5ebe ff81 84bf 4df5 eb3e
000002e0: 4bd8 ebbe 908d c5be cd8a 9ebd 6c4e 0ebc
000002f0: 1c7b 1cbf 6834 b13d eda1 39bd 32ed 86be
00000300: 002b 67be 40fb 07bf f88b 29c0 7916 e1be
00000310: cd5f e5bb d7fb 23bf 310a 7cbd 42c7 803e
00000320: cc2e 46bb d8ba 263f ca34 79be 5469 aabe
00000330: 26c2 a5bf 7cc0 b93d 21e4 0abe 980c cd3d
00000340: 2324 17bf 9707 d3be 9af3 583e f46e bcbe
00000350: ab0d c3bd 42e2 7fbe 0896 b0be 2673 1dbf
00000360: 0708 9f3e e237 cfbd d68f f6bd de9b 313f
00000370: edb7 903e 36c0 18bf af72 69be 59bc f2bc
00000380: f63a 1d3e 1680 d5bf 5cf5 ccbd 7929 abbe
00000390: e749 43bf 6741 bbbc 7e53 a93d 60b8 9bbe
000003a0: fea8 35be aca7 1dbe 7214 673e 00c5 79bf
000003b0: 45d1 b0bf 6c47 8bbf a2d9 33be 843f 50bf
000003c0: c7ac 14bf f274 9bbe ddb3 a43d 095c c7be
000003d0: 4279 373e 804a 233f a23a 893e 7d71 48bc
000003e0: 46c7 c23e 2947 2ebe f093 48bf d9bc 7ebe
000003f0: 93fc fcbe 81b4 d1be 1f93 d7bc e485 6bbf

sequential.2.Gamma.bias f4 [120]
0.11797014 -0.26627463 -0.22925396 -0.032380845 0.037815638 -0.11113247 -0.22038229 0.016697636
-0.33272138 -0.24126805 -0.014451036 -0.13014767 0.0843026 -0.06608328 0.025294865 -0.21363305
-0.14009757 -0.0036889594 -0.27886918 -0.3301294 -0.09332105 -0.09339437 -0.026796822 -0.13315551
-0.05926339 -0.24906681 -0.05445247 0.048297465 -0.006121988 0.20313439 -0.116456024 -0.07190567
0.009547129 -0.18169445 0.32439622 -0.07890385 -0.28569376 -0.24061012 -0.13122542 0.04227284
0.00370673 0.020553531 -0.030437578 -0.11048494 -0.29272863 0.050178856 -0.33231074 -0.12094993
-0.15737624 -0.16043878 -0.11169709 -0.038286347 -0.09636715 -0.2528022 -0.2432314 0.044475913
-0.13291931 -0.092959866 -0.17298773 -0.095713355 0.28451794 -0.0769279 -0.1790501 0.045515988
-0.29155356 -0.13902652 -0.20368391 -0.11486258 -0.14386058 -0.048117485 0.4952118 -0.2516949
-0.07378277 -0.22290608 -0.04937077 -0.11767809 0.13360871 0.0398931 -0.10966442 -0.37622374
-0.4114142 0.27232578 0.14026885 -0.042503353 -0.33714277 -0.16267227 0.063032724 -0.023522839
0.00019483281 -0.022876767 -0.13768171 0.018657247 -0.015477998 0.11343916 0.03653126 -0.01274765
-0.07294678 -0.24141346 -0.13274583 -0.03717634 0.2829737 -0.14164843 -0.049018223 -0.059923008
-0.12605244 -0.0017927873 0.2038646 0.079049125 -0.20477948 -0.11112211 -0.03389514 -0.16878153
-0.065649495 -0.34097555 -0.3575725 -0.19037908 -0.04427483 -0.24280916 0.09530723 -0.093630336
00000000: 549a f13d 2655 88be 8dc1 6abe c7a1 04bd
00000010: 92e4 1a3d 6c99 e3bd e5ab 61be 7bc9 883c
00000020: 755a aabe f90e 77be 0ac4 6cbc 6e45 05be
00000030: d7a6 ac3d ac56 87bd 2d37 cf3c 9fc2 5abe
00000040: bd75 0fbe 78c2 71bb f1c7 8ebe b906 a9be
00000050: 1b1f bfbd 8c45 bfbd 0285 dbbc eb59 08be
00000060: 2bbe 72bd 5f0b 7fbe 8e09 5fbd 90d3 453d
00000070: f59a c8bb 7602 503e 7f80 eebd 4843 93bd
00000080: 906b 1c3c 1c0e 3abe 4317 a63e 5798 a1bd
00000090: 7446 92be 8062 76be f55f 06be 4926 2d3d
000000a0: 9cec 723b e15f a83c 3a58 f9bc ee45 e2bd
000000b0: 87e0 95be 5888 4d3d a224 aabe 99b4 f7bd
000000c0: 3d27 21be 104a 24be 72c1 e4bd 25d2 1cbd
000000d0: 245c c5bd 4a6f 81be a711 79be 602c 363d
000000e0: 001c 08be be61 bebd b223 31be 5d05 c4bd
000000f0: 56ac 913e 608c 9dbd e958 37be f96e 3a3d
00000100: 8246 95be f85c 0ebe 8492 50be 133d ebbd
00000110: 3050 13be d716 45bd 678c fd3e 27de 80be
00000120: 6c1b 97bd 7e41 64be 0139 4abd 3601 f1bd
00000130: b9d0 083e f266 233d bd97 e0bd 66a0 c0be
00000140: e2a4 d2be 496e 8b3e a3a2 0f3e ff17 2ebd
00000150: fa9d acbe 8f93 26be 4d17 813d f8b2 c0bc
00000160: 094c 4c39 0f68 bbbc 6ffc 0cbe 15d7 983c
00000170: 6e97 7dbc ca52 e83d cda1 153d 85db 50bc
00000180: 1f65 95bd 1735 77be 86ee 07be 3846 18bd
00000190: eee1 903e 490c 11be 55c7 48bd d471 75bd
000001a0: e413 01be f6fb eaba e2c1 503e 82e4 a13d
000001b0: b6b1 51be fd93 e3bd a1d5 0abd 11d5 2cbe
000001c0: 3e73 86bd 5994 aebe be13 b7be bcf2 42be
000001d0: 8659 35bd f7a2 78be 7030 c33d 43c1 bfbd

sequential.2.Lambda.weight f4 [120, 80]
0.037730172 -0.008956983 -0.45450786 -0.19649541 0.42066374 -0.2828169 -0.060338773 0.18343979
-0.118686 -0.3570267 0.14058301 -0.31505033 -0.2447291 -0.34614953 0.27931356 0.42030516
0.019607438 -0.79284817 -0.12366155 -0.26944378 -0.2275317 -0.077713676 0.2817814 0.07162928
0.0067789513 0.33172953 -0.34881836 -0.12607308 -0.20812888 -0.22897449 0.14077345 0.08569246
0.24675526 0.19829789 -0.51081437 0.33603913 0.096199155 0.4614662 -0.39010566 0.34397084
0.0041595255 -0.1380817 0.2254686 0.3433541 -0.029084977 -0.4013184 0.007114301 0.17402744
0.2659792 0.19220565 0.032176074 -0.17890178 0.14161645 0.4671587 0.119420186 0.10880557
0.00433987 0.0055468464 -0.26304558 -0.23257911 0.1028851 0.09308879 0.16696638 -0.06730519
0.45563945 0.031856462 -0.5862945 -0.10796387 -0.09780785 0.21015865 -0.42149878 -0.030397432
0.14482863 -0.16994949 -0.22557953 -0.054273315 0.14552556 0.086627476 0.6434076 0.44861323
0.000455105 -0.41712412 -0.16209099 -0.25175253 -0.12500507 0.476743 -0.13679956 -0.42580977
-0.09155167 -0.1410856 -0.09117633 -0.21921207 -0.4436294 -0.22533523 -0.062315177 0.14613204
0.018106837 1.31229635e-05 -0.23067 -0.114616655 0.053734683 0.12696192 0.001218457 0.36463657
0.22533794 0.22752997 0.31613886 0.15606205 -0.2707772 -0.05106992 -0.056538492 -0.2586508
0.3020108 -0.18876468 -0.19060324 0.054869883 -0.22765018 -0.058793467 0.16543697 -0.08010079
-0.3121346 -0.014592968 -0.20098051 0.3127897 -0.092956744 0.27134636 -0.043890342 0.19394787
-0.20380755 0.100464016 0.13375196 -0.06257573 0.22061211 0.78128445 0.043063056 0.114959836
-0.061217893 -0.40718272 -0.07395101 0.4918509 0.0067512845 -0.1740584 -0.2857554 0.080210224
-0.09919065 0.14105003 -0.015273816 0.28263453 0.087748535 0.14469165 0.0010248383 -0.45864794
-0.3059669 0.32642868 0.066960275 -0.06817498 -0.029948546 0.12679751 -0.012787506 -0.06264005
-0.02876108 0.19120993 -0.24245861 -0.083906986 0.063621975 -0.2527648 0.40235525 0.4552818
0.42201898 0.45738107 -0.042228736 0.3745039 -0.24356095 0.3133641 0.09283689 0.45503247
0.24114335 -0.056975678 0.12658471 -0.30608374 -0.30967295 -0.040743418 -0.19708402 -0.038988475
0.06027555 0.13028571 0.37247735 0.16837642 0.057809416 0.32204023 0.43319964 -0.08704025
0.18595731 0.10391685 -0.5084776 0.0037964054 0.39424363 0.034245156 0.33039305 0.43342835
0.10589657 0.36405188 -0.0633188 0.070514955 -0.17150848 -0.44880754 0.75548476 0.49182737
0.082595885 0.0075009363 0.18435016 0.16962828 0.24498102 0.103996195 -0.022526538 0.07378026
-0.008005466 -0.10768753 0.18503965 0.8232702 0.04901721 -0.23228541 -0.08436198 0.6285945
0.22695477 -0.29538444 -0.14022778 0.017890675 -0.039242804 0.07476576 0.181948 -0.12319235
0.017178407 -0.17181782 -0.2085163 -0.1132479 -0.5663629 -0.5050152 0.21852647 -0.073499165
0.021672102 0.22408527 0.52446264 -0.09227177 -0.6642127 0.4624353 -0.27677566 0.015326358
0.21111035 -0.1708333 0.057578493 0.07986617 0.08977707 0.12074813 0.1574332 -0.39498454
00000000: f48a 1a3d 4fc0 12bc 41b5 e8be 1836 49be
00000010: 3d61 d73e 60cd 90be ca25 77bd a4d7 3b3e
00000020: a511 f3bd 34cc b6be fef4 0f3e 474e a1be
00000030: 449a 7abe 833a b1be 3002 8f3e 3d32 d73e
00000040: c79f a03c 19f8 4abf 4442 fdbd 89f4 89be
00000050: 12fe 68be 5928 9fbd a745 903e 5fb2 923d
00000060: f721 de3b 74d8 a93e 5298 b2be 4d19 01be
00000070: bd1f 55be 4a78 6abe ea26 103e 877f af3d
00000080: 69ad 7c3e 9a0e 4b3e bbc4 02bf 520d ac3e
00000090: 1004 c53d 4c45 ec3e eebb c7be f21c b03e
000000a0: a14c 883b 4a65 0dbe 3ee1 663e 1ccc af3e
000000b0: 9e43 eebc 9b79 cdbe 151f e93b 4034 323e
000000c0: 6d2e 883e 8fd1 443e 0fcb 033d 0732 37be
000000d0: e703 113e 6d2f ef3e 9292 f43d 74d5 de3d
000000e0: 7835 8e3b 52c2 b53b e9ad 86be 3829 6ebe
000000f0: 6cb5 d23d 56a5 be3d 3cf9 2a3e 4ed7 89bd
00000100: 9349 e93e ec7b 023d 6517 16bf 291c ddbd
00000110: 7b4f c8bd d433 573e b0ce d7be 0904 f9bc
00000120: f54d 143e 3d07 2ebe 52fe 66be b24d 5ebd
00000130: a704 153e bf69 b13d 5cb6 243f a2b0 e53e
00000140: 299b ee39 4b91 d5be 2efb 25be b5e5 80be
00000150: 5401 00be a917 f43e 2f15 0cbe bd03 dabe
00000160: 717f bbbd be78 10be a8ba babd 2179 60be
00000170: 6523 e3be 47be 66be 333e 7fbd a3a3 153e
00000180: ca54 943c b32a 5c37 c234 6cbe 23bc eabd
00000190: e618 5c3d 4e02 023e a2b4 9f3a a5b1 ba3e
000001a0: fdbe 663e 9efd 683e f4dc a13e bbce 1f3e
000001b0: 4fa3 8abe b12e 51bd e894 67bd e16d 84be
000001c0: 29a1 9a3e 874b 41be 7f2d 43be 3ebf 603d
000001d0: 211d 69be 6bd1 70bd 4f68 293e e20b a4bd
000001e0: 1bd0 9fbe 5817 6fbc d6cd 4dbe f925 a03e
000001f0: 1b60 bebd e9ed 8a3e 5cc6 33bd 459a 463e
00000200: edb2 50be 14c0 cd3d 46f6 083e b427 80bd
00000210: 24e8 613e 4202 483f e362 303d 1070 eb3d
00000220: 9dbf 7abd 417a d0be a173 97bd e2d3 fb3e
00000230: e139 dd3b 5d3c 32be 884e 92be 4245 a43d
00000240: 7824 cbbd 6b6f 103e 073f 7abc 79b5 903e
00000250: 81b5 b33d 0c2a 143e de53 863a e7d3 eabe
00000260: b2a7 9cbe a921 a73e 7822 893d 539f 8bbd
00000270: a756 f5bc 35d7 013e b082 51bc 6d49 80bd
00000280: 5b9c ebbc 89cc 433e 1247 78be 6dd7 abbd
00000290: 3d4c 823d 636a 81be 8201 ce3e b21a e93e
000002a0: df12 d83e da2d ea3e 0af8 2cbd fabe bf3e
000002b0: 0b68 79be 4271 a03e 4421 be3d 04fa e83e
000002c0: 48ee 763e 545f 69bd 6c9f 013e 02b7 9cbe
000002d0: 748d 9ebe 92e2 26bd 65d0 49be 61b2 1fbd
000002e0: 7fe3 763d 9e69 053e 5ab5 be3e de6a 2c3e
000002f0: 91c9 6c3d 75e2 a43e 58cc dd3e 2942 b2bd
00000300: 986b 3e3e 5cd2 d43d 972b 02bf 1dcd 783b
00000310: 4dda c93e a644 0c3d 4729 a93e 52ea dd3e
00000320: 4de0 d83d 0265 ba3e 49ad 81bd 256a 903d
00000330: eb9f 2fbe 1aca e5be 7367 413f ccd0 fb3e
00000340: 0828 a93d 6aca f53b 4ac6 3c3e 09b3 2d3e
00000350: 4edc 7a3e f5fb d43d 9389 b8bc 1b1a 973d
00000360: 5c29 03bc 488b dcbd 097b 3d3e d6c1 523f
00000370: 45c6 483d 3adc 6dbe f9c5 acbd 92eb 203f
00000380: d566 683e a13c 97be df97 0fbe 778f 923c
00000390: 10bd 20bd ca1e 993d 9450 3a3e 454c fcbd
000003a0: bbb9 8c3c 03f1 2fbe 4c85 55be 84ee e7bd
000003b0: 29fd 10bf ad48 01bf 67c5 5f3e bb86 96bd
000003c0: b189 b13c 9c76 653e 2f43 063f fbf8 bcbd
000003d0: d809 2abf 52c4 ec3e 8ab5 8dbe 681b 7b3c
000003e0: 502d 583e edee 2ebe 6dd7 6b3d e090 a33d
000003f0: 0add b73d cc4a f73d 2b36 213e 6a3b cabe

sequential.2.Lambda.bias f4 [120]
0.11797014 -0.26627463 -0.22925396 -0.032380845 0.037815638 -0.11113247 -0.22038229 0.016697636
-0.33272138 -0.24126805 -0.014451036 -0.13014767 0.0843026 -0.06608328 0.025294865 -0.21363305
-0.14009757 -0.0036889594 -0.27886918 -0.3301294 -0.09332105 -0.09339437 -0.026796822 -0.13315551
-0.05926339 -0.24906681 -0.05445247 0.048297465 -0.006121988 0.20313439 -0.116456024 -0.07190567
0.009547129 -0.18169445 0.32439622 -0.07890385 -0.28569376 -0.24061012 -0.13122542 0.04227284
0.00370673 0.020553531 -0.030437578 -0.11048494 -0.29272863 0.050178856 -0.33231074 -0.12094993
-0.15737624 -0.16043878 -0.11169709 -0.038286347 -0.09636715 -0.2528022 -0.2432314 0.044475913
-0.13291931 -0.092959866 -0.17298773 -0.095713355 0.28451794 -0.0769279 -0.1790501 0.045515988
-0.29155356 -0.13902652 -0.20368391 -0.11486258 -0.14386058 -0.048117485 0.4952118 -0.2516949
-0.07378277 -0.22290608 -0.04937077 -0.11767809 0.13360871 0.0398931 -0.10966442 -0.37622374
-0.4114142 0.27232578 0.14026885 -0.042503353 -0.33714277 -0.16267227 0.063032724 -0.023522839
0.00019483281 -0.022876767 -0.13768171 0.018657247 -0.015477998 0.11343916 0.03653126 -0.01274765
-0.07294678 -0.24141346 -0.13274583 -0.03717634 0.2829737 -0.14164843 -0.049018223 -0.059923008
-0.12605244 -0.0017927873 0.2038646 0.079049125 -0.20477948 -0.11112211 -0.03389514 -0.16878153
-0.065649495 -0.34097555 -0.3575725 -0.19037908 -0.04427483 -0.24280916 0.09530723 -0.093630336
00000000: 549a f13d 2655 88be 8dc1 6abe c7a1 04bd
00000010: 92e4 1a3d 6c99 e3bd e5ab 61be 7bc9 883c
00000020: 755a aabe f90e 77be 0ac4 6cbc 6e45 05be
00000030: d7a6 ac3d ac56 87bd 2d37 cf3c 9fc2 5abe
00000040: bd75 0fbe 78c2 71bb f1c7 8ebe b906 a9be
00000050: 1b1f bfbd 8c45 bfbd 0285 dbbc eb59 08be
00000060: 2bbe 72bd 5f0b 7fbe 8e09 5fbd 90d3 453d
00000070: f59a c8bb 7602 503e 7f80 eebd 4843 93bd
00000080: 906b 1c3c 1c0e 3abe 4317 a63e 5798 a1bd
00000090: 7446 92be 8062 76be f55f 06be 4926 2d3d
000000a0: 9cec 723b e15f a83c 3a58 f9bc ee45 e2bd
000000b0: 87e0 95be 5888 4d3d a224 aabe 99b4 f7bd
000000c0: 3d27 21be 104a 24be 72c1 e4bd 25d2 1cbd
000000d0: 245c c5bd 4a6f 81be a711 79be 602c 363d
000000e0: 001c 08be be61 bebd b223 31be 5d05 c4bd
000000f0: 56ac 913e 608c 9dbd e958 37be f96e 3a3d
00000100: 8246 95be f85c 0ebe 8492 50be 133d ebbd
00000110: 3050 13be d716 45bd 678c fd3e 27de 80be
00000120: 6c1b 97bd 7e41 64be 0139 4abd 3601 f1bd
00000130: b9d0 083e f266 233d bd97 e0bd 66a0 c0be
00000140: e2a4 d2be 496e 8b3e a3a2 0f3e ff17 2ebd
00000150: fa9d acbe 8f93 26be 4d17 813d f8b2 c0bc
00000160: 094c 4c39 0f68 bbbc 6ffc 0cbe 15d7 983c
00000170: 6e97 7dbc ca52 e83d cda1 153d 85db 50bc
00000180: 1f65 95bd 1735 77be 86ee 07be 3846 18bd
00000190: eee1 903e 490c 11be 55c7 48bd d471 75bd
000001a0: e413 01be f6fb eaba e2c1 503e 82e4 a13d
000001b0: b6b1 51be fd93 e3bd a1d5 0abd 11d5 2cbe
000001c0: 3e73 86bd 5994 aebe be13 b7be bcf2 42be
000001d0: 8659 35bd f7a2 78be 7030 c33d 43c1 bfbd

sequential.2.bn.running_mean f4 [120]
0.0 0.0 0.0 0.0 0.0 0.0 0.0 0.0
0.0 0.0 0.0 0.0 0.0 0.0 0.0 0.0
0.0 0.0 0.0 0.0 0.0 0.0 0.0 0.0
0.0 0.0 0.0 0.0 0.0 0.0 0.0 0.0
0.0 0.0 0.0 0.0 0.0 0.0 0.0 0.0
0.0 0.0 0.0 0.0 0.0 0.0 0.0 0.0
0.0 0.0 0.0 0.0 0.0 0.0 0.0 0.0
0.0 0.0 0.0 0.0 0.0 0.0 0.0 0.0
0.0 0.0 0.0 0.0 0.0 0.0 0.0 0.0
0.0 0.0 0.0 0.0 0.0 0.0 0.0 0.0
0.0 0.0 0.0 0.0 0.0 0.0 0.0 0.0
0.0 0.0 0.0 0.0 0.0 0.0 0.0 0.0
0.0 0.0 0.0 0.0 0.0 0.0 0.0 0.0
0.0 0.0 0.0 0.0 0.0 0.0 0.0 0.0
0.0 0.0 0.0 0.0 0.0 0.0 0.0 0.0
00000000: 0000 0000 0000 0000 0000 0000 0000 0000
00000010: 0000 0000 0000 0000 0000 0000 0000 0000
00000020: 0000 0000 0000 0000 0000 0000 0000 0000
00000030: 0000 0000 0000 0000 0000 0000 0000 0000
00000040: 0000 0000 0000 0000 0000 0000 0000 0000
00000050: 0000 0000 0000 0000 0000 0000 0000 0000
00000060: 0000 0000 0000 0000 0000 0000 0000 0000
00000070: 0000 0000 0000 0000 0000 0000 0000 0000
00000080: 0000 0000 0000 0000 0000 0000 0000 0000
00000090: 0000 0000 0000 0000 0000 0000 0000 0000
000000a0: 0000 0000 0000 0000 0000 0000 0000 0000
000000b0: 0000 0000 0000 0000 0000 0000 0000 0000
000000c0: 0000 0000 0000 0000 0000 0000 0000 0000
000000d0: 0000 0000 0000 0000 0000 0000 0000 0000
000000e0: 0000 0000 0000 0000 0000 0000 0000 0000
000000f0: 0000 0000 0000 0000 0000 0000 0000 0000
00000100: 0000 0000 0000 0000 0000 0000 0000 0000
00000110: 0000 0000 0000 0000 0000 0000 0000 0000
00000120: 0000 0000 0000 0000 0000 0000 0000 0000
00000130: 0000 0000 0000 0000 0000 0000 0000 0000
00000140: 0000 0000 0000 0000 0000 0000 0000 0000
00000150: 0000 0000 0000 0000 0000 0000 0000 0000
00000160: 0000 0000 0000 0000 0000 0000 0000 0000
00000170: 0000 0000 0000 0000 0000 0000 0000 0000
00000180: 0000 0000 0000 0000 0000 0000 0000 0000
00000190: 0000 0000 0000 0000 0000 0000 0000 0000
000001a0: 0000 0000 0000 0000 0000 0000 0000 0000
000001b0: 0000 0000 0000 0000 0000 0000 0000 0000
000001c0: 0000 0000 0000 0000 0000 0000 0000 0000
000001d0: 0000 0000 0000 0000 0000 0000 0000 0000

sequential.2.bn.running_var f4 [120]
1.0 1.0 1.0 1.0 1.0 1.0 1.0 1.0
1.0 1.0 1.0 1.0 1.0 1.0 1.0 1.0
1.0 1.0 1.0 1.0 1.0 1.0 1.0 1.0
1.0 1.0 1.0 1.0 1.0 1.0 1.0 1.0
1.0 1.0 1.0 1.0 1.0 1.0 1.0 1.0
1.0 1.0 1.0 1.0 1.0 1.0 1.0 1.0
1.0 1.0 1.0 1.0 1.0 1.0 1.0 1.0
1.0 1.0 1.0 1.0 1.0 1.0 1.0 1.0
1.0 1.0 1.0 1.0 1.0 1.0 1.0 1.0
1.0 1.0 1.0 1.0 1.0 1.0 1.0 1.0
1.0 1.0 1.0 1.0 1.0 1.0 1.0 1.0
1.0 1.0 1.0 1.0 1.0 1.0 1.0 1.0
1.0 1.0 1.0 1.0 1.0 1.0 1.0 1.0
1.0 1.0 1.0 1.0 1.0 1.0 1.0 1.0
1.0 1.0 1.0 1.0 1.0 1.0 1.0 1.0
00000000: 0000 803f 0000 803f 0000 803f 0000 803f
00000010: 0000 803f 0000 803f 0000 803f 0000 803f
00000020: 0000 803f 0000 803f 0000 803f 0000 803f
00000030: 0000 803f 0000 803f 0000 803f 0000 803f
00000040: 0000 803f 0000 803f 0000 803f 0000 803f
00000050: 0000 803f 0000 803f 0000 803f 0000 803f
00000060: 0000 803f 0000 803f 0000 803f 0000 803f
00000070: 0000 803f 0000 803f 0000 803f 0000 803f
00000080: 0000 803f 0000 803f 0000 803f 0000 803f
00000090: 0000 803f 0000 803f 0000 803f 0000 803f
000000a0: 0000 803f 0000 803f 0000 803f 0000 803f
000000b0: 0000 803f 0000 803f 0000 803f 0000 803f
000000c0: 0000 803f 0000 803f 0000 803f 0000 803f
000000d0: 0000 803f 0000 803f 0000 803f 0000 803f
000000e0: 0000 803f 0000 803f 0000 803f 0000 803f
000000f0: 0000 803f 0000 803f 0000 803f 0000 803f
00000100: 0000 803f 0000 803f 0000 803f 0000 803f
00000110: 0000 803f 0000 803f 0000 803f 0000 803f
00000120: 0000 803f 0000 803f 0000 803f 0000 803f
00000130: 0000 803f 0000 803f 0000 803f 0000 803f
00000140: 0000 803f 0000 803f 0000 803f 0000 803f
00000150: 0000 803f 0000 803f 0000 803f 0000 803f
00000160: 0000 803f 0000 803f 0000 803f 0000 803f
00000170: 0000 803f 0000 803f 0000 803f 0000 803f
00000180: 0000 803f 0000 803f 0000 803f 0000 803f
00000190: 0000 803f 0000 803f 0000 803f 0000 803f
000001a0: 0000 803f 0000 803f 0000 803f 0000 803f
000001b0: 0000 803f 0000 803f 0000 803f 0000 803f
000001c0: 0000 803f 0000 803f 0000 803f 0000 803f
000001d0: 0000 803f 0000 803f 0000 803f 0000 803f

sequential.4.Gamma.weight f4 [70, 120]
0.20682718 -0.56178415 0.34344402 0.13332744 -0.008772575 -0.06761367 -0.44019434 -0.06452557
-0.317097 -0.51210755 -0.37983677 -0.069437854 -0.4643366 0.70472455 0.2752272 -0.067158654
-0.69106925 0.018407408 0.4254959 0.31954128 0.4291979 0.18262699 0.46498096 1.0348128
0.25471115 0.18229306 -0.11696943 -0.14375578 0.32785544 0.43099403 -0.040362265 0.27813008
0.25139317 0.40550113 -0.3959764 -0.07587371 0.12708865 0.34794447 0.29845166 -0.080524854
0.15974455 -0.44776878 0.3643232 -0.72662455 0.20947783 -0.5028511 0.31932542 0.06505456
0.25403747 0.28411293 0.2592638 0.41373676 0.43321648 0.37086907 -0.18566436 0.2418873
-0.5867106 -0.16044058 -0.31831846 -0.34897158 0.3029042 -0.41822246 0.07701215 0.16763705
0.42800188 0.2564773 -0.016817527 0.2738855 -0.21022889 1.0047812 -0.055291824 0.0143502485
-0.13259387 0.36796895 -0.17545615 -0.067544065 0.0389457 -0.09680151 -0.18872786 0.15478136
-0.18053965 -0.16832799 0.54476595 0.5036324 -0.38361815 0.06454309 0.064665645 -0.09117113
0.3850575 0.24175546 0.34742317 -0.09442186 -0.080323726 0.36162263 0.372813 -0.060970843
0.31855074 0.15744276 0.17613314 0.555531 -0.24958532 -0.75122404 -0.2990767 0.13097195
0.29003897 0.015528068 -0.31102008 -0.041228153 0.29836705 0.28831473 0.17727698 0.25267974
0.22882302 0.2738376 0.23522508 0.30648854 -0.021778936 0.28228924 -0.5150095 -0.07203723
-0.14000106 -0.0071800514 -0.2894629 -0.027454033 0.030646902 -0.17654689 0.060380116 -0.2611566
-0.018072395 -0.14290072 0.11181438 -0.04266421 0.10436374 -0.0064384635 0.15691793 -0.013616472
-0.32648474 -0.04426829 -0.14605792 0.15362306 0.12398019 0.033581164 0.025066894 0.032099407
0.25791046 -0.101811714 -0.24041383 0.2399072 -0.19358212 -0.40743208 0.03638648 -0.043925356
0.08277798 0.03869982 -0.28721252 0.10318359 -0.045010284 -0.17124365 -0.0621588 0.001761909
-0.03166803 0.07436597 0.30579814 -0.025885943 -0.09045751 0.06754498 0.14367463 -0.18944845
-0.1752728 0.050298832 -0.16971378 0.03530531 -0.014195286 0.27080217 0.18166111 -0.001321683
0.15129532 0.02251978 0.055105723 -0.15482822 0.06602881 0.016748123 -0.05379003 -0.06577185
0.0531281 0.20572017 0.061529174 -0.163157 0.042706147 0.07523025 -0.0029361304 0.069664665
-0.12248776 0.28354862 -0.21819934 -0.29360175 -0.1713009 -0.13844095 0.16112676 -0.22264417
-0.05165506 0.09385381 -0.2257539 0.09507684 -0.13455588 0.1263957 0.07049994 0.059214916
-0.22537236 -0.15739632 -0.21610071 0.008465996 -0.061457805 -0.05772715 -0.07355205 -0.017656658
0.037548885 -0.07360494 0.013167148 -0.106865354 -0.18459204 -0.16929497 0.14039949 0.2750499
-0.08340309 -0.24201876 -0.086937584 0.01728832 -0.022313252 0.06855144 -0.092477195 0.10234575
0.032068405 0.118308425 0.079218864 0.055570435 -0.1824757 0.07450575 -0.301562 0.17927879
-0.103392325 -0.22717969 -0.03944886 -0.17418349 -0.21690153 0.115944184 0.06848134 0.1309214
0.4555535 0.753518 0.12380069 0.31576785 0.06660232 -0.055899654 -0.17765415 -0.26556686
00000000: 81ca 533e 16d1 0fbf e5d7 af3e fd86 083e
00000010: d9ba 0fbc 0979 8abd 2761 e1be fb25 84bd
00000020: 8a5a a2be 7b19 03bf f779 c2be 6f35 8ebd
00000030: 87bd edbe d468 343f 94ea 8c3e 7a8a 89bd
00000040: eae9 30bf 22cb 963c 99da d93e ea9a a33e
00000050: d4bf db3e 9202 3b3e fc11 ee3e bf74 843f
00000060: 8069 823e 08ab 3a3e ab8d efbd b734 13be
00000070: abdc a73e 40ab dc3e e752 25bd 1167 8e3e
00000080: 9bb6 803e d89d cf3e 6bbd cabe ad63 9bbd
00000090: 8723 023e c725 b23e a8ce 983e 37ea a4bd
000000a0: 1394 233e f341 e5be 9288 ba3e 1104 3abf
000000b0: 5b81 563e daba 00bf 9f7e a33e 533b 853d
000000c0: 3311 823e 4077 913e 3abe 843e 4ed5 d33e
000000d0: 8dce dd3e 8de2 bd3e cc1e 3ebe 4eb1 773e
000000e0: aa32 16bf 894a 24be a3fa a2be 67ac b2be
000000f0: 4216 9b3e 4121 d6be 8cb8 9d3d 0ca9 2b3e
00000100: 1023 db3e fe50 833e e9c4 89bc b83a 8c3e
00000110: 3e46 57be ac9c 803f ae79 62bd 4e1d 6b3c
00000120: b0c6 07be 6d66 bc3e c7aa 33be 8b54 8abd
00000130: 8785 1f3d df3f c6bd e041 41be 017f 1e3e
00000140: 63df 38be 2c5e 2cbe c875 0b3f 0eee 003f
00000150: 9969 c4be 2b2f 843d 6c6f 843d eeb7 babd
00000160: 4226 c53e be8e 773e 73e1 b13e 4060 c1bd
00000170: c480 a4bd 9a26 b93e 58e1 be3e 90bc 79bd
00000180: 1519 a33e ad38 213e 3f5c 343e 4837 0e3f
00000190: 4b93 7fbe 3850 40bf 9520 99be 831d 063e
000001a0: fd7f 943e 7069 7e3c 063e 9fbe dade 28bd
000001b0: 91c3 983e fd9d 933e 1988 353e 3d5f 813e
000001c0: 9550 6a3e 7134 8c3e d8de 703e 11ec 9c3e
000001d0: bd69 b2bc 3788 903e aad7 03bf 4188 93bd
000001e0: 705c 0fbe a346 ebbb 7b34 94be 48e7 e0bc
000001f0: 360f fb3c b5c8 34be 2451 773d 51b6 85be
00000200: 8f0c 94bc 9154 12be f0fe e43d abc0 2ebd
00000210: a8bc d53d bff9 d2bb 18af 203e 9f17 5fbc
00000220: 0229 a7be ab52 35bd 3590 15be 5d4f 1d3e
00000230: 53e9 fd3d 678c 093d 1659 cd3c ab7a 033d
00000240: d70c 843e a982 d0bd 0b2f 76be 3caa 753e
00000250: 643a 46be f09a d0be fd09 153d 13eb 33bd
00000260: 8087 a93d b483 1e3d 850d 93be eb51 d33d
00000270: b45c 38bd 7f5a 2fbe 3a9a 7ebd dbef e63a
00000280: 56b6 01bd 304d 983d 9391 9c3e c20e d4bc
00000290: c941 b9bd 0655 8a3d 711f 133e c6fe 41be
000002a0: b67a 33be 2606 4e3d 73c9 2dbe 4d9c 103d
000002b0: 5893 68bc 95a6 8a3e 5f05 3a3e 533c adba
000002c0: 29ed 1a3e 677b b83c 8ab6 613d 4a8b 1ebe
000002d0: 1d3a 873d 5c33 893c ef52 5cbd 64b3 86bd
000002e0: da9c 593d 4fa8 523e 0406 7c3d a112 27be
000002f0: a4ec 2e3d 5112 9a3d 186c 40bb 59ac 8e3d
00000300: ddda fabd 492d 913e a66f 5fbe f852 96be
00000310: 8169 2fbe 77c3 0dbe 6afe 243e d5fc 63be
00000320: 4294 53bd 6d36 c03d 082c 67be a5b7 c23d
00000330: 04c9 09be e06d 013e 4662 903d 578b 723d
00000340: 03c8 66be 802c 21be 8149 5dbe f6b4 0a3c
00000350: 2ebb 7bbd 4e73 6cbd 75a2 96bd b2a4 90bc
00000360: dccc 193d 30be 96bd 06bb 573c 39dc dabd
00000370: b205 3dbe a95b 2dbe e2c4 0f3e 57d3 8c3e
00000380: 3dcf aabd c4d3 77be 550c b2bd 3ca0 8d3c
00000390: 48ca b6bc b364 8c3d af64 bdbd a69a d13d
000003a0: 295a 033d b04b f23d 803d a23d d39d 633d
000003b0: e9da 3abe 7896 983d 5666 9abe dc94 373e
000003c0: 5bbf d3bd cba1 68be 2195 21bd 285d 32be
000003d0: 6f1b 5ebe 2574 ed3d f23f 8c3d 4210 063e
000003e0: 4f3e e93e 8ee6 403f 378b fd3d 53ac a13e
000003f0: cc66 883d 09f7 64bd f8ea 35be 61f8 87be

sequential.4.Gamma.bias f4 [70]
0.012781523 -0.193468 -0.03151223 0.08145954 -0.19450487 -0.16842313 -0.16445953 -0.102187194
-0.015628248 -0.006750596 -0.2764059 -0.1687348 -0.24505211 -0.014325255 -0.15382655 0.114343375
-0.35132453 0.044403516 -0.22443606 -0.048187435 -0.2235976 -0.18340237 -0.09671971 0.17745909
-0.01523061 -0.07272075 -0.3336501 -0.015820943 0.13222632 -0.10149612 0.18502516 0.14485602
0.15066925 -0.020076446 0.013087844 -0.10514983 -0.020446908 -0.19373351 0.024918169 -0.026669616
0.13320553 -0.08671367 -0.07119491 0.066590644 0.022127336 0.20099936 0.023798553 -0.061904076
0.01857854 -0.17815937 0.08088848 0.15904267 0.041808337 0.22454315 -0.16265765 -0.12055301
0.06906964 -0.29787293 0.029438639 0.075989276 0.032262612 -0.14431448 0.3456398 -0.42450616
0.2535685 -0.090243794 0.18795364 -0.061503075 -0.0057273638 -0.21641435
00000000: 9869 513c 7a1c 46be f812 01bd 42d4 a63d
00000010: 492c 47be 1d77 2cbe 1468 28be 8547 d1bd
00000020: d006 80bc 1b34 ddbb 1385 8dbe d1c8 2cbe
00000030: f1ee 7abe 79b4 6abc b584 1dbe dc2c ea3d
00000040: cfe0 b3be 76e0 353d 91d2 65be 3060 45bd
00000050: c5f6 64be d5cd 3bbe fc14 c6bd d6b7 353e
00000060: cf89 79bc 9eee 94bd 30d4 aabe ec9a 81bc
00000070: 5666 073e 33dd cfbd 3c77 3d3e 2355 143e
00000080: 0a49 1a3e 5c77 a4bc 656e 563c cb58 d7bd
00000090: 4680 a7bc 1462 46be 3021 cc3c 3d7a dabc
000000a0: 0867 083e f096 b1bd a3ce 91bd ad60 883d
000000b0: 6344 b53c c7d2 4d3e 2ff5 c23c 218f 7dbd
000000c0: 0632 983c 696f 36be dca8 a53d 15dc 223e
000000d0: 383f 2b3d a4ee 653e ba8f 26be 7fe4 f6bd
000000e0: 6274 8d3d cd82 98be 4d29 f13c 44a0 9b3d
000000f0: cd25 043d 2dc7 13be b3f7 b03e df58 d9be
00000100: bbd3 813e bdd1 b8bd eb76 403e a6ea 7bbd
00000110: 9cac bbbb b99b 5dbe
