Models/Z_25GeV_1.pth (torch, 197812 bytes, 36 tensors)

sequential.0.Gamma.weight f4 [80, 5]
0	0x3f303018	0.68823385
1	0x3f4fca21	0.811678
2	0x3eeae951	0.4588113
3	0xbd19d682	-0.037558086
4	0x3cd9ce35	0.026587585
5	0x3e05b5ec	0.13057679
6	0xbeaa7e43	-0.33299455
7	0x3f083111	0.5319987
8	0xbc7af7ea	-0.015317896
9	0x3ed9161b	0.42399678
10	0x3e41fe26	0.18944606
11	0x3f1d8558	0.6153159
12	0xbe9cbeef	-0.3061442
13	0xbd3e8231	-0.04651088
14	0x3ecd84e5	0.40140453
15	0x3f5e4596	0.8682493
16	0x3f475b1c	0.77873397
17	0x3e1d4a6b	0.1536042
18	0x3ea245f5	0.31693998
19	0xbfc8bba3	-1.5682262
20	0xbed65138	-0.4185884
21	0xbf089d73	-0.5336525
22	0xbe1127c4	-0.14175326
23	0x3e8cc009	0.2749026
24	0xc05a4105	-3.4102185
25	0x3f6afb88	0.91790056
26	0x3ee91955	0.4552714
27	0xbf64be81	-0.89353186
28	0x3d759b10	0.059962332
29	0xbf8624e6	-1.048001
30	0x3ec244a9	0.3794301
31	0x3f0c557b	0.5481793
32	0xbf5e41e8	-0.86819315
33	0xbed84f62	-0.42248064
34	0x4061f067	3.530298
35	0xbe257594	-0.16158134
36	0x3f21d48b	0.6321494
37	0x3f027e69	0.50974137
38	0xbf692fa6	-0.9108833
39	0x3f68ffad	0.9101513
40	0x3ea6c29f	0.3257036
41	0x3f0077d2	0.5018283
42	0xbf9c8eb2	-1.2231047
43	0xbd4d7b48	-0.0501664
44	0x401ba8ad	2.4321702
45	0x3ed6c52f	0.41947314
46	0x3f4674fa	0.7752224
47	0xbf5fa695	-0.8736356
48	0x3eb17394	0.34658492
49	0xc069632b	-3.6466777
50	0xbec570eb	-0.38562712
51	0x3eff02aa	0.4980672
52	0x3f5a5358	0.8528342
53	0x3e75a0e0	0.2398715
54	0xbfedb13a	-1.856971
55	0xbe9f4dbf	-0.31114003
56	0xbe18771e	-0.1488919
57	0x3f04072a	0.5157343
58	0x3f0f2f7a	0.5593182
59	0xc0164fe0	-2.3486252
60	0x3f153f47	0.5829968
61	0x3c58a7df	0.013223617
62	0x3f543cba	0.8290516
63	0xbcd55679	-0.02604221
64	0x3f8083d7	1.0040234
65	0xbecddefe	-0.40209192
66	0xbf780618	-0.968843
67	0x3daae908	0.083452284
68	0x3f556e9d	0.8337191
69	0xbf964f2e	-1.1742914
70	0xbf4fcdc0	-0.81173325
71	0x3e9094e5	0.28238598
72	0x3f2823bd	0.6567953
73	0xbdcc89ad	-0.09987197
74	0x40311a7a	2.767241
75	0x3de122ad	0.10992942
76	0xbec63d15	-0.38718477
77	0xbf559fbd	-0.83446866
78	0xbb3f2523	-0.0029166422
79	0xbe50304c	-0.20330924
80	0x3f44a991	0.7682124
81	0xbe14830b	-0.14503114
82	0xbf17939c	-0.5920961
83	0xbe94d9e8	-0.290725
84	0x4033ba85	2.8082592
85	0x3f3f0b2f	0.7462644
86	0xbf08c981	-0.5343247
87	0xbe805893	-0.25067577
88	0xbf1a1037	-0.6018099
89	0x3f89a8c8	1.0754633
90	0xbd45fd35	-0.04833718
91	0x3f8bc6db	1.0920061
92	0xbbfbf7bd	-0.007689445
93	0x3ebe9f56	0.3723094
94	0xbfb0cb74	-1.3812089
95	0x3ee93d23	0.45554456
96	0xbf04ba1d	-0.51846486
97	0x3e586f15	0.21136124
98	0x3f3bc6b6	0.73350084
99	0xc0025ce4	-2.0369196
100	0xbdca3264	-0.098728925
101	0x3ef99065	0.48742977
102	0xbe55bc39	-0.20872582
103	0xbe1ec565	-0.15504988
104	0x3d9070ec	0.07052788
105	0x3e91683c	0.28399837
106	0xbf2c578d	-0.6732109
107	0xbf7e82ba	-0.9941822
108	0xbdc95e8a	-0.09832485
109	0xbfaf9627	-1.3717698
110	0xbf0308e0	-0.5118542
111	0xbf966ee6	-1.1752594
112	0xbe7f833b	-0.24952404
113	0xbcb69a44	-0.022290356
114	0x3f675733	0.9036743
115	0xbd048399	-0.032352064
116	0xbf149e82	-0.58054364
117	0x3f3fad2e	0.74873626
118	0xbd29e937	-0.041482177
119	0x3fcd379a	1.6032593
120	0xbfb4d3b4	-1.4127107
121	0xbe666057	-0.22497688
122	0x3d7678bd	0.06017374
123	0x3f01f853	0.5076954
124	0xbff05273	-1.8775162
125	0x3fa295ab	1.2701925
126	0xbf7e7b98	-0.9940734
127	0x3ceac4da	0.02865832
128	0xbe1c4be3	-0.15263323
129	0x3fb44f67	1.4086732
130	0x3d51cb16	0.05121907
131	0x3f304e31	0.6886931
132	0xbe27b09a	-0.16375962
133	0xbf13be9c	-0.5771272
134	0xbda7decf	-0.08196794
135	0xbe198bf2	-0.14994791
136	0x3f12a4aa	0.5728251
137	0x3f41254f	0.75447553
138	0xbc9073e5	-0.017633388
139	0xc028e754	-2.6391191
140	0x3e55df9a	0.20886078
141	0xbf0d395d	-0.55165654
142	0x3d031ae7	0.032008078
143	0x3dc62567	0.09675103
144	0x3f97539d	1.1822392
145	0x3e8d54b2	0.2760368
146	0x3eaf9412	0.34292656
147	0x3eacd1fe	0.3375396
148	0x3f9515b7	1.1647252
149	0xc020991d	-2.5093453
150	0x3dd4f455	0.10398165
151	0x3f7ee0e9	0.99561936
152	0x3f7737b6	0.96569383
153	0xbcc08b5b	-0.02350395
154	0x3f58d270	0.846961
155	0xbd7b4a4a	-0.061350144
156	0xbe850112	-0.2597738
157	0xbf0d8a04	-0.5528872
158	0x3eeb6e31	0.45982507
159	0xbf9db202	-1.2319949
160	0xbf99d4c4	-1.2018056
161	0x3efd7e40	0.49510384
162	0xbf131b71	-0.5746375
163	0x3f45a2cf	0.7720155
164	0xc0786e1f	-3.8817213
165	0xbe6c3911	-0.23068644
166	0x3e2c3403	0.16816716
167	0xbe5a3eb5	-0.21312983
168	0xbeb63330	-0.35585928
169	0x404a5a44	3.1617594
170	0x3fbc63d8	1.471797
171	0xbef54f43	-0.47912034
172	0x3e805191	0.2506223
173	0xbc78169c	-0.015142109
174	0x3ea6daec	0.325889
175	0xbd73b153	-0.05949528
176	0xbf26b87a	-0.6512524
177	0x3e2ba73d	0.16763015
178	0x3f062b91	0.5241023
179	0xc04905c2	-3.1409764
180	0xbe5d1095	-0.21588357
181	0xbe60c30b	-0.21949403
182	0xbeed18a5	-0.46307865
183	0xbf117872	-0.5682441
184	0x4014a7b4	2.3227358
185	0x3e7b2da9	0.24529137
186	0xbf3ad019	-0.7297378
187	0x3d1efdc3	0.038816225
188	0xbcf62a4f	-0.030049471
189	0x3fb7cb55	1.4358927
190	0xbf479e2d	-0.7797573
191	0x3f001f4f	0.50047773
192	0x3f469773	0.77574843
193	0x3d84001f	0.064453356
194	0xc008701e	-2.131843
195	0xbd3af736	-0.045645915
196	0xbe161c99	-0.14659347
197	0xbf42a038	-0.76025724
198	0xbe8dc582	-0.2768975
199	0x403cbbde	2.9489665
200	0xbef6c6c8	-0.48198533
201	0xbef3aebc	-0.4759425
202	0xbf2359c8	-0.6380887
203	0xbce75b70	-0.028241843
204	0x3f9abde4	1.20892
205	0x3d970844	0.073746234
206	0xbe6497e2	-0.22323564
207	0xbd53c2e5	-0.051699538
208	0xbe1772a7	-0.1478983
209	0x402ad616	2.6693168
210	0xbeaafb9b	-0.33395085
211	0x3f2375b7	0.63851494
212	0x3dc5dfb8	0.096618116
213	0x3ebfcffe	0.37463373
214	0x3f43c253	0.7646839
215	0x3e447f9c	0.19189304
216	0xbdcb458d	-0.09925375
217	0x3ef7f3fb	0.4842833
218	0xbc73558b	-0.014851938
219	0x3e6aae3e	0.2291803
220	0x3f832185	1.0244604
221	0x3c2a5985	0.01039732
222	0xbee4344a	-0.44571143
223	0xbe7d94a4	-0.24763733
224	0x4004bdd8	2.0740871
225	0xbebb6e66	-0.36607665
226	0xbda04643	-0.07825901
227	0xbf00c8dc	-0.5030649
228	0xbde15ddd	-0.11004231
229	0x3fc2f436	1.5230777
230	0xbf28af60	-0.658926
231	0xbe3dd326	-0.18537578
232	0x3f01c295	0.50687534
233	0xbbfc10cb	-0.0076924316
234	0x3ed7f22f	0.4217696
235	0xbe97b674	-0.29631388
236	0xbf2c464f	-0.6729478
237	0x3e19b9ba	0.15012255
238	0x3f18e2dd	0.59721166
239	0xc068a76c	-3.6352186
240	0xbf1d7381	-0.6150437
241	0x3f3c47c4	0.73547006
242	0xbec21d95	-0.37913194
243	0xbf36bed0	-0.71384907
244	0x3fafe66d	1.3742195
245	0x3f882990	1.0637684
246	0x3ee6ae66	0.4505493
247	0x3d514912	0.051095076
248	0x3f4b1987	0.79335827
249	0xc07abd79	-3.9178145
250	0xbf2f51d0	-0.6848421
251	0x3e97e8f5	0.2966992
252	0x3ef74fff	0.4830322
253	0xba0e9d29	-0.0005440289
254	0xc07534cf	-3.8313482
255	0xbf331798	-0.69957876

sequential.0.Gamma.bias f4 [80]
0	0x3e578f8e	0.21050856
1	0xbc83f413	-0.016107595
2	0x3e480966	0.19534835
3	0xbeed3896	-0.46332234
4	0xbef69881	-0.48163226
5	0xbe4ade47	-0.19811355
6	0x3f17209d	0.5903414
7	0x3ecc71c7	0.39930555
8	0x3eb7307f	0.35779187
9	0xbf2ff7bf	-0.68737406
10	0xbd9e290f	-0.07722675
11	0xbecfc67d	-0.40581122
12	0xbb232771	-0.0024895335
13	0xbe045864	-0.12924343
14	0xbccc404a	-0.024933
15	0x3d811e97	0.06304663
16	0x3f0dcec1	0.55393606
17	0x3d629802	0.055320747
18	0xbf06a80b	-0.52600163
19	0xbf002373	-0.5005409
20	0x3d8ce1f3	0.06879034
21	0xbe044a38	-0.12918937
22	0x3ea67105	0.32508102
23	0x3e437c26	0.19090328
24	0xbdad0c90	-0.08449662
25	0x3e88bc14	0.26705992
26	0x3ebec6af	0.3726096
27	0xbf1f6d94	-0.6227658
28	0x3eda228c	0.42604482
29	0xbee0ca29	-0.43904236
30	0x3ead8883	0.33893213
31	0xbed08fce	-0.40734714
32	0xbf50e341	-0.8159676
33	0x3ec6699b	0.38752446
34	0xbd37a202	-0.044832237
35	0xbf108a2d	-0.5646084
36	0x3eda283e	0.42608827
37	0x3e77b292	0.24189213
38	0xbed5e671	-0.41777375
39	0x3e6049f7	0.21903215
40	0xbe9c3383	-0.3050805
41	0x3ee34f58	0.44396472
42	0xbbcae9c4	-0.006192418
43	0xbbca8099	-0.006179881
44	0x3e943830	0.28949118
45	0x3ee2564b	0.4420646
46	0x3e606e46	0.21917066
47	0xbf459656	-0.7718252
48	0x3e399b2e	0.18125603
49	0xbed6a782	-0.41924673
50	0xbf1cc479	-0.61237293
51	0xbed058f9	-0.4069288
52	0x3eabf2be	0.33583635
53	0xbeb22ceb	-0.34799895
54	0x3ed0a622	0.4075175
55	0x3e20b01b	0.15692179
56	0xbf1ef3f9	-0.6209102
57	0xbeb2d18d	-0.349255
58	0x3e4f570b	0.20248048
59	0xbf254189	-0.64553124
60	0xbed004ac	-0.40628564
61	0x3ea2f562	0.31827837
62	0x3eba8021	0.3642588
63	0x3db213cc	0.08695182
64	0x3e8c4bf3	0.27401695
65	0xbef34e28	-0.47520566
66	0xbe6928ed	-0.22769518
67	0x3dd4c778	0.10389608
68	0x3f3c0f6d	0.7346104
69	0xbf2690ca	-0.6506468
70	0x3f361169	0.71120316
71	0x3e4d43e7	0.20045434
72	0xbee66de1	-0.45005706
73	0xbd8f1d56	-0.06988017
74	0x3e98592b	0.2975553
75	0xbf30472a	-0.6885859
76	0xbe2fe86c	-0.17178506
77	0xbe4bd4f1	-0.1990545
78	0xbef03974	-0.46918833
79	0xbe0e9936	-0.13925633

sequential.0.Lambda.weight f4 [80, 5]
0	0x3eefcaab	0.4683431
1	0x3e833d2b	0.25632605
2	0x3f46f287	0.7771382
3	0x3e5332f9	0.20624913
4	0xbf7c6240	-0.9858742
5	0xbecbe640	-0.39824104
6	0x3c80d24b	0.015725276
7	0xbf051b4a	-0.51994765
8	0x3e7d9d7d	0.24767108
9	0x3f08cd46	0.5343822
10	0xbf09c867	-0.53821415
11	0x3f48a045	0.7836955
12	0xc0007229	-2.0069678
13	0xbf77c6db	-0.96787804
14	0xbf4fab98	-0.81121206
15	0x3f4d092e	0.8009213
16	0xbf9112e3	-1.1333889
17	0xbe8faedb	-0.28063092
18	0x3f5a4ee3	0.8527662
19	0x3e891205	0.2677156
20	0x3fa33eaa	1.2753499
21	0x3e07ae96	0.13250193
22	0xbf68d6b1	-0.90952593
23	0x3e6b3590	0.22969651
24	0xbf2e5600	-0.68099976
25	0x3a19b11c	0.0005862878
26	0xbf345f9c	-0.7045839
27	0x3ecb18cc	0.39667356
28	0xbf801a17	-1.0007962
29	0xbdacd0ad	-0.08438239
30	0x3f5cbefd	0.86228925
31	0x3fb24310	1.3926716
32	0x3ec54b34	0.38533938
33	0xbdbb906f	-0.09158408
34	0x3ee71fc9	0.45141438
35	0xbdf03a64	-0.11729887
36	0xbeea46a4	-0.4575702
37	0x3e2ba621	0.16762592
38	0xbf6ef0a0	-0.93335915
39	0x3fb4fb91	1.4139272
40	0xbd372f2d	-0.044722725
41	0xbe20dde8	-0.1570965
42	0x3d98bab9	0.074574895
43	0x3e61352a	0.21992937
44	0x3faa52b8	1.3306494
45	0xbf77de25	-0.9682334
46	0xbf371fd1	-0.71532923
47	0xbf8853ef	-1.0650615
48	0x3e4db8ac	0.20089978
49	0x3e5941cf	0.2121651
50	0xbf113893	-0.5672695
51	0xbeceac7d	-0.40365973
52	0xbf5e8568	-0.8692231
53	0xbd76cea2	-0.060255654
54	0x3f95df3b	1.170875
55	0xbf22d2ed	-0.636031
56	0xbef12761	-0.47100356
57	0xbe65d2f6	-0.22443756
58	0xbf321e75	-0.69577724
59	0x3fc1202d	1.5087944
60	0xbee4d9e9	-0.44697502
61	0x3e94fa80	0.29097366
62	0xbd6aa636	-0.057287417
63	0xbdb6902a	-0.08914216
64	0x3f494b24	0.7863028
65	0xbe5c2dfe	-0.2150192
66	0xbd163ec3	-0.036680948
67	0xbeca8b10	-0.3955922
68	0xbbdf7fa3	-0.0068206354
69	0xbf45acf3	-0.77217025
70	0xbfbdec67	-1.4837769
71	0x3ee02362	0.43776995
72	0xbf8ad972	-1.0847609
73	0x3ebd108e	0.36926693
74	0xbf80c8e0	-1.0061302
75	0xbf5f853e	-0.87312686
76	0x3f09fc0c	0.5390022
77	0xbf6f7c27	-0.93548816
78	0xbe080349	-0.13282503
79	0x3f827f1b	1.019504
80	0x3d5ded6c	0.0541815
81	0xbed3fe2c	-0.41404855
82	0x3f5da330	0.8657713
83	0xbe4e63ba	-0.2015523
84	0x3f6d90ea	0.92799246
85	0xbf4e4e35	-0.80588084
86	0xbf1963df	-0.59918016
87	0xbf88bc10	-1.0682392
88	0x3f55baf1	0.83488375
89	0x3ec5c256	0.3862483
90	0xbee174d3	-0.44034442
91	0x3eb4d04b	0.35315165
92	0x3eef30c0	0.4671688
93	0xbede6285	-0.4343454
94	0x3f1d88ba	0.61536753
95	0x3e7e2b7d	0.24821277
96	0xbef52f8a	-0.47887832
97	0x3d4b8712	0.04968936
98	0x3f22a25d	0.63528997
99	0xbe3a78f3	-0.18210201
100	0xbf78ea9e	-0.97233
101	0xbf2c8d48	-0.6740308
102	0xbf3abb25	-0.7294181
103	0x3d987b78	0.07445425
104	0x3ce56350	0.028001457
105	0x3ea68c0f	0.3252873
106	0xbf9100fb	-1.1328424
107	0xbe4ac9bd	-0.1980352
108	0x3ebb5349	0.3658698
109	0xbfd7430d	-1.6817337
110	0xbe2686d6	-0.16262373
111	0xbed2d0f2	-0.41175038
112	0x3a9412c1	0.0011297093
113	0x3f70be3b	0.9404027
114	0x3e530371	0.20606782
115	0xbe50aa99	-0.20377578
116	0x3f2061b5	0.6264909
117	0xbee8b3c4	-0.4544965
118	0xbf2345ee	-0.6377858
119	0x3e93a221	0.28834632
120	0x3fc98b1f	1.5745581
121	0x3e6b3c05	0.22972114
122	0xbdbfe917	-0.0937063
123	0xbf2e5e73	-0.6811287
124	0x3e0b854e	0.1362507
125	0x3f23bf78	0.63964033
126	0x3ebc020b	0.3672031
127	0x3f0519b0	0.5199232
128	0x3e370702	0.17873767
129	0xbc34f4eb	-0.011044721
130	0xbeb1db5f	-0.3473768
131	0xbd7da75f	-0.061927196
132	0xbe8c1df7	-0.2736661
133	0xbebb2bfa	-0.3655699
134	0x3f78cfe4	0.97192216
135	0xbe57366e	-0.21016857
136	0x3f85e66f	1.0460948
137	0xbcbded12	-0.023184333
138	0xbd671947	-0.05642059
139	0xbe38c197	-0.18042599
140	0xbe9becbb	-0.3045405
141	0xbe60e51b	-0.21962397
142	0x3f665c84	0.8998492
143	0xbcf5d064	-0.030006595
144	0x3dbf3017	0.09335344
145	0xbf21a7e6	-0.6314682
146	0x3eaf5d3c	0.3425082
147	0xbe94f37d	-0.29092017
148	0xbe885148	-0.26624513
149	0xbd77897b	-0.060433846
150	0x3f82ca62	1.0218012
151	0xbf435531	-0.76301867
152	0xbf1d9c4f	-0.61566633
153	0xbe82d362	-0.25551897
154	0x3edf0725	0.43560138
155	0xbec6e06f	-0.38843104
156	0x3fa98861	1.3244745
157	0x3c8ba2d4	0.017045416
158	0x3f36593f	0.7122993
159	0xbf5fc959	-0.8741661
160	0x3dc28a83	0.09499075
161	0x3e5cf1f7	0.21576677
162	0xbf3788ba	-0.71693003
163	0xbd6519b3	-0.05593271
164	0xbfb1bedf	-1.3886374
165	0xbea75ade	-0.32686514
166	0xbe2384cf	-0.15968631
167	0x3f397733	0.7244751
168	0x3ff80af1	1.9378339
169	0xbf82a443	-1.0206379
170	0xbd0fb4e7	-0.03508463
171	0x3f85abe6	1.0443084
172	0x3e55d682	0.2088261
173	0xbec6deab	-0.38841757
174	0xbef7dfc6	-0.48412913
175	0xbfa7554c	-1.3072906
176	0xbe997f7f	-0.29980084
177	0x3fa2108a	1.2661297
178	0xbe0aa837	-0.13540731
179	0xbdefddbd	-0.11712215
180	0xbd68534a	-0.056720056
181	0xbf9fbfd6	-1.2480419
182	0x3bdcda7e	0.0067399135
183	0x3efd5869	0.49481514
184	0x3fa6c73f	1.3029555
185	0xbf87a223	-1.0596355
186	0x3c23beda	0.009994233
187	0x3f8cfc0f	1.1014422
188	0xbdc1d89b	-0.09465142
189	0x3f8c0977	1.0940388
190	0xbc9dfbc6	-0.019285094
191	0x3ee9ba6a	0.45650035
192	0x3f85d876	1.0456684
193	0x3e802ee7	0.25035784
194	0xbf1ea81a	-0.6197525
195	0xbe89017d	-0.26758948
196	0xbe21ce6d	-0.15801401
197	0x3c8f7ef2	0.017516587
198	0x3eaa526a	0.33266002
199	0xbf86dfb2	-1.0537016
200	0xbf67b401	-0.9050904
201	0xbd185879	-0.03719375
202	0xbf8a4d37	-1.0804814
203	0xbf21ed28	-0.63252497
204	0x3e7aee6e	0.24505016
205	0x3e7fe6db	0.24990408
206	0xbde5b2cd	-0.11215744
207	0xbdb535b4	-0.08848134
208	0x3f70dc0c	0.94085765
209	0xbdfbcb17	-0.12294596
210	0x3dacf547	0.084452204
211	0x3f4cd4cd	0.8001221
212	0x3e919f13	0.28441676
213	0xbedbaea9	-0.42906693
214	0xbb03af8d	-0.002009365
215	0xbf049e8a	-0.5180441
216	0x3f10c0ef	0.56544393
217	0x3e2f9971	0.17148377
218	0x3f460d91	0.7736445
219	0x3f10f976	0.5663065
220	0x3d84f582	0.064921394
221	0xbddc248a	-0.10749157
222	0x3ea96954	0.3308817
223	0xbdff81db	-0.1247594
224	0x3ebdfe85	0.37108245
225	0xbebf208b	-0.37329516
226	0xbf240a25	-0.6407798
227	0x3ee95117	0.4556968
228	0xbf112b3f	-0.56706613
229	0x3e813943	0.25239
230	0xbf63073d	-0.8868292
231	0x3f89bc94	1.0760674
232	0x3db871dc	0.09006092
233	0xbe99246e	-0.29910606
234	0xbe98af9f	-0.29821488
235	0x3f16f807	0.5897221
236	0x3e5b694e	0.2142689
237	0x3f92ce0e	1.1469133
238	0xbea96b23	-0.3308955
239	0xbf5ad7df	-0.85485643
240	0x3ef562b8	0.4792688
241	0xbe26c1dc	-0.16284889
242	0xbf34f54f	-0.7068681
243	0x3eaf7534	0.34269106
244	0x3f181156	0.5940145
245	0xbf332f4a	-0.6999403
246	0xbf388178	-0.72072554
247	0x3efac989	0.48981884
248	0x3e1a9bb5	0.1509846
249	0x3ecc58c6	0.3991148
250	0xbeff0f0a	-0.4981616
251	0x3fd30ee2	1.6488917
252	0x3fd26742	1.6437762
253	0x3e2061a8	0.15662253
254	0x3ca95724	0.020671435
255	0xbfc7550b	-1.5572828

sequential.0.Lambda.bias f4 [80]
0	0x3e578f8e	0.21050856
1	0xbc83f413	-0.016107595
2	0x3e480966	0.19534835
3	0xbeed3896	-0.46332234
4	0xbef69881	-0.48163226
5	0xbe4ade47	-0.19811355
6	0x3f17209d	0.5903414
7	0x3ecc71c7	0.39930555
8	0x3eb7307f	0.35779187
9	0xbf2ff7bf	-0.68737406
10	0xbd9e290f	-0.07722675
11	0xbecfc67d	-0.40581122
12	0xbb232771	-0.0024895335
13	0xbe045864	-0.12924343
14	0xbccc404a	-0.024933
15	0x3d811e97	0.06304663
16	0x3f0dcec1	0.55393606
17	0x3d629802	0.055320747
18	0xbf06a80b	-0.52600163
19	0xbf002373	-0.5005409
20	0x3d8ce1f3	0.06879034
21	0xbe044a38	-0.12918937
22	0x3ea67105	0.32508102
23	0x3e437c26	0.19090328
24	0xbdad0c90	-0.08449662
25	0x3e88bc14	0.26705992
26	0x3ebec6af	0.3726096
27	0xbf1f6d94	-0.6227658
28	0x3eda228c	0.42604482
29	0xbee0ca29	-0.43904236
30	0x3ead8883	0.33893213
31	0xbed08fce	-0.40734714
32	0xbf50e341	-0.8159676
33	0x3ec6699b	0.38752446
34	0xbd37a202	-0.044832237
35	0xbf108a2d	-0.5646084
36	0x3eda283e	0.42608827
37	0x3e77b292	0.24189213
38	0xbed5e671	-0.41777375
39	0x3e6049f7	0.21903215
40	0xbe9c3383	-0.3050805
41	0x3ee34f58	0.44396472
42	0xbbcae9c4	-0.006192418
43	0xbbca8099	-0.006179881
44	0x3e943830	0.28949118
45	0x3ee2564b	0.4420646
46	0x3e606e46	0.21917066
47	0xbf459656	-0.7718252
48	0x3e399b2e	0.18125603
49	0xbed6a782	-0.41924673
50	0xbf1cc479	-0.61237293
51	0xbed058f9	-0.4069288
52	0x3eabf2be	0.33583635
53	0xbeb22ceb	-0.34799895
54	0x3ed0a622	0.4075175
55	0x3e20b01b	0.15692179
56	0xbf1ef3f9	-0.6209102
57	0xbeb2d18d	-0.349255
58	0x3e4f570b	0.20248048
59	0xbf254189	-0.64553124
60	0xbed004ac	-0.40628564
61	0x3ea2f562	0.31827837
62	0x3eba8021	0.3642588
63	0x3db213cc	0.08695182
64	0x3e8c4bf3	0.27401695
65	0xbef34e28	-0.47520566
66	0xbe6928ed	-0.22769518
67	0x3dd4c778	0.10389608
68	0x3f3c0f6d	0.7346104
69	0xbf2690ca	-0.6506468
70	0x3f361169	0.71120316
71	0x3e4d43e7	0.20045434
72	0xbee66de1	-0.45005706
73	0xbd8f1d56	-0.06988017
74	0x3e98592b	0.2975553
75	0xbf30472a	-0.6885859
76	0xbe2fe86c	-0.17178506
77	0xbe4bd4f1	-0.1990545
78	0xbef03974	-0.46918833
79	0xbe0e9936	-0.13925633

sequential.0.bn.running_mean f4 [80]
0	0x00000000	0.0
1	0x00000000	0.0
2	0x00000000	0.0
3	0x00000000	0.0
4	0x00000000	0.0
5	0x00000000	0.0
6	0x00000000	0.0
7	0x00000000	0.0
8	0x00000000	0.0
9	0x00000000	0.0
10	0x00000000	0.0
11	0x00000000	0.0
12	0x00000000	0.0
13	0x00000000	0.0
14	0x00000000	0.0
15	0x00000000	0.0
16	0x00000000	0.0
17	0x00000000	0.0
18	0x00000000	0.0
19	0x00000000	0.0
20	0x00000000	0.0
21	0x00000000	0.0
22	0x00000000	0.0
23	0x00000000	0.0
24	0x00000000	0.0
25	0x00000000	0.0
26	0x00000000	0.0
27	0x00000000	0.0
28	0x00000000	0.0
29	0x00000000	0.0
30	0x00000000	0.0
31	0x00000000	0.0
32	0x00000000	0.0
33	0x00000000	0.0
34	0x00000000	0.0
35	0x00000000	0.0
36	0x00000000	0.0
37	0x00000000	0.0
38	0x00000000	0.0
39	0x00000000	0.0
40	0x00000000	0.0
41	0x00000000	0.0
42	0x00000000	0.0
43	0x00000000	0.0
44	0x00000000	0.0
45	0x00000000	0.0
46	0x00000000	0.0
47	0x00000000	0.0
48	0x00000000	0.0
49	0x00000000	0.0
50	0x00000000	0.0
51	0x00000000	0.0
52	0x00000000	0.0
53	0x00000000	0.0
54	0x00000000	0.0
55	0x00000000	0.0
56	0x00000000	0.0
57	0x00000000	0.0
58	0x00000000	0.0
59	0x00000000	0.0
60	0x00000000	0.0
61	0x00000000	0.0
62	0x00000000	0.0
63	0x00000000	0.0
64	0x00000000	0.0
65	0x00000000	0.0
66	0x00000000	0.0
67	0x00000000	0.0
68	0x00000000	0.0
69	0x00000000	0.0
70	0x00000000	0.0
71	0x00000000	0.0
72	0x00000000	0.0
73	0x00000000	0.0
74	0x00000000	0.0
75	0x00000000	0.0
76	0x00000000	0.0
77	0x00000000	0.0
78	0x00000000	0.0
79	0x00000000	0.0

sequential.0.bn.running_var f4 [80]
0	0x3f800000	1.0
1	0x3f800000	1.0
2	0x3f800000	1.0
3	0x3f800000	1.0
4	0x3f800000	1.0
5	0x3f800000	1.0
6	0x3f800000	1.0
7	0x3f800000	1.0
8	0x3f800000	1.0
9	0x3f800000	1.0
10	0x3f800000	1.0
11	0x3f800000	1.0
12	0x3f800000	1.0
13	0x3f800000	1.0
14	0x3f800000	1.0
15	0x3f800000	1.0
16	0x3f800000	1.0
17	0x3f800000	1.0
18	0x3f800000	1.0
19	0x3f800000	1.0
20	0x3f800000	1.0
21	0x3f800000	1.0
22	0x3f800000	1.0
23	0x3f800000	1.0
24	0x3f800000	1.0
25	0x3f800000	1.0
26	0x3f800000	1.0
27	0x3f800000	1.0
28	0x3f800000	1.0
29	0x3f800000	1.0
30	0x3f800000	1.0
31	0x3f800000	1.0
32	0x3f800000	1.0
33	0x3f800000	1.0
34	0x3f800000	1.0
35	0x3f800000	1.0
36	0x3f800000	1.0
37	0x3f800000	1.0
38	0x3f800000	1.0
39	0x3f800000	1.0
40	0x3f800000	1.0
41	0x3f800000	1.0
42	0x3f800000	1.0
43	0x3f800000	1.0
44	0x3f800000	1.0
45	0x3f800000	1.0
46	0x3f800000	1.0
47	0x3f800000	1.0
48	0x3f800000	1.0
49	0x3f800000	1.0
50	0x3f800000	1.0
51	0x3f800000	1.0
52	0x3f800000	1.0
53	0x3f800000	1.0
54	0x3f800000	1.0
55	0x3f800000	1.0
56	0x3f800000	1.0
57	0x3f800000	1.0
58	0x3f800000	1.0
59	0x3f800000	1.0
60	0x3f800000	1.0
61	0x3f800000	1.0
62	0x3f800000	1.0
63	0x3f800000	1.0
64	0x3f800000	1.0
65	0x3f800000	1.0
66	0x3f800000	1.0
67	0x3f800000	1.0
68	0x3f800000	1.0
69	0x3f800000	1.0
70	0x3f800000	1.0
71	0x3f800000	1.0
72	0x3f800000	1.0
73	0x3f800000	1.0
74	0x3f800000	1.0
75	0x3f800000	1.0
76	0x3f800000	1.0
77	0x3f800000	1.0
78	0x3f800000	1.0
79	0x3f800000	1.0

sequential.2.Gamma.weight f4 [120, 80]
0	0x3de305b7	0.110850744
1	0x3d98d06e	0.0746163
2	0x3d50cdd3	0.05097754
3	0xbdea62e1	-0.11444641
4	0x3dae1803	0.085006736
5	0x3dc586a5	0.09644822
6	0xbe7002d7	-0.23438583
7	0xbe2a9c75	-0.16661246
8	0xbe602216	-0.21888003
9	0x3db2428c	0.08704099
10	0xbe216844	-0.1576243
11	0xbe32fd89	-0.17479528
12	0x3dce781d	0.100815035
13	0x3e41dcff	0.1893196
14	0x3c8e2600	0.017352104
15	0xbe36165d	-0.17781968
16	0x3e83b492	0.25723702
17	0xbdadc4a4	-0.08484772
18	0x3e5af941	0.21384145
19	0xbe1b4912	-0.15164593
20	0xbcc54b55	-0.024083773
21	0x3c752985	0.014963512
22	0xbe32c935	-0.17459567
23	0xbe67340c	-0.22578448
24	0x3c536826	0.012903249
25	0xbd47c7c0	-0.04877448
26	0xbd23b84f	-0.039970692
27	0xbe44f69c	-0.19234699
28	0x3e4cb629	0.19991364
29	0xbdf50d42	-0.11965419
30	0x3de37092	0.111054555
31	0x3d1f478d	0.038886596
32	0x3e556194	0.20838004
33	0x3e15edc6	0.14641485
34	0xbc378cca	-0.011203
35	0xbcd71406	-0.026254665
36	0xbda9d3f7	-0.08292382
37	0x3c15c9ee	0.009142382
38	0x3e0d4a2e	0.13797829
39	0x3c786565	0.015160893
40	0x3d1715c0	0.036885977
41	0xbe04b372	-0.12959078
42	0xbdadf8dd	-0.084947325
43	0xbde1cfcb	-0.110259615
44	0x3c8d8a45	0.017277846
45	0xbd35453b	-0.044255476
46	0xbd4f15d5	-0.05055793
47	0xbda9bb99	-0.082877345
48	0xbe5cf5d1	-0.21578147
49	0x3e623102	0.22089007
50	0xbf279071	-0.65454775
51	0xbe78a980	-0.24283409
52	0x3e9979ee	0.29975837
53	0xbd0f8a63	-0.035044085
54	0xbe63783c	-0.22213835
55	0x3d0976bf	0.03356051
56	0xbca8da7e	-0.020611998
57	0x3d2b1e63	0.041777026
58	0xbea946b2	-0.3306175
59	0x3e2ff4f2	0.17183283
60	0xbe448e8a	-0.19195
61	0x3d41a79b	0.04727898
62	0xbdff12d9	-0.12454767
63	0x3b79a335	0.0038091664
64	0x3dd0fe91	0.10204805
65	0xbdc21484	-0.09476569
66	0xbea5c2b3	-0.32375106
67	0x3e491270	0.1963594
68	0x3ca1fc29	0.01977356
69	0xbe3ef730	-0.18648982
70	0xbe2dbf7b	-0.16967575
71	0x3d097095	0.033554632
72	0xbd799f27	-0.060942795
73	0x3d916cb2	0.0710081
74	0xbe901b02	-0.28145605
75	0x3e2adf4e	0.16686746
76	0xbc9619af	-0.018322794
77	0xbe89a7a9	-0.26885727
78	0xbe51348e	-0.20430204
79	0x3b657b56	0.003501614
80	0x3e654695	0.22390206
81	0x3e1a0839	0.15042199
82	0x3f05a7d0	0.52209187
83	0xbd98c979	-0.07460303
84	0xbe8ccbbc	-0.27499187
85	0xbe8edfe3	-0.27905187
86	0xbc63030f	-0.01385571
87	0x3e712a7d	0.23551364
88	0x3e99d640	0.30046272
89	0xbe05326b	-0.13007514
90	0xbdaef9bd	-0.085437275
91	0x3c1fe6ab	0.009759585
92	0x3edac386	0.42727298
93	0xbe432bbc	-0.19059652
94	0xbde9230d	-0.113836385
95	0x3e0ae4f3	0.135639
96	0x3f047e5e	0.5175532
97	0x3e63e355	0.22254689
98	0xbe36a03f	-0.17834567
99	0xbea69b4d	-0.3254036
100	0x3ed5305b	0.41638455
101	0x3e5c6e73	0.21526508
102	0x3dd1e792	0.10249247
103	0x3ec51fa8	0.38500714
104	0xbcc77ae0	-0.024350584
105	0xbdc490dc	-0.09597942
106	0xbcb6599a	-0.022259522
107	0xbce54995	-0.027989188
108	0xbe2b6c94	-0.16740638
109	0xbdd97565	-0.10618094
110	0x3c593d33	0.01325922
111	0xbece9a61	-0.40352157
112	0xbcb0817a	-0.021546114
113	0x3ebb9a43	0.3664113
114	0xbd212cfa	-0.039349534
115	0xbce2e8dc	-0.027698927
116	0x3e4ff8f1	0.20309807
117	0x3e4f91e9	0.20270504
118	0xbd3d7c45	-0.04626109
119	0x3ea74082	0.32666403
120	0x3e147fd2	0.14501885
121	0x3e6f2b02	0.2335625
122	0xbd4f3c2c	-0.050594494
123	0x3e9f1bd7	0.31075928
124	0x3dbdc89d	0.092667796
125	0x3eb99fb8	0.36254668
126	0x3e5c4589	0.215109
127	0xbe14e8dc	-0.14541954
128	0x3ed24884	0.4107095
129	0xbe801b9f	-0.25021073
130	0x3e40e83c	0.1883859
131	0xbde135e1	-0.10996605
132	0x3e892854	0.2678858
133	0xbee9d493	-0.45669994
134	0xbb138ca6	-0.0022514253
135	0x3e87d7d9	0.26531866
136	0x3c3b0cd7	0.0114166355
137	0xbeded77d	-0.4352378
138	0x3d516197	0.05111846
139	0xbe3182cc	-0.17335051
140	0xbe462e52	-0.19353607
141	0x3e9d32ca	0.3070281
142	0xbce19a2d	-0.027539337
143	0x3dd657aa	0.10465939
144	0x3e35732f	0.1771972
145	0xbd3038c8	-0.0430229
146	0x3ed1a118	0.40943217
147	0x3e910de6	0.28330916
148	0x3d6c79c1	0.0577333
149	0xbe71ca7b	-0.23612396
150	0x3e020d47	0.12700377
151	0xbd62278f	-0.055213507
152	0xbe7cff5a	-0.24706784
153	0xbd123c5b	-0.03570209
154	0x3ef3be82	0.47606283
155	0x3d9613bf	0.07327985
156	0x3e3af8b2	0.18258932
157	0xbe4959b9	-0.19663133
158	0x3c36d69a	0.011159563
159	0x3d40850d	0.047001887
160	0xbcbfab22	-0.023397032
161	0xbd99d79a	-0.07511826
162	0xbd714cbb	-0.058911067
163	0x3ddac2d9	0.106816955
164	0xbe737354	-0.23774463
165	0x3d795390	0.060870707
166	0xbe96b0e3	-0.2943183
167	0x3e352662	0.17690423
168	0xbdb68685	-0.08912376
169	0xbdd3935c	-0.10330841
170	0x3d2a3007	0.04154971
171	0x3cdf3552	0.027247105
172	0xbd5153b3	-0.051105212
173	0x3dec60bc	0.11541888
174	0xbd6adaa9	-0.057337437
175	0xbd9191dd	-0.07107899
176	0xbe27c6c3	-0.16384415
177	0xbc219c79	-0.009863966
178	0xbdcf57ac	-0.10124144
179	0x3d222715	0.039588053
180	0xbe9c6eeb	-0.30553374
181	0xbd29cb4b	-0.04145364
182	0x3e89a36c	0.26882493
183	0x3c1ce722	0.009576591
184	0xbbdc7956	-0.0067283316
185	0x3c4347b2	0.011918949
186	0x3ca2cce6	0.019873094
187	0x3d97f8c8	0.07420498
188	0x3d843a1b	0.06456395
189	0x3e13bb53	0.14426927
190	0xbdf2e056	-0.11859195
191	0x3dffe685	0.1249514
192	0x3e871075	0.26379743
193	0x3c1691b9	0.009190016
194	0xbdc44045	-0.09582571
195	0x3e70aabd	0.23502631
196	0xbe13c2a8	-0.14429724
197	0xbe065206	-0.13117227
198	0x3be5949c	0.007006241
199	0x3e27d9e0	0.16391706
200	0xbd1a81bd	-0.037721384
201	0xbe58bbbd	-0.21165366
202	0xbdbe2cf3	-0.09285917
203	0xbc127f04	-0.008941416
204	0x3eab2db7	0.33433315
205	0x3e17670b	0.14785402
206	0x3a39a3f1	0.0007081619
207	0xbd8d43fb	-0.06897732
208	0xbd01092c	-0.031502888
209	0xbd8cb176	-0.068697855
210	0xbd20c07b	-0.039246064
211	0xbe48773f	-0.19576739
212	0xbe5cdeda	-0.21569386
213	0xbebd9aef	-0.37032267
214	0xbd857ff2	-0.06518544
215	0xbd197e06	-0.0374737
216	0x3db4f0ed	0.088350154
217	0xbd8b5498	-0.06803244
218	0xbe774ff1	-0.24151589
219	0xbc1a3eb0	-0.00941436
220	0xbe6514cb	-0.22371213
221	0xbe846e0b	-0.25865206
222	0x3d43fbe2	0.047847636
223	0xbda8059b	-0.08204194
224	0x3d877343	0.06613781
225	0xbd8646e0	-0.06556487
226	0x3b914337	0.0044330615
227	0xbdc093f4	-0.0940322
228	0x3d4482a0	0.047976136
229	0x3cd7c550	0.026339203
230	0xbd9195ac	-0.07108626
231	0xbe533a84	-0.2062779
232	0xbe52d39a	-0.20588532
233	0xbe246882	-0.16055492
234	0xbe1236d0	-0.14278722
235	0xbe240a33	-0.16019516
236	0x3e911145	0.28333488
237	0xbe17a45e	-0.14808795
238	0xbe5c1b24	-0.21494728
239	0xbc6fd187	-0.014637358
240	0x3dc156ff	0.09440421
241	0xbe5197c5	-0.20468052
242	0xbb4cda3f	-0.0031258014
243	0xbdadd524	-0.08487919
244	0xbe527de7	-0.2055584
245	0xbda63789	-0.08116061
246	0x3b76f45a	0.0037682266
247	0xbce24aec	-0.027623616
248	0x3c944f0d	0.0181041
249	0x3ceef14a	0.02916779
250	0xbe3d2d43	-0.18474297
251	0xbdb92955	-0.090410866
252	0xbd586ce8	-0.052838236
253	0xbe2d854a	-0.16945377
254	0x3da188bf	0.0788741
255	0x3e1cf589	0.15328039

sequential.2.Gamma.bias f4 [120]
0	0x3e082900	0.1329689
1	0xbea17a91	-0.31538823
2	0x3ba09cbc	0.0049014967
3	0xbdd05d35	-0.10174028
4	0x3de40bb4	0.11135045
5	0xbe8e4587	-0.2778742
6	0x3e4ef8c6	0.20212087
7	0x3d2e642c	0.042576
8	0xbe561368	-0.2090584
9	0x3e7fa24b	0.24964254
10	0xbe413921	-0.18869449
11	0xbd88d483	-0.066811584
12	0x3d68efe2	0.056869395
13	0xbda49999	-0.08037109
14	0xbc67d774	-0.014150489
15	0xbdd436ab	-0.103619896
16	0x3d8ab032	0.06771888
17	0x3dc990dc	0.09842083
18	0x3db8b8f1	0.0901965
19	0xbd03bed4	-0.03216441
20	0xbdba964c	-0.09110698
21	0x3d958f49	0.0730272
22	0xbdedbbb0	-0.11608064
23	0x3d77aae9	0.060465727
24	0x3e13125b	0.14362471
25	0xbe21e921	-0.15811588
26	0x3e3a43f0	0.18189979
27	0x3d4249d4	0.04743369
28	0x3d7ae7e4	0.061256304
29	0xbdd5ae9a	-0.10433693
30	0x3d0ebe7c	0.03484963
31	0xbd58f96f	-0.052972253
32	0xbcdbe7a1	-0.026843848
33	0xbe4cb7b3	-0.1999195
34	0x3e2aca1a	0.16678658
35	0x3de82be7	0.11336499
36	0xbcf33134	-0.029686548
37	0xbcd257ba	-0.025676597
38	0xbe29dfda	-0.16589299
39	0x3e156eec	0.14593095
40	0x3e44f694	0.19234687
41	0x3c88cd45	0.016699443
42	0x3abd84f6	0.0014459181
43	0x3e4a4d1c	0.19755977
44	0xbde9c5ee	-0.11414705
45	0xbe21b572	-0.15791872
46	0x3d5767d7	0.052589264
47	0x3e46f400	0.19429016
48	0xbe30eb52	-0.17277268
49	0x3d8cadfc	0.068691224
50	0x3e3dc88c	0.18533534
51	0x3dde6e4a	0.1086088
52	0x3d7943df	0.060855743
53	0xbe2ca240	-0.16858768
54	0xbdfd152b	-0.12357553
55	0x3e746109	0.23865141
56	0x3dca627c	0.09882066
57	0xbd8d012a	-0.06884988
58	0xbe3cace1	-0.18425323
59	0xbe002ce8	-0.1251713
60	0x3e783561	0.24239112
61	0xbd50f58f	-0.051015433
62	0xbb891722	-0.004183666
63	0xbe836111	-0.25659993
64	0xbe14c427	-0.14527951
65	0x3e18590b	0.14877717
66	0x3b28405e	0.0025673131
67	0x3e26039c	0.16212314
68	0x3e16f3e8	0.1474148
69	0xbdbe1694	-0.0928165
70	0xbece8469	-0.40335396
71	0x3dca7291	0.09885133
72	0x3b8e9474	0.004351193
73	0x3d3aff72	0.045653768
74	0xbe2aef5f	-0.16692875
75	0x3d061164	0.03273143
76	0xbe37de3e	-0.17955872
77	0xbd10d2dd	-0.035357345
78	0xbb9f17d0	-0.0048551336
79	0xbdf83f49	-0.12121446
80	0x3d7c630e	0.061617903
81	0x3e32100d	0.17388935
82	0xbde111f4	-0.109897524
83	0x3df04f91	0.11733926
84	0x3e5d71b3	0.21625404
85	0x3d492db7	0.049115863
86	0xbe43b638	-0.1911248
87	0xbc92d9f7	-0.0179262
88	0xbd2b325b	-0.04179607
89	0xbec2a216	-0.38014287
90	0x3e099f40	0.13439655
91	0x38e52a47	0.00010927446
92	0xbdb4e041	-0.088318355
93	0xbd18452a	-0.037175335
94	0xbc67e9e9	-0.01415489
95	0xbe092e34	-0.13396531
96	0x3de0b0bc	0.109712094
97	0x3d91ff00	0.071287155
98	0xbc2bc7f5	-0.010484685
99	0xbdac205c	-0.084046096
100	0xbecf2147	-0.40455076
101	0x3daae24a	0.083439425
102	0x3e0f17c5	0.13973911
103	0x3e1c1c53	0.1524518
104	0xbde2dbcd	-0.1107708
105	0xbda656e1	-0.081220396
106	0x3dfe1d64	0.124079496
107	0x3e369e73	0.17833881
108	0x3e0376b0	0.12838244
109	0x3cdc476c	0.026889525
110	0xbd184f0e	-0.037184767
111	0x3ce146eb	0.027499637
112	0x3d83209c	0.06402704
113	0xbe5665aa	-0.2093722
114	0x3e507d72	0.20360354
115	0xbe9ef98c	-0.31049764
116	0x3dac53b1	0.084144
117	0xbcb5186d	-0.022106374
118	0xbde65f21	-0.11248613
119	0x3e16e3af	0.14735292

sequential.2.Lambda.weight f4 [120, 80]
0	0xbdd51bbf	-0.10405683
1	0x3c5ae15e	0.013359396
2	0x3de34257	0.11096638
3	0xbe599490	-0.21248078
4	0x3d947e4b	0.07250651
5	0xbe2882fb	-0.16456215
6	0x3c91fd89	0.01782109
7	0xbdc9a0d5	-0.098451294
8	0x3e5bd57e	0.2146816
9	0xbe3d6e69	-0.1849915
10	0x3d4544d9	0.04816136
11	0xbe9432a0	-0.28944874
12	0x3d90c952	0.07069649
13	0xbe74e29d	-0.23914571
14	0xbe554efc	-0.20830911
15	0x3e4098b1	0.18808247
16	0xbdc6973b	-0.09696814
17	0x3e150605	0.14553078
18	0x3e6979c9	0.22800364
19	0xbe734def	-0.23760198
20	0x3e4c7078	0.19964778
21	0xbe113c9e	-0.1418328
22	0x3e422a40	0.1896143
23	0x3ce1e70b	0.02757599
24	0xbd37a7d2	-0.04483778
25	0xbe805538	-0.25065017
26	0xbdc4294d	-0.0957819
27	0xbec2e3cf	-0.3806443
28	0xbdb9bb4a	-0.09068926
29	0x3e9c20b3	0.30493698
30	0x3e216615	0.15761597
31	0xbeb27336	-0.34853524
32	0x3eb932d6	0.36171597
33	0xbc707027	-0.014675177
34	0x3e037d53	0.12840776
35	0xbe6fd888	-0.23422444
36	0xbe84bb1a	-0.25923997
37	0x3cf70d45	0.030157695
38	0x3c2c59ab	0.010519425
39	0xbd5d3711	-0.054007594
40	0xbe6a3841	-0.22873022
41	0xbd3966bd	-0.045263994
42	0xbd349ff2	-0.04409785
43	0xbe9fd95a	-0.31220514
44	0xbe9ea70e	-0.30986828
45	0x3d8a1268	0.06741792
46	0x3dc4d71f	0.096113436
47	0xbe5f60a4	-0.21814209
48	0x3e8cf271	0.27528718
49	0x3dddf262	0.108372465
50	0x3ed19def	0.40940806
51	0xbd527973	-0.051385354
52	0x3e60cf90	0.21954179
53	0x3ddbda5b	0.107350074
54	0xbe207084	-0.15667921
55	0xbce9983e	-0.028514978
56	0xbe9c898f	-0.305737
57	0xbda4b1b4	-0.08041707
58	0xbe0561ea	-0.13025633
59	0x3e1e148e	0.15437528
60	0x3ea24103	0.31690225
61	0x3e13ee6e	0.14446422
62	0xbbed7995	-0.0072471597
63	0x3dc8fccf	0.098138444
64	0xbdab1048	-0.08352715
65	0x3e444c8b	0.19169824
66	0x3df8f0c5	0.12155298
67	0x3cb3cc21	0.021947922
68	0x3deaa4c0	0.11457205
69	0x3e971342	0.2950688
70	0xbd3774de	-0.044789188
71	0x3dc5d1fb	0.09659191
72	0xbe0a4a68	-0.13504946
73	0xbe1f33fa	-0.15547171
74	0xbd8da3f8	-0.0691604
75	0xbdcd10b3	-0.10012951
76	0xbedfa72c	-0.4368223
77	0x3ca0c190	0.019623548
78	0xbe5c51cd	-0.2151558
79	0x3ead8647	0.33891508
80	0x3e9ae125	0.30249897
81	0xbe3f5dd0	-0.1868813
82	0x3ea1998c	0.3156246
83	0x3d4ac712	0.049506254
84	0x3c34a75a	0.011026228
85	0x3cfa8ddb	0.03058522
86	0x3d7fa0fc	0.062409386
87	0xbd0c5920	-0.034264684
88	0x3e06fc34	0.13182145
89	0x3e8bd206	0.27308673
90	0xbc52dc00	-0.012869835
91	0x3d7c8918	0.06165418
92	0x3cd9d2d0	0.026589781
93	0x3e55f8c4	0.20895678
94	0x3e897561	0.26847365
95	0x3d7c9237	0.06166288
96	0xbeb20847	-0.3477194
97	0xbea6e039	-0.32592943
98	0xbd1b57d1	-0.037925545
99	0x3e56f0fa	0.20990363
100	0x3e862dc9	0.26206806
101	0xbcf814d3	-0.030283367
102	0xbd876d6b	-0.06612667
103	0x3e945bbc	0.28976238
104	0xbe29d7cd	-0.16586228
105	0xbe3d76b3	-0.18502311
106	0xbbbcf914	-0.005766997
107	0xbe19e72e	-0.15029594
108	0x3d1417ed	0.03615563
109	0xbe61f4f3	-0.22066097
110	0xbd986b7b	-0.07442375
111	0x3db95600	0.09049606
112	0x3eaff7f8	0.34368873
113	0xbd01bb4b	-0.031672757
114	0xbebb6759	-0.36602286
115	0xbd912314	-0.07086769
116	0x3e877859	0.26459005
117	0x3dbd8bdc	0.09255192
118	0xbe09fd07	-0.13475429
119	0xbe84d1b9	-0.25941256
120	0x3c83eba5	0.016103575
121	0xbf018156	-0.50587976
122	0xbc8d54bc	-0.017252319
123	0xbe709aba	-0.23496523
124	0xbcfb1eef	-0.030654399
125	0x3ec0c647	0.37651274
126	0xbc130b1d	-0.008974818
127	0x3db512ef	0.08841502
128	0x3e4a0cfc	0.19731516
129	0xbb83d7fb	-0.0040235496
130	0xbe583deb	-0.2111737
131	0x3dcfb6a8	0.10142261
132	0xbd6edd33	-0.05831642
133	0xbccfe3bb	-0.025377145
134	0xbc19ebff	-0.009394645
135	0x3e44f9c2	0.192359
136	0xbd84eb4c	-0.06490192
137	0x3d48316b	0.048875254
138	0x3e34ed70	0.176687
139	0xbdec9ac6	-0.11552958
140	0xbd0a41f0	-0.03375429
141	0x3eaf2bca	0.34213096
142	0x3de98dd6	0.11404006
143	0xbd08f431	-0.033436004
144	0xbe0c8680	-0.13723183
145	0xbe3cd33a	-0.18439952
146	0xbece47a8	-0.40289044
147	0x3e78fb5e	0.24314639
148	0x3b9585a2	0.0045630494
149	0xbd59a7c1	-0.0531385
150	0xbdb3e6de	-0.08784269
151	0xbe896272	-0.2683292
152	0xbdc18461	-0.094490774
153	0x3d96257d	0.07331369
154	0x3dac98c0	0.08427572
155	0x3d3287ee	0.043586664
156	0x3e220a15	0.15824158
157	0xbdb28176	-0.08716099
158	0x3e2c354f	0.1681721
159	0xbe3724af	-0.17885087
160	0x3e52f089	0.2059957
161	0x3de69a91	0.1125995
162	0xbe6bdd6c	-0.23033684
163	0xbde4dcd0	-0.11174929
164	0xbdeea80d	-0.11653147
165	0x3d9cfe13	0.07665648
166	0x3e840e89	0.2579234
167	0x3e27af20	0.16375399
168	0xbe45de8a	-0.19323173
169	0x3de441d7	0.111453705
170	0x3edf247b	0.4358252
171	0x3bd27c50	0.0064235106
172	0x3e4ae4a4	0.19813782
173	0x3dc51e7b	0.09624954
174	0xbe1db806	-0.1540223
175	0x3e6e89ca	0.2329475
176	0xbdbe0793	-0.092787884
177	0x3e9c8bf6	0.30575532
178	0xbe0882ce	-0.13331148
179	0x3dabc18e	0.08386527
180	0x3da1591e	0.07878326
181	0xbc1419af	-0.009039327
182	0x3e5f5105	0.2180825
183	0xbdf851b9	-0.12124962
184	0x3e73b42f	0.23799203
185	0x3c4d6ccf	0.012538149
186	0xbd5996ae	-0.053122215
187	0x3d98fbc9	0.07469899
188	0xbe5c9e1b	-0.21544687
189	0x3dbf1e2c	0.09331927
190	0xbe66be79	-0.22533597
191	0x3e4c6347	0.19959746
192	0x3ed651de	0.41859335
193	0x3e8ffaf1	0.2812114
194	0x3dbf84d6	0.09351508
195	0x3dbca68e	0.09211455
196	0x3df5d793	0.12004008
197	0x3e41593c	0.18881696
198	0x3e1870a8	0.14886725
199	0xbe0995ee	-0.134361
200	0x3d45d9f0	0.048303545
201	0xbe0988fc	-0.13431162
202	0xbd8c7334	-0.06857911
203	0xbcb9760d	-0.022639299
204	0x3d89906f	0.06717002
205	0xbdb353a0	-0.087561846
206	0xbd4fbc71	-0.05071682
207	0xbeae9dc1	-0.34104732
208	0x3e983d49	0.29734257
209	0xbdfb770f	-0.12278568
210	0xbdd795a9	-0.10526592
211	0x3da8b580	0.082377434
212	0xbe71bdc9	-0.23607554
213	0xbe524cbc	-0.20537084
214	0xbecd8a23	-0.40144452
215	0x3e9bacfa	0.30405408
216	0x3d93506c	0.07193074
217	0x3e50332d	0.20332022
218	0xbe2b1284	-0.16706282
219	0x3d426afd	0.047465313
220	0x3d98bf3d	0.07458351
221	0xbe1504a2	-0.14552549
222	0xbe450cc9	-0.19243158
223	0x3d5a98bd	0.05336832
224	0x3e5ff64b	0.21871297
225	0x3ddfd0fe	0.10928534
226	0xbe43160c	-0.19051379
227	0x3caeb7eb	0.021327933
228	0xbe93a5f5	-0.28837553
229	0xbe77edaa	-0.24211755
230	0xbe5227f8	-0.2052306
231	0x3d225d89	0.039639983
232	0xbe05ef27	-0.1307951
233	0xbe845714	-0.25847685
234	0xbe92aaec	-0.28646028
235	0x3daec5ea	0.08533843
236	0x3e16876c	0.14700097
237	0x3d5922c2	0.053011663
238	0xbe00c3f9	-0.12574758
239	0xbdb425dd	-0.08796284
240	0xbdeb66b9	-0.11494202
241	0xbe176e11	-0.14788081
242	0xbcb2688b	-0.021778366
243	0xbca49930	-0.020092577
244	0xbea10cec	-0.3145517
245	0xbd87752c	-0.06614146
246	0xbd6af578	-0.057363003
247	0xbde07895	-0.10960499
248	0x3cc5dd7a	0.02415346
249	0xbdf739de	-0.12071584
250	0xbd26a824	-0.040687695
251	0xbe250712	-0.16115978
252	0x3e3108ac	0.17288464
253	0x3d5ae38a	0.053439654
254	0xbe446c39	-0.19181909
255	0xbe07a194	-0.13245231

sequential.2.Lambda.bias f4 [120]
0	0x3e082900	0.1329689
1	0xbea17a91	-0.31538823
2	0x3ba09cbc	0.0049014967
3	0xbdd05d35	-0.10174028
4	0x3de40bb4	0.11135045
5	0xbe8e4587	-0.2778742
6	0x3e4ef8c6	0.20212087
7	0x3d2e642c	0.042576
8	0xbe561368	-0.2090584
9	0x3e7fa24b	0.24964254
10	0xbe413921	-0.18869449
11	0xbd88d483	-0.066811584
12	0x3d68efe2	0.056869395
13	0xbda49999	-0.08037109
14	0xbc67d774	-0.014150489
15	0xbdd436ab	-0.103619896
16	0x3d8ab032	0.06771888
17	0x3dc990dc	0.09842083
18	0x3db8b8f1	0.0901965
19	0xbd03bed4	-0.03216441
20	0xbdba964c	-0.09110698
21	0x3d958f49	0.0730272
22	0xbdedbbb0	-0.11608064
23	0x3d77aae9	0.060465727
24	0x3e13125b	0.14362471
25	0xbe21e921	-0.15811588
26	0x3e3a43f0	0.18189979
27	0x3d4249d4	0.04743369
28	0x3d7ae7e4	0.061256304
29	0xbdd5ae9a	-0.10433693
30	0x3d0ebe7c	0.03484963
31	0xbd58f96f	-0.052972253
32	0xbcdbe7a1	-0.026843848
33	0xbe4cb7b3	-0.1999195
34	0x3e2aca1a	0.16678658
35	0x3de82be7	0.11336499
36	0xbcf33134	-0.029686548
37	0xbcd257ba	-0.025676597
38	0xbe29dfda	-0.16589299
39	0x3e156eec	0.14593095
40	0x3e44f694	0.19234687
41	0x3c88cd45	0.016699443
42	0x3abd84f6	0.0014459181
43	0x3e4a4d1c	0.19755977
44	0xbde9c5ee	-0.11414705
45	0xbe21b572	-0.15791872
46	0x3d5767d7	0.052589264
47	0x3e46f400	0.19429016
48	0xbe30eb52	-0.17277268
49	0x3d8cadfc	0.068691224
50	0x3e3dc88c	0.18533534
51	0x3dde6e4a	0.1086088
52	0x3d7943df	0.060855743
53	0xbe2ca240	-0.16858768
54	0xbdfd152b	-0.12357553
55	0x3e746109	0.23865141
56	0x3dca627c	0.09882066
57	0xbd8d012a	-0.06884988
58	0xbe3cace1	-0.18425323
59	0xbe002ce8	-0.1251713
60	0x3e783561	0.24239112
61	0xbd50f58f	-0.051015433
62	0xbb891722	-0.004183666
63	0xbe836111	-0.25659993
64	0xbe14c427	-0.14527951
65	0x3e18590b	0.14877717
66	0x3b28405e	0.0025673131
67	0x3e26039c	0.16212314
68	0x3e16f3e8	0.1474148
69	0xbdbe1694	-0.0928165
70	0xbece8469	-0.40335396
71	0x3dca7291	0.09885133
72	0x3b8e9474	0.004351193
73	0x3d3aff72	0.045653768
74	0xbe2aef5f	-0.16692875
75	0x3d061164	0.03273143
76	0xbe37de3e	-0.17955872
77	0xbd10d2dd	-0.035357345
78	0xbb9f17d0	-0.0048551336
79	0xbdf83f49	-0.12121446
80	0x3d7c630e	0.061617903
81	0x3e32100d	0.17388935
82	0xbde111f4	-0.109897524
83	0x3df04f91	0.11733926
84	0x3e5d71b3	0.21625404
85	0x3d492db7	0.049115863
86	0xbe43b638	-0.1911248
87	0xbc92d9f7	-0.0179262
88	0xbd2b325b	-0.04179607
89	0xbec2a216	-0.38014287
90	0x3e099f40	0.13439655
91	0x38e52a47	0.00010927446
92	0xbdb4e041	-0.088318355
93	0xbd18452a	-0.037175335
94	0xbc67e9e9	-0.01415489
95	0xbe092e34	-0.13396531
96	0x3de0b0bc	0.109712094
97	0x3d91ff00	0.071287155
98	0xbc2bc7f5	-0.010484685
99	0xbdac205c	-0.084046096
100	0xbecf2147	-0.40455076
101	0x3daae24a	0.083439425
102	0x3e0f17c5	0.13973911
103	0x3e1c1c53	0.1524518
104	0xbde2dbcd	-0.1107708
105	0xbda656e1	-0.081220396
106	0x3dfe1d64	0.124079496
107	0x3e369e73	0.17833881
108	0x3e0376b0	0.12838244
109	0x3cdc476c	0.026889525
110	0xbd184f0e	-0.037184767
111	0x3ce146eb	0.027499637
112	0x3d83209c	0.06402704
113	0xbe5665aa	-0.2093722
114	0x3e507d72	0.20360354
115	0xbe9ef98c	-0.31049764
116	0x3dac53b1	0.084144
117	0xbcb5186d	-0.022106374
118	0xbde65f21	-0.11248613
119	0x3e16e3af	0.14735292

sequential.2.bn.running_mean f4 [120]
0	0x00000000	0.0
1	0x00000000	0.0
2	0x00000000	0.0
3	0x00000000	0.0
4	0x00000000	0.0
5	0x00000000	0.0
6	0x00000000	0.0
7	0x00000000	0.0
8	0x00000000	0.0
9	0x00000000	0.0
10	0x00000000	0.0
11	0x00000000	0.0
12	0x00000000	0.0
13	0x00000000	0.0
14	0x00000000	0.0
15	0x00000000	0.0
16	0x00000000	0.0
17	0x00000000	0.0
18	0x00000000	0.0
19	0x00000000	0.0
20	0x00000000	0.0
21	0x00000000	0.0
22	0x00000000	0.0
23	0x00000000	0.0
24	0x00000000	0.0
25	0x00000000	0.0
26	0x00000000	0.0
27	0x00000000	0.0
28	0x00000000	0.0
29	0x00000000	0.0
30	0x00000000	0.0
31	0x00000000	0.0
32	0x00000000	0.0
33	0x00000000	0.0
34	0x00000000	0.0
35	0x00000000	0.0
36	0x00000000	0.0
37	0x00000000	0.0
38	0x00000000	0.0
39	0x00000000	0.0
40	0x00000000	0.0
41	0x00000000	0.0
42	0x00000000	0.0
43	0x00000000	0.0
44	0x00000000	0.0
45	0x00000000	0.0
46	0x00000000	0.0
47	0x00000000	0.0
48	0x00000000	0.0
49	0x00000000	0.0
50	0x00000000	0.0
51	0x00000000	0.0
52	0x00000000	0.0
53	0x00000000	0.0
54	0x00000000	0.0
55	0x00000000	0.0
56	0x00000000	0.0
57	0x00000000	0.0
58	0x00000000	0.0
59	0x00000000	0.0
60	0x00000000	0.0
61	0x00000000	0.0
62	0x00000000	0.0
63	0x00000000	0.0
64	0x00000000	0.0
65	0x00000000	0.0
66	0x00000000	0.0
67	0x00000000	0.0
68	0x00000000	0.0
69	0x00000000	0.0
70	0x00000000	0.0
71	0x00000000	0.0
72	0x00000000	0.0
73	0x00000000	0.0
74	0x00000000	0.0
75	0x00000000	0.0
76	0x00000000	0.0
77	0x00000000	0.0
78	0x00000000	0.0
79	0x00000000	0.0
80	0x00000000	0.0
81	0x00000000	0.0
82	0x00000000	0.0
83	0x00000000	0.0
84	0x00000000	0.0
85	0x00000000	0.0
86	0x00000000	0.0
87	0x00000000	0.0
88	0x00000000	0.0
89	0x00000000	0.0
90	0x00000000	0.0
91	0x00000000	0.0
92	0x00000000	0.0
93	0x00000000	0.0
94	0x00000000	0.0
95	0x00000000	0.0
96	0x00000000	0.0
97	0x00000000	0.0
98	0x00000000	0.0
99	0x00000000	0.0
100	0x00000000	0.0
101	0x00000000	0.0
102	0x00000000	0.0
103	0x00000000	0.0
104	0x00000000	0.0
105	0x00000000	0.0
106	0x00000000	0.0
107	0x00000000	0.0
108	0x00000000	0.0
109	0x00000000	0.0
110	0x00000000	0.0
111	0x00000000	0.0
112	0x00000000	0.0
113	0x00000000	0.0
114	0x00000000	0.0
115	0x00000000	0.0
116	0x00000000	0.0
117	0x00000000	0.0
118	0x00000000	0.0
119	0x00000000	0.0

sequential.2.bn.running_var f4 [120]
0	0x3f800000	1.0
1	0x3f800000	1.0
2	0x3f800000	1.0
3	0x3f800000	1.0
4	0x3f800000	1.0
5	0x3f800000	1.0
6	0x3f800000	1.0
7	0x3f800000	1.0
8	0x3f800000	1.0
9	0x3f800000	1.0
10	0x3f800000	1.0
11	0x3f800000	1.0
12	0x3f800000	1.0
13	0x3f800000	1.0
14	0x3f800000	1.0
15	0x3f800000	1.0
16	0x3f800000	1.0
17	0x3f800000	1.0
18	0x3f800000	1.0
19	0x3f800000	1.0
20	0x3f800000	1.0
21	0x3f800000	1.0
22	0x3f800000	1.0
23	0x3f800000	1.0
24	0x3f800000	1.0
25	0x3f800000	1.0
26	0x3f800000	1.0
27	0x3f800000	1.0
28	0x3f800000	1.0
29	0x3f800000	1.0
30	0x3f800000	1.0
31	0x3f800000	1.0
32	0x3f800000	1.0
33	0x3f800000	1.0
34	0x3f800000	1.0
35	0x3f800000	1.0
36	0x3f800000	1.0
37	0x3f800000	1.0
38	0x3f800000	1.0
39	0x3f800000	1.0
40	0x3f800000	1.0
41	0x3f800000	1.0
42	0x3f800000	1.0
43	0x3f800000	1.0
44	0x3f800000	1.0
45	0x3f800000	1.0
46	0x3f800000	1.0
47	0x3f800000	1.0
48	0x3f800000	1.0
49	0x3f800000	1.0
50	0x3f800000	1.0
51	0x3f800000	1.0
52	0x3f800000	1.0
53	0x3f800000	1.0
54	0x3f800000	1.0
55	0x3f800000	1.0
56	0x3f800000	1.0
57	0x3f800000	1.0
58	0x3f800000	1.0
59	0x3f800000	1.0
60	0x3f800000	1.0
61	0x3f800000	1.0
62	0x3f800000	1.0
63	0x3f800000	1.0
64	0x3f800000	1.0
65	0x3f800000	1.0
66	0x3f800000	1.0
67	0x3f800000	1.0
68	0x3f800000	1.0
69	0x3f800000	1.0
70	0x3f800000	1.0
71	0x3f800000	1.0
72	0x3f800000	1.0
73	0x3f800000	1.0
74	0x3f800000	1.0
75	0x3f800000	1.0
76	0x3f800000	1.0
77	0x3f800000	1.0
78	0x3f800000	1.0
79	0x3f800000	1.0
80	0x3f800000	1.0
81	0x3f800000	1.0
82	0x3f800000	1.0
83	0x3f800000	1.0
84	0x3f800000	1.0
85	0x3f800000	1.0
86	0x3f800000	1.0
87	0x3f800000	1.0
88	0x3f800000	1.0
89	0x3f800000	1.0
90	0x3f800000	1.0
91	0x3f800000	1.0
92	0x3f800000	1.0
93	0x3f800000	1.0
94	0x3f800000	1.0
95	0x3f800000	1.0
96	0x3f800000	1.0
97	0x3f800000	1.0
98	0x3f800000	1.0
99	0x3f800000	1.0
100	0x3f800000	1.0
101	0x3f800000	1.0
102	0x3f800000	1.0
103	0x3f800000	1.0
104	0x3f800000	1.0
105	0x3f800000	1.0
106	0x3f800000	1.0
107	0x3f800000	1.0
108	0x3f800000	1.0
109	0x3f800000	1.0
110	0x3f800000	1.0
111	0x3f800000	1.0
112	0x3f800000	1.0
113	0x3f800000	1.0
114	0x3f800000	1.0
115	0x3f800000	1.0
116	0x3f800000	1.0
117	0x3f800000	1.0
118	0x3f800000	1.0
119	0x3f800000	1.0
