Models/Z_25GeV_1.pth (torch, 197172 bytes, 36 tensors)

sequential.0.Gamma.weight f4 [80, 4]
0.4884011 -0.20177047 0.51672 -0.16727313 -0.11296731 -0.45179525 0.82636845 0.8614035
0.32204413 -0.1297712 0.34259364 -0.35358623 -0.32662457 -0.29068547 0.8128848 0.6185239
0.48742262 0.34536445 -0.0749403 -0.77299285 -0.41657484 0.14752561 0.53578043 0.03935184
0.024234295 0.6638899 -0.09824158 -0.5171655 0.27311203 0.79595786 -0.7918814 0.1716069
-1.7161614 0.695974 -0.19467795 -0.28632784 0.6678897 1.1380562 0.54643065 0.0844557
0.14156781 -0.661211 -0.1272368 1.297268 0.109815665 0.05765666 -0.040879626 -0.061053537
0.21712221 -0.26134992 -1.5085762 1.2352014 -0.8494223 -0.47042608 -1.09651 -1.3705969
-0.67687774 0.7210759 -0.22843671 -0.0727504 -0.5883006 1.4139887 0.18159188 0.9032146
-0.9468639 -0.85540646 0.09170578 -0.014841031 0.19156764 -0.48333293 0.43084288 0.24974696
-0.82365537 1.5773411 -0.69762206 -0.462835 -0.0005856825 -0.14203702 0.9065877 0.049517237
0.012727313 0.4604006 -0.15844187 -0.27826512 0.36396083 -0.4337465 0.17810357 -0.1660587
0.5166177 -0.18782908 0.7124108 -1.3226819 0.6057103 1.0508891 -0.20966263 0.21178901
0.6675198 -0.78136444 0.96925336 -0.31471968 -0.6284003 0.101811886 0.9810542 -0.42635217
0.10242188 0.11405494 -0.67964965 0.29036644 0.2789553 0.17705727 -0.50738424 -0.42652515
0.8815019 -0.4631907 -0.9420711 -0.48085085 0.4316403 -0.042422798 0.3582021 1.2665155
0.05319965 -0.19793595 -0.051654365 -0.7742392 -0.4596029 -1.0696172 -0.21621715 0.024226151
0.8799795 -0.7230532 0.063707754 -1.4128457 -0.7627349 -0.56608653 0.048722293 0.8422822
-0.7317561 -0.8126865 -1.1935809 0.900415 0.24950081 0.437923 -0.19705155 0.10785097
0.7699424 0.17715618 1.0540836 -0.47254866 0.23756152 -0.35013422 0.5710317 -0.010028998
0.40268022 1.065751 -0.2579221 -0.90027535 0.48209205 0.8322454 -0.9502674 -0.8866233
-0.40740845 0.6328252 0.49521002 0.7486869 -0.48687026 -0.45205757 1.3805574 -0.0077767014
-0.019840987 0.97071356 0.1324042 0.004680539 -0.36977148 0.12543517 -0.26024002 -0.04931067
-0.89411485 -0.9111975 0.43133032 -0.030473579 0.96667844 0.29978403 -0.7597225 1.0901935
0.30265474 0.33595073 0.27687758 0.19865471 -1.0734422 0.07325598 0.35774484 -0.014410779
0.112584606 -0.80952656 -0.33969066 0.15717761 1.1745228 -0.34542927 0.5652339 -0.19812849
1.1071324 0.47171515 -1.1241837 0.84871817 0.25300112 0.6751018 -0.7754682 -1.2663199
0.48200816 -0.24758537 -0.6465101 -0.54290414 -1.0695635 -0.18880865 0.6689131 -0.018513769
-0.123781644 0.45938906 -0.58061177 -0.4970648 0.18706839 0.13076147 -0.48235127 0.6033416
-0.3500513 -0.63165325 0.2762395 0.7986862 -0.8517749 0.76853144 -1.182561 -0.012294147
-0.10477782 0.68865836 0.36236754 0.15490676 -0.54861176 -1.0630085 -0.59749013 -1.024176
1.2691202 -0.4220753 -0.37099695 -1.4010838 -0.73056805 0.61296177 -0.121384785 -0.76033676
0.27105096 -0.38301402 -0.42832518 -0.68811256 -0.16964345 -1.0725625 0.5722702 0.32579562
00000000: b50f fa3e eb9c 4ebe c347 043f a649 2bbe
00000010: 685b e7bd b551 e7be e28c 533f f184 5c3f
00000020: f8e2 a43e bee2 04be 6f68 af3e 4109 b5be
00000030: 563b a7be bad4 94be 3819 503f 9557 1e3f
00000040: 758f f93e 9cd3 b03e 4d7a 99bd dce2 45bf
00000050: 4c49 d5be f410 173e e828 093f 652f 213d
00000060: 0087 c63c b0f4 293f e232 c9bd f564 04bf
00000070: 57d5 8b3e e5c3 4b3f bdb8 4abf b8b9 2f3e
00000080: 2dab dbbf 5a2b 323f a859 47be 9099 92be
00000090: d2fa 2a3f d3ab 913f e1e2 0b3f 1cf7 ac3d
000000a0: 27f7 103e 2045 29bf 5d4a 02be e10c a63f
000000b0: 09e7 e03d 6429 6c3d 6571 27bd 4613 7abd
000000c0: 4955 5e3e a8cf 85be 0619 c1bf 141b 9e3f
000000d0: bd73 59bf b0db f0be 715a 8cbf b86f afbf
000000e0: dc47 2dbf 6e98 383f 50eb 69be 29fe 94bd
000000f0: de9a 16bf 95fd b43f 39f3 393e 1239 673f
00000100: ac65 72bf ebfb 5abf 3dd0 bb3d cc27 73bc
00000110: 4f2a 443e 6a77 f7be 7097 dc3e abbd 7f3e
00000120: 14db 52bf 50e6 c93f 5c97 32bf b6f8 ecbe
00000130: 7d88 19ba 2772 11be 2216 683f 96d2 4a3d
00000140: 3886 503c a1b9 eb3e 963e 22be c478 8ebe
00000150: 1359 ba3e 0514 debe c860 363e 4b0b 2abe
00000160: 0f41 043f 4456 40be 8e60 363f a44d a9bf
00000170: d50f 1b3f 8983 863f cdb1 56be 38df 583e
00000180: 94e2 2a3f 8007 48bf fd20 783f f022 a1be
00000190: d8de 20bf c082 d03d 5e26 7b3f d54a dabe
000001a0: 90c2 d13d a395 e93d 85fd 2dbf e9aa 943e
000001b0: 3bd3 8e3e 804e 353e efe3 01bf 8161 dabe
000001c0: 1caa 613f 5527 edbe 922b 71bf 1532 f6be
000001d0: f5ff dc3e 87c3 2dbd 4466 b73e 2e1d a23f
000001e0: e0e7 593d b9af 4abe 8793 53bd 8a34 46bf
000001f0: 1251 ebbe 37e9 88bf 0768 5dbe ec75 c63c
00000200: 5646 613f 041a 39bf 3679 823d 21d8 b4bf
00000210: 9842 43bf 0ceb 10bf 0791 473d ce9f 573f
00000220: 5e54 3bbf 390c 50bf 42c7 98bf 9981 663f
00000230: 247d 7f3e 7237 e03e e2c7 49be f8e0 dc3d
00000240: f21a 453f 6e68 353e 36ec 863f e6f1 f1be
00000250: 5443 733e cb44 b3be 222f 123f ab50 24bc
00000260: 1a2c ce3e 876a 883f 5e0e 84be 7278 66bf
00000270: c5d4 f63e 090e 553f b944 73bf bff9 62bf
00000280: d797 d0be d500 223f 2b8c fd3e f2a9 3f3f
00000290: 0f47 f9be 1774 e7be 1bb6 b03f b3d3 febb
000002a0: 9189 a2bc af80 783f f794 073e 355f 993b
000002b0: b052 bdbe 1472 003e 2e3e 85be fcf9 49bd
000002c0: b6e4 64bf 3d44 69bf 54d7 dc3e baa3 f9bc
000002d0: 3d78 773f 4b7d 993e 2c7d 42bf 768b 8b3f
000002e0: 90f5 9a3e bc01 ac3e e6c2 8d3e 246c 4b3e
000002f0: 8e66 89bf 3b07 963d 552a b73e 301b 6cbc
00000300: c292 e63d 223d 4fbf efeb adbe 2bf3 203e
00000310: c356 963f 1bdc b0be 2bb3 103f 32e2 4abe
00000320: 84b6 8d3f a684 f13e 40e5 8fbf 9845 593f
00000330: 5d89 813e 79d3 2c3f 1585 46bf c516 a2bf
00000340: c6c9 f63e 0587 7dbe b081 25bf c4fb 0abf
00000350: 75e7 88bf 0e57 41be e43d 2b3f 30aa 97bc
00000360: 3b81 fdbd 0b35 eb3e f9a2 14bf 477f febe
00000370: db8e 3f3e 56e6 053e bff6 f6be 9874 1a3f
00000380: ed39 b3be 07b4 21bf 446f 8d3e b376 4c3f
00000390: eb0d 5abf 7abe 443f 295e 97bf 646d 49bc
000003a0: c195 d6bd ea4b 303f 3d88 b93e e19f 1e3e
000003b0: d271 0cbf aa10 88bf 1df5 18bf 3318 83bf
000003c0: 8872 a23f 411a d8be 50f3 bdbe b756 b3bf
000003d0: 8206 3bbf 10eb 1c3f 9698 f8bd 6ea5 42bf
000003e0: 31c7 8a3e 6a1a c4be 704d dbbe 2528 30bf
000003f0: 03b7 2dbe ba49 89bf 4d80 123f afce a63e

sequential.0.Gamma.bias f4 [80]
0.34559166 -0.13041173 0.082757406 0.168882 0.20005329 -0.31135222 0.25437614 -0.13684489
0.007508712 -0.1249324 -0.3725882 0.035820547 -0.36516798 0.07775485 0.05936936 -0.11836914
0.0036998917 -0.31454042 0.23646091 -0.045970365 0.28226385 0.20549902 0.1075784 -0.2799864
0.06796422 0.11949923 -0.2251676 0.08831187 0.06479858 -0.22813492 0.27940062 0.0042336574
0.2129138 -0.12668741 -0.36286756 -0.006270061 0.0313478 -0.163263 -0.00562051 0.121883415
-0.17043643 0.036950935 -0.07353963 0.04985134 0.1932964 -0.29957896 -0.23766124 -0.2228364
-0.17971826 0.062066656 -0.21134795 0.113878354 -0.037771754 -0.26317424 0.1858848 -0.1876129
-0.29434505 0.014897268 -0.23837598 0.13265999 0.013165348 0.28764352 0.046516962 -0.020886322
-0.12334208 -0.22152829 -0.07239092 0.079063974 -0.15793556 -0.043179158 0.0021857822 -0.16984783
-0.09345325 0.055254444 -0.013267099 0.15530178 -0.22934228 0.29937422 0.30662164 -0.23870109
00000000: 64f1 b03e a78a 05be b77c a93d 67ef 2c3e
00000010: c5da 4c3e 8f69 9fbe 973d 823e 1121 0cbe
00000020: a40b f63b 8fdc ffbd e1c3 bebe 91b8 123d
00000030: 4cf7 babe ef3d 9f3d 492d 733d 856b f2bd
00000040: e279 723b 710b a1be cf22 723e 6c4b 3cbd
00000050: e384 903e 566e 523e 1052 dc3d 615a 8fbe
00000060: d330 8b3d 03bc f43d 5692 66be dbdc b43d
00000070: 1eb5 843d 339c 69be 990d 8f3e 7eba 8a3b
00000080: 1306 5a3e 58ba 01be c7c9 b9be 1575 cdbb
00000090: 8d66 003d 6a2e 27be 412c b8bb 039e f93d
000000a0: e386 2ebe dd59 173d f29b 96bd eb30 4c3d
000000b0: 7eef 453e 6a62 99be 785d 73be 3a2f 64be
000000c0: 1008 38be 9b39 7e3d 996b 58be 0e39 e93d
000000d0: 8eb6 1abd c6be 86be 9658 3e3e 991d 40be
000000e0: 65b4 96be ac13 743c d518 74be 05d8 073e
000000f0: 79b3 573c 0346 933e 9288 3e3d cb19 abbc
00000100: c69a fcbd 50d8 62be b141 94bd 4bec a13d
00000110: dcb9 21be a1dc 30bd 573f 0f3b 97ec 2dbe
00000120: 6b64 bfbd 7c52 623d 3f5e 59bc 6e07 1f3e
00000130: b4d8 6abe 9447 993e 83fd 9c3e 0f6e 74be

sequential.0.Lambda.weight f4 [80, 4]
-0.2633712 -0.70100474 -0.20074338 1.12766 0.30572549 -0.14363465 -0.5965931 0.15110034
-0.11336225 -0.6399502 -0.41916966 -0.64049715 0.9554818 0.98545545 2.0493517 0.49222752
-1.2214868 0.52885914 0.9425152 0.796758 1.6130548 -0.31366464 -0.9955804 0.07600074
0.3257813 0.16847812 -0.52552855 -0.3499156 -1.139835 -0.54783523 0.9432391 0.46564662
-0.2920294 0.89507127 -0.54074585 0.13028724 0.91460204 -0.022764577 -0.02382144 1.2899528
0.33168626 -0.8009678 1.1402655 -1.5251077 -0.001219658 0.2389557 -0.5717266 -1.2200398
1.0856397 0.23389201 -0.8472845 0.17829975 -0.8908321 -0.49400315 1.3325561 0.12828846
0.09034109 0.7403815 -0.14995514 -0.362114 0.17136098 0.9291987 0.39695877 -0.65462124
0.07564007 0.07335125 0.7574846 -1.2494023 -0.6261816 -0.52560973 0.33339053 -0.018824503
0.22970262 0.35140568 0.41304648 -0.5076152 -0.17397228 2.2798936 0.58650374 3.0461283
-0.22523752 -1.5947391 0.26345968 -0.59233123 1.4992269 0.54049903 -0.32677072 0.6587426
-0.23289636 0.6333191 -0.04188295 0.53906953 -0.89069694 0.60289353 0.1937483 -0.91620606
0.12257581 -0.9035278 0.291491 0.26822308 -0.18603314 -0.31883022 0.635183 -0.95736665
1.8078258 0.18410677 -0.6888602 1.3699262 -0.8455167 -1.0597907 -0.09446922 0.56154305
0.83648396 -0.7672379 0.57509285 -0.16235276 -0.094915956 0.8868993 0.19582911 1.0221052
1.206059 -0.7261712 -0.47512305 0.9608681 -0.14591268 -0.12066961 1.9640648 -0.32964727
-0.17921737 -0.17360227 -0.42480057 -0.49397454 0.23006605 0.7188682 0.40059775 0.4677402
-0.5201281 -0.23117436 -0.7453 1.2706249 0.84292525 -0.12895703 0.22342214 -0.18384598
-0.8979562 -0.6698825 0.1471237 0.77329504 1.1845037 -1.4337131 -0.230283 0.1926401
0.6782655 -1.0973357 -0.686489 -1.34078 0.36714497 -0.021595797 -0.92022663 0.33968255
0.6472756 0.50541705 1.2172759 -0.5382023 -0.56244063 1.1563338 0.004107237 0.42805237
0.38028872 0.19881088 -1.1655484 -0.19898625 1.1437724 -0.0016704893 0.24695642 1.1951
0.024674846 0.34005222 1.1038871 0.3048419 1.4382231 0.87940466 0.33845198 -0.6951034
-0.7179353 -0.88982517 -0.7986481 -0.34916165 -0.264833 0.35595655 0.14830266 -0.24613361
-0.5270395 -1.4245554 0.32174286 -0.26558757 0.37310544 -0.4758775 0.26922768 -0.7356949
-0.0651859 -0.375659 0.7210877 1.2251434 -0.6307918 0.24521525 0.93658346 1.6851819
-1.0174503 -0.34418342 0.5851004 -0.09274496 -0.351839 -0.047043383 1.1212087 0.78772694
0.3848021 0.2808921 -0.17227277 -0.6872918 -0.520077 -0.1353248 -0.39522263 -0.012001394
-0.50223273 -0.8781665 0.19265664 -0.1304931 1.1695646 -0.68913305 -0.30174074 0.09352273
0.4455302 0.06627447 0.39310423 -0.41529372 -1.047201 0.59121066 0.39129394 0.2804813
-0.45533517 -0.4324984 0.08929872 -0.80629236 -1.399375 -0.6923148 -0.3934459 -0.1356057
-0.63533926 -0.09489818 0.63973886 -0.9986146 0.04625346 0.10890344 1.1005235 0.6132448
00000000: 97d8 86be 0c75 33bf ac8f 4dbe 2a57 903f
00000010: 0d88 9c3e f614 13be 53ba 18bf 0cba 1a3e
00000020: 782a e8bd c7d3 23bf 689d d6be 9ff7 23bf
00000030: 759a 743f cf46 7c3f 9428 0340 3f05 fc3e
00000040: ae59 9cbf 5063 073f ad48 713f 55f8 4b3f
00000050: 9478 ce3f a798 a0be 5bde 7ebf 47a6 9b3d
00000060: cecc a63e 8785 2c3e 0a89 06bf 2328 b3be
00000070: 1de6 91bf ee3e 0cbf 1e78 713f 3c69 ee3e
00000080: e184 95be 6423 653f 526e 0abf 056a 053e
00000090: 5c23 6a3f c77c babc 2e25 c3bc 2c1d a53f
000000a0: c8d2 a93e 3a0c 4dbf 38f4 913f bb36 c3bf
000000b0: eedc 9fba ceb0 743e ad5c 12bf 442a 9cbf
000000c0: 3ef6 8a3f 6381 6f3e a3e7 58bf 3694 363e
000000d0: 930d 64bf fbed fcbe 3391 aa3f 0d5e 033e
000000e0: c004 b93d a489 3d3f d78d 19be 0267 b9be
000000f0: 4179 2f3e f7df 6d3f 2e3e cb3e 4295 27bf
00000100: 2ee9 9a3d 2e39 963d 83ea 413f 6aec 9fbf
00000110: 704d 20bf 5c8e 06bf 2ab2 aa3e d835 9abc
00000120: 2a37 6b3e 72eb b33e d47a d33e 12f3 01bf
00000130: ca25 32be c7e9 1140 1c25 163f c4f3 4240
00000140: aaa4 66be 6920 ccbf 30e4 863e 05a3 17bf
00000150: abe6 bf3f 255e 0a3f 7e4e a7be 5ba3 283f
00000160: 627c 6ebe 3321 223f 758d 2bbd 7600 0a3f
00000170: b704 64bf 3b57 1a3f f465 463e 7b8c 6abf
00000180: 0709 fb3d 994d 67bf 4f3e 953e 8954 893e
00000190: 797f 3ebe b73d a3be 5a9b 223f fb15 75bf
000001a0: d666 e73f 7c86 3c3e 2459 30bf be59 af3f
000001b0: c873 58bf 39a7 87bf 1479 c1bd 49c1 0f3f
000001c0: d023 563f b469 44bf 4939 133f cd3f 26be
000001d0: 4c63 c2bd d50b 633f 6d87 483e 58d4 823f
000001e0: 2460 9a3f 5be6 39bf 5443 f3be 74fb 753f
000001f0: 226a 15be a121 f7bd 7a66 fb3f 87c7 a8be
00000200: c284 37be cbc4 31be 767f d9be 3bea fcbe
00000210: 6f96 6b3e bf07 383f 261b cd3e a57b ef3e
00000220: 1d27 05bf f9b8 6cbe fbcb 3ebf d6a3 a23f
00000230: f3c9 573f 500d 04be c6c8 643e 1f42 3cbe
00000240: 75e0 65bf 6b7d 2bbf 98a7 163e aaf6 453f
00000250: d19d 973f e983 b7bf 4fcf 6bbe 7243 453e
00000260: cfa2 2d3f 7f75 8cbf bebd 2fbf ae9e abbf
00000270: 6dfa bb3e abe9 b0bc f993 6bbf dfea ad3e
00000280: dbb3 253f 0363 013f b2cf 9b3f a0c7 09bf
00000290: 1cfc 0fbf bf02 943f 0096 863b ae29 db3e
000002a0: 34b5 c23e 1495 4b3e b130 95bf 0dc3 4bbe
000002b0: 2267 923f 52f4 daba 25e2 7c3e 09f9 983f
000002c0: e722 ca3c 531b ae3e 2c4c 8d3f 3d14 9c3e
000002d0: b217 b83f aa20 613f 9449 ad3e 4cf2 31bf
000002e0: 9cca 37bf 95cb 63bf 3474 4cbf 51c5 b2be
000002f0: 3198 87be f03f b63e a7dc 173e 730a 7cbe
00000300: 10ec 06bf d557 b6bf 7bbb a43e 18fb 87be
00000310: ad07 bf3e 37a6 f3be 36d8 893e 8056 3cbf
00000320: 2f80 85bd 6056 c0be 3499 383f 80d1 9c3f
00000330: 927b 21bf b519 7b3e efc3 6f3f 0ab4 d73f
00000340: d03b 82bf cf38 b0be 24c9 153f 12f1 bdbd
00000350: 3e24 b4be 90b0 40bd c483 8f3f 79a8 493f
00000360: c804 c53e 17d1 8f3e 4668 30be 5bf2 2fbf
00000370: c423 05bf 9692 0abe 9f5a cabe 7fa1 44bc
00000380: 5392 00bf 85cf 60bf c847 453e fc9f 05be
00000390: 4bb4 953f 066b 30bf c37d 9abe d888 bf3d
000003a0: 891c e43e e9ba 873d f544 c93e 61a1 d4be
000003b0: af0a 86bf 9559 173f ae57 c83e 3f9b 8f3e
000003c0: b121 e9be 6e70 ddbe 3fe2 b63d 2d69 4ebf
000003d0: b81e b3bf 8b3b 31bf be71 c9be 38dc 0abe
000003e0: 98a5 22bf fa59 c2bd edc5 233f 35a5 7fbf
000003f0: 4574 3d3d c408 df3d f4dd 8c3f 9cfd 1c3f

sequential.0.Lambda.bias f4 [80]
0.34559166 -0.13041173 0.082757406 0.168882 0.20005329 -0.31135222 0.25437614 -0.13684489
0.007508712 -0.1249324 -0.3725882 0.035820547 -0.36516798 0.07775485 0.05936936 -0.11836914
0.0036998917 -0.31454042 0.23646091 -0.045970365 0.28226385 0.20549902 0.1075784 -0.2799864
0.06796422 0.11949923 -0.2251676 0.08831187 0.06479858 -0.22813492 0.27940062 0.0042336574
0.2129138 -0.12668741 -0.36286756 -0.006270061 0.0313478 -0.163263 -0.00562051 0.121883415
-0.17043643 0.036950935 -0.07353963 0.04985134 0.1932964 -0.29957896 -0.23766124 -0.2228364
-0.17971826 0.062066656 -0.21134795 0.113878354 -0.037771754 -0.26317424 0.1858848 -0.1876129
-0.29434505 0.014897268 -0.23837598 0.13265999 0.013165348 0.28764352 0.046516962 -0.020886322
-0.12334208 -0.22152829 -0.07239092 0.079063974 -0.15793556 -0.043179158 0.0021857822 -0.16984783
-0.09345325 0.055254444 -0.013267099 0.15530178 -0.22934228 0.29937422 0.30662164 -0.23870109
00000000: 64f1 b03e a78a 05be b77c a93d 67ef 2c3e
00000010: c5da 4c3e 8f69 9fbe 973d 823e 1121 0cbe
00000020: a40b f63b 8fdc ffbd e1c3 bebe 91b8 123d
00000030: 4cf7 babe ef3d 9f3d 492d 733d 856b f2bd
00000040: e279 723b 710b a1be cf22 723e 6c4b 3cbd
00000050: e384 903e 566e 523e 1052 dc3d 615a 8fbe
00000060: d330 8b3d 03bc f43d 5692 66be dbdc b43d
00000070: 1eb5 843d 339c 69be 990d 8f3e 7eba 8a3b
00000080: 1306 5a3e 58ba 01be c7c9 b9be 1575 cdbb
00000090: 8d66 003d 6a2e 27be 412c b8bb 039e f93d
000000a0: e386 2ebe dd59 173d f29b 96bd eb30 4c3d
000000b0: 7eef 453e 6a62 99be 785d 73be 3a2f 64be
000000c0: 1008 38be 9b39 7e3d 996b 58be 0e39 e93d
000000d0: 8eb6 1abd c6be 86be 9658 3e3e 991d 40be
000000e0: 65b4 96be ac13 743c d518 74be 05d8 073e
000000f0: 79b3 573c 0346 933e 9288 3e3d cb19 abbc
00000100: c69a fcbd 50d8 62be b141 94bd 4bec a13d
00000110: dcb9 21be a1dc 30bd 573f 0f3b 97ec 2dbe
00000120: 6b64 bfbd 7c52 623d 3f5e 59bc 6e07 1f3e
00000130: b4d8 6abe 9447 993e 83fd 9c3e 0f6e 74be

sequential.0.bn.running_mean f4 [80]
0.0 0.0 0.0 0.0 0.0 0.0 0.0 0.0
0.0 0.0 0.0 0.0 0.0 0.0 0.0 0.0
0.0 0.0 0.0 0.0 0.0 0.0 0.0 0.0
0.0 0.0 0.0 0.0 0.0 0.0 0.0 0.0
0.0 0.0 0.0 0.0 0.0 0.0 0.0 0.0
0.0 0.0 0.0 0.0 0.0 0.0 0.0 0.0
0.0 0.0 0.0 0.0 0.0 0.0 0.0 0.0
0.0 0.0 0.0 0.0 0.0 0.0 0.0 0.0
0.0 0.0 0.0 0.0 0.0 0.0 0.0 0.0
0.0 0.0 0.0 0.0 0.0 0.0 0.0 0.0
00000000: 0000 0000 0000 0000 0000 0000 0000 0000
00000010: 0000 0000 0000 0000 0000 0000 0000 0000
00000020: 0000 0000 0000 0000 0000 0000 0000 0000
00000030: 0000 0000 0000 0000 0000 0000 0000 0000
00000040: 0000 0000 0000 0000 0000 0000 0000 0000
00000050: 0000 0000 0000 0000 0000 0000 0000 0000
00000060: 0000 0000 0000 0000 0000 0000 0000 0000
00000070: 0000 0000 0000 0000 0000 0000 0000 0000
00000080: 0000 0000 0000 0000 0000 0000 0000 0000
00000090: 0000 0000 0000 0000 0000 0000 0000 0000
000000a0: 0000 0000 0000 0000 0000 0000 0000 0000
000000b0: 0000 0000 0000 0000 0000 0000 0000 0000
000000c0: 0000 0000 0000 0000 0000 0000 0000 0000
000000d0: 0000 0000 0000 0000 0000 0000 0000 0000
000000e0: 0000 0000 0000 0000 0000 0000 0000 0000
000000f0: 0000 0000 0000 0000 0000 0000 0000 0000
00000100: 0000 0000 0000 0000 0000 0000 0000 0000
00000110: 0000 0000 0000 0000 0000 0000 0000 0000
00000120: 0000 0000 0000 0000 0000 0000 0000 0000
00000130: 0000 0000 0000 0000 0000 0000 0000 0000

sequential.0.bn.running_var f4 [80]
1.0 1.0 1.0 1.0 1.0 1.0 1.0 1.0
1.0 1.0 1.0 1.0 1.0 1.0 1.0 1.0
1.0 1.0 1.0 1.0 1.0 1.0 1.0 1.0
1.0 1.0 1.0 1.0 1.0 1.0 1.0 1.0
1.0 1.0 1.0 1.0 1.0 1.0 1.0 1.0
1.0 1.0 1.0 1.0 1.0 1.0 1.0 1.0
1.0 1.0 1.0 1.0 1.0 1.0 1.0 1.0
1.0 1.0 1.0 1.0 1.0 1.0 1.0 1.0
1.0 1.0 1.0 1.0 1.0 1.0 1.0 1.0
1.0 1.0 1.0 1.0 1.0 1.0 1.0 1.0
00000000: 0000 803f 0000 803f 0000 803f 0000 803f
00000010: 0000 803f 0000 803f 0000 803f 0000 803f
00000020: 0000 803f 0000 803f 0000 803f 0000 803f
00000030: 0000 803f 0000 803f 0000 803f 0000 803f
00000040: 0000 803f 0000 803f 0000 803f 0000 803f
00000050: 0000 803f 0000 803f 0000 803f 0000 803f
00000060: 0000 803f 0000 803f 0000 803f 0000 803f
00000070: 0000 803f 0000 803f 0000 803f 0000 803f
00000080: 0000 803f 0000 803f 0000 803f 0000 803f
00000090: 0000 803f 0000 803f 0000 803f 0000 803f
000000a0: 0000 803f 0000 803f 0000 803f 0000 803f
000000b0: 0000 803f 0000 803f 0000 803f 0000 803f
000000c0: 0000 803f 0000 803f 0000 803f 0000 803f
000000d0: 0000 803f 0000 803f 0000 803f 0000 803f
000000e0: 0000 803f 0000 803f 0000 803f 0000 803f
000000f0: 0000 803f 0000 803f 0000 803f 0000 803f
00000100: 0000 803f 0000 803f 0000 803f 0000 803f
00000110: 0000 803f 0000 803f 0000 803f 0000 803f
00000120: 0000 803f 0000 803f 0000 803f 0000 803f
00000130: 0000 803f 0000 803f 0000 803f 0000 803f

sequential.2.Gamma.weight f4 [120, 80]
-0.13732788 -0.12355793 0.4735436 -0.16909093 -0.066891395 0.010321313 0.011748142 -0.16225468
-0.14763011 0.359368 -0.24957214 -0.056302357 -0.17496327 0.059141453 -0.14945997 0.26834837
-0.015373146 0.06613895 0.1147415 -0.3194912 -0.15633693 -0.10209736 -0.01685228 0.12745278
-0.2713912 0.18555862 0.016540518 0.119603254 0.42212802 -0.0039557307 0.20219773 -0.14209275
0.012240786 -0.01937971 0.08374243 -0.12298775 -0.1667322 0.02706784 0.2089047 -0.12771636
0.08393592 0.02183248 -0.1798414 0.29030612 -0.2272656 0.23094246 -0.016055819 -0.052273642
-0.06321334 -0.34890643 0.018584376 -0.0032038784 -0.16527885 -0.185629 0.17466468 0.0845716
-0.054285266 -0.062551536 -0.11172275 0.24713129 0.19856858 -0.22302753 0.17168893 0.11876537
0.06886935 0.04579583 0.09482344 0.03526436 0.17515565 0.22911035 0.039126262 0.07708943
-0.038993157 0.09577059 0.07751923 -0.049765453 -0.25133586 -0.06256857 -0.06449556 0.18299781
0.34349212 -0.08612557 0.30173254 -0.16590312 0.30249867 -0.34237984 0.1153434 -0.23376277
0.3017829 -0.19686738 -0.32563758 0.18890874 0.03957458 -0.12757896 0.36224252 -0.07726533
-0.103613675 -0.18597716 0.3031499 -0.060898047 0.041351184 0.5850586 0.2980427 -0.22525737
0.18803224 0.07570156 -0.1189944 0.14698203 0.26786703 -0.13519734 -0.06726364 -0.1267945
0.5052219 -0.37997442 -0.5668571 -0.46766853 0.16035628 -0.4113559 0.2433034 0.2877637
-0.55458313 0.31594345 -0.14114684 0.54064244 0.147785 0.009952332 -0.32195336 -0.45213258
-0.24002962 0.19161893 -0.1367526 0.06648498 0.18816721 -0.36416948 0.37585458 -0.15900786
-0.7233368 0.24164884 -0.29341653 0.67275727 0.58043706 0.179475 0.47495848 -0.08869181
-0.20726606 -0.1425654 -0.2836839 0.36178243 -0.04617104 0.22667573 0.27609158 -0.26530287
-0.031254437 0.23080003 0.40968 0.533321 -0.2005312 0.31368673 0.38331917 -0.04549341
-0.02314347 0.067200564 -0.21873814 0.077574454 0.052448902 -0.09233608 -0.32860705 -0.11888658
0.10483254 -0.054626934 -0.12413868 0.34754798 0.03588236 0.13774428 0.10959456 -0.061169073
0.14286107 -0.22174694 -0.13108185 0.09990741 -0.09151438 0.08944169 -0.033194613 -0.123964764
0.28815433 0.25704363 0.152633 -0.009556621 0.035451323 -0.022902114 -0.26569363 -0.023403214
0.30710217 -0.14740324 -0.007122824 0.112706944 0.42115518 0.30108947 0.2081086 0.1799018
0.11313836 0.014046803 0.2593248 0.07605112 0.0034102532 -0.15494232 -0.090425834 0.04015142
-0.3861102 0.12561366 -0.03551075 0.026515717 0.15467468 -0.090170376 -0.045244716 0.36254597
0.012320879 0.2533089 -0.105080284 0.31588012 -0.06714407 0.2853398 -0.014585608 -0.2298936
-0.015741708 -0.5087723 -0.009062843 0.013068 0.06455052 -0.023166418 -0.018563299 0.19093584
0.042085733 0.0047469763 0.0029343464 -0.022493714 0.12423439 0.22681111 0.32170147 -0.11210151
-0.1592378 0.22942266 -0.039925482 0.08069638 0.06972931 0.10345965 -0.040260106 0.02006862
-0.14324082 0.20693812 0.28194037 -0.08580047 -0.12501042 -0.068149 -0.23933098 -0.05275441
00000000: ae9f 0cbe f10b fdbd 4f74 f23e 2c26 2dbe
00000010: 5bfe 88bd b91a 293c 477b 403c 1726 26be
00000020: 592c 17be 15ff b73e d78f 7fbe 4d9d 66bd
00000030: 9229 33be 4f3e 723d 090c 19be f564 893e
00000040: a6df 7bbc dc73 873d 97fd ea3d 5a94 a3be
00000050: ca16 20be 6c18 d1bd cb0d 8abc fb82 023e
00000060: caf3 8abe 1403 3e3e fb7f 873c 8df2 f43d
00000070: 2a21 d83e 139f 81bb ec0c 4f3e c380 11be
00000080: 948d 483c 33c2 9ebc 2781 ab3d 00e1 fbbd
00000090: d9bb 2abe 60bd dd3c 1deb 553e 14c8 02be
000000a0: 98e6 ab3d 07da b23c 5828 38be 01a3 943e
000000b0: 50b8 68be 2e7c 6c3e 7e87 83bc e31c 56bd
000000c0: ff75 81bd dda3 b2be 433e 983c 29f8 51bb
000000d0: dc3e 29be 8715 3ebe 4cdb 323e e033 ad3d
000000e0: 3a5a 5ebd 051b 80bd e6ce e4bd fc0f 7d3e
000000f0: 9055 4b3e 5461 64be 39cf 2f3e 423b f33d
00000100: 600b 8d3d 6994 3b3d cb32 c23d 5d71 103d
00000110: 015c 333e e79b 6a3e dc42 203d 10e1 9d3d
00000120: 4ab7 1fbd 5f23 c43d 67c2 9e3d dcd6 4bbd
00000130: 18af 80be f323 80bd 4016 84bd c763 3b3e
00000140: 33de af3e 9a62 b0bd b07c 9a3e 82e2 29be
00000150: 1be1 9a3e 694c afbe 2939 ec3d 825f 6fbe
00000160: 4a83 9a3e 9a97 49be f8b9 a6be 4b71 413e
00000170: f418 223d 0fa4 02be da77 b93e 493d 9ebd
00000180: 6833 d4bd cc70 3ebe 7736 9b3e 3b70 79bd
00000190: dc5f 293d 67c6 153f 0e99 983e dea9 66be
000001a0: 868b 403e 6b09 9b3d 56b3 f3bd 7582 163e
000001b0: de25 893e 2c71 0abe 85c1 89bd 6bd6 01be
000001c0: 3956 013f 028c c2be 8c1d 11bf 4072 efbe
000001d0: 7034 243e 3e9d d2be 8724 793e c455 933e
000001e0: 29f9 0dbf 57c3 a13e cc88 10be 8b67 0a3f
000001f0: f354 173e 1b0f 233c 12d7 a4be ec7d e7be
00000200: 53ca 75be c137 443e e008 0cbe 4729 883d
00000210: e8ae 403e 6c74 babe 0370 c03e f5d2 22be
00000220: 9a2c 39bf cb72 773e b13a 96be d239 2c3f
00000230: 8697 143f 4bc8 373e c22d f33e 0da4 b5bd
00000240: 8e3d 54be aafc 11be 043f 91be 8c3b b93e
00000250: d81d 3dbd af1d 683e e05b 8d3e c7d5 87be
00000260: a704 00bd d856 6c3e 94c1 d13e ba87 083f
00000270: 0d58 4dbe 8c9b a03e 6942 c43e 4c57 3abd
00000280: 6097 bdbc 73a0 893d e4fc 5fbe 5bdf 9e3d
00000290: a9d4 563d b31a bdbd 2f3f a8be cf7a f3bd
000002a0: 71b2 d63d 7ec0 5fbd 6c3c febd cff1 b13e
000002b0: 62f9 123d d60c 0d3e 1d73 e03d 6c8c 7abd
000002c0: 2c4a 123e a111 63be 523a 06be 429c cc3d
000002d0: e46b bbbd 342d b73d 13f7 07bd 3de1 fdbd
000002e0: f788 933e 399b 833e d34b 1c3e 6093 1cbc
000002f0: 6835 113d 379d bbbc ff08 88be 19b8 bfbc
00000300: 7f3c 9d3e e0f0 16be 9466 e9bb e6d2 e63d
00000310: a7a1 d73e 6628 9a3e 6c1a 553e 2d38 383e
00000320: 16b5 e73d 9024 663c 38c6 843e b1c0 9b3d
00000330: 8e7e 5f3b 33a9 1ebe 2e31 b9bd d175 243d
00000340: 3cb0 c5be dea0 003e b873 11bd 7d37 d93c
00000350: 0a63 1e3e 3fab b8bd 8652 39bd a09f b93e
00000360: 83dd 493c b4b1 813e 5534 d7bd 0abb a13e
00000370: d582 89bd 0f18 923e 79f8 6ebc 3a69 6bbe
00000380: c1f4 80bc e73e 02bf 527c 14bc 2a1b 563c
00000390: 1033 843d 80c7 bdbc 0f12 98bc af84 433e
000003a0: 1762 2c3d 868c 9b3b 2a4e 403b bd44 b8bc
000003b0: 9a6e fe3d 2c41 683e 0eb6 a43e 7a95 e5bd
000003c0: 3c0f 23be c6ed 6a3e e788 23bd 2544 a53d
000003d0: 3ece 8e3d a7e2 d33d c8e7 24bd f266 a43c
000003e0: b9ad 12be 96e7 533e 7d5a 903e 28b8 afbd
000003f0: bb02 00be b491 8bbd 2e13 75be 0215 58bd

sequential.2.Gamma.bias f4 [120]
0.021397246 -0.20276423 0.08122314 -0.035944328 0.028952857 -0.0025354468 0.027994024 -0.07169906
-0.17862919 0.057615552 -0.08914404 -0.15680425 -0.07737397 -0.06771511 -0.07517859 -0.458414
-0.078844085 -0.05820443 0.12849417 -0.06259569 -0.04874039 0.009881678 0.044869818 -0.05999128
0.0616347 0.047434807 0.100938 0.092698716 0.13153297 0.09868024 0.036014494 -0.053878404
-0.0032530816 -0.07697897 -0.09655593 -0.085596666 -0.11725988 0.03894833 -0.015929224 -0.083515525
-0.044351026 0.008891023 0.07517752 -0.018521635 0.016360387 -0.006177468 -0.02426831 -0.10528864
0.050661106 -0.14483558 -0.09488355 0.11766358 -0.042119823 -0.012122714 0.096687816 -0.017821046
-0.050908897 -0.11333262 0.12071739 -0.10990314 0.027844718 0.00974146 0.05785117 0.12645042
0.029832443 -0.084190026 -0.25719216 -0.026376901 0.043007202 0.115963385 -0.07449596 -0.060231894
0.031161904 -0.08923851 -0.024613034 -0.038569465 0.0905543 -0.049952056 0.0449774 -0.07443613
-0.1250971 -0.059888642 0.011891172 -0.028579876 -0.027574342 0.038211066 0.07023923 -0.11406543
0.09752047 0.072113685 0.073730946 -0.103875354 0.03301353 -0.030817656 0.0077776313 -0.15572862
0.116765335 0.010943683 0.04122578 -0.09813094 -0.07568888 -0.05079007 -0.14787135 -0.0038155026
-0.00051943766 -0.16653913 -0.030831749 0.061550263 -0.11480604 -0.049104135 -0.06028873 -0.07138773
-0.34245485 -0.07969727 0.10839355 -0.07778598 -0.109793186 -0.07654268 -0.1721131 0.055341855
00000000: 4749 af3c 6da1 4fbe 5158 a63d 5c3a 13bd
00000010: 8b2e ed3c bd29 26bb b953 e53c f5d6 92bd
00000020: 92ea 36be 49fe 6b3d 2791 b6bd 4b91 20be
00000030: 3e76 9ebd 38ae 8abd 3cf7 99bd 3db5 eabe
00000040: 0279 a1bd c567 6ebd fa93 033e 2b32 80bd
00000050: 01a4 47bd c3e6 213c 6ac9 373d 6bb9 75bd
00000060: ab74 7c3d 004b 423d 95b8 ce3d d3d8 bd3d
00000070: 94b0 063e de18 ca3d ef83 133d 9aaf 5cbd
00000080: a731 55bb 26a7 9dbd 1ebf c5bd 4e4d afbd
00000090: f325 f0bd 4988 1f3d 017e 82bc 300a abbd
000000a0: 6ca9 35bd a7ab 113c acf6 993d afba 97bc
000000b0: 3806 863c 5c6c cabb 56ce c6bc 92a1 d7bd
000000c0: 0582 4f3d c74f 14be 4f52 c2bd 9af9 f03d
000000d0: d685 2cbd 599e 46bc 4304 c63d 71fd 91bc
000000e0: d985 50bd ef1a e8bd ae3a f73d e614 e1bd
000000f0: 9b1a e43c a59a 1f3c 59f5 6c3d 387c 013e
00000100: 2b63 f43c d26b acbd b1ae 83be 5f14 d8bc
00000110: 5228 303d 367e ed3d 5691 98bd b8b5 76bd
00000120: 4047 ff3c aec2 b6bd 46a1 c9bc 04fb 1dbd
00000130: 8874 b93d 879a 4cbd 393a 383d f871 98bd
00000140: 7419 00be cb4d 75bd 31d3 423c 5820 eabc
00000150: 96e3 e1bc 3583 1c3d 96d9 8f3d 239b e9bd
00000160: d0b8 c73d 57b0 933d 4000 973d 9abc d4bd
00000170: 3239 073d 4f75 fcbc 80db fe3b 5377 1fbe
00000180: aa22 ef3d 224d 333c 5ddc 283d e0f8 c8bd
00000190: c602 9bbd 4009 50bd 966b 17be 830d 7abb
000001a0: df2a 08ba 3c89 2abe dd92 fcbc 211c 7c3d
000001b0: 6e1f ebbd 6b21 49bd 51f1 76bd bb33 92bd
000001c0: 3e56 afbe 5338 a3bd 70fd dd3d 424e 9fbd
000001d0: 40db e0bd 69c2 9cbd 6b3e 30be 24ae 623d

sequential.2.Lambda.weight f4 [120, 80]
-0.04888803 0.08313985 -0.289694 0.20748028 0.04489289 -0.10602788 0.02533363 -0.01822349
-0.065286495 -0.011997128 0.09305574 0.15249433 -0.33423004 -0.41637424 0.0135165015 -0.10073131
0.053542778 -0.031490903 -0.09677753 -0.122747004 -0.23862559 0.19775957 0.08444826 -0.36850765
-0.15814367 0.029936261 0.16855639 -0.04774221 -0.23675518 0.15165713 0.15450951 -0.2460262
-0.043853164 -0.15281893 -0.015427378 0.14961569 -0.03350497 -0.05360934 -0.31082866 0.06954816
-0.20606966 0.039350312 0.15783091 0.071560785 -0.054851092 0.09881236 0.19102639 0.2757151
-0.4304976 0.054544345 0.07196779 0.13776056 0.0386253 -0.37129757 0.10266756 -0.1603475
0.17619003 -0.25961992 -0.14880659 -0.19018276 -0.18430229 0.30989844 0.24458821 0.08588669
0.10158919 -0.1289213 0.0059783864 0.1792535 0.0114177 0.14817345 -0.09396753 0.08170017
-0.117474265 -0.080113895 -0.047548946 0.10176047 0.073613964 -0.13752335 0.105982825 0.13357706
0.028404696 0.055311665 -0.12166757 -0.1415896 0.019872455 0.023661476 0.26150575 -0.035949644
0.18555187 0.06564916 0.21317075 -0.3084826 0.015141 -0.112038985 0.044179678 0.06177765
0.020080535 -0.02963309 -0.20633367 0.0031373382 -0.24789776 -0.08331212 -0.11705541 0.19423114
0.12059578 -0.11250285 -0.21564466 0.039040368 -0.09746486 -0.21169028 -0.27249265 0.007295852
0.029000744 -0.1421447 -0.3449825 0.19906758 -0.06991505 0.13892359 0.4170639 -0.43516225
0.112893194 -0.18026942 0.13364245 0.07521925 -0.31865212 -0.03251096 0.004012419 0.06326059
-0.06380695 -0.06286986 -0.16785565 0.10753289 0.1887897 0.02087972 -0.01140949 -0.1879351
-0.38508898 -0.31423908 0.09478348 -0.31017295 0.04462762 0.039078977 0.26506144 0.16058661
0.12314799 -0.3073498 0.18970847 0.4675198 -0.19087228 -0.07213822 0.0763785 0.19159445
-0.083464354 0.26762298 0.04583448 0.27065426 -0.09450404 0.17533636 -0.14703156 0.3248396
-0.15941684 0.0588636 0.042458177 -0.026242424 0.37033328 -0.2560383 -0.19446288 -0.10758575
-0.1358888 0.38498446 0.12061881 0.21000183 -0.043632325 0.090912595 -0.20003986 0.08266636
0.23931302 -0.058590993 -0.18452601 -0.0832951 0.030454753 0.1613666 -0.18179265 0.069086485
-0.072436504 0.017871168 0.13388567 -0.051188905 0.04988059 0.04623633 0.02470895 -0.022568388
-0.15227821 -0.38608506 0.1574311 -0.10812162 -0.0664961 -0.111019954 0.08150341 0.15945478
-0.2521209 -0.27541244 0.0064676693 -0.023970315 -0.15962707 0.054314755 0.0014773819 -0.0064114905
0.0072115995 -0.0030906736 0.09727404 0.022955894 0.04745667 0.03769523 -0.0032823558 -0.06055145
-0.010755849 0.047107905 -0.09044993 0.02278299 0.36147064 0.027453402 0.06593456 -0.15743431
-0.1031371 0.05594197 0.17328955 -0.048681486 -0.22587404 0.2212083 -0.013511972 0.016780965
0.13901016 -0.032734368 -0.002141293 -0.19309781 0.34195524 -0.1385286 -0.24375024 -0.015852604
-0.1733983 0.11127191 0.18869436 0.0391401 0.0019408077 -0.25040808 0.33437 -0.05359394
0.28777885 -0.037674602 0.10989304 -0.092593364 0.094342455 0.027007638 0.21212752 -0.0046278806
00000000: d13e 48bd 3a45 aa3d c652 94be b675 543e
00000010: 9be1 373d 2525 d9bd 7988 cf3c 6e49 95bc
00000020: edb4 85bd 9a8f 44bc 0294 be3d 7927 1c3e
00000030: 3320 abbe 012f d5be 5174 5d3c 384c cebd
00000040: ac4f 5b3d 9bfc 00bd 4c33 c6bd c862 fbbd
00000050: 445a 74be 7c81 4a3e 36f3 ac3d 09ad bcbe
00000060: 6af0 21be e43c f53c 0c9a 2c3e 568d 43bd
00000070: f36f 72be 024c 1b3e be37 1e3e 4bee 7bbe
00000080: 609f 33bd 917c 1cbe 1dc3 7cbc db34 193e
00000090: 823c 09bd 7895 5bbd ef24 9fbe 446f 8e3d
000000a0: ed03 53be cb2d 213d 6d9e 213e 768e 923d
000000b0: 8aab 60bd 225e ca3d 6c9c 433e 882a 8d3e
000000c0: 2e6a dcbe e469 5f3d d963 933d 1b11 0d3e
000000d0: 9035 1e3d b71a bebe 5f43 d23d 2332 24be
000000e0: 296b 343e e7ec 84be c160 18be 45bf 42be
000000f0: bdb9 3cbe 02ab 9e3e 5575 7a3e 5ce5 af3d
00000100: fe0d d03d f203 04be 57e6 c33b 3b8e 373e
00000110: 4e11 3b3c c8ba 173e 0c72 c0bd 6b52 a73d
00000120: 5996 f0bd c112 a4bd afc2 42bd cb67 d03d
00000130: ebc2 963d ecd2 0cbe 860d d93d 6dc8 083e
00000140: f7b0 e83c 7c8e 623d d92c f9bd ddfc 10be
00000150: 8fcb a23c b6d5 c13c 15e4 853e ef3f 13bd
00000160: 4f01 3e3e 1173 863d 6f49 5a3e 6ef1 9dbe
00000170: f511 783c b274 e5bd c0f5 343d 900a 7d3d
00000180: ef7f a43c 18c1 f2bc 2249 53be cd9b 4d3b
00000190: e9d8 7dbe 8b9f aabd bfba efbd 87e4 463e
000001a0: ecfa f63d e567 e6bd f4d1 5cbe cbe8 1f3d
000001b0: a89b c7bd 56c5 58be 2884 8bbe 0b12 ef3b
000001c0: f892 ed3c 618e 11be 8ca1 b0be 5fd8 4b3e
000001d0: 9f2f 8fbd fc41 0e3e 6689 d53e 96cd debe
000001e0: 8c34 e73d 8c98 38be 91d9 083e 8d0c 9a3d
000001f0: 5f26 a3be 362a 05bd 9c7a 833b c58e 813d
00000200: 38ad 82bd eac1 80bd 5ae2 2bbe 343a dc3d
00000210: 1652 413e f20b ab3c dfee 3abc 0f72 40be
00000220: 622a c5be f2e3 a0be d71d c23d fdce 9ebe
00000230: 74cb 363d 4711 203d 22b6 873e d170 243e
00000240: 0335 fc3d f45c 9dbe f042 423e c15e ef3e
00000250: 0674 43be 34bd 93bd 556c 9c3d 5631 443e
00000260: 5cef aabd e105 893e f0bc 3b3d 3293 8a3e
00000270: 568b c1bd 608b 333e 718f 16be 6051 a63e
00000280: 2b3e 23be f51a 713d a0e8 2d3d 5afa d6bc
00000290: 539c bd3e 7417 83be 4721 47be eb55 dcbd
000002a0: 6f26 0bbe af1c c53e ff06 f73d b80a 573e
000002b0: cfb7 32bd 6230 ba3d 40d7 4cbe fb4c a93d
000002c0: 790e 753e 1cfd 6fbd 63f4 3cbe 9f96 aabd
000002d0: 3f7c f93c 493d 253e da27 3abe 377d 8d3d
000002e0: 9759 94bd 8e66 923c 5319 093e 75ab 51bd
000002f0: 974f 4c3d 4e62 3d3d 6d6a ca3c 57e1 b8bc
00000300: d2ee 1bbe f1ac c5be 9e35 213e de6e ddbd
00000310: 1b2f 88bd 6e5e e3bd 43eb a63d 1d48 233e
00000320: fe15 81be dc02 8dbe beee d33b 655d c4bc
00000330: 4775 23be 2679 5e3d b6a4 c13a 7b17 d2bb
00000340: 484f ec3b e68c 4abb 9d37 c73d 000e bc3c
00000350: ed61 423d 5066 1a3d cb1c 57bb cc04 78bd
00000360: 4d39 30bc 38f4 403d d03d b9bd 65a3 ba3c
00000370: ae12 b93e f5e5 e03c b308 873d 7636 21be
00000380: 8b39 d3bd 6823 653d d172 313e 3d66 47bd
00000390: 864b 67be 6e84 623e 5161 5dbc 3c78 893c
000003a0: ae58 0e3e 7914 06bd ef54 0cbb 6fbb 45be
000003b0: c214 af3e 71da 0dbe aa99 79be 52dd 81bc
000003c0: 538f 31be 87e2 e33d 1839 413e 5f51 203d
000003d0: b362 fe3a 7d35 80be 8b32 ab3e 5285 5bbd
000003e0: c057 933e af50 1abd 9a0f e13d 97a1 bdbd
000003f0: 9e36 c13d 1f3f dd3c f537 593e 7aa5 97bb

sequential.2.Lambda.bias f4 [120]
0.021397246 -0.20276423 0.08122314 -0.035944328 0.028952857 -0.0025354468 0.027994024 -0.07169906
-0.17862919 0.057615552 -0.08914404 -0.15680425 -0.07737397 -0.06771511 -0.07517859 -0.458414
-0.078844085 -0.05820443 0.12849417 -0.06259569 -0.04874039 0.009881678 0.044869818 -0.05999128
0.0616347 0.047434807 0.100938 0.092698716 0.13153297 0.09868024 0.036014494 -0.053878404
-0.0032530816 -0.07697897 -0.09655593 -0.085596666 -0.11725988 0.03894833 -0.015929224 -0.083515525
-0.044351026 0.008891023 0.07517752 -0.018521635 0.016360387 -0.006177468 -0.02426831 -0.10528864
0.050661106 -0.14483558 -0.09488355 0.11766358 -0.042119823 -0.012122714 0.096687816 -0.017821046
-0.050908897 -0.11333262 0.12071739 -0.10990314 0.027844718 0.00974146 0.05785117 0.12645042
0.029832443 -0.084190026 -0.25719216 -0.026376901 0.043007202 0.115963385 -0.07449596 -0.060231894
0.031161904 -0.08923851 -0.024613034 -0.038569465 0.0905543 -0.049952056 0.0449774 -0.07443613
-0.1250971 -0.059888642 0.011891172 -0.028579876 -0.027574342 0.038211066 0.07023923 -0.11406543
0.09752047 0.072113685 0.073730946 -0.103875354 0.03301353 -0.030817656 0.0077776313 -0.15572862
0.116765335 0.010943683 0.04122578 -0.09813094 -0.07568888 -0.05079007 -0.14787135 -0.0038155026
-0.00051943766 -0.16653913 -0.030831749 0.061550263 -0.11480604 -0.049104135 -0.06028873 -0.07138773
-0.34245485 -0.07969727 0.10839355 -0.07778598 -0.109793186 -0.07654268 -0.1721131 0.055341855
00000000: 4749 af3c 6da1 4fbe 5158 a63d 5c3a 13bd
00000010: 8b2e ed3c bd29 26bb b953 e53c f5d6 92bd
00000020: 92ea 36be 49fe 6b3d 2791 b6bd 4b91 20be
00000030: 3e76 9ebd 38ae 8abd 3cf7 99bd 3db5 eabe
00000040: 0279 a1bd c567 6ebd fa93 033e 2b32 80bd
00000050: 01a4 47bd c3e6 213c 6ac9 373d 6bb9 75bd
00000060: ab74 7c3d 004b 423d 95b8 ce3d d3d8 bd3d
00000070: 94b0 063e de18 ca3d ef83 133d 9aaf 5cbd
00000080: a731 55bb 26a7 9dbd 1ebf c5bd 4e4d afbd
00000090: f325 f0bd 4988 1f3d 017e 82bc 300a abbd
000000a0: 6ca9 35bd a7ab 113c acf6 993d afba 97bc
000000b0: 3806 863c 5c6c cabb 56ce c6bc 92a1 d7bd
000000c0: 0582 4f3d c74f 14be 4f52 c2bd 9af9 f03d
000000d0: d685 2cbd 599e 46bc 4304 c63d 71fd 91bc
000000e0: d985 50bd ef1a e8bd ae3a f73d e614 e1bd
000000f0: 9b1a e43c a59a 1f3c 59f5 6c3d 387c 013e
00000100: 2b63 f43c d26b acbd b1ae 83be 5f14 d8bc
00000110: 5228 303d 367e ed3d 5691 98bd b8b5 76bd
00000120: 4047 ff3c aec2 b6bd 46a1 c9bc 04fb 1dbd
00000130: 8874 b93d 879a 4cbd 393a 383d f871 98bd
00000140: 7419 00be cb4d 75bd 31d3 423c 5820 eabc
00000150: 96e3 e1bc 3583 1c3d 96d9 8f3d 239b e9bd
00000160: d0b8 c73d 57b0 933d 4000 973d 9abc d4bd
00000170: 3239 073d 4f75 fcbc 80db fe3b 5377 1fbe
00000180: aa22 ef3d 224d 333c 5ddc 283d e0f8 c8bd
00000190: c602 9bbd 4009 50bd 966b 17be 830d 7abb
000001a0: df2a 08ba 3c89 2abe dd92 fcbc 211c 7c3d
000001b0: 6e1f ebbd 6b21 49bd 51f1 76bd bb33 92bd
000001c0: 3e56 afbe 5338 a3bd 70fd dd3d 424e 9fbd
000001d0: 40db e0bd 69c2 9cbd 6b3e 30be 24ae 623d

sequential.2.bn.running_mean f4 [120]
0.0 0.0 0.0 0.0 0.0 0.0 0.0 0.0
0.0 0.0 0.0 0.0 0.0 0.0 0.0 0.0
0.0 0.0 0.0 0.0 0.0 0.0 0.0 0.0
0.0 0.0 0.0 0.0 0.0 0.0 0.0 0.0
0.0 0.0 0.0 0.0 0.0 0.0 0.0 0.0
0.0 0.0 0.0 0.0 0.0 0.0 0.0 0.0
0.0 0.0 0.0 0.0 0.0 0.0 0.0 0.0
0.0 0.0 0.0 0.0 0.0 0.0 0.0 0.0
0.0 0.0 0.0 0.0 0.0 0.0 0.0 0.0
0.0 0.0 0.0 0.0 0.0 0.0 0.0 0.0
0.0 0.0 0.0 0.0 0.0 0.0 0.0 0.0
0.0 0.0 0.0 0.0 0.0 0.0 0.0 0.0
0.0 0.0 0.0 0.0 0.0 0.0 0.0 0.0
0.0 0.0 0.0 0.0 0.0 0.0 0.0 0.0
0.0 0.0 0.0 0.0 0.0 0.0 0.0 0.0
00000000: 0000 0000 0000 0000 0000 0000 0000 0000
00000010: 0000 0000 0000 0000 0000 0000 0000 0000
00000020: 0000 0000 0000 0000 0000 0000 0000 0000
00000030: 0000 0000 0000 0000 0000 0000 0000 0000
00000040: 0000 0000 0000 0000 0000 0000 0000 0000
00000050: 0000 0000 0000 0000 0000 0000 0000 0000
00000060: 0000 0000 0000 0000 0000 0000 0000 0000
00000070: 0000 0000 0000 0000 0000 0000 0000 0000
00000080: 0000 0000 0000 0000 0000 0000 0000 0000
00000090: 0000 0000 0000 0000 0000 0000 0000 0000
000000a0: 0000 0000 0000 0000 0000 0000 0000 0000
000000b0: 0000 0000 0000 0000 0000 0000 0000 0000
000000c0: 0000 0000 0000 0000 0000 0000 0000 0000
000000d0: 0000 0000 0000 0000 0000 0000 0000 0000
000000e0: 0000 0000 0000 0000 0000 0000 0000 0000
000000f0: 0000 0000 0000 0000 0000 0000 0000 0000
00000100: 0000 0000 0000 0000 0000 0000 0000 0000
00000110: 0000 0000 0000 0000 0000 0000 0000 0000
00000120: 0000 0000 0000 0000 0000 0000 0000 0000
00000130: 0000 0000 0000 0000 0000 0000 0000 0000
00000140: 0000 0000 0000 0000 0000 0000 0000 0000
00000150: 0000 0000 0000 0000 0000 0000 0000 0000
00000160: 0000 0000 0000 0000 0000 0000 0000 0000
00000170: 0000 0000 0000 0000 0000 0000 0000 0000
00000180: 0000 0000 0000 0000 0000 0000 0000 0000
00000190: 0000 0000 0000 0000 0000 0000 0000 0000
000001a0: 0000 0000 0000 0000 0000 0000 0000 0000
000001b0: 0000 0000 0000 0000 0000 0000 0000 0000
000001c0: 0000 0000 0000 0000 0000 0000 0000 0000
000001d0: 0000 0000 0000 0000 0000 0000 0000 0000

sequential.2.bn.running_var f4 [120]
1.0 1.0 1.0 1.0 1.0 1.0 1.0 1.0
1.0 1.0 1.0 1.0 1.0 1.0 1.0 1.0
1.0 1.0 1.0 1.0 1.0 1.0 1.0 1.0
1.0 1.0 1.0 1.0 1.0 1.0 1.0 1.0
1.0 1.0 1.0 1.0 1.0 1.0 1.0 1.0
1.0 1.0 1.0 1.0 1.0 1.0 1.0 1.0
1.0 1.0 1.0 1.0 1.0 1.0 1.0 1.0
1.0 1.0 1.0 1.0 1.0 1.0 1.0 1.0
1.0 1.0 1.0 1.0 1.0 1.0 1.0 1.0
1.0 1.0 1.0 1.0 1.0 1.0 1.0 1.0
1.0 1.0 1.0 1.0 1.0 1.0 1.0 1.0
1.0 1.0 1.0 1.0 1.0 1.0 1.0 1.0
1.0 1.0 1.0 1.0 1.0 1.0 1.0 1.0
1.0 1.0 1.0 1.0 1.0 1.0 1.0 1.0
1.0 1.0 1.0 1.0 1.0 1.0 1.0 1.0
00000000: 0000 803f 0000 803f 0000 803f 0000 803f
00000010: 0000 803f 0000 803f 0000 803f 0000 803f
00000020: 0000 803f 0000 803f 0000 803f 0000 803f
00000030: 0000 803f 0000 803f 0000 803f 0000 803f
00000040: 0000 803f 0000 803f 0000 803f 0000 803f
00000050: 0000 803f 0000 803f 0000 803f 0000 803f
00000060: 0000 803f 0000 803f 0000 803f 0000 803f
00000070: 0000 803f 0000 803f 0000 803f 0000 803f
00000080: 0000 803f 0000 803f 0000 803f 0000 803f
00000090: 0000 803f 0000 803f 0000 803f 0000 803f
000000a0: 0000 803f 0000 803f 0000 803f 0000 803f
000000b0: 0000 803f 0000 803f 0000 803f 0000 803f
000000c0: 0000 803f 0000 803f 0000 803f 0000 803f
000000d0: 0000 803f 0000 803f 0000 803f 0000 803f
000000e0: 0000 803f 0000 803f 0000 803f 0000 803f
000000f0: 0000 803f 0000 803f 0000 803f 0000 803f
00000100: 0000 803f 0000 803f 0000 803f 0000 803f
00000110: 0000 803f 0000 803f 0000 803f 0000 803f
00000120: 0000 803f 0000 803f 0000 803f 0000 803f
00000130: 0000 803f 0000 803f 0000 803f 0000 803f
00000140: 0000 803f 0000 803f 0000 803f 0000 803f
00000150: 0000 803f 0000 803f 0000 803f 0000 803f
00000160: 0000 803f 0000 803f 0000 803f 0000 803f
00000170: 0000 803f 0000 803f 0000 803f 0000 803f
00000180: 0000 803f 0000 803f 0000 803f 0000 803f
00000190: 0000 803f 0000 803f 0000 803f 0000 803f
000001a0: 0000 803f 0000 803f 0000 803f 0000 803f
000001b0: 0000 803f 0000 803f 0000 803f 0000 803f
000001c0: 0000 803f 0000 803f 0000 803f 0000 803f
000001d0: 0000 803f 0000 803f 0000 803f 0000 803f

sequential.4.Gamma.weight f4 [70, 120]
-0.0026253546 0.15581639 0.18625008 -0.19216555 0.11406774 -0.026044864 -0.1287486 0.0065073865
0.13268591 -0.025837399 -0.105011076 0.16258939 0.24741982 -0.02434584 -0.02979528 0.006217432
-0.079965524 0.16404428 -0.0033512465 0.39058688 0.30142406 0.22915895 -0.050912756 0.11276723
0.15776598 0.17166202 0.0442736 -0.11664872 0.095615335 -0.04355344 0.34932926 0.016984485
0.20393242 0.051940765 0.18741688 0.1761556 -0.023195883 0.25289914 0.08887303 0.10246963
0.094798595 -0.07563364 0.07194604 0.050815165 0.079092614 -0.060514733 0.08288902 0.0757511
0.2736604 -0.07517983 0.16077115 0.11048071 0.10124365 -0.009791854 -0.09103655 0.26242268
-0.1952229 -0.015233207 0.03706046 0.08869196 0.05730784 0.35272837 -0.055540577 0.058325343
-0.07173386 -0.20444363 0.048612323 -0.20445131 -0.054383017 -0.07278487 0.078259386 -0.092158854
0.0887509 0.13813405 -0.11797656 -0.101415314 0.12614028 0.13367699 -0.09563434 -0.21318966
0.26744723 0.109415226 0.055977635 -0.044457704 0.015660848 -0.087064646 0.17032595 0.11881738
0.0058044884 0.06737884 -0.11756928 -0.033215042 0.40867254 0.021710599 -0.10169219 0.042389534
-0.0458401 0.14725609 -0.011323641 -0.013194641 -0.004203803 0.05149978 -0.03108297 -0.07371061
-0.042256996 0.014918229 0.039485633 0.098133706 -0.09353208 -0.04546175 -0.283336 -0.3256128
0.20626909 -0.016089806 0.16426444 0.21747456 -0.05799129 0.32704937 -0.023096522 -0.037447963
-0.03243144 -0.32480195 0.14457259 0.022593476 0.033997614 -0.0030557748 -0.12745208 -0.12598914
-0.16457553 -0.009569505 -0.009193651 0.0990584 0.051627718 0.20677026 0.12324335 -0.057217132
-0.008210687 -0.044629972 -0.17465708 -0.12456221 -0.41191912 0.19473161 0.048038658 0.043790944
0.15341784 0.23407905 0.036933485 0.13617739 0.15168646 0.13191949 0.2718016 -0.1962619
0.09956749 -0.2199054 0.104386635 -0.22108915 0.16566779 -0.03714012 -0.0747118 0.0774135
0.100749165 -0.034710996 -0.18959326 0.15379258 -0.22768052 0.026578346 -0.13026701 0.06653483
0.098612055 0.17246307 -0.048419584 -0.1194704 0.15490799 0.033544168 0.09298459 0.045234323
0.10657218 0.09554357 -0.10625333 -0.04310053 0.16600543 0.086875044 0.010175747 -0.121335275
0.097975716 0.10715432 -0.07306547 -0.0826543 -0.28742167 9.594909e-05 0.17414862 0.23348008
-0.1758223 0.068151504 0.087809674 -0.058261055 0.058817185 0.08470401 0.15350561 0.038208723
-0.03965922 0.2301227 0.121962756 -0.27269775 -0.13404371 0.41817436 0.23844947 0.14208233
-0.06455116 0.20967951 -0.027531786 -0.066484 -0.03762448 -0.10703922 0.34774432 0.0018625361
0.26813745 0.09783776 -0.08778948 0.1793603 -0.19058472 0.16047783 -0.009841751 0.20145035
-0.03015129 0.041340496 0.17242305 0.11376136 -0.15720202 -0.20298982 0.05332302 -0.01800182
0.046429113 -0.058978323 0.042613097 0.044290252 0.080266856 -0.027507395 0.15804577 0.2737359
0.107367605 0.07023715 0.12515435 -0.12088502 0.112260185 -0.033000834 -0.14063309 0.29334426
0.056308236 -0.2595407 -0.0020261714 0.26090446 0.053294256 0.16544162 0.13906507 0.021914322
00000000: 240e 2cbb 558e 1f3e 57b8 3e3e 0cc7 44be
00000010: 599c e93d 0a5c d5bc acd6 03be ea3b d53b
00000020: d1de 073e f4a8 d3bc 0c10 d7bd d57d 263e
00000030: 9f5b 7d3e ed70 c7bc 3b15 f4bc 9abb cb3b
00000040: f7c4 a3bd 39fb 273e 96a0 5bbb 01fb c73e
00000050: 4154 9a3e a5a8 6a3e e589 50bd 81f2 e63d
00000060: 688d 213e 2bc8 2f3e 3c58 353d 86e5 eebd
00000070: f9d1 c33d 1865 32bd 49db b23e 0c23 8b3c
00000080: a9d3 503e d7bf 543d 36ea 3f3e 2262 343e
00000090: 4b05 bebc ff7b 813e 1003 b63d 99db d13d
000000a0: c425 c23d cfe5 9abd 7258 933d 9023 503d
000000b0: 4ffb a13d 4cde 77bd b8c1 a93d 6523 9b3d
000000c0: 371d 8c3e e2f7 99bd 31a1 243e b643 e23d
000000d0: d558 cf3d 036e 20bc 5f71 babd 445c 863e
000000e0: 83e8 47be b394 79bc b5cc 173d 21a4 b53d
000000f0: a0bb 6a3d d098 b43e 847e 63bd 8ee6 6e3d
00000100: 34e9 92bd ac59 51be b71d 473d af5b 51be
00000110: bac0 5ebd 3c10 95bd 7546 a03d c8bd bcbd
00000120: 08c3 b53d 0373 0d3e b29d f1bd d5b2 cfbd
00000130: eb2a 013e 9fe2 083e f0db c3bd 644e 5abe
00000140: d8ee 883e 1715 e03d ce48 653d 4819 36bd
00000150: 2e4b 803c f34e b2bd ed69 2e3e 8756 f33d
00000160: 9433 be3b ebfd 893d 2ac8 f0bd 7f0c 08bd
00000170: 873d d13e 6dda b13c ff43 d0bd a6a0 2d3d
00000180: d4c2 3bbd 4dca 163e cb86 39bc 562e 58bc
00000190: 0ec0 89bb 6ff1 523d b6a1 febc 97f5 96bd
000001a0: ac15 2dbd 966b 743c b0bb 213d 53fa c83d
000001b0: bf8d bfbd 1a36 3abd 6b11 91be b9b6 a6be
000001c0: 3438 533e c5ce 83bc f034 283e a7b1 5e3e
000001d0: 4688 6dbd 0473 a73e eb34 bdbc 0963 19bd
000001e0: d4d6 04bd 714c a6be d60a 143e f415 b93c
000001f0: 1541 0b3d 6543 48bb cc82 02be 4c03 01be
00000200: 7d86 28be 6ac9 1cbc f8a0 16bc 21df ca3d
00000210: 9677 533d 95bb 533e 0267 fc3d 835c 6abd
00000220: 1e86 06bc ebcd 36bd 4ed9 32be 791a ffbd
00000230: 10e7 d2be b967 473e 2fc4 443d 225e 333d
00000240: 9119 1d3e 6bb2 6f3e 9147 173d 1672 0b3e
00000250: b253 1b3e e715 073e 9429 8b3e e1f8 48be
00000260: 0aea cb3d e22e 61be a9c8 d53d 3265 62be
00000270: d1a4 293e 3d20 18bd 8002 99bd f88a 9e3d
00000280: 9455 ce3d 1e2d 0ebd bc24 42be cd7b 1d3e
00000290: 1525 69be d5ba d93c b764 05be 6a43 883d
000002a0: 1ef5 c93d 299a 303e 9d53 46bd e6ac f4bd
000002b0: 33a0 1e3e 9c65 093d b46e be3d a047 393d
000002c0: 8442 da3d 59ac c33d 599b d9bd 2e8a 30bd
000002d0: 54fd 293e 8beb b13d 2db8 263c a17e f8bd
000002e0: 7ea7 c83d b973 db3d 59a3 95bd a846 a9bd
000002f0: ef28 93be 4738 c938 0454 323e 6715 6f3e
00000300: c30a 34be 0493 8b3d 8fd5 b33d 25a3 6ebd
00000310: 4aea 703d 4c79 ad3d 9330 1d3e c080 1c3d
00000320: b571 22bd 49a5 6b3e 9cc7 f93d 0a9f 8bbe
00000330: c142 09be f31a d63e 192c 743e 087e 113e
00000340: 6633 84bd 3ab6 563e 578a e1bc c328 88bd
00000350: 201c 1abd 6137 dbbd 8b0b b23e 5720 f43a
00000360: 5049 893e 2a5f c83d f9ca b3bd 3aaa 373e
00000370: a428 43be 4d54 243e 4c3f 21bc 0049 4e3e
00000380: d7ff f6bc a754 293d ab8f 303e b7fb e83d
00000390: 91f9 20be 90dc 4fbe 3d69 5a3d 8e78 93bc
000003a0: 742c 3e3d 4193 71bd 128b 2e3d b269 353d
000003b0: f362 a43d 3057 e1bc c0d6 213e 1d27 8c3e
000003c0: 8ce3 db3d 7fd8 8f3d 7628 003e 9192 f7bd
000003d0: abe8 e53d e22b 07bd 1f02 10be 3831 963e
000003e0: 77a3 663d 85e2 84be 84c9 04bb 4595 853e
000003f0: 144b 5a3d 8769 293e 1367 0e3e aa85 b33c

sequential.4.Gamma.bias f4 [70]
0.073263265 0.08137181 0.013492151 0.14694294 0.18097831 -0.121528745 0.05527981 0.18131196
-0.13288753 0.26789984 0.47112966 0.32793197 -0.18033434 -0.06723911 -0.10878591 0.03687411
0.03103703 0.12265606 0.16837516 0.08579044 0.34893218 0.06940522 0.060732737 -0.02754414
0.0743805 -0.18340495 -0.1488165 0.1479848 0.10568102 0.09655139 -0.073131725 0.05735722
0.029148119 0.22151375 0.0129226325 0.16508478 0.20413186 -0.011985276 0.14327592 -0.14578779
-0.050219845 0.07589479 0.2128352 0.021505794 0.023905994 0.03087649 0.12277201 0.054955874
0.0095855 -0.20085035 0.17547734 0.0010809869 0.08237024 -0.011000612 -0.25529054 0.15390758
0.20098323 0.1295681 0.056098007 -0.06397928 0.16228448 0.29321513 0.48146316 0.3374815
0.24124889 -0.1628501 0.25114623 0.03413187 0.23996942 0.15643938
00000000: 0d0b 963d 43a6 a63d 2f0e 5d3c 3678 163e
00000010: 6152 393e 10e4 f8bd 156d 623d d8a9 393e
00000020: ab13 08be 2b2a 893e e837 f13e b3e6 a73e
00000030: 91a9 38be a9b4 89bd 26cb debd 4f09 173d
00000040: 5f41 fe3c 1a33 fb3d 8a6a 2c3e e6b2 af3d
00000050: 3da7 b23e 5324 8e3d e4c2 783d 40a4 e1bc
00000060: ce54 983d 82ce 3bbe 5a63 18be 5489 173e
00000070: 4a6f d83d bcbc c53d 16c6 95bd 68ef 6a3d
00000080: 09c8 ee3c 80d4 623e 73b9 533c fc0b 293e
00000090: f107 513e e45d 44bc ecb6 123e 6549 15be
000000a0: 53b3 4dbd ba6e 9b3d 78f1 593e eb2c b03c
000000b0: 81d6 c33c b1f0 fc3c e46f fb3d 6919 613d
000000c0: 800c 1d3c b7ab 4dbe 55b0 333e e7af 8d3a
000000d0: bab1 a83d e93b 34bc 71b5 82be f399 1d3e
000000e0: 8cce 4d3e 80ad 043e 06c7 653d 9207 83bd
000000f0: e72d 263e 4b20 963e 5782 f63e 60ca ac3e
00000100: f309 773e 2dc2 26be 3d96 803e dccd 0b3d
00000110: 8bba 753e a531 203e
