Models/Z_25GeV_200.pth (torch, 197904 bytes, 36 tensors)

sequential.0.Gamma.weight f4 [80, 5]
-0.7131175 1.3490043 0.29921535 -0.32295594 -1.1165656 -0.4483002 0.95560634 -0.67750365
-1.3733308 0.74840385 0.024165396 0.18700817 0.09156094 -0.9931851 0.7652701 -0.38276228
0.16363595 -0.038532928 -0.061222438 0.14603513 0.43927613 1.1441455 -1.7016523 0.6161386
1.7181712 0.025456693 -0.06287603 -0.05780539 -0.31282702 2.0658128 1.444626 1.5970187
0.8630483 0.19527327 0.6813912 0.4920379 0.36972713 0.47581175 -0.9828383 1.1544654
1.0391653 0.5255197 0.9274604 1.0485071 0.09225044 -0.44713798 0.1346175 -0.076999545
0.02161759 -0.8712781 0.8930099 0.24451087 1.1266458 0.89202434 -0.26048502 -0.45496756
0.31024396 -0.3792449 -0.5489141 0.18235545 0.2165245 -0.03126735 -1.1352432 -0.07973826
1.183826 -0.018021876 -0.7555645 0.5249529 0.7239054 -0.19939806 -0.6317078 -1.0678531
-0.52239454 -0.2685829 0.13210596 0.52443945 -0.98562723 0.33458728 0.40118474 -0.23311916
1.4994562 0.9221206 -0.23545505 -1.1200118 -0.5885321 0.30330485 1.4011419 -0.009256266
-0.61272854 1.0749195 -1.0604337 0.39210796 -0.19562612 0.24388154 0.051540166 0.18272474
0.63024884 -0.16709545 0.7670766 -0.44086567 -0.83215886 0.56660116 -0.39989665 1.5587268
0.030735722 0.09886429 -0.13878673 0.5414872 0.9159954 -0.5922661 0.66667217 -1.8174409
0.22982424 -0.53898335 -0.13417773 0.28688326 -1.0840633 0.25363716 -0.41957292 0.8561899
-0.3382512 1.4542515 -1.0839251 -0.1669767 -0.05263287 0.39020348 0.187964 0.8834149
0.34974945 -1.0615002 0.32050377 0.5286888 -0.8056836 0.55391043 -0.2347478 0.08071896
-0.14850128 0.53807193 1.4568906 -1.310418 0.100578584 -0.3199664 0.49583033 0.78204197
0.40709847 -1.4537714 0.049356088 -0.09261213 -0.027346455 0.23321144 0.5400356 -0.09630159
-0.26915208 0.21547401 -0.7294782 -0.30177358 0.32760963 -0.29518515 1.0520632 -1.1839191
1.4031553 1.4339281 0.80471563 -0.28568614 0.5079888 1.232331 1.3148819 0.37670293
2.0643935 -0.27420413 -1.3587708 1.0920424 0.47367537 0.30362266 -0.3432576 0.3795615
-1.023982 -0.58707494 -2.0333378 1.4320042 -0.13758038 0.26621822 -0.9831214 0.66475064
-0.18823329 0.24306858 0.30484518 0.20730919 -0.95994824 -0.58489263 0.8157009 0.12525633
-0.9860376 0.46976677 0.20002207 1.313319 -0.115088776 1.0002494 0.5933236 -0.7391125
-0.48217642 0.26290286 0.11051536 0.6729689 -0.76951325 -0.90184975 -0.03501359 0.9486505
-0.3560315 0.47136888 1.522687 -0.13765457 -0.56590724 -1.2216424 0.381136 -0.18428385
0.5210781 0.07281654 -1.4337602 0.71272206 0.30302793 0.3423612 -0.63425076 -0.026050275
0.044470344 0.3634647 0.7060637 0.6026776 0.2502649 -1.18981 0.059525497 1.0968804
0.91877264 -0.3349081 -0.48631385 0.648166 -0.643581 0.18130387 -1.1186007 -0.22345054
0.12661402 -0.04859228 -0.11754879 -0.7373251 0.873585 0.7462466 0.43240067 -0.9007923
0.20173362 -0.7543096 0.2982643 0.43812028 -1.0046816 -1.331826 0.9250403 0.30215064
00000000: de8e 36bf 2cac ac3f c132 993e 7b5a a5be
00000010: 9feb 8ebf 9b87 e5be 9ea2 743f e170 2dbf
00000020: 4ec9 afbf 6597 3f3f 82f6 c53c 127f 3f3e
00000030: 4d84 bb3d 6141 7ebf bee8 433f 6bf9 c3be
00000040: 2f90 273e b4d4 1dbd 61c4 7abd 3c8a 153e
00000050: cde8 e03e 5c73 923f becf d9bf 42bb 1d3f
00000060: 09ed db3f 8e8a d03c 26c5 80bd 58c5 6cbd
00000070: dd2a a0be 4736 0440 81e9 b83f 1c6b cc3f
00000080: bcf0 5c3f b7f5 473e a76f 2e3f 64ec fb3e
00000090: e04c bd3e 999d f33e 4a9b 7bbf 86c5 933f
000000a0: 5e03 853f 7688 063f 0b6e 6d3f 7b35 863f
000000b0: cced bc3d 45ef e4be 2bd9 093e f0b1 9dbd
000000c0: 5f17 b13c 150c 5fbf 4c9c 643f 0f61 7a3e
000000d0: ee35 903f b55b 643f 4b5e 85be 82f1 e8be
000000e0: 4cd8 9e3e 632c c2be a285 0cbf 63bb 3a3e
000000f0: 99b8 5d3e 3112 00bd a64f 91bf d04d a3bd
00000100: 9c87 973f 9da2 93bc ad6c 41bf 5063 063f
00000110: dd51 393f 012f 4cbe 9ab7 21bf 69af 88bf
00000120: a6bb 05bf b383 89be c946 073e aa41 063f
00000130: 1152 7cbf 064f ab3e 1668 cd3e cab6 6ebe
00000140: 2eee bf3f 1810 6c3f 211b 71be 8c5c 8fbf
00000150: 0aaa 16bf c64a 9b3e 9e58 b33f 98a7 17bc
00000160: c7db 1cbf f696 893f 4bbc 87bf 60c2 c83e
00000170: 3752 48be 15bc 793e c81b 533d 321c 3b3e
00000180: fd57 213f 121b 2bbe 225f 443f 25b9 e1be
00000190: 5d08 55bf c60c 113f 41bf ccbe 5c84 c73f
000001a0: 7bc9 fb3c 5c79 ca3d 1c1e 0ebe e89e 0a3f
000001b0: ad7e 6a3f c09e 17bf 07ab 2a3f e7a1 e8bf
000001c0: 0c57 6b3e d0fa 09bf e365 09be 5de2 923e
000001d0: 96c2 8abf bbdc 813e 43d2 d6be 432f 5b3f
000001e0: 432f adbe ea24 ba3f 0fbe 8abf f1fb 2abe
000001f0: 9095 57bd c0c8 c73e a379 403e 7b27 623f
00000200: 5c12 b33e 3ddf 87bf 1219 a43e 2658 073f
00000210: 4841 4ebf 13cd 0d3f ba61 70be fb4f a53d
00000220: b810 18be 15bf 093f 647b ba3f c7bb a7bf
00000230: 25fc cd3d a3d2 a3be 79dd fd3e e733 483f
00000240: 366f d03e 2e15 babf 9c29 4a3d 6eab bdbd
00000250: ac05 e0bc fbce 6e3e c63f 0a3f c539 c5bd
00000260: 4dce 89be 38a5 5c3e 15bf 3abf 1182 9abe
00000270: 73bc a73e 8222 97be 02aa 863f a98a 97bf
00000280: 989a b33f f58a b73f d801 4e3f 7445 92be
00000290: 8e0b 023f 06bd 9d3f 0d4e a83f 35df c03e
000002a0: 061f 0440 7c64 8cbe 34ec adbf 0cc8 8b3f
000002b0: 9485 f23e 6e74 9b3e 76bf afbe e355 c23e
000002c0: d811 83bf 8b4a 16bf 3522 02c0 ea4b b73f
000002d0: dfe1 0cbe c14d 883e d8ad 7bbf 192d 2a3f
000002e0: 3ac0 40be f8e6 783e ab14 9c3e dc48 543e
000002f0: 2bbf 75bf 86bb 15bf c6d1 503f 3243 003e
00000300: f66c 7cbf 4585 f03e 96d2 4c3e d61a a83f
00000310: aab3 ebbd 2c08 803f 0ee4 173f 7a36 3dbf
00000320: d4df f6be 349b 863e e155 e23d b147 2c3f
00000330: d2fe 44bf a0df 66bf 696a 0fbd c2da 723f
00000340: c349 b6be 4357 f13e 68e7 c23f 52f5 0cbe
00000350: 4cdf 10bf c75e 9cbf 4224 c33e e8b4 3cbe
00000360: 6065 053f d720 953d 7485 b7bf f474 363f
00000370: 7a26 9b3e f849 af3e 425e 22bf 6367 d5bc
00000380: 8926 363d 0c18 ba3e 97c0 343f 1449 1a3f
00000390: b922 803e b24b 98bf 02d1 733d 9466 8c3f
000003a0: af34 6b3f 1379 abbe 21fe f8be 35ee 253f
000003b0: b9c1 24bf b9a7 393e 4f2e 8fbf 38d0 64be
000003c0: 1ba7 013e b308 47bd 6cbd f0bd 56c1 3cbf
000003d0: 44a3 5f3f 040a 3f3f 9f63 dd3e 539a 66bf
000003e0: 4293 4e3e 6f1a 41bf 19b6 983e 4d51 e03e
000003f0: 6899 80bf 4679 aabf 71cf 6c3f 7db3 9a3e

sequential.0.Gamma.bias f4 [80]
-0.22694781 0.012360617 -0.18122616 -0.53305364 -0.07128406 -0.11257306 1.0146726 -0.17639479
-0.38683072 -0.81735426 -0.18924573 -0.32527086 0.1809574 -0.15279527 -0.31391132 0.14662321
-0.2162593 -0.36228657 -0.54230374 0.19775459 -0.22961126 0.06186273 -0.028818974 -0.39603016
-0.021119678 -0.009837318 -0.44863495 0.017000675 0.22583471 0.081616364 -0.6501131 -0.25388938
0.8289586 0.35935745 -0.33464146 -0.009329513 0.22377394 -0.411366 0.3569351 0.42098242
-0.6014141 0.27491653 -0.14791588 -0.2075689 -0.4834272 0.08015511 -0.36355394 -0.44389614
-0.07090705 -0.66587 -0.19362037 -0.15068038 -0.82830083 -0.08603971 -0.34235156 -0.046714928
-0.2055932 -0.063511446 -0.16188572 -0.13279772 0.085029855 0.0017496076 -0.11842635 -0.3995455
0.14196767 -0.57746404 -0.04911927 0.23860101 -0.6433318 0.11265023 0.15429725 -0.73989093
-0.06829427 0.09609453 0.03329916 -0.18379867 -0.48974314 -0.38879877 -0.30669942 -0.2642329
00000000: 0265 68be 2f84 4a3c 5a93 39be 3476 08bf
00000010: 61fd 91bd b48c e6bd cbe0 813f d6a0 34be
00000020: ad0e c6be 213e 51bf a2c9 41be e789 a6be
00000030: e64c 393e 5d76 1cbe fcb8 a0be 6524 163e
00000040: 1473 5dbe a07d b9be 6bd4 0abf 2e80 4a3e
00000050: 371f 6bbe c663 7d3d c515 ecbc 77c4 cabe
00000060: 2d03 adbc b42c 21bc 7bb3 e5be 0045 8b3c
00000070: 3741 673e 7b26 a73d d06d 26bf cafd 81be
00000080: a136 543f b3fd b73e 2056 abbe d0da 18bc
00000090: ff24 653e 909e d2be 33c0 b63e 028b d73e
000000a0: 46f6 19bf dcc1 8c3e 4377 17be f18c 54be
000000b0: c583 f7be 5d28 a43d be23 babe 5b46 e3be
000000c0: b737 91bd 7576 2abf 6b44 46be f54b 1abe
000000d0: 860b 54bf 9635 b0bd b448 afbe 2758 3fbd
000000e0: 0687 52be 4a12 82bd 5fc5 25be 20fc 07be
000000f0: 2224 ae3d 1753 e53a 8489 f2bd 3a91 ccbe
00000100: f95f 113e afd4 13bf 4a31 49bd d353 743e
00000110: 65b1 24bf 2ab5 e63d 1900 1e3e 7e69 3dbf
00000120: dedd 8bbd 35cd c43d b364 083d b835 3cbe
00000130: 9dbf fabe a210 c7be b507 9dbe 8949 87be

sequential.0.Lambda.weight f4 [80, 5]
0.11634132 1.1713387 -0.60971177 0.23555963 -0.6930559 -0.18266451 0.5283308 0.6222202
-0.9113129 -0.09243906 0.29993984 0.4182292 -0.13196474 -0.1580352 -0.73921686 -0.2948343
0.10189825 -0.23909983 -0.43980807 1.1223434 -0.15845102 -1.1831055 0.6504238 -0.54028183
1.0319638 -0.23340929 1.0241734 -0.3071602 1.2707613 -1.2852867 -0.16539842 -0.16413786
0.10340964 0.61532927 -0.40549698 -0.2069996 -0.18039308 -0.114398256 0.15895274 0.5552459
-0.24792564 -0.9910882 1.2302579 -1.1695505 -0.16160753 -0.97311324 -0.3187227 0.5428048
-0.16859666 0.43895558 -0.97977656 -0.14605525 1.2228453 -0.6627148 0.35988876 -0.1330593
0.26619107 -0.2683302 0.5658385 0.53372407 -0.6716601 -0.28963545 0.009927813 -0.025762606
1.2672564 -0.3818824 -0.07698073 -1.0057127 0.24792513 0.8098634 -0.51372427 0.5943975
0.16716023 0.90276223 -0.6722404 0.45145997 0.44228497 -0.41561666 -0.19692376 -0.48194048
-0.1260969 -0.827241 0.41663417 0.9960522 -0.5717478 -0.36114135 0.018512381 -0.25219917
-0.67739487 1.0593102 0.27052626 0.7855544 0.22610924 -0.38245198 -0.23753095 -0.6059502
-0.6174544 0.105328135 -0.83472824 0.8923056 0.6591572 -0.029206552 -0.7128447 0.4029969
-0.36178806 -0.17388432 0.073039755 0.5881822 -0.18427558 -0.3952676 0.19406141 -0.55937386
-0.3462976 0.6356676 0.18376216 0.562492 0.46930876 0.29296446 0.33372256 -0.9161052
-0.08121378 -0.96918786 0.9012556 0.2376297 0.059400957 -0.6229462 -0.32203653 1.1275517
-0.4545644 0.2512343 -0.38110358 -0.22782198 0.30877 0.5574943 -0.70001984 -0.95087874
-0.058031466 0.12260044 0.63727826 0.38522542 0.5263449 0.37855357 -0.48876345 -0.2937436
-0.13553716 -0.25162715 0.15948054 -0.00616504 0.017184215 0.10667001 -0.71175766 -0.41259822
-0.5065441 0.7784682 0.06224597 -0.07124531 0.36790395 0.009035027 0.33814374 -0.682972
-0.55549705 -0.16353416 0.5409824 0.5085399 -0.4598993 0.69724447 0.28399715 -0.17918171
-0.4667207 -0.1449372 0.46671614 -0.45106804 -0.87228554 0.6057409 0.08954139 0.6182599
-0.00017828566 0.06791282 -0.38932914 -0.22504531 0.05374395 -0.4896862 -0.25872323 -0.5482868
1.3320171 0.09911916 -0.21907054 0.22657332 -0.22892764 0.73114306 0.30450734 0.90345865
-1.7449981 -0.20078593 0.31431794 -0.24298157 -0.01514837 1.4232876 -0.33960113 -0.96140355
-0.028306799 1.2897654 -0.055962846 -0.2017711 -0.49324283 0.45814186 -0.347427 0.68458104
0.1704761 -0.818316 -1.06504 1.360008 0.6605581 -0.5147225 -0.46146622 -0.21601406
0.73325676 -0.5407498 -0.30321193 0.3341782 0.061103843 0.8451827 -0.25962958 -0.4224481
-0.17261437 -0.15039904 -0.612687 0.4523556 -0.31303418 0.24532694 0.4989648 -0.25960925
-0.42519543 -0.2667835 -0.28081158 -0.8064695 0.7341182 0.060264714 0.5792117 -0.6004844
1.127947 -0.063921995 -1.00995 -0.99686617 0.85061055 0.11988563 0.21476729 0.2788486
0.23936124 -0.6773338 -0.5455139 0.46443918 -0.43058446 0.45403838 0.20158288 0.7045664
00000000: 5c44 ee3d 6dee 953f 1216 1cbf 8b36 713e
00000010: 1d6c 31bf 680c 3bbe b040 073f d349 1f3f
00000020: cd4b 69bf b150 bdbd b791 993e 2322 d63e
00000030: c421 07be fbd3 21be 513d 3dbf 85f4 96be
00000040: 08b0 d03d 96d6 74be 862e e1be f3a8 8f3f
00000050: fc40 22be 0070 97bf 2d82 263f e94f 0abf
00000060: 6417 843f d802 6fbe 1d18 833f 1a44 9dbe
00000070: 4ea8 a23f 4684 a4bf 345e 29be c113 28be
00000080: 6fc8 d33d 3886 1d3f 4d9d cfbe b4f7 53be
00000090: f7b8 38be a249 eabd 82c4 223e 9824 0e3f
000000a0: 38e0 7dbe f5b7 7dbf 1779 9d3f d5b3 95bf
000000b0: 727c 25be f31d 79bf 9f2f a3be 41f5 0a3f
000000c0: 9aa4 2cbe c9be e03e a3d2 7abf 828f 15be
000000d0: 3286 9c3f ada7 29bf 5743 b83e b240 08be
000000e0: 324a 883e 9362 89be cbda 103f 24a2 083f
000000f0: ebf1 2bbf 194b 94be 44a8 223c 1a0c d3bc
00000100: 7535 a23f 1786 c3be 13a8 9dbd 32bb 80bf
00000110: 16e0 7d3e 3553 4f3f 6f83 03bf 6f2a 183f
00000120: 0d2c 2b3e 6d1b 673f f217 2cbf c325 e73e
00000130: 2d73 e23e b5cb d4be 62a6 49be e7c0 f6be
00000140: 8c1f 01be 11c6 53bf 1351 d53e 47fd 7e3f
00000150: 105e 12bf 85e7 b8be 47a7 973c 4020 81be
00000160: c069 2dbf 7a97 873f 6b82 8a3e 181a 493f
00000170: 2e89 673e bfd0 c3be 503b 73be 8d1f 1bbf
00000180: 7e11 1ebf 47b6 d73d c0b0 55bf 246e 643f
00000190: 87be 283f 9442 efbc fe7c 36bf 9c55 ce3e
000001a0: 493c b9be bb0e 32be de95 953d 1c93 163f
000001b0: bdb2 3cbe 8460 cabe 09b8 463e 2033 0fbf
000001c0: eb4d b1be 1dbb 223f 262c 3c3e 7aff 0f3f
000001d0: 3d49 f03e 70ff 953e afdd aa3e df85 6abf
000001e0: 6953 a6bd b21c 78bf b0b8 663f 3355 733e
000001f0: 6b4e 733d 6779 1fbf f9e1 a4be 9d53 903f
00000200: aabc e8be c8a1 803e 0220 c3be 2a4a 69be
00000210: 1a17 9e3e f2b7 0e3f 8034 33bf ca6c 73bf
00000220: 67b2 6dbd f115 fb3d ab24 233f 443c c53e
00000230: 8abe 063f c6d1 c13e 343f fabe 9065 96be
00000240: 41ca 0abe 46d5 80be de4e 233e 1b04 cabb
00000250: e9c5 8c3c ce75 da3d c035 36bf 1340 d3be
00000260: e0ac 01bf b149 473f a1f5 7e3d 10e9 91bd
00000270: e85d bc3e a607 143c 2d21 ad3e 41d7 2ebf
00000280: 0e35 0ebf 8075 27be d37d 0a3f ac2f 023f
00000290: ec77 ebbe 9d7e 323f 1368 913e 697b 37be
000002a0: 04f6 eebe 6b6a 14be 6bf5 ee3e 64f2 e6be
000002b0: 1b4e 5fbf d611 1b3f 7a61 b73d 4846 1e3f
000002c0: 31f2 3ab9 e015 8b3d 2656 c7be 4772 66be
000002d0: 9e22 5c3d 26b8 fabe 5f77 84be 865c 0cbf
000002e0: 897f aa3f fcfe ca3d 0754 60be d602 683e
000002f0: 026c 6abe 312c 3b3f 63e8 9b3e 1149 673f
00000300: 195c dfbf d49a 4dbe 48ee a03e 29d0 78be
00000310: de30 78bc 4a2e b63f 33e0 adbe 8b1e 76bf
00000320: a9e3 e7bc 0817 a53f 4c39 65bd 159d 4ebe
00000330: 538a fcbe 9291 ea3e f4e1 b1be b440 2f3f
00000340: 4991 2e3e 287d 51bf 3b53 88bf be14 ae3f
00000350: 561a 293f dbc4 03bf 4d45 ecbe ca32 5dbe
00000360: b7b6 3b3f 946e 0abf 983e 9bbe 6819 ab3e
00000370: 0648 7a3d e55d 583f 2bee 84be 1e4b d8be
00000380: d2c1 30be 3502 1abe 0ed9 1cbf 279b e73e
00000390: 0446 a0be fc36 7b3e 5078 ff3e 81eb 84be
000003a0: 37b3 d9be d997 88be 89c6 8fbe c974 4ebf
000003b0: 2cef 3b3f 22d8 763d 3847 143f 58b9 19bf
000003c0: 9160 903f 89e9 82bd 0b46 81bf 9f32 7fbf
000003d0: 9dc1 593f 9986 f53d f5eb 5b3e 3ec5 8e3e
000003e0: 1d1b 753e bf65 2dbf cda6 0bbf f9ca ed3e
000003f0: 9175 dcbe b877 e83e be6b 4e3e 775e 343f

sequential.0.Lambda.bias f4 [80]
-0.22694781 0.012360617 -0.18122616 -0.53305364 -0.07128406 -0.11257306 1.0146726 -0.17639479
-0.38683072 -0.81735426 -0.18924573 -0.32527086 0.1809574 -0.15279527 -0.31391132 0.14662321
-0.2162593 -0.36228657 -0.54230374 0.19775459 -0.22961126 0.06186273 -0.028818974 -0.39603016
-0.021119678 -0.009837318 -0.44863495 0.017000675 0.22583471 0.081616364 -0.6501131 -0.25388938
0.8289586 0.35935745 -0.33464146 -0.009329513 0.22377394 -0.411366 0.3569351 0.42098242
-0.6014141 0.27491653 -0.14791588 -0.2075689 -0.4834272 0.08015511 -0.36355394 -0.44389614
-0.07090705 -0.66587 -0.19362037 -0.15068038 -0.82830083 -0.08603971 -0.34235156 -0.046714928
-0.2055932 -0.063511446 -0.16188572 -0.13279772 0.085029855 0.0017496076 -0.11842635 -0.3995455
0.14196767 -0.57746404 -0.04911927 0.23860101 -0.6433318 0.11265023 0.15429725 -0.73989093
-0.06829427 0.09609453 0.03329916 -0.18379867 -0.48974314 -0.38879877 -0.30669942 -0.2642329
00000000: 0265 68be 2f84 4a3c 5a93 39be 3476 08bf
00000010: 61fd 91bd b48c e6bd cbe0 813f d6a0 34be
00000020: ad0e c6be 213e 51bf a2c9 41be e789 a6be
00000030: e64c 393e 5d76 1cbe fcb8 a0be 6524 163e
00000040: 1473 5dbe a07d b9be 6bd4 0abf 2e80 4a3e
00000050: 371f 6bbe c663 7d3d c515 ecbc 77c4 cabe
00000060: 2d03 adbc b42c 21bc 7bb3 e5be 0045 8b3c
00000070: 3741 673e 7b26 a73d d06d 26bf cafd 81be
00000080: a136 543f b3fd b73e 2056 abbe d0da 18bc
00000090: ff24 653e 909e d2be 33c0 b63e 028b d73e
000000a0: 46f6 19bf dcc1 8c3e 4377 17be f18c 54be
000000b0: c583 f7be 5d28 a43d be23 babe 5b46 e3be
000000c0: b737 91bd 7576 2abf 6b44 46be f54b 1abe
000000d0: 860b 54bf 9635 b0bd b448 afbe 2758 3fbd
000000e0: 0687 52be 4a12 82bd 5fc5 25be 20fc 07be
000000f0: 2224 ae3d 1753 e53a 8489 f2bd 3a91 ccbe
00000100: f95f 113e afd4 13bf 4a31 49bd d353 743e
00000110: 65b1 24bf 2ab5 e63d 1900 1e3e 7e69 3dbf
00000120: dedd 8bbd 35cd c43d b364 083d b835 3cbe
00000130: 9dbf fabe a210 c7be b507 9dbe 8949 87be

sequential.0.bn.running_mean f4 [80]
0.0 0.0 0.0 0.0 0.0 0.0 0.0 0.0
0.0 0.0 0.0 0.0 0.0 0.0 0.0 0.0
0.0 0.0 0.0 0.0 0.0 0.0 0.0 0.0
0.0 0.0 0.0 0.0 0.0 0.0 0.0 0.0
0.0 0.0 0.0 0.0 0.0 0.0 0.0 0.0
0.0 0.0 0.0 0.0 0.0 0.0 0.0 0.0
0.0 0.0 0.0 0.0 0.0 0.0 0.0 0.0
0.0 0.0 0.0 0.0 0.0 0.0 0.0 0.0
0.0 0.0 0.0 0.0 0.0 0.0 0.0 0.0
0.0 0.0 0.0 0.0 0.0 0.0 0.0 0.0
00000000: 0000 0000 0000 0000 0000 0000 0000 0000
00000010: 0000 0000 0000 0000 0000 0000 0000 0000
00000020: 0000 0000 0000 0000 0000 0000 0000 0000
00000030: 0000 0000 0000 0000 0000 0000 0000 0000
00000040: 0000 0000 0000 0000 0000 0000 0000 0000
00000050: 0000 0000 0000 0000 0000 0000 0000 0000
00000060: 0000 0000 0000 0000 0000 0000 0000 0000
00000070: 0000 0000 0000 0000 0000 0000 0000 0000
00000080: 0000 0000 0000 0000 0000 0000 0000 0000
00000090: 0000 0000 0000 0000 0000 0000 0000 0000
000000a0: 0000 0000 0000 0000 0000 0000 0000 0000
000000b0: 0000 0000 0000 0000 0000 0000 0000 0000
000000c0: 0000 0000 0000 0000 0000 0000 0000 0000
000000d0: 0000 0000 0000 0000 0000 0000 0000 0000
000000e0: 0000 0000 0000 0000 0000 0000 0000 0000
000000f0: 0000 0000 0000 0000 0000 0000 0000 0000
00000100: 0000 0000 0000 0000 0000 0000 0000 0000
00000110: 0000 0000 0000 0000 0000 0000 0000 0000
00000120: 0000 0000 0000 0000 0000 0000 0000 0000
00000130: 0000 0000 0000 0000 0000 0000 0000 0000

sequential.0.bn.running_var f4 [80]
1.0 1.0 1.0 1.0 1.0 1.0 1.0 1.0
1.0 1.0 1.0 1.0 1.0 1.0 1.0 1.0
1.0 1.0 1.0 1.0 1.0 1.0 1.0 1.0
1.0 1.0 1.0 1.0 1.0 1.0 1.0 1.0
1.0 1.0 1.0 1.0 1.0 1.0 1.0 1.0
1.0 1.0 1.0 1.0 1.0 1.0 1.0 1.0
1.0 1.0 1.0 1.0 1.0 1.0 1.0 1.0
1.0 1.0 1.0 1.0 1.0 1.0 1.0 1.0
1.0 1.0 1.0 1.0 1.0 1.0 1.0 1.0
1.0 1.0 1.0 1.0 1.0 1.0 1.0 1.0
00000000: 0000 803f 0000 803f 0000 803f 0000 803f
00000010: 0000 803f 0000 803f 0000 803f 0000 803f
00000020: 0000 803f 0000 803f 0000 803f 0000 803f
00000030: 0000 803f 0000 803f 0000 803f 0000 803f
00000040: 0000 803f 0000 803f 0000 803f 0000 803f
00000050: 0000 803f 0000 803f 0000 803f 0000 803f
00000060: 0000 803f 0000 803f 0000 803f 0000 803f
00000070: 0000 803f 0000 803f 0000 803f 0000 803f
00000080: 0000 803f 0000 803f 0000 803f 0000 803f
00000090: 0000 803f 0000 803f 0000 803f 0000 803f
000000a0: 0000 803f 0000 803f 0000 803f 0000 803f
000000b0: 0000 803f 0000 803f 0000 803f 0000 803f
000000c0: 0000 803f 0000 803f 0000 803f 0000 803f
000000d0: 0000 803f 0000 803f 0000 803f 0000 803f
000000e0: 0000 803f 0000 803f 0000 803f 0000 803f
000000f0: 0000 803f 0000 803f 0000 803f 0000 803f
00000100: 0000 803f 0000 803f 0000 803f 0000 803f
00000110: 0000 803f 0000 803f 0000 803f 0000 803f
00000120: 0000 803f 0000 803f 0000 803f 0000 803f
00000130: 0000 803f 0000 803f 0000 803f 0000 803f

sequential.2.Gamma.weight f4 [120, 80]
0.38850784 0.3186142 0.20409206 0.09383165 -0.0026980764 -0.1492328 -0.12262197 -0.49430326
-0.39356872 0.059302088 -0.91974586 0.38987654 0.08848661 -0.20560604 0.33085743 -0.7842227
0.49672067 0.17671065 0.26918575 -0.51808715 0.40246165 -0.31590256 -1.7088273 -0.582753
1.1155933 -0.016512347 0.38308576 0.29657707 -0.3344695 1.6256212 -0.0461211 -0.09846472
0.071515135 -0.062355045 0.43743965 -0.48664835 0.36402544 0.12775086 -0.24648704 -0.3293058
0.18518819 -0.5537398 -0.19271679 0.083258845 0.003007556 -0.038036674 0.23721683 -0.4229378
0.1768322 -0.19055043 0.05866359 0.25732556 0.12342116 0.16971199 -0.76669186 1.292463
-0.3158964 0.12882563 0.05395321 0.081856035 -0.23732242 0.88401246 -0.39542282 0.027898233
0.046042703 -0.501367 -0.07719952 -0.4746892 -0.5880281 -0.34425762 0.56024885 0.68992954
-0.21251419 -1.6887796 -0.7757538 -1.0433654 0.11201567 0.09177904 -0.24583411 -0.25439504
0.028491506 -1.0067928 -0.15407455 -0.60376734 0.65187776 -0.035719406 -0.09607508 0.018015519
-0.073779255 -0.46579322 -0.48688808 0.076690495 0.34936997 -0.004324511 -0.4864404 0.091540046
-0.063688464 -0.46358097 0.37799975 0.21463065 0.1197923 -0.28714895 -0.60633963 0.11575699
-0.6363381 -0.4051198 -0.24544968 -0.30128163 -0.091082126 -0.19536465 -0.5883898 0.08949478
-0.23074879 0.34959808 0.047647353 -0.96583265 0.28105325 -0.48531264 0.13575992 0.03248226
-0.16032949 0.08315692 -0.43168843 -0.8644344 -0.39541927 -0.08837187 0.050298244 -0.13278712
-0.6024884 -0.30360812 -0.72424495 0.65315485 0.02473812 0.2490686 -0.3155244 0.019253045
-0.0062765293 -0.48825833 -0.41575214 -0.20682138 -0.0617887 -0.53142333 0.03756236 0.15780582
-0.11604752 0.0560125 -0.59461206 -0.072715275 0.29312032 -0.30844915 0.027805142 -0.30573255
-0.3708926 0.081220716 -0.21904972 0.10535957 0.027229577 -0.095533185 -0.24597138 0.15113005
-0.03913967 -0.06287808 0.005483004 -0.116055146 -0.06774484 0.29780352 0.16675292 -0.14866641
-0.26320356 0.16695938 -0.05363448 0.057732105 -0.7736352 -0.31435323 -0.27238986 0.30812192
-0.20155689 -0.036742598 0.14809985 -0.3941193 -0.077699855 0.34165436 -0.9923076 0.27498007
-0.58254004 -0.80077636 -0.14757574 0.11887668 0.41304344 -2.0682912 0.2630317 -0.045823924
0.2908791 0.054609388 -0.5806958 0.37790298 0.048481904 -0.37010968 0.12796044 0.26412222
-0.22213532 -0.011576637 0.019793876 -0.13855626 -0.06361572 0.01843026 0.029112764 0.36039817
0.29933554 -0.22880606 0.42300138 -0.59889597 -0.015932396 -0.19055748 -0.15610957 -0.58401555
0.0671223 0.0867694 0.3267785 -0.12738203 0.0031420996 -0.4349564 0.27153048 -0.82475543
-0.14215183 0.96801156 -0.788884 -0.03288513 -0.00045162084 -0.33272004 -0.8606323 -0.85589576
0.079616606 -0.25056088 -0.071794316 -0.2641507 -0.1364024 -0.624943 -0.019868014 -0.18013993
0.19267976 0.029098477 0.23017934 0.35570636 -1.5341425 -0.26781464 0.008788245 -0.37353507
-0.08442534 0.40299025 -0.48462555 0.36445263 -0.21519227 -0.05586585 -0.4442616 -0.8123511
00000000: 80ea c63e 6721 a33e 82fd 503e cf2a c03d
00000010: 36d2 30bb 7cd0 18be 3a21 fbbd 5115 fdbe
00000020: d781 c9be bfe6 723d 7774 6bbf e69d c73e
00000030: 7838 b53d 648a 52be 2566 a93e d2c2 48bf
00000040: 2c52 fe3e a3f3 343e b7d2 893e 5ca1 04bf
00000050: 740f ce3e fbbd a1be daba dabf 4d2f 15bf
00000060: c3cb 8e3f e744 87bc d123 c43e f3d8 973e
00000070: 963f abbe 5b14 d03f 7be9 3cbd dfa7 c9bd
00000080: 8776 923d 0168 7fbd 17f8 df3e f929 f9be
00000090: 8b61 ba3e 1fd1 023e 1967 7cbe c59a a8be
000000a0: f9a1 3d3e e4c1 0dbf 8d57 45be 9d83 aa3d
000000b0: 6b1a 453b 58cc 1bbd f8e8 723e 4e8b d8be
000000c0: 8013 353e a71f 43be 3c49 703d 2dc0 833e
000000d0: 3cc4 fc3d fbc8 2d3e eb45 44bf 6d6f a53f
000000e0: 2cbd a1be deea 033e 0bfe 5c3d 23a4 a73d
000000f0: a604 73be a44e 623f dc74 cabe d68a e43c
00000100: 4697 3c3d 9659 00bf c81a 9ebd 760a f3be
00000110: 0289 16bf 8942 b0be 786c 0f3f 399f 303f
00000120: 529d 59be ee29 d8bf cd97 46bf ff8c 85bf
00000130: 7968 e53d a6f6 bb3d f0bb 7bbe 1140 82be
00000140: 0567 e93c 96de 80bf b8c5 1dbe 7f90 1abf
00000150: 76e1 263f 834e 12bd 03c3 c4bd 4895 933c
00000160: 9419 97bd 737c eebe 6549 f9be e80f 9d3d
00000170: 9fe0 b23e a1b4 8dbb b70e f9be 5979 bb3d
00000180: 196f 82bd 7c5a edbe 2f89 c13e 23c8 5b3e
00000190: aa55 f53d 3005 93be 1339 1bbf 0012 ed3d
000001a0: 0ee7 22bf dd6b cfbe 2957 7bbe 9641 9abe
000001b0: 4489 babd ac0d 48be b7a0 16bf 0a49 b73d
000001c0: 6949 6cbe 85fe b23e df29 433d cf40 77bf
000001d0: 36e6 8f3e e67a f8be a604 0b3e 1e0c 053d
000001e0: 6a2d 24be 2d4e aa3d 4406 ddbe 934b 5dbf
000001f0: 6574 cabe 50fc b4bd 8805 4e3d 59f9 07be
00000200: ae3c 1abf 8672 9bbe 1e68 39bf 2835 273f
00000210: 99a7 ca3c d70b 7f3e 6a8c a1be 90b8 9d3c
00000220: 58ab cdbb fffc f9be 77dd d4be fcc8 53be
00000230: 2616 7dbd 5c0b 08bf fdda 193d d997 213e
00000240: 52aa edbd 5d6d 653d 7f38 18bf bfeb 94bd
00000250: de13 963e 0ced 9dbe 9cc7 e33c fa88 9cbe
00000260: a3e5 bdbe 0c57 a63d 924e 60be c2c6 d73d
00000270: 9010 df3c e7a6 c3bd ecdf 7bbe d6c1 1a3e
00000280: eb50 20bd 39c6 80bd c5aa b33b 52ae edbd
00000290: cfbd 8abd b479 983e 47c1 2a3e 023c 18be
000002a0: 9ec2 86be 66f7 2a3e d4af 5bbd 8078 6c3d
000002b0: f50c 46bf e8f2 a0be af76 8bbe 28c2 9d3e
000002c0: ee64 4ebe 687f 16bd 7da7 173e 01ca c9be
000002d0: 1a21 9fbd 52ed ae3e df07 7ebf 30ca 8c3e
000002e0: 5821 15bf aeff 4cbf 181e 17be 9e75 f33d
000002f0: 6e7a d33e e25e 04c0 17ac 863e deb1 3bbd
00000300: 1bee 943e 18ae 5f3d 7ba8 14bf 807c c13e
00000310: f694 463d 047f bdbe 1008 033e 073b 873e
00000320: 7177 63be efab 3dbc c426 a23c b1e1 0dbe
00000330: f548 82bd 0efb 963c e47d ee3c 1c86 b83e
00000340: 8242 993e 234c 6abe a393 d83e 3f51 19bf
00000350: a884 82bc 8021 43be 30db 1fbe 0b82 15bf
00000360: 6b77 893d 28b4 b13d 834f a73e 6f70 02be
00000370: afeb 4d3b 9bb2 debe 0b06 8b3e 2c23 53bf
00000380: 4090 11be 9bcf 773f 4df4 49bf 8fb2 06bd
00000390: 86c7 ecb9 485a aabe 6652 5cbf fc1b 5bbf
000003a0: 080e a33d 8449 80be e608 93bd c33e 87be
000003b0: 12ad 0bbe 44fc 1fbf 3fc2 a2bc 9a76 38be
000003c0: d84d 453e ee5f ee3c 22b4 6b3e 251f b63e
000003d0: c85e c4bf 001f 89be 92fc 0f3c fd3f bfbe
000003e0: 31e7 acbd bd54 ce3e d720 f8be 8999 ba3e
000003f0: 5d5b 5cbe 97d3 64bd 4276 e3be 3ef6 4fbf

sequential.2.Gamma.bias f4 [120]
-0.035635564 0.086405 0.055935003 -0.07469485 0.018682897 0.084244035 -0.7116649 -0.52550954
0.19011861 0.12368413 -0.24769317 0.27632317 -0.37791198 0.35912207 -0.015146402 -0.2275376
-0.01258406 0.2134092 -0.30566746 0.0056236703 -0.030368317 0.009262925 -0.13989502 -0.06471024
-0.5073222 -0.19503738 0.07070984 -0.14450382 0.15954125 -0.33940426 0.14916374 -0.4128071
0.02854202 -0.18648827 -0.17455615 -0.31801626 0.07036067 0.1544392 -0.13580982 -0.060977772
-0.09552212 -0.0025871033 -0.07178413 -0.25074545 -0.12958412 -0.18295091 0.03538383 -0.16661976
0.27769628 -0.039559536 0.018340716 -0.20230278 0.020891683 -0.12402572 -0.10501962 0.09580023
-0.123987645 0.1822251 -0.31498143 -0.2607633 -0.74590844 0.022050723 -0.33138686 0.31337443
0.10682349 -0.026654337 -0.070903674 -0.3944783 0.19038582 -0.70587206 -0.025461813 0.17701344
-0.22459973 -0.17700993 -0.14678773 0.08628239 0.2787172 -0.48692513 -0.10437939 -0.11352841
0.1894334 -0.12397146 -0.32966664 -0.1181437 -0.12022536 -0.06826762 -0.16535565 -0.05336127
-0.030317757 -0.20374237 0.01578358 -0.3889039 -0.48116732 -0.37558642 0.06960397 -0.018612714
0.06198525 0.03275421 0.030249566 -0.2908674 0.013343047 0.017868252 -0.21728235 0.15084723
-0.048228897 -0.3246362 -0.24606429 -0.5521203 0.116777144 -0.3325081 0.084299594 0.10206382
-0.13621536 -0.2702552 -0.26858354 -0.037744984 -0.0026782295 -0.34564206 -0.057213187 -0.16853425
00000000: 99f6 11bd 1bf5 b03d 1a1c 653d 9df9 98bd
00000010: e00c 993c 2388 ac3d ac2f 36bf cb87 06bf
00000020: 74ae 423e 1b4e fd3d 47a3 7dbe 3b7a 8d3e
00000030: ae7d c1be d9de b73e 9d28 78bc 9eff 68be
00000040: 602d 4ebc f187 5a3e 7280 9cbe c446 b83b
00000050: fac6 f8bc 86c3 173c a440 0fbe cd86 84bd
00000060: dedf 01bf e1b7 47be 52d0 903d cff8 13be
00000070: c85e 233e 65c6 adbe 61be 183e 745b d3be
00000080: f4d0 e93c c8f6 3ebe d9be 32be 07d3 a2be
00000090: 4119 903d 4f25 1e3e bb11 0bbe d4c3 79bd
000000a0: 1aa1 c3bd 648c 29bb 8f03 93bd b561 80be
000000b0: b3b1 04be 7c57 3bbe a3ee 103d 5f9e 2abe
000000c0: 352e 8e3e 2e09 22bd 453f 963c 7628 4fbe
000000d0: 0925 ab3c 3201 febd 8714 d7bd e932 c43d
000000e0: 3ced fdbd 3799 3a3e 3f45 a1be c482 85be
000000f0: dbf3 3ebf b8a3 b43c 8aab a9be 9d72 a03e
00000100: 46c6 da3d 325a dabc f235 91bd 0ff9 c9be
00000110: 80f4 423e 08b4 34bf 4b95 d0bc 0343 353e
00000120: 79fd 65be 1742 35be 864f 16be d2b4 b03d
00000130: 05b4 8e3e 404e f9be ddc4 d5bd 9581 e8bd
00000140: d4fa 413e c0e4 fdbd 11ca a8be 53f5 f1bd
00000150: b738 f6bd e5cf 8bbd fe52 29be 5991 5abd
00000160: f25c f8bc d7a1 50be 914c 813c 691e c7be
00000170: 905b f6be dd4c c0be 878c 8e3d b179 98bc
00000180: 3fe4 7d3d 4729 063d f0cd f73c 92ec 94be
00000190: cc9c 5a3c 7160 923c 447f 5ebe b277 1a3e
000001a0: aa8b 45bd b736 a6be 47f8 7bbe c257 0dbf
000001b0: db28 ef3d 803e aabe 44a5 ac3d d606 d13d
000001c0: 0a7c 0bbe e45e 8abe c883 89be 7c9a 1abd
000001d0: 3c85 2fbb fff7 b0be 6058 6abd 3e94 2cbe

sequential.2.Lambda.weight f4 [120, 80]
0.44746268 -0.08478532 0.15146255 -0.017685343 -0.8983832 0.09693389 0.37150386 -0.39856505
0.5509085 -0.04820347 -1.0127099 0.18940213 -0.1533362 0.13307357 0.18401144 -1.1980445
-0.29189706 -0.6780062 -0.41195503 -0.19753042 0.0045006177 0.116369374 0.02834191 0.46037528
-0.0903285 -0.76119196 -0.29008117 -0.02250407 0.13360626 0.42001668 -0.05133658 0.36317396
0.21131366 0.4643671 -0.050011344 -0.229992 0.029474115 0.33450776 -0.23032668 0.5025985
0.066069245 -0.701768 -0.18926941 0.19524015 0.07670948 0.4527394 -0.0390206 0.036228787
0.088073306 -0.85817605 0.14548315 -0.559662 0.20793605 0.19224994 -0.25208482 0.76838285
-0.15480645 0.07862812 0.24726357 0.029796492 -0.5109255 -0.20901273 -0.4530677 -0.07465984
-0.35021818 -0.07556973 -0.39776853 -0.089765474 -0.13803576 0.43943393 0.0021543514 0.3004566
-0.5459911 -0.71248335 -0.34731236 0.17837134 -0.2670987 0.23162137 0.062064443 -0.45274696
0.17673934 -0.548514 0.17117284 -0.27401268 0.41764015 0.0539457 -0.12043812 -0.08677538
-0.37808868 0.0042672353 0.18398027 -0.23067985 0.08193842 -0.20626228 0.044550102 -0.010373249
-0.07270809 0.08920107 0.1924975 -0.06640648 0.16618036 -0.48608056 0.111023255 0.21430868
-0.1034452 0.00606566 -0.11232296 -0.42874902 -0.17386082 0.19527708 0.31866843 0.119396806
0.0058978186 -0.24767663 -0.008607035 -0.19400206 -0.1561242 -0.2868418 0.080080524 -0.1168662
0.20487984 0.021792866 -0.10377399 -0.7328861 -0.40141088 -0.4377889 -0.012146037 0.028820597
-0.5190725 -0.25315318 -0.3520345 0.07263325 0.0698378 0.16700654 0.11193557 -0.25753054
0.3082651 -0.597679 -0.47670534 -0.20295228 -0.14103891 -0.22946113 -0.12231762 -0.014907037
0.2003339 0.25366884 -0.23686333 0.07591367 0.037929684 0.14484881 0.19248372 -0.19882078
0.37078935 -0.18775748 -0.22219719 0.1287264 0.2399072 0.11984518 -0.015919197 0.013459755
-0.08928854 0.055237267 0.03556856 -0.046548713 0.23562954 -0.26576638 -0.26658645 0.07779856
0.2276177 -0.06753458 0.21417366 0.14556184 -0.38777065 0.041312158 -0.110546745 0.407058
0.14135711 -0.10322635 0.01613474 -0.5448458 -0.14206487 0.27424356 -0.5221594 0.13486251
-0.15594126 -0.13813789 0.07374753 0.34541777 0.07490727 -0.14115182 0.16835935 0.30790082
-0.12134798 0.28485277 -0.28270134 0.4242698 0.18567465 -0.1627071 0.60846305 0.07482618
0.40124762 -0.162225 0.2509137 0.17745882 0.1608842 -0.02869987 -0.02747805 -0.16997011
0.30507556 0.25511727 0.46915367 -0.18636203 -0.09063377 0.054664213 0.059315536 0.18980715
-0.044475786 0.07145828 0.007137056 0.27185163 0.4943453 -0.100337945 0.029469555 0.20231807
-0.27921396 0.24462597 -0.13517939 0.18002965 0.14996131 -0.15062486 -0.21231043 -0.22423121
0.046205804 0.12268554 0.01964218 0.14586753 0.08920845 -0.25536424 0.13362928 0.068213515
0.19501509 0.34373364 0.0014253053 -0.34180552 -1.1554085 -0.046003632 0.82910234 -0.46360105
-0.5784657 0.088419706 0.2834521 -0.30783176 -0.31328076 -0.10510887 0.39379728 -0.46529818
00000000: d419 e53e eda3 adbd 0019 1b3e dae0 90bc
00000010: 71fc 65bf 4685 c63d c135 be3e b810 ccbe
00000020: 5708 0d3f 0071 45bd 7aa0 81bf a2f2 413e
00000030: 2a04 1dbe 7044 083e 7f6d 3c3e 8659 99bf
00000040: 8873 95be d091 2dbf c5eb d2be 6a45 4abe
00000050: eb79 933b 1153 ee3d 4b2d e83c 4fb6 eb3e
00000060: 26fe b8bd 7add 42bf 8585 94be 755a b8bc
00000070: 14d0 083e 6d0c d73e 4e46 52bd f0f1 b93e
00000080: 9c62 583e 86c1 ed3e b2d8 4cbd 0683 6bbe
00000090: b373 f13c 9a44 ab3e c2da 6bbe 4caa 003f
000000a0: 504f 873d 11a7 33bf d7cf 41be 09ed 473e
000000b0: dc19 9d3d 75cd e73e 11d4 1fbd a364 143d
000000c0: c75f b43d 6db1 5bbf 89f9 143e 0246 0fbf
000000d0: 30ed 543e 2bdd 443e 4311 81be bdb4 443f
000000e0: 9585 1ebe c807 a13d a932 7d3e c617 f43c
000000f0: 03cc 02bf 6f07 56be 7df8 e7be 42e7 98bd
00000100: cc4f b3be 4dc4 9abd 51a8 cbbe f6d6 b7bd
00000110: 3f59 0dbe 7cfd e03e 0530 0d3b 73d5 993e
00000120: 13c6 0bbf 4f65 36bf edd2 b1be faa6 363e
00000130: 29c1 88be 272e 6d3e 4937 7e3d 73ce e7be
00000140: 28fb 343e 6a6b 0cbf ef47 2f3e 644b 8cbe
00000150: eed4 d53e 2bf6 5c3d 43a8 f6bd 4ab7 b1bd
00000160: d794 c1be 2ad4 8b3b 5365 3c3e 5737 6cbe
00000170: 55cf a73d 6b36 53be 2b7a 363d 8ff4 29bc
00000180: fbe7 94bd 0daf b63d 111e 453e 1f00 88bd
00000190: 2f2b 2a3e 8ddf f8be 2960 e33d bc73 5b3e
000001a0: 14db d3bd 72c2 c63b 9409 e6bd fe84 dbbe
000001b0: 9208 32be b7f6 473e 8228 a33e 5086 f43d
000001c0: 7d42 c13b f19e 7dbe 8504 0dbc 7aa8 46be
000001d0: 06df 1fbe eedc 92be 4201 a43d 8c57 efbd
000001e0: 05cc 513e f486 b23c 7587 d4bd 6c9e 3bbf
000001f0: ba85 cdbe de25 e0be 2c00 47bc 2c19 ec3c
00000200: efe1 04bf 4b9d 81be de3d b4be bec0 943d
00000210: 1f07 8f3d c303 2b3e 7a3e e53d 0bdb 83be
00000220: ecd4 9d3e 7e01 19bf b912 f4be b9d2 4fbe
00000230: 816c 10be dcf7 6abe a981 fabd a53c 74bc
00000240: 5424 4d3e e2e0 813e 4d8c 72be a078 9b3d
00000250: 285c 1b3d 3f53 143e 741a 453e ad97 4bbe
00000260: 1ad8 bd3e 7f43 40be a987 63be dad0 033e
00000270: 3caa 753e 6471 f53d fa68 82bc 4e86 5c3c
00000280: e9dc b6bd 7940 623d 57b0 113d dda9 3ebd
00000290: df48 713e 8812 88be 057e 88be da54 9f3d
000002a0: 9d14 693e 924f 8abd 5750 5b3e 2a0e 153e
000002b0: e089 c6be f036 293d 5566 e2bd e869 d03e
000002c0: ebbf 103e 5668 d3bd 012d 843c 047b 0bbf
000002d0: 7479 11be a769 8c3e 3dac 05bf 6619 0a3e
000002e0: 11af 1fbe 0574 0dbe f208 973d 99da b03e
000002f0: fc68 993d 1a8a 10be 6566 2c3e 2da5 9d3e
00000300: 4a85 f8bd 39d8 913e 3bbe 90be e439 d93e
00000310: 7f21 3e3e b19c 26be 3cc4 1b3f 783e 993d
00000320: 5470 cd3e 4f1e 26be c377 803e c4b7 353e
00000330: d4be 243e fd1b ebbc a619 e1bc a50c 2ebe
00000340: dd32 9c3e bb9e 823e e934 f03e b0d5 3ebe
00000350: 339e b9bd 95e7 5f3d d9f4 723d ce5c 423e
00000360: 3e2c 36bd b858 923d f7dd e93b 2330 8b3e
00000370: d41a fd3e fb7d cdbd 236a f13c 782c 4f3e
00000380: 22f5 8ebe 3b7f 7a3e 776c 0abe b159 383e
00000390: 758f 193e 673d 1abe e867 59be de9c 65be
000003a0: 4c42 3d3d 8e42 fb3d a3e8 a03c 4c5e 153e
000003b0: ebb2 b63d 1abf 82be 1dd6 083e 87b3 8b3d
000003c0: 09b2 473e dbfd af3e 4fd1 ba3a 2201 afbe
000003d0: 6de4 93bf 4e6e 3cbd 0d40 543f 1e5d edbe
000003e0: 5416 14bf 6415 b53d a220 913e 209c 9dbe
000003f0: 5666 a0be 5243 d7bd cc9f c93e 903b eebe

sequential.2.Lambda.bias f4 [120]
-0.035635564 0.086405 0.055935003 -0.07469485 0.018682897 0.084244035 -0.7116649 -0.52550954
0.19011861 0.12368413 -0.24769317 0.27632317 -0.37791198 0.35912207 -0.015146402 -0.2275376
-0.01258406 0.2134092 -0.30566746 0.0056236703 -0.030368317 0.009262925 -0.13989502 -0.06471024
-0.5073222 -0.19503738 0.07070984 -0.14450382 0.15954125 -0.33940426 0.14916374 -0.4128071
0.02854202 -0.18648827 -0.17455615 -0.31801626 0.07036067 0.1544392 -0.13580982 -0.060977772
-0.09552212 -0.0025871033 -0.07178413 -0.25074545 -0.12958412 -0.18295091 0.03538383 -0.16661976
0.27769628 -0.039559536 0.018340716 -0.20230278 0.020891683 -0.12402572 -0.10501962 0.09580023
-0.123987645 0.1822251 -0.31498143 -0.2607633 -0.74590844 0.022050723 -0.33138686 0.31337443
0.10682349 -0.026654337 -0.070903674 -0.3944783 0.19038582 -0.70587206 -0.025461813 0.17701344
-0.22459973 -0.17700993 -0.14678773 0.08628239 0.2787172 -0.48692513 -0.10437939 -0.11352841
0.1894334 -0.12397146 -0.32966664 -0.1181437 -0.12022536 -0.06826762 -0.16535565 -0.05336127
-0.030317757 -0.20374237 0.01578358 -0.3889039 -0.48116732 -0.37558642 0.06960397 -0.018612714
0.06198525 0.03275421 0.030249566 -0.2908674 0.013343047 0.017868252 -0.21728235 0.15084723
-0.048228897 -0.3246362 -0.24606429 -0.5521203 0.116777144 -0.3325081 0.084299594 0.10206382
-0.13621536 -0.2702552 -0.26858354 -0.037744984 -0.0026782295 -0.34564206 -0.057213187 -0.16853425
00000000: 99f6 11bd 1bf5 b03d 1a1c 653d 9df9 98bd
00000010: e00c 993c 2388 ac3d ac2f 36bf cb87 06bf
00000020: 74ae 423e 1b4e fd3d 47a3 7dbe 3b7a 8d3e
00000030: ae7d c1be d9de b73e 9d28 78bc 9eff 68be
00000040: 602d 4ebc f187 5a3e 7280 9cbe c446 b83b
00000050: fac6 f8bc 86c3 173c a440 0fbe cd86 84bd
00000060: dedf 01bf e1b7 47be 52d0 903d cff8 13be
00000070: c85e 233e 65c6 adbe 61be 183e 745b d3be
00000080: f4d0 e93c c8f6 3ebe d9be 32be 07d3 a2be
00000090: 4119 903d 4f25 1e3e bb11 0bbe d4c3 79bd
000000a0: 1aa1 c3bd 648c 29bb 8f03 93bd b561 80be
000000b0: b3b1 04be 7c57 3bbe a3ee 103d 5f9e 2abe
000000c0: 352e 8e3e 2e09 22bd 453f 963c 7628 4fbe
000000d0: 0925 ab3c 3201 febd 8714 d7bd e932 c43d
000000e0: 3ced fdbd 3799 3a3e 3f45 a1be c482 85be
000000f0: dbf3 3ebf b8a3 b43c 8aab a9be 9d72 a03e
00000100: 46c6 da3d 325a dabc f235 91bd 0ff9 c9be
00000110: 80f4 423e 08b4 34bf 4b95 d0bc 0343 353e
00000120: 79fd 65be 1742 35be 864f 16be d2b4 b03d
00000130: 05b4 8e3e 404e f9be ddc4 d5bd 9581 e8bd
00000140: d4fa 413e c0e4 fdbd 11ca a8be 53f5 f1bd
00000150: b738 f6bd e5cf 8bbd fe52 29be 5991 5abd
00000160: f25c f8bc d7a1 50be 914c 813c 691e c7be
00000170: 905b f6be dd4c c0be 878c 8e3d b179 98bc
00000180: 3fe4 7d3d 4729 063d f0cd f73c 92ec 94be
00000190: cc9c 5a3c 7160 923c 447f 5ebe b277 1a3e
000001a0: aa8b 45bd b736 a6be 47f8 7bbe c257 0dbf
000001b0: db28 ef3d 803e aabe 44a5 ac3d d606 d13d
000001c0: 0a7c 0bbe e45e 8abe c883 89be 7c9a 1abd
000001d0: 3c85 2fbb fff7 b0be 6058 6abd 3e94 2cbe

sequential.2.bn.running_mean f4 [120]
0.0 0.0 0.0 0.0 0.0 0.0 0.0 0.0
0.0 0.0 0.0 0.0 0.0 0.0 0.0 0.0
0.0 0.0 0.0 0.0 0.0 0.0 0.0 0.0
0.0 0.0 0.0 0.0 0.0 0.0 0.0 0.0
0.0 0.0 0.0 0.0 0.0 0.0 0.0 0.0
0.0 0.0 0.0 0.0 0.0 0.0 0.0 0.0
0.0 0.0 0.0 0.0 0.0 0.0 0.0 0.0
0.0 0.0 0.0 0.0 0.0 0.0 0.0 0.0
0.0 0.0 0.0 0.0 0.0 0.0 0.0 0.0
0.0 0.0 0.0 0.0 0.0 0.0 0.0 0.0
0.0 0.0 0.0 0.0 0.0 0.0 0.0 0.0
0.0 0.0 0.0 0.0 0.0 0.0 0.0 0.0
0.0 0.0 0.0 0.0 0.0 0.0 0.0 0.0
0.0 0.0 0.0 0.0 0.0 0.0 0.0 0.0
0.0 0.0 0.0 0.0 0.0 0.0 0.0 0.0
00000000: 0000 0000 0000 0000 0000 0000 0000 0000
00000010: 0000 0000 0000 0000 0000 0000 0000 0000
00000020: 0000 0000 0000 0000 0000 0000 0000 0000
00000030: 0000 0000 0000 0000 0000 0000 0000 0000
00000040: 0000 0000 0000 0000 0000 0000 0000 0000
00000050: 0000 0000 0000 0000 0000 0000 0000 0000
00000060: 0000 0000 0000 0000 0000 0000 0000 0000
00000070: 0000 0000 0000 0000 0000 0000 0000 0000
00000080: 0000 0000 0000 0000 0000 0000 0000 0000
00000090: 0000 0000 0000 0000 0000 0000 0000 0000
000000a0: 0000 0000 0000 0000 0000 0000 0000 0000
000000b0: 0000 0000 0000 0000 0000 0000 0000 0000
000000c0: 0000 0000 0000 0000 0000 0000 0000 0000
000000d0: 0000 0000 0000 0000 0000 0000 0000 0000
000000e0: 0000 0000 0000 0000 0000 0000 0000 0000
000000f0: 0000 0000 0000 0000 0000 0000 0000 0000
00000100: 0000 0000 0000 0000 0000 0000 0000 0000
00000110: 0000 0000 0000 0000 0000 0000 0000 0000
00000120: 0000 0000 0000 0000 0000 0000 0000 0000
00000130: 0000 0000 0000 0000 0000 0000 0000 0000
00000140: 0000 0000 0000 0000 0000 0000 0000 0000
00000150: 0000 0000 0000 0000 0000 0000 0000 0000
00000160: 0000 0000 0000 0000 0000 0000 0000 0000
00000170: 0000 0000 0000 0000 0000 0000 0000 0000
00000180: 0000 0000 0000 0000 0000 0000 0000 0000
00000190: 0000 0000 0000 0000 0000 0000 0000 0000
000001a0: 0000 0000 0000 0000 0000 0000 0000 0000
000001b0: 0000 0000 0000 0000 0000 0000 0000 0000
000001c0: 0000 0000 0000 0000 0000 0000 0000 0000
000001d0: 0000 0000 0000 0000 0000 0000 0000 0000

sequential.2.bn.running_var f4 [120]
1.0 1.0 1.0 1.0 1.0 1.0 1.0 1.0
1.0 1.0 1.0 1.0 1.0 1.0 1.0 1.0
1.0 1.0 1.0 1.0 1.0 1.0 1.0 1.0
1.0 1.0 1.0 1.0 1.0 1.0 1.0 1.0
1.0 1.0 1.0 1.0 1.0 1.0 1.0 1.0
1.0 1.0 1.0 1.0 1.0 1.0 1.0 1.0
1.0 1.0 1.0 1.0 1.0 1.0 1.0 1.0
1.0 1.0 1.0 1.0 1.0 1.0 1.0 1.0
1.0 1.0 1.0 1.0 1.0 1.0 1.0 1.0
1.0 1.0 1.0 1.0 1.0 1.0 1.0 1.0
1.0 1.0 1.0 1.0 1.0 1.0 1.0 1.0
1.0 1.0 1.0 1.0 1.0 1.0 1.0 1.0
1.0 1.0 1.0 1.0 1.0 1.0 1.0 1.0
1.0 1.0 1.0 1.0 1.0 1.0 1.0 1.0
1.0 1.0 1.0 1.0 1.0 1.0 1.0 1.0
00000000: 0000 803f 0000 803f 0000 803f 0000 803f
00000010: 0000 803f 0000 803f 0000 803f 0000 803f
00000020: 0000 803f 0000 803f 0000 803f 0000 803f
00000030: 0000 803f 0000 803f 0000 803f 0000 803f
00000040: 0000 803f 0000 803f 0000 803f 0000 803f
00000050: 0000 803f 0000 803f 0000 803f 0000 803f
00000060: 0000 803f 0000 803f 0000 803f 0000 803f
00000070: 0000 803f 0000 803f 0000 803f 0000 803f
00000080: 0000 803f 0000 803f 0000 803f 0000 803f
00000090: 0000 803f 0000 803f 0000 803f 0000 803f
000000a0: 0000 803f 0000 803f 0000 803f 0000 803f
000000b0: 0000 803f 0000 803f 0000 803f 0000 803f
000000c0: 0000 803f 0000 803f 0000 803f 0000 803f
000000d0: 0000 803f 0000 803f 0000 803f 0000 803f
000000e0: 0000 803f 0000 803f 0000 803f 0000 803f
000000f0: 0000 803f 0000 803f 0000 803f 0000 803f
00000100: 0000 803f 0000 803f 0000 803f 0000 803f
00000110: 0000 803f 0000 803f 0000 803f 0000 803f
00000120: 0000 803f 0000 803f 0000 803f 0000 803f
00000130: 0000 803f 0000 803f 0000 803f 0000 803f
00000140: 0000 803f 0000 803f 0000 803f 0000 803f
00000150: 0000 803f 0000 803f 0000 803f 0000 803f
00000160: 0000 803f 0000 803f 0000 803f 0000 803f
00000170: 0000 803f 0000 803f 0000 803f 0000 803f
00000180: 0000 803f 0000 803f 0000 803f 0000 803f
00000190: 0000 803f 0000 803f 0000 803f 0000 803f
000001a0: 0000 803f 0000 803f 0000 803f 0000 803f
000001b0: 0000 803f 0000 803f 0000 803f 0000 803f
000001c0: 0000 803f 0000 803f 0000 803f 0000 803f
000001d0: 0000 803f 0000 803f 0000 803f 0000 803f

sequential.4.Gamma.weight f4 [70, 120]
0.14334486 -0.02155688 -0.26515624 0.060995765 -0.033119544 -0.43233708 -0.20204785 0.036024727
0.07927698 -0.25199732 -0.3217588 -0.6196663 0.1607741 -0.32540604 0.105939694 -0.35837463
-0.45037588 -0.72212857 0.1512414 -0.21595496 -0.06146082 -0.1321539 0.34305272 -0.025310935
-0.3301132 -0.44500345 0.18709148 -0.31455022 -0.16509914 0.34546855 -0.23145328 0.15440556
0.4698234 -0.04033098 0.25888824 0.096345685 -0.15605392 -0.3412763 -0.6857162 -0.035715703
-0.5508425 0.13111196 -0.109473005 -0.117489755 0.17499548 0.06050054 0.072629 0.09516731
-0.2980764 0.62481743 0.23837332 0.15241292 -0.015384252 -0.17647791 -0.3367255 -0.10916204
-0.4904348 0.015492254 -0.18046182 0.099460386 0.51788515 -0.34109303 0.11978576 -0.11056666
-0.4425331 -0.8907449 -0.46172056 -0.27689904 -0.17652407 0.6364595 -0.34820724 0.17818575
-0.06248385 -0.3892248 -0.11400338 0.12792543 -0.25715202 0.0076657403 0.048394877 -0.18913753
0.0671316 -0.16954838 0.12981819 -0.3584447 -0.09279292 0.42785516 -0.19145158 0.10839809
0.216229 0.37442964 0.55417 0.06826187 -0.32609493 0.11180772 0.056460787 0.082695976
0.014520514 -0.18026604 0.33419853 0.20314327 -0.085584424 -0.13427518 -0.115299396 -0.2566027
-0.17248881 -0.055509556 0.22116406 0.51266414 -0.04037264 0.15794964 0.011695128 0.008748783
-0.0023530081 -0.30733347 0.22298847 -0.40926564 0.046572562 -0.28625113 -0.9570171 -0.34999377
0.19090673 -0.23723616 0.024895044 0.12807614 -0.35180944 -0.2075389 -0.35558704 -0.23014522
-0.05116294 -0.3220913 -0.023147812 -0.56527114 0.17600715 -0.49437878 -0.022156 0.102755666
-0.47011212 -0.2770224 0.18632275 -0.24522366 -0.123571284 -0.31712863 0.09914556 0.12631275
0.34772423 -0.12612993 -0.025755746 -0.20691487 -0.03521786 -0.045935687 -0.28006884 -0.10474938
0.2142476 0.29632032 0.10621984 0.10571098 0.5930324 0.0933188 -0.5605863 -0.39869386
0.0067789033 -0.16785672 0.024723995 0.19608988 -0.09424996 0.042198088 -0.0890189 -0.18842396
-0.08432933 -0.32468995 0.13081957 0.16448711 -0.29690462 0.24838857 -0.28824618 0.18431261
-0.15793303 0.26230928 0.29457986 -0.36172917 0.33050963 -0.25452206 0.624263 -0.10899259
-0.2787198 -0.31107885 -0.11160202 -0.2767272 -0.24042219 0.29643998 -0.46147388 -0.06671748
-0.049442 0.43563154 0.13320817 0.22438417 -0.1147874 0.03863595 0.26883903 0.32398096
-0.20209508 0.06670447 -0.8065291 -0.08203503 -0.09858999 -0.13701437 0.19910099 -0.12402622
0.6839365 -0.107239835 0.35005546 -0.3014611 -0.10697359 0.13282436 -0.017263697 -0.31351373
-0.09625546 0.028956303 0.58542407 -0.19107501 -0.21337394 -0.105579 0.28023997 0.008798056
0.23776834 0.21531348 -0.7277089 -0.07813169 0.23334603 -0.49756166 0.051893402 0.11464426
0.37202442 -0.16058743 0.21373539 0.03022564 -0.13142829 0.18165958 -0.22279204 0.13323972
0.3329042 0.037804667 -0.53661716 -0.19896428 0.20475875 -0.29165918 -0.9001827 -0.1063257
0.149226 -0.7013069 0.5878865 -0.57132006 0.5719008 -0.1195721 -0.16187215 0.058925133
00000000: ffc8 123e 0e98 b0bc 8fc2 87be b2d6 793d
00000010: 5ca8 07bd 495b ddbe a2e5 4ebe aa8e 133d
00000020: f85b a23d cb05 81be 92bd a4be 73a2 1ebf
00000030: f7a1 243e 9f9b a6be e9f6 d83d e17c b7be
00000040: ab97 e6be 6bdd 38bf 07df 1a3e 4c23 5dbe
00000050: 57be 7bbd 5a53 07be 9ba4 af3e e158 cfbc
00000060: 9904 a9be 7ed7 e3be e994 3f3e ba0c a1be
00000070: c00f 29be 41e1 b03e 1702 6dbe 7e1c 1e3e
00000080: b18c f03e 1932 25bd 008d 843e e350 c53d
00000090: 99cc 1fbe c4bb aebe 198b 2fbf a14a 12bd
000000a0: 0404 0dbf 3742 063e 6233 e0bd 789e f0bd
000000b0: 0432 333e 6acf 773d 83be 943d 14e7 c23d
000000c0: 789d 98be 09f4 1f3f 2318 743e 2212 1c3e
000000d0: 3b0e 7cbc a0b6 34be 4967 acbe 5990 dfbd
000000e0: 451a fbbe 39d3 7d3c fcca 38be e3b1 cb3d
000000f0: 1f94 043f bfa3 aebe 3d52 f53d c670 e2bd
00000100: b393 e2be dc07 64bf a366 ecbe b6c5 8dbe
00000110: bac2 34be 03ef 223f 3848 b2be 5376 363e
00000120: 11ef 7fbd 7948 c7be 9b7a e9bd e2fe 023e
00000130: 6ea9 83be e430 fb3b b539 463d 45ad 41be
00000140: 4b7c 893d 179e 2dbe 0fef 043e 1086 b7be
00000150: 370a bebd d50f db3e e20b 44be d1ff dd3d
00000160: 236b 5d3e 3eb5 bf3e 16de 0d3f e1cc 8b3d
00000170: eaf5 a6be 72fb e43d 6d43 673d 825c a93d
00000180: 73e7 6d3c a997 38be 121c ab3e ca04 503e
00000190: e346 afbd 6f7f 09be 1722 ecbd 6e61 83be
000001a0: e8a0 30be fd5d 63bd d578 623e f53d 033f
000001b0: c85d 25bd 8dbd 213e ec9c 3f3c 0e57 0f3c
000001c0: ed34 1abb d05a 9dbe 1757 643e 448b d1be
000001d0: dfc2 3e3d 828f 92be 13ff 74bf 6232 b3be
000001e0: 0e7d 433e 09ee 72be b1f0 cb3c 6426 033e
000001f0: 5e20 b4be 1485 54be 810f b6be 30ab 6bbe
00000200: 3b90 51bd 27e9 a4be 7ba0 bdbc 9cb5 10bf
00000210: 383b 343e 371f fdbe 8080 b5bc 9071 d23d
00000220: 89b2 f0be e1d5 8dbe 64cb 3e3e e91b 7bbe
00000230: f112 fdbd af5e a2be d40c cb3d 2158 013e
00000240: e908 b23e 3428 01be b7fd d2bc 7ee1 53be
00000250: 9a40 10bd 0f27 3cbd 2f65 8fbe d886 d6bd
00000260: b963 5b3e 4cb7 973e ca89 d93d 007f d83d
00000270: f9d0 173f ed1d bf3d 9582 0fbf 9a21 ccbe
00000280: 9021 de3b a2e2 2bbe fa89 ca3c c9cb 483e
00000290: 1f06 c1bd e7d7 2c3d 8b4f b6bd 36f2 40be
000002a0: dbb4 acbd c33d a6be 91f5 053e 4f6f 283e
000002b0: e203 98be 9359 7e3e 0195 93be 72bc 3c3e
000002c0: 32b9 21be 674d 863e 2cd3 963e 9134 b9be
000002d0: 8f38 a93e b750 82be b3cf 1f3f 8237 dfbd
000002e0: 5db4 8ebe ba45 9fbe 9a8f e4bd 30af 8dbe
000002f0: 3c31 76be fbc6 973e 4e46 ecbe 2da3 88bd
00000300: b283 4abd 190b df3e b967 083e f7c4 653e
00000310: a815 ebbd bb40 1e3d 45a5 893e d5e0 a53e
00000320: 03f2 4ebe 5a9c 883d b178 4ebf fb01 a8bd
00000330: 8ce9 c9bd 7f4d 0cbe 21e1 4b3e 7501 febd
00000340: 7616 2f3f 8fa0 dbbd 783a b33e 1c59 9abe
00000350: f814 dbbd 1c03 083e 996c 8dbc df84 a0be
00000360: 9521 c5bd c535 ed3c 5ade 153f 2ba9 43be
00000370: b37e 5abe ce39 d8bd 9d7b 8f3e b925 103c
00000380: 8b79 733e 237b 5c3e 214b 3abf 8203 a0bd
00000390: 43f2 6e3e 67c0 febe 2d8e 543d 9cca ea3d
000003a0: fc79 be3e 0871 24be 73dd 5a3e c39b f73c
000003b0: 2395 06be f804 3a3e 9923 64be fe6f 083e
000003c0: 6b72 aa3e 11d9 1a3d be5f 09bf 4bbd 4bbe
000003d0: 47ac 513e 5a54 95be 6072 66bf 4ac1 d9bd
000003e0: b3ce 183e d988 33bf bb7f 163f 0842 12bf
000003f0: 1768 123f 38e2 f4bd d0c1 25be 7b5b 713d

sequential.4.Gamma.bias f4 [70]
-0.3535182 -0.24568552 0.030655833 -0.1994888 -0.23107226 -0.16238633 0.06221433 -0.61021155
-0.20712186 0.05536925 -0.4247304 -0.58993 -0.55476797 -0.29734424 0.07741709 0.06314726
-0.09992673 -0.23297632 0.19418903 -0.48274723 -0.54808044 -0.074770615 -0.8888127 -0.38698152
-0.21797568 -0.027285894 0.19342382 -1.2141181 -0.2343966 -0.44262335 -0.21451041 -0.11898568
0.19420356 0.013124657 -0.2910893 -0.2794992 -0.12362447 -0.16001163 -0.17450562 -0.064034864
-0.09101797 0.138463 0.065219775 0.096270874 -0.35578227 -0.36872143 -0.48334718 -0.1560189
-0.275649 -0.14302462 -0.14612514 -0.029012382 -0.25460207 -0.516352 -0.75212765 -0.89560527
0.15469682 0.14084868 -0.47272936 -0.17040217 -0.0041828505 -0.7252148 -0.20821194 -0.3158669
-0.016891485 -0.29953212 -0.348801 -0.51916796 -0.22854108 -0.031793397
00000000: 5600 b5be fc94 7bbe f121 fb3c cb46 4cbe
00000010: 359e 6cbe 9a48 26be 74d4 7e3d d336 1cbf
00000020: c117 54be deca 623d 4376 d9be a705 17bf
00000030: 4605 0ebf 813d 98be da8c 9e3d 5a53 813d
00000040: 63a6 ccbd 5891 6ebe 7dd9 463e a52a f7be
00000050: 004f 0cbf 5621 99bd 3b89 63bf 7122 c6be
00000060: 0435 5fbe ab86 dfbc e510 463e 3968 9bbf
00000070: aa05 70be 879f e2be 9ea8 5bbe c4ae f3bd
00000080: 4cdd 463e cd08 573c a809 95be 851a 8fbe
00000090: d32e fdbd 17da 23be 9ab1 32be b624 83bd
000000a0: a167 babd 3fc9 0d3e f291 853d aa29 c53d
000000b0: 1829 b6be 0ec9 bcbe 4879 f7be 6bc3 1fbe
000000c0: de21 8dbe 0c75 12be d4a1 15be 60ab edbc
000000d0: 345b 82be a52f 04bf 708b 40bf 6346 65bf
000000e0: d868 1e3e a33a 103e 9509 f2be e87d 2ebe
000000f0: 4b10 89bb ada7 39bf 8335 55be 4eb9 a1be
00000100: 0360 8abc 465c 99be 0b96 b2be 31e8 04bf
00000110: ac06 6abe cb39 02bd
