Models/Z_50GeV_50.pth (torch, 197904 bytes, 36 tensors)

sequential.0.Gamma.weight f4 [80, 5]
00000000: 7027 e23c 6f62 2c3e 55fc 3f3f e876 55be
00000010: 13ca b13e b234 9d3f fc22 b4bf a3c4 26bf
00000020: 0421 193c 54a8 943f 7fb6 2f3f 43e7 e9be
00000030: d2b0 09bf 33da 303f 9e7b 97bf 98cb dd3e
00000040: 1e54 913e ae47 303f e8ca 283f 7f52 4bbd
00000050: 4b1a 743f 5abe 4f3b 3e8d 363e 2e7c 763f
00000060: f8cc b9bd 6e36 8d3e 1200 bb3e 5fdf 1ebf
00000070: f98b dfbe 5c1f a33d 62a0 edbe b9c0 eb3d
00000080: 5a0a 9b3f ae58 0a3f c5b4 e33e d1db 22bf
00000090: 2d09 883e 3ae4 013f c1f6 19bf 27c8 ad3e
000000a0: d466 3a3f 4621 ac3e 13bd 23be a2ff 183d
000000b0: 6007 6cbf e95d 0b3e e319 9fbe 32bc a53f
000000c0: b8c4 d4be 9810 30bf a2bb db3c 4447 f5be
000000d0: f68e 02bf 781b d3bd 3b8a 223f 7ff6 803f
000000e0: 6f61 abbe 32a8 aabe 1eae ae3e c2f3 9a3e
000000f0: e245 21bf 5004 9a3e 63e8 b43d 6447 16be
00000100: b97a 013e 097a 8d3f 971c 2f3f fc75 2dbf
00000110: 6d38 33bf b08c 5ebe b858 d53f fdb9 813f
00000120: 2604 b0bd f9a1 29be 3c76 1b3f 6b4c c23d
00000130: 69d2 e9be 0783 b3bd fc9d a63f da28 353e
00000140: 23be a5be ae3d 673f 38fa 143e 2ed1 90be
00000150: 3c30 e03c 9898 fb3d 5b43 79be 0a27 8f3c
00000160: e248 8abe b45d 4bbe 47d8 b93e 5a18 99bd
00000170: 9792 d03e 064c 123f b387 aebe e481 01bf
00000180: 66ec 393e b108 3d3f b9f3 ad3f 4180 69bf
00000190: fbe6 bf3d 5be6 24bf 2d3e c33f 6a17 15bf
000001a0: df91 24bf b1c6 b33e be42 d53e f937 593d
000001b0: c82f 14bf f46e dfbd 4f32 743f 0adc 463f
000001c0: 6b17 283f 8ea8 8d3f e344 bdbe ccb6 fbbe
000001d0: 860d 8ebe 1c54 4e3f 81da eabe f14b 20bf
000001e0: acac 9bbe 4060 0c3f 7dd9 8ebe 4667 f33c
000001f0: 0698 92be 7dc8 6d3f 0d7d 173f 93f0 58bf
00000200: d1c6 77be 169e ebbe bd61 4b3e 321e 68bf
00000210: c4e1 10be 297e 673d 02f1 d0be d3d9 1c3f
00000220: 9338 64be 09aa 813f 7644 0e3f 8e4f 77bf
00000230: 0abc 483f 8589 0dbe 0deb d33e e08e 92bb
00000240: 0e6b 4fbf 5201 c4bd c409 98bf 4684 ddbe
00000250: c10c 0d3d a5ee ca3f 7dfb 923f a95f 8d3f
00000260: 60d7 a2bf bcbd 8abf 6d14 8dbe 0e1b 20bf
00000270: 7e73 9a3f 7a0f 9dbe b7fc 06bf 31b3 ad3e
00000280: 81fc 7ebe 8acf 783f 7f2b aebd 8b97 1a3f
00000290: 1bca 223f 60da dbbe 548b 8fbe 24af c73e
000002a0: 11cd 60bd 1132 863e c468 53bd da47 7f3e
000002b0: 2d12 253f 66eb e7bd 21e7 89be eab8 643e
000002c0: 0c34 6f3e 5079 b33f 1330 ad3e c2be 663e
000002d0: 877a 6f3e 8432 693f 163f 133f 8b0d 513f
000002e0: 70cb 1cbf 2963 603f 03cd d7bd 231f 2dbe
000002f0: cca2 473d 2e12 4d3f 766d 393f a0ea c53e
00000300: 2d57 413e dde2 bbbe 314f de3f 4c8f 20bf
00000310: 14f2 8bbe db89 91be f5f0 ce3e 790d 473f
00000320: c0f9 e63e 4b38 00bf d86e 0ebe 7377 d33e
00000330: 2c85 a63f 5172 923e 0dc8 053f 4f84 573f
00000340: 233e c03f 7e78 1cbe 0cfe 30be 7642 3abe
00000350: 958b b93e 4670 4abf 5c99 453e f2f6 733f
00000360: a17b 21bf 2334 9cbe f0e1 59be 3216 af3e
00000370: 5852 033f 9ef4 ab3e 4b5b 7d3f 9df4 2abe
00000380: d652 17bf 88f3 e1bb 9108 a73d b785 32bf
00000390: 9288 5dbd abb4 abbe 8402 e6be b6cb 61bd
000003a0: c35d 993f 6d8c 373e 12a8 a2bf 0122 093f
000003b0: e9ec 6a3f 30cb af3e daf7 adbd 4fd4 0b3f
000003c0: f881 843e 8a8c 44bd e975 80be 39c7 143f
000003d0: a00b c2be 3cd6 803d cc3c a7bf 902c e23e
000003e0: 9242 28be f993 433f a3dc 403f 7159 e7bf
000003f0: 083b 4c3f 377f 4ebf 41f4 0fbe bf4c 0dbf
0.027606696 0.16834424 0.74994403 -0.2084614 0.34724483 1.2281706 -1.4073176 -0.65143794
0.00934625 1.161387 0.6863784 -0.4568425 -0.5378543 0.69082946 -1.18346 0.43319392
0.2838449 0.68859375 0.6593461 -0.04963922 0.9535262 0.0031699152 0.17827317 0.96283233
-0.09072298 0.2758059 0.3652349 -0.6205959 -0.43661478 0.07964966 -0.46411425 0.11511368
1.2112534 0.54041564 0.44473854 -0.63616663 0.265695 0.5073887 -0.6014214 0.33941767
0.72813153 0.33619136 -0.15990095 0.037353165 -0.92198753 0.13610043 -0.31074437 1.2948058
-0.41556334 -0.6877532 0.026822869 -0.47905934 -0.5099939 -0.103079736 0.6349217 1.0075225
-0.33472773 -0.33331448 0.34117216 0.30264097 -0.6299726 0.30081415 0.08833387 -0.14675671
0.12644471 1.1052867 0.68403 -0.67758155 -0.70007974 -0.21733356 1.66677 1.0134884
-0.08594541 -0.16565694 0.60727286 0.09487232 -0.45668343 -0.08765226 1.3016963 0.17691365
-0.32371625 0.9032849 0.14548576 -0.2828459 0.02736675 0.12284964 -0.243421 0.01747467
-0.2700873 -0.19859964 0.3629782 -0.07475348 0.4073684 0.5714725 -0.34087905 -0.5058882
0.18156585 0.7384139 1.3590003 -0.91211325 0.09370228 -0.64413995 1.525335 -0.5823885
-0.6428508 0.35112527 0.41652483 0.053031895 -0.5788541 -0.109098345 0.95389265 0.776795
0.65660733 1.1067064 -0.3696662 -0.491629 -0.27744693 0.8059709 -0.4586983 -0.6261588
-0.30405176 0.54834366 -0.27900305 0.02971233 -0.2863161 0.92884046 0.5917519 -0.8474209
-0.24196936 -0.46019047 0.19861503 -0.90671074 -0.14148623 0.0565168 -0.40808874 0.61269873
-0.22287206 1.0130016 0.55573213 -0.96605766 0.78411925 -0.13821991 0.41390267 -0.0044725984
-0.8102273 -0.09570564 -1.187798 -0.4326498 0.03443599 1.5854079 1.1482998 1.1044818
-1.2721977 -1.0839152 -0.27554646 -0.6254128 1.2066495 -0.3067587 -0.5272936 0.33925775
-0.2490101 0.9719168 -0.0850439 0.60387486 0.6358964 -0.42940044 -0.28035986 0.3900081
-0.054883067 0.26210073 -0.051613584 0.24929753 0.6448086 -0.113241956 -0.2693415 0.22336164
0.23359698 1.4021397 0.3382574 0.22533706 0.23386584 0.91092706 0.57518137 0.8166129
-0.6124792 0.87651306 -0.1053715 -0.16906409 0.04873924 0.80105865 0.7243265 0.38655567
0.18880911 -0.3669652 1.7367917 -0.62718654 -0.27333128 -0.28425488 0.4041821 0.7775493
0.4511242 -0.50085896 -0.13909471 0.4130207 1.3009391 0.28602841 0.5225838 0.8418626
1.5018963 -0.15280339 -0.17284411 -0.18189415 0.36239305 -0.79077566 0.19296783 0.95298684
-0.6307927 -0.30508527 -0.21277595 0.3419662 0.5129752 0.33585066 0.98967427 -0.16694875
-0.5911077 -0.0068954863 0.08155931 -0.6973528 -0.05408532 -0.33536276 -0.44923794 -0.055125915
1.1981739 0.17924662 -1.2707541 0.5356751 0.91767746 0.34334707 -0.084945396 0.5462083
0.25880408 -0.04798559 -0.25089958 0.5811649 -0.37899494 0.06290862 -1.3065429 0.44174623
-0.16431645 0.76397663 0.75336665 -1.807417 0.79777575 -0.80662864 -0.14058019 -0.5519523

sequential.0.Gamma.bias f4 [80]
00000000: e846 f4be 6614 dabe 0459 99be 9648 86be
00000010: 5d6c 33bf 1023 e93d d3d4 31be 566e 0cbf
00000020: 6abb a1be 7bf0 313e bf2f 7abe 6f81 863e
00000030: 4cf4 f6bd c64a 3c3e 5d2c 2f3f 26f8 00bf
00000040: 7d31 6c3c e53d bdbe 8d70 0dbf 0ae8 f6bd
00000050: ae7d 5f3e 9405 11bf 9e2b 03bf aaa1 683e
00000060: 6e74 a9be e459 c3be 21bf 29bf bb9d 38bc
00000070: 4d61 8b3e f686 58be ac81 183d 980d ba3e
00000080: ac39 f3be 8cfb a7be 49ef 843e 3ed9 39bf
00000090: 2912 fdbe fc9c 85be a4f8 b8be 3297 f2be
000000a0: 5674 d2be 8c3e 8dbe ba1d 18bf 5310 3c3e
000000b0: a52f 37bf f322 91be 9b31 e3be 1c6b c9be
000000c0: 0f4c 01bf d983 a9be 9aaf 2c3d 9da4 413e
000000d0: 2a0a 2a3d 4ac1 06bf f7d9 6e3e 781f 2f3e
000000e0: b0a2 a83e 74c6 2e3e e396 bfbe ab63 d73e
000000f0: 481b 89bd e0b0 16bf 8807 1abf 7eb8 14bf
00000100: 81ab a63c 0974 c0be f04e a2be 3322 4fbf
00000110: 35f0 933e 1f35 c1bd bc5a a63e c611 4dbe
00000120: f386 afbd 2570 0abf c4b3 e83d 5891 1ebe
00000130: 42cb 3f3d 9096 acbe d7b9 2bbe c295 d0be
-0.47710347 -0.42593688 -0.29950726 -0.26227254 -0.70087224 0.11383641 -0.17366342 -0.5485586
-0.31588298 0.17376892 -0.24432276 0.26270625 -0.12058315 0.18387899 0.6842707 -0.50378644
0.014416096 -0.36961284 -0.55249864 -0.12055977 0.21825287 -0.56649137 -0.5123843 0.2271792
-0.3309664 -0.3815452 -0.66307265 -0.011268075 0.27222672 -0.21145234 0.03723304 0.36338496
-0.47504938 -0.32809103 0.2596381 -0.7259711 -0.49427918 -0.26096332 -0.36127198 -0.47380978
-0.41104382 -0.27586782 -0.5942036 0.18365602 -0.71557075 -0.28346977 -0.44373783 -0.3933953
-0.5050668 -0.33108404 0.042159654 0.18910451 0.0415136 -0.52638686 0.23325334 0.17101848
0.3293662 0.17067891 -0.37419805 0.42068228 -0.066946566 -0.5886364 -0.6016774 -0.5809401
0.020345451 -0.37588528 -0.3170085 -0.8091156 0.288942 -0.0943396 0.324911 -0.20026311
-0.085706614 -0.5407737 0.113624126 -0.15485132 0.0468247 -0.3370862 -0.16770111 -0.40739256

sequential.0.Lambda.weight f4 [80, 5]
00000000: 0098 c3bd 9f02 253e d192 7bbe d4e2 c23e
00000010: 84b1 0ebf 34d1 1d3f 8db5 df3e cb8d 253e
00000020: e57b 193f 732c cbbf cd2d 69bf cf06 953f
00000030: 56c9 f83d 1798 60bf e685 9b3f fa44 ac3e
00000040: 8b6b 42bf 010c 7fbf 4f32 85be f983 123e
00000050: 098c c23d 2701 e83e 17c3 68bf e903 303f
00000060: d767 403f 6910 17bf e823 1d3f d9fe 8a3d
00000070: 9159 0d3e ee88 383e 644b a33e 1c26 c23d
00000080: ce10 1cbe a124 48be 3af9 83bf 6a98 b2be
00000090: 7c21 b5be 212b 4fbe 8838 ca3f 765c 06bf
000000a0: 45e0 173e 37c0 0abe 4b31 a73d 8712 6ebe
000000b0: 2e2b 2d3e 40fb 683f ce7f db3e 192b 55be
000000c0: 6468 50be 06c7 45bf 8abb 32bf 4207 c1be
000000d0: f573 e13d e9a4 f63e 59b6 253f 6110 5cbf
000000e0: ace3 af3e 71e7 b7be c468 0bbf d397 9f3f
000000f0: 6f37 30bd a3f9 c83e 0efb e9be 7344 9c3e
00000100: 1ab8 05be 74e7 123f 6208 97bf 29fd 163e
00000110: 7400 743e db37 41be 6c85 fabe 3b14 f7be
00000120: 38dc 5d3e 52c5 7d3e 9cfc b13e 2c9a bb3d
00000130: 8cd8 0a3e 4a56 84be 5ca1 ecbd f77a 103e
00000140: 273e b83e 3f25 1dbf 8143 cb3e 1fde a8be
00000150: ef3f 8cbe b771 64bd 6411 a13e cd81 babd
00000160: ef69 8e3d f43a f83e ecf5 afbf aea0 5ebd
00000170: 2445 ba3d 2fb8 34be 5493 0d3f 2c70 38bf
00000180: 2a0e 26bd a131 9d3e a63d 63bf df00 1d3f
00000190: 15ae e23d 5f84 d83e 40f3 b83e eb47 0b3f
000001a0: 501e 78bf a660 a0bd fbba cf3e e989 563e
000001b0: b961 27bf d48c 223d 0534 083f f691 043f
000001c0: 2594 55be e55e bcbe 602b d0be 163c 633e
000001d0: 032b 8ebe 2fab 353f e0cc a83e c78d c7be
000001e0: a706 fbbe a34d dcbe e39b e63d e5a9 0f3f
000001f0: d667 233f 7298 0fbf a29a 463d 984c 93bd
00000200: 93ca 973e a734 903e 13e2 a73e 025c 603d
00000210: 56bb 043f 2498 84bf 4d64 b3be 5382 163e
00000220: 3565 3dbf 9191 5e3f 52a7 e1be a336 7dbf
00000230: 6e10 22bf 395b 55be 13b4 bf3f 7a50 1abe
00000240: 05f2 2ebf 5430 3a3e ab09 053f 8bd6 5abf
00000250: ad4a 183f 8a08 503f 1b59 4e3f 3a19 0b3e
00000260: 99b6 01be d4ec 153e 9e23 f93d 7ca3 9ebe
00000270: b083 f3be 7abe 96be 0a70 1e3e 4513 443f
00000280: a807 e1be 94a1 74bc cfd5 d6be f62c 3a3f
00000290: 4eff da3d 26f4 a6be 4f33 9c3f 5c40 5dbf
000002a0: 9b77 353e 11db 363e 7eeb 9a3d 28b0 66be
000002b0: 1058 5c3f f378 c33d ef39 81bf cc1d c53d
000002c0: 27a2 b7be af3f 17be e9a6 36bf 9b02 c6bc
000002d0: 14f4 443f 804e aa3e 4534 67bf 3807 c3be
000002e0: 68c7 b03e 2c13 a8bf 6a18 0b3e d05a 25be
000002f0: e615 3d3e ed75 a1be 4b62 e1be 2518 a63d
00000300: a545 6bbe 13ca 60bf df28 603f 6a9e 32be
00000310: 8040 083f 8549 403f c285 f3be 2759 1bbf
00000320: 2a3f 89be d216 a23e cff7 2e3e 9dc1 dabe
00000330: cdd2 0bbe 0ab7 44be a38f a0bd 1422 d53e
00000340: f939 08bd 0130 8abe 5f7d 4a3d 96a9 2bbe
00000350: e93a 273e bb4b 3e3f eb30 bd3d 2055 53be
00000360: 691b 233e b53f 593f 3564 db3c a968 61bf
00000370: bfc2 f13e 7e1e 3abb 9e80 5d3e cc3d 9f3f
00000380: 5dcc 41bf 07cd be3e 4e10 673f 4a3d 03be
00000390: 3f78 b5be df98 9fbe 3724 29bd 1ae1 fbbe
000003a0: 9898 c73d 1c20 4b3f 8289 75be 3c9f 7dbf
000003b0: e173 debd 10fd 3ebe 74b1 0ebf 5aa0 47bf
000003c0: f714 553f b258 30be aa85 f3be 05e3 49be
000003d0: 2c62 bdbd 5750 393e e2d2 49be bd70 f8be
000003e0: 76e5 823f 1988 17bf 632a 1e3f b266 093f
000003f0: bcf0 2bbf 6388 2f3f d975 43be a299 2b3e
-0.09550476 0.16114281 -0.24567725 0.3806368 -0.5573962 0.61647344 0.436932 0.16167371
0.59954673 -1.587294 -0.9108551 1.1642703 0.12147777 -0.8773207 1.2150238 0.33646375
-0.7594535 -0.9962769 -0.26014945 0.14308156 0.09499366 0.4531338 -0.90922683 0.68755966
0.7515845 -0.59009415 0.61382914 0.067868896 0.13803698 0.18020985 0.31893456 0.09479925
-0.15240785 -0.19545223 -1.0310433 -0.34881908 -0.3537711 -0.20231296 1.5798502 -0.52484834
0.14831646 -0.13549887 0.08163699 -0.23249255 0.16911003 0.9100838 0.42870945 -0.20817222
-0.20352322 -0.7725681 -0.6981741 -0.3770085 0.11008445 0.4817269 0.64731365 -0.8596249
0.34353387 -0.35918763 -0.54456735 1.2468208 -0.043021616 0.39252958 -0.45699352 0.30520973
-0.1305851 0.5738442 -1.1799433 0.1474501 0.23828298 -0.18868963 -0.48929918 -0.48257622
0.21666038 0.24782303 0.34763038 0.09160265 0.13559169 -0.25847083 -0.11554214 0.14109407
0.35984918 -0.6138496 0.3969994 -0.32981965 -0.27392527 -0.05577251 0.3145858 -0.09106789
0.06953799 0.48482478 -1.3746924 -0.054352455 0.09095219 -0.17648385 0.5530293 -0.7204616
-0.04054085 0.30701926 -0.88765943 0.61329454 0.1106836 0.4228849 0.36123085 0.54406613
-0.96921253 -0.07830934 0.40572342 0.20951046 -0.6538349 0.039685085 0.53204376 0.5178522
-0.20857294 -0.3679115 -0.40658092 0.2219089 -0.2776719 0.7096433 0.32968807 -0.38975355
-0.49028513 -0.43027982 0.11260202 0.56118613 0.63830316 -0.5609199 0.048487313 -0.071923435
0.2964674 0.2816517 0.32789668 0.054775245 0.5184835 -1.035893 -0.3503746 0.14698152
-0.73982555 0.86940867 -0.44072968 -0.98911494 -0.6330632 -0.2083558 1.4976829 -0.15069762
-0.6833804 0.18182498 0.5196788 -0.85483617 0.59488946 0.8126303 0.80604714 0.13583842
-0.12667312 0.14641124 0.121649966 -0.30984104 -0.47561407 -0.29442197 0.15472427 0.765919
-0.43951154 -0.014931101 -0.41959998 0.72724855 0.10693227 -0.32608145 1.2203158 -0.8642633
0.17721407 0.17857005 0.07564448 -0.22528136 0.8607187 0.095445536 -1.0095805 0.09624824
-0.358659 -0.14770387 -0.71348435 -0.024171164 0.76934934 0.33263016 -0.9031413 -0.38091445
0.34527135 -1.3130851 0.13583532 -0.16147923 0.18465385 -0.31535283 -0.44020304 0.08110074
-0.22975786 -0.8780834 0.87562364 -0.17443243 0.5322342 0.7511218 -0.47562987 -0.6068291
-0.26806003 0.31658036 0.17086719 -0.4272584 -0.13654633 -0.19210449 -0.078398965 0.41627562
-0.033258412 -0.2698975 0.04943597 -0.1676391 0.16331066 0.74334306 0.09237846 -0.20637941
0.15928425 0.84862834 0.02678118 -0.88050324 0.47218892 -0.0028399522 0.21631095 1.2440734
-0.7570246 0.37265798 0.90259254 -0.12816349 -0.35443303 -0.3117132 -0.041294303 -0.49195176
0.09745902 0.7934587 -0.23978236 -0.990711 -0.10861946 -0.18651223 -0.5573952 -0.7797905
0.83235115 -0.17221335 -0.47562915 -0.19715507 -0.092472404 0.18097053 -0.19709352 -0.48523512
1.0226276 -0.59192044 0.61783427 0.53672326 -0.67164207 0.68567485 -0.19087924 0.16757825

sequential.0.Lambda.bias f4 [80]
00000000: e846 f4be 6614 dabe 0459 99be 9648 86be
00000010: 5d6c 33bf 1023 e93d d3d4 31be 566e 0cbf
00000020: 6abb a1be 7bf0 313e bf2f 7abe 6f81 863e
00000030: 4cf4 f6bd c64a 3c3e 5d2c 2f3f 26f8 00bf
00000040: 7d31 6c3c e53d bdbe 8d70 0dbf 0ae8 f6bd
00000050: ae7d 5f3e 9405 11bf 9e2b 03bf aaa1 683e
00000060: 6e74 a9be e459 c3be 21bf 29bf bb9d 38bc
00000070: 4d61 8b3e f686 58be ac81 183d 980d ba3e
00000080: ac39 f3be 8cfb a7be 49ef 843e 3ed9 39bf
00000090: 2912 fdbe fc9c 85be a4f8 b8be 3297 f2be
000000a0: 5674 d2be 8c3e 8dbe ba1d 18bf 5310 3c3e
000000b0: a52f 37bf f322 91be 9b31 e3be 1c6b c9be
000000c0: 0f4c 01bf d983 a9be 9aaf 2c3d 9da4 413e
000000d0: 2a0a 2a3d 4ac1 06bf f7d9 6e3e 781f 2f3e
000000e0: b0a2 a83e 74c6 2e3e e396 bfbe ab63 d73e
000000f0: 481b 89bd e0b0 16bf 8807 1abf 7eb8 14bf
00000100: 81ab a63c 0974 c0be f04e a2be 3322 4fbf
00000110: 35f0 933e 1f35 c1bd bc5a a63e c611 4dbe
00000120: f386 afbd 2570 0abf c4b3 e83d 5891 1ebe
00000130: 42cb 3f3d 9096 acbe d7b9 2bbe c295 d0be
-0.47710347 -0.42593688 -0.29950726 -0.26227254 -0.70087224 0.11383641 -0.17366342 -0.5485586
-0.31588298 0.17376892 -0.24432276 0.26270625 -0.12058315 0.18387899 0.6842707 -0.50378644
0.014416096 -0.36961284 -0.55249864 -0.12055977 0.21825287 -0.56649137 -0.5123843 0.2271792
-0.3309664 -0.3815452 -0.66307265 -0.011268075 0.27222672 -0.21145234 0.03723304 0.36338496
-0.47504938 -0.32809103 0.2596381 -0.7259711 -0.49427918 -0.26096332 -0.36127198 -0.47380978
-0.41104382 -0.27586782 -0.5942036 0.18365602 -0.71557075 -0.28346977 -0.44373783 -0.3933953
-0.5050668 -0.33108404 0.042159654 0.18910451 0.0415136 -0.52638686 0.23325334 0.17101848
0.3293662 0.17067891 -0.37419805 0.42068228 -0.066946566 -0.5886364 -0.6016774 -0.5809401
0.020345451 -0.37588528 -0.3170085 -0.8091156 0.288942 -0.0943396 0.324911 -0.20026311
-0.085706614 -0.5407737 0.113624126 -0.15485132 0.0468247 -0.3370862 -0.16770111 -0.40739256

sequential.0.bn.running_mean f4 [80]
00000000: 0000 0000 0000 0000 0000 0000 0000 0000
00000010: 0000 0000 0000 0000 0000 0000 0000 0000
00000020: 0000 0000 0000 0000 0000 0000 0000 0000
00000030: 0000 0000 0000 0000 0000 0000 0000 0000
00000040: 0000 0000 0000 0000 0000 0000 0000 0000
00000050: 0000 0000 0000 0000 0000 0000 0000 0000
00000060: 0000 0000 0000 0000 0000 0000 0000 0000
00000070: 0000 0000 0000 0000 0000 0000 0000 0000
00000080: 0000 0000 0000 0000 0000 0000 0000 0000
00000090: 0000 0000 0000 0000 0000 0000 0000 0000
000000a0: 0000 0000 0000 0000 0000 0000 0000 0000
000000b0: 0000 0000 0000 0000 0000 0000 0000 0000
000000c0: 0000 0000 0000 0000 0000 0000 0000 0000
000000d0: 0000 0000 0000 0000 0000 0000 0000 0000
000000e0: 0000 0000 0000 0000 0000 0000 0000 0000
000000f0: 0000 0000 0000 0000 0000 0000 0000 0000
00000100: 0000 0000 0000 0000 0000 0000 0000 0000
00000110: 0000 0000 0000 0000 0000 0000 0000 0000
00000120: 0000 0000 0000 0000 0000 0000 0000 0000
00000130: 0000 0000 0000 0000 0000 0000 0000 0000
0.0 0.0 0.0 0.0 0.0 0.0 0.0 0.0
0.0 0.0 0.0 0.0 0.0 0.0 0.0 0.0
0.0 0.0 0.0 0.0 0.0 0.0 0.0 0.0
0.0 0.0 0.0 0.0 0.0 0.0 0.0 0.0
0.0 0.0 0.0 0.0 0.0 0.0 0.0 0.0
0.0 0.0 0.0 0.0 0.0 0.0 0.0 0.0
0.0 0.0 0.0 0.0 0.0 0.0 0.0 0.0
0.0 0.0 0.0 0.0 0.0 0.0 0.0 0.0
0.0 0.0 0.0 0.0 0.0 0.0 0.0 0.0
0.0 0.0 0.0 0.0 0.0 0.0 0.0 0.0

sequential.0.bn.running_var f4 [80]
00000000: 0000 803f 0000 803f 0000 803f 0000 803f
00000010: 0000 803f 0000 803f 0000 803f 0000 803f
00000020: 0000 803f 0000 803f 0000 803f 0000 803f
00000030: 0000 803f 0000 803f 0000 803f 0000 803f
00000040: 0000 803f 0000 803f 0000 803f 0000 803f
00000050: 0000 803f 0000 803f 0000 803f 0000 803f
00000060: 0000 803f 0000 803f 0000 803f 0000 803f
00000070: 0000 803f 0000 803f 0000 803f 0000 803f
00000080: 0000 803f 0000 803f 0000 803f 0000 803f
00000090: 0000 803f 0000 803f 0000 803f 0000 803f
000000a0: 0000 803f 0000 803f 0000 803f 0000 803f
000000b0: 0000 803f 0000 803f 0000 803f 0000 803f
000000c0: 0000 803f 0000 803f 0000 803f 0000 803f
000000d0: 0000 803f 0000 803f 0000 803f 0000 803f
000000e0: 0000 803f 0000 803f 0000 803f 0000 803f
000000f0: 0000 803f 0000 803f 0000 803f 0000 803f
00000100: 0000 803f 0000 803f 0000 803f 0000 803f
00000110: 0000 803f 0000 803f 0000 803f 0000 803f
00000120: 0000 803f 0000 803f 0000 803f 0000 803f
00000130: 0000 803f 0000 803f 0000 803f 0000 803f
1.0 1.0 1.0 1.0 1.0 1.0 1.0 1.0
1.0 1.0 1.0 1.0 1.0 1.0 1.0 1.0
1.0 1.0 1.0 1.0 1.0 1.0 1.0 1.0
1.0 1.0 1.0 1.0 1.0 1.0 1.0 1.0
1.0 1.0 1.0 1.0 1.0 1.0 1.0 1.0
1.0 1.0 1.0 1.0 1.0 1.0 1.0 1.0
1.0 1.0 1.0 1.0 1.0 1.0 1.0 1.0
1.0 1.0 1.0 1.0 1.0 1.0 1.0 1.0
1.0 1.0 1.0 1.0 1.0 1.0 1.0 1.0
1.0 1.0 1.0 1.0 1.0 1.0 1.0 1.0

sequential.2.Gamma.weight f4 [120, 80]
00000000: 787a 3cbe 78de 203f fc1a 3f3e c6c9 453c
00000010: fd0d b3bd 22aa 09bd 74aa b03e bfba 473e
00000020: c127 cf3e afd8 d4bd 2e5a 103e e5b2 1d3d
00000030: c234 353c d6f3 193f 21ba acbd 9a06 9f3d
00000040: 8ffe ee3e 3ee9 c7bd e8b7 993d 8f65 14be
00000050: 91dd c3be 4bdd acbd 6d6c 403c e15c 4f3e
00000060: 171b 72bd 2370 9ebd a257 813e 0e03 0bbf
00000070: 2e5f 0d3d 8c72 1a3e bce4 613e c454 97be
00000080: 7cdd e3bd d6da 943d b7d8 0bbd fd83 2fbd
00000090: 53a2 9eba a835 7e3e 7a6c 1f3e 9b44 863e
000000a0: 55a7 2a3d 5c20 e7bd f49c 203e 03e8 b33e
000000b0: 4cf9 a5be 2b9a 8d3e bf86 523d 8f41 6e3e
000000c0: b2b3 1f3d a2ca 343d ed43 19be 6c60 d4bd
000000d0: 06ac f63e a635 a53e a1d1 3bbd ddf6 f33d
000000e0: fab2 173e 4a10 45bd b53c a53e 8309 84be
000000f0: 1a8d 44be 6f11 093d f15b 14be 6ae5 c23e
00000100: b0ce 833e 1db8 c53d eb84 963e b578 b83e
00000110: 5ed9 89be 3489 eb3e ec6a 2d3a 929c 36be
00000120: 0726 773e 0a17 4e3e f9a4 0fbd 379a 103e
00000130: d0e7 433e 875c 87bd eef7 12bd b665 a13e
00000140: 2a67 0c3f f46b 493e d9cc bfbe d37e 55bd
00000150: d19d c53d dd7c cabd a954 4ebd 4b40 0a3f
00000160: d7fb e63d 3e1f 593c f458 523e 0ded a3be
00000170: 172f 05bd 1ff6 bfbe e758 2dbf 6116 17bd
00000180: b5a6 4ebd e5e5 fe3c 6d9b 5ebd 9427 4a3e
00000190: 1f26 e8be 38d8 00be 4472 393e 3c0e ffbe
000001a0: 9533 fdbe ee7a 6c3e dcf2 59be e919 8d3e
000001b0: b22b 87bf 816b a03e a8c4 ebbd fe06 373d
000001c0: 2bcd 90bd e000 143e 103a 27bf 00f0 133e
000001d0: 3e62 133e cd27 babe 6d71 a6be 444a 903d
000001e0: 908d 5f3e df33 febd f2cc 083e fa3d 8dbd
000001f0: ea35 a93e 68c1 933e 4c64 083e d296 37bc
00000200: 82a9 90be dfd7 b63b 604e 903e 95f0 c63d
00000210: 1827 90be 9601 c13d e225 a2bd 95d8 4e3d
00000220: 418b 7d3e 6030 21bf 60c4 eabe e51b f93d
00000230: e53b 93be 14c9 5ebf ad5b b2be fc79 84bc
00000240: 154d c53e 34ab aabd 3a5e 76bf d8da 19bd
00000250: 5b2c 9a3d d922 c2be d670 643e 0cd1 aabe
00000260: 1382 38be 0181 a4be 7808 c5bc 740d 363e
00000270: 7823 41bf 9213 1cbe 1f4c 383e c490 6a3e
00000280: 558a df3e 68d9 debc 645c 05bd f013 8f3b
00000290: f808 b73e f594 bdba 8fde f33e 09b5 6f3e
000002a0: cc2e 993d e6ea dbbe f114 47be 74c7 b03e
000002b0: a94f 36be 54c7 52bd 000d 4dbf 119b bd3e
000002c0: 4960 25bf 9609 253f a955 48be a783 6fbf
000002d0: 57b5 9dbe 1e08 453d 42ed 2e3f 470d 0fbf
000002e0: 0558 90be 0514 973e e064 873e 6a58 01bf
000002f0: 8a48 adbf 9a80 43bd 6dae 3fbe 0812 bfbc
00000300: 3dfd 703e 256c 413e ef39 2ebf f52e b4bb
00000310: f96c 6c3e 5c33 46bd 313e 9f3e 1279 abbe
00000320: cf64 353f 593e 64be c07f 4cbc 3e20 51bf
00000330: aa40 8c3e 3c1a 96bc 32c4 a1bd 419b 1c3e
00000340: 0f93 953d 4685 d33d 74d9 81be 0702 3abe
00000350: cebc 3bbe abfb 103e b048 8e3c 1c7d 02bf
00000360: d7b4 c4bd eef0 cabe a1cf a73e 724c 77be
00000370: 2923 16bf 9f31 ae3d bcb9 85bd 81d0 ab3e
00000380: f6e6 39bf bd83 aabe 2fab c83e dbcf 86bf
00000390: 8c7b 85be 84dc d7be d489 bebe 0a20 27be
000003a0: 0039 abbe d503 c93e 015e b3be 576e b7bd
000003b0: baaa 0cbe ca0d cabe e7a6 e4bd 0200 0bbf
000003c0: 17fa 8c3e effb 863e 2ba5 203e 60dd e23d
000003d0: 47af 963e 2d77 7abe d050 00bf 851f 413e
000003e0: ca25 913e 7a77 6abe 0e02 8bbf 3db9 89be
000003f0: 9e12 13bf 2ecf 38bd 13ab 003f 46bd f3bc
-0.18406093 0.6283946 0.18662637 0.012072032 -0.087429024 -0.033609517 0.34505045 0.19504832
0.40460017 -0.103928916 0.14096901 0.038500685 0.011059942 0.6013769 -0.08433939 0.07764931
0.46678588 -0.09761284 0.075057805 -0.14491867 -0.3825498 -0.08440646 0.011744601 0.20250274
-0.059107866 -0.07736232 0.2526217 -0.54301536 0.0345146 0.15082759 0.22059911 -0.2955686
-0.11126229 0.07268302 -0.034142222 -0.042850483 -0.001210282 0.24825156 0.15568724 0.26224217
0.041663487 -0.11285469 0.15684873 0.35137948 -0.3241676 0.27656683 0.051398035 0.23267196
0.03898973 0.04413856 -0.14967318 -0.103699535 0.48178118 0.32267493 -0.045854215 0.1191232
0.14814368 -0.048111238 0.32272878 -0.25788507 -0.19194451 0.03346389 -0.14488198 0.38065654
0.25743628 0.096542574 0.29398283 0.36029592 -0.2692365 0.46003115 0.0006615359 -0.17833164
0.241356 0.20125976 -0.03506944 0.14121328 0.19131398 -0.06609445 -0.035880975 0.31522912
0.54844916 0.19670087 -0.37460974 -0.052122902 0.09649242 -0.09887097 -0.050373707 0.54004353
0.112785034 0.013252078 0.20541745 -0.32016793 -0.03251561 -0.37492463 -0.6771378 -0.036886577
-0.050451953 0.031115482 -0.054347444 0.1974166 -0.45341584 -0.12582481 0.18109995 -0.49815547
-0.49453416 0.23093769 -0.2128405 0.2755883 -1.056021 0.3133202 -0.115121186 0.044684403
-0.07070383 0.14453459 -0.6532297 0.14447021 0.14392945 -0.3635849 -0.32508412 0.07045415
0.21831346 -0.124122374 0.1335943 -0.06896587 0.33048946 0.28858495 0.1331951 -0.011205392
-0.28254324 0.005579933 0.28184795 0.09713856 -0.28154826 0.094241306 -0.07917382 0.050499517
0.24760152 -0.6296444 -0.45852947 0.121635236 -0.28756633 -0.8702557 -0.34835568 -0.016171448
0.3853537 -0.08333436 -0.9623753 -0.03756222 0.075279914 -0.37917212 0.22308668 -0.33362615
-0.1801837 -0.32129672 -0.02405189 0.1777857 -0.75444746 -0.1524184 0.17997788 0.22906786
0.43660226 -0.027203277 -0.032558814 0.0043663904 0.3574903 -0.0014463948 0.47630736 0.23408903
0.07479629 -0.4295265 -0.19441582 0.3452717 -0.17803825 -0.051459625 -0.8009796 0.3703237
-0.64600044 0.6446775 -0.19563927 -0.9356026 -0.30802414 0.048103444 0.68330777 -0.55879635
-0.28192154 0.2950746 0.2644415 -0.50525534 -1.3537762 -0.047730066 -0.18718882 -0.023324028
0.23534103 0.1888891 -0.6805715 -0.005498762 0.23088445 -0.048388824 0.31102136 -0.33490807
0.70856947 -0.22289409 -0.01248163 -0.8168982 0.27393085 -0.018323056 -0.078987494 0.152936
0.0730344 0.10328154 -0.25361216 -0.18164836 -0.18333742 0.14158504 0.017368644 -0.5097215
-0.09604805 -0.3963694 0.32775596 -0.24150255 -0.586474 0.08505558 -0.06529567 0.33557513
-0.72618043 -0.33303633 0.39193103 -1.0532182 -0.2607082 -0.42160428 -0.3721453 -0.16320816
-0.33441925 0.39260736 -0.35032657 -0.089565925 -0.13737002 -0.39463645 -0.111646466 -0.54296887
0.27534553 0.26364085 0.15688007 0.1107738 0.294306 -0.24459524 -0.5012331 0.1885968
0.28349143 -0.22897139 -1.0860002 -0.26899138 -0.5745028 -0.045119457 0.5026104 -0.029753339

sequential.2.Gamma.bias f4 [120]
00000000: acb2 babd df16 afbe 1610 2bbf 9cad a1be
00000010: c324 bcbe 5b31 93be cd0c 6b3e 4832 f33d
00000020: 15b0 18bd d9c0 82be 8f95 5fbd 320d afbe
00000030: b579 c2be cd40 6abe 02e4 a73e 7c7c 483e
00000040: 1c48 11be c8c5 91be fca3 02bf 1de5 ddbe
00000050: 1362 69bd 8a6a 44be 5d78 673e 69d7 ab3e
00000060: 6207 ddbe 3194 a5be 58f1 58be 85bb 50be
00000070: a024 85be 7014 603d 2117 df3c 4720 aa3d
00000080: c568 0ebd c60a bfbe 908e 823d 3147 c1be
00000090: d9ed aabd 5721 d9be ace9 b9bd ac6c 44be
000000a0: f032 ecbd 4979 f0be 4b0f dfbe a2fd babe
000000b0: 8e7f 51bf a8cf a93c b1b4 1bbe 2a30 b93e
000000c0: 617d 7cbf ff33 96be 49db 07be ca1f 42bf
000000d0: 3776 643d 5d61 a4bd 450b 62bd 7125 09be
000000e0: d4f8 08bf 073b ae3d 0292 413d 3c8b 87bd
000000f0: c15b 0bbf 2106 373a 393e 9abe 9acb 9bbd
00000100: e27b 86be 2563 6e3e fe7d 5fbd 809a adbd
00000110: dd97 60be 5b3f 8bbe b1ac 04bc 68fa 24be
00000120: b1b2 12bf c281 04bf 85e8 cdbe 64d9 8dbe
00000130: 21c4 93be 42cb 08bb b546 943e 8e37 8dbc
00000140: 2079 783e 918f 6b3e 9b00 b9be 19c6 f1be
00000150: 4921 b8bd 2b5f 5abe a473 ffbe ab22 89bc
00000160: 4e10 02bf 5304 69be 91d0 9bbd be99 73be
00000170: 3142 7bbe 71d3 d4be 775e 2abf 5a68 3b3d
00000180: e7e8 42bd 5748 62be c065 acbe 3dc6 9cbe
00000190: 37ab a4be 89a8 aabe cb12 2b3d 6741 a9be
000001a0: af63 043d 77d9 aebe e257 dcbe f254 533e
000001b0: 41e1 b5be fc88 49be a928 37bf 969b c03e
000001c0: 2779 cfbe 676a a6be cda3 60be 1f5a cabe
000001d0: 6de0 d8be 0403 b239 b1b6 0abf b5ef 99be
-0.0911611 -0.34197137 -0.6682142 -0.31577766 -0.36746797 -0.28748593 0.22954102 0.11874825
-0.0372773 -0.25537756 -0.05458599 -0.34189755 -0.3798348 -0.22876282 0.32791144 0.19578737
-0.14187664 -0.28471208 -0.5103147 -0.43338862 -0.056978296 -0.19181266 0.22604509 0.33562782
-0.43169695 -0.32339624 -0.21185815 -0.20384033 -0.26004505 0.05470699 0.027232708 0.08306938
-0.034767885 -0.37312907 0.06374848 -0.37749627 -0.08346147 -0.4240825 -0.090777725 -0.1918208
-0.11533153 -0.46967533 -0.43566355 -0.3652163 -0.8183526 0.020728901 -0.15205647 0.3616956
-0.98628813 -0.29336545 -0.13267244 -0.75829756 0.0557768 -0.08026383 -0.05518653 -0.13393189
-0.5350468 0.08507352 0.047258385 -0.06618354 -0.5443688 0.0006981809 -0.30125597 -0.07607193
-0.2626639 0.23280008 -0.054563515 -0.08476734 -0.21932931 -0.27196774 -0.008097813 -0.16111147
-0.5730391 -0.51760495 -0.4021646 -0.27704918 -0.28860572 -0.0020873104 0.28960195 -0.017238405
0.24264956 0.23003985 -0.36133274 -0.4722145 -0.08990724 -0.21325366 -0.49892914 -0.016740164
-0.5080613 -0.22755556 -0.0760814 -0.23789117 -0.24536969 -0.41567567 -0.6655039 0.045753814
-0.047585394 -0.22097908 -0.3367138 -0.30619994 -0.32161877 -0.33331707 0.04176597 -0.3305771
0.03232163 -0.34150288 -0.430358 0.20637873 -0.35523418 -0.19681162 -0.7154642 0.37618703
-0.4052212 -0.32503054 -0.21937485 -0.39521882 -0.42358723 0.00033953052 -0.54185015 -0.30065694

sequential.2.Lambda.weight f4 [120, 80]
00000000: 6182 ecbe 4a0a 8c3e bf41 1fbf 0108 a3bd
00000010: a55f 3a3e fe26 84be b201 883e 56c0 953e
00000020: 34cc 8f3d d3b6 40bd 9073 f33e ac1b c03d
00000030: 0f84 dbbd 7478 5c3d 73ba 18be 44f4 533e
00000040: 97e0 f53e 7458 9bbd 3a3a 3a3d d0c0 5bbd
00000050: 6f69 b0be c492 953d aaef 513e 713f 223e
00000060: ce37 d5be 7056 e7be 5811 6a3e bc45 c7be
00000070: ae42 2cbf 91e0 143e 348a 373e 09e4 e2bd
00000080: 880d 243e c467 2a3e be55 04bf 605e fc3e
00000090: b182 ccbd f976 253e 266f 62be 0274 66be
000000a0: 30d9 6fbe f960 90be cbe5 69be 2669 2cbd
000000b0: 5908 af3e ac9b 8e3e 7e6d 703e 65a0 dcbd
000000c0: 8609 38bf 8b3e 8c3e fcfa b73e f772 e6be
000000d0: f1c9 ce3e 8892 bb3e 8225 103e a29f 4d3d
000000e0: 6a36 c83e 8528 0f3e e817 273e 020b 66be
000000f0: 3888 babe 1a78 023c eaa1 0dbe 8e4a 6f3e
00000100: 4c9d 6fbe 5c76 dfbd e1cb 693e 9356 4f3e
00000110: 1ffd cbbe e768 173e 08d3 3bbd 3a23 e2be
00000120: 3269 2d3c 26b5 9e3e bda7 843d 5581 9f3e
00000130: 9e8a 983e 7f37 84bd e778 9ebe 5c93 f73e
00000140: fcc6 703e 9d9a ab3b 4541 943e 5ac1 243e
00000150: b2e8 1fbe 6bfc de3d 2556 d93d 2e88 f43e
00000160: 421c a43e bd43 953e 6381 db3e 4f5a aebe
00000170: bab6 b23e dc80 ec3e 30c4 a1be 4691 6e3e
00000180: 8a05 1ebe ce3e 93be 7f9d 223e 3ff5 cb3e
00000190: f6c2 a7be 03bc 3ebe 4bda ac3e 4c3c 003c
000001a0: 5962 05bc b81a 213e 0efe 0ebf 46dc 133f
000001b0: 6ffc 3f3e 7dce c9be e9aa bf3e 3a99 533e
000001c0: eba1 8abe 9b47 813c 3608 e3be 204f 493e
000001d0: 0381 f33e 5cad c3bd 2e00 a4be f8d7 babe
000001e0: e254 c73d 9d74 02bf b095 afbe 3bd4 b839
000001f0: 90e6 c6bd d827 cb3e f5fa 36be ee29 873d
00000200: 69a1 c6bd bbda 76be aad7 94be 0fef a33e
00000210: d8f7 51bd 9a40 d13e 4b29 41be 6fa2 c13d
00000220: ab46 003f 1f46 fdbd 7b82 6fbf 959d 803e
00000230: d89a 79bc 3a10 a4bd aab9 a03d 04d1 bc3e
00000240: c3dd 993b ba7a aabe 1772 3e3d 523c 4cbe
00000250: 278c 123f 809e e2bd 34b4 f7bd 5aae 1abe
00000260: 3896 693e 83ed 2f3e e642 8bbe 6eb4 5d3d
00000270: 1674 e7be c828 9abe f9da ce3e 234c 91bd
00000280: d3a3 1cbf 3beb af3e 2eb9 4d3c f173 9ebb
00000290: 249d c83e a45e 0d3e 4c39 93bd 209e 403e
000002a0: 1ef2 2d3e e508 343d 7815 fb3d cfec a33e
000002b0: 7b4a 253e e150 fc3e e8e1 683e b505 7c3e
000002c0: 9041 eb3d 6e16 c53d c38b f4bd 0dc4 ae3d
000002d0: 7cca 0ebd 2976 6ebe 98f6 f73e f009 553c
000002e0: 7af9 453e 928b e23e a445 5d3e 85dc c43d
000002f0: cc12 723e 144a ca3d 870b e43d db33 56bc
00000300: d32b 1d3e ba8b 703e 0424 b3be c512 24bd
00000310: 31b8 313f d849 083e 41f2 5f3e b301 6abc
00000320: bb9f 7b3e 0605 68be 5a39 4bbe a980 63be
00000330: a90f 783e 5d0e c83e ddfa 053e 1aa9 823e
00000340: 7d08 263e 0253 183e fdc8 403e fa4c d43d
00000350: 02c4 fbbd 2784 8d3e 0759 1abe d588 5d3e
00000360: 33c0 473d befd acbd 9173 a33e 6741 1c3e
00000370: 97e2 79be d1d6 8e3e edd3 8d3e 1631 d23e
00000380: 9edb 743e be17 76be 8c3d 843e b6db afbe
00000390: 5d4e 053f 1ebf 80be 0193 c93c 310b 813b
000003a0: 7b48 bebc e054 953e ffcf ea3d 0168 c53b
000003b0: d67d ffbd 7adc a6be 89bf f1bd 1b93 8cbe
000003c0: c3fd fabd 4bd9 183e 60e2 103d d7e7 f33d
000003d0: 55bc 933e b356 02be 70f9 163d 20c4 18bf
000003e0: e7b0 3cbe ea9a e2bd 00e6 473e 19fe ff3b
000003f0: 40e9 173d 65d0 0bbd 1d68 b23e d828 963e
-0.4619322 0.273516 -0.62209696 -0.07960511 0.18200548 -0.25811 0.26563793 0.29248303
0.070213705 -0.047049355 0.47549105 0.09380278 -0.107185476 0.05382581 -0.14914875 0.20698649
0.4802291 -0.075852305 0.045465685 -0.053650677 -0.3445544 0.07303384 0.20501581 0.15844513
-0.41644138 -0.45183134 0.22858179 -0.3892039 -0.67289245 0.1453879 0.17923814 -0.110786505
0.16020787 0.16641146 -0.5169333 0.49290752 -0.09985865 0.16158666 -0.22112712 -0.22505191
-0.23422694 -0.28198984 -0.22841565 -0.042092465 0.34186056 0.27853143 0.23479268 -0.1077278
-0.7188953 0.27391466 0.35933673 -0.45009586 0.40388444 0.36635232 0.14076808 0.050201066
0.39104015 0.139803 0.16317713 -0.22465137 -0.36432052 0.007963205 -0.13831297 0.23368284
-0.23399848 -0.10911247 0.2283168 0.20247869 -0.39841554 0.14786111 -0.045855552 -0.441675
0.010584163 0.3099758 0.06477306 0.3115336 0.29793257 -0.064558975 -0.30951616 0.48354614
0.23513407 0.005236937 0.28956047 0.16089383 -0.1561611 0.10887989 0.10612134 0.47760147
0.3205281 0.29153243 0.42872152 -0.34053275 0.34905034 0.46192062 -0.31594992 0.23297605
-0.154318 -0.28758854 0.15880392 0.39835545 -0.3276593 -0.18626408 0.33760294 0.007826876
-0.008141124 0.15732849 -0.55856407 0.57757986 0.1874864 -0.3941535 0.37435082 0.2066392
-0.2707666 0.015781214 -0.44342202 0.1965909 0.47559366 -0.0955455 -0.32031387 -0.36492896
0.09732987 -0.5095919 -0.3429389 0.0003525334 -0.09711945 0.39678836 -0.1786917 0.06599794
-0.09698755 -0.24106877 -0.2907079 0.32018325 -0.051261753 0.408696 -0.18863408 0.0945481
0.5010783 -0.1236689 -0.9355847 0.25120226 -0.0152346715 -0.080109075 0.078479126 0.36878216
0.0046956255 -0.33296758 0.046495523 -0.19944885 0.57245106 -0.11065388 -0.12094918 -0.15105572
0.2281121 0.17180447 -0.27199477 0.05412715 -0.45205754 -0.3010924 0.40401438 -0.070946
-0.61187476 0.34359154 0.012556357 -0.0048355986 0.3918239 0.13805634 -0.07188663 0.1881032
0.16986892 0.043953795 0.12259954 0.32016608 0.16141693 0.49280456 0.22742426 0.24611552
0.114871144 0.09623419 -0.1194072 0.085334875 -0.034861073 -0.23287262 0.48430324 0.013002858
0.19333449 0.4424711 0.21608597 0.09612373 0.23639983 0.098774105 0.11135011 -0.013073887
0.15348749 0.23490801 -0.34988415 -0.040056963 0.6942168 0.13309419 0.21869756 -0.014282632
0.24572651 -0.22658166 -0.19846097 -0.22217049 0.24224724 0.39073458 0.13083978 0.2551964
0.16214176 0.14875415 0.18826671 0.103662446 -0.12293245 0.27639887 -0.15073024 0.21634229
0.04876728 -0.08446835 0.31924108 0.15259324 -0.24402843 0.27898267 0.2770075 0.41053075
0.23911902 -0.24032494 0.25828207 -0.34347314 0.520727 -0.2514581 0.02460623 0.0039381017
-0.02322792 0.29166317 0.11465453 0.006024361 -0.12475173 -0.32590085 -0.118041106 -0.27455983
-0.122554325 0.1492664 0.035372138 0.11909454 0.28854623 -0.12728386 0.036858976 -0.59674263
-0.18426858 -0.11064704 0.19521332 0.007812273 0.03708768 -0.034134287 0.34845057 0.29328036

sequential.2.Lambda.bias f4 [120]
00000000: acb2 babd df16 afbe 1610 2bbf 9cad a1be
00000010: c324 bcbe 5b31 93be cd0c 6b3e 4832 f33d
00000020: 15b0 18bd d9c0 82be 8f95 5fbd 320d afbe
00000030: b579 c2be cd40 6abe 02e4 a73e 7c7c 483e
00000040: 1c48 11be c8c5 91be fca3 02bf 1de5 ddbe
00000050: 1362 69bd 8a6a 44be 5d78 673e 69d7 ab3e
00000060: 6207 ddbe 3194 a5be 58f1 58be 85bb 50be
00000070: a024 85be 7014 603d 2117 df3c 4720 aa3d
00000080: c568 0ebd c60a bfbe 908e 823d 3147 c1be
00000090: d9ed aabd 5721 d9be ace9 b9bd ac6c 44be
000000a0: f032 ecbd 4979 f0be 4b0f dfbe a2fd babe
000000b0: 8e7f 51bf a8cf a93c b1b4 1bbe 2a30 b93e
000000c0: 617d 7cbf ff33 96be 49db 07be ca1f 42bf
000000d0: 3776 643d 5d61 a4bd 450b 62bd 7125 09be
000000e0: d4f8 08bf 073b ae3d 0292 413d 3c8b 87bd
000000f0: c15b 0bbf 2106 373a 393e 9abe 9acb 9bbd
00000100: e27b 86be 2563 6e3e fe7d 5fbd 809a adbd
00000110: dd97 60be 5b3f 8bbe b1ac 04bc 68fa 24be
00000120: b1b2 12bf c281 04bf 85e8 cdbe 64d9 8dbe
00000130: 21c4 93be 42cb 08bb b546 943e 8e37 8dbc
00000140: 2079 783e 918f 6b3e 9b00 b9be 19c6 f1be
00000150: 4921 b8bd 2b5f 5abe a473 ffbe ab22 89bc
00000160: 4e10 02bf 5304 69be 91d0 9bbd be99 73be
00000170: 3142 7bbe 71d3 d4be 775e 2abf 5a68 3b3d
00000180: e7e8 42bd 5748 62be c065 acbe 3dc6 9cbe
00000190: 37ab a4be 89a8 aabe cb12 2b3d 6741 a9be
000001a0: af63 043d 77d9 aebe e257 dcbe f254 533e
000001b0: 41e1 b5be fc88 49be a928 37bf 969b c03e
000001c0: 2779 cfbe 676a a6be cda3 60be 1f5a cabe
000001d0: 6de0 d8be 0403 b239 b1b6 0abf b5ef 99be
-0.0911611 -0.34197137 -0.6682142 -0.31577766 -0.36746797 -0.28748593 0.22954102 0.11874825
-0.0372773 -0.25537756 -0.05458599 -0.34189755 -0.3798348 -0.22876282 0.32791144 0.19578737
-0.14187664 -0.28471208 -0.5103147 -0.43338862 -0.056978296 -0.19181266 0.22604509 0.33562782
-0.43169695 -0.32339624 -0.21185815 -0.20384033 -0.26004505 0.05470699 0.027232708 0.08306938
-0.034767885 -0.37312907 0.06374848 -0.37749627 -0.08346147 -0.4240825 -0.090777725 -0.1918208
-0.11533153 -0.46967533 -0.43566355 -0.3652163 -0.8183526 0.020728901 -0.15205647 0.3616956
-0.98628813 -0.29336545 -0.13267244 -0.75829756 0.0557768 -0.08026383 -0.05518653 -0.13393189
-0.5350468 0.08507352 0.047258385 -0.06618354 -0.5443688 0.0006981809 -0.30125597 -0.07607193
-0.2626639 0.23280008 -0.054563515 -0.08476734 -0.21932931 -0.27196774 -0.008097813 -0.16111147
-0.5730391 -0.51760495 -0.4021646 -0.27704918 -0.28860572 -0.0020873104 0.28960195 -0.017238405
0.24264956 0.23003985 -0.36133274 -0.4722145 -0.08990724 -0.21325366 -0.49892914 -0.016740164
-0.5080613 -0.22755556 -0.0760814 -0.23789117 -0.24536969 -0.41567567 -0.6655039 0.045753814
-0.047585394 -0.22097908 -0.3367138 -0.30619994 -0.32161877 -0.33331707 0.04176597 -0.3305771
0.03232163 -0.34150288 -0.430358 0.20637873 -0.35523418 -0.19681162 -0.7154642 0.37618703
-0.4052212 -0.32503054 -0.21937485 -0.39521882 -0.42358723 0.00033953052 -0.54185015 -0.30065694

sequential.2.bn.running_mean f4 [120]
00000000: 0000 0000 0000 0000 0000 0000 0000 0000
00000010: 0000 0000 0000 0000 0000 0000 0000 0000
00000020: 0000 0000 0000 0000 0000 0000 0000 0000
00000030: 0000 0000 0000 0000 0000 0000 0000 0000
00000040: 0000 0000 0000 0000 0000 0000 0000 0000
00000050: 0000 0000 0000 0000 0000 0000 0000 0000
00000060: 0000 0000 0000 0000 0000 0000 0000 0000
00000070: 0000 0000 0000 0000 0000 0000 0000 0000
00000080: 0000 0000 0000 0000 0000 0000 0000 0000
00000090: 0000 0000 0000 0000 0000 0000 0000 0000
000000a0: 0000 0000 0000 0000 0000 0000 0000 0000
000000b0: 0000 0000 0000 0000 0000 0000 0000 0000
000000c0: 0000 0000 0000 0000 0000 0000 0000 0000
000000d0: 0000 0000 0000 0000 0000 0000 0000 0000
000000e0: 0000 0000 0000 0000 0000 0000 0000 0000
000000f0: 0000 0000 0000 0000 0000 0000 0000 0000
00000100: 0000 0000 0000 0000 0000 0000 0000 0000
00000110: 0000 0000 0000 0000 0000 0000 0000 0000
00000120: 0000 0000 0000 0000 0000 0000 0000 0000
00000130: 0000 0000 0000 0000 0000 0000 0000 0000
00000140: 0000 0000 0000 0000 0000 0000 0000 0000
00000150: 0000 0000 0000 0000 0000 0000 0000 0000
00000160: 0000 0000 0000 0000 0000 0000 0000 0000
00000170: 0000 0000 0000 0000 0000 0000 0000 0000
00000180: 0000 0000 0000 0000 0000 0000 0000 0000
00000190: 0000 0000 0000 0000 0000 0000 0000 0000
000001a0: 0000 0000 0000 0000 0000 0000 0000 0000
000001b0: 0000 0000 0000 0000 0000 0000 0000 0000
000001c0: 0000 0000 0000 0000 0000 0000 0000 0000
000001d0: 0000 0000 0000 0000 0000 0000 0000 0000
0.0 0.0 0.0 0.0 0.0 0.0 0.0 0.0
0.0 0.0 0.0 0.0 0.0 0.0 0.0 0.0
0.0 0.0 0.0 0.0 0.0 0.0 0.0 0.0
0.0 0.0 0.0 0.0 0.0 0.0 0.0 0.0
0.0 0.0 0.0 0.0 0.0 0.0 0.0 0.0
0.0 0.0 0.0 0.0 0.0 0.0 0.0 0.0
0.0 0.0 0.0 0.0 0.0 0.0 0.0 0.0
0.0 0.0 0.0 0.0 0.0 0.0 0.0 0.0
0.0 0.0 0.0 0.0 0.0 0.0 0.0 0.0
0.0 0.0 0.0 0.0 0.0 0.0 0.0 0.0
0.0 0.0 0.0 0.0 0.0 0.0 0.0 0.0
0.0 0.0 0.0 0.0 0.0 0.0 0.0 0.0
0.0 0.0 0.0 0.0 0.0 0.0 0.0 0.0
0.0 0.0 0.0 0.0 0.0 0.0 0.0 0.0
0.0 0.0 0.0 0.0 0.0 0.0 0.0 0.0

sequential.2.bn.running_var f4 [120]
00000000: 0000 803f 0000 803f 0000 803f 0000 803f
00000010: 0000 803f 0000 803f 0000 803f 0000 803f
00000020: 0000 803f 0000 803f 0000 803f 0000 803f
00000030: 0000 803f 0000 803f 0000 803f 0000 803f
00000040: 0000 803f 0000 803f 0000 803f 0000 803f
00000050: 0000 803f 0000 803f 0000 803f 0000 803f
00000060: 0000 803f 0000 803f 0000 803f 0000 803f
00000070: 0000 803f 0000 803f 0000 803f 0000 803f
00000080: 0000 803f 0000 803f 0000 803f 0000 803f
00000090: 0000 803f 0000 803f 0000 803f 0000 803f
000000a0: 0000 803f 0000 803f 0000 803f 0000 803f
000000b0: 0000 803f 0000 803f 0000 803f 0000 803f
000000c0: 0000 803f 0000 803f 0000 803f 0000 803f
000000d0: 0000 803f 0000 803f 0000 803f 0000 803f
000000e0: 0000 803f 0000 803f 0000 803f 0000 803f
000000f0: 0000 803f 0000 803f 0000 803f 0000 803f
00000100: 0000 803f 0000 803f 0000 803f 0000 803f
00000110: 0000 803f 0000 803f 0000 803f 0000 803f
00000120: 0000 803f 0000 803f 0000 803f 0000 803f
00000130: 0000 803f 0000 803f 0000 803f 0000 803f
00000140: 0000 803f 0000 803f 0000 803f 0000 803f
00000150: 0000 803f 0000 803f 0000 803f 0000 803f
00000160: 0000 803f 0000 803f 0000 803f 0000 803f
00000170: 0000 803f 0000 803f 0000 803f 0000 803f
00000180: 0000 803f 0000 803f 0000 803f 0000 803f
00000190: 0000 803f 0000 803f 0000 803f 0000 803f
000001a0: 0000 803f 0000 803f 0000 803f 0000 803f
000001b0: 0000 803f 0000 803f 0000 803f 0000 803f
000001c0: 0000 803f 0000 803f 0000 803f 0000 803f
000001d0: 0000 803f 0000 803f 0000 803f 0000 803f
1.0 1.0 1.0 1.0 1.0 1.0 1.0 1.0
1.0 1.0 1.0 1.0 1.0 1.0 1.0 1.0
1.0 1.0 1.0 1.0 1.0 1.0 1.0 1.0
1.0 1.0 1.0 1.0 1.0 1.0 1.0 1.0
1.0 1.0 1.0 1.0 1.0 1.0 1.0 1.0
1.0 1.0 1.0 1.0 1.0 1.0 1.0 1.0
1.0 1.0 1.0 1.0 1.0 1.0 1.0 1.0
1.0 1.0 1.0 1.0 1.0 1.0 1.0 1.0
1.0 1.0 1.0 1.0 1.0 1.0 1.0 1.0
1.0 1.0 1.0 1.0 1.0 1.0 1.0 1.0
1.0 1.0 1.0 1.0 1.0 1.0 1.0 1.0
1.0 1.0 1.0 1.0 1.0 1.0 1.0 1.0
1.0 1.0 1.0 1.0 1.0 1.0 1.0 1.0
1.0 1.0 1.0 1.0 1.0 1.0 1.0 1.0
1.0 1.0 1.0 1.0 1.0 1.0 1.0 1.0

sequential.4.Gamma.weight f4 [70, 120]
00000000: c2a5 cabe ab8f 2ebf 5ead da3d 4768 c4bd
00000010: 9b37 62be 5f81 abbc 9bd2 43bf 1775 c73d
00000020: f115 923d 2a66 d8be 84a9 9ebf 7191 19be
00000030: e10b 6b3e 2910 36bd b454 8dbe bcaf 30bf
00000040: e869 cdbd 124b 2fbd bbf1 cd3b d681 033f
00000050: 9ff0 aebe 8a74 00bf 23ac d2be 5985 07bd
00000060: 38d3 2f3e ff2b ba3e 5043 d2bf 2d5a 78bf
00000070: 6fef f03d b73c 3bbe 7978 8f3e 0030 01bf
00000080: 5a8f 00be 80df ffbe 02ee 4dbe 77d6 a43e
00000090: 91bd e8be 6a23 d9be e99e 2cbe b5c1 b1be
000000a0: 20ab edbc 34ba f73d 21ac cd3e 3cf6 b4bd
000000b0: e2a6 76bd 199b 9bbe 507a b73e 3043 69bf
000000c0: 4f6f dfbe 7015 86be 7d44 74be 5f97 803e
000000d0: 421a 75bf 27f4 9ebe 7920 5abf 61c1 3bbe
000000e0: 7cc1 a63d 8853 a8bf 159a adbe 8c24 ab3d
000000f0: 27d6 8a3e b815 ffbe 291c 9dbd 3daf 80be
00000100: 532b 04be 5bbd 6d3e 6434 69be d512 753e
00000110: 33ec 1dbf 424c e8bd c5f8 b0be e5e2 babd
00000120: ce73 d73c 99a8 af3d a0e0 853e a4bf 443e
00000130: f536 ed3c 467c 41be 25b8 92be a3ae 12be
00000140: edbc c1be 2710 4cbf d7ee 34bf b5eb 10be
00000150: 99f9 af3d 97f7 5ebf 1f61 20be b1d8 8ebe
00000160: 914d a33e e54f af3e 7d6e 08bf c7b8 193e
00000170: ad1a b3bd 09d8 f1be a7ff 493c d147 e0bd
00000180: f038 3c3e 14ff 29bf 16df 693e 3bed 5ebe
00000190: 7d85 c33d c117 8d3d ebfc 4abc 0542 bd3d
000001a0: 736a dbbd 69be 373e f36e eabd d1c7 dabe
000001b0: 0acb 79be 3f1f c3bd eddd e73d 2acd 7dbf
000001c0: aefc b5be 2b7d 473f 29e2 fcbd b709 ed3d
000001d0: d7bc d6bd d6cc 893e bd90 38be b0ed 503e
000001e0: 962e 0bbf 68fa 85be a5f6 a23d 5e66 0dbd
000001f0: c4d4 8bbe c0b4 cbbe 646b 99bd fef5 12be
00000200: 4f13 47be 0bf7 00bf c0d0 14be 4885 913d
00000210: f3d4 413e 3b98 ab3e aa74 313e 6e6e a9be
00000220: 3d33 b73e 884c afbe 80fa fabe a931 7fbe
00000230: 3cae c23d bc51 73be 069e 13be 3c7a cdbd
00000240: eee6 20bf 469a 9a3d c187 1f3e 4d2a 33be
00000250: 54f2 13bd f0d4 93be 88d5 94be ff7f 1cbf
00000260: a522 6abe ec97 08be 0d4b e7be dc28 b1bd
00000270: 38db 9fbd 88e6 96be 6736 58be dc67 2a3e
00000280: 9a5e bdbc e372 94be 56b3 953e 1c4b 58be
00000290: d070 8cbe ea56 2bbf 8cde 9c3e f6a6 cf3e
000002a0: e2eb 7bbe 9574 49be dd85 3dbe b98d 64be
000002b0: b311 1abf ac29 4a3e ce8e d73d 377a af3d
000002c0: a948 85be 37a8 e4bd b078 f4bd 25d2 693f
000002d0: a03a f2bd 2334 b6be 3c5e 5a3b c0fb b53d
000002e0: d878 20be f07d 3cbe 2bb3 63be 82f0 523e
000002f0: 3372 53bf 0682 883d 4e02 1dbe 9579 2cbe
00000300: 183f b7be ce51 25be ee35 32bc 5ca6 5bbe
00000310: 2fd1 5cbf 5684 223e 5323 aabe f0df 56bd
00000320: 453d a2bd 2a2d 1abe 44b3 81bf aac4 01bf
00000330: a189 4dbe a637 df3e c769 353e 1b5a 673e
00000340: 381d 423e 1b4d a83e 4a60 c6be 3815 b1bd
00000350: e8b3 5fbf 8624 d7be 38f4 03bf 7dcc 81be
00000360: 1914 c43d cb00 76be e8bd a0bd c293 183e
00000370: c1a7 84be 7049 fe3e f168 c1bc 5a13 1dbe
00000380: 7b39 1ebf dbca d63d 155f a1be 6152 9bbe
00000390: 9862 ef3d bc02 42bf 30a7 6dbd 004d d9bd
000003a0: 8d8d 693e d45b de3c e8d6 25bf a5d6 45bf
000003b0: 15e1 09bd d734 1a3e 0cba d03d db90 293e
000003c0: 466c bfbe 9006 85bf dc60 bcbe 62e0 8bbe
000003d0: a0ae 3f3e dced 193e 1909 4abe 892e b7be
000003e0: d519 73bf 5fc6 bc3d 0e25 48bd 7ddb 643e
000003f0: 949f 3bbd d33a 32bc da2a b83d be56 d9be
-0.39579588 -0.6818797 0.106775984 -0.09590202 -0.22091524 -0.020935712 -0.76493233 0.0973913
0.07133091 -0.42265445 -1.2395482 -0.14996888 0.2295375 -0.044449005 -0.27603686 -0.6901815
-0.10029966 -0.042796202 0.00628492 0.5136999 -0.34167954 -0.50177824 -0.41146955 -0.033086155
0.17170417 0.3636169 -1.6426792 -0.970126 0.11764418 -0.1828488 0.280216 -0.5046387
-0.12554684 -0.49975204 -0.20110324 0.32194874 -0.45457128 -0.4240983 -0.16857494 -0.347181
-0.029012263 0.12096062 0.40170386 -0.08836028 -0.060217746 -0.30391768 0.35835505 -0.91118145
-0.4363961 -0.2618823 -0.23854251 0.25115487 -0.9574319 -0.31045648 -0.852058 -0.18335487
0.08142373 -1.3150492 -0.33906618 0.0835658 0.2711651 -0.49821258 -0.07671387 -0.25133696
-0.12907152 0.23216765 -0.22773892 0.23932965 -0.61688536 -0.1134267 -0.34564796 -0.09125308
0.026300337 0.08577079 0.26147938 0.1921373 0.02895687 -0.18895063 -0.28656116 -0.14324431
-0.3783945 -0.79712147 -0.7067694 -0.14152415 0.08592529 -0.8709654 -0.15662049 -0.27899697
0.31895116 0.34240642 -0.5329359 0.15011893 -0.087453224 -0.47235134 0.012329019 -0.10951198
0.18381095 -0.66404843 0.22839007 -0.21770184 0.09546945 0.06889296 -0.012389402 0.09241108
-0.10713663 0.1794373 -0.11446943 -0.42730573 -0.2439386 -0.09527444 0.11321626 -0.9914118
-0.35544342 0.77925366 -0.12347824 0.115741186 -0.10485237 0.2691409 -0.18023963 0.2040317
-0.5436796 -0.26167607 0.079572 -0.034521453 -0.27310765 -0.3978634 -0.07491186 -0.14351651
-0.1944096 -0.5037696 -0.14532757 0.071054995 0.1892889 0.3351458 0.1732966 -0.33092064
0.3578128 -0.34238076 -0.4901924 -0.24921288 0.09505889 -0.23761648 -0.1441575 -0.1003308
-0.6285237 0.075489566 0.1557913 -0.17496605 -0.036119774 -0.28873396 -0.2906916 -0.61132807
-0.22864778 -0.13339204 -0.45174447 -0.086503714 -0.078054845 -0.29472756 -0.21114503 0.16641182
-0.023116399 -0.28993902 0.29238385 -0.21122402 -0.2742982 -0.66929495 0.3063854 0.4055707
-0.24601701 -0.19673379 -0.18508096 -0.22319688 -0.60183257 0.19742459 0.10525285 0.085682325
-0.26031998 -0.11164897 -0.11937082 0.9133628 -0.11827588 -0.35586652 0.0033320328 0.08885908
-0.15671098 -0.18407416 -0.22236316 0.20599559 -0.8259613 0.06665425 -0.1533291 -0.16843255
-0.35790324 -0.16144487 -0.010877116 -0.2145018 -0.8625669 0.15870795 -0.33230075 -0.052459657
-0.079218425 -0.15056291 -1.0132833 -0.5069071 -0.20072033 0.43597144 0.17716132 0.22592966
0.18956459 0.32871327 -0.38745338 -0.08646625 -0.8738389 -0.42020053 -0.51544523 -0.25351325
0.09574146 -0.2402374 -0.07848722 0.14900115 -0.25909236 0.49665403 -0.02360961 -0.15339413
-0.6180646 0.1048791 -0.31517854 -0.30336288 0.11688727 -0.7578542 -0.05802077 -0.1061039
0.22807904 0.027143396 -0.64781046 -0.77280647 -0.03366192 0.1505922 0.101917356 0.16559164
-0.37387294 -1.0392628 -0.36792648 -0.27319628 0.18718958 0.15032142 -0.19730033 -0.3577769
-0.9496129 0.09217524 -0.048863463 0.22349353 -0.045806482 -0.010878283 0.08992548 -0.42448992

sequential.4.Gamma.bias f4 [70]
00000000: 947d 7fbe de52 64be 3570 7e3d 997f 4dbd
00000010: 3572 cbbe 138b c5be 9a8a 68be 3fa8 a3be
00000020: 54d5 5bbe 8b2a 89be 1ccf 4cbe 0ac5 05bf
00000030: 43c3 edbd 3130 11bf 9b74 70be d47f ecbe
00000040: 6675 b3bd f922 0b3e b0ef c8be 473b 8abe
00000050: 717e aa3d 7a73 c2be 488f 05bd c031 57be
00000060: 918f 95be 46eb 97be 96a9 703d 6b92 44bf
00000070: bff8 37be f78e cebe 8e05 c5be a215 cdbe
00000080: 22a5 123d 2166 f63d 007e 1ebc 917f 97be
00000090: 80cf a7be 9d92 0dbf 4f79 0bbe 3de2 a9be
000000a0: 25d8 073c bbec 1e3e 14ec e9be a89a 0dbe
000000b0: 15af 84be 8d0f c83d 1dc4 98be 0d46 d2be
000000c0: 637a 33be 2726 ebbe a17f c4be 95e0 4bbf
000000d0: 98a1 1abf 0a5d 113e 4947 5fbe 0d5e 9abe
000000e0: 5921 dabe 5521 ddbe b4ed 1bbc ea18 b43b
000000f0: b9fd 32bf e18b f8bd 4b94 efbd 629e 463d
00000100: fa16 36be 4262 95bf 7ab8 eebd e91a 11bf
00000110: f559 2d3e d45e b5be
-0.24950248 -0.22297236 0.062118728 -0.050170515 -0.3973557 -0.38582668 -0.22709122 -0.319643
-0.21468097 -0.2679027 -0.20000881 -0.5225378 -0.11609509 -0.5671416 -0.23481981 -0.46191275
-0.08762626 0.1358756 -0.39245367 -0.2699835 0.08324898 -0.37978727 -0.032607347 -0.21015072
-0.29211095 -0.29671687 0.05875548 -0.76785916 -0.17965983 -0.4034345 -0.384808 -0.40055567
0.035802014 0.12031198 -0.009673595 -0.29589513 -0.32775497 -0.5530184 -0.13620494 -0.3318042
0.008291279 0.15519993 -0.45687926 -0.13828528 -0.25914827 0.09768591 -0.29837123 -0.4106907
-0.17527156 -0.45927545 -0.38378623 -0.7963956 -0.6040282 0.14195648 -0.21804537 -0.3014988
-0.42603567 -0.43189493 -0.009517122 0.005496134 -0.699184 -0.12136055 -0.116982065 0.04849089
-0.17782202 -1.1670611 -0.1165628 -0.56681687 0.16928847 -0.3542391
