Models/Z_50GeV_1.pth (torch, 197812 bytes, 36 tensors)

sequential.0.Gamma.weight f4 [80, 5]
000000 db 1e 06 3f 7a 60 15 bc 96 3d d6 3e 1e b2 8d 3f
       0.5239083 -0.00911724 0.4184386 1.1069982
000010 71 ed 35 c0 ef 00 41 3d 04 12 95 bd b5 13 12 3f
       -2.8426173 0.04712003 -0.07278827 0.5706132
000020 21 e2 0b 3e 9b ab 85 bf d1 0c 51 bd 20 ff 8b be
       0.1366048 -1.0442995 -0.051037613 -0.27343082
000030 28 c3 06 3f e5 ea 10 be de 3b 03 40 76 8a 50 3e
       0.52641535 -0.14152105 2.050529 0.20365319
000040 01 e6 aa 3f 07 21 84 3d 92 c3 0e 3e a0 5f b2 bd
       1.3351442 0.06451612 0.13941792 -0.08709645
000050 15 61 24 bf d8 e4 d6 be 3f c1 60 3e fd 8e f1 3e
       -0.64210635 -0.4197147 0.21948718 0.47179404
000060 dd 65 d5 be 80 c5 41 3f 8a 01 7a 3e 83 c9 06 3f
       -0.41679278 0.75691986 0.2441465 0.5265123
000070 8b 3d da bc 4d 9b 5a 3f 21 6d 0c 3e 7e c2 f2 be
       -0.026640674 0.8539322 0.13713504 -0.4741401
000080 20 9a 39 bf be ad a5 bd c0 35 da 3e 6b e6 72 3f
       -0.725008 -0.08089779 0.42619133 0.9488284
000090 94 8f a3 be 6d 0a f5 be d9 cd d1 3d 58 66 ed bf
       -0.3194548 -0.47859517 0.102443404 -1.8546858
0000a0 db ac 36 3f 3e 71 00 be d1 38 4c 3e dd 6a 5b be
       0.71357507 -0.12543198 0.19943549 -0.21427484
0000b0 44 42 8f 3f b8 15 9d be 76 b5 71 be 5a a0 c8 be
       1.1192098 -0.30680633 -0.23604378 -0.3918484
0000c0 9a ab fe 3e da a9 c2 bf ce 06 8a bf 63 8e ac 3e
       0.49740297 -1.5208085 -1.0783327 0.33702382
0000d0 3a e2 9c 3e 87 21 eb bf 70 dd 43 be b3 be b2 bf
       0.30641347 -1.8369607 -0.1912744 -1.3964447
0000e0 93 11 29 bf d4 cf b3 be 1c 53 ca be c2 3e 93 3f
       -0.6604244 -0.35119498 -0.39516532 1.1503527
0000f0 43 a5 4e bc 53 46 39 bf cd bb 0a bf 58 32 df 3e
       -0.012612644 -0.7237293 -0.5419281 0.43593097
000100 a5 81 4b 3f c9 20 02 3f 81 1c 15 bf 5c e3 a1 3e
       0.79494697 0.50831276 -0.5824662 0.31618774
000110 f6 47 32 be 46 dc f4 3d 49 0b 83 be c9 7e 18 be
       -0.17410263 0.11956076 -0.25594547 -0.14892115
000120 3d a6 14 bf eb 3b 2d bd 96 97 3c 3f 62 de ce 3e
       -0.5806616 -0.04229347 0.736688 0.4040404
000130 68 1c 33 bd 22 de d0 be df 33 bc 3d ba e0 08 bf
       -0.043728262 -0.40794474 0.09189581 -0.53467906
000140 c4 0f 8e bf 9e ce 5d bf ae 72 f3 be ce 3c 15 bf
       -1.1098561 -0.866434 -0.4754843 -0.58295906
000150 3a f3 01 3e a4 8a 9e bf a2 ba 02 bf 9a 74 51 3f
       0.1269044 -1.238606 -0.5106603 0.81818545
000160 c4 01 01 bf bb 07 41 3e e7 0c 36 3d ca 13 cb be
       -0.5039332 0.18850605 0.0444459 -0.39663535
000170 55 ad 1e be b1 52 63 be bb 9b 07 3f 80 91 e8 be
       -0.15495808 -0.22199513 0.52972 -0.45423508
000180 c6 ba c0 3d fa 34 79 bf 44 52 88 3e 99 cb 8f 3e
       0.09410624 -0.9734646 0.26625264 0.2808502
000190 3e 2d 80 be c2 03 dd 3e 91 f9 62 3d d8 fd 90 be
       -0.25034517 0.4316693 0.055413786 -0.28318667
0001a0 24 58 3c 3e 95 60 52 be ed db eb 3d 51 98 30 bc
       0.18392998 -0.20544656 0.11516557 -0.010778503
0001b0 25 00 8c 3e dc 5e 1d bf d4 73 11 bd 9d 1d 04 ba
       0.2734386 -0.6147287 -0.035510853 -0.0005039813
0001c0 1e 36 2b bf 0f 07 d5 bd a1 79 93 3e 71 35 e1 3d
       -0.6687945 -0.10401737 0.28803733 0.10996521
0001d0 9c 7c 47 3e 6d 76 e5 bb 2b dc 94 be fe 75 4e 3f
       0.19481128 -0.007002643 -0.29074225 0.8064879
0001e0 92 14 3f bf 2c 30 e9 bf dd fa c7 be dd 80 da 3e
       -0.7464076 -1.8217826 -0.3905858 0.4267644
0001f0 93 81 53 bd 90 67 69 bf 01 98 27 be 67 15 48 be
       -0.051637243 -0.9117365 -0.16366579 -0.19539414
000200 61 22 90 be 6c 9f c6 3f 79 1c 88 bf e7 07 e3 3c
       -0.2815123 1.5517402 -1.0633689 0.027713729
000210 7d 5e 1e 3c f0 6c 52 3e 5b a9 d7 3e f6 e8 b0 3e
       0.009666082 0.20549369 0.42121395 0.34552735
000220 39 20 ab 3d f6 69 20 bf 78 3a e0 be e7 7e 79 bf
       0.08355755 -0.62661684 -0.43794608 -0.9745926
000230 99 5e a2 bf 57 87 95 3c 59 f2 8e be 4c 06 b0 bd
       -1.2685119 0.018253012 -0.27919272 -0.08594951
000240 fe 35 9a 3f 25 54 9e 3e 35 e9 9d 3f e1 65 52 bf
       1.2047727 0.30923572 1.2336794 -0.82186705
000250 22 dc d0 3e a3 b9 85 bf 77 97 69 be 45 c3 0f bf
       0.40792948 -1.0447277 -0.22811686 -0.5615733
000260 66 c9 a3 bf 8b 7e c9 bc 8f d7 6f be 99 99 a6 3f
       -1.2795837 -0.024596473 -0.23422073 1.3015624
000270 cf dd a4 3e a2 79 6f be 16 c6 59 bf a8 92 da be
       0.32200477 -0.23386243 -0.8506788 -0.42690015
000280 1e 77 1c 3e 79 ff 25 3e 80 09 59 3f 9f 68 cb bd
       0.15279815 0.16210736 0.8478012 -0.09932064
000290 c4 c7 32 3f 2a 6d 56 3e 5a 8c 93 3f e4 e3 42 bf
       0.6983607 0.2094008 1.1527207 -0.76128983
0002a0 01 53 0b 3e 8f 1e dd be 37 e8 b8 3e 42 54 8e 3c
       0.13605882 -0.43187377 0.36114666 0.017374162
0002b0 21 c7 91 bf 59 e7 79 bc 6f 4b 73 bf 1e 43 31 bf
       -1.1388894 -0.0152529115 -0.9503698 -0.6924304
0002c0 1b 04 21 3b 78 16 4c 3e 9c c7 d8 be 86 a7 e0 3f
       0.0024569097 0.19930446 -0.4233979 1.7551124
0002d0 e3 3e 04 bf 62 3b 00 bf f1 33 87 3f b2 f1 32 3c
       -0.5165846 -0.5009061 1.0562726 0.010921882
0002e0 46 4a 39 3d 38 2c e1 be 80 e5 34 3f 8c 7b 03 3e
       0.04523685 -0.4397905 0.7066269 0.12840098
0002f0 9f 69 0a bf 8e 18 3a 3f 5d 48 4b 3f 38 f9 38 be
       -0.54067415 0.7269372 0.7940729 -0.1806382
000300 37 e1 ca 3e 39 77 cb bd 8a 6b 4f 3f 16 e4 88 be
       0.3962495 -0.09934849 0.81023467 -0.26736516
000310 dd 29 b2 3e 38 81 34 3d 0a 51 1f 3f b6 78 08 3e
       0.34797564 0.044068545 0.6223303 0.13327298
000320 b2 a5 cb 3e 3b 47 fb be 44 d3 b9 be 5b d7 95 3e
       0.39774853 -0.49077782 -0.36293995 0.29265866
000330 88 88 87 bf e7 83 8a 3e 6b 41 fa 3e 2f ba 29 3f
       -1.0588541 0.27053759 0.48878035 0.6629972
000340 0f 35 17 bf 0a 95 34 3f 3a 18 1c 3f cd 51 ca be
       -0.59065336 0.70539916 0.60974467 -0.39515534
000350 0b cf bf bf 52 78 1f 3f db 87 8f bf 1b 7b e1 3e
       -1.498506 0.6229297 -1.1213335 0.44039235
000360 90 94 1a bf bd 8b 36 bf 85 4e 4b be 8d 67 43 bf
       -0.6038294 -0.71306974 -0.19854172 -0.7632988
000370 bd cb dc 3f ac 99 38 3f cc 56 9c be 63 89 44 be
       1.7249676 0.72109485 -0.3053497 -0.19193034
000380 54 9f 62 3f 3e 9a cc be 33 bf a5 be 77 e5 64 be
       0.88524365 -0.39961427 -0.32372436 -0.22353159
000390 79 31 24 3f 21 6e ed be 88 d3 15 bf 56 c9 6d 3e
       0.6413799 -0.46373084 -0.58525896 0.23221335
0003a0 3b d2 46 3f 9c 15 2f 3f f5 73 62 bf b2 fe 89 be
       0.77664536 0.6839235 -0.88458186 -0.2695213
0003b0 cc f4 bb 3f 5e 9a c4 be d9 73 77 3e 5b b9 01 bd
       1.4684081 -0.38399023 0.24165286 -0.03167091
0003c0 90 c0 01 3f 3a 8b e4 bd fa 0d 75 be f2 34 3b 3f
       0.5068445 -0.11159368 -0.23931113 0.73127663
0003d0 7b cd 8e bf e3 bd 75 3f 5c c8 ce bd 30 e6 8a 3f
       -1.1156458 0.9599287 -0.10096809 1.0851498
0003e0 8a e3 92 bf 34 92 fc 3f a3 d9 bb bf ab 19 36 bf
       -1.147569 1.9732118 -1.4675792 -0.71132916
0003f0 f6 75 cb be 7e e3 74 bf 83 f0 9a 3e 3a ea 0f 3f
       -0.39738435 -0.95659626 0.3026162 0.56216776

sequential.0.Gamma.bias f4 [80]
000000 fb 19 a8 bd f0 82 94 be a7 7c 70 3e be d9 40 bd
       -0.082080804 -0.29006147 0.23485051 -0.047082655
000010 06 17 12 be be 04 0b bd 81 90 81 3d c4 8c 3b be
       -0.14266595 -0.03394007 0.0632639 -0.18315417
000020 8d 7c 99 3c 0c e7 22 be fb ab 50 bd 9d b7 8c 3e
       0.018736148 -0.1590845 -0.050945263 0.27483836
000030 c4 46 1c be a6 00 85 3e 37 82 24 3e 99 2d 82 bd
       -0.1526137 0.25977057 0.16065298 -0.06356353
000040 2f ed c2 3d 91 e5 0d 3d b9 a8 d7 3d 99 46 be 3c
       0.095178954 0.03464276 0.10530228 0.023227023
000050 d0 8e 58 3e 62 6d ed bc 7a ff 2c 3d 98 2a d6 3d
       0.21148229 -0.028982822 0.04223583 0.10457343
000060 4f 15 ca bb 6c d4 96 3d 12 a0 22 bd 83 4e 83 3e
       -0.006167091 0.07364735 -0.039703436 0.25645837
000070 ec 0c 51 3e 9e cf 08 bd 25 25 2b 3e 68 16 04 3e
       0.20415086 -0.033401124 0.16713388 0.12899172
000080 8a 8e 5a bb 74 ba 01 be 60 19 66 3d 91 ae 80 3d
       -0.003334912 -0.12668782 0.056176543 0.06283296
000090 64 48 c3 bd c9 92 ec 3d 4d a1 37 3e f4 15 f4 bd
       -0.09535292 0.115514345 0.17932625 -0.1191825
0000a0 fb 05 89 be d3 66 3f 3e 94 e3 a6 bd 91 e5 a2 3d
       -0.26762375 0.18691568 -0.08148876 0.079539426
0000b0 7c 5c 69 3e 6e c9 10 be bc 34 25 3d ae 07 1e be
       0.22789186 -0.1413934 0.040333495 -0.15432617
0000c0 83 c1 68 3d d1 42 29 3e 0e d8 0e 3e 0f ee 1d 3e
       0.056825172 0.16529395 0.13949606 0.15422843
0000d0 06 e2 2b be 05 9e 46 3e 26 55 f0 bd 90 4c 16 3e
       -0.1678544 0.19396217 -0.11734991 0.14677644
0000e0 47 62 50 3d a8 bf 85 3e 76 77 f4 bd b5 80 9a be
       0.050874975 0.26122785 -0.11936848 -0.3017632
0000f0 2e 97 78 be 55 e6 77 bc fd 4a a1 be 51 f8 5b 3d
       -0.2427642 -0.015130599 -0.31502524 0.05370361
000100 c3 97 7e bb 8e 76 84 3d e1 f3 a9 bd 28 a5 3c bd
       -0.0038847781 0.06467925 -0.08298469 -0.046055943
000110 b8 6c b6 3d 60 e8 08 bc bb fd 87 be c0 93 46 bd
       0.08907455 -0.008356184 -0.26560768 -0.04848075
000120 52 b2 82 3e 5b e8 99 be e6 87 18 3e fc 77 07 be
       0.25526673 -0.30060086 0.14895591 -0.13229364
000130 63 fe b5 3d 6b d7 77 bd 53 24 9a be 65 ee 63 be
       0.08886411 -0.060508173 -0.30105838 -0.22258909

sequential.0.Lambda.weight f4 [80, 5]
000000 87 15 d7 be 87 d6 9d 3e 64 71 96 be 25 c3 bb be
       -0.42008612 0.30827734 -0.29383385 -0.3667232
000010 6f cb 14 bf 99 b7 9c bc f4 7d 83 3e 9e d2 ef be
       -0.58122915 -0.019130515 0.25682032 -0.46840376
000020 08 59 f6 be 92 68 c1 3e 5d 4e 80 bf 89 38 0e bf
       -0.481148 0.37775093 -1.0023915 -0.55555016
000030 a6 26 49 bf e1 12 78 3f 1e 4d fd 3d a4 d1 73 3e
       -0.785746 0.96903807 0.123682246 0.2381044
000040 76 7b b5 3e e0 26 10 3f 43 fe 16 3f 1a 4f 30 bf
       0.35445756 0.5630932 0.5898172 -0.688707
000050 a0 4a 0c be ac 9a b6 be 78 6a 9b 3e 90 e6 ea 3e
       -0.13700342 -0.3566488 0.30354667 0.4587903
000060 1c cb aa 3d fc 3b 68 3f 7c 61 8c be 86 1d 92 3f
       0.08339521 0.9071653 -0.27418125 1.141526
000070 ff 1c 34 bd 62 41 26 bf af 3d fe 3e b4 a2 6a bf
       -0.043972965 -0.64943516 0.49656436 -0.91654515
000080 f7 ed 86 3e 85 b9 8d 3f b4 48 8c bf 35 2e 25 3e
       0.26353428 1.1072241 -1.0959687 0.16130908
000090 31 3a 78 be 2f f5 8a 3e ce 30 28 bf ce 46 7c 3e
       -0.24240948 0.27140185 -0.6569947 0.24636385
0000a0 56 bc 71 3f 40 74 7c be fb 41 dd bf ec 34 a6 bd
       0.94428 -0.24653721 -1.7285761 -0.08115563
0000b0 bf f1 94 3c d2 1e 98 3e a2 f8 5d 3d ae 91 f0 be
       0.01818168 0.29711014 0.054192193 -0.46986145
0000c0 ad 64 3f 3f 0b dd 3a bf f0 5e d7 be 6a c3 83 bd
       0.74762994 -0.72993535 -0.4206462 -0.06433757
0000d0 79 9f 26 3d 92 38 30 bf 0f 68 aa be b4 ca b9 bf
       0.04067943 -0.6883632 -0.33282515 -1.4514985
0000e0 ac 3a 2a 3f 1f 28 43 3f 47 72 53 3e c4 a7 fc be
       0.66495776 0.76233095 0.20649062 -0.49346745
0000f0 cb 9d af be ef a3 15 be 01 3e 0c 3e e3 bc 6e be
       -0.34300074 -0.14613317 0.13695528 -0.23314242
000100 5f 31 e0 be 9f 32 a5 bf ff c3 3e 3d 22 24 ab be
       -0.43787667 -1.2906073 0.046573635 -0.33426005
000110 77 1a bf 3d e3 b4 46 bd 46 3c 3b bf 5e f9 37 3f
       0.0933122 -0.04851235 -0.73138845 0.7186488
000120 f7 72 40 be 00 16 72 3e ec 21 60 3e fb db 40 bf
       -0.18793856 0.23641205 0.2188794 -0.75335664
000130 74 44 b2 bf 1e d8 22 3f b4 f3 ee bd 23 43 ea bd
       -1.392714 0.6361102 -0.116675764 -0.114385866
000140 c3 52 e2 be f9 93 37 3f 69 5a 92 bf 94 b4 7a 3e
       -0.44203767 0.71710163 -1.1433841 0.24482948
000150 e2 4b 69 be c0 0d 40 bf 30 eb 33 bf b3 9d a1 3d
       -0.22782853 -0.7502098 -0.7028074 0.07891407
000160 fb fd 0e bf 07 03 7f bf a0 5a 61 bf 11 a5 cb bb
       -0.55856293 -0.99613994 -0.8802891 -0.006214746
000170 a4 f2 2d 3f a9 7d ff be fb 3c d2 be cd 6c c8 be
       0.67948365 -0.4990056 -0.4106215 -0.39145508
000180 1b 20 b8 3d 00 a9 63 3f f6 72 ac 3d d2 3b 97 3e
       0.08990499 0.8892975 0.084203646 0.29537827
000190 00 5b 92 3d 98 8c cf be 11 6d ba be 13 34 96 3e
       0.07146263 -0.40536952 -0.36411336 0.29336604
0001a0 57 d6 ce 3d f5 f9 bd be f3 05 6a 3f 74 65 11 bf
       0.10099476 -0.37104765 0.9141533 -0.5679543
0001b0 86 25 4b 3f f9 60 36 3b f2 51 8d 3f c7 a6 4f be
       0.7935413 0.0027828796 1.1040633 -0.20278464
0001c0 2e 62 b9 3d f8 52 30 bf a7 29 a9 3e 6c 8c 71 3f
       0.090519294 -0.688766 0.3303959 0.9435489
0001d0 ae 32 4a 3e 7f b7 0f 3d cb 6c f4 3d c4 1f 6a 3f
       0.19745895 0.035087105 0.11934813 0.9145472
0001e0 44 51 49 bf ba ee 85 bf 9b e9 af 3e d3 13 cc bc
       -0.78639627 -1.0463479 0.34357914 -0.024911797
0001f0 08 95 ee be 87 dd eb be 2d db e4 ba ce 69 9c 3f
       -0.46598077 -0.4606745 -0.0017460339 1.2219789
000200 6b 36 0d 3f 82 d9 34 3f b8 bc db be 52 31 10 3f
       0.5516116 0.7064439 -0.42917418 0.56325257
000210 a0 dd 34 3f c5 ea 2c 3e af b5 ba be da 17 0e 3e
       0.7065067 0.16886432 -0.3646674 0.13876286
000220 20 83 62 3f d5 31 38 bf cb f5 9d bd 51 6c d2 be
       0.8848133 -0.7195104 -0.07712897 -0.41098264
000230 47 ef cb be 1a 8e 69 be 08 3b d3 3d 1e 9f 0a bf
       -0.39830992 -0.22808114 0.10313994 -0.54149044
000240 70 c1 e6 bd ab d1 0a bf bf ad 12 c0 7a c2 90 3f
       -0.11267364 -0.5422618 -2.2918546 1.130935
000250 dd 52 72 bf 73 51 b9 3d 68 0e b9 be 2f 18 a1 3f
       -0.9465769 0.09048738 -0.36143804 1.2585505
000260 15 45 5d be 80 65 5b 3f 13 3a 6d be 0b 97 68 bf
       -0.21608384 0.8570175 -0.23166685 -0.90855473
000270 58 33 5f be a1 7f 6f 3f c1 5f 94 3e 16 c7 05 bf
       -0.2179693 0.9355412 0.28979304 -0.52256906
000280 da 48 e2 3f 0a f1 86 3e 4b 75 58 bf b4 27 4d 3f
       1.7678483 0.26355773 -0.84553975 0.8013871
000290 bd 74 36 bf 11 c7 b1 bd bb e3 4f bf 84 a3 65 be
       -0.7127188 -0.08680547 -0.81206864 -0.22425658
0002a0 57 f7 24 3f 69 60 84 bd df dd c0 be 67 0f 13 3e
       0.6443991 -0.06463701 -0.37669274 0.14361344
0002b0 c0 ff ce bd b9 2d 8a 3f 24 94 8a 3c 11 1d e9 3d
       -0.10107374 1.0795203 0.016916342 0.11382497
0002c0 bb 71 ea be 45 08 bb 3e 51 9e 28 3d 14 88 d2 3e
       -0.45789894 0.36529747 0.041166607 0.41119444
0002d0 39 e8 4d be 3f 11 e5 3e dc 4a 4d bf cd 1c 31 3f
       -0.20108117 0.4473972 -0.8019235 0.6918457
0002e0 95 af 55 3f 0b 02 27 bf fe b2 76 bf cc ce 16 3f
       0.8347104 -0.6523749 -0.9636687 0.58909297
0002f0 b8 d8 72 3f 8e 31 2e 3f 11 c6 57 3f 8c 93 b3 be
       0.94861937 0.68044364 0.842866 -0.35073507
000300 3b 9f 2a 3f 4a a1 90 be b3 5f 92 bf d7 dc 94 3e
       0.66649216 -0.28248054 -1.1435455 0.29074737
000310 12 94 ce 3e 9b 04 07 bf 9b fa 7a bf e7 a4 80 3f
       0.40347344 -0.527414 -0.98038644 1.0050324
000320 e2 cd 80 bf 67 dc ae 3f c2 ea 26 3f 51 f8 96 bf
       -1.006283 1.3661011 0.6520196 -1.179453
000330 71 14 9a 3f 09 17 6c be c7 95 0e 3e c5 55 54 3e
       1.2037488 -0.23055662 0.13924323 0.20735843
000340 b9 2d f7 3e 84 56 1e 3f 66 fc bc 3e dd 3f 96 bd
       0.4827707 0.6185076 0.36911315 -0.073364
000350 9b b1 ca bd eb 5a 59 bd 59 d4 42 bf 88 fa d5 bf
       -0.09897157 -0.05306522 -0.76105267 -1.6717081
000360 18 69 e4 3e 92 cb 27 3f ae c7 8d 3a 9e 30 d7 bd
       0.4461143 0.65545 0.0010816955 -0.1050732
000370 f6 4c e7 3e 1a ca b0 be fe 91 e6 bd a1 9e 99 3e
       0.45175904 -0.3452919 -0.112583145 0.30003837
000380 e7 c7 8a bf 1b 33 96 be 27 6e 35 3f 25 ca aa 3e
       -1.0842255 -0.29335865 0.70871204 0.3335735
000390 d0 60 cf bf 05 64 1f bf 34 f6 5a 3d 97 e7 93 3f
       -1.620142 -0.6226199 0.053457454 1.1555051
0003a0 c4 e9 36 bf 56 63 96 3e 4e 17 b7 bb a6 45 59 3f
       -0.7145045 0.29372662 -0.005587495 0.848719
0003b0 7d 8e 2b 3f dd fe cc 3c 7a 2c 72 bf e2 f6 55 3f
       0.67014295 0.025023872 -0.94599116 0.8357984
0003c0 54 04 67 3f 40 96 57 be 4d df b0 3e 7f a3 26 bf
       0.9024098 -0.2105341 0.34545365 -0.65093225
0003d0 3c d1 f4 3e 09 ba aa 3e 9c 57 4a 3f c9 75 f6 be
       0.47815883 0.3334506 0.7903993 -0.48136738
0003e0 5e b0 94 3f c3 97 98 3e e4 f7 37 be 7e d6 46 3f
       1.1616323 0.29803285 -0.17965657 0.7767104
0003f0 d9 e7 50 bf f8 f1 0a 3f b7 93 08 3e d0 07 06 be
       -0.8160377 0.54275465 0.13337599 -0.13088918

sequential.0.Lambda.bias f4 [80]
000000 fb 19 a8 bd f0 82 94 be a7 7c 70 3e be d9 40 bd
       -0.082080804 -0.29006147 0.23485051 -0.047082655
000010 06 17 12 be be 04 0b bd 81 90 81 3d c4 8c 3b be
       -0.14266595 -0.03394007 0.0632639 -0.18315417
000020 8d 7c 99 3c 0c e7 22 be fb ab 50 bd 9d b7 8c 3e
       0.018736148 -0.1590845 -0.050945263 0.27483836
000030 c4 46 1c be a6 00 85 3e 37 82 24 3e 99 2d 82 bd
       -0.1526137 0.25977057 0.16065298 -0.06356353
000040 2f ed c2 3d 91 e5 0d 3d b9 a8 d7 3d 99 46 be 3c
       0.095178954 0.03464276 0.10530228 0.023227023
000050 d0 8e 58 3e 62 6d ed bc 7a ff 2c 3d 98 2a d6 3d
       0.21148229 -0.028982822 0.04223583 0.10457343
000060 4f 15 ca bb 6c d4 96 3d 12 a0 22 bd 83 4e 83 3e
       -0.006167091 0.07364735 -0.039703436 0.25645837
000070 ec 0c 51 3e 9e cf 08 bd 25 25 2b 3e 68 16 04 3e
       0.20415086 -0.033401124 0.16713388 0.12899172
000080 8a 8e 5a bb 74 ba 01 be 60 19 66 3d 91 ae 80 3d
       -0.003334912 -0.12668782 0.056176543 0.06283296
000090 64 48 c3 bd c9 92 ec 3d 4d a1 37 3e f4 15 f4 bd
       -0.09535292 0.115514345 0.17932625 -0.1191825
0000a0 fb 05 89 be d3 66 3f 3e 94 e3 a6 bd 91 e5 a2 3d
       -0.26762375 0.18691568 -0.08148876 0.079539426
0000b0 7c 5c 69 3e 6e c9 10 be bc 34 25 3d ae 07 1e be
       0.22789186 -0.1413934 0.040333495 -0.15432617
0000c0 83 c1 68 3d d1 42 29 3e 0e d8 0e 3e 0f ee 1d 3e
       0.056825172 0.16529395 0.13949606 0.15422843
0000d0 06 e2 2b be 05 9e 46 3e 26 55 f0 bd 90 4c 16 3e
       -0.1678544 0.19396217 -0.11734991 0.14677644
0000e0 47 62 50 3d a8 bf 85 3e 76 77 f4 bd b5 80 9a be
       0.050874975 0.26122785 -0.11936848 -0.3017632
0000f0 2e 97 78 be 55 e6 77 bc fd 4a a1 be 51 f8 5b 3d
       -0.2427642 -0.015130599 -0.31502524 0.05370361
000100 c3 97 7e bb 8e 76 84 3d e1 f3 a9 bd 28 a5 3c bd
       -0.0038847781 0.06467925 -0.08298469 -0.046055943
000110 b8 6c b6 3d 60 e8 08 bc bb fd 87 be c0 93 46 bd
       0.08907455 -0.008356184 -0.26560768 -0.04848075
000120 52 b2 82 3e 5b e8 99 be e6 87 18 3e fc 77 07 be
       0.25526673 -0.30060086 0.14895591 -0.13229364
000130 63 fe b5 3d 6b d7 77 bd 53 24 9a be 65 ee 63 be
       0.08886411 -0.060508173 -0.30105838 -0.22258909

sequential.0.bn.running_mean f4 [80]
000000 00 00 00 00 00 00 00 00 00 00 00 00 00 00 00 00
       0.0 0.0 0.0 0.0
000010 00 00 00 00 00 00 00 00 00 00 00 00 00 00 00 00
       0.0 0.0 0.0 0.0
000020 00 00 00 00 00 00 00 00 00 00 00 00 00 00 00 00
       0.0 0.0 0.0 0.0
000030 00 00 00 00 00 00 00 00 00 00 00 00 00 00 00 00
       0.0 0.0 0.0 0.0
000040 00 00 00 00 00 00 00 00 00 00 00 00 00 00 00 00
       0.0 0.0 0.0 0.0
000050 00 00 00 00 00 00 00 00 00 00 00 00 00 00 00 00
       0.0 0.0 0.0 0.0
000060 00 00 00 00 00 00 00 00 00 00 00 00 00 00 00 00
       0.0 0.0 0.0 0.0
000070 00 00 00 00 00 00 00 00 00 00 00 00 00 00 00 00
       0.0 0.0 0.0 0.0
000080 00 00 00 00 00 00 00 00 00 00 00 00 00 00 00 00
       0.0 0.0 0.0 0.0
000090 00 00 00 00 00 00 00 00 00 00 00 00 00 00 00 00
       0.0 0.0 0.0 0.0
0000a0 00 00 00 00 00 00 00 00 00 00 00 00 00 00 00 00
       0.0 0.0 0.0 0.0
0000b0 00 00 00 00 00 00 00 00 00 00 00 00 00 00 00 00
       0.0 0.0 0.0 0.0
0000c0 00 00 00 00 00 00 00 00 00 00 00 00 00 00 00 00
       0.0 0.0 0.0 0.0
0000d0 00 00 00 00 00 00 00 00 00 00 00 00 00 00 00 00
       0.0 0.0 0.0 0.0
0000e0 00 00 00 00 00 00 00 00 00 00 00 00 00 00 00 00
       0.0 0.0 0.0 0.0
0000f0 00 00 00 00 00 00 00 00 00 00 00 00 00 00 00 00
       0.0 0.0 0.0 0.0
000100 00 00 00 00 00 00 00 00 00 00 00 00 00 00 00 00
       0.0 0.0 0.0 0.0
000110 00 00 00 00 00 00 00 00 00 00 00 00 00 00 00 00
       0.0 0.0 0.0 0.0
000120 00 00 00 00 00 00 00 00 00 00 00 00 00 00 00 00
       0.0 0.0 0.0 0.0
000130 00 00 00 00 00 00 00 00 00 00 00 00 00 00 00 00
       0.0 0.0 0.0 0.0

sequential.0.bn.running_var f4 [80]
000000 00 00 80 3f 00 00 80 3f 00 00 80 3f 00 00 80 3f
       1.0 1.0 1.0 1.0
000010 00 00 80 3f 00 00 80 3f 00 00 80 3f 00 00 80 3f
       1.0 1.0 1.0 1.0
000020 00 00 80 3f 00 00 80 3f 00 00 80 3f 00 00 80 3f
       1.0 1.0 1.0 1.0
000030 00 00 80 3f 00 00 80 3f 00 00 80 3f 00 00 80 3f
       1.0 1.0 1.0 1.0
000040 00 00 80 3f 00 00 80 3f 00 00 80 3f 00 00 80 3f
       1.0 1.0 1.0 1.0
000050 00 00 80 3f 00 00 80 3f 00 00 80 3f 00 00 80 3f
       1.0 1.0 1.0 1.0
000060 00 00 80 3f 00 00 80 3f 00 00 80 3f 00 00 80 3f
       1.0 1.0 1.0 1.0
000070 00 00 80 3f 00 00 80 3f 00 00 80 3f 00 00 80 3f
       1.0 1.0 1.0 1.0
000080 00 00 80 3f 00 00 80 3f 00 00 80 3f 00 00 80 3f
       1.0 1.0 1.0 1.0
000090 00 00 80 3f 00 00 80 3f 00 00 80 3f 00 00 80 3f
       1.0 1.0 1.0 1.0
0000a0 00 00 80 3f 00 00 80 3f 00 00 80 3f 00 00 80 3f
       1.0 1.0 1.0 1.0
0000b0 00 00 80 3f 00 00 80 3f 00 00 80 3f 00 00 80 3f
       1.0 1.0 1.0 1.0
0000c0 00 00 80 3f 00 00 80 3f 00 00 80 3f 00 00 80 3f
       1.0 1.0 1.0 1.0
0000d0 00 00 80 3f 00 00 80 3f 00 00 80 3f 00 00 80 3f
       1.0 1.0 1.0 1.0
0000e0 00 00 80 3f 00 00 80 3f 00 00 80 3f 00 00 80 3f
       1.0 1.0 1.0 1.0
0000f0 00 00 80 3f 00 00 80 3f 00 00 80 3f 00 00 80 3f
       1.0 1.0 1.0 1.0
000100 00 00 80 3f 00 00 80 3f 00 00 80 3f 00 00 80 3f
       1.0 1.0 1.0 1.0
000110 00 00 80 3f 00 00 80 3f 00 00 80 3f 00 00 80 3f
       1.0 1.0 1.0 1.0
000120 00 00 80 3f 00 00 80 3f 00 00 80 3f 00 00 80 3f
       1.0 1.0 1.0 1.0
000130 00 00 80 3f 00 00 80 3f 00 00 80 3f 00 00 80 3f
       1.0 1.0 1.0 1.0

sequential.2.Gamma.weight f4 [120, 80]
000000 b9 cd a9 3d 74 cc a1 be 68 b5 fb 3d a9 0c 04 3e
       0.082911916 -0.31601298 0.1229046 0.12895454
000010 36 6d da be d0 7f 27 3e 17 0c c2 bd fb 59 24 bb
       -0.42661446 0.1635735 -0.09474962 -0.0025078047
000020 94 06 d9 bc 83 e9 19 bc 3c c3 42 3e f0 c2 b9 bd
       -0.026492395 -0.009394052 0.19019789 -0.090703845
000030 80 34 09 be 30 35 10 bc 8f 76 65 3e 6a 47 4a be
       -0.13398933 -0.008801743 0.22408508 -0.19753805
000040 c4 fd 7e 3e da 8c 10 3e bc 03 86 3e 21 27 05 be
       0.24901491 0.1411623 0.26174724 -0.13003208
000050 b7 da 08 be 02 57 16 3e 5e 27 81 3e 61 50 6c 3c
       -0.13364683 0.14681628 0.25225347 0.014423461
000060 50 74 b0 be d9 e8 bd 3d c9 03 fd 3d 45 3c bd bd
       -0.3446374 0.09272928 0.123542376 -0.09240011
000070 84 1f 6f 3e f5 f6 fa 3d 6f f8 94 bd bb 7e b2 bd
       0.23351866 0.122541346 -0.072739474 -0.08715578
000080 0d d8 4d bd e9 d4 0c 3e ad 33 6f 3d 45 ac 8d bc
       -0.05025487 0.13753094 0.05839889 -0.017294059
000090 3a 7d c9 bc 39 dc 69 3e bc ca 7a 3d c3 93 1a 3d
       -0.024595845 0.22837915 0.0612285 0.037738573
0000a0 94 b8 86 be f1 31 a7 bd 90 42 1c 3e 15 58 83 3e
       -0.26312697 -0.081638224 0.15259767 0.2565314
0000b0 41 73 2b 3e 2c 8a 5f 3d 0c 0b 6d bd 1a 7b ed 3d
       0.16743185 0.05457513 -0.057871863 0.115957454
0000c0 43 03 3e 3d b6 fb fd bd df 0d 86 be 35 49 02 bf
       0.04638983 -0.12401526 -0.26182458 -0.50892955
0000d0 8e 5a b3 bd 2a 91 3b 3d 5d b6 8e 3d 79 98 08 3e
       -0.08757506 0.045792736 0.06968377 0.13339414
0000e0 33 f4 bc bd 8e fb 35 bd 3f c6 3f 3d a0 d1 35 be
       -0.09226265 -0.044429354 0.04681992 -0.17755747
0000f0 24 9c 80 3d 25 cf 85 3e 01 8e 14 3d 0c 58 b5 3c
       0.062797815 0.261346 0.036268238 0.02213671
000100 05 26 91 be 28 b1 3c be d1 89 c1 3d 57 17 9c bd
       -0.2834932 -0.18426955 0.094501145 -0.07621639
000110 5e 64 3f 3e c3 16 08 3c d1 c6 ea 3c 0a d4 91 3a
       0.18690631 0.008306208 0.028659256 0.0011125815
000120 ca 9e 41 be d6 79 2a be 4f 14 48 be cf b9 ea 3c
       -0.1890823 -0.16648039 -0.19538997 0.028653054
000130 51 96 70 3e b8 4c 28 be bf 78 a2 bc d7 8b 8e bb
       0.23494841 -0.16435516 -0.019832967 -0.0043501663
000140 2f bc 5a bd bd e6 dd be db aa d0 3e 74 4a 8e be
       -0.053402122 -0.43340102 0.40755352 -0.27791178
000150 a2 3e 8c be 24 0c 11 be 5c 2c 3b bc 58 dd c0 3c
       -0.27391535 -0.14164788 -0.01142415 0.023543045
000160 e1 8e 8e 3d 5a fa bf bd e5 74 bc bd 69 a3 75 3e
       0.06960846 -0.09373923 -0.09201983 0.23988117
000170 ee de 9f be c6 6c f9 bc b4 c4 39 3e 2e 8d f8 bd
       -0.3122477 -0.030447375 0.18141443 -0.12136303
000180 5c d6 2d 3e f1 c7 cc 3d 96 72 00 be 1b a9 39 3d
       0.16976303 0.09999073 -0.12543711 0.045327287
000190 76 c2 a0 3e 1b 35 98 bb d2 5c 90 be 44 09 d7 3d
       0.31398362 -0.0046450025 -0.28195816 0.10499814
0001a0 2e 3d b9 be b9 bf f4 bd 18 61 f8 bd 70 56 ed 3d
       -0.3617949 -0.11950631 -0.12127894 0.11588752
0001b0 3d 50 ad bc 02 75 1d bf d5 39 86 3d f1 90 91 3e
       -0.021156425 -0.61506665 0.06553999 0.28430894
0001c0 94 68 07 bd 43 8a c9 bd 21 03 cd 3d 27 04 16 3d
       -0.033058718 -0.098408245 0.100103624 0.036625054
0001d0 12 c1 20 bd 14 a8 1e 3e f9 71 2a 3e 92 36 23 bd
       -0.039246626 0.15493804 0.1664504 -0.039846964
0001e0 ea 06 31 be 5b 3c 13 3e 40 61 cd bd fd da 16 3e
       -0.17287794 0.14378493 -0.100283146 0.14731975
0001f0 5e dc f1 bd 97 ea eb 3c ac a5 b7 3d 1b 8e 7b bd
       -0.1180961 0.028798385 0.08967146 -0.06141482
000200 c2 04 6b 3d 3a 66 bf 3e 53 65 0a 3e 54 2a 8f 3e
       0.057377584 0.3738268 0.13515215 0.2796198
000210 4b 41 88 bd 68 68 75 bd e1 77 75 bc d3 97 f8 3e
       -0.06653079 -0.059914023 -0.014982195 0.48553333
000220 e9 49 d1 3d b7 ef 56 bd 7a 66 18 be ab 6c 9b be
       0.10219175 -0.052474704 -0.14882842 -0.30356345
000230 d3 d2 4c be 52 56 14 be fa 01 35 3e 17 cf e1 3d
       -0.20002298 -0.14486054 0.17676535 0.110258274
000240 3a b1 b2 3e c6 1f 9a 3c 8a 9e f0 bc 5d 70 7b be
       0.34900838 0.018813979 -0.029372472 -0.24554582
000250 ab 78 dd 3d 24 25 56 be 3a 57 35 be 28 67 a3 3c
       0.10814031 -0.20912606 -0.17709056 0.01994665
000260 13 61 84 bd 59 9d 70 3e b5 21 3f 3e 26 40 d6 bd
       -0.06463828 0.23497523 0.18665202 -0.10461454
000270 ce 9f 2a 3e 70 e2 b0 3d 54 ce ac 3c 9b ff 96 3d
       0.16662523 0.086369395 0.021094479 0.073729716
000280 65 ca 8a bc f5 9c a7 be f0 7b fb bb e7 73 42 3e
       -0.016942212 -0.32736936 -0.0076746866 0.18989526
000290 7a f5 d5 be 91 25 84 3d 7c 1c b2 bd 35 48 08 3c
       -0.41788846 0.06452478 -0.08696839 0.008317997
0002a0 4d 9b a6 bd 66 59 71 be e7 5f 8d 3e e0 d7 c5 3e
       -0.0813509 -0.23569259 0.2761223 0.38641262
0002b0 c5 81 8d 3d f7 7f 33 3e 31 4f 64 3e b1 29 8d be
       0.06909517 0.17529283 0.22295834 -0.2757087
0002c0 b0 20 c0 bc 10 40 35 bd 53 3b 12 3e 54 3a 1f be
       -0.023453087 -0.044250548 0.14280443 -0.15549594
0002d0 7d a0 b1 3e b7 95 50 bd 74 67 63 bd 99 bb 80 3e
       0.34692755 -0.05092403 -0.055518582 0.25143126
0002e0 22 a1 2e be d6 c6 50 3d 9f 65 16 be 09 36 39 be
       -0.17053655 0.050970875 -0.14687203 -0.18087019
0002f0 a5 7c 4a be e4 89 c8 bd bb 90 8c 3d af 9e d1 3d
       -0.1977411 -0.097919255 0.06863543 0.102353446
000300 3b 92 e2 3d bf 86 eb 3d 85 7a c5 bd 31 5c 00 3e
       0.110630475 0.1150031 -0.09642509 0.12535168
000310 0a dc 32 be 8e a7 e2 3d b1 6f 24 3e 40 5d 02 be
       -0.1746675 0.11067115 0.16058232 -0.12730885
000320 93 36 86 bd 78 ec 32 3e c2 0a 56 be a8 7b 18 be
       -0.06553378 0.17473018 -0.20902541 -0.14890921
000330 d2 3a d3 3d b4 f0 0b 3d dd 62 50 bd a2 0f 91 bd
       0.103139535 0.0341651 -0.050875533 -0.0708306
000340 f5 6e 52 be d0 36 88 3e 5f 99 45 3e 9f 8a ef bc
       -0.20550139 0.2660432 0.19296788 -0.029240904
000350 6c 90 21 3e 04 12 25 3e 18 55 8a 3e a4 cf a9 3c
       0.15777749 0.16120154 0.27018046 0.020728894
000360 02 79 e2 3c 52 eb 29 3d c4 f1 08 be 12 ab 73 be
       0.027645592 0.041484185 -0.13373476 -0.23795727
000370 d5 5a c7 3d 0e a3 9b 3d 26 29 ab be b9 3a 0c bc
       0.09734122 0.075994596 -0.3342983 -0.008558922
000380 76 4a a0 be 5c a6 c9 3d 8c 9e 30 3e fc 8a 34 bd
       -0.3130681 0.09846184 0.17247981 -0.04407786
000390 eb 62 b5 bd 34 b7 05 be 1e 0d a7 bd 8c d7 e4 bd
       -0.08856758 -0.13058168 -0.08156799 -0.11173925
0003a0 96 32 ad 3d 43 a0 78 3d 41 33 19 be 43 c1 b0 bd
       0.08456914 0.060699712 -0.14960958 -0.08630612
0003b0 e9 71 69 3d 8c b3 24 bd a3 de 81 3d 19 47 b8 3d
       0.0569934 -0.04021029 0.06341293 0.08997936
0003c0 6b 23 20 3d 49 aa f0 bd 99 4a f0 bd 48 0a 71 3d
       0.039096277 -0.11751229 -0.117329784 0.058847696
0003d0 8c 55 9b 3e 4a ee 5f 3e 0d 25 12 be c6 8f d7 bd
       0.30338705 0.21868244 -0.14271946 -0.105254695
0003e0 72 92 56 3e 31 2d 5c be e5 3c e2 bd 08 67 85 be
       0.20954302 -0.21501614 -0.11046771 -0.2605517
0003f0 de eb 18 3d 0a 6c b5 bd 73 c5 1d be 9d be 37 3e
       0.037334315 -0.088584974 -0.15407352 0.17943807

sequential.2.Gamma.bias f4 [120]
000000 82 7d 7c bd 13 00 c4 bd 29 03 d3 bd 67 b1 ac 3d
       -0.06164313 -0.09570327 -0.10303337 0.08432274
000010 e2 08 71 be da d3 5b 3c e7 3c 52 3d 40 ff 70 3e
       -0.23538545 0.013417209 0.051327612 0.2353487
000020 74 d7 9c bb ff 65 8e 3d 57 06 66 bc 2f 49 26 be
       -0.004786426 0.06953048 -0.0140395975 -0.16238855
000030 53 2a 57 bd d2 0d f3 bc da d2 1f bd b5 da 6f 3d
       -0.052530598 -0.029669676 -0.039019443 0.058558185
000040 9b ea 33 bd 8c 17 3b be 40 44 bb bb e2 36 36 bd
       -0.04392491 -0.18270701 -0.005714923 -0.044485934
000050 76 a3 85 3c 20 cd 7b be 43 c2 bc bd a2 92 fb 3c
       0.016313296 -0.24589968 -0.0921674 0.030709568
000060 67 9f cb bd e0 d7 d8 bd 39 42 19 bd f4 fa ae bd
       -0.09942513 -0.1058805 -0.03741667 -0.08543959
000070 5b 03 97 3c 45 27 b1 3d 1a 5b 34 bd 45 82 9f bd
       0.018434217 0.08650068 -0.044032194 -0.07788519
000080 e3 33 71 3c 71 59 19 3d 69 6e 6c bd 97 4d 81 3c
       0.014721843 0.037438814 -0.057722483 0.015784068
000090 68 e3 88 bc 60 c1 33 be 60 d3 f9 bd b5 3b 8a bb
       -0.016709998 -0.17554235 -0.1219852 -0.0042185434
0000a0 90 03 fe 3d f3 75 02 bd 1d d4 64 3d 19 2c 3a bd
       0.12403023 -0.031850766 0.05586635 -0.04545221
0000b0 f1 0a 0c 3b 51 4a 48 be c2 f0 a8 3d 2e 5b 49 bd
       0.0021368826 -0.195596 0.08249046 -0.04915922
0000c0 8a 8b 7e 3c 9c 8d b5 bd 08 f9 16 bd 99 ee bf bd
       0.015536198 -0.088649005 -0.03685859 -0.09371681
0000d0 11 46 0d 3d c1 d5 98 3d cf fd 3f 3e 7c 1c cb 3c
       0.03449065 0.07462645 0.18749164 0.024793856
0000e0 60 a9 45 bd ee 63 89 bd a2 c7 8b 3d 2b ae 24 bc
       -0.04825723 -0.06708513 0.06825186 -0.0100512905
0000f0 bb ae 38 bc 30 cc 30 3d d9 26 50 3d aa 8e a0 bd
       -0.011272128 0.04316348 0.050818298 -0.07839711
000100 6a bb cb 3d 8a 31 5c 3d 52 99 f4 bd f2 01 87 3b
       0.09947856 0.05375818 -0.11943306 0.004120105
000110 23 a6 c7 bc ae 6f 56 be 0a 0d 6b bd ab 55 f1 3c
       -0.024371212 -0.2094104 -0.057385482 0.029459795
000120 dc ae 19 be 5e 2e 92 3c 38 a9 11 be 36 d6 bc bc
       -0.1500811 0.017844375 -0.14224708 -0.023051362
000130 03 57 92 bc 2a d5 73 3d bd 94 4d bd 9e 33 87 bb
       -0.017863756 0.05952946 -0.050190676 -0.0041260263
000140 0b e5 85 3c bc 73 df 3c e4 14 b3 3d 3d 23 51 bd
       0.016344568 0.027276866 0.08744219 -0.051058996
000150 92 80 a1 3c 41 e9 60 3a 09 30 1b bd 98 4c 9e bd
       0.019714627 0.00085796794 -0.037887607 -0.07729453
000160 e3 c6 c2 3d d3 ee 1e 3d 01 e4 27 3d 0b 7e 06 bd
       0.09510591 0.03880198 0.040988926 -0.032835048
000170 10 90 6f be b2 60 87 bd 01 d5 2d bd 8b 83 b4 bc
       -0.23394799 -0.0661024 -0.042439464 -0.02203538
000180 79 da 1f bc 14 cf 06 bd 7e 28 3c be 29 2f ab bd
       -0.009756678 -0.03291233 -0.18374822 -0.083586045
000190 16 70 87 3d 68 61 60 bd fb a7 7c bc 58 6f c8 bb
       0.066131756 -0.054780394 -0.015420909 -0.006116789
0001a0 59 92 fa bd 5f 24 a4 3d d7 95 7f 3d b0 42 c1 3b
       -0.12234945 0.0801475 0.062398758 0.0058978423
0001b0 b7 f0 1a 3d 27 ef 64 3d e6 1e 9b bd 89 fc 09 3c
       0.03782722 0.055892136 -0.07574253 0.0084220255
0001c0 7d 57 47 be da 9a 6f bc ae 19 af bc 1c 5e 87 bb
       -0.19466968 -0.014624322 -0.02137455 -0.0041310918
0001d0 56 42 05 3d e2 3b 4c bd 36 46 0b be 8f f9 60 3b
       0.032533966 -0.049861796 -0.13601002 0.0034328436

sequential.2.Lambda.weight f4 [120, 80]
000000 ed e2 90 3d 09 98 91 bd 32 bd 03 3e 89 45 5f bd
       0.07074533 -0.071090765 0.12865141 -0.054509673
000010 c0 46 7f 3e e4 b1 45 3b 05 5a 0f bd fa 7f 9a bc
       0.24929333 0.0030165846 -0.03499796 -0.018859852
000020 ae 99 82 be e3 3c 8c 3c 4a 15 7d 3e 4d 1d 2a 3e
       -0.25507873 0.017118877 0.24715152 0.1661274
000030 f3 53 10 be 64 a2 41 3d df 7d e1 3d 2a 7b d2 3d
       -0.14094524 0.04727401 0.11010336 0.10277398
000040 07 e1 82 bd f2 7e ce 3d 56 10 81 3d 2d 1c 58 bd
       -0.06390577 0.10082807 0.06301944 -0.052761246
000050 b0 47 b5 3d d2 8c da 3d 37 2e 71 be c4 f9 b9 be
       0.08851564 0.106713906 -0.23552786 -0.3632337
000060 03 03 28 3d ad 96 95 bb 02 66 9d 3d 4c 4c 64 3e
       0.041018497 -0.004565081 0.07685472 0.2229473
000070 03 91 67 bc 61 7b 71 be 80 aa ab be 1b fc 09 be
       -0.014133695 -0.23582222 -0.3352852 -0.13475077
000080 39 ef e9 3d aa 62 44 be d7 93 a0 bc 80 07 1e be
       0.11422581 -0.19178262 -0.019601746 -0.15432549
000090 58 cb 24 3e 9f 24 1c be d1 1e 30 3e ed 68 f4 3d
       0.16093194 -0.15248345 0.17199256 0.119340755
0000a0 a1 b4 69 bd f8 c6 5b bc 91 7d a9 3d de ba 25 bc
       -0.057057027 -0.013414137 0.08275903 -0.010115353
0000b0 ea 15 11 3d 7a eb aa bd a3 6f da 3d 5a d8 3b 3c
       0.03542129 -0.08345695 0.10665824 0.011465156
0000c0 f8 fd a2 3b 16 2f 2f 3e 94 dc b5 bb b9 77 77 3e
       0.004974123 0.17107806 -0.0055499766 0.24166764
0000d0 18 66 b0 3e af fd 5f bd 86 0f ea bd d3 db bb 3c
       0.3445289 -0.05468529 -0.11428742 0.022931969
0000e0 10 7f 95 3d ac 51 c2 3c 65 cd 3a 3d 82 51 01 be
       0.07299626 0.023720585 0.045606036 -0.12628749
0000f0 15 3a 34 be 65 9e 4d bc 88 f2 4a 3e b8 8d 45 bd
       -0.17600282 -0.012549971 0.19819081 -0.048230857
000100 55 49 c0 bb 23 4b 49 3e cb e5 84 be f3 4a 23 3e
       -0.005868117 0.19657569 -0.25956568 0.1594656
000110 6b 32 62 bd dd 01 f3 3d 3b 56 ce bd b6 27 8d be
       -0.055223864 0.1186559 -0.10075041 -0.2756936
000120 8f 43 1d bd b8 aa b2 bc ef dd c7 bd 0b bb 6f be
       -0.038394507 -0.02180992 -0.09759127 -0.23411195
000130 8a b3 98 bd e2 df b5 3d dd 5c a7 3e e0 c7 91 bc
       -0.07456119 0.08880593 0.32688037 -0.017795503
000140 a9 44 87 be 0d b6 39 bd 0d 69 1c 3c bf 4a e9 bd
       -0.2641957 -0.045339633 0.00954653 -0.1139121
000150 2b e5 4d 3d 32 5f 31 be ae 6e 8d be bc 31 32 be
       0.05026738 -0.1732147 -0.27623504 -0.17401785
000160 c1 68 d0 3c 54 03 91 bd 15 4a 0a be fe b3 25 3e
       0.025440576 -0.07080713 -0.13504823 0.16181943
000170 0c bd 2e 3a 2c c9 08 3d 32 66 47 be ab 7a c0 3b
       0.00066657434 0.033394977 -0.19472578 0.005873998
000180 84 c0 b7 3e e4 6d 93 bc 57 5b cd bd 0d dd b7 be
       0.35889065 -0.017996736 -0.10027187 -0.35910836
000190 89 cd 9d be 5d 4e f5 3d 26 4a 2b 3e 50 ae 99 bd
       -0.30820873 0.11977837 0.16727504 -0.075039506
0001a0 92 35 8a be 61 6d c5 3e 8d 5d e9 bc 52 38 8f be
       -0.26993996 0.38560012 -0.028486991 -0.27972656
0001b0 98 61 62 be f5 45 17 be e6 00 c8 bd 6b 25 27 be
       -0.22107542 -0.1477278 -0.09765796 -0.16322868
0001c0 a9 c4 06 3e 9c 25 3f bd a9 09 eb 3c 31 d9 87 3a
       0.13160957 -0.046666726 0.02869113 0.0010364411
0001d0 8b f0 11 3e c2 b1 16 3e 2f f1 d6 3e 8a f9 dc 3e
       0.14251916 0.14716247 0.41980883 0.43159133
0001e0 23 f3 68 3e c2 e1 58 3c 63 50 ad bd f0 f4 3c 3c
       0.22749 0.013237419 -0.08462598 0.011533007
0001f0 71 2b 7a bd de 84 bf 3e ae 2c 31 3c 39 97 a1 be
       -0.061076585 0.37406057 0.010813875 -0.31560686
000200 4b e9 0c 3e 1e 92 05 3e b3 fc dd 3e 12 29 1e 3e
       0.13760869 0.1304402 0.43356857 0.15445355
000210 f7 13 fe bd b6 b3 d1 3c 2e 3f 79 bd df 4e a8 bd
       -0.12406152 0.025598388 -0.06085127 -0.082181685
000220 d3 a2 aa bc bc a9 27 be e8 ca cf 3c f4 94 73 bd
       -0.020829594 -0.16373342 0.025365308 -0.059468225
000230 4f 54 66 bd 3f dd 86 3e d5 f7 30 3e 2c c6 fc 3d
       -0.056232747 0.26340672 0.1728204 0.12342486
000240 e9 0f f0 bd c7 ef e2 bd 13 80 11 3e dc 6b 32 bd
       -0.117217846 -0.1108089 0.14209013 -0.043559894
000250 8e 17 19 be 53 11 e9 3d e3 2d 00 bd 2b 61 9f 3c
       -0.14950392 0.113802575 -0.03129376 0.019455513
000260 c5 fb 7b 3e b3 6c c7 bc 0a 38 94 bd cc a9 9c be
       0.24607761 -0.024343824 -0.07237251 -0.30598295
000270 37 a9 52 be bb 1f 27 be 9e ff 3e 3d f7 75 98 3d
       -0.20572363 -0.16320698 0.046630494 0.07444375
000280 77 aa 10 3d de 1f ed 3d 47 f1 88 3c b6 88 a3 3d
       0.035318818 0.11578344 0.016716613 0.0798506
000290 96 a3 fb bd 90 04 60 3d 7d ef a1 3e 13 16 88 be
       -0.12287061 0.05469185 0.31628028 -0.2657934
0002a0 66 41 3c 3e aa 73 80 3e b9 d0 fc bd e6 af 22 3d
       0.18384323 0.25088245 -0.12344498 0.03971853
0002b0 85 4f da 3d 8f 26 65 3e 6a d9 b3 be 1b c9 3a 3e
       0.106596984 0.2237799 -0.3512681 0.18240778
0002c0 02 6e dc bd f1 83 07 be 48 24 1f bd 55 e6 2d be
       -0.1076317 -0.13233925 -0.03885296 -0.16982396
0002d0 98 91 8c 3d 46 a2 b4 3e 9f b0 da 3d d2 0c f9 3c
       0.06863707 0.35280055 0.10678219 0.030401621
0002e0 6c f4 1e 3e c1 14 37 3e ac 90 a0 3e b5 72 b9 3d
       0.15522927 0.1787901 0.31360376 0.09055082
0002f0 8f 69 d8 bd 88 e5 f7 bd c4 a4 70 3e c3 b4 49 3e
       -0.10567009 -0.121043265 0.23500353 0.19697861
000300 89 82 9d 3e 28 7b 85 3c c0 72 ad 3e 9f c0 e9 3d
       0.30763653 0.016294077 0.3387661 0.11413693
000310 f6 00 69 3d a0 3b 3c 3e 7c 04 83 bd 6c aa 10 be
       0.056885682 0.1838212 -0.0639734 -0.14127511
000320 38 de a8 3d e4 1b 37 be a1 e4 21 bc 04 d1 7c 3b
       0.0824551 -0.17881733 -0.00988117 0.0038576731
000330 6d d9 be bd b7 26 b0 3b 87 94 b0 3c b9 58 97 be
       -0.093188144 0.005375709 0.021555198 -0.29559878
000340 6b be fe bd 7e 01 b7 bd dd 2f 1c 3c a3 19 9c 3e
       -0.12438663 -0.089358315 0.009532896 0.3048831
000350 42 17 71 be 22 af 2b bd 24 43 f4 bd 3c c1 6c be
       -0.23544028 -0.041915067 -0.119268686 -0.23120588
000360 4e 6e a2 bc ef 09 8b bc 28 fc 17 be 18 51 bb bc
       -0.019827988 -0.01697251 -0.14842284 -0.022865817
000370 ea af 93 be 38 e6 a2 bd d4 24 a4 3d 3f 1a 44 3e
       -0.2884515 -0.07954067 0.08014837 0.19150637
000380 67 dd 0c be b1 ea 84 be ef f2 8c be 91 40 bc bd
       -0.13756333 -0.25960305 -0.27529094 -0.091920026
000390 a4 b8 04 be 13 41 29 3e 2d 58 26 3e 7a 73 8c 3e
       -0.1296106 0.1652873 0.16244574 0.27431852
0003a0 ba 10 39 be 32 3e d0 bd aa 38 8f 3d d9 7e 33 be
       -0.18072787 -0.10168113 0.0699323 -0.17528857
0003b0 1e 71 67 3d af 06 66 3e 50 e9 2e 3d 47 b3 d0 be
       0.05650436 0.22463487 0.042702973 -0.40761778
0003c0 30 47 e1 bd ef 3f f7 3d 14 cb f3 3d 1e 03 a7 ba
       -0.10999906 0.12072741 0.119039685 -0.0012742018
0003d0 bb 52 32 bd f1 4b f1 3c 52 e5 18 3e ac a7 48 3e
       -0.04353593 0.029455157 0.14931229 0.19595212
0003e0 16 79 31 3e 77 61 35 3e 62 d7 41 3e 1a 2c 84 3d
       0.17331347 0.17712961 0.18929818 0.06453724
0003f0 d4 bc d4 3d 51 e9 3a be 04 6a 1e 3e 95 85 8e bd
       0.103875786 -0.18253066 0.15470129 -0.069590725

sequential.2.Lambda.bias f4 [120]
000000 82 7d 7c bd 13 00 c4 bd 29 03 d3 bd 67 b1 ac 3d
       -0.06164313 -0.09570327 -0.10303337 0.08432274
000010 e2 08 71 be da d3 5b 3c e7 3c 52 3d 40 ff 70 3e
       -0.23538545 0.013417209 0.051327612 0.2353487
000020 74 d7 9c bb ff 65 8e 3d 57 06 66 bc 2f 49 26 be
       -0.004786426 0.06953048 -0.0140395975 -0.16238855
000030 53 2a 57 bd d2 0d f3 bc da d2 1f bd b5 da 6f 3d
       -0.052530598 -0.029669676 -0.039019443 0.058558185
000040 9b ea 33 bd 8c 17 3b be 40 44 bb bb e2 36 36 bd
       -0.04392491 -0.18270701 -0.005714923 -0.044485934
000050 76 a3 85 3c 20 cd 7b be 43 c2 bc bd a2 92 fb 3c
       0.016313296 -0.24589968 -0.0921674 0.030709568
000060 67 9f cb bd e0 d7 d8 bd 39 42 19 bd f4 fa ae bd
       -0.09942513 -0.1058805 -0.03741667 -0.08543959
000070 5b 03 97 3c 45 27 b1 3d 1a 5b 34 bd 45 82 9f bd
       0.018434217 0.08650068 -0.044032194 -0.07788519
000080 e3 33 71 3c 71 59 19 3d 69 6e 6c bd 97 4d 81 3c
       0.014721843 0.037438814 -0.057722483 0.015784068
000090 68 e3 88 bc 60 c1 33 be 60 d3 f9 bd b5 3b 8a bb
       -0.016709998 -0.17554235 -0.1219852 -0.0042185434
0000a0 90 03 fe 3d f3 75 02 bd 1d d4 64 3d 19 2c 3a bd
       0.12403023 -0.031850766 0.05586635 -0.04545221
0000b0 f1 0a 0c 3b 51 4a 48 be c2 f0 a8 3d 2e 5b 49 bd
       0.0021368826 -0.195596 0.08249046 -0.04915922
0000c0 8a 8b 7e 3c 9c 8d b5 bd 08 f9 16 bd 99 ee bf bd
       0.015536198 -0.088649005 -0.03685859 -0.09371681
0000d0 11 46 0d 3d c1 d5 98 3d cf fd 3f 3e 7c 1c cb 3c
       0.03449065 0.07462645 0.18749164 0.024793856
0000e0 60 a9 45 bd ee 63 89 bd a2 c7 8b 3d 2b ae 24 bc
       -0.04825723 -0.06708513 0.06825186 -0.0100512905
0000f0 bb ae 38 bc 30 cc 30 3d d9 26 50 3d aa 8e a0 bd
       -0.011272128 0.04316348 0.050818298 -0.07839711
000100 6a bb cb 3d 8a 31 5c 3d 52 99 f4 bd f2 01 87 3b
       0.09947856 0.05375818 -0.11943306 0.004120105
000110 23 a6 c7 bc ae 6f 56 be 0a 0d 6b bd ab 55 f1 3c
       -0.024371212 -0.2094104 -0.057385482 0.029459795
000120 dc ae 19 be 5e 2e 92 3c 38 a9 11 be 36 d6 bc bc
       -0.1500811 0.017844375 -0.14224708 -0.023051362
000130 03 57 92 bc 2a d5 73 3d bd 94 4d bd 9e 33 87 bb
       -0.017863756 0.05952946 -0.050190676 -0.0041260263
000140 0b e5 85 3c bc 73 df 3c e4 14 b3 3d 3d 23 51 bd
       0.016344568 0.027276866 0.08744219 -0.051058996
000150 92 80 a1 3c 41 e9 60 3a 09 30 1b bd 98 4c 9e bd
       0.019714627 0.00085796794 -0.037887607 -0.07729453
000160 e3 c6 c2 3d d3 ee 1e 3d 01 e4 27 3d 0b 7e 06 bd
       0.09510591 0.03880198 0.040988926 -0.032835048
000170 10 90 6f be b2 60 87 bd 01 d5 2d bd 8b 83 b4 bc
       -0.23394799 -0.0661024 -0.042439464 -0.02203538
000180 79 da 1f bc 14 cf 06 bd 7e 28 3c be 29 2f ab bd
       -0.009756678 -0.03291233 -0.18374822 -0.083586045
000190 16 70 87 3d 68 61 60 bd fb a7 7c bc 58 6f c8 bb
       0.066131756 -0.054780394 -0.015420909 -0.006116789
0001a0 59 92 fa bd 5f 24 a4 3d d7 95 7f 3d b0 42 c1 3b
       -0.12234945 0.0801475 0.062398758 0.0058978423
0001b0 b7 f0 1a 3d 27 ef 64 3d e6 1e 9b bd 89 fc 09 3c
       0.03782722 0.055892136 -0.07574253 0.0084220255
0001c0 7d 57 47 be da 9a 6f bc ae 19 af bc 1c 5e 87 bb
       -0.19466968 -0.014624322 -0.02137455 -0.0041310918
0001d0 56 42 05 3d e2 3b 4c bd 36 46 0b be 8f f9 60 3b
       0.032533966 -0.049861796 -0.13601002 0.0034328436

sequential.2.bn.running_mean f4 [120]
000000 00 00 00 00 00 00 00 00 00 00 00 00 00 00 00 00
       0.0 0.0 0.0 0.0
000010 00 00 00 00 00 00 00 00 00 00 00 00 00 00 00 00
       0.0 0.0 0.0 0.0
000020 00 00 00 00 00 00 00 00 00 00 00 00 00 00 00 00
       0.0 0.0 0.0 0.0
000030 00 00 00 00 00 00 00 00 00 00 00 00 00 00 00 00
       0.0 0.0 0.0 0.0
000040 00 00 00 00 00 00 00 00 00 00 00 00 00 00 00 00
       0.0 0.0 0.0 0.0
000050 00 00 00 00 00 00 00 00 00 00 00 00 00 00 00 00
       0.0 0.0 0.0 0.0
000060 00 00 00 00 00 00 00 00 00 00 00 00 00 00 00 00
       0.0 0.0 0.0 0.0
000070 00 00 00 00 00 00 00 00 00 00 00 00 00 00 00 00
       0.0 0.0 0.0 0.0
000080 00 00 00 00 00 00 00 00 00 00 00 00 00 00 00 00
       0.0 0.0 0.0 0.0
000090 00 00 00 00 00 00 00 00 00 00 00 00 00 00 00 00
       0.0 0.0 0.0 0.0
0000a0 00 00 00 00 00 00 00 00 00 00 00 00 00 00 00 00
       0.0 0.0 0.0 0.0
0000b0 00 00 00 00 00 00 00 00 00 00 00 00 00 00 00 00
       0.0 0.0 0.0 0.0
0000c0 00 00 00 00 00 00 00 00 00 00 00 00 00 00 00 00
       0.0 0.0 0.0 0.0
0000d0 00 00 00 00 00 00 00 00 00 00 00 00 00 00 00 00
       0.0 0.0 0.0 0.0
0000e0 00 00 00 00 00 00 00 00 00 00 00 00 00 00 00 00
       0.0 0.0 0.0 0.0
0000f0 00 00 00 00 00 00 00 00 00 00 00 00 00 00 00 00
       0.0 0.0 0.0 0.0
000100 00 00 00 00 00 00 00 00 00 00 00 00 00 00 00 00
       0.0 0.0 0.0 0.0
000110 00 00 00 00 00 00 00 00 00 00 00 00 00 00 00 00
       0.0 0.0 0.0 0.0
000120 00 00 00 00 00 00 00 00 00 00 00 00 00 00 00 00
       0.0 0.0 0.0 0.0
000130 00 00 00 00 00 00 00 00 00 00 00 00 00 00 00 00
       0.0 0.0 0.0 0.0
000140 00 00 00 00 00 00 00 00 00 00 00 00 00 00 00 00
       0.0 0.0 0.0 0.0
000150 00 00 00 00 00 00 00 00 00 00 00 00 00 00 00 00
       0.0 0.0 0.0 0.0
000160 00 00 00 00 00 00 00 00 00 00 00 00 00 00 00 00
       0.0 0.0 0.0 0.0
000170 00 00 00 00 00 00 00 00 00 00 00 00 00 00 00 00
       0.0 0.0 0.0 0.0
000180 00 00 00 00 00 00 00 00 00 00 00 00 00 00 00 00
       0.0 0.0 0.0 0.0
000190 00 00 00 00 00 00 00 00 00 00 00 00 00 00 00 00
       0.0 0.0 0.0 0.0
0001a0 00 00 00 00 00 00 00 00 00 00 00 00 00 00 00 00
       0.0 0.0 0.0 0.0
0001b0 00 00 00 00 00 00 00 00 00 00 00 00 00 00 00 00
       0.0 0.0 0.0 0.0
0001c0 00 00 00 00 00 00 00 00 00 00 00 00 00 00 00 00
       0.0 0.0 0.0 0.0
0001d0 00 00 00 00 00 00 00 00 00 00 00 00 00 00 00 00
       0.0 0.0 0.0 0.0

sequential.2.bn.running_var f4 [120]
000000 00 00 80 3f 00 00 80 3f 00 00 80 3f 00 00 80 3f
       1.0 1.0 1.0 1.0
000010 00 00 80 3f 00 00 80 3f 00 00 80 3f 00 00 80 3f
       1.0 1.0 1.0 1.0
000020 00 00 80 3f 00 00 80 3f 00 00 80 3f 00 00 80 3f
       1.0 1.0 1.0 1.0
000030 00 00 80 3f 00 00 80 3f 00 00 80 3f 00 00 80 3f
       1.0 1.0 1.0 1.0
000040 00 00 80 3f 00 00 80 3f 00 00 80 3f 00 00 80 3f
       1.0 1.0 1.0 1.0
000050 00 00 80 3f 00 00 80 3f 00 00 80 3f 00 00 80 3f
       1.0 1.0 1.0 1.0
000060 00 00 80 3f 00 00 80 3f 00 00 80 3f 00 00 80 3f
       1.0 1.0 1.0 1.0
000070 00 00 80 3f 00 00 80 3f 00 00 80 3f 00 00 80 3f
       1.0 1.0 1.0 1.0
000080 00 00 80 3f 00 00 80 3f 00 00 80 3f 00 00 80 3f
       1.0 1.0 1.0 1.0
000090 00 00 80 3f 00 00 80 3f 00 00 80 3f 00 00 80 3f
       1.0 1.0 1.0 1.0
0000a0 00 00 80 3f 00 00 80 3f 00 00 80 3f 00 00 80 3f
       1.0 1.0 1.0 1.0
0000b0 00 00 80 3f 00 00 80 3f 00 00 80 3f 00 00 80 3f
       1.0 1.0 1.0 1.0
0000c0 00 00 80 3f 00 00 80 3f 00 00 80 3f 00 00 80 3f
       1.0 1.0 1.0 1.0
0000d0 00 00 80 3f 00 00 80 3f 00 00 80 3f 00 00 80 3f
       1.0 1.0 1.0 1.0
0000e0 00 00 80 3f 00 00 80 3f 00 00 80 3f 00 00 80 3f
       1.0 1.0 1.0 1.0
0000f0 00 00 80 3f 00 00 80 3f 00 00 80 3f 00 00 80 3f
       1.0 1.0 1.0 1.0
000100 00 00 80 3f 00 00 80 3f 00 00 80 3f 00 00 80 3f
       1.0 1.0 1.0 1.0
000110 00 00 80 3f 00 00 80 3f 00 00 80 3f 00 00 80 3f
       1.0 1.0 1.0 1.0
000120 00 00 80 3f 00 00 80 3f 00 00 80 3f 00 00 80 3f
       1.0 1.0 1.0 1.0
000130 00 00 80 3f 00 00 80 3f 00 00 80 3f 00 00 80 3f
       1.0 1.0 1.0 1.0
000140 00 00 80 3f 00 00 80 3f 00 00 80 3f 00 00 80 3f
       1.0 1.0 1.0 1.0
000150 00 00 80 3f 00 00 80 3f 00 00 80 3f 00 00 80 3f
       1.0 1.0 1.0 1.0
000160 00 00 80 3f 00 00 80 3f 00 00 80 3f 00 00 80 3f
       1.0 1.0 1.0 1.0
000170 00 00 80 3f 00 00 80 3f 00 00 80 3f 00 00 80 3f
       1.0 1.0 1.0 1.0
000180 00 00 80 3f 00 00 80 3f 00 00 80 3f 00 00 80 3f
       1.0 1.0 1.0 1.0
000190 00 00 80 3f 00 00 80 3f 00 00 80 3f 00 00 80 3f
       1.0 1.0 1.0 1.0
0001a0 00 00 80 3f 00 00 80 3f 00 00 80 3f 00 00 80 3f
       1.0 1.0 1.0 1.0
0001b0 00 00 80 3f 00 00 80 3f 00 00 80 3f 00 00 80 3f
       1.0 1.0 1.0 1.0
0001c0 00 00 80 3f 00 00 80 3f 00 00 80 3f 00 00 80 3f
       1.0 1.0 1.0 1.0
0001d0 00 00 80 3f 00 00 80 3f 00 00 80 3f 00 00 80 3f
       1.0 1.0 1.0 1.0
