Models/Z_50GeV_100.pth (torch, 197904 bytes, 36 tensors)

sequential.0.Gamma.weight f4 [80, 5]
0.17025301 -0.9341271 -0.10521818 0.2973767 0.60355115 0.9868264 -0.5682295 -0.15039845
1.3135548 -0.214598 0.2656609 1.5525994 -1.4170476 -1.6153036 -0.049102325 -0.071812995
0.20784514 -0.22302832 -0.8917185 -0.009956395 0.73981917 0.93632203 -0.078258134 0.5157749
-0.45599902 -0.05193163 0.4134236 -0.34803575 1.3941094 0.57542986 0.66940325 0.6815789
-0.7205695 -0.109913185 1.1628076 0.9832808 1.3639935 0.37522292 -1.0032665 0.4382879
0.50103605 -1.147351 -0.041201986 0.17577437 0.2758115 -1.0964333 0.20988081 0.43079546
-0.013171379 0.3819825 0.7237063 0.46633157 1.002856 0.71711075 -1.1059065 0.20796767
0.011560167 0.87448853 -1.0605689 -0.58654976 1.0267305 -0.08022162 0.5782045 -0.50200593
-0.8609041 1.3227891 -0.10178083 -0.07773184 0.6999358 0.33506158 -0.5063726 0.024661114
0.5281268 -0.42964312 -0.10749554 -0.09858219 -0.27630252 -0.35580778 1.6476213 0.6358986
-0.08509896 0.31576148 -1.0393322 0.07158889 0.9193567 0.65917325 0.71840143 -0.5218571
-0.45793262 0.30598235 1.4479986 -0.46132642 -0.41651815 0.694352 -0.8276686 -1.2031493
1.1915306 0.6474967 0.37360132 -0.67651457 -0.31181306 -0.15141432 -0.48433656 0.30207083
0.31704524 0.797526 -0.31594914 -0.34501398 -0.15524489 -0.009685914 0.97854346 -0.12699145
0.49651057 0.02359589 -0.93472874 1.0095958 0.25977823 -0.7146519 0.09890567 0.052430727
0.08899428 -0.021207374 -1.0768094 -1.0573825 0.8685778 0.598073 -0.3965886 0.53392726
0.7480063 0.06616945 1.045679 -0.75601417 0.3959501 -0.4406433 -0.9160576 0.4639123
0.014265272 0.20649043 -1.1329427 -0.13476273 -0.18603738 0.10020028 -0.59742534 0.81380755
-0.19732873 0.92155915 0.06392658 -0.624328 -0.04686928 1.5891801 0.5778684 0.2518598
1.3029402 0.20704986 1.8713461 0.7878246 0.8294643 -0.6103109 -1.2437844 0.37688494
-0.78784937 0.5942281 -0.18036188 -0.2274681 -0.63703287 0.27640826 0.06511203 -0.08154114
-0.557427 1.2207494 0.16492435 1.1166291 -0.29071268 -1.5533777 -0.14568855 0.31047451
1.8868529 -0.29389596 -0.110293284 0.25211254 -0.3637823 0.18894805 0.12529226 0.32627302
-0.21214941 0.2535194 1.495967 -0.9414699 0.6474349 1.0668662 0.7362021 -0.36340204
0.20505513 -1.0784944 0.38119 -0.32523057 0.8064841 0.21584204 0.5236991 -0.7697439
1.2793078 0.6482084 0.44876313 -0.6744367 -0.2913242 0.82533455 -0.07286796 -0.49864775
-0.7425758 0.71723914 0.2987704 -0.16184093 0.05975557 -0.36419868 0.3164969 -0.11076501
0.99489576 0.6722743 2.0508573 -0.55588377 -0.8854389 -0.19190443 0.6647662 0.21622972
-0.16368604 -1.1606764 1.2975146 -0.06572623 0.34417745 -0.46833026 1.0192271 -0.20765914
0.17829058 0.16726021 -0.17627805 -0.69186425 0.24383318 -0.3918089 0.059562128 0.6078535
1.6012616 1.1481714 -0.493262 0.2225977 0.5998959 -1.0865471 0.6202062 0.30867198
0.997581 -1.4731754 0.07142412 0.6057403 0.5724466 -0.5286204 0.02980818 0.711354
00000000: ce56 2e3e f422 6fbf a17c d7bd c241 983e
00000010: 5482 1a3f a8a0 7c3f 7d77 11bf 0d02 1abe
00000020: 9022 a83f 94bf 5bbe b504 883e 94bb c63f
00000030: d161 b5bf 45c2 cebf 851f 49bd b112 93bd
00000040: 5bd5 543e 8961 64be aa47 64bf 2620 23bc
00000050: ca64 3d3f cdb2 6f3f cd45 a0bd d309 043f
00000060: b478 e9be 43b6 54bd 42ac d33e be31 b2be
00000070: 2d72 b23f 5f4f 133f 035e 2b3f f47b 2e3f
00000080: 3e77 38bf 2a1a e1bd e1d6 943f 4ab8 7b3f
00000090: 5797 ae3f 381d c03e 096b 80bf 4667 e03e
000000a0: e643 003f 66dc 92bf 6ac3 28bd 32fe 333e
000000b0: 2a37 8d3e ed57 8cbf ffea 563e 3991 dc3e
000000c0: c5cc 57bc 3693 c33e d144 393f 03c3 ee3e
000000d0: 965d 803f 9294 373f 588e 8dbf 7af5 543e
000000e0: db66 3d3c 7bde 5f3f b9c0 87bf 2028 16bf
000000f0: e86b 833f 3c4b a4bd 3605 143f 7683 00bf
00000100: 3664 5cbf 2751 a93f 7872 d0bd df31 9fbd
00000110: fe2e 333f 318d ab3e a2a1 01bf 1b06 ca3c
00000120: 5133 073f 2ffa dbbe 9f26 dcbd 76e5 c9bd
00000130: 8677 8dbe 702c b6be 41e5 d23f 40ca 223f
00000140: 5d48 aebd 7dab a13e d608 85bf 329d 923d
00000150: f65a 6b3f 94bf 283f 28e9 373f 6d98 05bf
00000160: 2576 eabe b8a9 9c3e 0558 b93f fa32 ecbe
00000170: de41 d5be 0dc1 313f 17e2 53bf cc00 9abf
00000180: 1384 983f 58c2 253f ac48 bf3e 0f30 2dbf
00000190: f6a5 9fbe 5b0c 1bbe f6fa f7be 07a9 9a3e
000001a0: c153 a23e aa2a 4c3f 16c4 a1be aca5 b0be
000001b0: 84f8 1ebe abb1 1ebc d381 7a3f 0c0a 02be
000001c0: a236 fe3e 2b4c c13c 624a 6fbf 6f3a 813f
000001d0: a701 853e 6df3 36bf 0e8f ca3d 9ac1 563d
000001e0: a242 b63d 16bb adbc e4d4 89bf 4f58 87bf
000001f0: 1d5b 5e3f 501b 193f a90d cbbe 75af 083f
00000200: 577d 3f3f d983 873d cfd8 853f 258a 41bf
00000210: f9b9 ca3e 009c e1be c082 6abf ea85 ed3e
00000220: e3b8 693c 3a72 533e 4404 91bf 3eff 09be
00000230: 9580 3ebe ce35 cd3d def0 18bf b155 503f
00000240: 8b10 4abe 4deb 6b3f f0eb 823d f6d3 1fbf
00000250: 01fa 3fbd 416a cb3f 2fef 133f c5f3 803e
00000260: bfc6 a63f e104 543e 4588 ef3f dfae 493f
00000270: c657 543f 563d 1cbf 5434 9fbf 10f7 c03e
00000280: 7fb0 49bf 551f 183f c9b0 38be 66ed 68be
00000290: 9614 23bf 6285 8d3e 7559 853d 0bff a6bd
000002a0: 89b3 0ebf 8441 9c3f eee1 283e b4ed 8e3f
000002b0: 4bd8 94be 15d5 c6bf 612f 15be 84f6 9e3e
000002c0: 6584 f13f 8879 96be 72e1 e1bd e514 813e
000002d0: ac41 babe 997b 413e 9d4c 003e 420d a73e
000002e0: b23d 59be 4bcd 813e d97b bf3f 2c04 71bf
000002f0: 4bbe 253f 128f 883f be77 3c3f d50f babe
00000300: f9f9 513e 1b0c 8abf 562b c33e 9f84 a6be
00000310: be75 4e3f b205 5d3e 2511 063f f00d 45bf
00000320: 5cc0 a33f fcf0 253f 48c4 e53e e2a7 2cbf
00000330: 7228 95be 2049 533f cc3b 95bd c24e ffbe
00000340: 7319 3ebf fc9c 373f 6ff8 983e a1b9 25be
00000350: 42c2 743d 4078 babe e20b a23e c4d8 e2bd
00000360: 7db1 7e3f 2b1a 2c3f 3f41 0340 664e 0ebf
00000370: 20ac 62bf 9882 44be 1e2e 2a3f 536b 5d3e
00000380: 509d 27be 0b91 94bf f514 a63f 799b 86bd
00000390: 0738 b03e fcc8 efbe 0976 823f 99a4 54be
000003a0: ce91 363e 4346 2b3e 3c82 34be 041e 31bf
000003b0: 68af 793e 2d9b c8be 6bf7 733d 499c 1b3f
000003c0: 24f6 cc3f 48f7 923f d68c fcbe a7f0 633e
000003d0: c792 193f fa13 8bbf d5c5 1e3f 410a 9e3e
000003e0: 7861 7f3f 0391 bcbf cf46 923d cc11 1b3f
000003f0: dc8b 123f ab53 07bf 4930 f43c 4c1b 363f

sequential.0.Gamma.bias f4 [80]
-0.35734686 -0.43718973 0.1221999 -0.72561955 -0.34136453 -0.15646122 0.3196427 0.01423873
-0.34917638 -0.36909983 -0.2890333 -0.12341743 0.14204091 -0.350241 -0.21552455 -0.26582476
0.1976334 0.13716884 -0.49197036 -0.05436671 -0.13906263 -0.29377046 0.16423446 -0.219625
0.051073138 -0.24112187 -0.14430842 0.13659397 -0.3674076 0.14937334 -0.08728087 0.33526707
-0.29747778 -0.01318274 0.023378894 -0.2735783 -0.07537846 0.2629328 -0.23077293 -0.1510583
0.2327656 -0.52504045 -0.49043703 -0.3527858 -0.4622129 -0.19858351 -0.06659588 -0.49045485
-0.37701252 -0.4274619 -0.6540166 0.0067729843 -0.26613998 -0.33162388 -0.15877683 -0.6073907
0.39155746 -0.5588067 -0.11235924 -0.3512874 0.25891733 -0.023501998 -0.20272319 0.14277549
0.023308182 -0.91225076 0.061840914 0.011525962 0.14104263 -0.46651947 -0.058432963 -0.3238086
-0.2550592 -0.57676524 0.25904062 -0.36898974 -0.6361856 -0.1891525 -0.50642544 -0.11023416
00000000: 2bf6 b6be 55d7 dfbe f143 fa3d 34c2 39bf
00000010: 55c7 aebe 5f37 20be 35a8 a33e 9049 693c
00000020: 3fc7 b2be a7fa bcbe 2cfc 93be 47c2 fcbd
00000030: 2c73 113e ca52 b3be 78b2 5cbe 2f1a 88be
00000040: 6960 4a3e fd75 0c3e 8ae3 fbbe a1af 5ebd
00000050: 6f66 0ebe 1569 96be 142d 283e 60e5 60be
00000060: 1132 513d a7e8 76be 96c5 13be 4adf 0b3e
00000070: d91c bcbe 53f5 183e 50c0 b2bd 20a8 ab3e
00000080: 024f 98be 6bfc 57bc 1885 bf3c 7412 8cbe
00000090: 0660 9abd 219f 863e bd4f 6cbe 07af 1abe
000000a0: 1b5a 6e3e 0d69 06bf 901a fbbe 57a0 b4be
000000b0: 2ba7 ecbe 7a59 4bbe 6c63 88bd e61c fbbe
000000c0: c907 c1be 49dc dabe a26d 27bf e9ef dd3b
000000d0: 8043 88be 9bca a9be 6596 22be f57d 1bbf
000000e0: 387a c83e f50d 0fbf 9a1c e6bd f1db b3be
000000f0: d090 843e 4387 c0bc ab96 4fbe bd33 123e
00000100: cdf0 be3c 4489 69bf e64c 7d3d 63d7 3c3c
00000110: 7b6d 103e a4db eebe 6757 6fbd 3eca a5be
00000120: 1f97 82be e3a6 13bf f9a0 843e 39ec bcbe
00000130: 0fdd 22bf 31b1 41be 19a5 01bf 73c2 e1bd

sequential.0.Lambda.weight f4 [80, 5]
0.19228326 0.2893888 -0.1715917 0.2520657 -0.58170044 -0.7774808 -0.39538115 -0.5756559
0.17066243 0.09017236 0.56384164 0.54572564 0.2652521 -0.6855334 0.04354234 -0.76069653
0.44532526 -0.39246204 -0.31204745 0.5534586 -0.7830285 0.46848682 -0.058065362 0.17962496
0.16470064 -0.6472954 0.33895826 -0.4591273 0.9199494 0.6993712 -0.2582013 -0.21482547
-0.47809476 0.3269429 0.6802792 -0.4006999 0.055364855 0.12707457 0.14827378 0.9999328
-0.5919025 1.6349226 0.03394584 0.064298086 -0.82542294 0.13924561 0.51896495 0.04720471
0.6478513 -1.1920675 0.13429698 0.2913745 0.28951207 0.065457255 -0.38368213 0.1519169
0.3900412 0.35917538 -0.44587412 -0.0077181547 -0.5932203 -0.3914341 0.65676475 0.39766967
-0.083344206 0.349133 -0.15436754 -0.2768602 0.28403595 -0.21241471 0.3745294 0.14076674
0.4151685 0.40927464 -0.7753141 0.4965339 -0.656801 -0.26791316 0.62961745 -0.18321036
0.14301725 -0.328563 -0.70160466 -0.008891868 0.83010405 -0.6008444 0.73222667 0.4424886
-0.4407426 -0.86888736 0.31095245 0.8283465 -0.28261253 -0.44810647 -0.9277329 -0.14229295
0.36979786 0.59210306 -0.3900026 -0.49952218 -0.51476884 -0.6702058 1.3558396 -0.12261034
-0.39494166 0.30308655 0.12518129 0.08536153 -0.10427224 -0.18847637 -0.7447143 0.7724252
1.5738748 -0.22345403 -0.94488466 -0.3430888 0.41221896 0.6690569 -0.14628226 -0.23031302
0.25297126 -0.28315872 0.4746255 0.82561314 -0.13808767 -0.25011414 -1.2694607 0.38123196
-0.07781771 -0.5853423 0.114769846 0.2282244 -0.40579274 0.36084437 0.12333955 -0.6244941
-0.9865398 0.38285106 1.5259589 -0.23113532 -0.44546235 0.022947209 0.7432375 -0.44060913
0.44221023 -0.8705238 0.9968583 -0.27731922 0.41746077 -0.10210798 -0.47898147 -0.67098296
0.095300466 -0.20097074 0.15698165 0.12330457 -0.016023017 -0.3230198 -0.13066226 0.35745353
-0.5289924 1.2130693 -0.15729961 0.099515 0.5326095 0.09268446 -0.91553056 -0.15960851
-0.55670327 0.999254 0.18814394 0.23469567 -0.7142386 0.43186307 0.39395112 -0.076232895
-0.5077414 0.540575 0.58702075 -0.8057258 -1.2148172 -0.22809744 1.3809733 -0.7045681
0.50775725 0.24978961 -1.0613021 0.3862339 -0.6478908 0.48086616 -0.5512135 -0.8867501
0.21997435 0.38101608 0.7727502 -1.1145102 -0.52258676 1.0398898 -0.15007623 0.42904595
-0.28220952 1.0905552 0.16093715 -0.659118 -0.29544014 -0.46841118 -0.09751091 0.76530564
-1.0204537 0.34607583 -0.04230835 -0.08029695 0.69191104 -0.67227626 -0.041787077 -0.04928154
-0.09706368 -0.4976654 0.2302759 0.3512264 0.29324785 0.41076818 -0.516613 -0.20163438
0.42025822 -0.74472076 0.55233043 -0.043609433 0.07884582 0.20733514 -0.9837013 0.15156151
0.82574683 -0.14577293 -0.034044012 -0.31083506 0.74690175 -0.08680015 0.45371333 -0.60958797
0.17051527 0.9441809 -0.66674423 0.3136174 -0.61058027 -0.2619149 0.2933677 -0.66331494
0.14228952 0.4621953 0.030795341 0.064797334 -0.27436137 -0.044820383 0.9128968 0.68824524
00000000: e7e5 443e c52a 943e bcb5 2fbe c10e 813e
00000010: 52ea 14bf fb08 47bf 666f cabe 2f5e 13bf
00000020: 22c2 2e3e 49ac b83d ed57 103f adb4 0b3f
00000030: 20cf 873e 1e7f 2fbf 7459 323d 02bd 42bf
00000040: ac01 e43e c9f0 c8be afc4 9fbe 76af 0d3f
00000050: 8e74 48bf 81dd ef3e f2d5 6dbd 9bef 373e
00000060: 49a7 283e 27b5 25bf f08b ad3e bc12 ebbe
00000070: ce81 6b3f fe09 333f f632 84be 35fb 5bbe
00000080: d6c8 f4be 0f65 a73e c726 2e3f 8a28 cdbe
00000090: 42c6 623d d61f 023e 15d5 173e 99fb 7f3f
000000a0: ec86 17bf 2545 d13f cb0a 0b3d b7ae 833d
000000b0: eb4e 53bf 6796 0e3e e3da 043f ba59 413d
000000c0: 95d9 253f ab95 98bf 2685 093e 0a2f 953e
000000d0: ed3a 943e 740e 863d fc71 c4be 1b90 1b3e
000000e0: 7bb3 c73e d6e5 b73e 9d49 e4be 93e8 fcbb
000000f0: 49dd 17bf 0d6a c8be bc21 283f 5c9b cb3e
00000100: 5eb0 aabd 90c1 b23e 8612 1ebe 9fc0 8dbe
00000110: 296d 913e 3e83 59be 51c2 bf3e 2825 103e
00000120: f790 d43e 728c d13e fc7a 46bf b139 fe3e
00000130: 1c24 28bf ea2b 89be 9c2e 213f 7f9b 3bbe
00000140: 1d73 123e 6939 a8be 5d9c 33bf 33af 11bc
00000150: b381 543f f0d0 19bf 3573 3b3f de8d e23e
00000160: 04a9 e1be 676f 5ebf 2935 9f3e 840e 543f
00000170: 97b2 90be 366e e5be e77f 6dbf 3eb5 11be
00000180: 2556 bd3e 1194 173f 6cae c7be 5fc1 ffbe
00000190: e4c7 03bf 9b92 2bbf 278c ad3f 211b fbbd
000001a0: cb35 cabe 292e 9b3e 862f 003e 07d2 ae3d
000001b0: af8c d5bd f3ff 40be 99a5 3ebf a8bd 453f
000001c0: bb74 c93f 22d1 64be f6e3 71bf 56a9 afbe
000001d0: 5d0e d33e 5047 2b3f 04cb 15be 2dd7 6bbe
000001e0: 7385 813e 2efa 90be 1d02 f33e 625b 533f
000001f0: db66 0dbe f60e 80be b07d a2bf d630 c33e
00000200: e45e 9fbd fed8 15bf 740c eb3d a8b3 693e
00000210: 11c4 cfbe 98c0 b83e 7299 fc3d d8de 1fbf
00000220: df8d 7cbf 0e05 c43e 9f52 c33f bdae 6cbe
00000230: a413 e4be c9fb bb3c d044 3e3f 8597 e1be
00000240: 6169 e23e a6da 5ebf 1b32 7f3f c9fc 8dbe
00000250: 6bbd d53e fd1d d1bd 0f3d f5be 8ac5 2bbf
00000260: e42c c33d 46cb 4dbe ccbf 203e 1b87 fc3d
00000270: b442 83bc da62 a5be 54cc 05be 2604 b73e
00000280: 0c6c 07bf db45 9b3f 2613 21be 85ce cb3d
00000290: 1959 083f 5ad1 bd3d 3660 6abf 6a70 23be
000002a0: 1b84 0ebf 1ccf 7f3f cea8 403e 1054 703e
000002b0: 57d8 36bf 281d dd3e f6b3 c93e fe1f 9cbd
000002c0: 57fb 01bf 2063 0a3f fe46 163f 0c44 4ebf
000002d0: 217f 9bbf 6092 69be bcc3 b03f 935e 34bf
000002e0: 61fc 013f d9c8 7f3e bfd8 87bf 73c0 c53e
000002f0: 2cdc 25bf 1734 f63e 541c 0dbf 0e02 63bf
00000300: f540 613e 8a14 c33e f5d2 453f 45a8 8ebf
00000310: 3fc8 05bf 1c1b 853f 95ad 19be e9ab db3e
00000320: c47d 90be 5097 8b3f b5cc 243e f5bb 28bf
00000330: ee43 97be 97d3 efbe cdb3 c7bd 12eb 433f
00000340: 3a9e 82bf da30 b13e 854b 2dbd ba72 a4bd
00000350: 1521 313f 4c1a 2cbf ed28 2bbd 71db 49bd
00000360: 53c9 c6bd 00ce febe 72cd 6b3e f2d3 b33e
00000370: 9524 963e 3550 d23e c040 04bf 3e79 4ebe
00000380: 162c d73e 05a6 3ebf 8765 0d3f ce9f 32bd
00000390: eb79 a13d aa4f 543e d9d3 7bbf f132 1b3e
000003a0: 2564 533f 8045 15be bc71 0bbd c625 9fbe
000003b0: f434 3f3f 47c4 b1bd 1d4d e83e f50d 1cbf
000003c0: 8e9b 2e3e d7b5 713f c0af 2abf 7692 a03e
000003d0: fd4e 1cbf b619 86be 4b34 963e 02cf 29bf
000003e0: 58b4 113e dda4 ec3e 8346 fc3c 77b4 843d
000003f0: 1879 8cbe 9495 37bd 9bb3 693f d730 303f

sequential.0.Lambda.bias f4 [80]
-0.35734686 -0.43718973 0.1221999 -0.72561955 -0.34136453 -0.15646122 0.3196427 0.01423873
-0.34917638 -0.36909983 -0.2890333 -0.12341743 0.14204091 -0.350241 -0.21552455 -0.26582476
0.1976334 0.13716884 -0.49197036 -0.05436671 -0.13906263 -0.29377046 0.16423446 -0.219625
0.051073138 -0.24112187 -0.14430842 0.13659397 -0.3674076 0.14937334 -0.08728087 0.33526707
-0.29747778 -0.01318274 0.023378894 -0.2735783 -0.07537846 0.2629328 -0.23077293 -0.1510583
0.2327656 -0.52504045 -0.49043703 -0.3527858 -0.4622129 -0.19858351 -0.06659588 -0.49045485
-0.37701252 -0.4274619 -0.6540166 0.0067729843 -0.26613998 -0.33162388 -0.15877683 -0.6073907
0.39155746 -0.5588067 -0.11235924 -0.3512874 0.25891733 -0.023501998 -0.20272319 0.14277549
0.023308182 -0.91225076 0.061840914 0.011525962 0.14104263 -0.46651947 -0.058432963 -0.3238086
-0.2550592 -0.57676524 0.25904062 -0.36898974 -0.6361856 -0.1891525 -0.50642544 -0.11023416
00000000: 2bf6 b6be 55d7 dfbe f143 fa3d 34c2 39bf
00000010: 55c7 aebe 5f37 20be 35a8 a33e 9049 693c
00000020: 3fc7 b2be a7fa bcbe 2cfc 93be 47c2 fcbd
00000030: 2c73 113e ca52 b3be 78b2 5cbe 2f1a 88be
00000040: 6960 4a3e fd75 0c3e 8ae3 fbbe a1af 5ebd
00000050: 6f66 0ebe 1569 96be 142d 283e 60e5 60be
00000060: 1132 513d a7e8 76be 96c5 13be 4adf 0b3e
00000070: d91c bcbe 53f5 183e 50c0 b2bd 20a8 ab3e
00000080: 024f 98be 6bfc 57bc 1885 bf3c 7412 8cbe
00000090: 0660 9abd 219f 863e bd4f 6cbe 07af 1abe
000000a0: 1b5a 6e3e 0d69 06bf 901a fbbe 57a0 b4be
000000b0: 2ba7 ecbe 7a59 4bbe 6c63 88bd e61c fbbe
000000c0: c907 c1be 49dc dabe a26d 27bf e9ef dd3b
000000d0: 8043 88be 9bca a9be 6596 22be f57d 1bbf
000000e0: 387a c83e f50d 0fbf 9a1c e6bd f1db b3be
000000f0: d090 843e 4387 c0bc ab96 4fbe bd33 123e
00000100: cdf0 be3c 4489 69bf e64c 7d3d 63d7 3c3c
00000110: 7b6d 103e a4db eebe 6757 6fbd 3eca a5be
00000120: 1f97 82be e3a6 13bf f9a0 843e 39ec bcbe
00000130: 0fdd 22bf 31b1 41be 19a5 01bf 73c2 e1bd

sequential.0.bn.running_mean f4 [80]
0.0 0.0 0.0 0.0 0.0 0.0 0.0 0.0
0.0 0.0 0.0 0.0 0.0 0.0 0.0 0.0
0.0 0.0 0.0 0.0 0.0 0.0 0.0 0.0
0.0 0.0 0.0 0.0 0.0 0.0 0.0 0.0
0.0 0.0 0.0 0.0 0.0 0.0 0.0 0.0
0.0 0.0 0.0 0.0 0.0 0.0 0.0 0.0
0.0 0.0 0.0 0.0 0.0 0.0 0.0 0.0
0.0 0.0 0.0 0.0 0.0 0.0 0.0 0.0
0.0 0.0 0.0 0.0 0.0 0.0 0.0 0.0
0.0 0.0 0.0 0.0 0.0 0.0 0.0 0.0
00000000: 0000 0000 0000 0000 0000 0000 0000 0000
00000010: 0000 0000 0000 0000 0000 0000 0000 0000
00000020: 0000 0000 0000 0000 0000 0000 0000 0000
00000030: 0000 0000 0000 0000 0000 0000 0000 0000
00000040: 0000 0000 0000 0000 0000 0000 0000 0000
00000050: 0000 0000 0000 0000 0000 0000 0000 0000
00000060: 0000 0000 0000 0000 0000 0000 0000 0000
00000070: 0000 0000 0000 0000 0000 0000 0000 0000
00000080: 0000 0000 0000 0000 0000 0000 0000 0000
00000090: 0000 0000 0000 0000 0000 0000 0000 0000
000000a0: 0000 0000 0000 0000 0000 0000 0000 0000
000000b0: 0000 0000 0000 0000 0000 0000 0000 0000
000000c0: 0000 0000 0000 0000 0000 0000 0000 0000
000000d0: 0000 0000 0000 0000 0000 0000 0000 0000
000000e0: 0000 0000 0000 0000 0000 0000 0000 0000
000000f0: 0000 0000 0000 0000 0000 0000 0000 0000
00000100: 0000 0000 0000 0000 0000 0000 0000 0000
00000110: 0000 0000 0000 0000 0000 0000 0000 0000
00000120: 0000 0000 0000 0000 0000 0000 0000 0000
00000130: 0000 0000 0000 0000 0000 0000 0000 0000

sequential.0.bn.running_var f4 [80]
1.0 1.0 1.0 1.0 1.0 1.0 1.0 1.0
1.0 1.0 1.0 1.0 1.0 1.0 1.0 1.0
1.0 1.0 1.0 1.0 1.0 1.0 1.0 1.0
1.0 1.0 1.0 1.0 1.0 1.0 1.0 1.0
1.0 1.0 1.0 1.0 1.0 1.0 1.0 1.0
1.0 1.0 1.0 1.0 1.0 1.0 1.0 1.0
1.0 1.0 1.0 1.0 1.0 1.0 1.0 1.0
1.0 1.0 1.0 1.0 1.0 1.0 1.0 1.0
1.0 1.0 1.0 1.0 1.0 1.0 1.0 1.0
1.0 1.0 1.0 1.0 1.0 1.0 1.0 1.0
00000000: 0000 803f 0000 803f 0000 803f 0000 803f
00000010: 0000 803f 0000 803f 0000 803f 0000 803f
00000020: 0000 803f 0000 803f 0000 803f 0000 803f
00000030: 0000 803f 0000 803f 0000 803f 0000 803f
00000040: 0000 803f 0000 803f 0000 803f 0000 803f
00000050: 0000 803f 0000 803f 0000 803f 0000 803f
00000060: 0000 803f 0000 803f 0000 803f 0000 803f
00000070: 0000 803f 0000 803f 0000 803f 0000 803f
00000080: 0000 803f 0000 803f 0000 803f 0000 803f
00000090: 0000 803f 0000 803f 0000 803f 0000 803f
000000a0: 0000 803f 0000 803f 0000 803f 0000 803f
000000b0: 0000 803f 0000 803f 0000 803f 0000 803f
000000c0: 0000 803f 0000 803f 0000 803f 0000 803f
000000d0: 0000 803f 0000 803f 0000 803f 0000 803f
000000e0: 0000 803f 0000 803f 0000 803f 0000 803f
000000f0: 0000 803f 0000 803f 0000 803f 0000 803f
00000100: 0000 803f 0000 803f 0000 803f 0000 803f
00000110: 0000 803f 0000 803f 0000 803f 0000 803f
00000120: 0000 803f 0000 803f 0000 803f 0000 803f
00000130: 0000 803f 0000 803f 0000 803f 0000 803f

sequential.2.Gamma.weight f4 [120, 80]
-0.6408128 -0.005836404 0.074171476 -0.3642975 -0.63176864 -0.067811064 0.21022075 -0.4216772
0.39041445 0.0786517 -0.49949172 -0.8795852 -0.00920737 -0.1336903 -0.2529694 -0.30307534
-0.282601 0.36622286 0.24075678 -0.7395643 0.08872135 0.3150172 -0.2861884 -0.2999693
-0.32291576 0.5053528 0.34139407 -0.23568594 -0.2610655 -0.16961159 0.2504468 -0.1814893
-0.042258985 0.39941043 0.14472517 -0.30079755 0.20426778 0.2124771 -0.15051517 -0.014451802
-0.38935167 0.07207422 -0.057256952 -1.1240776 -0.0035020912 -1.1116854 0.14920184 0.24614412
-0.25662556 0.026669208 -0.010015923 0.1670038 0.053694684 -0.122603044 -0.021350697 -0.11937993
-0.5525843 0.016244605 0.017197479 -0.11645539 -0.250966 -0.00790813 -0.5506649 -0.055219706
0.33754194 -0.4858377 -0.33259964 0.44289914 -0.25292167 0.118625976 0.19001688 -0.1987406
0.029632559 -0.121545024 -0.17043431 0.43123537 -0.45483822 -0.065265484 0.29312527 -0.05164806
0.22555622 0.18618354 -0.38696697 -0.6297267 -0.01118376 0.404686 -0.16389482 0.14122193
0.23873092 0.47045624 -0.087104455 0.25851247 -0.22200307 0.06211159 -0.16129245 0.26349962
-0.17266347 -0.88691175 -0.21865137 -0.2568855 -0.23160462 -0.35629177 -0.56732285 0.16692336
-0.49918103 -0.13382979 -0.6224508 -0.088197745 0.12243827 0.25830102 0.2526612 -0.62017614
-0.22366235 0.3558161 -0.2753037 -0.06942303 -0.11110433 -0.3476552 0.3351479 -0.35183996
-0.0568053 0.28684896 0.11350725 0.41221368 0.32573655 -0.34911442 -0.15988043 0.2547582
-0.12465451 0.16403328 0.40659064 0.0048760343 0.03795248 -0.08122136 -0.12608704 0.45393705
-0.07537271 0.25393552 -0.038969178 -0.008299989 0.048847813 -0.40274385 0.28124374 -0.11649099
-0.27278656 0.44184878 0.0039132936 -0.3338238 0.045156784 -0.12341292 0.105981596 0.101388775
0.19128577 0.5214979 -0.15211576 -0.044973966 -0.0006437865 -0.22434933 0.24340077 0.21817756
-0.50562745 0.007828887 0.2747718 -0.48976552 0.023173057 -0.09026857 0.3755685 0.21341716
-0.350746 -0.38966328 -0.35968736 -0.07245144 0.53071713 -0.1016324 -0.13367239 -0.5044798
-0.102756664 0.052883565 0.34740975 -0.1272418 0.2923229 0.22818415 0.06620598 0.2441963
0.013796617 0.09008871 -0.18943828 -0.19499645 -0.007910127 -0.1735288 -0.83838326 0.6564988
-0.22164609 0.14211646 0.3639044 0.29189852 0.33889925 0.23248184 -0.3889988 -0.08074674
-0.014314252 -0.77259153 -0.70172703 -0.42530632 -0.16008566 0.24888664 0.14973022 -0.2533157
0.07629461 -0.04875605 -0.37194136 -0.07001569 -0.42296115 -0.3166794 -0.42328846 -0.1432558
-0.38717133 -1.5675704 0.049340144 -0.15203881 -0.2013973 0.6763565 -0.31451806 -0.2100553
-0.06794369 -0.31566343 -0.067668185 0.42542058 0.04494787 -0.017465914 -0.10652431 -0.21129265
0.402008 -0.32142988 0.02448396 -0.10505188 -0.4703698 -0.19281961 -1.0606186 -0.24315622
0.14916332 0.14684787 -0.0056617535 -0.4910652 0.2261067 0.037991263 -0.54373366 -0.03374434
-0.29311812 -0.11265333 0.46492532 0.0450502 0.15520525 -0.021574771 0.2553428 0.0219341
00000000: 4f0c 24bf 4e3f bfbb 37e7 973d 3485 babe
00000010: 97bb 21bf 87e0 8abd 1c44 573e 13e6 d7be
00000020: 67e4 c73e 2414 a13d 61bd ffbe 7f2c 61bf
00000030: 82da 16bc 1ce6 08be 3585 81be b12c 9bbe
00000040: 14b1 90be 9081 bb3e f288 763e 1654 3dbf
00000050: 8ab3 b53d ef49 a13e 4987 92be 9395 99be
00000060: 3755 a5be cd5e 013f 34cb ae3e a857 71be
00000070: 61aa 85be a9ae 2dbe 903a 803e 55d8 39be
00000080: c217 2dbd 867f cc3e d632 143e 2302 9abe
00000090: 932b 513e 9993 593e a620 1abe 40c7 6cbc
000000a0: 1a59 c7be a69b 933d 4486 6abd c6e1 8fbf
000000b0: 5783 65bb b54b 8ebf 5ec8 183e 340d 7c3e
000000c0: 6d64 83be 6279 da3c d319 24bc 0b03 2b3e
000000d0: f5ee 5b3d 4e17 fbbd a8e7 aebc 777d f4bd
000000e0: 2a76 0dbf 6813 853c bae1 8c3c 2a80 eebd
000000f0: 9e7e 80be 1a91 01bc 60f8 0cbf 0f2e 62bd
00000100: 4cd2 ac3e b8bf f8be 804a aabe adc3 e23e
00000110: f37e 81be 2df2 f23d c993 423e a882 4bbe
00000120: fbbf f23c 99ec f8bd 5586 2ebe e2ca dc3e
00000130: 8ee0 e8be e9a9 85bd 8414 963e eb8c 53bd
00000140: 36f8 663e e6a6 3e3e 8920 c6be c535 21bf
00000150: 173c 37bc 0133 cf3e 0bd4 27be 7b9c 103e
00000160: e175 743e a4df f03e d263 b2bd bf5b 843e
00000170: c654 63be b968 7e3d d929 25be 6ce9 863e
00000180: b1ce 30be a60c 63bf 25e6 5fbe 7f86 83be
00000190: c329 6dbe e06b b6be 123c 11bf f5ed 2a3e
000001a0: a894 ffbe ad0a 09be f058 1fbf 05a1 b4bd
000001b0: eac0 fa3d 0840 843e cf5c 813e ddc3 1ebf
000001c0: be07 65be 872d b63e 9bf4 8cbe a92d 8ebd
000001d0: ab8a e3bd ddff b1be 8198 ab3e 5e24 b4be
000001e0: adac 68bd dedd 923e 7d76 e83d ac0d d33e
000001f0: f1c6 a63e 20bf b2be b2b7 23be ab6f 823e
00000200: dd4a ffbd 57f8 273e a62c d03e 24c7 9f3b
00000210: 0f74 1b3d 6257 a6bd f61c 01be 706a e83e
00000220: 025d 9abd d603 823e 259e 1fbd adfc 07bc
00000230: a514 483d 7134 cebe 2eff 8f3e d492 eebd
00000240: aeaa 8bbe 013a e23e 163b 803b f4ea aabe
00000250: 52f6 383d eabf fcbd e10c d93d eba4 cf3d
00000260: 6be0 433e e380 053f 3cc4 1bbe 9f36 38bd
00000270: c8c3 28ba d5bb 65be 0d3e 793e f069 5f3e
00000280: cd70 01bf bb44 003c e4ae 8c3e 8cc2 fabe
00000290: 6cd5 bd3c bade b8bd 844a c03e 078a 5a3e
000002a0: fb94 b3be f281 c7be f128 b8be 6c61 94bd
000002b0: 14dd 073f a624 d0bd 6ae1 08be 9725 01bf
000002c0: 1672 d2bd 709c 583d b1df b13e ad4b 02be
000002d0: 59ab 953e 1ba9 693e 0097 873d 980e 7a3e
000002e0: 350b 623c 6e80 b83d 1cfc 41be 26ad 47be
000002f0: 7a99 01bc 89b1 31be 49a0 56bf 4e10 283f
00000300: 31f7 62be fa86 113e ad51 ba3e b973 953e
00000310: 3484 ad3e b80f 6e3e da2a c7be 8c5e a5bd
00000320: 5386 6abc 8fc8 45bf 62a4 33bf c0c1 d9be
00000330: 7fed 23be 24dc 7e3e e152 193e 98b2 81be
00000340: 5940 9c3d 6db4 47bd 196f bebe 6364 8fbd
00000350: 5d8e d8be cd23 a2be 44b9 d8be a6b1 12be
00000360: 523b c6be 26a6 c8bf e418 4a3d 10b0 1bbe
00000370: 183b 4ebe b325 2d3f 8308 a1be bd18 57be
00000380: 1026 8bbd a39e a1be 9e95 8abd bad0 d93e
00000390: 421b 383d ad14 8fbc 6b29 dabd 1a5d 58be
000003a0: fed3 cd3e 7592 a4be 9692 c83c 7125 d7bd
000003b0: 4fd4 f0be 8172 45be 5ac2 87bf f2fd 78be
000003c0: 45be 183e 4a5f 163e 3b86 b9bb e66c fbbe
000003d0: 8488 673e ba9c 1b3d 2132 0bbf 8137 0abd
000003e0: 9413 96be cab6 e6bd b10a ee3e 8f86 383d
000003f0: 20ee 1e3e 93bd b0bc 4bbc 823e 24af b33c

sequential.2.Gamma.bias f4 [120]
-0.18794021 -0.7134812 -0.018913992 0.22224134 -0.75929844 0.15164429 0.077934474 -0.70455945
0.07110174 0.14605609 0.096949525 -0.17801024 -0.036184303 0.17234772 -0.1738212 -0.39690176
-0.30524248 -0.44657603 -0.26847348 0.0032314637 -0.41437107 -0.61026263 -0.24833627 0.11285399
-0.1406247 -0.037173282 -0.24911427 -0.15665367 0.13518368 -0.13787581 -0.0807511 -0.21885988
-0.6074047 -0.0939011 0.18422022 -0.17133409 -0.03408149 -0.20376171 -0.027226323 -0.07215933
0.17231248 -0.14393501 0.24111626 -0.022499196 -0.6373433 -0.30340502 0.09147645 -0.267074
-0.052403003 0.047986828 0.032084852 -0.48359907 -0.1840959 -0.18383464 0.057081565 -0.6889156
-0.42222452 0.16326492 0.11294314 -0.043609936 -0.36109763 -0.10102674 -0.05507216 -0.0022375023
0.11643215 -0.029672878 0.024406752 -0.16018441 -0.12599322 -0.44453755 -0.029613258 -0.47409698
-0.49093506 -0.41159323 -0.28488603 -0.76568884 -0.039724097 -0.30920386 -0.18486743 -0.14941326
-0.17266639 -0.7304692 -0.35096163 -0.17801534 -0.11098009 -0.17884892 0.018533764 -0.4622836
-0.06843455 -0.27856463 -0.28942743 -0.26342085 -0.34618223 -0.18853962 -0.026187338 -0.13821304
-0.022809936 -0.3040336 -0.124911755 0.15687807 -0.18961373 -0.05283522 -0.18442322 -0.30421075
-0.20405592 -0.52623826 -0.22539546 -0.38392395 -0.1374545 0.034543194 -0.5647259 -0.014049929
-0.19904315 -0.0003224183 -0.48467115 -0.36176813 -0.39725095 -0.045627564 0.24462275 -0.019200439
00000000: 6673 40be b4a6 36bf 84f1 9abc 3c93 633e
00000010: 6261 42bf a448 1b3e 1c9c 9f3d 025e 34bf
00000020: ca9d 913d ba8f 153e 798d c63d 5148 36be
00000030: fe35 14bd ec7b 303e 2ffe 31be b536 cbbe
00000040: be48 9cbe 9da5 e4be 5b75 89be f7c6 533b
00000050: 7228 d4be 2c3a 1cbf dd4b 7ebe fe1f e73d
00000060: ecff 0fbe 0343 18bd d017 7fbe d269 20be
00000070: 976d 0a3e 512f 0dbe d560 a5bd ce1c 60be
00000080: e07e 1bbf 384f c0bd 3aa4 3c3e 3472 2fbe
00000090: 0899 0bbd e9a6 50be bd09 dfbc 45c8 93bd
000000a0: af72 303e b363 13be 2ee7 763e 3c50 b8bc
000000b0: ee28 23bf e757 9bbe 0158 bb3d ecbd 88be
000000c0: 88a4 56bd d68d 443d 686b 033d 4c9a f7be
000000d0: a383 3cbe 263f 3cbe 5cce 693d c65c 30bf
000000e0: d02d d8be eb2e 273e bc4e e73d 55a0 32bd
000000f0: cae1 b8be 1ce7 cebd 5893 61bd 0fa3 12bb
00000100: fb73 ee3d 8914 f3bc abf0 c73c 6207 24be
00000110: 5e04 01be 6d9a e3be 8197 f2bc d7bc f2be
00000120: d75b fbbe 59bc d2be 95dc 91be 2f04 44bf
00000130: bcb5 22bd f84f 9ebe e34d 3dbe caff 18be
00000140: 75cf 30be 0800 3bbf 3eb1 b3be a749 36be
00000150: 8849 e3bd 2c24 37be 1fd4 973c 70b0 ecbe
00000160: 6a27 8cbd 06a0 8ebe d52f 94be 19df 86be
00000170: cc3e b1be 8810 41be d486 d6bc b887 0dbe
00000180: e7db babc 4baa 9bbe bcd1 ffbd a5a4 203e
00000190: 1a2a 42be be69 58bd 71d9 3cbe 83c1 9bbe
000001a0: 09f4 50be 8db7 06bf 11ce 66be ae91 c4be
000001b0: dfc0 0cbe 2a7d 0d3d e091 10bf ac31 66bc
000001c0: f8d1 4bbe 400a a9b9 d126 f8be ac39 b9be
000001d0: 7a64 cbbe f8e3 3abd 637e 7a3e 3d4a 9dbc

sequential.2.Lambda.weight f4 [120, 80]
-0.16935576 -0.1571473 0.31889573 -0.28045213 -0.9053034 0.024015777 0.16962838 -0.35730335
0.1121718 0.20058374 -0.46356094 -0.40574378 -0.19597036 -0.1384526 -0.34607336 -0.1258734
0.19544947 0.029762784 0.36777335 -0.34697512 0.2490719 0.2551088 0.103987254 -0.09482543
0.10032661 -0.046195373 0.12211206 -0.014268999 0.09305122 -0.27294767 0.19624284 0.10875328
0.22258203 -0.16208114 0.32714602 -0.3910857 0.67104864 -0.845229 -0.16202165 0.19015794
0.1920061 0.13074237 0.407052 -0.45183125 0.121967286 -0.42046532 0.050626565 0.06566806
-0.15687434 0.238237 -0.065745756 -0.026359824 0.1588953 -0.09308514 0.13380708 0.10287018
-0.20001735 0.40743658 -0.16101536 0.1739937 -0.015316524 -0.1665677 -0.50833416 0.0046780547
0.15268433 -0.54754305 -0.3886971 0.20974982 -0.04070207 -0.21677947 0.5115947 -0.015258879
0.10105677 0.30715156 -0.26442286 0.38109523 -0.5485865 0.25216234 0.36407334 -0.016159514
0.011621976 0.37056538 0.23093924 0.16227093 0.28714827 0.5965545 0.54064757 0.33202296
-0.18199025 0.24407782 -0.055078145 0.20013827 -0.03592028 0.024320874 0.26004875 0.49363196
0.30004457 0.08238455 0.24282219 -0.014970884 0.3041883 -0.043432638 -0.28666508 0.20011836
0.08224357 0.42245018 0.059021406 0.5140643 0.014009368 0.2990919 0.23856917 0.0699725
0.048078716 0.67774135 0.15838233 0.1326651 0.20526446 0.37958497 0.38382956 -0.09301669
0.20881344 0.14456275 -0.014468015 0.27139 0.30822152 -0.07172748 -0.09921036 0.38419968
0.251505 0.47705668 0.5525008 0.13556473 0.47020808 0.28834456 0.08046772 0.37958762
0.3508721 0.600662 -0.040230118 0.5579663 0.008393157 -0.17562366 0.4671214 0.100073256
-0.12954818 0.38888004 0.104477935 -0.038133975 0.18730916 0.1532118 0.25981703 0.19932899
0.18049395 0.37727925 -0.09694305 -0.038351633 0.2948671 0.41645348 0.5586024 -0.056158498
-0.115430035 0.43584052 0.008771017 0.2303518 -0.2580384 -0.007855159 0.1627989 -0.0036271564
0.14106101 -0.547765 -0.12634145 -0.052064374 -0.031436797 0.36545527 0.34511203 0.0128667345
-0.22004318 -0.20156926 0.21802671 -0.06545866 -0.003337003 0.034252137 -0.1579738 0.02566609
-0.41630265 0.55735576 0.18040709 -0.17333989 0.3318444 -0.0028657198 0.099760495 -0.068121195
0.4943515 -0.13744113 0.01652232 -0.19763094 0.012846244 0.53498507 -0.47445935 0.17944844
-0.08792928 -0.5990931 -0.5878219 -0.08095962 0.2621567 0.1403076 0.19104347 0.045218833
0.2346873 0.073903374 -0.19423519 0.50018656 -0.04259399 0.20372587 -0.52852315 -0.7602421
-0.24434942 -0.11855876 -0.12923494 0.045052502 -0.23175767 0.22596426 -0.25455326 -0.016973384
-0.073899284 0.12995791 -0.02829415 0.23269947 0.14382659 -0.27106848 0.50492764 0.03897458
0.38695458 -1.0195239 -0.18865007 0.33162296 0.21018198 0.1973699 -0.00046372856 -0.23592398
0.22790213 -0.22703235 -0.27858824 -0.2702089 -0.05208883 -0.3945373 -1.1005785 0.061957873
0.021934425 -0.093883425 0.9919865 -0.017065933 0.3193273 -0.100062184 0.50448596 -0.24945836
00000000: 996b 2dbe 39eb 20be 4d46 a33e 6c97 8fbe
00000010: f7c1 67bf bcbc c43c 10b3 2d3e 77f0 b6be
00000020: 54ba e53d d365 4d3e dc57 edbe a6bd cfbe
00000030: 74ac 48be 85c6 0dbe 8730 b1be f5e4 00be
00000040: e823 483e 15d1 f33c ca4c bc3e b9a6 b1be
00000050: b40c 7f3e 9f9d 823e 45f7 d43d d633 c2bd
00000060: 0a78 cd3d 5c37 3dbd e315 fa3d 85c8 69bc
00000070: a391 be3d ccbf 8bbe e2f3 483e 0aba de3d
00000080: 8bec 633e 99f8 25be af7f a73e 633c c8be
00000090: d8c9 2b3f ee60 58bf 01e9 25be c3b8 423e
000000a0: 3f9d 443e 54e1 053e 1f69 d03e 6d56 e7be
000000b0: fcc9 f93d 3b47 d7be cd5d 4f3d fa7c 863d
000000c0: aba3 20be 66f4 733e b6a5 86bd 8ff0 d7bc
000000d0: 73b5 223e 6ca3 bebd b904 093e 9aad d23d
000000e0: 59d1 4cbe 879b d03e 36e1 24be 682b 323e
000000f0: 28f2 7abc b990 2abe 3022 02bf 5e4a 993b
00000100: 4859 1c3e c82b 0cbf 4e03 c7be a8c8 563e
00000110: 37b7 26bd 70fb 5dbe dff7 023f 6100 7abc
00000120: daf6 ce3d f842 9d3e 6f62 87be ea1e c33e
00000130: 2a70 0cbf 6c1b 813e d267 ba3e f560 84bc
00000140: 1a6a 3e3c bfba bd3e 567b 6c3e 5a2a 263e
00000150: 1905 933e ccb7 183f e167 0a3f eafe a93e
00000160: a75b 3abe 89ef 793e 9f99 61bd 0cf1 4c3e
00000170: 2521 13bd 923c c73c 1c25 853e 54bd fc3e
00000180: 719f 993e 3bb9 a83d 61a6 783e 7048 75bc
00000190: 92be 9b3e 6ce6 31bd c4c5 92be d4eb 4c3e
000001a0: 516f a83d 644b d83e 6ec0 713d b899 033f
000001b0: 8c87 653c 9322 993e 7a4b 743e be4d 8f3d
000001c0: 30ee 443d 7580 2d3f fa2e 223e 5cd9 073e
000001d0: d930 523e f658 c23e 4f85 c43e 897f bebd
000001e0: 31d3 553e 4208 143e 410b 6dbc a1f3 8a3e
000001f0: 36cf 9d3e dbe5 92bd cd2e cbbd d2b5 c43e
00000200: 43c5 803e c640 f43e b170 0d3f 7bd1 0a3e
00000210: 1dbf f03e e6a1 933e 43cc a43d 4f59 c23e
00000220: 82a5 b33e fcc4 193f 56c8 24bd e1d6 0e3f
00000230: 7483 093c b0d6 33be 892a ef3e 35f3 cc3d
00000240: 47a8 04be 491b c73e 87f8 d53d 5f32 1cbd
00000250: f9cd 3f3e 8ee3 1c3e bd06 853e e61c 4c3e
00000260: 68d3 383e bf2a c13e 148a c6bd 9a16 1dbd
00000270: d2f8 963e 6439 d53e 9100 0f3f 7406 66bd
00000280: 9566 ecbd 7d26 df3e 50b4 0f3c 58e1 6b3e
00000290: 9c1d 84be edb2 00bc c1b4 263e 96b5 6dbb
000002a0: 4c72 103e 543a 0cbf a75f 01be 7441 55bd
000002b0: dfc3 00bd f41c bb3e 86b2 b03e ffce 523c
000002c0: 0053 61be 2c68 4ebe 6542 5f3e 310f 86bd
000002d0: 9fb1 5abb f84b 0c3d e2c3 21be b141 d23c
000002e0: 9f25 d5be deae 0e3f a3bc 383e 0380 31be
000002f0: 82e7 a93e cdce 3bbb 3b4f cc3d 2083 8bbd
00000300: a41b fd3e 5ebd 0cbe d159 873c c45f 4abe
00000310: 0d79 523c c8f4 083f 56ec f2be 55c1 373e
00000320: 4414 b4bd 2a5e 19bf 7f7b 16bf 28ce a5bd
00000330: 6739 863e ccac 0f3e e6a0 433e 6237 393d
00000340: de51 703e a75a 973d 97e5 46be 3a0c 003f
00000350: 0977 2ebd 849d 503e 4b4d 07bf 3a9f 42bf
00000360: bc36 7abe efce f2bd 2a56 04be f988 383d
00000370: e251 6dbe 2d63 673e ce54 82be c40b 8bbc
00000380: 8258 97bd b013 053e 22c9 e7bc c548 6e3e
00000390: 4747 133e 7dc9 8abe f042 013f cfa3 1f3d
000003a0: e91e c63e c27f 82bf 7c2d 41be 7cca a93e
000003b0: f239 573e 561b 4a3e 9820 f3b9 0e96 71be
000003c0: 2d5f 693e 2b7b 68be 1ea3 8ebe d258 8abe
000003d0: 195b 55bd cb00 cabe c2df 8cbf 8ac7 7d3d
000003e0: d3af b33c f445 c0bd d4f2 7d3f dbcd 8bbc
000003f0: de7e a33e 67ed ccbd fe25 013f 0372 7fbe

sequential.2.Lambda.bias f4 [120]
-0.18794021 -0.7134812 -0.018913992 0.22224134 -0.75929844 0.15164429 0.077934474 -0.70455945
0.07110174 0.14605609 0.096949525 -0.17801024 -0.036184303 0.17234772 -0.1738212 -0.39690176
-0.30524248 -0.44657603 -0.26847348 0.0032314637 -0.41437107 -0.61026263 -0.24833627 0.11285399
-0.1406247 -0.037173282 -0.24911427 -0.15665367 0.13518368 -0.13787581 -0.0807511 -0.21885988
-0.6074047 -0.0939011 0.18422022 -0.17133409 -0.03408149 -0.20376171 -0.027226323 -0.07215933
0.17231248 -0.14393501 0.24111626 -0.022499196 -0.6373433 -0.30340502 0.09147645 -0.267074
-0.052403003 0.047986828 0.032084852 -0.48359907 -0.1840959 -0.18383464 0.057081565 -0.6889156
-0.42222452 0.16326492 0.11294314 -0.043609936 -0.36109763 -0.10102674 -0.05507216 -0.0022375023
0.11643215 -0.029672878 0.024406752 -0.16018441 -0.12599322 -0.44453755 -0.029613258 -0.47409698
-0.49093506 -0.41159323 -0.28488603 -0.76568884 -0.039724097 -0.30920386 -0.18486743 -0.14941326
-0.17266639 -0.7304692 -0.35096163 -0.17801534 -0.11098009 -0.17884892 0.018533764 -0.4622836
-0.06843455 -0.27856463 -0.28942743 -0.26342085 -0.34618223 -0.18853962 -0.026187338 -0.13821304
-0.022809936 -0.3040336 -0.124911755 0.15687807 -0.18961373 -0.05283522 -0.18442322 -0.30421075
-0.20405592 -0.52623826 -0.22539546 -0.38392395 -0.1374545 0.034543194 -0.5647259 -0.014049929
-0.19904315 -0.0003224183 -0.48467115 -0.36176813 -0.39725095 -0.045627564 0.24462275 -0.019200439
00000000: 6673 40be b4a6 36bf 84f1 9abc 3c93 633e
00000010: 6261 42bf a448 1b3e 1c9c 9f3d 025e 34bf
00000020: ca9d 913d ba8f 153e 798d c63d 5148 36be
00000030: fe35 14bd ec7b 303e 2ffe 31be b536 cbbe
00000040: be48 9cbe 9da5 e4be 5b75 89be f7c6 533b
00000050: 7228 d4be 2c3a 1cbf dd4b 7ebe fe1f e73d
00000060: ecff 0fbe 0343 18bd d017 7fbe d269 20be
00000070: 976d 0a3e 512f 0dbe d560 a5bd ce1c 60be
00000080: e07e 1bbf 384f c0bd 3aa4 3c3e 3472 2fbe
00000090: 0899 0bbd e9a6 50be bd09 dfbc 45c8 93bd
000000a0: af72 303e b363 13be 2ee7 763e 3c50 b8bc
000000b0: ee28 23bf e757 9bbe 0158 bb3d ecbd 88be
000000c0: 88a4 56bd d68d 443d 686b 033d 4c9a f7be
000000d0: a383 3cbe 263f 3cbe 5cce 693d c65c 30bf
000000e0: d02d d8be eb2e 273e bc4e e73d 55a0 32bd
000000f0: cae1 b8be 1ce7 cebd 5893 61bd 0fa3 12bb
00000100: fb73 ee3d 8914 f3bc abf0 c73c 6207 24be
00000110: 5e04 01be 6d9a e3be 8197 f2bc d7bc f2be
00000120: d75b fbbe 59bc d2be 95dc 91be 2f04 44bf
00000130: bcb5 22bd f84f 9ebe e34d 3dbe caff 18be
00000140: 75cf 30be 0800 3bbf 3eb1 b3be a749 36be
00000150: 8849 e3bd 2c24 37be 1fd4 973c 70b0 ecbe
00000160: 6a27 8cbd 06a0 8ebe d52f 94be 19df 86be
00000170: cc3e b1be 8810 41be d486 d6bc b887 0dbe
00000180: e7db babc 4baa 9bbe bcd1 ffbd a5a4 203e
00000190: 1a2a 42be be69 58bd 71d9 3cbe 83c1 9bbe
000001a0: 09f4 50be 8db7 06bf 11ce 66be ae91 c4be
000001b0: dfc0 0cbe 2a7d 0d3d e091 10bf ac31 66bc
000001c0: f8d1 4bbe 400a a9b9 d126 f8be ac39 b9be
000001d0: 7a64 cbbe f8e3 3abd 637e 7a3e 3d4a 9dbc

sequential.2.bn.running_mean f4 [120]
0.0 0.0 0.0 0.0 0.0 0.0 0.0 0.0
0.0 0.0 0.0 0.0 0.0 0.0 0.0 0.0
0.0 0.0 0.0 0.0 0.0 0.0 0.0 0.0
0.0 0.0 0.0 0.0 0.0 0.0 0.0 0.0
0.0 0.0 0.0 0.0 0.0 0.0 0.0 0.0
0.0 0.0 0.0 0.0 0.0 0.0 0.0 0.0
0.0 0.0 0.0 0.0 0.0 0.0 0.0 0.0
0.0 0.0 0.0 0.0 0.0 0.0 0.0 0.0
0.0 0.0 0.0 0.0 0.0 0.0 0.0 0.0
0.0 0.0 0.0 0.0 0.0 0.0 0.0 0.0
0.0 0.0 0.0 0.0 0.0 0.0 0.0 0.0
0.0 0.0 0.0 0.0 0.0 0.0 0.0 0.0
0.0 0.0 0.0 0.0 0.0 0.0 0.0 0.0
0.0 0.0 0.0 0.0 0.0 0.0 0.0 0.0
0.0 0.0 0.0 0.0 0.0 0.0 0.0 0.0
00000000: 0000 0000 0000 0000 0000 0000 0000 0000
00000010: 0000 0000 0000 0000 0000 0000 0000 0000
00000020: 0000 0000 0000 0000 0000 0000 0000 0000
00000030: 0000 0000 0000 0000 0000 0000 0000 0000
00000040: 0000 0000 0000 0000 0000 0000 0000 0000
00000050: 0000 0000 0000 0000 0000 0000 0000 0000
00000060: 0000 0000 0000 0000 0000 0000 0000 0000
00000070: 0000 0000 0000 0000 0000 0000 0000 0000
00000080: 0000 0000 0000 0000 0000 0000 0000 0000
00000090: 0000 0000 0000 0000 0000 0000 0000 0000
000000a0: 0000 0000 0000 0000 0000 0000 0000 0000
000000b0: 0000 0000 0000 0000 0000 0000 0000 0000
000000c0: 0000 0000 0000 0000 0000 0000 0000 0000
000000d0: 0000 0000 0000 0000 0000 0000 0000 0000
000000e0: 0000 0000 0000 0000 0000 0000 0000 0000
000000f0: 0000 0000 0000 0000 0000 0000 0000 0000
00000100: 0000 0000 0000 0000 0000 0000 0000 0000
00000110: 0000 0000 0000 0000 0000 0000 0000 0000
00000120: 0000 0000 0000 0000 0000 0000 0000 0000
00000130: 0000 0000 0000 0000 0000 0000 0000 0000
00000140: 0000 0000 0000 0000 0000 0000 0000 0000
00000150: 0000 0000 0000 0000 0000 0000 0000 0000
00000160: 0000 0000 0000 0000 0000 0000 0000 0000
00000170: 0000 0000 0000 0000 0000 0000 0000 0000
00000180: 0000 0000 0000 0000 0000 0000 0000 0000
00000190: 0000 0000 0000 0000 0000 0000 0000 0000
000001a0: 0000 0000 0000 0000 0000 0000 0000 0000
000001b0: 0000 0000 0000 0000 0000 0000 0000 0000
000001c0: 0000 0000 0000 0000 0000 0000 0000 0000
000001d0: 0000 0000 0000 0000 0000 0000 0000 0000

sequential.2.bn.running_var f4 [120]
1.0 1.0 1.0 1.0 1.0 1.0 1.0 1.0
1.0 1.0 1.0 1.0 1.0 1.0 1.0 1.0
1.0 1.0 1.0 1.0 1.0 1.0 1.0 1.0
1.0 1.0 1.0 1.0 1.0 1.0 1.0 1.0
1.0 1.0 1.0 1.0 1.0 1.0 1.0 1.0
1.0 1.0 1.0 1.0 1.0 1.0 1.0 1.0
1.0 1.0 1.0 1.0 1.0 1.0 1.0 1.0
1.0 1.0 1.0 1.0 1.0 1.0 1.0 1.0
1.0 1.0 1.0 1.0 1.0 1.0 1.0 1.0
1.0 1.0 1.0 1.0 1.0 1.0 1.0 1.0
1.0 1.0 1.0 1.0 1.0 1.0 1.0 1.0
1.0 1.0 1.0 1.0 1.0 1.0 1.0 1.0
1.0 1.0 1.0 1.0 1.0 1.0 1.0 1.0
1.0 1.0 1.0 1.0 1.0 1.0 1.0 1.0
1.0 1.0 1.0 1.0 1.0 1.0 1.0 1.0
00000000: 0000 803f 0000 803f 0000 803f 0000 803f
00000010: 0000 803f 0000 803f 0000 803f 0000 803f
00000020: 0000 803f 0000 803f 0000 803f 0000 803f
00000030: 0000 803f 0000 803f 0000 803f 0000 803f
00000040: 0000 803f 0000 803f 0000 803f 0000 803f
00000050: 0000 803f 0000 803f 0000 803f 0000 803f
00000060: 0000 803f 0000 803f 0000 803f 0000 803f
00000070: 0000 803f 0000 803f 0000 803f 0000 803f
00000080: 0000 803f 0000 803f 0000 803f 0000 803f
00000090: 0000 803f 0000 803f 0000 803f 0000 803f
000000a0: 0000 803f 0000 803f 0000 803f 0000 803f
000000b0: 0000 803f 0000 803f 0000 803f 0000 803f
000000c0: 0000 803f 0000 803f 0000 803f 0000 803f
000000d0: 0000 803f 0000 803f 0000 803f 0000 803f
000000e0: 0000 803f 0000 803f 0000 803f 0000 803f
000000f0: 0000 803f 0000 803f 0000 803f 0000 803f
00000100: 0000 803f 0000 803f 0000 803f 0000 803f
00000110: 0000 803f 0000 803f 0000 803f 0000 803f
00000120: 0000 803f 0000 803f 0000 803f 0000 803f
00000130: 0000 803f 0000 803f 0000 803f 0000 803f
00000140: 0000 803f 0000 803f 0000 803f 0000 803f
00000150: 0000 803f 0000 803f 0000 803f 0000 803f
00000160: 0000 803f 0000 803f 0000 803f 0000 803f
00000170: 0000 803f 0000 803f 0000 803f 0000 803f
00000180: 0000 803f 0000 803f 0000 803f 0000 803f
00000190: 0000 803f 0000 803f 0000 803f 0000 803f
000001a0: 0000 803f 0000 803f 0000 803f 0000 803f
000001b0: 0000 803f 0000 803f 0000 803f 0000 803f
000001c0: 0000 803f 0000 803f 0000 803f 0000 803f
000001d0: 0000 803f 0000 803f 0000 803f 0000 803f

sequential.4.Gamma.weight f4 [70, 120]
0.31895235 -0.49354044 -0.5052403 0.4009089 -0.052257687 -0.14319094 0.007684188 -0.09060922
0.27222693 0.018371262 -0.13485324 0.40412018 0.3434465 0.3256665 0.07886876 0.073964976
0.030177837 0.16085303 0.46219325 0.08610685 0.07953615 0.10756505 0.38843656 0.14009954
0.20416047 -0.09782038 0.037058324 -0.1866267 0.089391686 -0.26951575 0.18448053 -0.0039265566
-0.04184423 -0.19229357 0.2557975 0.55075824 0.15487817 0.33552742 0.4073038 0.12325565
0.19868469 0.44397995 -0.042597838 -0.042533107 0.017021937 0.24472849 0.2528163 0.30987936
0.18688707 0.060883854 0.51588094 0.09477624 0.44293424 -0.0074341795 0.08446286 -0.35572273
0.09956419 -0.0055742227 -0.20048358 0.18835069 0.40198523 0.4070619 -0.0064203637 0.040654883
-0.2178034 -0.24405546 0.43656757 -0.08359822 -0.02029739 0.25715786 -0.31060252 -0.23919697
0.16037104 0.30502087 -0.36712033 -0.11428197 -0.22492658 -0.381018 0.1785928 -0.25312835
0.12731697 0.18791927 -0.023725636 0.22518446 -0.1485212 -0.010375286 -0.33128545 0.43684077
0.07675172 0.097670645 -0.2571435 -0.19055042 -0.1554923 0.82804203 0.16398911 -1.8692273
-0.074594274 -0.0030727664 0.11862944 -0.25093454 -0.32936797 0.4108323 0.23232926 0.25933194
0.11904479 -0.17776734 -0.15655944 0.7331757 -0.399994 0.17356992 0.33000705 -0.25630993
0.042967714 -0.5876123 0.13801455 -0.44627923 0.18431135 -0.56645674 0.094869986 -0.025323221
0.23921563 -0.22770894 -0.16147418 0.016879475 0.21702157 -0.22584443 0.21178116 0.18723363
0.072397545 -0.035649907 0.16851442 0.039040387 -0.28414628 -0.19569966 0.15186913 0.13874252
0.41030312 -0.009758877 0.26372612 0.15125704 0.0023604145 0.250357 0.3783386 -0.03552591
-0.20345488 -0.20622782 -0.41991046 0.012210197 -0.25908735 0.08942186 -0.5857848 0.02383799
0.14627287 0.058547795 0.059715975 0.13086455 -0.10866231 -0.07474056 -0.21455175 -0.08309451
-0.1255903 -0.425306 -0.18468182 0.11416839 -0.17080249 -0.2740558 0.072308384 0.21450308
0.089216046 -0.18223183 0.0320992 -0.2520747 -0.18633449 0.0814913 -0.1485458 0.39001167
-0.1876148 0.05919686 -0.54210496 0.104402296 -0.021572 -0.56410426 0.15848681 -0.96268255
-0.7825195 0.10697245 0.26305127 0.10565733 0.06822042 0.18541147 0.08659765 -0.36511597
-0.32520553 0.08973236 -0.12548463 0.46724302 0.112192236 -0.251927 -0.20775543 -0.3046675
-0.1543694 0.1477183 0.22955723 -0.2657345 0.008283491 0.36802262 0.16743883 -0.018607605
-0.37528786 -0.10300843 0.002902036 -0.5614387 -0.3035007 0.22273831 -0.33402997 -0.3401857
-0.4237189 0.13593557 -0.43193278 -0.10884375 -0.018831598 0.015417662 -0.17542 0.4150189
-0.34933603 -0.1254337 -0.28034467 -0.16085958 -0.50941104 0.20082612 0.106280625 0.17271888
0.014321902 -0.09063767 0.21046247 0.26244915 0.30836895 -0.30945536 0.2739718 0.028008424
-0.18918906 -0.2774999 -0.62413204 -0.16866347 0.12472578 0.115321174 0.37843204 0.15842424
0.16513574 0.2032088 0.33805972 0.0068147806 0.32648605 0.12906702 -0.13660811 -0.009195613
00000000: b94d a33e 55b1 fcbe 6e57 01bf ee43 cd3e
00000010: 280c 56bd a5a0 12be a4cb fb3b 5491 b9bd
00000020: 5461 8b3e 547f 963c f816 0abe d7e8 ce3e
00000030: 38d8 af3e c2bd a63e f285 a13d f37a 973d
00000040: 8337 f73c a8b6 243e 98a4 ec3e ca58 b03d
00000050: d9e3 a23d 114b dc3d 28e1 c63e 4176 0f3e
00000060: 710f 513e 0d56 c8bd 78ca 173d 121b 3fbe
00000070: fd12 b73d f8fd 89be 77e8 3c3e 58aa 80bb
00000080: db64 2bbd 9be8 44be e4f7 823e 7efe 0c3f
00000090: 6298 1e3e 40ca ab3e 208a d03e 756d fc3d
000000a0: 0074 4b3e 5751 e33e 127b 2ebd 3237 2ebd
000000b0: 9771 8b3c 1b9a 7a3e 2371 813e 82a8 9e3e
000000c0: 535f 3f3e 5961 793d c610 043f 0c1a c23d
000000d0: 47c8 e23e 6b9a f3bb ddfa ac3d 4a21 b6be
000000e0: 4fe8 cb3d f8a7 b6bb 914b 4dbe 01df 403e
000000f0: 02d1 cd3e 6b6a d03e ea61 d2bb bc85 263d
00000100: db07 5fbe ade9 79be c985 df3e 8b35 abbd
00000110: b646 a6bc 32aa 833e 4b07 9fbe 0df0 74be
00000120: 4e38 243e b22b 9c3e 32f7 bbbe aa0c eabd
00000130: 2753 66be cb14 c3be 08e1 363e 0a9a 81be
00000140: 615f 023e e96d 403e 445c c2bc c196 663e
00000150: f115 18be 1bfd 29bc 3f9e a9be 98a9 df3e
00000160: 0130 9d3d 8c07 c83d 50a8 83be a61f 43be
00000170: 6039 1fbe 90fa 533f c3ec 273e d742 efbf
00000180: e2c4 98bd 7760 49bb fef3 f23d 7e7a 80be
00000190: eba2 a8be 9c58 d23e b9e7 6d3e 28c7 843e
000001a0: c1cd f33d a408 36be 1e51 20be 67b1 3b3f
000001b0: 03cc ccbe 50bc 313e aff6 a83e 0e3b 83be
000001c0: eafe 2f3d c26d 16bf b053 0d3e b67e e4be
000001d0: 1dbc 3c3e 4f03 11bf 324b c23d a572 cfbc
000001e0: f1f4 743e 882c 69be 7d59 25be d346 8a3c
000001f0: e73a 5e3e c343 67be 29dd 583e 2cba 3f3e
00000200: 2a45 943d a305 12bd 0b8f 2c3e d0e8 1f3d
00000210: 9f7b 91be 7e65 48be 9583 1b3e 8512 0e3e
00000220: 4013 d23e b2e3 1fbc 1c07 873e 20e3 1a3e
00000230: 2fb1 1a3b cb2e 803e 99b5 c13e 9e83 11bd
00000240: 7a56 50be 632d 53be 81fe d6be 470d 483c
00000250: 19a7 84be cf22 b73d fef5 15bf e347 c33c
00000260: 8ec8 153e d0cf 6f3d bd98 743d 5b01 063e
00000270: 588a debd 9411 99bd 74b3 5bbe 742d aabd
00000280: be9a 00be b5c1 d9be 3b1d 3dbe 1ed1 e93d
00000290: d9e6 2ebe 0b51 8cbe 6b16 943d b2a6 5b3e
000002a0: e7b6 b63d fb9a 3abe 737a 033d ef0f 81be
000002b0: 78ce 3ebe e9e4 a63d 641c 18be 9caf c73e
000002c0: 181e 40be 6878 723d 64c7 0abf dfd0 d53d
000002d0: c3b7 b0bc 2369 10bf 5e4a 223e 5d72 76bf
000002e0: 3353 48bf 5f14 db3d a8ae 863e df62 d83d
000002f0: 26b7 8b3d 81dc 3d3e 1c5a b13d 7bf0 babe
00000300: 5781 a6be 99c5 b73d 0b7f 00be 7a3a ef3e
00000310: 0bc5 e53d 93fc 80be d7bd 54be 61fd 9bbe
00000320: 0313 1ebe 7743 173e 0d11 6b3e 5a0e 88be
00000330: 7bb7 073c 766d bc3e 1675 2b3e fa6e 98bc
00000340: bb25 c0be 15f6 d2bd 1630 3e3b 72ba 0fbf
00000350: 7264 9bbe 8315 643e fa05 abbe d22c aebe
00000360: aff1 d8be b232 0b3e 4b26 ddbe 79e9 debd
00000370: b944 9abc 5d9a 7c3c 4da1 33be 5b7d d43e
00000380: 2cdc b2be b171 00be 5689 8fbe 60b8 24be
00000390: c368 02bf 5da5 4d3e a8a9 d93d 38dd 303e
000003a0: 69a6 6a3c 3ea0 b9bd 7983 573e bc5f 863e
000003b0: 89e2 9d3e ef70 9ebe 0846 8c3e ec71 e53c
000003c0: c7ba 41be 7814 8ebe 1ec7 1fbf 1eb6 2cbe
000003d0: 3b70 ff3d 822d ec3d d8c1 c13e f739 223e
000003e0: 5819 293e f815 503e 2a16 ad3e 864e df3b
000003f0: 2e29 a73e 252a 043e ffe2 0bbe 32a9 16bc

sequential.4.Gamma.bias f4 [70]
0.03547459 -0.23232271 -0.04645519 -0.16986595 -0.4030762 -0.62446415 -0.17042741 -0.21262571
0.039168123 0.26617095 -0.04311052 -0.32829803 0.24668077 -0.64894253 0.04436444 -0.48556393
0.048927646 -0.3258643 -0.22889471 -0.309029 -0.3001907 -0.17201301 0.13567169 -0.010089712
-0.22297628 0.044677638 -0.30610356 -0.11242162 -0.116207145 0.15143137 -0.009167532 -0.7032827
-0.44209006 -0.3495837 -0.08799576 -0.012392883 -0.15629622 -0.017912123 -0.13409819 -0.27878815
-0.18077688 -0.498719 -0.28759047 -0.4640753 -0.48480266 -0.05844743 -0.19461672 -0.3191762
-0.13502073 -0.051875614 -0.1357079 -0.6531915 -0.3540557 -0.20439216 0.0842315 -0.3628591
-0.10892308 0.4206218 -0.46827814 -0.23082152 -0.5068457 -0.376867 0.14217949 -0.49322623
-0.2119062 -0.77368057 -0.5021409 -0.12853442 0.34612337 -0.06475015
00000000: ce4d 113d 01e6 6dbe cc47 3ebd 57f1 2dbe
00000010: 0160 cebe e2dc 1fbf 8684 2ebe 8eba 59be
00000020: c16e 203d 8f47 883e a894 30bd ae16 a8be
00000030: e299 7c3e 1921 26bf 7db7 353d d69b f8be
00000040: 5b68 483d afd7 a6be 6063 6abe 0d39 9ebe
00000050: 98b2 99be 2e24 30be 85ed 0a3e 524f 25bc
00000060: e553 64be e6ff 363d 9bb9 9cbe 4e3d e6bd
00000070: 03fe edbd d310 1b3e 6b33 16bc 560a 34bf
00000080: a159 e2be a2fc b2be 1f37 b4bd 850b 4bbc
00000090: 1e0c 20be 72bc 92bc 0951 09be 52bd 8ebe
000000a0: 931d 39be 1958 ffbe 0f3f 93be 479b edbe
000000b0: 0e38 f8be 9366 6fbd 9b49 47be 106b a3be
000000c0: e042 0abe 867b 54bd 03f7 0abe 8f37 27bf
000000d0: ca46 b5be 2e4c 51be 9181 ac3d abc8 b9be
000000e0: 1013 dfbd be5b d73e 27c2 efbe 7a5c 6cbe
000000f0: a4c0 01bf b6f4 c0be 8097 113e 2688 fcbe
00000100: f0fd 58be ee0f 46bf 4e8c 00bf 879e 03be
00000110: 1537 b13e ba9b 84bd
