Models/Z_50GeV_200.pth (torch, 197904 bytes, 36 tensors)

sequential.0.Gamma.weight f4 [80, 5]
000000 39 68 84 3f 41 c2 46 3f 94 31 4a be 9c c1 db 3e
       1.0344306 0.7764016 -0.19745475 0.4292115
000010 da 49 db be 8a 04 1c 3d b4 56 ac 3f ac 4a 8d 3e
       -0.42829782 0.038090266 1.346396 0.27596033
000020 c3 a8 7a be de f6 64 3f 33 6b 29 bf b0 71 35 bf
       -0.2447844 0.8943919 -0.661792 -0.708766
000030 2e fb d2 be 03 82 89 3e 0c 80 88 bf 11 8c c5 bd
       -0.4120726 0.26857004 -1.0664077 -0.09645856
000040 43 c1 63 3f 87 2a b4 be 5b d9 e3 3e c0 fa 72 bf
       0.8896677 -0.35188696 0.44501767 -0.94913864
000050 4e 41 ec 3f 2a d2 8e bf cd ee b3 bc 93 a3 b8 be
       1.845743 -1.1157887 -0.021964455 -0.36062297
000060 78 33 37 be b3 c9 18 bf 88 2e c5 3e e6 af e1 3e
       -0.17890728 -0.5968277 0.38512063 0.44079512
000070 2f e3 4e be a4 ee 44 3f 67 7a 66 3e a4 52 11 3f
       -0.20203851 0.76926637 0.2250763 0.56766725
000080 f6 8e 95 bf d1 86 fa 3e bd f6 57 bf ab 51 69 3e
       -1.1684253 0.48930982 -0.8436087 0.2278506
000090 93 b0 05 3f 38 7e 7e bf 38 74 a2 3c 93 d4 2d bf
       0.52222556 -0.99411345 0.019830808 -0.6790249
0000a0 05 80 a1 be 9f f6 1f 3b 5a fe 59 bf 45 58 0d be
       -0.31542984 0.0024408472 -0.85153735 -0.13803203
0000b0 cb 4a ab 3f 40 91 14 3f c7 ec 92 bd ea c5 9f 3c
       1.33822 0.58034134 -0.07174068 0.019503552
0000c0 a5 f9 d5 3d 86 0f 98 bf b6 6f ab 3e e7 01 ee 3d
       0.104480065 -1.1879737 0.33483666 0.116214566
0000d0 c5 b5 5f 3b 70 84 bd bf cc da ce 3e ad c0 4e 3f
       0.0034135443 -1.4806042 0.40401304 0.8076275
0000e0 02 8f 42 be d3 6b 84 3d 2e b8 8a 3d ab 73 5f be
       -0.18999866 0.06465878 0.06773411 -0.21821468
0000f0 7a e3 03 3f 73 cb 8f 3e 01 6e 38 bf 72 d5 b1 3f
       0.51518977 0.28084907 -0.7204285 1.3893263
000100 11 35 f3 be 7e b8 d2 3f 8b f4 89 3f a9 05 6a bf
       -0.47501424 1.6462553 1.0777754 -0.91414887
000110 21 cd 7d 3f ac 6a 26 bf da 0f a0 be 65 ce dd be
       0.99141127 -0.6500652 -0.31262094 -0.4332153
000120 fd 39 fe 3d c7 51 b2 3f 7d 5e 25 bf 5d da 30 bf
       0.12413404 1.3931206 -0.645973 -0.69083196
000130 c4 bb da 3c 40 d4 ce 3e 98 5a 5a 3f 1e 22 4c bf
       0.026700862 0.4039631 0.85294485 -0.7973956
000140 b6 76 bc 3f 99 93 cc 3f 4c e1 11 3f 35 2e 1c 3e
       1.4723728 1.5982543 0.569844 0.15252002
000150 23 71 c4 be 41 31 6b 3d 19 1b a6 3f 00 6a cc bd
       -0.38367566 0.05742002 1.297702 -0.099811554
000160 42 ec 59 bc f1 e4 11 3e 62 b7 11 be 6b 71 fb bd
       -0.013300957 0.1424749 -0.14230111 -0.12277492
000170 36 13 23 3f 0d fc 09 bf 2d 38 e1 be 3c 62 31 bf
       0.6370119 -0.53900224 -0.4398817 -0.6929052
000180 ae c2 6a 3e f7 19 dd 3d 6b cf 72 3f c2 2c fc bc
       0.22925827 0.10795968 0.94847745 -0.030783061
000190 9a 28 78 bf 66 c8 10 3e 61 d5 c0 3e 34 78 12 be
       -0.96936953 0.14138946 0.37662795 -0.14303666
0001a0 04 76 b1 3e e9 1d 93 3e d9 ad b8 be a9 c9 9a be
       0.3466035 0.28733757 -0.36070135 -0.3023198
0001b0 bf 9f c0 bb 0d 68 2d 3e ef ac c7 3f 4c a9 56 3e
       -0.005878418 0.16934223 1.559965 0.20963019
0001c0 fc ab 03 be 99 bf 73 3f 33 ea ad 3e 9c fb 30 bf
       -0.12858576 0.9521423 0.33967742 -0.69133925
0001d0 c2 b0 d2 3e 26 53 b3 be 46 4d c6 3f da da 36 3f
       0.4115048 -0.35024375 1.5492332 0.7142769
0001e0 69 b0 a9 3e 92 1f 9c bc 78 10 06 bf 2a 6e 0c bf
       0.33142403 -0.019058023 -0.5236888 -0.54855597
0001f0 d8 a2 7b 3f 08 f4 c3 3e 79 dc 4b be 54 6a 80 be
       0.98295355 0.3827212 -0.19908322 -0.25081122
000200 24 43 e1 be c3 b5 91 3e 37 2c b7 3f 1c 82 dc bf
       -0.43996537 0.28458986 1.4310368 -1.7227206
000210 2d 12 cc be f4 c8 9e 3c 2a 1a fe 3e 91 3c 3f 3f
       -0.39857617 0.019382931 0.49629337 0.7470179
000220 84 ab 5d bd c6 14 a1 3e 65 e5 5b 3f 8b ac db be
       -0.05411865 0.3146116 0.85896903 -0.42905077
000230 79 1b 94 3f 44 fe 90 3f 9b ee dd bd dd 1c 1f 3f
       1.1570884 1.1327596 -0.10836526 0.62153417
000240 57 ff e9 3d 36 48 bf 3f 5a a1 41 3f e3 f7 19 3f
       0.11425655 1.4943912 0.7563683 0.6014387
000250 ab 49 8c 3e e1 8b d7 3f f2 79 25 3d 7a 53 1d bf
       0.27399954 1.6839563 0.0403995 -0.614555
000260 89 39 9a 3f 98 55 12 3f 31 88 a8 bf 46 b3 34 be
       1.2048808 0.57161856 -1.3166562 -0.17646512
000270 7a 24 44 3e f7 7a aa be 71 8e 8f 3f ee 68 89 3e
       0.1915454 -0.3329694 1.1215345 0.26837867
000280 e9 00 c1 3e 99 c2 99 3f f7 35 e4 be 90 88 d2 3e
       0.37696007 1.2012511 -0.44572422 0.41119814
000290 b5 e9 49 be 9f 8b 79 be e1 f8 d1 3d 08 15 70 3d
       -0.19718058 -0.24369667 0.10252548 0.058613807
0002a0 68 86 ad bd 3c 5a aa 3f ea eb f5 3e 00 fd 07 bf
       -0.084729016 1.3308787 0.4803155 -0.5312042
0002b0 97 d6 da 3e b9 5d b4 bf 92 9c ea be 83 f6 b1 3e
       0.42741844 -1.4091102 -0.4582258 0.34758386
0002c0 b1 d2 3f bf 33 2d 9e be 90 78 45 3f 71 c5 eb 3e
       -0.74930865 -0.3089386 0.7713709 0.46049073
0002d0 44 7c fe 3d fb 76 11 c0 9f 27 9e 3f 97 56 76 3f
       0.124260455 -2.272887 1.2355841 0.96225876
0002e0 d5 a1 38 3d 86 2a bc 3e 6d 82 20 bf 11 ee b6 bf
       0.04507621 0.36751193 -0.62699014 -1.4291402
0002f0 f3 74 09 bf f4 e1 38 3f cc 2d 90 3f a2 f6 08 bf
       -0.53694075 0.7221978 1.1263976 -0.5350133
000300 a8 77 af 3e 17 ca 03 c0 8e 4d c6 3d 3a 0a 2e 3d
       0.34270978 -2.0592096 0.09682761 0.04249022
000310 cf a3 b5 3f 30 9b 32 be 22 96 55 bf ae 58 3c 3f
       1.4190615 -0.17442012 -0.8343221 0.73572814
000320 88 a8 e7 be de 1b f2 3e 4f 9b 64 be ee fa 85 be
       -0.45245767 0.47286886 -0.2232487 -0.26168007
000330 57 9a 99 be 63 05 00 40 81 4a 00 bf 02 e3 88 bf
       -0.30000564 2.0003288 -0.50113684 -1.0694277
000340 48 22 63 be af f4 82 be 77 69 53 3f e0 e0 c5 3e
       -0.22181046 -0.25577304 0.825828 0.38648129
000350 c6 51 db bc 9a 84 96 3f 8a cb 4e bf f7 92 73 3f
       -0.026772391 1.1759217 -0.80779326 0.95146126
000360 33 f2 69 3e 6d ae 6e bf 3d 06 2c be 10 ac 56 3f
       0.22846298 -0.932349 -0.16799255 0.83856297
000370 8c 73 88 be 9a ef 96 3f 4d 58 14 3f de fe 90 3f
       -0.26650655 1.179187 0.57947236 1.1327779
000380 1d ef ba bc 75 8a 9a 3f 14 82 a5 bf e6 0b 03 bd
       -0.022819096 1.2073504 -1.2930322 -0.03199377
000390 c2 51 f8 3d d3 75 4d 3e 42 9d a3 bf 21 a7 80 be
       0.12124969 0.20064478 -1.2782366 -0.2512751
0003a0 e9 0f 39 be 3b 52 45 3f 01 27 04 bf 2b 97 95 3e
       -0.18072475 0.770786 -0.51622015 0.29216895
0003b0 71 96 27 3f 3a fa 01 bf e3 af dd bf 41 51 09 3f
       0.6546393 -0.5077244 -1.7319301 0.5363961
0003c0 19 eb de be 73 9d 3f 3f aa c9 0f bf 55 4e 18 bf
       -0.4353874 0.74849623 -0.5616709 -0.59494525
0003d0 ef bf 4c 3f 6b e8 51 3e 57 09 2a be 3b b7 a0 be
       0.7998037 0.20498817 -0.16605125 -0.31389794
0003e0 b8 e4 70 bf 0b 52 b3 3f 46 3f ab bf 0a bc 82 bd
       -0.94099 1.4009413 -1.3378685 -0.06383522
0003f0 07 9c e8 be 14 7f 8c 3f f7 ae 24 3f 1f 01 8e 3f
       -0.4543154 1.0976281 0.64329475 1.1094092

sequential.0.Gamma.bias f4 [80]
000000 b2 e2 66 be bf 6c b5 be 25 97 18 bf 82 65 a4 be
       -0.22547415 -0.3543453 -0.5960563 -0.32108694
000010 25 0b b4 bc 7f b2 8d bd fe 30 07 bf 81 0b 8a be
       -0.02197797 -0.06918811 -0.5280913 -0.26961902
000020 ac 72 35 bd a9 fd e1 be 85 e6 59 be f1 70 a5 bd
       -0.044298813 -0.4413884 -0.21279342 -0.080781825
000030 4b 7d be bd 5d 52 dd be 2f 12 c4 3d 2a 1c a6 be
       -0.093012415 -0.432269 0.09573781 -0.32443362
000040 b0 94 84 3e 04 d0 c8 be 20 a8 71 be e3 d5 51 3e
       0.2589469 -0.39221203 -0.23599291 0.20491748
000050 15 ea 10 bb de 7b f2 3d 96 69 3d 3f cd df 3c be
       -0.002211218 0.11840032 0.73989236 -0.18444748
000060 bd ac e9 be bb 8f 59 bd 28 79 db bd a6 d5 71 3e
       -0.456396 -0.053115588 -0.10716468 0.23616657
000070 e0 91 6d 3c 45 4c 67 3f 98 8f d5 3d fe 3d b8 be
       0.014500111 0.90350753 0.10427779 -0.35984796
000080 c8 3f 72 3d 04 5c 3d bd d9 b8 9c bc 74 28 cd be
       0.059142858 -0.04623033 -0.019131111 -0.40069926
000090 13 6e 83 bd fd 01 81 bb ee 02 c0 bc 32 15 17 be
       -0.06417479 -0.0039370046 -0.023438897 -0.14754179
0000a0 f5 5a 25 be fb a8 ab bd 5c 9a 58 be e7 3f 6a 3e
       -0.16147979 -0.0838184 -0.21152633 0.2287594
0000b0 14 2f a1 be 95 7c de 3e c5 c5 4e be b9 13 57 bd
       -0.3148123 0.43454424 -0.2019263 -0.052509043
0000c0 37 cd 42 bd d3 71 0d be 55 2e 03 bf 26 b2 03 be
       -0.04755899 -0.13812952 -0.5124257 -0.12860927
0000d0 f1 a4 9a bd 75 cb 99 3e dc d1 00 bf b0 2a ab be
       -0.07550991 0.30038038 -0.5032022 -0.33431005
0000e0 0d 5b 93 be b4 81 8b be 72 ac 83 be 1b a5 c2 3d
       -0.28780404 -0.27247393 -0.25717503 0.095041476
0000f0 7a 52 19 bd af f4 75 be 13 12 18 bf 84 1e db be
       -0.03743217 -0.2401912 -0.5940258 -0.4279672
000100 06 cb 74 be f0 54 0a 3e 9d c4 8b be c6 bd 0d bf
       -0.23905572 0.13508964 -0.27298442 -0.55367696
000110 11 30 c5 be 64 24 b9 bc 8c 1c 89 be 62 db 05 be
       -0.38513234 -0.02260036 -0.26779592 -0.13071969
000120 ba dc 3d 3e ea 8f b2 3d 6e 1a 7b 3e 8e 9f 4c be
       0.18541232 0.08718856 0.24521801 -0.1998274
000130 ee 52 1a 3e 40 4a ba be 3e 17 f8 be 83 d7 bb bd
       0.15070698 -0.36384773 -0.48455232 -0.09171965

sequential.0.Lambda.weight f4 [80, 5]
000000 03 3d ec bd e5 ec 7f 3e aa 58 6f be 06 dc 48 be
       -0.115350746 0.24992712 -0.23373666 -0.19615182
000010 e3 36 93 3e 45 52 f4 be 6e 87 35 bf b8 2b 85 bf
       0.28752813 -0.47719017 -0.70909774 -1.0403967
000020 87 3f 70 3e 3a f6 a6 be 52 9e f3 3d 78 b0 1e bf
       0.23461734 -0.3260973 0.118954316 -0.6198802
000030 78 6c 66 be ed dc e2 3e ef 2f 18 3f 1e 21 cd 3e
       -0.22502315 0.44309178 0.5944814 0.4006433
000040 43 8e 10 3f b7 30 10 bf a7 37 37 be c7 4c 00 bf
       0.56467074 -0.5632433 -0.17892323 -0.5011715
000050 85 0e 4c bf ee a4 18 3f 31 ab 8c bd b1 0e b0 3d
       -0.79709655 0.5962666 -0.0686859 0.08596552
000060 7d ab ea 3d 6b 59 bd 3e b8 22 45 bf c5 61 d2 be
       0.1145849 0.36982283 -0.770061 -0.41090217
000070 b5 be b0 3e 8c 73 f3 be e9 6f a3 3e 19 cd b5 be
       0.34520498 -0.47549093 0.31921318 -0.3550804
000080 2a b5 97 bf 86 85 3d 3e 17 3c 83 3f fd 86 0e bf
       -1.1852162 0.18507966 1.0252713 -0.55674726
000090 fd 6e 3c 3e fe 1d 63 3f aa bb 6c be 91 18 05 3f
       0.18401714 0.8871764 -0.23118463 0.5199061
0000a0 62 d2 19 bf 9c be 24 bf ef 25 19 3e ed c1 4b 3f
       -0.60086644 -0.64353347 0.14955877 0.7959278
0000b0 15 98 89 3e e9 a5 c9 3d 0d e4 91 3e 8f 00 e8 3e
       0.26873842 0.09846098 0.284943 0.45312926
0000c0 9a a5 ed bd 90 a4 b8 bd 7f 79 ac be 09 39 ea 3e
       -0.116038516 -0.09015763 -0.33686444 0.4574664
0000d0 22 f7 06 3f df cf 8e 3e dc 33 78 bf cf 93 64 3e
       0.52720845 0.27892968 -0.9695413 0.2232201
0000e0 6d 29 95 3f f4 09 bf be 81 1c b7 bd 25 be 97 bf
       1.1653267 -0.3731228 -0.089409836 -1.1854903
0000f0 f0 6f 29 3f d5 db 83 bf 38 79 a5 3e af b3 19 c0
       0.6618643 -1.0301462 0.32319045 -2.401592
000100 c3 cb 74 3f 54 b7 af 3d ac c9 6d be aa 09 61 3f
       0.95623416 0.08579889 -0.23221463 0.8790537
000110 92 d6 51 3d ab 2c 4f bf d1 6d 0c be 2b 2a 60 bf
       0.05123002 -0.8092753 -0.13713767 -0.87564343
000120 30 9b 96 3f f7 32 2a 3f 06 e7 50 bf 89 ac 12 bf
       1.176611 0.66484016 -0.81602514 -0.5729452
000130 75 da 8b 3e d1 61 16 3f 68 f2 82 bf cb 03 1c 3e
       0.27315107 0.58743006 -1.0230227 0.15235822
000140 0b c5 d7 3d a9 60 81 bd 53 7b 3b 3f f9 3e a9 bd
       0.1053563 -0.063172646 0.7323505 -0.08263964
000150 83 27 4a bf 98 60 82 bf 30 a7 87 bf c1 36 07 bf
       -0.7896654 -1.0185728 -1.0597897 -0.5281792
000160 0d 4a 3c 3f 3d 50 8c 3e 58 a6 92 be aa 44 4d 3f
       0.7355049 0.27404967 -0.28642535 0.801829
000170 5a f9 3e 3f 30 7c 04 bf 51 03 0f be b1 7a 20 3f
       0.7459923 -0.51751995 -0.13966109 0.6268721
000180 7e bd d0 3e 53 cb 3e be d7 a2 8b bf fb 7d a3 be
       0.4076957 -0.1863225 -1.090907 -0.31932053
000190 81 6c 5e 3e a2 c0 36 3f 32 f5 0e bf 09 d6 5d 3e
       0.21721078 0.71387684 -0.5584289 0.21663679
0001a0 39 05 10 bf 0b 59 2e 3f ec a4 d5 3d 72 10 86 bf
       -0.5625797 0.6810462 0.10431847 -1.0473769
0001b0 2d 9a 80 3e d2 fd 09 be 19 70 14 be f3 0a 3a 3e
       0.25117627 -0.13475731 -0.14495887 0.1816824
0001c0 b0 4f 7a 3c 11 40 05 bf 65 5a 03 3f 6d 9e f1 3e
       0.015277788 -0.5205088 0.51309806 0.47191182
0001d0 2a 54 6f be 73 7b a7 bf 07 22 08 40 84 1e 0f bf
       -0.2337195 -1.3084549 2.1270769 -0.5590594
0001e0 da 12 0a 3f 8a 4b 61 bf 9a 73 57 3f 3d 8e 97 be
       0.53935015 -0.8800589 0.8416077 -0.29600707
0001f0 49 41 89 be d0 5a 52 3f 18 07 26 bf ea 08 a7 3e
       -0.2680762 0.8216982 -0.64854574 0.32623988
000200 d0 50 4a 3e 92 c8 ce be 59 6f 0c 3f bb 39 88 bd
       0.1975739 -0.40387398 0.54857403 -0.06651636
000210 5a 40 41 be fb 3c 01 bd b5 c9 5b be 42 5e 24 bf
       -0.18872204 -0.031552296 -0.21463664 -0.64206326
000220 ba a3 ea 3d 26 8a 5b 3f ec 66 45 bf df fc 93 3e
       0.114570096 0.8575767 -0.7711017 0.28903863
000230 21 cb 39 3e 48 78 5f 3e e9 7b 3b 3e 30 45 c6 3c
       0.18143894 0.21823227 0.18308987 0.024202913
000240 72 c1 2a bf 64 c9 91 bd 83 2f 23 be 9b b3 81 be
       -0.66701424 -0.0711849 -0.15936093 -0.2533234
000250 6c be 7a 3f dc 43 bf be 59 d5 0b bf 69 b6 ff bc
       0.9794681 -0.3735646 -0.5462242 -0.03121491
000260 08 e0 c6 3e e8 07 d6 3e 20 cb 0d be f0 91 61 bf
       0.38842797 0.41802907 -0.13847017 -0.8811331
000270 a8 be 93 3d d7 e4 17 bf a4 3f 2b 3e 50 99 cd bd
       0.07214099 -0.59333557 0.16723496 -0.10039008
000280 78 62 d2 3e 66 6c d1 be 07 34 d5 3d b8 4a bd be
       0.4109075 -0.40903014 0.10410314 -0.36971068
000290 d1 b4 d3 3e 67 d3 17 3e 29 44 f4 bd 84 16 77 bf
       0.4134889 0.14826737 -0.11927063 -0.9651873
0002a0 a9 6c 5d be ba 4f 61 3f 43 c9 fe bd 0a 31 b3 3e
       -0.21623482 0.8801228 -0.124407314 0.3499835
0002b0 40 ad 84 3f dc 0e a0 be 13 4a 22 bf 27 4e 99 be
       1.0365372 -0.31261337 -0.6339428 -0.29942438
0002c0 27 e7 ee 3e 18 a4 34 bf 12 d9 b7 be b9 37 46 3d
       0.4666073 -0.7056289 -0.359078 0.048392985
0002d0 4d 76 03 3f 17 6a a3 3e dc be 94 bf 4f 29 97 3f
       0.5135239 0.31916878 -1.1620746 1.1809481
0002e0 f8 e8 1c bf c1 fc 30 3f 6a 40 02 3c aa 2a b0 3e
       -0.6129298 0.6913567 0.007949928 0.3440755
0002f0 06 90 a7 bd a1 43 87 3e fe 95 26 3e 9b 80 bd 3e
       -0.08181767 0.26418784 0.16268155 0.3701218
000300 54 68 d4 be 50 19 59 bf 74 8c 20 3f e3 81 1a bf
       -0.41485846 -0.8480425 0.62714314 -0.6035444
000310 5a aa b3 3f 4f d5 9c 3d 26 d1 ec be 59 7e fe be
       1.4036362 0.07657873 -0.46253318 -0.4970577
000320 bb ee 65 be cd 54 d9 3e a6 41 37 3e a4 a0 a7 3e
       -0.2245435 0.4244751 0.17896137 0.32739747
000330 16 8b 21 be 1d d2 87 3e 62 16 7d bf 4f af d3 3e
       -0.15775713 0.2652749 -0.9886228 0.41344687
000340 d8 bf 55 3e a4 11 71 3d 95 b9 81 bf af ba 13 3e
       0.20873964 0.058854714 -1.013476 0.14426683
000350 b0 74 48 3f 7d d9 2f 3f 5a d2 7e be 13 e2 34 bf
       0.7830305 0.68691236 -0.2488493 -0.7065746
000360 ef 49 80 3d 40 92 e7 3e 81 de 88 3e 81 20 03 be
       0.06264102 0.45228767 0.26732257 -0.12805368
000370 4d d7 09 bf f8 b3 28 bf 1b 5b 3e 3e a4 dc fe bb
       -0.5384415 -0.6589961 0.18589441 -0.0077777673
000380 ad 09 e0 ba 62 ad 7e 3f 65 19 1a bf 8f fb 4d be
       -0.0017092727 0.9948331 -0.60195 -0.20115493
000390 85 43 6d 3d d7 a0 d3 be b3 b3 89 3e d3 cc f0 3e
       0.05792572 -0.4133365 0.26894912 0.47031268
0003a0 65 41 17 3f 18 d6 2b be d4 5e 61 bf 24 ea 11 3f
       0.5908416 -0.16780889 -0.8803532 0.56997895
0003b0 b5 98 91 bf 82 57 12 3c 4f a1 8c 3f a6 87 d1 bd
       -1.1374727 0.008931996 1.0986727 -0.10230951
0003c0 59 06 df 3e ef b1 2c 3f 8e 81 df bf 13 26 53 3f
       0.4355953 0.67459005 -1.7461412 0.8247997
0003d0 44 b9 d1 3e 68 a2 0f 3f da bd ba be db 5a 7f 3e
       0.4096166 0.5610719 -0.3647297 0.24937002
0003e0 57 12 6c bf 32 bb 8a 3e ae 8e 90 bf 72 1c 41 be
       -0.92215484 0.27095944 -1.1293542 -0.18858507
0003f0 e5 34 32 3f 24 2b 16 3f 57 a1 82 3b be 96 43 3f
       0.6961196 0.5865958 0.0039865184 0.7640189

sequential.0.Lambda.bias f4 [80]
000000 b2 e2 66 be bf 6c b5 be 25 97 18 bf 82 65 a4 be
       -0.22547415 -0.3543453 -0.5960563 -0.32108694
000010 25 0b b4 bc 7f b2 8d bd fe 30 07 bf 81 0b 8a be
       -0.02197797 -0.06918811 -0.5280913 -0.26961902
000020 ac 72 35 bd a9 fd e1 be 85 e6 59 be f1 70 a5 bd
       -0.044298813 -0.4413884 -0.21279342 -0.080781825
000030 4b 7d be bd 5d 52 dd be 2f 12 c4 3d 2a 1c a6 be
       -0.093012415 -0.432269 0.09573781 -0.32443362
000040 b0 94 84 3e 04 d0 c8 be 20 a8 71 be e3 d5 51 3e
       0.2589469 -0.39221203 -0.23599291 0.20491748
000050 15 ea 10 bb de 7b f2 3d 96 69 3d 3f cd df 3c be
       -0.002211218 0.11840032 0.73989236 -0.18444748
000060 bd ac e9 be bb 8f 59 bd 28 79 db bd a6 d5 71 3e
       -0.456396 -0.053115588 -0.10716468 0.23616657
000070 e0 91 6d 3c 45 4c 67 3f 98 8f d5 3d fe 3d b8 be
       0.014500111 0.90350753 0.10427779 -0.35984796
000080 c8 3f 72 3d 04 5c 3d bd d9 b8 9c bc 74 28 cd be
       0.059142858 -0.04623033 -0.019131111 -0.40069926
000090 13 6e 83 bd fd 01 81 bb ee 02 c0 bc 32 15 17 be
       -0.06417479 -0.0039370046 -0.023438897 -0.14754179
0000a0 f5 5a 25 be fb a8 ab bd 5c 9a 58 be e7 3f 6a 3e
       -0.16147979 -0.0838184 -0.21152633 0.2287594
0000b0 14 2f a1 be 95 7c de 3e c5 c5 4e be b9 13 57 bd
       -0.3148123 0.43454424 -0.2019263 -0.052509043
0000c0 37 cd 42 bd d3 71 0d be 55 2e 03 bf 26 b2 03 be
       -0.04755899 -0.13812952 -0.5124257 -0.12860927
0000d0 f1 a4 9a bd 75 cb 99 3e dc d1 00 bf b0 2a ab be
       -0.07550991 0.30038038 -0.5032022 -0.33431005
0000e0 0d 5b 93 be b4 81 8b be 72 ac 83 be 1b a5 c2 3d
       -0.28780404 -0.27247393 -0.25717503 0.095041476
0000f0 7a 52 19 bd af f4 75 be 13 12 18 bf 84 1e db be
       -0.03743217 -0.2401912 -0.5940258 -0.4279672
000100 06 cb 74 be f0 54 0a 3e 9d c4 8b be c6 bd 0d bf
       -0.23905572 0.13508964 -0.27298442 -0.55367696
000110 11 30 c5 be 64 24 b9 bc 8c 1c 89 be 62 db 05 be
       -0.38513234 -0.02260036 -0.26779592 -0.13071969
000120 ba dc 3d 3e ea 8f b2 3d 6e 1a 7b 3e 8e 9f 4c be
       0.18541232 0.08718856 0.24521801 -0.1998274
000130 ee 52 1a 3e 40 4a ba be 3e 17 f8 be 83 d7 bb bd
       0.15070698 -0.36384773 -0.48455232 -0.09171965

sequential.0.bn.running_mean f4 [80]
000000 00 00 00 00 00 00 00 00 00 00 00 00 00 00 00 00
       0.0 0.0 0.0 0.0
000010 00 00 00 00 00 00 00 00 00 00 00 00 00 00 00 00
       0.0 0.0 0.0 0.0
000020 00 00 00 00 00 00 00 00 00 00 00 00 00 00 00 00
       0.0 0.0 0.0 0.0
000030 00 00 00 00 00 00 00 00 00 00 00 00 00 00 00 00
       0.0 0.0 0.0 0.0
000040 00 00 00 00 00 00 00 00 00 00 00 00 00 00 00 00
       0.0 0.0 0.0 0.0
000050 00 00 00 00 00 00 00 00 00 00 00 00 00 00 00 00
       0.0 0.0 0.0 0.0
000060 00 00 00 00 00 00 00 00 00 00 00 00 00 00 00 00
       0.0 0.0 0.0 0.0
000070 00 00 00 00 00 00 00 00 00 00 00 00 00 00 00 00
       0.0 0.0 0.0 0.0
000080 00 00 00 00 00 00 00 00 00 00 00 00 00 00 00 00
       0.0 0.0 0.0 0.0
000090 00 00 00 00 00 00 00 00 00 00 00 00 00 00 00 00
       0.0 0.0 0.0 0.0
0000a0 00 00 00 00 00 00 00 00 00 00 00 00 00 00 00 00
       0.0 0.0 0.0 0.0
0000b0 00 00 00 00 00 00 00 00 00 00 00 00 00 00 00 00
       0.0 0.0 0.0 0.0
0000c0 00 00 00 00 00 00 00 00 00 00 00 00 00 00 00 00
       0.0 0.0 0.0 0.0
0000d0 00 00 00 00 00 00 00 00 00 00 00 00 00 00 00 00
       0.0 0.0 0.0 0.0
0000e0 00 00 00 00 00 00 00 00 00 00 00 00 00 00 00 00
       0.0 0.0 0.0 0.0
0000f0 00 00 00 00 00 00 00 00 00 00 00 00 00 00 00 00
       0.0 0.0 0.0 0.0
000100 00 00 00 00 00 00 00 00 00 00 00 00 00 00 00 00
       0.0 0.0 0.0 0.0
000110 00 00 00 00 00 00 00 00 00 00 00 00 00 00 00 00
       0.0 0.0 0.0 0.0
000120 00 00 00 00 00 00 00 00 00 00 00 00 00 00 00 00
       0.0 0.0 0.0 0.0
000130 00 00 00 00 00 00 00 00 00 00 00 00 00 00 00 00
       0.0 0.0 0.0 0.0

sequential.0.bn.running_var f4 [80]
000000 00 00 80 3f 00 00 80 3f 00 00 80 3f 00 00 80 3f
       1.0 1.0 1.0 1.0
000010 00 00 80 3f 00 00 80 3f 00 00 80 3f 00 00 80 3f
       1.0 1.0 1.0 1.0
000020 00 00 80 3f 00 00 80 3f 00 00 80 3f 00 00 80 3f
       1.0 1.0 1.0 1.0
000030 00 00 80 3f 00 00 80 3f 00 00 80 3f 00 00 80 3f
       1.0 1.0 1.0 1.0
000040 00 00 80 3f 00 00 80 3f 00 00 80 3f 00 00 80 3f
       1.0 1.0 1.0 1.0
000050 00 00 80 3f 00 00 80 3f 00 00 80 3f 00 00 80 3f
       1.0 1.0 1.0 1.0
000060 00 00 80 3f 00 00 80 3f 00 00 80 3f 00 00 80 3f
       1.0 1.0 1.0 1.0
000070 00 00 80 3f 00 00 80 3f 00 00 80 3f 00 00 80 3f
       1.0 1.0 1.0 1.0
000080 00 00 80 3f 00 00 80 3f 00 00 80 3f 00 00 80 3f
       1.0 1.0 1.0 1.0
000090 00 00 80 3f 00 00 80 3f 00 00 80 3f 00 00 80 3f
       1.0 1.0 1.0 1.0
0000a0 00 00 80 3f 00 00 80 3f 00 00 80 3f 00 00 80 3f
       1.0 1.0 1.0 1.0
0000b0 00 00 80 3f 00 00 80 3f 00 00 80 3f 00 00 80 3f
       1.0 1.0 1.0 1.0
0000c0 00 00 80 3f 00 00 80 3f 00 00 80 3f 00 00 80 3f
       1.0 1.0 1.0 1.0
0000d0 00 00 80 3f 00 00 80 3f 00 00 80 3f 00 00 80 3f
       1.0 1.0 1.0 1.0
0000e0 00 00 80 3f 00 00 80 3f 00 00 80 3f 00 00 80 3f
       1.0 1.0 1.0 1.0
0000f0 00 00 80 3f 00 00 80 3f 00 00 80 3f 00 00 80 3f
       1.0 1.0 1.0 1.0
000100 00 00 80 3f 00 00 80 3f 00 00 80 3f 00 00 80 3f
       1.0 1.0 1.0 1.0
000110 00 00 80 3f 00 00 80 3f 00 00 80 3f 00 00 80 3f
       1.0 1.0 1.0 1.0
000120 00 00 80 3f 00 00 80 3f 00 00 80 3f 00 00 80 3f
       1.0 1.0 1.0 1.0
000130 00 00 80 3f 00 00 80 3f 00 00 80 3f 00 00 80 3f
       1.0 1.0 1.0 1.0

sequential.2.Gamma.weight f4 [120, 80]
000000 76 f5 00 3f d1 09 32 bd 2d 9d d3 3e f5 6e 16 3c
       0.50374544 -0.043466393 0.41330853 0.009181728
000010 9c 45 9a 3d 0b 8a da bd eb 54 01 3e dc d2 e4 3e
       0.07532808 -0.10670861 0.1263005 0.44692123
000020 87 bf c3 3e 24 66 5f bb 64 62 05 bd ae 63 96 be
       0.3823206 -0.003408798 -0.032564536 -0.29372925
000030 c4 78 0c 3e b4 4c 46 3f e4 fd 54 be 16 a4 07 bf
       0.13717943 0.7746079 -0.20799977 -0.5298475
000040 01 d7 29 bf 37 6a ae 3d f0 6e ff be a3 9c 9c 3e
       -0.66343695 0.085163526 -0.49889326 0.30588254
000050 92 85 b6 bd ca 8f 9e 3e e0 d3 f6 3e f9 77 02 3f
       -0.08912195 0.30969077 0.48208523 0.50964314
000060 32 1c 94 bc 70 fc 91 bd b5 37 6b 3e 37 10 97 be
       -0.01807985 -0.07128227 0.2297047 -0.29504558
000070 23 69 5e 3e d3 d4 58 3e de 62 23 bf c5 b2 6a 3e
       0.21719794 0.21174936 -0.63822734 0.22919758
000080 b0 8f 4b 3d 7c c4 11 3f d1 53 64 bf 69 64 5f be
       0.049697578 0.56940436 -0.89190394 -0.21815647
000090 96 e4 3a be de 13 71 3d 73 6e 3d be 97 63 80 3d
       -0.18251261 0.058856837 -0.18499164 0.06268995
0000a0 75 e9 68 be 00 0f 0f 3f 10 a1 b7 3d cc 22 dd 3e
       -0.22745307 0.55882263 0.08966267 0.4319061
0000b0 af ff 63 be c1 08 4f 3e 83 31 97 bf 06 f1 40 be
       -0.22265504 0.20218183 -1.1811985 -0.18841943
0000c0 00 67 9c 3e 9c 6d 8e 3e 58 9b 18 bd 0c e1 e8 be
       0.30547333 0.27818 -0.037257522 -0.45484197
0000d0 bb 2c c4 be 7b ce 81 be 83 f1 bd 3e 68 14 ea 3d
       -0.38315377 -0.25352845 0.3709832 0.114296734
0000e0 33 cc 7a 3d 12 35 c6 3e d1 3d 08 3e 75 86 97 bd
       0.061229896 0.38712364 0.13304831 -0.073986925
0000f0 da 8c bb be 19 a7 10 3f 19 7d a2 3e 19 83 98 bf
       -0.366309 0.5650497 0.31736067 -1.1915008
000100 f4 c6 3a 3e 5c 12 08 3e 0b 9c 6f 3e d5 ca 15 be
       0.18239957 0.13288254 0.2339937 -0.14628156
000110 9e a7 bd 3e 39 52 ab bd 05 d8 87 bd db 77 82 be
       0.37041944 -0.08365292 -0.06632999 -0.25482067
000120 b1 1d 4d 3e 15 7a cd 3d 10 ad fa bf c2 35 f3 bb
       0.20030858 0.10033051 -1.9584064 -0.00742218
000130 ab dd 8e be 2e 81 c4 3d 26 73 15 3e 5c da f9 be
       -0.27903494 0.095949516 0.14594707 -0.48799407
000140 60 be 8d 3d 79 ea 49 3f 78 61 80 bf 1f 5b aa be
       0.06921077 0.788734 -1.0029745 -0.33272645
000150 e0 d3 7c 3d 6e 92 2e bf 4c a1 0c 3c 4a a5 91 3e
       0.061725497 -0.68192184 0.008583378 0.28446418
000160 86 4c 95 39 39 fb 98 bd 15 59 dc be 56 93 bf be
       0.0002847651 -0.07469792 -0.43036714 -0.37417096
000170 de a1 9a 3e 8c f6 a1 be 70 26 c6 3c 5e 96 19 3e
       0.3020162 -0.31633413 0.02418825 0.14998767
000180 24 c6 1e bf 6a d5 c4 3e 2b 0a 9c 3e 12 d0 12 bf
       -0.6202109 0.38444072 0.30476508 -0.5734874
000190 ba e4 23 bf 18 11 04 bf 82 c7 52 be b1 f9 23 3e
       -0.64020884 -0.51588583 -0.20583919 0.16013218
0001a0 81 b1 c6 be 53 fc 7b be 59 2e c6 be 68 c1 cc 3d
       -0.388073 -0.24607973 -0.38707235 0.09997827
0001b0 5a d2 d0 bd 26 7b 29 bf 52 3c 8d 3d 83 bd b6 3e
       -0.101963714 -0.66203535 0.06896271 0.3569146
0001c0 74 fb d1 3c de a5 a6 be 01 5b f8 3d df d8 46 3f
       0.025632598 -0.32548422 0.121267326 0.7767467
0001d0 6d 6e dc be d7 c9 38 bb 34 e6 b2 be 88 5f 13 bf
       -0.43052998 -0.0028196478 -0.34941256 -0.57567644
0001e0 5e 56 be be ad ad 11 be 07 07 88 bd d6 0a fd 3e
       -0.37175268 -0.14226408 -0.06641965 0.4942233
0001f0 b4 85 35 bf 63 0d eb be f3 51 07 bf c6 82 c0 be
       -0.7090714 -0.4590865 -0.5285942 -0.37599772
000200 d7 c5 a6 3d cd 3d 4b be 58 2c 7a be 47 c2 11 bf
       0.08143204 -0.19847794 -0.24430978 -0.5693707
000210 ab 26 c5 be 93 7b 23 be 6f 1c a4 be b8 14 26 3d
       -0.38506064 -0.15965109 -0.32052943 0.040547103
000220 2f 2e 01 be 13 13 dd 3e d7 4c 37 bf 43 0c 86 bf
       -0.12615274 0.43178615 -0.71601623 -1.0472492
000230 be c7 7b be 3e 14 43 3e 6b c9 95 3c 06 82 a9 3e
       -0.24587914 0.1905069 0.01828452 0.33107013
000240 e3 eb bd be 00 65 f2 be 45 f0 8d 3d 75 00 05 3f
       -0.3709403 -0.47342682 0.069305934 0.5195382
000250 3c 84 23 3f b3 40 7d 3d 46 da 21 bd b3 c2 bf be
       0.6387365 0.06182928 -0.039514802 -0.3745323
000260 95 c3 b5 bd e8 da 14 bf cf a0 e4 bd a3 1c 92 bf
       -0.08875195 -0.58146524 -0.11163484 -1.1414989
000270 3d 66 5c be 0e c9 fd 3e c7 10 ea 3e 32 ec 14 bf
       -0.21523376 0.49567455 0.45715925 -0.58172905
000280 22 9e 8c 3c 52 38 23 bf 4b 0c 8f 3c 4d e8 b3 3e
       0.017165247 -0.6375781 0.017461916 0.3513817
000290 03 89 d6 3d 49 ad 4f bf 11 f6 24 3d 17 6a 97 3e
       0.10475352 -0.8112379 0.04027373 0.29573128
0002a0 00 4c c4 3e 6f c9 1c bd 5b 4d ba bd ef b1 7d be
       0.38339233 -0.03827804 -0.09096786 -0.24774908
0002b0 73 a9 65 3e e6 e2 00 3e 67 97 8d bb 5a 9d b1 be
       0.22427921 0.12586555 -0.004321027 -0.34690362
0002c0 31 e8 2a be 53 bb f9 bd 0b 9c 59 be 0b 0c 26 3d
       -0.16690136 -0.121939324 -0.21250932 0.04053883
0002d0 cf a9 a2 be 0f 55 de be d5 57 ac 3c e5 5d d2 3e
       -0.3177018 -0.4342427 0.021037975 0.4108726
0002e0 bf 5a 7d 3e 67 4f e4 3d db b4 33 3d 11 08 0d bd
       0.24741648 0.11147957 0.04387365 -0.03443152
0002f0 eb c8 8d 3e af f9 ea be 6d 9b f7 be ca f4 64 3e
       0.2769235 -0.45893618 -0.48360768 0.22359005
000300 e8 2d 5d 3e d9 e1 43 be 90 c5 53 3e c0 52 68 be
       0.21599543 -0.19129123 0.20680833 -0.22687817
000310 c4 4b 05 3c 9b 1f 23 bd 87 b4 0a 3e 4f cb 9f 3e
       0.00813574 -0.039825063 0.13545428 0.312098
000320 5a e2 79 3d dd 12 8d 3e 42 e0 82 3e 10 1a 1f 3e
       0.06100688 0.27553454 0.2556172 0.15537286
000330 0b e8 01 3e 14 a9 50 3e b8 dc 8c be a9 aa 2d be
       0.12686174 0.20376998 -0.27512145 -0.16959633
000340 09 5e 55 be 20 e9 7c be f7 e4 c7 3e f8 0b 87 be
       -0.20836653 -0.24698305 0.39041874 -0.2637632
000350 98 03 9c be de 64 f5 be b3 8d 57 3e 57 07 d0 bb
       -0.30471492 -0.47928518 0.21050148 -0.006348531
000360 58 fd 09 be 3b 4d b4 3e f1 2d 80 be 31 64 36 3c
       -0.13475549 0.35215172 -0.2503505 0.011132286
000370 f0 21 e3 be c8 ae ff 3e b6 13 97 be 88 ad c2 be
       -0.4436183 0.49938035 -0.29507226 -0.3802302
000380 bf cc ef 3e ca 77 42 3e 23 89 9a 3e 53 08 4b be
       0.46835896 0.18991008 0.30182752 -0.19827394
000390 d9 0c 51 bf f9 e2 02 be 83 a8 84 bd 8e 16 4f be
       -0.8166023 -0.12781896 -0.064774536 -0.20223448
0003a0 d2 06 83 3d 6e c5 04 be 3c 4b 5e bf 99 5b e6 bc
       0.06397785 -0.12965938 -0.8683355 -0.028119849
0003b0 5f 86 16 3c 69 55 4b be d6 b4 04 bd 75 18 68 be
       0.00918731 -0.198568 -0.03239902 -0.2266558
0003c0 01 3b 4b bd 33 ea ed be 2f 75 e1 be fb b7 c2 3e
       -0.049616817 -0.46467742 -0.44034716 0.3803099
0003d0 6e d1 91 be d8 fa 34 bf 0f 0a 97 3d 42 1d 57 3e
       -0.28480095 -0.7069526 0.073749654 0.21007255
0003e0 76 47 a8 be 42 7f 0f 3f db e7 0e be c0 0d ac bd
       -0.3286702 0.56053555 -0.13955633 -0.0840106
0003f0 2e 36 17 bf ec 6e 98 3e fd 2b 92 be 34 d6 98 be
       -0.59067047 0.29772127 -0.28549185 -0.29850924

sequential.2.Gamma.bias f4 [120]
000000 0b a2 ab 3e e9 a1 54 be c0 4a 9d 3e 46 0a d4 be
       0.33522066 -0.20764889 0.30721092 -0.41414088
000010 63 eb e3 3d 0d ec 88 be 0d 42 d6 be a8 8d 0f 3e
       0.11128881 -0.26742592 -0.41847268 0.14018881
000020 83 e3 f4 bc e3 07 1e 3e fc 07 d4 be 8a 2e e2 be
       -0.029893642 0.15432696 -0.41412342 -0.4417613
000030 24 a8 07 3d 3e dd 26 bf 5d 03 bd 3d 44 c6 17 bd
       0.033119336 -0.6518134 0.09229157 -0.037054315
000040 9c 62 9c bd f0 b5 7b be c0 22 03 bf 13 bf 1a 3e
       -0.07635996 -0.24581122 -0.512249 0.15111952
000050 3e cb 67 bd 76 56 1d be fe a7 20 be 73 ca 3d be
       -0.05659031 -0.15365013 -0.15689084 -0.1853426
000060 6d c6 0a be fd b9 b6 be 76 66 bb be b5 a2 80 3e
       -0.13552256 -0.35688773 -0.3660161 0.25124136
000070 0a 11 19 be 14 7c a7 3e 70 df 19 3e 1b d4 a8 be
       -0.14947906 0.32711852 0.15026641 -0.32974324
000080 ca 7c 30 3d 9b 1c 17 be 1d 93 c6 bd 3a 15 4b be
       0.043087758 -0.14757006 -0.096960284 -0.19832316
000090 f1 b6 b3 be 09 09 09 bf 30 e5 e7 3d ae ab 51 3d
       -0.3510051 -0.5352941 0.11323011 0.051189117
0000a0 80 46 a7 be 74 ee de be 22 68 ce bc 5c c2 09 bf
       -0.32670975 -0.435413 -0.025196139 -0.53812194
0000b0 0e 2f 3b bf 26 07 86 be a6 49 ac bc 0a d6 d7 bc
       -0.73118675 -0.2617733 -0.021031212 -0.026347179
0000c0 a3 d9 ce bd da 47 0b be cd c9 aa bd f1 28 5e bd
       -0.10100105 -0.13601628 -0.08339272 -0.054238264
0000d0 0c 2e 9b bd 66 72 7a bd 6f 1e bc be 9d ce 60 be
       -0.07577142 -0.061144255 -0.3674197 -0.21953817
0000e0 72 59 93 be 35 0f 87 3e 43 3c d9 be 3c c0 e9 be
       -0.2877918 0.2637879 -0.4242879 -0.45654476
0000f0 4c db 3f bf f1 75 bc be 54 e8 6d 3d a9 f5 4b be
       -0.74943995 -0.36808732 0.058082893 -0.1991793
000100 9b 58 b1 3b 24 8b b9 be 65 1b e2 bd c4 ef 4d bc
       0.005412174 -0.36238968 -0.11040381 -0.012569372
000110 c1 13 d8 bd ab 73 3b be ef 71 97 3e 1b b8 52 bd
       -0.10550643 -0.18305843 0.29579112 -0.051445108
000120 cd bc fc bd 01 1e b2 bd d2 6e 94 3d 16 1d 56 be
       -0.123406984 -0.08697129 0.072477 -0.20909533
000130 ed da 73 3c 25 30 f7 bd 5b 7a d3 3d 46 09 04 bd
       0.014883739 -0.1206973 0.10326072 -0.032235406
000140 c7 b6 ba 3e 70 19 43 bd e5 c6 af be 3b 22 6b 3d
       0.36467573 -0.04763168 -0.34331432 0.05740569
000150 7d 3e f8 bc 17 b0 e7 be e1 e2 a4 3d 78 a7 28 bf
       -0.030303234 -0.45251533 0.08051086 -0.6588054
000160 32 17 24 bf 34 a2 f3 3d 42 94 ce 3d 77 b9 91 bd
       -0.64097893 0.11896172 0.10086872 -0.07115453
000170 de 5b 93 be 51 7e 1d bf 06 21 3e bd 40 9d 5a be
       -0.28781027 -0.6152087 -0.046418212 -0.21349049
000180 b2 52 3e bb f1 02 9f bd e8 06 04 3f 66 c7 0b 3d
       -0.002904099 -0.07764233 0.5157304 0.034125708
000190 3c 74 aa bd 89 ba 13 bf c0 c5 70 3c 68 1e 97 be
       -0.08322951 -0.57706505 0.014695585 -0.29515386
0001a0 4c 3d 22 3c 2b 95 92 3c d0 4a d2 be cc 61 87 be
       0.00990231 0.017893394 -0.41072702 -0.264418
0001b0 b5 71 0f 3e be 4d 31 be a0 97 77 bd aa 23 62 be
       0.1400822 -0.17314813 -0.060447335 -0.22083917
0001c0 da 95 c4 be 09 43 8e 3d e3 47 b5 be ff 34 ad be
       -0.38395578 0.0694638 -0.35406408 -0.33829495
0001d0 6c b4 31 3d b9 16 04 be 18 32 a5 bd ef 61 85 bd
       0.043384954 -0.12899293 -0.08066195 -0.0651282

sequential.2.Lambda.weight f4 [120, 80]
000000 14 f0 ad be 19 2b d4 be 05 e1 bd 3d 32 62 bd bc
       -0.33972228 -0.4143913 0.09271435 -0.023118112
000010 31 4d 25 be 2f 8b 8e 3e a8 ed 7b be 2f 69 7e be
       -0.16142727 0.27840564 -0.24602377 -0.24844812
000020 5a d2 7e 3e 37 f4 b7 be c9 a6 e5 bd 21 7b 1b bf
       0.2488493 -0.3592851 -0.11213452 -0.60734755
000030 52 72 0a be ce d4 7a be 42 b9 33 bf 19 ce 6f be
       -0.13520172 -0.24495241 -0.70204556 -0.23418464
000040 66 77 e7 be f7 08 11 3c 82 32 89 bd c4 91 2c bf
       -0.4520828 0.008852235 -0.06699087 -0.6740992
000050 e3 a2 17 3d e9 fe 0b 3e 4a dc e7 3d 42 24 87 3e
       0.037020575 0.1367146 0.11321314 0.2639485
000060 0f 4a 1f be 26 e9 47 be 52 a2 02 be a3 bf 8e bd
       -0.15555595 -0.19522533 -0.12757233 -0.069701456
000070 05 3d bf be 27 c8 05 3f 43 87 4a bf fc 42 5f 3e
       -0.37351242 0.52258533 -0.79112643 0.21802896
000080 ee 01 0b 3d 6d a9 ae 3e 1d 8c 1d bf c4 53 9b 3d
       0.033937387 0.34113637 -0.6154192 0.075843364
000090 d6 fa bc be bf 57 4f 3e bc c1 15 be 75 eb a1 3c
       -0.36910123 0.20248316 -0.14624685 0.019765595
0000a0 13 76 9e be b9 47 2f be fb 57 b0 be 4e d7 aa 3d
       -0.30949458 -0.17117204 -0.34442124 0.08341847
0000b0 c9 b0 23 3d 5e cf 4b bd 2d ad a3 bd 28 78 47 3e
       0.039963517 -0.049758308 -0.07992015 0.1947943
0000c0 30 6d 0d 3c 53 02 bc 3c a3 2a 90 3d 4c 4b c1 be
       0.008631989 0.022950327 0.07039382 -0.3775276
0000d0 cf d2 8a bf f6 50 f0 be 3c 67 b0 3d 42 df f7 3d
       -1.0845584 -0.46936768 0.086134404 0.1210313
0000e0 eb 3e 0c 3d 4d aa 50 be 8f 57 a6 3e 7c 3e 65 3e
       0.03423969 -0.20377465 0.32488677 0.22387117
0000f0 c4 27 f7 bd f2 c4 6a 3d cd 97 89 be 49 b1 00 bd
       -0.120681316 0.057316728 -0.26873627 -0.031419072
000100 0e 7c c0 be 85 e8 80 bd 45 32 a3 3e d8 3b 99 be
       -0.37594646 -0.062943496 0.3187429 -0.2992847
000110 ab 74 59 be 07 05 14 3f 23 21 de bc e1 f9 2f be
       -0.21235912 0.5782017 -0.02711541 -0.17185165
000120 36 49 18 3d c4 7c a7 3e f8 ce 8b c0 76 78 f7 3d
       0.037179194 0.32712376 -4.3690147 0.12083523
000130 1a b9 ba be 90 13 17 3f 65 70 6f 3d d8 5a 65 3e
       -0.36469346 0.59014225 0.058456797 0.22397935
000140 5e 2c 2d be c6 81 7c 3f 1f d3 bc be ce 81 bb 3d
       -0.16911456 0.9863552 -0.36879823 0.09155618
000150 6e 9e c3 bd 76 76 6f 3d da 7c 68 be 45 52 4a be
       -0.095517024 0.058462583 -0.22703877 -0.19757946
000160 9d 3f 00 3e 66 a8 1b bf 81 c4 53 be 91 7f 2c bf
       0.12524267 -0.6080383 -0.20680429 -0.6738215
000170 27 36 22 bd 99 dd f6 be 54 7f 91 3c 3a 51 aa 3d
       -0.039602425 -0.4821594 0.01776091 0.08316274
000180 57 ab bb be 41 fe b7 3e 0e 08 b6 3d 8b 0e 12 bc
       -0.3665416 0.35936168 0.08888255 -0.0089146
000190 85 9e 86 3d 84 87 b7 3d 3e 9a 08 3e ba 3d e5 bd
       0.06573204 0.089613944 0.13340089 -0.11193414
0001a0 57 3d a2 3d c8 d5 b8 bc 4c 7c 0b 3e 30 14 00 3f
       0.07921856 -0.022562876 0.13621634 0.50030804
0001b0 93 64 90 be 3b 59 a8 3c db c5 96 be c5 18 ba 3d
       -0.28201732 0.02055036 -0.29447827 0.09086756
0001c0 e8 7c d5 be 7a d5 2d 3e 9a b6 1c be 1d a7 9d 3e
       -0.41696858 0.16975966 -0.15304032 0.3079156
0001d0 d6 37 98 be c8 d4 75 3e 27 53 d4 3e 49 a1 93 3e
       -0.297301 0.24006951 0.4146969 0.28833988
0001e0 24 4e 96 be 0a b4 95 be 33 83 57 be 5c fd d3 3e
       -0.29356492 -0.2923892 -0.21046142 0.41404235
0001f0 8b 44 41 be b5 52 d1 3d 43 34 4b bd f5 fb 0a 3e
       -0.18873803 0.10220853 -0.049610388 0.13572676
000200 45 e7 2f 3b 7d 9c 64 be 93 89 0b 3d 56 f4 09 bf
       0.0026840728 -0.2232532 0.034066748 -0.5388845
000210 e7 dd e6 be 2e 9d 69 be 02 20 d5 bd d0 1f 84 be
       -0.45091173 -0.22813866 -0.10406496 -0.2580552
000220 b1 de 31 3e e9 b9 07 be 09 39 37 be cc 3b 91 bd
       0.17370106 -0.13254513 -0.17892851 -0.070914835
000230 c5 49 dc be 5f 98 a8 bc ba ad 08 be 29 ea 1c 3f
       -0.43025032 -0.020580469 -0.13347521 0.612948
000240 34 62 92 be 16 66 ed bc 37 95 ef bc 61 00 26 3e
       -0.28590548 -0.028979342 -0.029245956 0.16211082
000250 d6 cf 3c 3f 20 96 a6 3e e0 79 16 be 2f 48 73 bd
       0.7375463 0.3253641 -0.14694929 -0.05939501
000260 40 85 a7 be ef 95 aa bd 46 fa 61 bf 09 d4 58 3d
       -0.3271885 -0.08329379 -0.8827251 0.052936587
000270 ef 02 ca bd 3f 35 de 3e 98 e6 83 3e 88 79 05 be
       -0.09863841 0.434 0.25761867 -0.13034642
000280 61 a4 03 be e0 3a d3 bd 7e 0b 5a 3e 86 c9 9d 3c
       -0.12855674 -0.10313964 0.21293446 0.019261133
000290 f1 b9 5a 3e a1 17 6c be 52 ff 9c 3d b7 4d c0 3e
       0.21359994 -0.23055889 0.07665886 0.37559292
0002a0 2e 64 1a 3e 0a ef 1f be 47 35 0a 3e 73 5e 49 be
       0.15077278 -0.1561853 0.13496886 -0.19664936
0002b0 be 41 8b bf 9e ce 86 bd 25 0e cf be 28 d0 6b be
       -1.0879438 -0.06582378 -0.4044048 -0.23028624
0002c0 f7 4e 07 bf 71 d2 58 3e ed d1 0c be 86 28 f0 be
       -0.52854866 0.21174027 -0.13751955 -0.46905917
0002d0 3f ad 2f 3c 5e cc 6c be 94 b0 71 3e fe c8 45 3e
       0.010722457 -0.23124835 0.23602515 0.19314954
0002e0 b1 fb 6a 3e 42 7d 67 be f9 e4 cc bc f7 00 be bc
       0.22947575 -0.22606376 -0.025011526 -0.02319382
0002f0 36 a3 2f be 5d 11 e1 ba 81 a9 e9 be 88 c9 2d 3e
       -0.17152104 -0.0017171312 -0.45637134 0.1697141
000300 b5 2e 76 3d b9 f1 a6 bd a0 7c 12 be cd d1 8f 3d
       0.060103137 -0.08151574 -0.14305353 0.07022438
000310 b9 75 f2 3e 8e 36 94 bb bc 7e c2 bd 79 81 1c 3e
       0.4735544 -0.004523105 -0.09496829 0.15283765
000320 aa 11 2c 3e be a8 0a 3e 4a cd 47 be e5 43 b4 3e
       0.16803613 0.13540933 -0.19511905 0.3520805
000330 b9 b6 ba be 10 b8 24 3e b1 fa 90 be d5 d3 34 3d
       -0.3646753 0.1608584 -0.28316262 0.04414733
000340 36 b5 19 be 8e db fb 3d 6c 7f 5a be 5a 80 2d bf
       -0.15010533 0.12297736 -0.2133767 -0.67773974
000350 cd 91 34 bf e8 c2 e9 be e5 ab cd 3e f7 d6 0f bf
       -0.70534974 -0.45656514 0.40170208 -0.56187385
000360 6a 3f 7c be d8 a6 c6 be 46 0b 83 bd bb 4c 0f 3f
       -0.24633566 -0.38799167 -0.063986346 0.55976456
000370 f1 82 01 bd bc 10 2a 3d b9 30 34 bf 7d 42 e7 3d
       -0.031619016 0.041519865 -0.70386845 0.112919785
000380 f9 b4 02 3e 1a cb 08 3e 20 e5 cd bd 04 08 a1 bd
       0.12764348 0.13358727 -0.10053468 -0.07862857
000390 5b 4d a3 bd 6f ec 92 3e 33 8a 9f be e9 fa 3d be
       -0.07973739 0.2869601 -0.31160125 -0.18552746
0003a0 66 1f 00 be 47 9f 30 bd 7d e9 23 c0 a1 12 48 be
       -0.12511978 -0.04312065 -2.561126 -0.19538356
0003b0 14 c2 5f bc 93 95 57 bd 71 91 c2 3d 28 57 1e 3c
       -0.013657112 -0.05263288 0.09500397 0.009664334
0003c0 4d 90 69 bc f7 d4 4a bf f7 3f 7c be 89 cc 4e 3f
       -0.014255595 -0.7923121 -0.24633776 0.80780846
0003d0 04 eb 9f 3e 0a 26 9c 3e e1 52 2a 3e e9 60 fb bb
       0.3123399 0.30497772 0.16633178 -0.0076714647
0003e0 75 91 54 3e a4 7f 21 3f 73 a4 2c be db 59 5c 3e
       0.20758612 0.6308539 -0.16859607 0.21518652
0003f0 0c 3b 72 3e 47 a3 10 3f 14 85 b5 3e 49 c9 65 3d
       0.23655337 0.5649914 0.35453093 0.056100164

sequential.2.Lambda.bias f4 [120]
000000 0b a2 ab 3e e9 a1 54 be c0 4a 9d 3e 46 0a d4 be
       0.33522066 -0.20764889 0.30721092 -0.41414088
000010 63 eb e3 3d 0d ec 88 be 0d 42 d6 be a8 8d 0f 3e
       0.11128881 -0.26742592 -0.41847268 0.14018881
000020 83 e3 f4 bc e3 07 1e 3e fc 07 d4 be 8a 2e e2 be
       -0.029893642 0.15432696 -0.41412342 -0.4417613
000030 24 a8 07 3d 3e dd 26 bf 5d 03 bd 3d 44 c6 17 bd
       0.033119336 -0.6518134 0.09229157 -0.037054315
000040 9c 62 9c bd f0 b5 7b be c0 22 03 bf 13 bf 1a 3e
       -0.07635996 -0.24581122 -0.512249 0.15111952
000050 3e cb 67 bd 76 56 1d be fe a7 20 be 73 ca 3d be
       -0.05659031 -0.15365013 -0.15689084 -0.1853426
000060 6d c6 0a be fd b9 b6 be 76 66 bb be b5 a2 80 3e
       -0.13552256 -0.35688773 -0.3660161 0.25124136
000070 0a 11 19 be 14 7c a7 3e 70 df 19 3e 1b d4 a8 be
       -0.14947906 0.32711852 0.15026641 -0.32974324
000080 ca 7c 30 3d 9b 1c 17 be 1d 93 c6 bd 3a 15 4b be
       0.043087758 -0.14757006 -0.096960284 -0.19832316
000090 f1 b6 b3 be 09 09 09 bf 30 e5 e7 3d ae ab 51 3d
       -0.3510051 -0.5352941 0.11323011 0.051189117
0000a0 80 46 a7 be 74 ee de be 22 68 ce bc 5c c2 09 bf
       -0.32670975 -0.435413 -0.025196139 -0.53812194
0000b0 0e 2f 3b bf 26 07 86 be a6 49 ac bc 0a d6 d7 bc
       -0.73118675 -0.2617733 -0.021031212 -0.026347179
0000c0 a3 d9 ce bd da 47 0b be cd c9 aa bd f1 28 5e bd
       -0.10100105 -0.13601628 -0.08339272 -0.054238264
0000d0 0c 2e 9b bd 66 72 7a bd 6f 1e bc be 9d ce 60 be
       -0.07577142 -0.061144255 -0.3674197 -0.21953817
0000e0 72 59 93 be 35 0f 87 3e 43 3c d9 be 3c c0 e9 be
       -0.2877918 0.2637879 -0.4242879 -0.45654476
0000f0 4c db 3f bf f1 75 bc be 54 e8 6d 3d a9 f5 4b be
       -0.74943995 -0.36808732 0.058082893 -0.1991793
000100 9b 58 b1 3b 24 8b b9 be 65 1b e2 bd c4 ef 4d bc
       0.005412174 -0.36238968 -0.11040381 -0.012569372
000110 c1 13 d8 bd ab 73 3b be ef 71 97 3e 1b b8 52 bd
       -0.10550643 -0.18305843 0.29579112 -0.051445108
000120 cd bc fc bd 01 1e b2 bd d2 6e 94 3d 16 1d 56 be
       -0.123406984 -0.08697129 0.072477 -0.20909533
000130 ed da 73 3c 25 30 f7 bd 5b 7a d3 3d 46 09 04 bd
       0.014883739 -0.1206973 0.10326072 -0.032235406
000140 c7 b6 ba 3e 70 19 43 bd e5 c6 af be 3b 22 6b 3d
       0.36467573 -0.04763168 -0.34331432 0.05740569
000150 7d 3e f8 bc 17 b0 e7 be e1 e2 a4 3d 78 a7 28 bf
       -0.030303234 -0.45251533 0.08051086 -0.6588054
000160 32 17 24 bf 34 a2 f3 3d 42 94 ce 3d 77 b9 91 bd
       -0.64097893 0.11896172 0.10086872 -0.07115453
000170 de 5b 93 be 51 7e 1d bf 06 21 3e bd 40 9d 5a be
       -0.28781027 -0.6152087 -0.046418212 -0.21349049
000180 b2 52 3e bb f1 02 9f bd e8 06 04 3f 66 c7 0b 3d
       -0.002904099 -0.07764233 0.5157304 0.034125708
000190 3c 74 aa bd 89 ba 13 bf c0 c5 70 3c 68 1e 97 be
       -0.08322951 -0.57706505 0.014695585 -0.29515386
0001a0 4c 3d 22 3c 2b 95 92 3c d0 4a d2 be cc 61 87 be
       0.00990231 0.017893394 -0.41072702 -0.264418
0001b0 b5 71 0f 3e be 4d 31 be a0 97 77 bd aa 23 62 be
       0.1400822 -0.17314813 -0.060447335 -0.22083917
0001c0 da 95 c4 be 09 43 8e 3d e3 47 b5 be ff 34 ad be
       -0.38395578 0.0694638 -0.35406408 -0.33829495
0001d0 6c b4 31 3d b9 16 04 be 18 32 a5 bd ef 61 85 bd
       0.043384954 -0.12899293 -0.08066195 -0.0651282

sequential.2.bn.running_mean f4 [120]
000000 00 00 00 00 00 00 00 00 00 00 00 00 00 00 00 00
       0.0 0.0 0.0 0.0
000010 00 00 00 00 00 00 00 00 00 00 00 00 00 00 00 00
       0.0 0.0 0.0 0.0
000020 00 00 00 00 00 00 00 00 00 00 00 00 00 00 00 00
       0.0 0.0 0.0 0.0
000030 00 00 00 00 00 00 00 00 00 00 00 00 00 00 00 00
       0.0 0.0 0.0 0.0
000040 00 00 00 00 00 00 00 00 00 00 00 00 00 00 00 00
       0.0 0.0 0.0 0.0
000050 00 00 00 00 00 00 00 00 00 00 00 00 00 00 00 00
       0.0 0.0 0.0 0.0
000060 00 00 00 00 00 00 00 00 00 00 00 00 00 00 00 00
       0.0 0.0 0.0 0.0
000070 00 00 00 00 00 00 00 00 00 00 00 00 00 00 00 00
       0.0 0.0 0.0 0.0
000080 00 00 00 00 00 00 00 00 00 00 00 00 00 00 00 00
       0.0 0.0 0.0 0.0
000090 00 00 00 00 00 00 00 00 00 00 00 00 00 00 00 00
       0.0 0.0 0.0 0.0
0000a0 00 00 00 00 00 00 00 00 00 00 00 00 00 00 00 00
       0.0 0.0 0.0 0.0
0000b0 00 00 00 00 00 00 00 00 00 00 00 00 00 00 00 00
       0.0 0.0 0.0 0.0
0000c0 00 00 00 00 00 00 00 00 00 00 00 00 00 00 00 00
       0.0 0.0 0.0 0.0
0000d0 00 00 00 00 00 00 00 00 00 00 00 00 00 00 00 00
       0.0 0.0 0.0 0.0
0000e0 00 00 00 00 00 00 00 00 00 00 00 00 00 00 00 00
       0.0 0.0 0.0 0.0
0000f0 00 00 00 00 00 00 00 00 00 00 00 00 00 00 00 00
       0.0 0.0 0.0 0.0
000100 00 00 00 00 00 00 00 00 00 00 00 00 00 00 00 00
       0.0 0.0 0.0 0.0
000110 00 00 00 00 00 00 00 00 00 00 00 00 00 00 00 00
       0.0 0.0 0.0 0.0
000120 00 00 00 00 00 00 00 00 00 00 00 00 00 00 00 00
       0.0 0.0 0.0 0.0
000130 00 00 00 00 00 00 00 00 00 00 00 00 00 00 00 00
       0.0 0.0 0.0 0.0
000140 00 00 00 00 00 00 00 00 00 00 00 00 00 00 00 00
       0.0 0.0 0.0 0.0
000150 00 00 00 00 00 00 00 00 00 00 00 00 00 00 00 00
       0.0 0.0 0.0 0.0
000160 00 00 00 00 00 00 00 00 00 00 00 00 00 00 00 00
       0.0 0.0 0.0 0.0
000170 00 00 00 00 00 00 00 00 00 00 00 00 00 00 00 00
       0.0 0.0 0.0 0.0
000180 00 00 00 00 00 00 00 00 00 00 00 00 00 00 00 00
       0.0 0.0 0.0 0.0
000190 00 00 00 00 00 00 00 00 00 00 00 00 00 00 00 00
       0.0 0.0 0.0 0.0
0001a0 00 00 00 00 00 00 00 00 00 00 00 00 00 00 00 00
       0.0 0.0 0.0 0.0
0001b0 00 00 00 00 00 00 00 00 00 00 00 00 00 00 00 00
       0.0 0.0 0.0 0.0
0001c0 00 00 00 00 00 00 00 00 00 00 00 00 00 00 00 00
       0.0 0.0 0.0 0.0
0001d0 00 00 00 00 00 00 00 00 00 00 00 00 00 00 00 00
       0.0 0.0 0.0 0.0

sequential.2.bn.running_var f4 [120]
000000 00 00 80 3f 00 00 80 3f 00 00 80 3f 00 00 80 3f
       1.0 1.0 1.0 1.0
000010 00 00 80 3f 00 00 80 3f 00 00 80 3f 00 00 80 3f
       1.0 1.0 1.0 1.0
000020 00 00 80 3f 00 00 80 3f 00 00 80 3f 00 00 80 3f
       1.0 1.0 1.0 1.0
000030 00 00 80 3f 00 00 80 3f 00 00 80 3f 00 00 80 3f
       1.0 1.0 1.0 1.0
000040 00 00 80 3f 00 00 80 3f 00 00 80 3f 00 00 80 3f
       1.0 1.0 1.0 1.0
000050 00 00 80 3f 00 00 80 3f 00 00 80 3f 00 00 80 3f
       1.0 1.0 1.0 1.0
000060 00 00 80 3f 00 00 80 3f 00 00 80 3f 00 00 80 3f
       1.0 1.0 1.0 1.0
000070 00 00 80 3f 00 00 80 3f 00 00 80 3f 00 00 80 3f
       1.0 1.0 1.0 1.0
000080 00 00 80 3f 00 00 80 3f 00 00 80 3f 00 00 80 3f
       1.0 1.0 1.0 1.0
000090 00 00 80 3f 00 00 80 3f 00 00 80 3f 00 00 80 3f
       1.0 1.0 1.0 1.0
0000a0 00 00 80 3f 00 00 80 3f 00 00 80 3f 00 00 80 3f
       1.0 1.0 1.0 1.0
0000b0 00 00 80 3f 00 00 80 3f 00 00 80 3f 00 00 80 3f
       1.0 1.0 1.0 1.0
0000c0 00 00 80 3f 00 00 80 3f 00 00 80 3f 00 00 80 3f
       1.0 1.0 1.0 1.0
0000d0 00 00 80 3f 00 00 80 3f 00 00 80 3f 00 00 80 3f
       1.0 1.0 1.0 1.0
0000e0 00 00 80 3f 00 00 80 3f 00 00 80 3f 00 00 80 3f
       1.0 1.0 1.0 1.0
0000f0 00 00 80 3f 00 00 80 3f 00 00 80 3f 00 00 80 3f
       1.0 1.0 1.0 1.0
000100 00 00 80 3f 00 00 80 3f 00 00 80 3f 00 00 80 3f
       1.0 1.0 1.0 1.0
000110 00 00 80 3f 00 00 80 3f 00 00 80 3f 00 00 80 3f
       1.0 1.0 1.0 1.0
000120 00 00 80 3f 00 00 80 3f 00 00 80 3f 00 00 80 3f
       1.0 1.0 1.0 1.0
000130 00 00 80 3f 00 00 80 3f 00 00 80 3f 00 00 80 3f
       1.0 1.0 1.0 1.0
000140 00 00 80 3f 00 00 80 3f 00 00 80 3f 00 00 80 3f
       1.0 1.0 1.0 1.0
000150 00 00 80 3f 00 00 80 3f 00 00 80 3f 00 00 80 3f
       1.0 1.0 1.0 1.0
000160 00 00 80 3f 00 00 80 3f 00 00 80 3f 00 00 80 3f
       1.0 1.0 1.0 1.0
000170 00 00 80 3f 00 00 80 3f 00 00 80 3f 00 00 80 3f
       1.0 1.0 1.0 1.0
000180 00 00 80 3f 00 00 80 3f 00 00 80 3f 00 00 80 3f
       1.0 1.0 1.0 1.0
000190 00 00 80 3f 00 00 80 3f 00 00 80 3f 00 00 80 3f
       1.0 1.0 1.0 1.0
0001a0 00 00 80 3f 00 00 80 3f 00 00 80 3f 00 00 80 3f
       1.0 1.0 1.0 1.0
0001b0 00 00 80 3f 00 00 80 3f 00 00 80 3f 00 00 80 3f
       1.0 1.0 1.0 1.0
0001c0 00 00 80 3f 00 00 80 3f 00 00 80 3f 00 00 80 3f
       1.0 1.0 1.0 1.0
0001d0 00 00 80 3f 00 00 80 3f 00 00 80 3f 00 00 80 3f
       1.0 1.0 1.0 1.0
