Models/Z_50GeV_50.pth (torch, 197858 bytes, 36 tensors)

sequential.0.Gamma.weight f4 [80, 5]
000000 cc 75 31 3f e8 ad 01 bf 44 cc 19 3f a0 c1 8a be
       0.6932037 -0.50655985 0.6007731 -0.2710085
000010 d0 37 a5 3f ff f1 d7 3d df 8d 18 3e 96 8f 37 bf
       1.2907658 0.10544204 0.1489787 -0.7170347
000020 94 b9 40 bd ab 45 91 3e 57 14 3d 3d b0 9f a8 3d
       -0.04705198 0.28373465 0.046161976 0.08233583
000030 89 cf 13 3e cf 27 d8 3c 71 3c c2 be 51 9b 2d 3f
       0.14434637 0.02638617 -0.37936738 0.6781512
000040 59 2a 1e bf e4 56 e6 be b8 5c a3 3f a9 e9 5f 3f
       -0.6178337 -0.44988167 1.276267 0.8746591
000050 3f f6 59 3e 69 f0 81 bf d7 0d 65 3d 5d 75 a6 3f
       0.21285342 -1.0151492 0.0559214 1.3004566
000060 d1 95 a5 3e 3a 73 00 3f 23 ec af 3e 92 23 03 3f
       0.32340863 0.5017582 0.34359846 0.5122615
000070 c0 77 95 be 85 d4 1b 3f b1 da a5 3f 9e a4 40 3e
       -0.29192924 0.60871154 1.2957364 0.18812796
000080 9c 3a 65 bf 72 69 6e bf d5 b8 90 3e 86 96 48 bf
       -0.89542556 -0.93129647 0.28266016 -0.7835468
000090 c7 a9 4c bf 19 7f 22 bf 8f 60 89 be 6a 08 35 3f
       -0.7994656 -0.63475186 -0.2683148 0.70715964
0000a0 77 73 58 3e 03 a0 81 bf 35 61 b0 be f5 b6 24 bf
       0.21137796 -1.0126957 -0.34449163 -0.6434167
0000b0 c1 a5 bd 3f ff e9 cf 3e 9a 18 15 3f 7c 5d e7 3c
       1.4816209 0.40608212 0.58240664 0.028242819
0000c0 ac 93 fa bf 47 9f 24 bf 10 c3 95 3e 89 c8 f2 bd
       -1.9576316 -0.6430554 0.29250383 -0.11854655
0000d0 f6 13 2a 3e 0f f9 1f bd e8 4e c7 be 82 5f 46 bf
       0.16609177 -0.03905588 -0.38927388 -0.77489483
0000e0 5a 27 3f be 73 0c 3b 3e f7 17 5b be 9a 2f f2 bd
       -0.18667355 0.18266468 -0.2139586 -0.118254855
0000f0 d8 53 db be 9f 3c 2c 3f c3 74 2f be 0b ff cd be
       -0.42837405 0.6728 -0.17134385 -0.40233645
000100 a4 9a 74 3e 66 a4 67 3f 50 78 23 bf 62 cc f5 bd
       0.23887116 0.9048523 -0.6385546 -0.120018736
000110 a2 0d 23 3e 99 ed 27 3e dd aa 86 3e a7 b5 8f bf
       0.1592317 0.1639923 0.26302233 -1.1227311
000120 08 66 56 3f 20 69 a2 3e 5d 00 40 bf a4 a1 e2 3e
       0.8374944 0.3172083 -0.75000554 0.44263947
000130 46 33 61 bf 8c 3d 29 bf cd a4 d3 be 1c 25 ea 3d
       -0.8796886 -0.6610954 -0.4133667 0.11432859
000140 2f c1 ca bd c0 8d 00 3e 52 a2 19 3f 84 06 fd 3e
       -0.09900128 0.12554073 0.60013306 0.49419034
000150 20 10 ae bf ea 0b 37 3f fd 0b 19 bf 05 4e e8 be
       -1.3598671 0.71502554 -0.5978392 -0.45372024
000160 f7 d9 58 bf 42 1b 94 3f 32 fa 68 bd d1 70 87 3e
       -0.8470759 1.1570818 -0.05687923 0.2645326
000170 11 29 e2 3d cf e5 43 3f b2 ea 1c bf ce 0c 83 bf
       0.11042989 0.76522535 -0.61295617 -1.0238283
000180 f0 e0 23 3d 84 e4 2f 3e a5 3d 66 bd e0 bd b4 bc
       0.04000944 0.17177016 -0.056211133 -0.022063196
000190 33 d5 22 3f 57 82 61 3d cd 80 72 be 8b d9 15 bf
       0.63606566 0.055055942 -0.23681946 -0.5853507
0001a0 6f 28 f9 bd bf 8f 57 be ef b8 30 3f 8c 7c 12 3f
       -0.12165915 -0.21050929 0.69032186 0.57221293
0001b0 60 a4 b1 be 9a 49 ab bf d8 3f 9c bf 42 98 11 bf
       -0.3469572 -1.3381836 -1.2206984 -0.5687295
0001c0 72 e9 56 be 93 38 6d 3f ed 83 17 be a7 93 9c be
       -0.2098749 0.9266445 -0.1479642 -0.305814
0001d0 e4 41 fd be c6 60 e7 3e ae 45 b7 bd 72 6a 2c 3f
       -0.49464333 0.4519102 -0.08948837 0.6734992
0001e0 02 ff e4 be fd e4 dc 3e ac c7 08 bf 6c c7 65 be
       -0.44725806 0.43143454 -0.53429675 -0.22439355
0001f0 3f d2 8b 3f 16 f9 d2 3e a6 ab 28 bf ef 73 ce 3e
       1.0923537 0.41205662 -0.65886915 0.40322825
000200 d7 65 dd 3f 45 7e 34 bf f3 e3 03 3d d0 2e b3 3e
       1.7296704 -0.7050517 0.03219981 0.34996653
000210 6b a2 38 bf 7d 80 b4 3e e9 11 89 3d 37 18 82 3f
       -0.7212283 0.3525428 0.06692869 1.016364
000220 3d 64 59 3f ef ab 43 3e 88 c7 bf 3e 24 77 24 bf
       0.84918576 0.19108556 0.37456918 -0.64244294
000230 01 97 8e 3f 33 4f 51 be 63 e4 82 3f e2 6e f5 be
       1.1139833 -0.20440368 1.0225948 -0.4793616
000240 69 71 37 bf 27 3f 10 3f d8 5e 4b bf e9 d9 5d bd
       -0.71657425 0.5634636 -0.79441595 -0.054162893
000250 92 cd 33 bf 22 27 67 3f c8 ae 7f 3e 8e 2c 55 3f
       -0.7023555 0.90294087 0.24969018 0.8327111
000260 87 c4 88 3e b7 c4 18 bf a2 28 7c 3e 44 f2 eb be
       0.26712438 -0.59675163 0.24624875 -0.46083272
000270 bc 80 93 3f fb 2e e5 be ec 6a 2f 3f 02 ec 1a 3f
       1.1523662 -0.44762406 0.68522525 0.6051637
000280 35 b5 4b 3e a8 15 8d 3f 18 08 e6 3d 11 8a 59 bf
       0.19893344 1.1022234 0.112320125 -0.849763
000290 a9 be e2 be 45 d1 f3 3d 5e 86 09 bf 2d 19 60 3f
       -0.44286087 0.11905149 -0.53720653 0.87538415
0002a0 a4 16 12 3e 3e c9 23 3f 9d 53 54 3f 5e 00 60 3f
       0.14266449 0.63978946 0.82940084 0.8750056
0002b0 6e 52 92 bf 04 21 da 3e 19 39 6e 3e 27 45 7e be
       -1.1431406 0.42603314 0.23263969 -0.24831067
0002c0 99 a8 dd 3e cb 10 06 3f 01 5f 02 3f 35 8e b7 be
       0.43292692 0.52369374 0.50926214 -0.35850683
0002d0 db 1b 86 3f 59 a4 4c 3f ef 5b a3 3f 41 73 3c 3e
       1.0477251 0.79938275 1.2762431 0.18403341
0002e0 64 82 8e be dc f6 89 be 9a 3d 11 be 56 e8 b6 be
       -0.27833855 -0.2694615 -0.14183655 -0.35724133
0002f0 90 68 86 3f e0 a7 18 bf 0c 7f fd be a4 36 ae 3f
       1.050066 -0.59631157 -0.49510992 1.3610425
000300 f3 51 22 bf 2b a5 d5 be 0a 90 05 3f e5 08 2c 3f
       -0.63406295 -0.41727576 0.5217291 0.6720107
000310 83 5f 6e 3e 96 1d 47 bf 50 a0 1d 3f c8 7f a9 3f
       0.23278622 -0.7777952 0.6157274 1.3242121
000320 69 ed 19 bf e9 c6 be 3e 09 7f c6 be 59 c9 a2 be
       -0.60127884 0.3726113 -0.38768795 -0.3179424
000330 d0 0c d2 be 96 13 b5 3f cb 1f 0f bf 7f 6d 8c bf
       -0.410254 1.4146602 -0.5590789 -1.0970916
000340 32 ac 60 3e b8 74 4e bd c8 c8 8f 3e f1 6b 0e bd
       0.21940687 -0.05040428 0.2808287 -0.03477091
000350 5f 7f 47 3f a4 fb 9c bf f5 aa 17 bf 7d 02 57 be
       0.7792873 -1.2264295 -0.59245235 -0.20997043
000360 51 c6 4d 3f 39 f7 5e be f6 3a 5c 3f 90 50 9d 3d
       0.8038073 -0.21773995 0.8602747 0.07681382
000370 b6 e2 97 3f cf 4d ae bf 82 23 54 bc 48 b4 0a be
       1.1866062 -1.3617495 -0.012947919 -0.13545334
000380 f9 82 cf 3d e4 f8 21 3f e2 30 98 3f 7b f4 cd 3d
       0.10132403 0.632704 1.1889918 0.100563966
000390 3e 87 b2 3f 5d c7 c8 be d0 7e 8c be a4 dd 22 3f
       1.3947523 -0.39214602 -0.274405 0.63619447
0003a0 ee 4c 98 3f eb a3 8f 3e c5 e4 fa bd be d1 85 bf
       1.1898477 0.28054747 -0.122506656 -1.0454633
0003b0 fb f9 01 3f fb 8f 6a 3f 8f ac cd bd 29 88 b5 bd
       0.50772065 0.91625947 -0.100426786 -0.08863861
0003c0 32 80 9d be 42 21 52 bf ae 6b 6a 3d 20 7e 9a be
       -0.30761868 -0.82082 0.057231598 -0.3017435
0003d0 fb f8 a2 bd 3e 06 9a be 5b da ee 3f 7d 4c 3f 3e
       -0.079576455 -0.30082887 1.8660387 0.18681522
0003e0 6a a2 81 3f a4 28 9d 3e d5 6f 2f be 4e 28 29 bf
       1.012769 0.3069507 -0.17132504 -0.66077125
0003f0 68 f9 99 3f 5f b1 05 bf aa 1f d2 3d d5 7a 84 be
       1.2029238 -0.5222377 0.10259946 -0.25874963

sequential.0.Gamma.bias f4 [80]
000000 1e 65 41 bf 44 35 af be ab 99 c3 be 5e 79 3b bf
       -0.7554492 -0.34220326 -0.38203177 -0.73232067
000010 7f e6 4a bf a3 32 0f 3e 60 f4 05 3d 45 30 dc 3c
       -0.7925796 0.1398416 0.032703757 0.026878485
000020 9e c1 fd 3c fe 02 80 3e 13 00 29 be a1 8e c0 bd
       0.030976113 0.25002283 -0.16503935 -0.09402204
000030 92 22 db 3d 66 b4 10 bf 09 6e 2b bf 66 e3 3e bf
       0.10699953 -0.56525266 -0.66964775 -0.7456573
000040 9a 8e 66 3e f4 b6 78 3e 82 76 4e be 32 d1 a6 3e
       0.22515336 0.24288541 -0.20162395 0.32581478
000050 b3 2b 0b bf 3a 28 23 bf ee db 41 bf d2 18 31 be
       -0.54363555 -0.63733256 -0.7572621 -0.17294624
000060 a8 e5 ba be d1 ee 1d bf 14 d8 93 be 9d 8b 51 be
       -0.3650334 -0.6169253 -0.28875792 -0.20463414
000070 91 cd ee 3e ae 5b 5d be 7c 27 d5 bd e9 fc da 39
       0.4664121 -0.21617004 -0.10407922 0.00041768633
000080 0a 1b 9e 3e 0f fe 16 be 54 5c 2b bf d3 66 e3 be
       0.30880004 -0.14745353 -0.66937757 -0.44414386
000090 f9 e4 df 3d 96 5e 17 bf 10 6a c8 3d 2b 43 fa 3e
       0.10932345 -0.591287 0.09785855 0.4887937
0000a0 3c e6 62 bf ab fe 1e bf 6f 5e f4 be 99 14 d0 be
       -0.8863256 -0.6210734 -0.47728297 -0.40640715
0000b0 26 06 94 bc 56 a9 ec be 7d 58 da be 2d 15 f2 be
       -0.018069338 -0.46222943 -0.42645636 -0.4728178
0000c0 71 12 41 bf fb e2 89 be 67 79 22 bf e6 36 bc be
       -0.75418764 -0.26930985 -0.63466495 -0.36760634
0000d0 ed 19 f5 be 03 f0 45 be 5d ba 44 be de 83 11 bf
       -0.47871342 -0.19329838 -0.19211717 -0.5684184
0000e0 9e 86 55 be 54 60 90 3e 35 a1 95 be 30 62 c2 be
       -0.20852134 0.28198493 -0.29224554 -0.37965536
0000f0 2d 91 28 3f fc 93 68 be 0d d8 06 bf 21 a0 ca be
       0.6584652 -0.22712702 -0.5267342 -0.39575294
000100 2a 92 ad 3e 13 53 6c bf 22 80 0b 3e d8 d4 6d 3c
       0.33900577 -0.9231426 0.13623098 0.014516078
000110 a1 24 0b bf a1 39 83 be 9c 0b e4 3d 4a 0d 92 3e
       -0.54352766 -0.25629905 0.11135027 0.28525764
000120 25 23 bd be 5a f2 95 be 1f 28 03 3f 45 8f 3e be
       -0.36940876 -0.29286462 0.51233095 -0.1860934
000130 b1 f2 54 bc d5 16 44 bf df c9 c1 bd 25 e5 89 be
       -0.012997315 -0.7659734 -0.09462332 -0.26932636

sequential.0.Lambda.weight f4 [80, 5]
000000 9a df 03 3f 99 27 d9 3d 0e 4b b0 3c 02 43 72 bf
       0.51513064 0.10603256 0.021520164 -0.94633496
000010 3f 04 bb 3c 8b d2 92 bf 2a d8 34 3e 94 4d 95 3e
       0.022829173 -1.1470503 0.17660585 0.2916075
000020 62 d8 13 3f 8b 88 ac 3e a7 43 96 3b ef b4 69 3e
       0.5775205 0.33697924 0.0045857015 0.22822927
000030 13 47 23 3f 86 b2 96 bf 7f 2a cc 3e 05 e2 13 be
       0.63780326 -1.1773231 0.39876172 -0.14441688
000040 88 21 86 3f 8c ba e0 be 03 11 a0 3e 4e a1 74 bd
       1.0478983 -0.43892324 0.3126298 -0.059724145
000050 0f 67 5a 3f 0d 69 33 3e 4f cf 8f bf 64 91 fc 3d
       0.85313505 0.17520542 -1.123514 0.123324186
000060 a1 52 28 3e 39 7c 15 bf f1 a6 16 3e d4 d3 8e bd
       0.1643777 -0.58392674 0.1471212 -0.06973997
000070 66 05 ac 3e 97 2e 9e be cb 9d b5 bd a2 a2 74 3f
       0.3359787 -0.3089492 -0.08867987 0.9556066
000080 b8 01 5a bf c8 03 cc 3d 11 c1 1f 3e f9 5e bb 3e
       -0.8515887 0.09961659 0.15600993 0.36595896
000090 91 f1 54 bd f5 f9 5d bd 2b 27 d9 bc ab 25 52 3f
       -0.05198819 -0.054193456 -0.026507935 0.82088727
0000a0 ce 0e a9 be 13 2b a4 3e 8f 3a 36 bb b8 65 ef 3d
       -0.33019108 0.32064113 -0.00278059 0.11689323
0000b0 31 fc 4e 3e 69 60 0a be b8 63 aa 3e ea 8f 0b 3f
       0.20213391 -0.1351334 0.33279204 0.5451647
0000c0 71 26 a4 3f a4 57 d2 be 36 ad 32 be a0 70 35 bf
       1.2824231 -0.4108249 -0.17448887 -0.7087498
0000d0 b8 b9 5d 3f 09 0c f6 3e 9d 4a c5 be 6c 56 8c 3f
       0.8661151 0.48056057 -0.38533488 1.0963874
0000e0 b5 13 f6 3e 1f a6 8f bf 03 48 ad 3e 9f b7 7b be
       0.4806191 -1.1222571 0.33844003 -0.24581765
0000f0 a5 66 22 bf 47 cc 9e bd 4e 7f ce 3e 4e 6a 94 3e
       -0.63437873 -0.077538066 0.403315 0.28987354
000100 62 82 bc bd 7c ae 0a bf ac 17 2e bf 0c e8 e2 3e
       -0.09204556 -0.5417249 -0.6800487 0.44317663
000110 d0 27 ca 3e b3 84 33 be af 99 5a 3e cf 87 9c be
       0.394835 -0.1753109 0.21347688 -0.30572364
000120 46 70 45 bd e1 9e 8f 3f 17 2b a2 be 93 55 95 3e
       -0.048202775 1.1220361 -0.316735 0.2916685
000130 82 5d 32 3e 9d 49 f6 be 78 41 61 3f ed 93 73 3e
       0.17418483 -0.48103037 0.8799052 0.23786898
000140 01 03 dc 3c 14 4b 18 be bb 63 8e 3f 2e fc e7 be
       0.026856901 -0.1487239 1.1124185 -0.45309585
000150 d6 96 ba be 31 21 8d 3f 5b 16 d4 3e 28 9d 92 be
       -0.36443204 1.1025754 0.41423306 -0.28635526
000160 d0 e5 20 bf 25 6c f7 be b5 b1 8d 3c d3 8a ad 3d
       -0.62850666 -0.48324695 0.017296651 0.08473744
000170 37 c9 20 3f d3 24 8a be f0 b0 9e bd 0c 80 8c 3e
       0.6280703 -0.2698122 -0.07748592 0.27441442
000180 4b 4b ff be 99 f0 e9 3f 01 81 e1 ba 18 80 a4 bf
       -0.4986213 1.827655 -0.0017204584 -1.2851591
000190 42 c8 6f 3b 4f fa a9 bc 7c 1b 97 3f 7b 5f 60 bf
       0.0036587869 -0.02074924 1.1805263 -0.8764569
0001a0 51 c3 ff bb 28 c8 cd bf 1c 19 73 3f ac 5d 6c 3e
       -0.007805266 -1.6076708 0.9496019 0.23082608
0001b0 0e ad 91 3f be 30 10 be cb 8a 7a bf bf 78 38 3e
       1.1380937 -0.14081094 -0.9786803 0.18014811
0001c0 f6 22 74 3e cc a7 ac 3f 26 00 d4 be 72 d2 ec bd
       0.23841462 1.3488708 -0.41406363 -0.11563577
0001d0 5d 0e b5 be ee 7b 2c bf 7a 4e 78 3f b0 34 a8 be
       -0.3536252 -0.673766 0.96994746 -0.32852697
0001e0 d5 60 5d bf 17 ce e9 3e a4 b5 c4 3e 06 6d 9a be
       -0.8647588 0.45665047 0.3841983 -0.30161303
0001f0 b7 fe 10 bf 2a bd 44 3f 4d f4 c0 bf 06 c2 20 3f
       -0.56638664 0.7685114 -1.5074555 0.62796056
000200 58 6f d0 3e 30 ae 97 be 62 86 07 3f 44 5f 49 bd
       0.4070995 -0.29625082 0.52939427 -0.049163118
000210 5f 7b db be c0 6b 11 bf 2a 3e 7d bf 89 42 df bd
       -0.42867562 -0.5680504 -0.9892298 -0.109013624
000220 a0 de 42 3f c1 b0 e1 be e5 86 a0 bf fc 34 8e bd
       0.7612095 -0.44080165 -1.2541167 -0.069437
000230 0a 02 76 bf dd e5 e0 3e 74 95 5e 3f d7 c8 85 3e
       -0.9609686 0.43925372 0.869468 0.2612979
000240 3c 40 45 bf 06 b2 97 bf 91 5d dd be 33 51 80 be
       -0.7705114 -1.1851203 -0.43235448 -0.2506195
000250 63 da 99 3f f7 b9 40 3f 9d 62 93 3e 4e 7d ca be
       1.2019771 0.7528376 0.28786173 -0.39548725
000260 bd c5 38 be 3b f0 41 be b0 ef 30 3f 88 b6 7b 3f
       -0.18044181 -0.18939297 0.69115734 0.98325396
000270 99 1a 53 bf ec cd 72 3d c7 31 c2 be 44 3b af 3d
       -0.8246246 0.059278414 -0.37928602 0.08556226
000280 09 0e 64 3f 17 21 f5 bd 29 7c 4a 3f 28 13 57 bf
       0.89083916 -0.11969202 0.79095703 -0.84013605
000290 c7 8a 12 bf 8d f4 6a bd f1 6a 9d be 78 19 ce be
       -0.5724301 -0.057362128 -0.30745652 -0.40253806
0002a0 a1 c0 2f 3e 89 57 4b bf 46 83 08 3f 0d b3 d1 3e
       0.17163326 -0.79430443 0.5332531 0.40956917
0002b0 e5 95 33 bf 99 80 0e 3e 32 1a 13 bf 27 da 14 bf
       -0.70150596 0.13916244 -0.57461846 -0.58145374
0002c0 0c 24 3b bd ba 70 24 3e 91 fc eb 3e 15 df 6e bf
       -0.045688674 0.16058627 0.4609113 -0.93309146
0002d0 10 23 d8 be b0 97 82 be 36 3c ce 3e de 4d 22 3f
       -0.4221425 -0.25506353 0.40280312 0.63400066
0002e0 77 db 08 bf 05 8b ba 3d ab 25 79 be 53 66 b7 be
       -0.53459877 0.09108547 -0.24330775 -0.35820255
0002f0 27 36 30 bd 1c 6a 0f 3f 24 b7 f4 3e 31 1f ee 3c
       -0.043020394 0.56021285 0.47795975 0.029067608
000300 6c 23 39 be 89 b6 a3 bc f0 ca ea be 9f f3 cb 3e
       -0.18079919 -0.0199845 -0.45857954 0.39834306
000310 50 fc 80 3d 94 9a 24 bf af 6a eb be 3b 62 23 3f
       0.06298125 -0.6429837 -0.4597983 0.6382176
000320 91 23 96 3e 86 27 0c bf 23 33 bc 3e 01 c3 d4 3d
       0.2932401 -0.5474781 0.36757764 0.103887565
000330 4c 68 63 3d 42 3c ff bd bd 4c b6 3d 32 f7 10 bf
       0.055519387 -0.12462665 0.089013554 -0.5662719
000340 22 c4 9d 3e 63 45 69 3e 4f 3e 16 bf 0b 7d a8 3e
       0.308137 0.22780375 -0.58688825 0.329079
000350 6e 04 a5 3e 75 c1 a7 3f b0 5a cc be 72 72 3d bf
       0.32229942 1.3105913 -0.3991294 -0.74002755
000360 3a ed 4f 3e 67 a6 8c be 0b 8e 9e 3e 58 99 fc 3e
       0.20305339 -0.27470705 0.30967745 0.49335742
000370 16 97 30 3d 30 83 a7 be f1 2a e7 3c ae 6a 7c 3e
       0.043112837 -0.32717276 0.028218718 0.2465007
000380 a8 b0 18 3d 8a 59 36 3f 23 65 0f 3e dd fd ce 3e
       0.037277848 0.71230376 0.14003424 0.40428057
000390 b5 1c 39 bf f6 56 a3 be 1a c9 f1 3e c2 c7 ba 3e
       -0.7230943 -0.31902283 0.4722374 0.36480528
0003a0 21 25 29 bf 6f a6 35 bf af 34 fd 3d 5d 7d 70 3f
       -0.6607228 -0.7095708 0.12363564 0.9394129
0003b0 f6 65 59 3f a2 52 95 bf c8 e1 21 be b5 d2 ee bb
       0.84921205 -1.1665843 -0.15808785 -0.007288302
0003c0 f9 78 16 be e1 d0 d2 3e 85 b5 c0 be ef 69 97 3f
       -0.14694585 0.41174987 -0.37638488 1.1829203
0003d0 78 b1 b3 3e 84 59 33 be dd 5c 8e 3e b4 ba 1f be
       0.35096335 -0.17514616 0.27805224 -0.15598565
0003e0 40 05 ba bc 5a 5a bd bd 97 9f f3 be 1c 37 fb 3e
       -0.022707582 -0.09245749 -0.47582695 0.49065483
0003f0 43 d2 03 3e 82 d0 8c bf f3 d3 f8 3e f8 99 88 3f
       0.12873177 -1.1001132 0.48599204 1.0671988

sequential.0.Lambda.bias f4 [80]
000000 1e 65 41 bf 44 35 af be ab 99 c3 be 5e 79 3b bf
       -0.7554492 -0.34220326 -0.38203177 -0.73232067
000010 7f e6 4a bf a3 32 0f 3e 60 f4 05 3d 45 30 dc 3c
       -0.7925796 0.1398416 0.032703757 0.026878485
000020 9e c1 fd 3c fe 02 80 3e 13 00 29 be a1 8e c0 bd
       0.030976113 0.25002283 -0.16503935 -0.09402204
000030 92 22 db 3d 66 b4 10 bf 09 6e 2b bf 66 e3 3e bf
       0.10699953 -0.56525266 -0.66964775 -0.7456573
000040 9a 8e 66 3e f4 b6 78 3e 82 76 4e be 32 d1 a6 3e
       0.22515336 0.24288541 -0.20162395 0.32581478
000050 b3 2b 0b bf 3a 28 23 bf ee db 41 bf d2 18 31 be
       -0.54363555 -0.63733256 -0.7572621 -0.17294624
000060 a8 e5 ba be d1 ee 1d bf 14 d8 93 be 9d 8b 51 be
       -0.3650334 -0.6169253 -0.28875792 -0.20463414
000070 91 cd ee 3e ae 5b 5d be 7c 27 d5 bd e9 fc da 39
       0.4664121 -0.21617004 -0.10407922 0.00041768633
000080 0a 1b 9e 3e 0f fe 16 be 54 5c 2b bf d3 66 e3 be
       0.30880004 -0.14745353 -0.66937757 -0.44414386
000090 f9 e4 df 3d 96 5e 17 bf 10 6a c8 3d 2b 43 fa 3e
       0.10932345 -0.591287 0.09785855 0.4887937
0000a0 3c e6 62 bf ab fe 1e bf 6f 5e f4 be 99 14 d0 be
       -0.8863256 -0.6210734 -0.47728297 -0.40640715
0000b0 26 06 94 bc 56 a9 ec be 7d 58 da be 2d 15 f2 be
       -0.018069338 -0.46222943 -0.42645636 -0.4728178
0000c0 71 12 41 bf fb e2 89 be 67 79 22 bf e6 36 bc be
       -0.75418764 -0.26930985 -0.63466495 -0.36760634
0000d0 ed 19 f5 be 03 f0 45 be 5d ba 44 be de 83 11 bf
       -0.47871342 -0.19329838 -0.19211717 -0.5684184
0000e0 9e 86 55 be 54 60 90 3e 35 a1 95 be 30 62 c2 be
       -0.20852134 0.28198493 -0.29224554 -0.37965536
0000f0 2d 91 28 3f fc 93 68 be 0d d8 06 bf 21 a0 ca be
       0.6584652 -0.22712702 -0.5267342 -0.39575294
000100 2a 92 ad 3e 13 53 6c bf 22 80 0b 3e d8 d4 6d 3c
       0.33900577 -0.9231426 0.13623098 0.014516078
000110 a1 24 0b bf a1 39 83 be 9c 0b e4 3d 4a 0d 92 3e
       -0.54352766 -0.25629905 0.11135027 0.28525764
000120 25 23 bd be 5a f2 95 be 1f 28 03 3f 45 8f 3e be
       -0.36940876 -0.29286462 0.51233095 -0.1860934
000130 b1 f2 54 bc d5 16 44 bf df c9 c1 bd 25 e5 89 be
       -0.012997315 -0.7659734 -0.09462332 -0.26932636

sequential.0.bn.running_mean f4 [80]
000000 00 00 00 00 00 00 00 00 00 00 00 00 00 00 00 00
       0.0 0.0 0.0 0.0
000010 00 00 00 00 00 00 00 00 00 00 00 00 00 00 00 00
       0.0 0.0 0.0 0.0
000020 00 00 00 00 00 00 00 00 00 00 00 00 00 00 00 00
       0.0 0.0 0.0 0.0
000030 00 00 00 00 00 00 00 00 00 00 00 00 00 00 00 00
       0.0 0.0 0.0 0.0
000040 00 00 00 00 00 00 00 00 00 00 00 00 00 00 00 00
       0.0 0.0 0.0 0.0
000050 00 00 00 00 00 00 00 00 00 00 00 00 00 00 00 00
       0.0 0.0 0.0 0.0
000060 00 00 00 00 00 00 00 00 00 00 00 00 00 00 00 00
       0.0 0.0 0.0 0.0
000070 00 00 00 00 00 00 00 00 00 00 00 00 00 00 00 00
       0.0 0.0 0.0 0.0
000080 00 00 00 00 00 00 00 00 00 00 00 00 00 00 00 00
       0.0 0.0 0.0 0.0
000090 00 00 00 00 00 00 00 00 00 00 00 00 00 00 00 00
       0.0 0.0 0.0 0.0
0000a0 00 00 00 00 00 00 00 00 00 00 00 00 00 00 00 00
       0.0 0.0 0.0 0.0
0000b0 00 00 00 00 00 00 00 00 00 00 00 00 00 00 00 00
       0.0 0.0 0.0 0.0
0000c0 00 00 00 00 00 00 00 00 00 00 00 00 00 00 00 00
       0.0 0.0 0.0 0.0
0000d0 00 00 00 00 00 00 00 00 00 00 00 00 00 00 00 00
       0.0 0.0 0.0 0.0
0000e0 00 00 00 00 00 00 00 00 00 00 00 00 00 00 00 00
       0.0 0.0 0.0 0.0
0000f0 00 00 00 00 00 00 00 00 00 00 00 00 00 00 00 00
       0.0 0.0 0.0 0.0
000100 00 00 00 00 00 00 00 00 00 00 00 00 00 00 00 00
       0.0 0.0 0.0 0.0
000110 00 00 00 00 00 00 00 00 00 00 00 00 00 00 00 00
       0.0 0.0 0.0 0.0
000120 00 00 00 00 00 00 00 00 00 00 00 00 00 00 00 00
       0.0 0.0 0.0 0.0
000130 00 00 00 00 00 00 00 00 00 00 00 00 00 00 00 00
       0.0 0.0 0.0 0.0

sequential.0.bn.running_var f4 [80]
000000 00 00 80 3f 00 00 80 3f 00 00 80 3f 00 00 80 3f
       1.0 1.0 1.0 1.0
000010 00 00 80 3f 00 00 80 3f 00 00 80 3f 00 00 80 3f
       1.0 1.0 1.0 1.0
000020 00 00 80 3f 00 00 80 3f 00 00 80 3f 00 00 80 3f
       1.0 1.0 1.0 1.0
000030 00 00 80 3f 00 00 80 3f 00 00 80 3f 00 00 80 3f
       1.0 1.0 1.0 1.0
000040 00 00 80 3f 00 00 80 3f 00 00 80 3f 00 00 80 3f
       1.0 1.0 1.0 1.0
000050 00 00 80 3f 00 00 80 3f 00 00 80 3f 00 00 80 3f
       1.0 1.0 1.0 1.0
000060 00 00 80 3f 00 00 80 3f 00 00 80 3f 00 00 80 3f
       1.0 1.0 1.0 1.0
000070 00 00 80 3f 00 00 80 3f 00 00 80 3f 00 00 80 3f
       1.0 1.0 1.0 1.0
000080 00 00 80 3f 00 00 80 3f 00 00 80 3f 00 00 80 3f
       1.0 1.0 1.0 1.0
000090 00 00 80 3f 00 00 80 3f 00 00 80 3f 00 00 80 3f
       1.0 1.0 1.0 1.0
0000a0 00 00 80 3f 00 00 80 3f 00 00 80 3f 00 00 80 3f
       1.0 1.0 1.0 1.0
0000b0 00 00 80 3f 00 00 80 3f 00 00 80 3f 00 00 80 3f
       1.0 1.0 1.0 1.0
0000c0 00 00 80 3f 00 00 80 3f 00 00 80 3f 00 00 80 3f
       1.0 1.0 1.0 1.0
0000d0 00 00 80 3f 00 00 80 3f 00 00 80 3f 00 00 80 3f
       1.0 1.0 1.0 1.0
0000e0 00 00 80 3f 00 00 80 3f 00 00 80 3f 00 00 80 3f
       1.0 1.0 1.0 1.0
0000f0 00 00 80 3f 00 00 80 3f 00 00 80 3f 00 00 80 3f
       1.0 1.0 1.0 1.0
000100 00 00 80 3f 00 00 80 3f 00 00 80 3f 00 00 80 3f
       1.0 1.0 1.0 1.0
000110 00 00 80 3f 00 00 80 3f 00 00 80 3f 00 00 80 3f
       1.0 1.0 1.0 1.0
000120 00 00 80 3f 00 00 80 3f 00 00 80 3f 00 00 80 3f
       1.0 1.0 1.0 1.0
000130 00 00 80 3f 00 00 80 3f 00 00 80 3f 00 00 80 3f
       1.0 1.0 1.0 1.0

sequential.2.Gamma.weight f4 [120, 80]
000000 d4 48 25 3e 9d 80 3d bd 34 35 3c 3f d0 51 84 bf
       0.16141063 -0.046265233 0.7351868 -1.0337467
000010 40 db 05 3e 22 99 84 be a9 12 ab be d6 9f 69 3e
       0.13071918 -0.2589808 -0.33412674 0.22814879
000020 01 56 1a bd 43 15 6f 3c 22 86 da 3d 90 84 ba bd
       -0.037679676 0.0145924715 0.10670115 -0.091073155
000030 2d 17 d3 be d7 4f 98 3d 6a 7a 68 be 5d 1f ff 3d
       -0.4122862 0.07437103 -0.22702947 0.12457154
000040 bb b0 47 3d 88 ab a8 be 38 2e 58 be a0 86 23 be
       0.048752528 -0.32943368 -0.21111381 -0.15969324
000050 6d 6b 19 3f e4 ef c6 be 7d eb b8 be 83 9b 25 bf
       0.59929544 -0.38854897 -0.36117163 -0.6469042
000060 6b 7a 44 be 8c 23 72 be 48 13 8f be 9d c1 ec bd
       -0.19187324 -0.23646373 -0.27944398 -0.11560366
000070 1e 11 ed 3c 4d 57 96 be bc 50 84 3e 8c a7 1a be
       0.028938826 -0.2936348 0.25842845 -0.15102977
000080 f1 54 a8 3d d8 b7 01 bf 28 ac 0f be 63 de be be
       0.08219326 -0.5067115 -0.14030516 -0.37279043
000090 03 b3 50 bd f9 af d6 3d 1b 4e 6e be 2d e2 8a be
       -0.05095197 0.10482783 -0.23271982 -0.27125683
0000a0 32 1c 49 3e cc d0 e0 3e 67 64 5c bd f9 cd d2 bd
       0.19639662 0.439093 -0.05380669 -0.102931924
0000b0 32 74 ca 3d 07 8a c0 3d 5a 41 ec 3d d9 bf 40 be
       0.09885444 0.094013266 0.11535902 -0.18823184
0000c0 c9 f3 7f be 65 4d a3 bd 56 1d 54 3e d5 2b e5 be
       -0.2499534 -0.07973746 0.20714316 -0.44760004
0000d0 9d 66 fe be f6 d0 83 bd 86 36 29 3d cc 7e 6f 3d
       -0.49687663 -0.064363405 0.041311763 0.058470532
0000e0 57 00 ad 3e f3 6e 81 3e f6 fc 3a 3e f9 26 1a bf
       0.33789322 0.2527996 0.1826056 -0.6021572
0000f0 23 ba a3 be 02 2c ba bd f8 45 17 be e8 b4 ea bd
       -0.3197795 -0.09090425 -0.14772785 -0.114602864
000100 e5 b7 99 bd 9d 33 b4 be bb 89 a7 3e 3c 15 cb be
       -0.07505778 -0.35195628 0.32722268 -0.39664638
000110 29 ea ac be 92 4d b9 be 69 1d 09 bf a8 1e ca be
       -0.337724 -0.36191994 -0.535605 -0.39476514
000120 97 7f 1d bc c5 85 b9 3e fd 61 e0 3d e9 06 23 be
       -0.009612939 0.3623487 0.1095619 -0.15920605
000130 f6 62 39 be 77 d8 22 bf 51 4c 9e be 32 30 1b 3e
       -0.18104157 -0.6361155 -0.309176 0.15155104
000140 3f 06 13 bd a5 ee c4 3e 8c 7c 05 be cf 94 5b be
       -0.03589463 0.3846332 -0.13035792 -0.21443485
000150 2e a0 ac be 84 9c 27 be 64 40 3d be af 01 5c bd
       -0.33715957 -0.163683 -0.18481594 -0.053712543
000160 86 f4 9e be d2 2f 06 bf fb 06 04 3e cd 57 67 bf
       -0.31045932 -0.5241672 0.12893288 -0.9036835
000170 85 c5 65 3e 16 bf 93 be eb 97 b3 3e 15 91 37 bf
       0.22438629 -0.28856725 0.35076842 -0.7170575
000180 c8 59 75 3e 44 ce 15 3f ce 6d d7 3d 94 40 a0 3e
       0.2396003 0.5851786 0.105189905 0.3129927
000190 5f 76 41 3d 91 0c 8d 3e d2 b4 d5 bb 00 62 80 be
       0.047232028 0.2754865 -0.0065217996 -0.25074768
0001a0 ba 74 0a be f7 f9 90 3e 16 91 14 bf e5 6e f1 3e
       -0.1352109 0.28315708 -0.58033884 0.47154918
0001b0 0b 92 14 3f cb ab 1a 3d f7 10 97 be 71 93 03 be
       0.58035344 0.03776149 -0.2950513 -0.12849213
0001c0 0c 8a 97 3d b4 27 d2 3d be 00 cc be 74 e7 33 be
       0.07399377 0.10261479 -0.39844316 -0.17568761
0001d0 9c 14 56 be c0 7f 38 bf 46 35 26 3e 9d f5 22 be
       -0.209063 -0.7206993 0.1623126 -0.15914007
0001e0 2a ca f6 be fc e4 12 bf 2c 8a 88 be 58 07 dc 3d
       -0.48201114 -0.5738065 -0.26667917 0.10743588
0001f0 44 4f 03 3f 89 1f 51 3e 66 7b 23 be 78 56 10 3e
       0.51292825 0.20422186 -0.15965042 0.14095485
000200 37 22 51 3d 23 16 99 3e e7 ee 77 be a9 a1 ea 3e
       0.05105802 0.298997 -0.24212228 0.45826462
000210 13 cc 40 bd 81 6e 06 3d c4 bb 5a bd 13 8b 09 be
       -0.04706962 0.03282023 -0.053401724 -0.13431959
000220 40 90 41 bf fb 92 9d bc 8f d8 c4 bb 90 80 b2 3d
       -0.75610733 -0.019235125 -0.006007261 0.087159276
000230 ce a6 04 be 60 3c be bd da 8e 9f bd 85 65 47 bf
       -0.12954256 -0.09288859 -0.07790919 -0.7788928
000240 76 bd e5 3d da bd bf be 15 62 9c 3e 3b 18 91 3e
       0.112177774 -0.37449533 0.3054358 0.283388
000250 ad 0f 00 bf f9 25 69 be bc 19 1a 3f 2e 74 ed 3d
       -0.5002392 -0.22768392 0.6019552 0.11594425
000260 de 38 63 3c 74 ed bf be aa 0f 34 3c 13 8f a5 3e
       0.013868539 -0.3748585 0.010990063 0.3233572
000270 12 90 8b bd 33 dd 3f 3d 50 cb 82 3c 20 c3 ab 3e
       -0.068145886 0.04684181 0.015966088 0.33547306
000280 47 5a bc 3d 3a 28 51 be 85 b9 cb 3d 29 5b 4f 3e
       0.091969065 -0.20425501 0.099474944 0.20249619
000290 aa 14 b2 3e a6 30 a2 3d 93 59 17 be 48 dc e8 be
       0.3478139 0.07919435 -0.14780264 -0.4548056
0002a0 02 03 c5 3d 33 c2 00 be 4d 5d d3 3d 9c f5 7a bd
       0.09619714 -0.12574081 0.1032053 -0.061269388
0002b0 45 f2 62 3e 30 60 8e 3d 27 e7 af 3e c4 8d 52 be
       0.22162731 0.0695194 0.34356043 -0.20561892
0002c0 b7 0e 63 3e 3d 32 1c 3c cd 73 00 be 94 5d 00 3c
       0.22173582 0.009533462 -0.12544174 0.007834811
0002d0 89 11 96 3e c7 9a 2d 3e 58 57 15 3f 62 22 a2 bd
       0.29310253 0.16953574 0.583364 -0.07916714
0002e0 2a 0b 38 3e 5d 8d 3c 3f f1 59 02 be 4e 25 39 3f
       0.17973009 0.73653203 -0.12729622 0.7232255
0002f0 19 02 92 be 4d 31 3a be 55 58 1d 3e 1d 8f 1b bb
       -0.28517225 -0.1818287 0.15365727 -0.0023736425
000300 f0 6a a6 3e b2 66 b0 3c d7 5d 82 3e 89 11 ae 3c
       0.32503462 0.021533344 0.2546222 0.021248596
000310 38 06 41 bc 7b 0a 84 3e 12 da cd 3e 21 da 10 3e
       -0.011781268 0.25789246 0.40205437 0.1414571
000320 c3 ce 21 3d 3f 8e a4 3c 82 14 33 be a6 fa b1 3e
       0.039503824 0.02008736 -0.17488292 0.34761542
000330 3d 3c b7 be f8 4e 89 bd df fe 59 3e 76 68 85 3e
       -0.35788146 -0.06704515 0.21288632 0.2605626
000340 8b 16 fc bc ec 39 a2 3e 8a 76 7a 3e 5f d7 6a 3e
       -0.030772468 0.31684816 0.24459282 0.2293372
000350 95 4d 86 3e 73 6a 86 3e 95 14 1b be 62 75 81 3e
       0.26231065 0.2625309 -0.1514457 0.25284868
000360 20 f9 9c be ef ad 0b 3f f6 11 5e 3d ff 2e 19 3f
       -0.30658817 0.54562277 0.054216348 0.59837335
000370 92 76 88 be 7e 7e 46 3b d0 ce b1 3e 06 8a 84 be
       -0.26652962 0.0030287798 0.34728098 -0.25886554
000380 fe 66 f3 3c 6f 1e 62 3e 4e 0c 47 3e 7d ef 24 3d
       0.029712196 0.22081922 0.19438288 0.040267456
000390 09 0c 04 bd e9 da 33 3e cf 98 15 be 2c 56 89 bd
       -0.03223804 0.17563976 -0.14609073 -0.06705889
0003a0 5d 5b cd 3e 60 04 59 3d b4 ee 58 3e b2 d9 1f be
       0.40108767 0.052982688 0.21184808 -0.15610388
0003b0 d7 6f 81 bd aa 7e db 3e e2 8e 89 be 8e 7b ab 3e
       -0.0632016 0.42870075 -0.26866823 0.33492702
0003c0 fa 03 e3 bc e4 9e 59 bd 91 d6 c1 be ca 8c 84 3e
       -0.027711857 -0.053130046 -0.37859014 0.25888664
0003d0 65 c2 fa 3e a1 8d d9 be d7 9f 0e bf 0d e8 4d 3e
       0.48976436 -0.42490867 -0.55712646 0.20108052
0003e0 9b 73 ff 3e 88 1a 97 be c2 cd 6a be ab 71 a7 3e
       0.49892887 -0.2951243 -0.22930053 0.3270391
0003f0 49 b2 16 bf f0 ab 37 bf 2b 3d a7 3d 10 76 13 3d
       -0.5886579 -0.7174673 0.08165964 0.036001265

sequential.2.Gamma.bias f4 [120]
000000 89 d7 da be 2b 1a 22 3e ee a1 a9 be 3e f3 50 be
       -0.42742565 0.15830295 -0.33131355 -0.2040529
000010 fb 69 9d 3d 4c 68 b0 3e 3e c1 b5 be 2d 9a 35 3d
       0.0768623 0.34454572 -0.35498995 0.044336487
000020 86 30 65 be 66 f9 32 3c c0 6a bf 3c 8f fb bc be
       -0.22381791 0.010923719 0.023366332 -0.36910674
000030 6a 38 5f bd 58 67 1d bf 51 16 9d be 8d 64 c2 be
       -0.05449716 -0.61485815 -0.3068109 -0.3796734
000040 af 9c d4 be 8a a0 3e 3d 82 b5 9e be 96 56 1e bf
       -0.4152579 0.04653982 -0.30997854 -0.6185087
000050 9d b8 b0 be b7 d3 69 bd 6a 81 44 be e2 e6 86 be
       -0.3451585 -0.057086673 -0.19189993 -0.26348025
000060 b3 0b 1b be df 74 c0 bd 58 a4 63 be e4 3e 2d bf
       -0.15141182 -0.093972914 -0.22230661 -0.6767409
000070 5c 52 94 b8 27 da 21 3e b0 02 23 be 78 e4 a1 be
       -7.0725306e-05 0.15805875 -0.15918994 -0.3161962
000080 75 da 53 be fe 08 a7 be de cf 33 be a1 a4 d7 bd
       -0.20688803 -0.32624048 -0.17559764 -0.10529447
000090 c8 14 62 bf 3a 5d cb 3e 2c 8e 9c be 92 d0 85 3e
       -0.8831296 0.39719564 -0.3057722 0.2613569
0000a0 3d 56 1a bd 81 6b ea bd f4 99 99 be 13 cc ae 3e
       -0.0376799 -0.11446286 -0.3000027 0.3414007
0000b0 07 04 bd 3c 06 0a 7d 3e 43 4d b8 be 2b 1f 76 be
       0.02307321 0.24710855 -0.35996446 -0.24035327
0000c0 4a ce 33 be 18 14 17 bf fc 44 f4 3d a9 05 a0 be
       -0.17559162 -0.59015036 0.1192722 -0.31254318
0000d0 4b 45 d5 be b3 37 81 bd 07 ec 60 3d 93 6e 05 bf
       -0.4165443 -0.06309452 0.054912593 -0.5212185
0000e0 0b 60 0d 3d 6f e2 18 3e a8 24 9c be 8e 3a 45 bd
       0.03451542 0.14930128 -0.30496716 -0.048151545
0000f0 70 51 4d 3e 47 85 45 be ac 0d af 3d dd 69 e1 be
       0.20050597 -0.19289123 0.085475296 -0.4402608
000100 c5 0a 10 3e d6 a6 0a be 81 67 48 be 2a 07 2d be
       0.14066608 -0.13540205 -0.19570734 -0.16897264
000110 81 80 36 bf 72 3f 49 bf 7a 99 d2 bd a5 2f 89 bd
       -0.7128983 -0.78612435 -0.102831796 -0.066985406
000120 de 6e a4 be c3 67 f2 be 33 bd 02 bf 73 e7 5f be
       -0.32115835 -0.4734479 -0.51069945 -0.21865635
000130 eb ee 83 3e c1 e7 06 3e ff ba b5 3c a2 05 10 bd
       0.25768217 0.13174345 0.022183893 -0.035161622
000140 45 a5 ab 3e a6 cb b2 be 04 a2 2c bf 51 fe 16 3e
       0.33524528 -0.34920996 -0.67434716 0.14745452
000150 4f f8 46 3e e9 b4 f2 be 35 01 00 be 53 a6 1e be
       0.1943066 -0.47403648 -0.1250046 -0.15493135
000160 8a e9 a6 bc c0 e5 d8 be 8e a4 17 3e 01 4d 6b be
       -0.020375032 -0.42362785 0.14808866 -0.22978593
000170 0d 94 1e 3c 90 04 d7 be 7b 12 cd be 8a 6c 3a 3e
       0.009678853 -0.41995668 -0.40053162 0.18205467
000180 14 8b 2e 3e 00 01 20 be e6 6f eb be 7e 1d db be
       0.17045242 -0.15625381 -0.4598381 -0.42795938
000190 aa b2 f4 bd d8 08 5c be 09 2c 22 be 65 a4 05 be
       -0.1194814 -0.21487749 -0.1583711 -0.13050993
0001a0 0f 54 80 be 48 6c 95 bd 9c 6f c2 be cb 85 06 be
       -0.25064132 -0.07296044 -0.37975776 -0.13136975
0001b0 83 7b 04 3e fe bb b3 be 23 34 a8 3c 6b b6 51 bf
       0.12937741 -0.35104364 0.020532673 -0.8191897
0001c0 a9 88 4c 3e 68 db 92 be fc 9d 08 3d 9a a0 e1 be
       0.19974007 -0.2868302 0.03335379 -0.44067842
0001d0 42 c6 24 be ad 0c e9 bc 80 6d c4 3e 06 e0 c7 3c
       -0.16091254 -0.028448427 0.38364792 0.024398815

sequential.2.Lambda.weight f4 [120, 80]
000000 2e 53 20 be 46 1d bf bd c8 2b 36 3f af 6d 29 bf
       -0.1565673 -0.09331755 0.71160555 -0.6618299
000010 f2 e1 ad be 9f 54 36 3d 26 27 51 bf c6 90 44 3e
       -0.33961445 0.044514295 -0.8170036 0.19195852
000020 aa 32 5a 3e bf cc 47 3e ae f9 31 ba 9a 18 37 3d
       0.2130839 0.19511698 -0.00067892193 0.044701196
000030 e4 40 02 3e 52 32 e5 3d a2 88 8f be 05 fa 35 be
       0.12720066 0.111912385 -0.2803393 -0.17771156
000040 5d fb 35 3e b1 21 bd bb e9 8e c2 3d 7f 59 2b 3e
       0.17771669 -0.0057718386 0.09499914 0.16733359
000050 7a bb 0e 3f 62 68 b7 be 5e 28 8e 3c 44 e6 45 be
       0.55754817 -0.35821825 0.017353233 -0.1932612
000060 5c b7 14 be 0c 53 03 bf 7b ba fd bb d4 28 e6 be
       -0.14523071 -0.51298594 -0.0077431775 -0.44953024
000070 cc 19 7e 3e 2a 1b 62 be 13 97 df 3e 27 36 63 3e
       0.24814528 -0.22080675 0.43669948 0.22188626
000080 a6 a3 e9 3e cd 8c 72 3e 32 3b 99 bf b0 95 9b be
       0.45632666 0.23686524 -1.197119 -0.3038764
000090 7c 11 af 3b 4a b9 0b bf 5e a2 78 be 8f da 53 3e
       0.0053426605 -0.54579604 -0.24280688 0.20688842
0000a0 ba 5f 73 be de f4 77 bf ee 1f 41 3e bc 0e 5e be
       -0.23766986 -0.9685801 0.18859836 -0.21685308
0000b0 29 e5 66 bd 53 c8 42 bf 4f 96 ac 3e 1e eb 00 bd
       -0.056370888 -0.7608692 0.33708426 -0.031474225
0000c0 ef 10 b2 be cc fc 03 be b9 e2 2e 3f 00 74 04 bf
       -0.34778544 -0.12889403 0.683147 -0.517395
0000d0 18 bb a8 be 52 41 14 bd 69 9b be 3d ad 68 ed 3e
       -0.3295524 -0.036195107 0.09306986 0.46368924
0000e0 a3 20 01 3e 36 64 c1 3e 21 b1 b4 be 9b 88 34 bf
       0.12610106 0.37771767 -0.3529139 -0.70520943
0000f0 7e ca c4 3d 83 0b 39 bd e0 3d 6a bf c6 15 ce be
       0.09608935 -0.045176994 -0.91500664 -0.40250987
000100 33 b9 b8 3e 9e 8f cf be 62 a5 b0 3e 59 fc e9 bb
       0.36078796 -0.4053926 0.34501177 -0.007140678
000110 bb 01 8c be 30 e7 9a be 85 72 c0 bd 52 e1 78 bd
       -0.2734507 -0.30254507 -0.09396843 -0.060761757
000120 60 9a dd 3d 64 7e a0 3e fa 50 d9 3e 97 e8 4c 3e
       0.1082046 0.31346428 0.42444593 0.20010601
000130 12 66 a6 bd 19 a8 c7 be 1e 7e 77 be f1 35 6b 3d
       -0.08124937 -0.38995436 -0.24169204 0.05742449
000140 fa af 19 3e d1 9f 68 39 85 e4 a5 be 57 4d 9c be
       0.15008536 0.0002218478 -0.3240091 -0.30527756
000150 c6 fc 66 bd 58 0a df 3c 68 d4 40 3e ba 88 a7 3e
       -0.056393407 0.027226612 0.18831027 0.32721502
000160 07 66 27 be 51 b7 76 be f6 ac 25 3e 8c bb 59 3e
       -0.16347514 -0.24093367 0.1617926 0.2126295
000170 7a bc d7 3d 70 8f 9f be 33 bc 55 3e c4 57 cb 3e
       0.10533996 -0.31164122 0.20872574 0.39715397
000180 04 83 8c 3e 89 e2 fc 3b dc 7a 2e be 6a b3 01 3f
       0.27443707 0.007717435 -0.17039055 0.5066439
000190 87 2c 46 be db 19 c7 3e c9 ad 89 be ea fc 17 3e
       -0.19352923 0.38886914 -0.268904 0.14842573
0001a0 3e 54 a1 be 8a 3a 1e bd e3 72 c1 bc 12 94 fc 3e
       -0.31509584 -0.038630046 -0.023614353 0.4933172
0001b0 fb 46 83 3e 1d 9c 04 3f 81 3e fb bd 86 b9 0d be
       0.2564009 0.5180071 -0.12267781 -0.13840303
0001c0 57 be 2e 3e 49 b6 8d 3e 5c d9 9e 3e 5b 32 47 3d
       0.17064796 0.27678135 0.31025207 0.048632007
0001d0 d9 8b 9d bc ff 81 c7 be 5d 7c 6f 3e 6d be 0f bf
       -0.019231724 -0.38966367 0.23387285 -0.5614994
0001e0 8c e4 d8 3c 6b c6 19 3f 36 ec cc be a0 99 14 3b
       0.026476167 0.60068387 -0.40023965 0.0022674575
0001f0 47 79 da 3e 0f 9c 75 3e ef 12 00 bf be d8 52 bd
       0.42670652 0.23985313 -0.5002889 -0.051476233
000200 ce 11 10 be 54 34 c2 3d 84 cc bd be d9 7f 11 3f
       -0.14069292 0.09482637 -0.37070096 0.56835705
000210 73 4e c8 bd 8f b3 6a be 56 be 9f bd 98 a5 9f be
       -0.09780588 -0.22920059 -0.077999756 -0.31181026
000220 09 38 fa bc a9 17 81 be 22 14 49 bd b4 cb 9f be
       -0.030544298 -0.25213364 -0.049091466 -0.312101
000230 85 3f 9b be cb f8 2d bd e7 3e 0b be 2f f7 02 3f
       -0.303219 -0.042473596 -0.13598214 0.5115842
000240 d4 00 06 3d 48 ff a1 be f2 79 54 3e 5a b8 8d 3e
       0.032715634 -0.31640077 0.20749643 0.27679712
000250 68 ee 6f bd 93 1d 09 3c 4e 58 cd 3e ec de 86 3e
       -0.05857697 0.008368867 0.40106434 0.2634195
000260 4a 14 2d 3e f7 c6 74 be c1 0f 94 3e a7 2a e7 3d
       0.16902271 -0.23904024 0.2891827 0.11287432
000270 c6 6f e5 be c3 f3 0c be 67 6c ee 3e 3e 39 a1 bc
       -0.4481184 -0.13764863 0.4656708 -0.019680616
000280 34 d6 22 3e 49 10 ce be 58 b5 9e 3d 13 77 3a bd
       0.15902025 -0.402468 0.07749432 -0.045523714
000290 eb b2 d1 bd d8 1e 89 bd 45 cb 0c be a1 f5 96 bd
       -0.10239204 -0.06695336 -0.13749416 -0.07371069
0002a0 7f 65 80 be 7a 4e da 3e 7c 0e 2d bb 58 0b 18 3e
       -0.25077435 0.42637998 -0.0026406338 0.14848077
0002b0 84 19 95 3e 88 58 20 bf 37 38 a8 3e e7 29 12 bd
       0.2912103 -0.6263509 0.3285539 -0.035684492
0002c0 a1 45 86 be 2d a7 ed 3d ef f2 d4 bc 5b ae 1e be
       -0.26224998 0.11604152 -0.025994746 -0.15496199
0002d0 b7 c4 b3 3d 55 02 55 3e a9 ee bf bd ae d5 9b be
       0.08777755 0.20801671 -0.09371693 -0.30436462
0002e0 3a 23 9e 3d e4 d6 d7 3e 2d 7a dd bd 4c 90 7a bd
       0.07721563 0.42156136 -0.10814319 -0.06117277
0002f0 7f c9 b6 3e d7 7e 32 be b1 4b ce 3e 87 36 62 3e
       0.35700604 -0.17431198 0.40292123 0.22091113
000300 c5 71 4c 3e 69 4a 87 3e e3 34 d8 3d d7 c4 0f 3d
       0.19965275 0.26423958 0.10556962 0.03509983
000310 78 93 a9 bd d6 9d 39 be 14 6d 82 3d 00 4e 2d 3e
       -0.082800806 -0.18126616 0.06368461 0.16924286
000320 01 fb bb 3e 2e a9 67 be bf be 13 bc ee 82 78 3e
       0.36714938 -0.2262313 -0.009017645 0.24268696
000330 26 1a 0a be 07 8f fc 3e 01 eb 14 bd 17 bc c3 3a
       -0.13486537 0.4932787 -0.03635693 0.0014933374
000340 c4 90 51 bd 31 39 11 3e c0 0c 04 3e 94 f9 08 3f
       -0.05116345 0.14181973 0.12895489 0.53505826
000350 ce 66 56 3d 37 42 f8 be a3 37 b6 be bf c6 ef bd
       0.052344136 -0.48488018 -0.35589322 -0.1170783
000360 71 22 84 bc 2f 0b 07 be 31 5c 0f be 3e 61 e6 3b
       -0.016129704 -0.1318786 -0.14000012 0.007030635
000370 f1 d4 80 3e 23 65 30 3d 9d 0a 05 bf 30 17 15 3e
       0.2516246 0.0430652 -0.5196932 0.14559627
000380 d1 87 58 3e f5 29 cc 3e ba a0 15 bd 45 0c ab 3d
       0.2114556 0.3987576 -0.036530234 0.083519496
000390 b4 71 3e be 7e e2 bc 3d ad 1d 54 3e b2 93 69 3e
       -0.18598062 0.092228875 0.20714445 0.22810248
0003a0 27 6e 07 bd fd ee 07 be f4 1d 16 3e da 64 26 be
       -0.033064034 -0.1327476 0.14659864 -0.1624941
0003b0 4f 9e 54 be 5b a0 4e 3e 5e c0 59 be 0f 99 42 bd
       -0.20763515 0.20178358 -0.21264789 -0.04750925
0003c0 79 d7 20 be 36 ca 33 be a5 7d e5 3d e7 8d f1 bc
       -0.15707196 -0.17557606 0.112056054 -0.02948661
0003d0 ef 11 0a 3f 28 46 01 bf 78 3b f8 be d7 c5 86 bc
       0.53933614 -0.50497675 -0.4848287 -0.01645176
0003e0 4c 06 db 3d 84 a7 80 be 5c d0 a6 be cd d0 f1 bc
       0.106945604 -0.25127804 -0.3258084 -0.02951851
0003f0 ee 8a 5f bd 8e 04 b1 be 11 60 f2 3d 9e 87 0b be
       -0.054575853 -0.34573787 0.118347295 -0.13625953

sequential.2.Lambda.bias f4 [120]
000000 89 d7 da be 2b 1a 22 3e ee a1 a9 be 3e f3 50 be
       -0.42742565 0.15830295 -0.33131355 -0.2040529
000010 fb 69 9d 3d 4c 68 b0 3e 3e c1 b5 be 2d 9a 35 3d
       0.0768623 0.34454572 -0.35498995 0.044336487
000020 86 30 65 be 66 f9 32 3c c0 6a bf 3c 8f fb bc be
       -0.22381791 0.010923719 0.023366332 -0.36910674
000030 6a 38 5f bd 58 67 1d bf 51 16 9d be 8d 64 c2 be
       -0.05449716 -0.61485815 -0.3068109 -0.3796734
000040 af 9c d4 be 8a a0 3e 3d 82 b5 9e be 96 56 1e bf
       -0.4152579 0.04653982 -0.30997854 -0.6185087
000050 9d b8 b0 be b7 d3 69 bd 6a 81 44 be e2 e6 86 be
       -0.3451585 -0.057086673 -0.19189993 -0.26348025
000060 b3 0b 1b be df 74 c0 bd 58 a4 63 be e4 3e 2d bf
       -0.15141182 -0.093972914 -0.22230661 -0.6767409
000070 5c 52 94 b8 27 da 21 3e b0 02 23 be 78 e4 a1 be
       -7.0725306e-05 0.15805875 -0.15918994 -0.3161962
000080 75 da 53 be fe 08 a7 be de cf 33 be a1 a4 d7 bd
       -0.20688803 -0.32624048 -0.17559764 -0.10529447
000090 c8 14 62 bf 3a 5d cb 3e 2c 8e 9c be 92 d0 85 3e
       -0.8831296 0.39719564 -0.3057722 0.2613569
0000a0 3d 56 1a bd 81 6b ea bd f4 99 99 be 13 cc ae 3e
       -0.0376799 -0.11446286 -0.3000027 0.3414007
0000b0 07 04 bd 3c 06 0a 7d 3e 43 4d b8 be 2b 1f 76 be
       0.02307321 0.24710855 -0.35996446 -0.24035327
0000c0 4a ce 33 be 18 14 17 bf fc 44 f4 3d a9 05 a0 be
       -0.17559162 -0.59015036 0.1192722 -0.31254318
0000d0 4b 45 d5 be b3 37 81 bd 07 ec 60 3d 93 6e 05 bf
       -0.4165443 -0.06309452 0.054912593 -0.5212185
0000e0 0b 60 0d 3d 6f e2 18 3e a8 24 9c be 8e 3a 45 bd
       0.03451542 0.14930128 -0.30496716 -0.048151545
0000f0 70 51 4d 3e 47 85 45 be ac 0d af 3d dd 69 e1 be
       0.20050597 -0.19289123 0.085475296 -0.4402608
000100 c5 0a 10 3e d6 a6 0a be 81 67 48 be 2a 07 2d be
       0.14066608 -0.13540205 -0.19570734 -0.16897264
000110 81 80 36 bf 72 3f 49 bf 7a 99 d2 bd a5 2f 89 bd
       -0.7128983 -0.78612435 -0.102831796 -0.066985406
000120 de 6e a4 be c3 67 f2 be 33 bd 02 bf 73 e7 5f be
       -0.32115835 -0.4734479 -0.51069945 -0.21865635
000130 eb ee 83 3e c1 e7 06 3e ff ba b5 3c a2 05 10 bd
       0.25768217 0.13174345 0.022183893 -0.035161622
000140 45 a5 ab 3e a6 cb b2 be 04 a2 2c bf 51 fe 16 3e
       0.33524528 -0.34920996 -0.67434716 0.14745452
000150 4f f8 46 3e e9 b4 f2 be 35 01 00 be 53 a6 1e be
       0.1943066 -0.47403648 -0.1250046 -0.15493135
000160 8a e9 a6 bc c0 e5 d8 be 8e a4 17 3e 01 4d 6b be
       -0.020375032 -0.42362785 0.14808866 -0.22978593
000170 0d 94 1e 3c 90 04 d7 be 7b 12 cd be 8a 6c 3a 3e
       0.009678853 -0.41995668 -0.40053162 0.18205467
000180 14 8b 2e 3e 00 01 20 be e6 6f eb be 7e 1d db be
       0.17045242 -0.15625381 -0.4598381 -0.42795938
000190 aa b2 f4 bd d8 08 5c be 09 2c 22 be 65 a4 05 be
       -0.1194814 -0.21487749 -0.1583711 -0.13050993
0001a0 0f 54 80 be 48 6c 95 bd 9c 6f c2 be cb 85 06 be
       -0.25064132 -0.07296044 -0.37975776 -0.13136975
0001b0 83 7b 04 3e fe bb b3 be 23 34 a8 3c 6b b6 51 bf
       0.12937741 -0.35104364 0.020532673 -0.8191897
0001c0 a9 88 4c 3e 68 db 92 be fc 9d 08 3d 9a a0 e1 be
       0.19974007 -0.2868302 0.03335379 -0.44067842
0001d0 42 c6 24 be ad 0c e9 bc 80 6d c4 3e 06 e0 c7 3c
       -0.16091254 -0.028448427 0.38364792 0.024398815

sequential.2.bn.running_mean f4 [120]
000000 00 00 00 00 00 00 00 00 00 00 00 00 00 00 00 00
       0.0 0.0 0.0 0.0
000010 00 00 00 00 00 00 00 00 00 00 00 00 00 00 00 00
       0.0 0.0 0.0 0.0
000020 00 00 00 00 00 00 00 00 00 00 00 00 00 00 00 00
       0.0 0.0 0.0 0.0
000030 00 00 00 00 00 00 00 00 00 00 00 00 00 00 00 00
       0.0 0.0 0.0 0.0
000040 00 00 00 00 00 00 00 00 00 00 00 00 00 00 00 00
       0.0 0.0 0.0 0.0
000050 00 00 00 00 00 00 00 00 00 00 00 00 00 00 00 00
       0.0 0.0 0.0 0.0
000060 00 00 00 00 00 00 00 00 00 00 00 00 00 00 00 00
       0.0 0.0 0.0 0.0
000070 00 00 00 00 00 00 00 00 00 00 00 00 00 00 00 00
       0.0 0.0 0.0 0.0
000080 00 00 00 00 00 00 00 00 00 00 00 00 00 00 00 00
       0.0 0.0 0.0 0.0
000090 00 00 00 00 00 00 00 00 00 00 00 00 00 00 00 00
       0.0 0.0 0.0 0.0
0000a0 00 00 00 00 00 00 00 00 00 00 00 00 00 00 00 00
       0.0 0.0 0.0 0.0
0000b0 00 00 00 00 00 00 00 00 00 00 00 00 00 00 00 00
       0.0 0.0 0.0 0.0
0000c0 00 00 00 00 00 00 00 00 00 00 00 00 00 00 00 00
       0.0 0.0 0.0 0.0
0000d0 00 00 00 00 00 00 00 00 00 00 00 00 00 00 00 00
       0.0 0.0 0.0 0.0
0000e0 00 00 00 00 00 00 00 00 00 00 00 00 00 00 00 00
       0.0 0.0 0.0 0.0
0000f0 00 00 00 00 00 00 00 00 00 00 00 00 00 00 00 00
       0.0 0.0 0.0 0.0
000100 00 00 00 00 00 00 00 00 00 00 00 00 00 00 00 00
       0.0 0.0 0.0 0.0
000110 00 00 00 00 00 00 00 00 00 00 00 00 00 00 00 00
       0.0 0.0 0.0 0.0
000120 00 00 00 00 00 00 00 00 00 00 00 00 00 00 00 00
       0.0 0.0 0.0 0.0
000130 00 00 00 00 00 00 00 00 00 00 00 00 00 00 00 00
       0.0 0.0 0.0 0.0
000140 00 00 00 00 00 00 00 00 00 00 00 00 00 00 00 00
       0.0 0.0 0.0 0.0
000150 00 00 00 00 00 00 00 00 00 00 00 00 00 00 00 00
       0.0 0.0 0.0 0.0
000160 00 00 00 00 00 00 00 00 00 00 00 00 00 00 00 00
       0.0 0.0 0.0 0.0
000170 00 00 00 00 00 00 00 00 00 00 00 00 00 00 00 00
       0.0 0.0 0.0 0.0
000180 00 00 00 00 00 00 00 00 00 00 00 00 00 00 00 00
       0.0 0.0 0.0 0.0
000190 00 00 00 00 00 00 00 00 00 00 00 00 00 00 00 00
       0.0 0.0 0.0 0.0
0001a0 00 00 00 00 00 00 00 00 00 00 00 00 00 00 00 00
       0.0 0.0 0.0 0.0
0001b0 00 00 00 00 00 00 00 00 00 00 00 00 00 00 00 00
       0.0 0.0 0.0 0.0
0001c0 00 00 00 00 00 00 00 00 00 00 00 00 00 00 00 00
       0.0 0.0 0.0 0.0
0001d0 00 00 00 00 00 00 00 00 00 00 00 00 00 00 00 00
       0.0 0.0 0.0 0.0

sequential.2.bn.running_var f4 [120]
000000 00 00 80 3f 00 00 80 3f 00 00 80 3f 00 00 80 3f
       1.0 1.0 1.0 1.0
000010 00 00 80 3f 00 00 80 3f 00 00 80 3f 00 00 80 3f
       1.0 1.0 1.0 1.0
000020 00 00 80 3f 00 00 80 3f 00 00 80 3f 00 00 80 3f
       1.0 1.0 1.0 1.0
000030 00 00 80 3f 00 00 80 3f 00 00 80 3f 00 00 80 3f
       1.0 1.0 1.0 1.0
000040 00 00 80 3f 00 00 80 3f 00 00 80 3f 00 00 80 3f
       1.0 1.0 1.0 1.0
000050 00 00 80 3f 00 00 80 3f 00 00 80 3f 00 00 80 3f
       1.0 1.0 1.0 1.0
000060 00 00 80 3f 00 00 80 3f 00 00 80 3f 00 00 80 3f
       1.0 1.0 1.0 1.0
000070 00 00 80 3f 00 00 80 3f 00 00 80 3f 00 00 80 3f
       1.0 1.0 1.0 1.0
000080 00 00 80 3f 00 00 80 3f 00 00 80 3f 00 00 80 3f
       1.0 1.0 1.0 1.0
000090 00 00 80 3f 00 00 80 3f 00 00 80 3f 00 00 80 3f
       1.0 1.0 1.0 1.0
0000a0 00 00 80 3f 00 00 80 3f 00 00 80 3f 00 00 80 3f
       1.0 1.0 1.0 1.0
0000b0 00 00 80 3f 00 00 80 3f 00 00 80 3f 00 00 80 3f
       1.0 1.0 1.0 1.0
0000c0 00 00 80 3f 00 00 80 3f 00 00 80 3f 00 00 80 3f
       1.0 1.0 1.0 1.0
0000d0 00 00 80 3f 00 00 80 3f 00 00 80 3f 00 00 80 3f
       1.0 1.0 1.0 1.0
0000e0 00 00 80 3f 00 00 80 3f 00 00 80 3f 00 00 80 3f
       1.0 1.0 1.0 1.0
0000f0 00 00 80 3f 00 00 80 3f 00 00 80 3f 00 00 80 3f
       1.0 1.0 1.0 1.0
000100 00 00 80 3f 00 00 80 3f 00 00 80 3f 00 00 80 3f
       1.0 1.0 1.0 1.0
000110 00 00 80 3f 00 00 80 3f 00 00 80 3f 00 00 80 3f
       1.0 1.0 1.0 1.0
000120 00 00 80 3f 00 00 80 3f 00 00 80 3f 00 00 80 3f
       1.0 1.0 1.0 1.0
000130 00 00 80 3f 00 00 80 3f 00 00 80 3f 00 00 80 3f
       1.0 1.0 1.0 1.0
000140 00 00 80 3f 00 00 80 3f 00 00 80 3f 00 00 80 3f
       1.0 1.0 1.0 1.0
000150 00 00 80 3f 00 00 80 3f 00 00 80 3f 00 00 80 3f
       1.0 1.0 1.0 1.0
000160 00 00 80 3f 00 00 80 3f 00 00 80 3f 00 00 80 3f
       1.0 1.0 1.0 1.0
000170 00 00 80 3f 00 00 80 3f 00 00 80 3f 00 00 80 3f
       1.0 1.0 1.0 1.0
000180 00 00 80 3f 00 00 80 3f 00 00 80 3f 00 00 80 3f
       1.0 1.0 1.0 1.0
000190 00 00 80 3f 00 00 80 3f 00 00 80 3f 00 00 80 3f
       1.0 1.0 1.0 1.0
0001a0 00 00 80 3f 00 00 80 3f 00 00 80 3f 00 00 80 3f
       1.0 1.0 1.0 1.0
0001b0 00 00 80 3f 00 00 80 3f 00 00 80 3f 00 00 80 3f
       1.0 1.0 1.0 1.0
0001c0 00 00 80 3f 00 00 80 3f 00 00 80 3f 00 00 80 3f
       1.0 1.0 1.0 1.0
0001d0 00 00 80 3f 00 00 80 3f 00 00 80 3f 00 00 80 3f
       1.0 1.0 1.0 1.0
