Models/Z_50GeV_100.pth (torch, 197904 bytes, 36 tensors)

sequential.0.Gamma.weight f4 [80, 5]
00000000: 32c4 fbbe 3914 123e 6d74 043f abb8 91be
00000010: 6bcb 833f 9825 8e3f 3c21 9ebf 9b70 8f3e
00000020: 0fe9 093f 8e95 17bf 17e8 53bf b2b4 c33f
00000030: 2fce 373f 31c8 953f 9afc 74bf 757e fa3d
00000040: 080a 29be 084a c7bc d6aa 903e d042 b2bd
00000050: b7b0 913f 2e53 4e3f 1948 fe3e c497 e3be
00000060: a6e5 ccbe 2dd9 88bf 18be 1f3f e9cf ba3d
00000070: 8b97 b8be 9140 c83e 304d 883e 307e 113f
00000080: c920 603f 5f75 17bf fc66 9dbf 95d1 00bf
00000090: aaf8 67bf 242c afbd f66d 173f 5cb4 003f
000000a0: 0b3a 1abe 1c7f 023e ec15 57bf 64d4 81bf
000000b0: 929f 54be 3d88 8a3f 7065 82bf 2815 55be
000000c0: c62e 3f3f db66 ccbe 0233 75bf b38d 243f
000000d0: 74b9 fa3f a359 b83f aefe 9fbf 4831 02bf
000000e0: c789 9fbe 4868 b1be 764d b83f 1cad 1fbe
000000f0: 710b d23e dc1b c1bd e909 e43e b6df a73f
00000100: 8af1 0ebf 183b 1d3f 89fd 0d3f 36dd 5c3f
00000110: 7247 d43d a2c3 8ebf ec66 0c3e e0ad 92bf
00000120: ebb9 853f e18c 0b3f 8e70 a83e 8bda 933e
00000130: 3b2f 583f eadb 80be 9924 09bf 7848 033f
00000140: 6fdc 083f 29b3 113e 3177 b1be a107 4cbe
00000150: 9194 8b3e 544f 51bf ec45 41bf 9114 0b3f
00000160: 025f 9abe 56b3 9b3c 3d81 1e3f 9447 6bbf
00000170: ec36 75be 4f9d 1fbf 1b9c 483f 533e b63f
00000180: 5da9 023f 5657 393e 8c91 98be ada2 b5be
00000190: ffb9 e13e 6d31 4d3e 497d 66be 18f9 56be
000001a0: c8b6 913f 8408 8b3e da20 ab3e dad4 b0be
000001b0: bec6 9abf 32fc 253e c737 05bf a2c4 47be
000001c0: 5cd7 1cbf 32d6 143f 7015 2f3f f9a9 7b3e
000001d0: d65b 6d3f 47c3 c8be 3f39 bcbe cfa6 653c
000001e0: 6fb0 12be 2654 a73d 148d 933e 1732 8e3f
000001f0: 8772 e9be 3754 bc3e febf a43f 9565 aebd
00000200: 85bd afbf 23cd bd3e ae1f 46bf 22fb 3dbf
00000210: 03e9 d13e 6252 c33e 4c7b e63e d80f 563e
00000220: 78be 243f 6f60 9e3e 3205 693f 88f7 d5be
00000230: f0e7 19bf b356 243f 5246 4b3e d56a 64bf
00000240: 66d2 d93d f40c 183f ddf8 7a3e 88b8 3abf
00000250: 8d10 203e 50ad 7e3f e89f 0cbf f7f1 843f
00000260: 7f4a 20bf b8df 84bf b31f 6b3f 6a64 7b3f
00000270: b259 123e 4b67 91bf 823f 96be 5b8f 593e
00000280: 74ed c23e 470c 4b3d e215 833f aac0 413e
00000290: 0ee8 29bf 1278 043f 82fb e13e f02c 473f
000002a0: 3746 71bf 2eb9 433f 360f 1b3f 1dc0 573f
000002b0: d689 803f db80 debf a8f3 52bf b67d 0ebf
000002c0: c044 9abd 09ea 92bf 2749 26bd b596 113f
000002d0: 3b93 803f 8e11 993f 78ea 053e 2229 ef3f
000002e0: 3cda 143b 7556 be3e 318b 34bf e2cc 043c
000002f0: 08d2 aebf 49c7 c43f 8915 913f 0271 81bf
00000300: 107c 343f b05b 37be d3b5 1bbf 27ea 863e
00000310: 39e8 81bd 8f78 5b3f 2acc fe3e b655 e5be
00000320: c5d5 8a3f 00d7 7d3e 3890 5c3e a007 0a3f
00000330: f7c8 8abf 198d c33f e03c 9d3f 8233 bfbe
00000340: f6be 62be ded0 bfbe 806f 943f 8d48 cd3e
00000350: 5a7d 9fbe fa52 b0bf 8a6c 9ebd 218c 31be
00000360: 08af 24be d6a7 543e b219 7d3e 53b0 febe
00000370: 30ac 0b3f d05d b13e 8e6a 2b3e bfd8 34bf
00000380: aadc 8f3f b878 793f ce6b 253f 869e 0b3f
00000390: 8e46 c43f 248b 1dbf 7312 adbd d1be 263f
000003a0: 9c03 443b 58fd a53e 9dc9 303e cb20 96bf
000003b0: ac35 b33f e521 cabe e21f d13e 8309 7fbe
000003c0: f826 f83e dc36 c7be ded3 7abf 8810 af3c
000003d0: c0f1 b6be 3fbe 293e 2c6c 9bbf 4503 fa3e
000003e0: 81fd 783f 1b37 bdbf 465b 04be 74b0 953f
000003f0: 99ad 253e 5365 073e c532 67be e366 4abf
-0.49173123 0.14265527 0.5174015 -0.28461203 1.0296453 1.1105223 -1.2353892 0.280156
0.53871244 -0.5921258 -0.82776016 1.5289519 0.71798986 1.1701719 -0.9569794 0.12231151
-0.16507733 -0.024327293 0.28255337 -0.0870415 1.1382054 0.8059567 0.4966438 -0.44451725
-0.40018958 -1.0691277 0.62399435 0.09121687 -0.36053118 0.3911176 0.2662139 0.5683317
0.87550026 -0.5916347 -1.2297053 -0.50319797 -0.90613806 -0.08553341 0.5915216 0.50275207
-0.15061204 0.12743801 -0.84017825 -1.0142941 -0.20763996 1.0822827 -1.0187206 -0.20808852
0.74680746 -0.39922222 -0.95780957 0.64278716 1.9587846 1.4402355 -1.2499597 -0.5085645
-0.31159803 -0.34649873 1.4398639 -0.1559338 0.41024354 -0.09429142 0.4453881 1.3115146
-0.5583731 0.61418295 0.5546499 0.8627504 0.103651896 -1.1153452 0.13711137 -1.1459312
1.0447363 0.5451184 0.32898372 0.28877673 0.8444707 -0.2516778 -0.5357147 0.51282454
0.53461355 0.142285 -0.34661248 -0.19924785 0.27261785 -0.8176167 -0.7549732 0.54328257
-0.3015061 0.019006412 0.6191595 -0.91906095 -0.23946732 -0.6234941 0.783632 1.423777
0.5103968 0.18099722 -0.29798543 -0.35475674 0.44087216 0.20038386 -0.2250873 -0.20993459
1.1383905 0.27154934 0.334235 -0.34537393 -1.2091901 0.16209486 -0.52038234 -0.19508603
-0.6126611 0.58139336 0.68392086 0.24576558 0.92718256 -0.39211485 -0.36762425 0.014016821
-0.14325117 0.08170347 0.28818572 1.1109036 -0.4559519 0.36783 1.2871091 -0.08515469
-1.3729712 0.3707057 -0.7739209 -0.74211323 0.40998086 0.3814879 0.45015943 0.20904481
0.6435313 0.30932948 0.9102355 -0.41790414 -0.60119534 0.6419479 0.19851044 -0.8922551
0.106358334 0.59394765 0.24508996 -0.7293782 0.15631314 0.99483204 -0.549315 1.0386342
-0.6261367 -1.0380774 0.91845244 0.98200095 0.14292029 -1.1359648 -0.29345328 0.21246092
0.38071787 0.049572255 1.0241053 0.18921152 -0.6636971 0.5174571 0.44137198 0.77802944
-0.94247764 0.76454437 0.60570085 0.84277517 1.0042064 -1.7383074 -0.8240304 -0.5566057
-0.07532644 -1.1477672 -0.040597107 0.56870586 1.0044931 1.1958482 0.13077724 1.8684428
0.0022713086 0.37175336 -0.7052489 0.0081054885 -1.3657846 1.5373317 1.1334697 -1.0112612
0.70501804 -0.1790607 -0.60824317 0.2635052 -0.06343121 0.8573083 0.4976514 -0.44791955
1.0846487 0.24789047 0.2153939 0.53917885 -1.084258 1.5277435 1.2284203 -0.37343985
-0.22143158 -0.3746404 1.1596527 0.40094414 -0.31150323 -1.3775322 -0.07735546 -0.17338611
-0.16082394 0.2076715 0.24716833 -0.497439 0.5455961 0.34641886 0.16739866 -0.7064323
1.1239216 0.9744983 0.6461762 0.5453876 1.5334032 -0.61540437 -0.084507845 0.6513491
0.0029909378 0.32419848 0.1726441 -1.1728758 1.4000754 -0.39478984 0.40844637 -0.24905972
0.4846723 -0.38909042 -0.97979534 0.021370187 -0.35731316 0.1657648 -1.2142386 0.4883062
0.97261816 -1.4782442 -0.12925443 1.1694474 0.16179504 0.13222246 -0.22577961 -0.7906324

sequential.0.Gamma.bias f4 [80]
00000000: 27b2 82be befd 8bbe f4d9 dabe 93ce 09bf
00000010: c715 96bd 4522 903d b93f 903c 3665 99be
00000020: a2b5 92be 546a f1be 163b e8bd 8f9f a3be
00000030: 8a86 89be ca3e b93e 0203 18be 315d 8d3d
00000040: 121b 073e b2ec 643d fb8f 24be 7ee1 adbb
00000050: 5268 d73e 2a81 0d3e aa85 afbe 7a6d 9bbe
00000060: 9c85 9cbc cff0 e33e 8c52 56be e0b7 aa3e
00000070: 65ea 1d3e b614 243e cb0a 1fbe 34ae 55bd
00000080: 3da1 693d d4a1 89bd 2f2c 84bd cb26 65bd
00000090: 2aa9 d03e d1f2 08bf b6f5 b63d 1347 b0be
000000a0: 6344 15bf 11a8 f7be 2e6c d63e 082e 04be
000000b0: 07a9 a93d f7c1 a0be d6ee 94be e16f b1be
000000c0: bc95 26bf f7ef abbe 7a26 62be bd1f 07be
000000d0: 3e50 373d fb55 063e f6c3 2a3e 725e 32be
000000e0: dfef f53d 9137 ffbe 7973 663d 4694 c8be
000000f0: a014 eebe e132 473e afc7 903e bb5c cf3d
00000100: 6147 d9be 4ae6 b1be 9844 91be 29e5 7ebe
00000110: 8c0a 113e 9f90 0abf 3244 b0bd 3f01 5dbf
00000120: a64d b23d 11f2 eebd 9a8e 09bf 77ad 803e
00000130: d8a8 8cbe e52c 30be 9342 a33d c743 43be
-0.25526544 -0.27342027 -0.4274441 -0.5383083 -0.073283724 0.070377864 0.01760851 -0.2996003
-0.286542 -0.47151434 -0.11339395 -0.3195767 -0.26860458 0.36180717 -0.14844897 0.069025405
0.1319392 0.055889793 -0.16070549 -0.005306422 0.42071778 0.13818803 -0.34281665 -0.3035696
-0.019106679 0.4451966 -0.20929927 0.3334341 0.15421446 0.16023526 -0.15531461 -0.052168086
0.057038534 -0.067203194 -0.0645374 -0.0559452 0.40754062 -0.5349551 0.089335844 -0.34429225
-0.58307475 -0.48370412 0.4187941 -0.12908185 0.082841925 -0.31397983 -0.29088467 -0.3465567
-0.65072227 -0.33581516 -0.2208499 -0.13195701 0.04475426 0.13118736 0.16676316 -0.1741884
0.120086424 -0.4984708 0.056262467 -0.39175624 -0.4650011 0.19453003 0.28277346 0.10125109
-0.4243727 -0.3474601 -0.28372645 -0.24892105 0.1416418 -0.54126924 -0.08606757 -0.86330026
0.087062165 -0.11667264 -0.5373322 0.25132343 -0.27472568 -0.17204626 0.079716824 -0.19068824

sequential.0.Lambda.weight f4 [80, 5]
00000000: 4514 9b3c 5dd9 84bf 5891 65be ecc8 5d3f
00000010: 37c9 46bf b904 dc3d 3d6b 273f a8ef 873e
00000020: f612 bdbe 445d 42bf 0989 9fbd 6fdd 6fbe
00000030: cce5 0bbe 13c3 043f fb8a e6bd c96b c1be
00000040: 9777 1c3f bc6f 05be c1d9 aa3e 9eff ddbe
00000050: b239 43bf 9d29 c7be 6db8 95be 657b 6b3f
00000060: a0fd e63e 755a acbd 5da6 bf3e 52be afbe
00000070: 4343 fa3e 16bb 97be e6b2 95be b1a8 09bf
00000080: 7409 d43f 463e 3e3f 1715 adbf b023 23bf
00000090: a68f 7c3f 33fa 94be 060e 143f 3607 b4be
000000a0: d9e1 83bf 96f0 7dbd ba4f 9a3f 9e12 5f3f
000000b0: fca2 cebe d876 283e 9228 3fbe 19f3 63be
000000c0: 3db4 e43e c96f a7bc 0ece c73f 61bf 86bf
000000d0: 71e2 1a3f d01e b03e dc7e 62bf 31a6 a13f
000000e0: e6e0 bfbe 6f6b b9be 63bd 73be 879b babe
000000f0: 9827 84bf 7f77 e53c c0a1 dc3e 8e4c 853f
00000100: c862 e5be fe48 43bf 7b46 bc3d 2b43 633f
00000110: d143 a0be 6e0d 77bd 73fe 843e c270 8a3f
00000120: ddfb 2bbe f963 05be 52df 85bf d3a3 5a3e
00000130: 2829 943f 6f42 883e cb74 db3d 66fd 03c0
00000140: 25de 80bf 7545 953f 5f73 ad3e 611e c4be
00000150: be4d 95bf 7b80 58be 7666 9abf e2c1 2e3f
00000160: 2f65 c2bc 7274 b73e e6b1 9dbe d578 523f
00000170: ec5e 4b3f e66a 23bf 1819 f8bd fbe7 77be
00000180: 8575 75be eee1 9ebe deeb 193e 8ca0 073f
00000190: 505c 68bd 247f a83e 4ade 52bf e215 22be
000001a0: f429 3b3f 30e0 01bf 6594 c5bc eb81 96bc
000001b0: 5450 833f cb19 503e 0222 5e3f 2265 0a3f
000001c0: c8c3 103f 5c30 febf 67f8 71be d9d9 b03d
000001d0: e0c8 8ebd 24ac 10bd 301f 2abf 62db 653f
000001e0: ecfc 1b3f 6043 89bf 2af3 2bbf 3c81 5dbf
000001f0: 2bd8 863f e27e 893f b675 3bbe b4b0 0bbf
00000200: 02c9 d1be 4af2 fe3c 6c4a 5c3f 6240 843e
00000210: d3ce 81bf 8860 393f 6700 6cbf eaf7 6cbd
00000220: b36e 10bf 09ea a73e d614 62bf 8831 493f
00000230: 0e0b 533f 182f 263f e42f ce3e b441 07bf
00000240: 73ab 71bf 9a18 e93c 4c91 35bd 8cd4 963e
00000250: d385 04bf 8127 a43e 2c4c 9fbe 613b 653f
00000260: c6b1 823e 6ce4 dcbe 7338 9dbe 2b0e af3d
00000270: 8bde dc3d daa8 0c3f 88d5 e8be 9b95 81be
00000280: a466 20bf 158e da3e b2db edbd 162c 46be
00000290: 8f45 71be 10ef 7cbf b339 7ebe 86ac 5a3f
000002a0: 17a7 67bd bcac adbe acfa a7be 3ec2 62be
000002b0: a5e5 bcbf 0dd0 353f 0373 303f 82c7 1c3e
000002c0: 51a7 11bd 27f3 c2be d2b9 1a3f cb22 f73e
000002d0: 6312 843e e3a1 f8be ac78 4cbd 7731 00bf
000002e0: 6c74 5c3f c994 483e 6d04 973e 0378 debe
000002f0: d6da 19bf affe 063f 6e24 f83e 4f80 a1bc
00000300: 3193 36be 2f15 423e 5ea9 86be 6578 513f
00000310: 2c7e b23c 01e3 5f3f 8b8a de3d bcbf dbbf
00000320: 70f3 3abe 4c5e da3e 4c7f 1dbe 2275 a53e
00000330: bdb3 403e eb67 3bbe 623d 43bf 6726 543e
00000340: 2077 503f 5b42 debe 5506 99be 850c 2a3f
00000350: 3535 f5be 328b ddbe cd21 253f ab10 9f3e
00000360: 1ba3 79bc b2fa 7c3f 33d8 c8be ee71 b6be
00000370: ad02 1abf 9c54 55bd aaa1 e7bd c6bf 373f
00000380: 155e 11bf 10b9 d83e 8573 6f3c 3cc8 053d
00000390: ab63 b5be 928a 05be 3f9d fbbe 983f 153f
000003a0: 3418 ba3e 2f5e 39bf f017 71bf a962 fe3e
000003b0: 84a1 27bf 799e 373e a71d af3e d312 debe
000003c0: 8b5a 2dbd 3514 0c3f 3a5d 2f3d e5e7 c33e
000003d0: 025a 5cbe 0f93 43bf 0a8c dfbe 2b25 523f
000003e0: 7e29 ba3f d4cf 89be 1401 85be 546e 593f
000003f0: 21e2 01bf f6f1 743e ef7c 24be 370c a0bc
0.018930564 -1.0378834 -0.22418725 0.8663471 -0.7765078 0.10743088 0.6539801 0.2655003
-0.3692853 -0.7592356 -0.07789809 -0.23424314 -0.1366188 0.5186016 -0.11256977 -0.37777546
0.6111998 -0.13030905 0.33369258 -0.43359083 -0.7625991 -0.38898936 -0.29242268 0.9198516
0.45115376 -0.08415691 0.37431613 -0.3432489 0.48879442 -0.29634923 -0.2923805 -0.5377303
1.6565385 0.7431377 -1.3522061 -0.6372633 0.9865669 -0.29097137 0.578339 -0.35161752
-1.0303298 -0.06199702 1.2055581 0.8713778 -0.40358722 0.16451585 -0.1866782 -0.22260703
0.4466876 -0.020439046 1.5609758 -1.0527154 0.6050177 0.34398508 -0.8847482 1.2628843
-0.3747627 -0.36214778 -0.23802714 -0.36446783 -1.0324583 0.028011082 0.43092155 1.0413988
-0.44801927 -0.7628325 0.091931306 0.88774365 -0.3130174 -0.060315542 0.2597538 1.0815661
-0.16795297 -0.13026418 -1.0458777 0.21351556 1.157506 0.26613185 0.10715636 -2.0623412
-1.0067793 1.1661822 0.33877084 -0.38304427 -1.166435 -0.21142761 -1.2062519 0.6826459
-0.023729889 0.35831028 -0.30799788 0.82215625 0.79441714 -0.6383499 -0.12114161 -0.24209587
-0.23970611 -0.31031746 0.15031382 0.5297935 -0.05672866 0.329095 -0.82370436 -0.1582866
0.7311089 -0.5073271 -0.024118612 -0.018372497 1.0258889 0.20322339 0.8677064 0.54060566
0.5654874 -1.9858508 -0.23629914 0.08635301 -0.069719076 -0.035320416 -0.6645384 0.89787877
0.60932803 -1.0723686 -0.67167914 -0.8652532 1.0534719 1.0741847 -0.18306622 -0.545665
-0.4097367 0.031121392 0.8605106 0.2583037 -1.0141243 0.7241292 -0.92188114 -0.057853617
-0.56418914 0.32795742 -0.88313043 0.78591204 0.82438743 0.6491561 0.40270913 -0.5283463
-0.94402236 0.028454114 -0.04432802 0.29459035 -0.517667 0.3206139 -0.31112802 0.8954373
0.25526255 -0.43143022 -0.3070713 0.08547624 0.10784634 0.5494515 -0.4547541 -0.25309452
-0.6265662 0.42686525 -0.11614169 -0.19352755 -0.23561691 -0.9880228 -0.24826698 0.854195
-0.056555834 -0.33920848 -0.32808435 -0.2214441 -1.4757582 0.71020585 0.68925494 0.15310481
-0.035559956 -0.38076136 0.6043979 0.48268732 0.25795278 -0.4856101 -0.04991977 -0.5007548
0.86115146 0.19588007 0.29495564 -0.43450937 -0.6009954 0.52732366 0.48465294 -0.019714503
-0.17829587 0.18953393 -0.26301092 0.8182433 0.021788679 0.87455755 0.10866269 -1.7167888
-0.18256927 0.42650068 -0.15380591 0.32315928 0.18818565 -0.1830136 -0.7626554 0.20717774
0.8143177 -0.4341 -0.29887643 0.66425353 -0.47892156 -0.4327026 0.645047 0.31067404
-0.015236641 0.9882003 -0.39227447 -0.35633796 -0.6016033 -0.052082643 -0.11310132 0.71777
-0.5678418 0.4232869 0.014614944 0.03266166 -0.35427603 -0.13041142 -0.49143407 0.5830016
0.3634659 -0.7240934 -0.9417715 0.49684647 -0.6548083 0.17931546 0.3420231 -0.43373737
-0.042322677 0.54718333 0.042813517 0.3826286 -0.2151871 -0.7639627 -0.4366153 0.82087964
1.4543912 -0.26916373 -0.25977385 0.8493397 -0.5073567 0.23920426 -0.16063283 -0.019537074

sequential.0.Lambda.bias f4 [80]
00000000: 27b2 82be befd 8bbe f4d9 dabe 93ce 09bf
00000010: c715 96bd 4522 903d b93f 903c 3665 99be
00000020: a2b5 92be 546a f1be 163b e8bd 8f9f a3be
00000030: 8a86 89be ca3e b93e 0203 18be 315d 8d3d
00000040: 121b 073e b2ec 643d fb8f 24be 7ee1 adbb
00000050: 5268 d73e 2a81 0d3e aa85 afbe 7a6d 9bbe
00000060: 9c85 9cbc cff0 e33e 8c52 56be e0b7 aa3e
00000070: 65ea 1d3e b614 243e cb0a 1fbe 34ae 55bd
00000080: 3da1 693d d4a1 89bd 2f2c 84bd cb26 65bd
00000090: 2aa9 d03e d1f2 08bf b6f5 b63d 1347 b0be
000000a0: 6344 15bf 11a8 f7be 2e6c d63e 082e 04be
000000b0: 07a9 a93d f7c1 a0be d6ee 94be e16f b1be
000000c0: bc95 26bf f7ef abbe 7a26 62be bd1f 07be
000000d0: 3e50 373d fb55 063e f6c3 2a3e 725e 32be
000000e0: dfef f53d 9137 ffbe 7973 663d 4694 c8be
000000f0: a014 eebe e132 473e afc7 903e bb5c cf3d
00000100: 6147 d9be 4ae6 b1be 9844 91be 29e5 7ebe
00000110: 8c0a 113e 9f90 0abf 3244 b0bd 3f01 5dbf
00000120: a64d b23d 11f2 eebd 9a8e 09bf 77ad 803e
00000130: d8a8 8cbe e52c 30be 9342 a33d c743 43be
-0.25526544 -0.27342027 -0.4274441 -0.5383083 -0.073283724 0.070377864 0.01760851 -0.2996003
-0.286542 -0.47151434 -0.11339395 -0.3195767 -0.26860458 0.36180717 -0.14844897 0.069025405
0.1319392 0.055889793 -0.16070549 -0.005306422 0.42071778 0.13818803 -0.34281665 -0.3035696
-0.019106679 0.4451966 -0.20929927 0.3334341 0.15421446 0.16023526 -0.15531461 -0.052168086
0.057038534 -0.067203194 -0.0645374 -0.0559452 0.40754062 -0.5349551 0.089335844 -0.34429225
-0.58307475 -0.48370412 0.4187941 -0.12908185 0.082841925 -0.31397983 -0.29088467 -0.3465567
-0.65072227 -0.33581516 -0.2208499 -0.13195701 0.04475426 0.13118736 0.16676316 -0.1741884
0.120086424 -0.4984708 0.056262467 -0.39175624 -0.4650011 0.19453003 0.28277346 0.10125109
-0.4243727 -0.3474601 -0.28372645 -0.24892105 0.1416418 -0.54126924 -0.08606757 -0.86330026
0.087062165 -0.11667264 -0.5373322 0.25132343 -0.27472568 -0.17204626 0.079716824 -0.19068824

sequential.0.bn.running_mean f4 [80]
00000000: 0000 0000 0000 0000 0000 0000 0000 0000
00000010: 0000 0000 0000 0000 0000 0000 0000 0000
00000020: 0000 0000 0000 0000 0000 0000 0000 0000
00000030: 0000 0000 0000 0000 0000 0000 0000 0000
00000040: 0000 0000 0000 0000 0000 0000 0000 0000
00000050: 0000 0000 0000 0000 0000 0000 0000 0000
00000060: 0000 0000 0000 0000 0000 0000 0000 0000
00000070: 0000 0000 0000 0000 0000 0000 0000 0000
00000080: 0000 0000 0000 0000 0000 0000 0000 0000
00000090: 0000 0000 0000 0000 0000 0000 0000 0000
000000a0: 0000 0000 0000 0000 0000 0000 0000 0000
000000b0: 0000 0000 0000 0000 0000 0000 0000 0000
000000c0: 0000 0000 0000 0000 0000 0000 0000 0000
000000d0: 0000 0000 0000 0000 0000 0000 0000 0000
000000e0: 0000 0000 0000 0000 0000 0000 0000 0000
000000f0: 0000 0000 0000 0000 0000 0000 0000 0000
00000100: 0000 0000 0000 0000 0000 0000 0000 0000
00000110: 0000 0000 0000 0000 0000 0000 0000 0000
00000120: 0000 0000 0000 0000 0000 0000 0000 0000
00000130: 0000 0000 0000 0000 0000 0000 0000 0000
0.0 0.0 0.0 0.0 0.0 0.0 0.0 0.0
0.0 0.0 0.0 0.0 0.0 0.0 0.0 0.0
0.0 0.0 0.0 0.0 0.0 0.0 0.0 0.0
0.0 0.0 0.0 0.0 0.0 0.0 0.0 0.0
0.0 0.0 0.0 0.0 0.0 0.0 0.0 0.0
0.0 0.0 0.0 0.0 0.0 0.0 0.0 0.0
0.0 0.0 0.0 0.0 0.0 0.0 0.0 0.0
0.0 0.0 0.0 0.0 0.0 0.0 0.0 0.0
0.0 0.0 0.0 0.0 0.0 0.0 0.0 0.0
0.0 0.0 0.0 0.0 0.0 0.0 0.0 0.0

sequential.0.bn.running_var f4 [80]
00000000: 0000 803f 0000 803f 0000 803f 0000 803f
00000010: 0000 803f 0000 803f 0000 803f 0000 803f
00000020: 0000 803f 0000 803f 0000 803f 0000 803f
00000030: 0000 803f 0000 803f 0000 803f 0000 803f
00000040: 0000 803f 0000 803f 0000 803f 0000 803f
00000050: 0000 803f 0000 803f 0000 803f 0000 803f
00000060: 0000 803f 0000 803f 0000 803f 0000 803f
00000070: 0000 803f 0000 803f 0000 803f 0000 803f
00000080: 0000 803f 0000 803f 0000 803f 0000 803f
00000090: 0000 803f 0000 803f 0000 803f 0000 803f
000000a0: 0000 803f 0000 803f 0000 803f 0000 803f
000000b0: 0000 803f 0000 803f 0000 803f 0000 803f
000000c0: 0000 803f 0000 803f 0000 803f 0000 803f
000000d0: 0000 803f 0000 803f 0000 803f 0000 803f
000000e0: 0000 803f 0000 803f 0000 803f 0000 803f
000000f0: 0000 803f 0000 803f 0000 803f 0000 803f
00000100: 0000 803f 0000 803f 0000 803f 0000 803f
00000110: 0000 803f 0000 803f 0000 803f 0000 803f
00000120: 0000 803f 0000 803f 0000 803f 0000 803f
00000130: 0000 803f 0000 803f 0000 803f 0000 803f
1.0 1.0 1.0 1.0 1.0 1.0 1.0 1.0
1.0 1.0 1.0 1.0 1.0 1.0 1.0 1.0
1.0 1.0 1.0 1.0 1.0 1.0 1.0 1.0
1.0 1.0 1.0 1.0 1.0 1.0 1.0 1.0
1.0 1.0 1.0 1.0 1.0 1.0 1.0 1.0
1.0 1.0 1.0 1.0 1.0 1.0 1.0 1.0
1.0 1.0 1.0 1.0 1.0 1.0 1.0 1.0
1.0 1.0 1.0 1.0 1.0 1.0 1.0 1.0
1.0 1.0 1.0 1.0 1.0 1.0 1.0 1.0
1.0 1.0 1.0 1.0 1.0 1.0 1.0 1.0

sequential.2.Gamma.weight f4 [120, 80]
00000000: 56da f83c 5ac3 64be 45ba 93be 6902 f03e
00000010: 06c0 3bbd 0fab d9be 6265 6fbf 7e86 33bd
00000020: 0c3c 30bf d915 e0be 0c8f e1bd b1a9 1dbf
00000030: f336 8d3d 18c0 42be fd70 953e 90dd 263d
00000040: e93f a93d 8217 b3be 54d0 5cbe e539 66be
00000050: d672 6f3e fc4e 07bf be16 0ebd efa7 eabe
00000060: 035d 1ebe 0058 81be 5c55 76bd c371 4cbf
00000070: 263f 2fbe 1e5a 88be cbd0 ecbc 42ff d039
00000080: 9889 7ebc 3065 203a c7d1 5ebe aea7 4dbf
00000090: 2b10 613e 2171 b2bd 2c93 3abf 97cf acbe
000000a0: ca42 803d 3b6e 92be e11a b5be ef15 e13c
000000b0: 5492 933c 70d8 a63e 0fa1 353e 8e5f d7be
000000c0: 1747 f4bc af0d 10be 0278 b8be ca87 4ebe
000000d0: 646e 683d f2a7 97be 715f c6bc 7181 c63d
000000e0: 9d06 05be 02a6 393d 5f3d ee3d ea2a 2b3e
000000f0: f4b0 88be fb61 95be 4d4a 6fbd e43b 593d
00000100: 5853 eebd 1cd5 b3be 3e40 633e 480e a3be
00000110: 35e4 18be 747d e23e 8974 483a ba66 ef3e
00000120: d377 14bf d694 1cbf a31e 7e3e 544f 23bf
00000130: 0941 efbe 07b8 cabe c46e 5fbe c40f 223e
00000140: 6ded 32bf 8346 95be 0b72 1cbf 0d15 e13e
00000150: 9c64 08bd 923b f53c 82d7 3e3e bb7d 1f3e
00000160: 202e e2be 9ab0 b3be b396 16bf 79b9 bfbd
00000170: 5514 a7bf b4d6 363d 0246 16bd fd6d 913e
00000180: 75ff bc3e fb37 09bf f6b8 0f3d 3f38 8ebe
00000190: 03d3 583e ac17 a83e 2754 74be 4c7b e3be
000001a0: 6a5b d9be 45f1 793e d5bc aebd 328d 97be
000001b0: 7857 c13e 2a98 483d 4fc2 4cbf 068f 023e
000001c0: c831 afbe aa25 be3e dcee 623e acc4 15be
000001d0: 2a35 36bf cd32 113f a4a6 27be b64e b6bd
000001e0: 8988 afbe b518 9cbd 3a0f 9c3e ddb9 a1be
000001f0: 6295 543e 6751 84bf 8010 dc3c da2b a7be
00000200: 61f8 af3e ad89 62be a841 40bd 428b 04bf
00000210: ab13 99bd ec0c c6be 608f e43e 0d90 80be
00000220: 557d 123f 8d77 babe 3bde 19be f9c9 853d
00000230: fc0a 543c cb34 94bd 2e4d 1fbe e763 76be
00000240: 4173 37bf 353d 193e 6719 083d 9617 99be
00000250: 31ce 78be 5ae5 7dbe 87e2 91be 99e1 113e
00000260: 9a5f bcbe a452 613d efe0 2bbe 859b 82be
00000270: f2db 8c3e ea82 6cbf 1ad3 953e be8a 3a3e
00000280: 4ffb 5dbe 0c0f 1e3e 0022 c33d 8810 09bf
00000290: 0d69 ffbc 77e6 ad3e 10d2 313f 4bd0 9c3d
000002a0: fe5e b8be 84f0 243e 2fb3 db3c a9f0 59be
000002b0: 468d c43e 3489 d93e 4538 c13d 3848 a3be
000002c0: 1c58 aa3e 02ae 80be 37c1 0cbf 67e6 b63e
000002d0: e04f 56bf f3f9 eabe 1a81 f7be 1cc8 31bf
000002e0: b989 90bd 45e2 023e 020b a9be 5aad 533e
000002f0: 9c64 70bd f2f6 12bf 7821 0cbe 47ca 3bbe
00000300: edc5 1c3e 281b a0bf 2e6f 373e 776c 56bf
00000310: fd9c 3dbe 1064 0bbf ba65 c83e 0dac eb3e
00000320: c8ec c6bd 29ab fdbe a5c9 873e 1e3e 04bf
00000330: aec7 d9be 9e93 5d3e f330 d3be 75e8 4ebe
00000340: 99db a0be 94d1 de3d 9a65 33be c7bf 8c3e
00000350: bd83 b8bd 8a92 923e c438 e43d 5be0 94bd
00000360: e22c 76bf 3ae6 18bf 10c7 c33c 2414 89bd
00000370: e62d ebbe 1b7e 75be b4d3 183f fee7 973e
00000380: 19b4 9cbe 410c 05bf 6367 55be 814c c1be
00000390: 256c 98be b9ca 4a3e 6564 93be 5d1c b6bf
000003a0: 88a8 2e3e c10d bdbd 9cd1 39be 800e 85be
000003b0: 21ac c4be 66f7 103e c35b 1abf ba96 a9be
000003c0: a4ea a23e 4d62 d1be 096b 2bbe ad9b 37be
000003d0: 9092 a23e 0151 99be 4c70 91be 48b0 163e
000003e0: 5a67 43be 4861 a8bd e4e5 b73e 1a07 ab3d
000003f0: 48a4 bfbd 3378 8bbe 19b8 063f 94a9 de3c
0.030377548 -0.22340146 -0.2885305 0.4687684 -0.045837425 -0.4251332 -0.9351407 -0.043829434
-0.68841624 -0.43766668 -0.11013612 -0.61587054 0.06895246 -0.1901859 0.29187766 0.040738642
0.08264143 -0.34978873 -0.21563846 -0.22483023 0.2338365 -0.52854896 -0.034689657 -0.45831248
-0.15465169 -0.2526245 -0.06014 -0.79861087 -0.17113933 -0.26631254 -0.028908154 0.00039863033
-0.015535735 0.0006118594 -0.21759711 -0.80333984 0.21978824 -0.08712984 -0.72880816 -0.33752128
0.06262739 -0.28599724 -0.3537207 0.027476279 0.01801411 0.32587004 0.1773722 -0.4206509
-0.029819055 -0.1406772 -0.3602906 -0.20168987 0.0567459 -0.2962032 -0.024215432 0.09692658
-0.12990804 0.045324333 0.11632799 0.16715589 -0.26697505 -0.29176316 -0.058420468 0.05303563
-0.1163699 -0.35123527 0.22192475 -0.31846833 -0.14930804 0.44236338 0.00076467596 0.46758062
-0.5799534 -0.61164606 0.24816374 -0.6379292 -0.46729305 -0.39593527 -0.21819597 0.15826327
-0.69893533 -0.2915536 -0.61111516 0.43961373 -0.033299074 0.029935632 0.18636897 0.15575306
-0.44175816 -0.35095674 -0.588237 -0.09361548 -1.305308 0.04463835 -0.03668786 0.28404227
0.36913648 -0.53601044 0.035088502 -0.27777287 0.21174245 0.3283056 -0.23860227 -0.44430006
-0.42452556 0.24408443 -0.085321106 -0.2959991 0.37762046 0.04897324 -0.7998399 0.12749872
-0.34217668 0.3713811 0.2216143 -0.14625806 -0.7117487 0.5671814 -0.16372162 -0.08901732
-0.34283856 -0.076219 0.30480367 -0.31587115 0.2076011 -1.0337342 0.026863337 -0.32650644
0.34369186 -0.22122832 -0.046937615 -0.5177499 -0.074744545 -0.38681734 0.44640636 -0.25109902
0.5722249 -0.36419335 -0.1502618 0.06532664 0.012942072 -0.07236632 -0.15556785 -0.24061547
-0.7166024 0.14964755 0.03322735 -0.29900807 -0.24297406 -0.24794522 -0.2849314 0.14246215
-0.36791688 0.055010453 -0.16785024 -0.25509277 0.27511555 -0.9238726 0.2926262 0.18216988
-0.21677898 0.15435427 0.09527969 -0.5354085 -0.031178022 0.33964893 0.69461155 0.07656916
-0.36009973 0.16107374 0.02681884 -0.21283211 0.38389033 0.4248749 0.09434561 -0.31891036
0.33270347 -0.25132757 -0.5498232 0.35722658 -0.8371563 -0.4589382 -0.48340684 -0.6944597
-0.070575185 0.12781627 -0.3301621 0.20671597 -0.0586897 -0.5740806 -0.13684642 -0.18338881
0.15309878 -1.2508287 0.17913505 -0.83759254 -0.18516918 -0.5444956 0.3914011 0.46029702
-0.09713131 -0.49544647 0.2652103 -0.51657283 -0.42535156 0.21638343 -0.41248283 -0.20205863
-0.3141754 0.108798176 -0.17519227 0.27490065 -0.09009502 0.28627425 0.1114364 -0.07269355
-0.96162236 -0.597263 0.023898631 -0.06693295 -0.45933455 -0.23973887 0.59698033 0.29669183
-0.30606154 -0.5197182 -0.2084022 -0.3775368 -0.29770008 0.19803895 -0.28787532 -1.4227406
0.17056477 -0.09231139 -0.18146366 -0.25987625 -0.38412574 0.14156875 -0.6029627 -0.33122808
0.31819642 -0.4089531 -0.1674005 -0.1793048 0.31752443 -0.29944614 -0.28405988 0.14715683
-0.19082394 -0.0822168 0.3591758 0.08350964 -0.09357506 -0.27240142 0.5262466 0.02718047

sequential.2.Gamma.bias f4 [120]
00000000: f90e cebd 33a3 e03d 0292 75bd 1210 2d3d
00000010: 6a53 943d f1ee 203e e7f1 54be a6b2 27bd
00000020: a413 ebbd 1981 a5be 269c fbbd 2e08 0b3e
00000030: 1adc d9bd c6e6 64be ca57 febc 3d66 5a3d
00000040: d83f 56be 7f59 9cbe 301a bbbe 98a7 37be
00000050: aaa8 a3be 090a 1cbd f300 8ebe becb 82be
00000060: 8a63 54be c652 24be 49da 56be 25c5 8f3d
00000070: 49d6 f6be 26a6 793e ff19 13be e5f8 84be
00000080: f55e dbbe 5004 4fbf 29ed 103d 0546 b3bc
00000090: f46a 5abe 45de 31be e5d2 933d 35d3 67be
000000a0: 6942 3cbe 8e78 1bbe 7ffa c63d 3fa4 083e
000000b0: 7b83 ffbd 51bb 9a3d b7f2 2dbe 7db7 313e
000000c0: f06d 833e b1c9 86be daa5 bdbd e87c edbe
000000d0: 41ee 343d 8f50 6d3e 8a99 92be b25c d1be
000000e0: 4fbc 193d 9939 0dbf 4652 83be f749 0dbf
000000f0: e95c 05bd 5788 8ebe 1eea fdbd 5650 c1be
00000100: 2f62 e0be a061 a8be e6c4 823e 8599 20bc
00000110: e680 5dbe 12f3 2fbf 40a8 b1bd 9e72 d3bd
00000120: f7a5 5dbc 3044 97bf a040 6dbe 9589 bdbd
00000130: 497c 5abe 269f 5abb 651a 643d f38e e0be
00000140: 6e7b 3fbe f0a6 153e 892d 883d af35 86be
00000150: 80ba 2f3e 80be 99be a481 c5be b236 953c
00000160: abba 273e 491d 1bbf 2269 2fbf 0cb6 dabe
00000170: bb62 05bf c491 ffbd 9307 82bc b0ca 4b3d
00000180: 1b01 8dbe e28b 88bd 37fa 6bbe 72ab a83d
00000190: fdee 79be ae5b 40bf 6158 523e 1de6 1dbf
000001a0: b6fe 14bf 4e12 b03d ba9a cfbd 0b0f adbd
000001b0: de29 0b3e e078 4c3d b843 b5be ee49 87be
000001c0: 0e39 533e ce24 c5be 52d4 43be a0f7 c43d
000001d0: c611 63be 0a1a 12be bed6 3a3e 7fa1 313d
-0.100614496 0.10968628 -0.059953697 0.042251654 0.072424725 0.15716149 -0.20795403 -0.040941857
-0.114783555 -0.32325056 -0.12285642 0.13577339 -0.10637684 -0.22353658 -0.03104772 0.05332016
-0.20922792 -0.3053703 -0.36543417 -0.17935026 -0.31964618 -0.038095508 -0.277351 -0.25546068
-0.20741096 -0.160472 -0.20981707 0.07020024 -0.48210362 0.24379787 -0.14365385 -0.2597114
-0.42845884 -0.80865955 0.035382424 -0.021883974 -0.21329862 -0.17369945 0.07217959 -0.22639163
-0.18384708 -0.15182707 0.09715747 0.13343905 -0.1247625 0.07555259 -0.1698712 0.17355151
0.25669813 -0.26325753 -0.09260149 -0.46384358 0.04417253 0.23175262 -0.28632766 -0.40891033
0.0375331 -0.5516601 -0.25648707 -0.55190986 -0.03255931 -0.27838394 -0.1239817 -0.37756604
-0.43824908 -0.32886982 0.25540847 -0.009802227 -0.21631202 -0.6873027 -0.08674669 -0.10324596
-0.013528339 -1.1817684 -0.23169184 -0.09254757 -0.21336474 -0.003335902 0.055689234 -0.43859062
-0.18699428 0.14614463 0.0664931 -0.26212832 0.17160988 -0.30028152 -0.3857547 0.018214557
0.16379802 -0.6059156 -0.68519795 -0.42717016 -0.52103776 -0.124789745 -0.015872752 0.049753845
-0.27539906 -0.066673055 -0.23044668 0.082358256 -0.24407573 -0.7513989 0.20541526 -0.6167925
-0.5820116 0.08597241 -0.101369336 -0.08450135 0.1359019 0.049919963 -0.35403228 -0.2642359
0.20627233 -0.38504642 -0.19123963 0.09617543 -0.22174749 -0.14267746 0.1824598 0.043366905

sequential.2.Lambda.weight f4 [120, 80]
00000000: 901f 9dbe ec3e 46bf 431f db3c a838 343f
00000010: a2c9 0c3e 1343 8b3d 2540 9e3e 60e0 4f3d
00000020: 1265 243f e2b2 0d3e a664 473d 8482 55bd
00000030: f3f4 08bd 3883 a73d 001c 4fbe 965e 8f3e
00000040: c007 5b3d 137b 8f3e c1be 2abd bc8a 5ebd
00000050: 2e46 f2bd 4e96 f5bd 41e1 2e3e 97c2 8d3d
00000060: 98d5 8dbd a851 c0ba dc73 3a3d 2c4b c3be
00000070: e6f6 1d3d 9a46 0abd a787 6c3e 67ff a73c
00000080: 13b5 b03e 31a6 c4be 0d5a be3e 1fca 4ebe
00000090: 9f55 063e e005 48be 53bb 02bf 44df b8be
000000a0: dbad 893e a244 873e 8169 d23e 60e9 d13e
000000b0: d893 93be 57ee 853e db68 343f abb7 14bd
000000c0: acf4 163e 69af a43e 90e1 ee3d dd8d cabd
000000d0: 6072 97bd 1a71 983a eb34 9b3e cd8a f63d
000000e0: e1b9 513e e2fb 613e 06af 7d3c 4d9a 043f
000000f0: 6207 b53e f64c e5be 5acc bf3d a5aa 79bc
00000100: 34a6 273e d826 87bd 7ef7 1d3f f656 89bd
00000110: 5562 f4be 1611 e93e eedc 9d3e 3abd eebd
00000120: d2dc 87be c04c 97be 63bf 973e b96a 6dbd
00000130: 6589 d93e 7b06 31be 400f 943e 1420 ec3e
00000140: 65b0 a43b 6882 c1be 7343 dabd 7932 313f
00000150: 0ffa 29be 39d8 073e 6091 123f ef20 cd3e
00000160: 6ed9 27bd 9d51 b73d 96ee 86bd fdaf 46bd
00000170: bb32 60be 4a5c 8a3d dfcc b13e 734a 0dbe
00000180: cbed 43be 4225 8dbe 196d 1bbe cfcb e7bd
00000190: aedd 8fbe 4801 5cbd 4812 c73e b878 7dbe
000001a0: 3dfb 85bd 7b93 d23e 0e4f a83e 1342 6d3e
000001b0: 0273 783d 2a68 943d e8ce cabd fa1c 603e
000001c0: d634 993e 35bf e43d 5e35 083e b405 2e3c
000001d0: 0e21 8e3c e38e d03c 502c 3c3e 3878 6dbe
000001e0: 6d61 da3d fef5 993e 4480 133e cbac 37be
000001f0: 76ac 76bd ee57 27bf cb8b c7bd 9879 5fbd
00000200: b155 1e3e 5848 d53d c048 51be 930b 86bc
00000210: efaa 5dbc 4e24 2b3c 791f a93d 845c 81be
00000220: 2634 c8be 8fec ae3d 27bf 3abd 49de 693e
00000230: 1268 1d3e e520 f3bd 8133 303d 13b8 dabd
00000240: 7908 98be e3fb 633d d178 05bd e0de 83be
00000250: 01f7 a1bd 77cd 253e e2f4 a3be d6f1 083e
00000260: cf46 233b 78e0 433d 290c 92bd 31eb 63bd
00000270: 9962 fbbd e7ea b33e ed3d 023f cfd7 e5be
00000280: 10b5 4c3e ff5b 273e 23f5 8f3e c5c1 1ebf
00000290: 84e5 8ebd 2026 5e3e 4103 973f 0c63 3ebd
000002a0: 1840 f83e 47a3 0ebc ad04 c03d 508a ae3b
000002b0: 6911 9d3e 6133 d93e c2dd 683e a90a 97be
000002c0: 6bf8 903e f76d 90bb 8ff7 8d3e daef 683e
000002d0: eb4b a9be f057 af3e 663a 8abd fc77 7ebe
000002e0: 7590 86bd 9173 fabc 8cf4 ad3c 10cb 14be
000002f0: aee1 6ebe 47a5 06be d076 4d3e 69ba 94be
00000300: a014 813e 0e11 18bf 1b6c acbd 08b9 aebe
00000310: 1f6b 5cbe cdcc b53d c94d 243e 5215 9b3e
00000320: 9e0c 5fbe e62e 8fbe 5dee 2a3d c96f 8abd
00000330: b1af 903e 458f 533e 4b50 8dbd e52a 303e
00000340: 9d8c cdbd 78df d63e 2bcb 74be 50ad 4a3f
00000350: 08e1 b4bd f76e 9ebd 1356 ba3d 1652 8e3e
00000360: ff42 c6be cc0e cabe f1c7 c93e 3450 47bd
00000370: fbfb 4fbe 3ac2 983e a4bc 013d 846b ec3e
00000380: 54a3 abbc fe0c c4be 610c 93be 865c b33d
00000390: d847 e0bc f451 843e f338 d5bd 6a2b 80bf
000003a0: d4f9 1f3f ff49 fb3d df77 4ebd 75c5 50be
000003b0: 33e1 de3e 1a18 90bc 87b5 c63d 7de4 20bc
000003c0: c241 c33b 09c9 953e 8c08 663e a71d e13c
000003d0: f722 d7be 1fe3 793e ed49 d13e e794 f0bd
000003e0: cb45 ecbe 0cc2 c83e 0d01 01bf 3704 273f
000003f0: 7e5b bdbd e2e4 78bf 0a75 9d3e 1100 483f
-0.30688143 -0.7743976 0.026748305 0.7039895 0.13748792 0.06799903 0.30908313 0.05075109
0.6421672 0.1383777 0.04867997 -0.052126423 -0.033436727 0.08179325 -0.20225525 0.2800185
0.053474188 0.28023586 -0.041685823 -0.054331526 -0.11829792 -0.11991559 0.17078115 0.06921881
-0.069255054 -0.0014672773 0.04552065 -0.3814329 0.03856554 -0.033758737 0.23098622 0.020507528
0.3451315 -0.38408044 0.37178078 -0.2019429 0.131186 -0.19533491 -0.51067084 -0.36107838
0.26890454 0.2641955 0.41096118 0.40998363 -0.28823733 0.261584 0.70472497 -0.036307972
0.14741772 0.32165077 0.116641164 -0.098903395 -0.07394862 0.0011630387 0.3031381 0.12038193
0.20481063 0.22068742 0.015483623 0.51797944 0.35357195 -0.4478528 0.09365149 -0.015238439
0.16371995 -0.06599206 0.6170577 -0.067060396 -0.4773127 0.45520848 0.30832618 -0.11657186
-0.2653566 -0.29550743 0.29638204 -0.057963107 0.42487636 -0.17287628 0.28917885 0.46118224
0.0050259107 -0.37794805 -0.10657396 0.6921764 -0.16599296 0.13266076 0.57253075 0.4006419
-0.04097884 0.089511134 -0.065884754 -0.04850768 -0.21894352 0.06755884 0.34726617 -0.13797931
-0.1913368 -0.27567488 -0.15178336 -0.1131817 -0.28098816 -0.05371216 0.38881135 -0.24753082
-0.065420605 0.41128144 0.32872814 0.23169737 0.060656555 0.0724643 -0.099027455 0.21886054
0.29923123 0.11169282 0.13301608 0.010621477 0.017349746 0.025458759 0.18376279 -0.23190391
0.10663114 0.3007049 0.14404398 -0.17937009 -0.060223065 -0.65368545 -0.0974346 -0.05455932
0.15462376 0.10414189 -0.20437908 -0.01636294 -0.013529523 0.010445667 0.08257956 -0.25265896
-0.39102286 0.08541214 -0.045592453 0.22838701 0.15371731 -0.118715085 0.043017868 -0.106796406
-0.29693964 0.05566014 -0.032585923 -0.25755978 -0.079084404 0.1619166 -0.32022768 0.13373503
0.0024914031 0.047821492 -0.071312256 -0.055644218 -0.122746654 0.35140154 0.5087574 -0.4489121
0.19990945 0.16343687 0.28116712 -0.6201442 -0.069773704 0.21694231 1.1797868 -0.046481177
0.484864 -0.008705921 0.09375892 0.0053265467 0.30677345 0.42422011 0.22740844 -0.2950032
0.28314528 -0.00440764 0.27727935 0.22747746 -0.33065733 0.34246778 -0.0674942 -0.24850458
-0.06570522 -0.030572684 0.021234773 -0.14530587 -0.23328277 -0.13148986 0.20064855 -0.2904847
0.25211048 -0.59401023 -0.08419057 -0.34125543 -0.21525238 0.08876953 0.16045298 0.30289704
-0.21782157 -0.27965468 0.041731227 -0.067596026 0.28259042 0.20660122 -0.0690008 0.17203863
-0.100365855 0.41967368 -0.23905627 0.79170704 -0.08831984 -0.077360086 0.090984486 0.27797002
-0.3872299 -0.39464414 0.39410356 -0.048660472 -0.20310967 0.29835683 0.031674042 0.46175778
-0.020951904 -0.38291162 -0.28720382 0.08757882 -0.027378008 0.25843775 -0.10411253 -1.0013249
0.6249058 0.12269973 -0.050407287 -0.20387824 0.43531188 -0.017589618 0.09702592 -0.009820101
0.0059587667 0.2925494 0.22464198 0.02747996 -0.42018864 0.24403046 0.40876713 -0.11747151
-0.46146998 0.39210546 -0.5039223 0.65240806 -0.092459664 -0.9722425 0.30753356 0.781251

sequential.2.Lambda.bias f4 [120]
00000000: f90e cebd 33a3 e03d 0292 75bd 1210 2d3d
00000010: 6a53 943d f1ee 203e e7f1 54be a6b2 27bd
00000020: a413 ebbd 1981 a5be 269c fbbd 2e08 0b3e
00000030: 1adc d9bd c6e6 64be ca57 febc 3d66 5a3d
00000040: d83f 56be 7f59 9cbe 301a bbbe 98a7 37be
00000050: aaa8 a3be 090a 1cbd f300 8ebe becb 82be
00000060: 8a63 54be c652 24be 49da 56be 25c5 8f3d
00000070: 49d6 f6be 26a6 793e ff19 13be e5f8 84be
00000080: f55e dbbe 5004 4fbf 29ed 103d 0546 b3bc
00000090: f46a 5abe 45de 31be e5d2 933d 35d3 67be
000000a0: 6942 3cbe 8e78 1bbe 7ffa c63d 3fa4 083e
000000b0: 7b83 ffbd 51bb 9a3d b7f2 2dbe 7db7 313e
000000c0: f06d 833e b1c9 86be daa5 bdbd e87c edbe
000000d0: 41ee 343d 8f50 6d3e 8a99 92be b25c d1be
000000e0: 4fbc 193d 9939 0dbf 4652 83be f749 0dbf
000000f0: e95c 05bd 5788 8ebe 1eea fdbd 5650 c1be
00000100: 2f62 e0be a061 a8be e6c4 823e 8599 20bc
00000110: e680 5dbe 12f3 2fbf 40a8 b1bd 9e72 d3bd
00000120: f7a5 5dbc 3044 97bf a040 6dbe 9589 bdbd
00000130: 497c 5abe 269f 5abb 651a 643d f38e e0be
00000140: 6e7b 3fbe f0a6 153e 892d 883d af35 86be
00000150: 80ba 2f3e 80be 99be a481 c5be b236 953c
00000160: abba 273e 491d 1bbf 2269 2fbf 0cb6 dabe
00000170: bb62 05bf c491 ffbd 9307 82bc b0ca 4b3d
00000180: 1b01 8dbe e28b 88bd 37fa 6bbe 72ab a83d
00000190: fdee 79be ae5b 40bf 6158 523e 1de6 1dbf
000001a0: b6fe 14bf 4e12 b03d ba9a cfbd 0b0f adbd
000001b0: de29 0b3e e078 4c3d b843 b5be ee49 87be
000001c0: 0e39 533e ce24 c5be 52d4 43be a0f7 c43d
000001d0: c611 63be 0a1a 12be bed6 3a3e 7fa1 313d
-0.100614496 0.10968628 -0.059953697 0.042251654 0.072424725 0.15716149 -0.20795403 -0.040941857
-0.114783555 -0.32325056 -0.12285642 0.13577339 -0.10637684 -0.22353658 -0.03104772 0.05332016
-0.20922792 -0.3053703 -0.36543417 -0.17935026 -0.31964618 -0.038095508 -0.277351 -0.25546068
-0.20741096 -0.160472 -0.20981707 0.07020024 -0.48210362 0.24379787 -0.14365385 -0.2597114
-0.42845884 -0.80865955 0.035382424 -0.021883974 -0.21329862 -0.17369945 0.07217959 -0.22639163
-0.18384708 -0.15182707 0.09715747 0.13343905 -0.1247625 0.07555259 -0.1698712 0.17355151
0.25669813 -0.26325753 -0.09260149 -0.46384358 0.04417253 0.23175262 -0.28632766 -0.40891033
0.0375331 -0.5516601 -0.25648707 -0.55190986 -0.03255931 -0.27838394 -0.1239817 -0.37756604
-0.43824908 -0.32886982 0.25540847 -0.009802227 -0.21631202 -0.6873027 -0.08674669 -0.10324596
-0.013528339 -1.1817684 -0.23169184 -0.09254757 -0.21336474 -0.003335902 0.055689234 -0.43859062
-0.18699428 0.14614463 0.0664931 -0.26212832 0.17160988 -0.30028152 -0.3857547 0.018214557
0.16379802 -0.6059156 -0.68519795 -0.42717016 -0.52103776 -0.124789745 -0.015872752 0.049753845
-0.27539906 -0.066673055 -0.23044668 0.082358256 -0.24407573 -0.7513989 0.20541526 -0.6167925
-0.5820116 0.08597241 -0.101369336 -0.08450135 0.1359019 0.049919963 -0.35403228 -0.2642359
0.20627233 -0.38504642 -0.19123963 0.09617543 -0.22174749 -0.14267746 0.1824598 0.043366905

sequential.2.bn.running_mean f4 [120]
00000000: 0000 0000 0000 0000 0000 0000 0000 0000
00000010: 0000 0000 0000 0000 0000 0000 0000 0000
00000020: 0000 0000 0000 0000 0000 0000 0000 0000
00000030: 0000 0000 0000 0000 0000 0000 0000 0000
00000040: 0000 0000 0000 0000 0000 0000 0000 0000
00000050: 0000 0000 0000 0000 0000 0000 0000 0000
00000060: 0000 0000 0000 0000 0000 0000 0000 0000
00000070: 0000 0000 0000 0000 0000 0000 0000 0000
00000080: 0000 0000 0000 0000 0000 0000 0000 0000
00000090: 0000 0000 0000 0000 0000 0000 0000 0000
000000a0: 0000 0000 0000 0000 0000 0000 0000 0000
000000b0: 0000 0000 0000 0000 0000 0000 0000 0000
000000c0: 0000 0000 0000 0000 0000 0000 0000 0000
000000d0: 0000 0000 0000 0000 0000 0000 0000 0000
000000e0: 0000 0000 0000 0000 0000 0000 0000 0000
000000f0: 0000 0000 0000 0000 0000 0000 0000 0000
00000100: 0000 0000 0000 0000 0000 0000 0000 0000
00000110: 0000 0000 0000 0000 0000 0000 0000 0000
00000120: 0000 0000 0000 0000 0000 0000 0000 0000
00000130: 0000 0000 0000 0000 0000 0000 0000 0000
00000140: 0000 0000 0000 0000 0000 0000 0000 0000
00000150: 0000 0000 0000 0000 0000 0000 0000 0000
00000160: 0000 0000 0000 0000 0000 0000 0000 0000
00000170: 0000 0000 0000 0000 0000 0000 0000 0000
00000180: 0000 0000 0000 0000 0000 0000 0000 0000
00000190: 0000 0000 0000 0000 0000 0000 0000 0000
000001a0: 0000 0000 0000 0000 0000 0000 0000 0000
000001b0: 0000 0000 0000 0000 0000 0000 0000 0000
000001c0: 0000 0000 0000 0000 0000 0000 0000 0000
000001d0: 0000 0000 0000 0000 0000 0000 0000 0000
0.0 0.0 0.0 0.0 0.0 0.0 0.0 0.0
0.0 0.0 0.0 0.0 0.0 0.0 0.0 0.0
0.0 0.0 0.0 0.0 0.0 0.0 0.0 0.0
0.0 0.0 0.0 0.0 0.0 0.0 0.0 0.0
0.0 0.0 0.0 0.0 0.0 0.0 0.0 0.0
0.0 0.0 0.0 0.0 0.0 0.0 0.0 0.0
0.0 0.0 0.0 0.0 0.0 0.0 0.0 0.0
0.0 0.0 0.0 0.0 0.0 0.0 0.0 0.0
0.0 0.0 0.0 0.0 0.0 0.0 0.0 0.0
0.0 0.0 0.0 0.0 0.0 0.0 0.0 0.0
0.0 0.0 0.0 0.0 0.0 0.0 0.0 0.0
0.0 0.0 0.0 0.0 0.0 0.0 0.0 0.0
0.0 0.0 0.0 0.0 0.0 0.0 0.0 0.0
0.0 0.0 0.0 0.0 0.0 0.0 0.0 0.0
0.0 0.0 0.0 0.0 0.0 0.0 0.0 0.0

sequential.2.bn.running_var f4 [120]
00000000: 0000 803f 0000 803f 0000 803f 0000 803f
00000010: 0000 803f 0000 803f 0000 803f 0000 803f
00000020: 0000 803f 0000 803f 0000 803f 0000 803f
00000030: 0000 803f 0000 803f 0000 803f 0000 803f
00000040: 0000 803f 0000 803f 0000 803f 0000 803f
00000050: 0000 803f 0000 803f 0000 803f 0000 803f
00000060: 0000 803f 0000 803f 0000 803f 0000 803f
00000070: 0000 803f 0000 803f 0000 803f 0000 803f
00000080: 0000 803f 0000 803f 0000 803f 0000 803f
00000090: 0000 803f 0000 803f 0000 803f 0000 803f
000000a0: 0000 803f 0000 803f 0000 803f 0000 803f
000000b0: 0000 803f 0000 803f 0000 803f 0000 803f
000000c0: 0000 803f 0000 803f 0000 803f 0000 803f
000000d0: 0000 803f 0000 803f 0000 803f 0000 803f
000000e0: 0000 803f 0000 803f 0000 803f 0000 803f
000000f0: 0000 803f 0000 803f 0000 803f 0000 803f
00000100: 0000 803f 0000 803f 0000 803f 0000 803f
00000110: 0000 803f 0000 803f 0000 803f 0000 803f
00000120: 0000 803f 0000 803f 0000 803f 0000 803f
00000130: 0000 803f 0000 803f 0000 803f 0000 803f
00000140: 0000 803f 0000 803f 0000 803f 0000 803f
00000150: 0000 803f 0000 803f 0000 803f 0000 803f
00000160: 0000 803f 0000 803f 0000 803f 0000 803f
00000170: 0000 803f 0000 803f 0000 803f 0000 803f
00000180: 0000 803f 0000 803f 0000 803f 0000 803f
00000190: 0000 803f 0000 803f 0000 803f 0000 803f
000001a0: 0000 803f 0000 803f 0000 803f 0000 803f
000001b0: 0000 803f 0000 803f 0000 803f 0000 803f
000001c0: 0000 803f 0000 803f 0000 803f 0000 803f
000001d0: 0000 803f 0000 803f 0000 803f 0000 803f
1.0 1.0 1.0 1.0 1.0 1.0 1.0 1.0
1.0 1.0 1.0 1.0 1.0 1.0 1.0 1.0
1.0 1.0 1.0 1.0 1.0 1.0 1.0 1.0
1.0 1.0 1.0 1.0 1.0 1.0 1.0 1.0
1.0 1.0 1.0 1.0 1.0 1.0 1.0 1.0
1.0 1.0 1.0 1.0 1.0 1.0 1.0 1.0
1.0 1.0 1.0 1.0 1.0 1.0 1.0 1.0
1.0 1.0 1.0 1.0 1.0 1.0 1.0 1.0
1.0 1.0 1.0 1.0 1.0 1.0 1.0 1.0
1.0 1.0 1.0 1.0 1.0 1.0 1.0 1.0
1.0 1.0 1.0 1.0 1.0 1.0 1.0 1.0
1.0 1.0 1.0 1.0 1.0 1.0 1.0 1.0
1.0 1.0 1.0 1.0 1.0 1.0 1.0 1.0
1.0 1.0 1.0 1.0 1.0 1.0 1.0 1.0
1.0 1.0 1.0 1.0 1.0 1.0 1.0 1.0

sequential.4.Gamma.weight f4 [70, 120]
00000000: 9a4e 0fbe e4f5 06bf 635a 65be 3143 13bf
00000010: d07b 1c3d 153e 60bd 30a8 033e f7cb 833d
00000020: c8e2 0dbf 61a3 14be 72ea 68be f736 ec3b
00000030: 5c66 febe 40d0 41bf fde5 66bf 67e7 913e
00000040: 0255 01be 5ef4 bc3d 4b56 a8be 48e8 8f3e
00000050: 73c6 933e 84ae e23d 3085 30be df55 573e
00000060: f0b9 8fbe a7ba 443d bf4b 923c aba4 2d3e
00000070: e502 83bd 723e 003d 899a a13e df54 c93e
00000080: 0554 e0bd 1e0d 2c3d 502b 88be 8c0e 213d
00000090: e5e7 513e 8d5e 133e 3d92 45bf 5bc3 88bf
000000a0: f260 9abd 94eb 6a3e 7177 d1bd b57b cd3d
000000b0: 43b6 11bf da57 88be 0d90 d0bd e4c4 dabc
000000c0: a9c2 febc 34f7 8a3e 3356 c1bd 1ec5 75be
000000d0: 8986 823e c099 52be 0652 133e e10f d0be
000000e0: 39cd d73c b924 0fbf 188a eebe 174f 2dbe
000000f0: 2bad dcbe 92d0 c43c 84d5 6c3e 7500 8cbd
00000100: 460d 0c3e d3db 2bbc e520 bdbe 29d2 0bbe
00000110: 4103 34bd eed3 16bf 152b cf3d 6141 b93e
00000120: ae72 0bbd 4660 03bf 9e8b 3dbe b19c 66bf
00000130: 20a8 36be d50c 1abe a425 863d 343e e2be
00000140: 6790 513e 655d d6be 4325 fd3d cb3f 20be
00000150: 9a63 67bf 3dae 59bf 9773 cfbd da9a b83e
00000160: f802 03bf 3a4e 1ebd 9352 0ebd e6ce 4c3e
00000170: 7d18 0fbf c677 62bd 840c 32bd 0589 c6be
00000180: 8a6b f83d 91e9 0e3e abde a33e 0c0e 0bbf
00000190: 7372 41be d7fe 7e3c d5d6 05bf 31bb 4ebe
000001a0: 4988 b4bb 7a49 12be d612 173e af30 99bd
000001b0: 172e bcbd de23 6cbe 88e1 533d eadf 853c
000001c0: aad9 af3e d76d 2cbf c5e7 153e abe0 0dbf
000001d0: 11cd 093f 9a3c 9f3e 9951 9bbe 73f7 c83c
000001e0: 8b42 703f 8685 26be 72c8 423e 0056 f9bd
000001f0: 3b8f cb3d ba83 12be b6ff 20be 6653 0d3e
00000200: 715e 9c3e 165e 8b3e a1f1 ccbe 62d8 3d3e
00000210: 915a 033f b1da 873d 9a73 06be c700 f53e
00000220: a3f1 56be 6155 913c 94fb 2e3e e01d 25be
00000230: 75df 113e f3d2 d2be 704f adbc f0b5 a93e
00000240: 62bd a9bc 353c 28be 2343 913e 10e4 1abf
00000250: e778 ac3d e51e 33bf b991 3a3c 56d6 e73e
00000260: bfe3 0e3e 8d6c 70bd 23df 54bf 3fd9 93be
00000270: af90 dbbe 77b7 83be 62b9 89be b00c d4be
00000280: 8bbd b8be 58ca 80be a570 28bd b9a5 953e
00000290: 310a d0be 082a b0be 29cb 20bf 61e5 73bf
000002a0: 0159 55be 18d7 ecbd 10d9 1d3d fe5d dfbd
000002b0: 6db7 bb3e 9b74 03bf b39b 9fbe a43c 5fbe
000002c0: cbde 9dbd a848 39bf a0cd 113f b1a3 0abd
000002d0: 276d 02bc f0c4 9ebd db27 9cbe 89fd f4bd
000002e0: 9c65 f8bd 383a 3e3e e8ec 2d3d bf6f 4c3e
000002f0: 5897 79bf 6f6e 16bf 2355 ccbe b30d 94bd
00000300: fbb8 6cbf 099b dc3d a4d4 efbe 92da c7be
00000310: 9705 94bd 6072 f3bd 5e5e 1ebf fd21 3bbe
00000320: dcf2 603e 21ba 553e f02f f5bc 14c7 efbd
00000330: 2fa9 44bf 82d3 523e 809c 4cbd 0055 533c
00000340: 7734 bbbe d500 84be 20a3 053f 64c6 ecbd
00000350: d0eb b6bd b912 05be f1c7 6fbf 9261 2bbf
00000360: 3ca9 80bd dee9 5e3c 0b09 80be 4423 963e
00000370: 365b 38be c6a7 1fbe 1795 6bbe 0a2e 81be
00000380: 3164 abbe ba76 b73d dbfc 903e 573c 9a3d
00000390: 7bc9 00bf 2819 003e b727 3ebe b761 b1bd
000003a0: 657e 2ebe e04e 103e 8606 a9bc e92e b03d
000003b0: dbb4 763e 1fce 28be feb6 00bf ec4d 0bbe
000003c0: 1891 f63d 67d1 bbbe 9f95 1cbe 69aa eabe
000003d0: a7bb 61be dacc 333e 8b90 563e 542a d9bd
000003e0: e0ee 3ebf 4364 a1bd 642b 1cbf 2667 a7bd
000003f0: efff eebd e314 aa3e 91bb 02be a291 753f
-0.13994828 -0.5271895 -0.22397761 -0.575244 0.038204014 -0.054746706 0.12857127 0.064353876
-0.55424166 -0.14515449 -0.22745684 0.0072087008 -0.4968747 -0.7570839 -0.90194684 0.28496858
-0.12630084 0.09226297 -0.32878336 0.28106904 0.28862342 0.110684425 -0.17238307 0.21028851
-0.28071547 0.048029568 0.017858384 0.16957347 -0.063970365 0.031309552 0.31563213 0.39322564
-0.109535255 0.042004697 -0.26595545 0.039320514 0.20498617 0.14391537 -0.77176267 -1.0684618
-0.07538022 0.22941428 -0.1022786 0.10033361 -0.56918734 -0.26629525 -0.101837255 -0.026705213
-0.03109868 0.27141726 -0.09440269 -0.24000975 0.25493267 -0.20566463 0.14386758 -0.40637115
0.026342975 -0.5591541 -0.46589732 -0.16924702 -0.43100867 0.024025235 0.23128325 -0.06836025
0.13676938 -0.010489422 -0.3693916 -0.13654388 -0.043948416 -0.5891713 0.10115639 0.36182693
-0.034044914 -0.51318777 -0.18510291 -0.9008284 -0.17837572 -0.15043958 0.06550148 -0.44188082
0.20465241 -0.4186813 0.12360623 -0.15649335 -0.90386355 -0.8503149 -0.10129469 0.36055642
-0.51176405 -0.03864882 -0.034746718 0.200008 -0.5589674 -0.055290006 -0.043468967 -0.38776413
0.121298864 0.13956286 0.3200582 -0.5431831 -0.18891315 0.015563688 -0.5228093 -0.20188595
-0.0055094105 -0.14285842 0.14753279 -0.07479989 -0.091884784 -0.23060557 0.051728755 0.016342122
0.34345752 -0.673551 0.14639194 -0.5542094 0.5382853 0.31100923 -0.30335692 0.024532055
0.93851537 -0.16261873 0.19021776 -0.12174606 0.099394284 -0.14308062 -0.15722546 0.13801345
0.30540803 0.2722022 -0.40028098 0.18539575 0.5131007 0.06633509 -0.13130036 0.47852156
-0.20990615 0.017740907 0.17088157 -0.16124678 0.14245398 -0.41176566 -0.021156043 0.3314662
-0.020720188 -0.16429217 0.28371534 -0.60504246 0.08421498 -0.69969016 0.011387282 0.45280713
0.13954066 -0.058697272 -0.8315298 -0.28876683 -0.42883822 -0.2572591 -0.26899248 -0.4141593
-0.3608211 -0.25154376 -0.04112305 0.29228 -0.40632775 -0.34407067 -0.6281 -0.9527188
-0.20834734 -0.115644634 0.038537085 -0.109065995 0.3666338 -0.513498 -0.31173477 -0.21800476
-0.0770851 -0.7237649 0.56954384 -0.033847515 -0.007960594 -0.077524066 -0.30499157 -0.119624205
-0.121287555 0.18576896 0.04246226 0.19964503 -0.9749656 -0.5876226 -0.39908704 -0.072291754
-0.9246976 0.10771758 -0.4684192 -0.39033943 -0.07227629 -0.1188705 -0.6186274 -0.18274684
0.21967643 0.20871784 -0.029930085 -0.11707893 -0.76820654 0.20588496 -0.049953938 0.012898684
-0.36563465 -0.25781885 0.52202034 -0.115612775 -0.089316964 -0.12995423 -0.9366446 -0.66945755
-0.06282279 0.013605563 -0.250069 0.2932378 -0.18003544 -0.15591344 -0.23006092 -0.25230438
-0.33474877 0.08958192 0.28317913 0.0753104 -0.50307435 0.12509596 -0.18569838 -0.08661216
-0.17040403 0.14092588 -0.020632993 0.086026974 0.24092428 -0.16484879 -0.50279224 -0.13603944
0.12039393 -0.366832 -0.15291451 -0.45833138 -0.2204424 0.17558613 0.20953576 -0.106037766
-0.74583244 -0.078804515 -0.6100371 -0.08173971 -0.11669909 0.3321906 -0.12766863 0.95925343

sequential.4.Gamma.bias f4 [70]
00000000: f6c3 30be 3b0a 4abe ee3f adbe f510 fabe
00000010: d532 63be b766 42bf 683b 4ebe fed0 bbbe
00000020: ac6d 9abe 764b 0abf af2f 1f3e 57e4 b03d
00000030: 7a6d 2cbf 4050 8cbe fe42 b2bc 6e23 a2be
00000040: 85d9 bfbe f042 cabc 2f54 563e ee13 8ebe
00000050: e08c a23e 8260 01bf dc5d 97be 8fc5 6c3e
00000060: 9fb5 cabd 1e44 ebbe 4e1d 30bf b396 aebe
00000070: 7424 f7be 3601 83be 6970 cb3d 803d dfbe
00000080: ff98 253e 1954 ee3d b861 67be 3528 29be
00000090: 9e69 efbe 371b 493e 63a9 ffbd d699 a6bd
000000a0: c69b 0ebf 2656 6dbe 48d2 0ebf da8d c5be
000000b0: 6325 573e 075c 11bf 0737 00bd 40b5 4dbe
000000c0: 8b32 b0be f6f0 793c d016 213e 6a50 d6be
000000d0: 693e 853e a083 8cbe 5a15 7cbe 6895 21be
000000e0: 4dd4 b5be 0867 febe 3582 90be 58aa 9dbe
000000f0: 8012 6fbe fa0e afbe 2caf 3c3e 4df9 953d
00000100: fd5a 0a3e e536 63be be6d 633e 183a d3be
00000110: 61b3 453e a878 6b3e
-0.17262253 -0.19730465 -0.33837837 -0.48841062 -0.2218736 -0.7593798 -0.20139849 -0.36682886
-0.30161798 -0.54021394 0.15545534 0.08637302 -0.6735455 -0.27404976 -0.02176046 -0.31667656
-0.37470642 -0.024690121 0.20930551 -0.2774958 0.31748104 -0.50537884 -0.29563797 0.23122238
-0.09897923 -0.45950407 -0.68794715 -0.3409935 -0.4827 -0.2558686 0.0993355 -0.43601608
0.16171645 0.11637134 -0.2259587 -0.16519244 -0.46760267 0.19639288 -0.1248348 -0.081348106
-0.5570644 -0.23177394 -0.55789614 -0.38584787 0.21010356 -0.5678105 -0.03130248 -0.20088673
-0.3441356 0.0152552035 0.15731359 -0.41858226 0.26024178 -0.27444172 -0.2461752 -0.1577965
-0.35513535 -0.49687982 -0.2822434 -0.30794024 -0.23346901 -0.34191114 0.18426198 0.07322941
0.13511272 -0.2218891 0.22209832 -0.4125526 0.19306709 0.22995245
