Models/Z_{name}.pth (torch, 197766 bytes, 36 tensors)

sequential.0.Gamma.weight f4 [80, 5]
1.1056443 -0.21714094 0.7575944 1.0541364 -1.0394546 0.3875666 -0.2681865 -0.009126341
-1.114612 -0.6899247 -0.4623954 0.27172318 -0.12882613 -0.37804705 0.6876739 0.22888908
-0.03445839 1.7114866 -0.06875541 -0.9594096 -0.9225644 -0.46232405 0.3469221 1.2515635
-0.16789821 -0.34394285 1.0599602 0.5804585 0.6913012 -0.7034792 1.3096554 1.651485
0.19205818 0.8246539 -0.32870567 0.45010677 0.42295575 0.5462161 -0.8195547 -0.23712212
-0.24193525 0.31215817 0.9871148 0.69900197 0.72741145 -0.06026125 0.53011 0.9161059
0.28540784 -1.5300217 -0.72702944 0.0980127 0.81396174 0.4384112 0.08277082 -0.14231257
1.1547214 0.9428852 -0.09667549 -0.7194721 0.27549556 -0.25576776 1.1628548 1.3616098
-1.3178207 0.88962096 0.003448281 0.1523385 -1.1195371 0.78977764 -1.2356654 0.9175446
-0.5068772 0.5565193 0.08771781 0.10132631 -0.26711538 -0.23167844 -0.92045313 1.2713127
1.1628432 0.5858306 1.1628121 -0.2214842 -0.79709035 -0.33157524 -0.9323986 0.053800113
0.35294136 0.9790746 1.4552397 0.07865455 -0.9675352 0.0021832753 0.96759593 -1.0392627
0.30414987 0.43170038 0.8651963 -0.59842086 1.0210016 0.18379125 -1.1006136 2.6984503
0.4186707 -0.09437105 0.18736589 -0.5532567 0.6222467 0.31736133 0.18453772 0.41764504
-0.35850915 -0.32335046 1.5517104 0.25950545 0.2987679 1.0686017 -0.36858973 -0.77622354
-0.64679396 0.16476223 0.15612604 0.7086043 -0.28818896 0.6625158 -1.0695539 0.13161741
0.5876943 0.54880667 -0.70289874 0.63085437 -1.1559145 -0.28274283 0.8757971 1.0293597
0.086925246 1.298919 -1.15983 -1.0602256 0.11340022 -0.6681295 0.89076906 -0.07600986
-1.1061767 -0.5305523 0.8329101 -0.63901883 -0.08399569 1.16702 -0.47112316 -0.35400364
1.047555 0.95133126 -1.0335926 0.20444505 0.7158305 1.1207582 -1.2538956 -0.7677239
0.10731569 -1.1997974 -0.7100294 -0.8150533 1.8640369 -0.58550364 1.0909736 0.29241565
1.3677781 0.8133235 1.3322278 0.33678496 0.7737979 -0.7570299 -1.1161338 0.04295414
0.8632071 -0.9931009 0.47925094 2.3006766 -0.23747672 0.56841296 1.2875559 -0.61523604
-0.7361541 -0.25970426 0.047132142 -0.22764958 1.3421571 -0.5607217 1.1941549 -0.52313334
0.43961748 -1.631554 -0.018903533 0.872355 0.088481486 0.35213545 0.1555785 -0.06833277
0.89786947 -0.42401236 0.109893754 -0.4771902 -0.01645023 0.26478627 -0.2570875 0.040914457
0.5530358 0.6708995 1.2743716 -0.2857708 0.07634258 0.8377162 -0.3742459 1.3927326
-0.30608514 -1.1673651 -0.28845805 0.48796704 0.30767116 -0.7650231 1.035749 0.4107563
1.3153915 -0.6631225 -0.7155707 -0.4543928 0.8716501 0.46886414 -0.22508319 0.8356716
-0.1999745 -0.6479263 -0.2589119 0.49143893 -0.14058368 -0.6532292 0.46103245 -0.48389056
-0.0127087375 0.65096676 -0.8905787 0.5296668 1.0417436 0.67278725 -0.06642241 0.22790708
-1.5902929 -0.23246104 -1.0988997 -0.6846396 1.0183345 1.2249211 -0.7714637 0.44295105
00000000: c185 8d3f 325a 5ebe b5f1 413f f1ed 863f
00000010: d90c 85bf 216f c63e be4f 89be a686 15bc
00000020: 9bab 8ebf e89e 30bf 17bf ecbe 4d1f 8b3e
00000030: ffea 03be 628f c1be 660b 303f e661 6a3e
00000040: 3e24 0dbd fe11 db3f a3cf 8cbd de9b 75bf
00000050: 2e2d 6cbf bdb5 ecbe c69f b13e 3c33 a03f
00000060: 82ed 2bbe 4719 b0be c7ac 873f ee98 143f
00000070: 1ef9 303f 3617 34bf caa2 a73f dc63 d33f
00000080: e6aa 443e 851c 533f 1c4c a8be 6574 e63e
00000090: a88d d83e d1d4 0b3f 56ce 51bf 24d0 72be
000000a0: e0bd 77be 32d3 9f3e 8eb3 7c3f cbf1 323f
000000b0: a337 3a3f 80d4 76bd 4ab5 073f eb85 6a3f
000000c0: fa20 923e c0d7 c3bf 9a1e 3abf e2ba c83d
000000d0: cc5f 503f 6f77 e03e bf83 a93d 63ba 11be
000000e0: e9cd 933f ed60 713f cdfd c5bd 532f 38bf
000000f0: c10d 8d3e fef3 82be 6dd8 943f 3b49 ae3f
00000100: 59ae a8bf 33be 633f 8efc 613b a0fe 1b3e
00000110: fe4c 8fbf de2e 4a3f 492a 9ebf 34e4 6a3f
00000120: b4c2 01bf 0d78 0e3f 65a5 b33d 2b84 cf3d
00000130: 59c3 88be 1d3d 6dbe d1a2 6bbf 60ba a23f
00000140: 0cd8 943f fff8 153f 07d7 943f c1cc 62be
00000150: 1d0e 4cbf 3bc4 a9be adb1 6ebf 825d 5c3d
00000160: bbb4 b43e a2a4 7a3f 4b45 ba3f a315 a13d
00000170: 63b0 77bf 4815 0f3b 5eb4 773f 8f06 85bf
00000180: 88b9 9b3e d507 dd3e 817d 5d3f 1c32 19bf
00000190: 2eb0 823f c633 3c3e e8e0 8cbf 69b3 2c40
000001a0: 025c d63e 9c45 c1bd d8dc 3f3e 3ba2 0dbf
000001b0: 8f4b 1f3f 2f7d a23e 75f7 3c3e 92d5 d53e
000001c0: 838e b7be 318e a5be 729e c63f e6dd 843e
000001d0: 1bf8 983e f1c7 883f cbb7 bcbe 96b6 46bf
000001e0: 4a94 25bf 6eb7 283e 81df 1f3e 1767 353f
000001f0: 818d 93be a39a 293f 24e7 88bf b7c6 063e
00000200: 2273 163f 987e 0c3f 2cf1 33bf ac7f 213f
00000210: 02f5 93bf abc3 90be 3d34 603f 0fc2 833f
00000220: dd05 b23d fa42 a63f 4f75 94bf 79b5 87bf
00000230: 603e e83d 890a 2bbf 7109 643f 0fab 9bbd
00000240: 3397 8dbf 47d2 07bf 9939 553f bd96 23bf
00000250: ef05 acbd e960 953f 0e37 f1be f73f b5be
00000260: 4816 863f 728a 733f c34c 84bf 0b5a 513e
00000270: ab40 373f 0175 8f3f a77f a0bf 8e89 44bf
00000280: 54c8 db3d f692 99bf 7dc4 35bf 55a7 50bf
00000290: c398 ee3f 91e3 15bf 06a5 8b3f 81b7 953e
000002a0: 5a13 af3f f835 503f 7186 aa3f 146f ac3e
000002b0: 9f17 463f b6cc 41bf 79dd 8ebf aef0 2f3d
000002c0: 24fb 5c3f dc3b 7ebf 6160 f53e 493e 1340
000002d0: 192d 73be 8383 113f a2ce a43f 1c80 1dbf
000002e0: 9874 3cbf f5f7 84be a20d 413d f91c 69be
000002f0: cecb ab3f 758b 0fbf 11da 983f 11ec 05bf
00000300: 8b15 e13e c3d6 d0bf 95db 9abc a852 5f3f
00000310: c835 b53d 194b b43e f84f 1f3e 0df2 8bbd
00000320: c6da 653f 2618 d9be fa0f e13d 4652 f4be
00000330: a2c2 86bc 1192 873e f9a0 83be eb95 273d
00000340: c193 0d3f 12c0 2b3f 9c1e a33f 8d50 92be
00000350: 8059 9c3d 9274 563f 299d bfbe 1045 b23f
00000360: 31b7 9cbe 386c 95bf c6b0 93be d1d6 f93e
00000370: 1387 9d3e 8ed8 43bf 6c93 843f a64e d23e
00000380: c05e a83f 65c2 29bf a42f 37bf 2ca6 e8be
00000390: 7624 5f3f f60e f03e 357c 66be 93ee 553f
000003a0: 1ec6 4cbe 7fde 25bf 1a90 84be e29d fb3e
000003b0: 2bf5 0fbe 073a 27bf 720c ec3e 81c0 f7be
000003c0: 4f38 50bc c2a5 263f f7fc 63bf 3e98 073f
000003d0: db57 853f c93b 2c3f 7908 88bd 7960 693e
000003e0: b88e cbbf 440a 6ebe bfa8 8cbf 8a44 2fbf
000003f0: c958 823f 37ca 9c3f a57e 45bf 7bca e23e

sequential.0.Gamma.bias f4 [80]
-0.30546546 -0.061674472 -0.47719964 0.10603997 -0.058824018 -0.16827866 -0.26128688 0.25923112
-0.1428813 -0.19510546 -0.16957651 -0.14424598 -0.3091454 0.20244986 -0.36204672 -0.39965764
-0.58204246 -0.6564023 -0.16317154 -0.1800605 -0.24305613 -0.20574753 0.07115827 -0.1909545
-0.40091726 -0.14613752 0.27943248 -0.48861483 -0.74211615 -0.0007213799 -0.3258671 0.10866665
0.024405729 -0.08185586 -0.15598841 0.24060039 0.4164729 -0.4089991 0.32551527 -0.43330944
0.28172678 -0.032122973 0.015254901 -0.10331227 -0.3369966 3.6728143e-05 -0.20187342 -0.4966354
-0.01898391 0.25028986 -0.009825674 -0.15010256 -0.28082496 0.12410574 -0.3414297 -0.22538278
0.017408188 -0.6996963 -0.34334734 -0.50568575 -0.14201367 -0.18139671 -0.3583647 -0.24851212
-0.41790107 -0.12064848 -0.29953215 -0.5179093 -0.09975653 -0.82105637 -0.40790802 0.022589667
-0.31536466 -0.65059376 -0.26513788 0.08880024 0.63545614 -0.13382955 -0.3202984 -0.07927584
00000000: f865 9cbe 5f9e 7cbd 8353 f4be 7c2b d93d
00000010: 74f1 70bd 3e51 2cbe 65c7 85be f1b9 843e
00000020: 7a4f 12be bac9 47be 77a5 2dbe 38b5 13be
00000030: 4e48 9ebe 044f 4f3e 305e b9be ed9f ccbe
00000040: bc00 15bf fb09 28bf 7116 27be c861 38be
00000050: b5e3 78be 7baf 52be 6dbb 913d 9489 43be
00000060: 0745 cdbe 13a5 15be c611 8f3e b92b fabe
00000070: 53fb 3dbf fc1a 3dba 0dd8 a6be 9f8c de3d
00000080: 86ee c73c 0ca4 a7bd 6dbb 1fbe f35f 763e
00000090: f03b d53e 5468 d1be f0a9 a63e bcda ddbe
000000a0: 7e3e 903e 6193 03bd b1ef 793c 6295 d3bd
000000b0: d18a acbe 8b0c 1a38 e8b7 4ebe ff46 febe
000000c0: 2584 9bbc fe25 803e ddfb 20bc 7cb4 19be
000000d0: 4ac8 8fbe 262b fe3d e0cf aebe beca 66be
000000e0: 9e9b 8e3c 4c1f 33bf 39cb afbe 9f74 01bf
000000f0: 086c 11be 0fc0 39be 947b b7be f679 7ebe
00000100: 21f7 d5be 8d16 f7bd 475c 99be b495 04bf
00000110: 274d ccbd c030 52bf 52d9 d0be f70d b93c
00000120: 7a77 a1be 508d 26bf 27c0 87be e6dc b53d
00000130: 41ad 223f 9d0a 09be 27fe a3be 5f5b a2bd

sequential.0.Lambda.weight f4 [80, 5]
-0.6585045 0.11163062 1.3396014 0.50647557 -1.7199292 0.5039553 1.0504899 0.08642136
0.54632306 -1.0634402 1.1769676 -0.30092475 -0.048988942 -1.0644684 0.029713765 -0.14093634
0.0043316763 1.200453 0.22836846 -1.1035862 0.032787085 1.1558942 0.32063577 -0.61001664
-0.82848775 0.5033579 -0.25575778 -0.7786788 -1.0237864 0.21517392 0.20569436 -0.12828758
-0.39193016 0.04415061 0.27398553 -0.103170864 -0.4610247 0.87013847 0.6526089 -1.4038715
0.7827621 -0.40136167 -0.5632274 0.2737751 -0.2443407 -0.6800698 0.8562163 0.6323352
-0.22077453 -0.48824856 0.46611187 -1.1711121 0.7306678 -0.9398397 0.26028776 0.6320127
0.29875958 -0.74229664 -0.65268284 -0.08496671 -0.25004634 -0.031965572 -0.20693192 0.32429066
0.16365165 0.46510813 0.8725099 0.7332 0.16490443 -1.7697928 0.18288891 -0.32283747
0.100260764 0.44927928 -0.1792939 0.26991406 -0.36634785 -0.583374 -0.42823747 0.9413412
0.34492552 -0.4721426 -0.10610536 -0.55189186 -1.0232122 -0.79247177 0.5286118 -0.8933124
-0.04557248 0.9247925 -0.25216624 -0.35816973 0.17394489 -0.6638544 0.9462499 -0.1005958
-0.55714667 0.5632919 0.611367 -0.46838674 -0.33154124 -0.18562056 0.067656085 -0.6110988
0.25247395 0.021456424 -0.24779524 -0.09651044 0.09916069 -0.33997396 -0.26838484 0.7031711
0.43567082 0.5657547 -0.9075892 1.2662965 -0.2510939 -0.80964077 -0.45994967 -0.23457627
-0.808916 -0.30419347 0.347934 0.26926482 0.3621365 0.9020905 -0.37166467 0.19220555
0.27123204 -0.99016124 -0.21349587 0.19490492 -0.06705151 0.31539488 0.2327475 -0.8733402
0.30427313 -0.4905274 -0.85427576 1.3638471 -0.12530842 0.0062303822 0.099680446 -0.15357798
0.37947363 -0.31388256 -0.6426716 0.75854313 -0.23254688 -0.04672868 0.24477169 0.28205582
-0.44751117 0.39092264 -0.46118462 -0.2362937 1.3758243 -1.0663522 -0.012693663 -0.25540158
-0.9895063 -0.18396695 0.61508554 0.42417708 0.5047046 0.46215704 -0.6803113 -0.7584679
0.9999788 0.4131792 -1.1946114 0.047025837 -0.90427876 0.95896167 0.7647515 0.59385526
-0.8838126 -0.47894415 0.055027172 0.5200804 -0.15326916 0.33006316 0.28592733 0.20763639
-0.69153166 0.18252464 -0.536871 0.89458436 -0.007536678 -0.39890215 0.37309977 0.6359263
-0.54704267 0.12485138 -0.39123133 1.1342993 -0.019533703 -0.5772793 0.48352578 -0.6418077
0.8281113 -0.04633196 0.27276075 -0.46994856 -0.44979858 -1.2108582 -0.030768048 -0.6016188
0.14190583 0.32285273 0.23880507 -0.35897025 -0.20205492 -0.46561542 0.6187851 -1.4955997
0.4282095 0.3778723 0.8786809 0.413267 -0.78993547 0.6501279 0.32080367 -0.06352324
-0.72240305 0.57853854 -0.36239058 -0.08590528 0.19708808 -0.19334775 -0.8144748 -0.23964086
0.94264555 -0.15009394 0.7711223 -0.20069215 -0.4988347 -0.51873934 1.5484998 -0.5702233
-0.73371696 0.30802417 0.7408675 0.09064818 -0.47968218 0.35483414 0.9680979 0.04388711
-1.3447801 -0.075286694 0.8133033 0.18301108 -0.103427574 -0.58721745 -0.0510159 -0.3349579
00000000: c093 28bf 989e e43d 0f78 ab3f 62a8 013f
00000010: a426 dcbf 3703 013f 7476 863f affd b03d
00000020: d4db 0b3f cf1e 88bf e0a6 963f cf12 9abe
00000030: a1a8 48bd 8040 88bf 486a f33c 9e51 10be
00000040: bcf0 8d3b 72a8 993f 6cd9 693e 5042 8dbf
00000050: c04b 063d 57f4 933f 5f2a a43e 0d2a 1cbf
00000060: c617 54bf 10dc 003f aff2 82be 7e57 47bf
00000070: 6f0b 83bf 8d56 5c3e 8ba1 523e d25d 03be
00000080: 12ab c8be 45d7 343d d547 8c3e 3f4b d3bd
00000090: 6e0b ecbe 65c1 5e3f 6011 273f 10b2 b3bf
000000a0: 1963 483f 477f cdbe ac2f 10bf 402c 8c3e
000000b0: 7334 7abe 0e19 2ebf fe30 5b3f b8e0 213f
000000c0: b812 62be b7fb f9be 37a6 ee3e 00e7 95bf
000000d0: 0c0d 3b3f 5699 70bf 7044 853e 96cb 213f
000000e0: 04f7 983e 2707 3ebf 3916 27bf 0703 aebd
000000f0: 1306 80be 55ee 02bd f6e5 53be 6d09 a63e
00000100: 4c94 273e a722 ee3e cf5c 5f3f ffb2 3b3f
00000110: b5dc 283e 9288 e2bf 3b47 3b3e f44a a5be
00000120: 8455 cd3d ef07 e63e d298 37be 2d32 8a3e
00000130: f291 bbbe 0058 15bf f141 dbbe bdfb 703f
00000140: 149a b03e adbc f1be c44d d9bd c948 0dbf
00000150: 9ef8 82bf 6edf 4abf 1a53 073f 1fb0 64bf
00000160: 35aa 3abd 34bf 6c3f ef1b 81be 0662 b7be
00000170: 9c1e 323e 5df2 29bf 6f3d 723f 2c05 cebd
00000180: 2aa1 0ebf e633 103f 8c82 1c3f 63d0 efbe
00000190: c6bf a9be 5113 3ebe 468f 8a3d f970 1cbf
000001a0: 4444 813e 62c5 af3c 09be 7dbe 44a7 c5bd
000001b0: c314 cb3d 1111 aebe bd69 89be 0503 343f
000001c0: 3f10 df3e 4dd5 103f c457 68bf 0116 a23f
000001d0: 618f 80be 9e44 4fbf 867e ebbe c334 70be
000001e0: 1e15 4fbf 3fbf 9bbe 6824 b23e 14dd 893e
000001f0: f569 b93e 67ef 663f d54a bebe 88d1 443e
00000200: edde 8a3e 357b 7dbf a99e 5abe 2895 473e
00000210: 4d52 89bd 707b a13e 5c55 6e3e 3993 5fbf
00000220: b0c9 9b3e 6826 fbbe d1b1 5abf 8b92 ae3f
00000230: da50 00be 3c28 cc3b 4325 cc3d 8c43 1dbe
00000240: 5e4a c23e 37b5 a0be 2086 24bf e22f 423f
00000250: c520 6ebe 9366 3fbd 6ea5 7a3e 9f69 903e
00000260: 2f20 e5be 0327 c83e 6420 ecbe faf6 71be
00000270: 031b b03f 3b7e 88bf 15f9 4fbc ffc3 82be
00000280: 4950 7dbf d561 3cbe 3f76 1d3f bd2d d93e
00000290: 5234 013f d99f ec3e e228 2ebf f42a 42bf
000002a0: 9cfe 7f3f 398c d33e 07e9 98bf 2a9e 403d
000002b0: d07e 67bf 837e 753f c1c6 433f e606 183f
000002c0: 8b41 62bf 2b38 f5be 2c64 613d fd23 053f
000002d0: 97f2 1cbe 0afe a83e 1165 923e a29e 543e
000002e0: 3808 31bf bde7 3a3e 6170 09bf 7b03 653f
000002f0: 3df6 f6bb e73c ccbe ef06 bf3e 11cc 223f
00000300: fd0a 0cbf 15b2 ff3d 794f c8be b830 913f
00000310: 2505 a0bc 94c8 13bf b190 f73e 824d 24bf
00000320: 1aff 533f 95c6 3dbd 4ca7 8b3e 199d f0be
00000330: 004c e6be 67fd 9abf 460d fcbc b103 1abf
00000340: c34f 113e f44c a53e 5189 743e f3ca b7be
00000350: 7ce7 4ebe 2565 eebe b368 1e3f d06f bfbf
00000360: 473e db3e 7a78 c13e 3bf1 603f bb97 d33e
00000370: 3639 4abf c86e 263f 6140 a43e 7918 82bd
00000380: 68ef 38bf 1a1b 143f 428b b9be 1cef afbd
00000390: 75d1 493e f4fc 45be 6c81 50bf 6a64 75be
000003a0: 3851 713f 3ab2 19be 4568 453f 3e82 4dbe
000003b0: 4367 ffbe 1acc 04bf 3e35 c63f 27fa 11bf
000003c0: e0d4 3bbf 58b5 9d3e 7ea9 3d3f c1a5 b93d
000003d0: e798 f5be d2ac b53e 44d5 773f f8c2 333d
000003e0: c121 acbf e92f 9abd a534 503f 4267 3b3e
000003f0: d6d1 d3bd e253 16bf 0cf6 50bd 9a7f abbe

sequential.0.Lambda.bias f4 [80]
-0.30546546 -0.061674472 -0.47719964 0.10603997 -0.058824018 -0.16827866 -0.26128688 0.25923112
-0.1428813 -0.19510546 -0.16957651 -0.14424598 -0.3091454 0.20244986 -0.36204672 -0.39965764
-0.58204246 -0.6564023 -0.16317154 -0.1800605 -0.24305613 -0.20574753 0.07115827 -0.1909545
-0.40091726 -0.14613752 0.27943248 -0.48861483 -0.74211615 -0.0007213799 -0.3258671 0.10866665
0.024405729 -0.08185586 -0.15598841 0.24060039 0.4164729 -0.4089991 0.32551527 -0.43330944
0.28172678 -0.032122973 0.015254901 -0.10331227 -0.3369966 3.6728143e-05 -0.20187342 -0.4966354
-0.01898391 0.25028986 -0.009825674 -0.15010256 -0.28082496 0.12410574 -0.3414297 -0.22538278
0.017408188 -0.6996963 -0.34334734 -0.50568575 -0.14201367 -0.18139671 -0.3583647 -0.24851212
-0.41790107 -0.12064848 -0.29953215 -0.5179093 -0.09975653 -0.82105637 -0.40790802 0.022589667
-0.31536466 -0.65059376 -0.26513788 0.08880024 0.63545614 -0.13382955 -0.3202984 -0.07927584
00000000: f865 9cbe 5f9e 7cbd 8353 f4be 7c2b d93d
00000010: 74f1 70bd 3e51 2cbe 65c7 85be f1b9 843e
00000020: 7a4f 12be bac9 47be 77a5 2dbe 38b5 13be
00000030: 4e48 9ebe 044f 4f3e 305e b9be ed9f ccbe
00000040: bc00 15bf fb09 28bf 7116 27be c861 38be
00000050: b5e3 78be 7baf 52be 6dbb 913d 9489 43be
00000060: 0745 cdbe 13a5 15be c611 8f3e b92b fabe
00000070: 53fb 3dbf fc1a 3dba 0dd8 a6be 9f8c de3d
00000080: 86ee c73c 0ca4 a7bd 6dbb 1fbe f35f 763e
00000090: f03b d53e 5468 d1be f0a9 a63e bcda ddbe
000000a0: 7e3e 903e 6193 03bd b1ef 793c 6295 d3bd
000000b0: d18a acbe 8b0c 1a38 e8b7 4ebe ff46 febe
000000c0: 2584 9bbc fe25 803e ddfb 20bc 7cb4 19be
000000d0: 4ac8 8fbe 262b fe3d e0cf aebe beca 66be
000000e0: 9e9b 8e3c 4c1f 33bf 39cb afbe 9f74 01bf
000000f0: 086c 11be 0fc0 39be 947b b7be f679 7ebe
00000100: 21f7 d5be 8d16 f7bd 475c 99be b495 04bf
00000110: 274d ccbd c030 52bf 52d9 d0be f70d b93c
00000120: 7a77 a1be 508d 26bf 27c0 87be e6dc b53d
00000130: 41ad 223f 9d0a 09be 27fe a3be 5f5b a2bd

sequential.0.bn.running_mean f4 [80]
0.0 0.0 0.0 0.0 0.0 0.0 0.0 0.0
0.0 0.0 0.0 0.0 0.0 0.0 0.0 0.0
0.0 0.0 0.0 0.0 0.0 0.0 0.0 0.0
0.0 0.0 0.0 0.0 0.0 0.0 0.0 0.0
0.0 0.0 0.0 0.0 0.0 0.0 0.0 0.0
0.0 0.0 0.0 0.0 0.0 0.0 0.0 0.0
0.0 0.0 0.0 0.0 0.0 0.0 0.0 0.0
0.0 0.0 0.0 0.0 0.0 0.0 0.0 0.0
0.0 0.0 0.0 0.0 0.0 0.0 0.0 0.0
0.0 0.0 0.0 0.0 0.0 0.0 0.0 0.0
00000000: 0000 0000 0000 0000 0000 0000 0000 0000
00000010: 0000 0000 0000 0000 0000 0000 0000 0000
00000020: 0000 0000 0000 0000 0000 0000 0000 0000
00000030: 0000 0000 0000 0000 0000 0000 0000 0000
00000040: 0000 0000 0000 0000 0000 0000 0000 0000
00000050: 0000 0000 0000 0000 0000 0000 0000 0000
00000060: 0000 0000 0000 0000 0000 0000 0000 0000
00000070: 0000 0000 0000 0000 0000 0000 0000 0000
00000080: 0000 0000 0000 0000 0000 0000 0000 0000
00000090: 0000 0000 0000 0000 0000 0000 0000 0000
000000a0: 0000 0000 0000 0000 0000 0000 0000 0000
000000b0: 0000 0000 0000 0000 0000 0000 0000 0000
000000c0: 0000 0000 0000 0000 0000 0000 0000 0000
000000d0: 0000 0000 0000 0000 0000 0000 0000 0000
000000e0: 0000 0000 0000 0000 0000 0000 0000 0000
000000f0: 0000 0000 0000 0000 0000 0000 0000 0000
00000100: 0000 0000 0000 0000 0000 0000 0000 0000
00000110: 0000 0000 0000 0000 0000 0000 0000 0000
00000120: 0000 0000 0000 0000 0000 0000 0000 0000
00000130: 0000 0000 0000 0000 0000 0000 0000 0000

sequential.0.bn.running_var f4 [80]
1.0 1.0 1.0 1.0 1.0 1.0 1.0 1.0
1.0 1.0 1.0 1.0 1.0 1.0 1.0 1.0
1.0 1.0 1.0 1.0 1.0 1.0 1.0 1.0
1.0 1.0 1.0 1.0 1.0 1.0 1.0 1.0
1.0 1.0 1.0 1.0 1.0 1.0 1.0 1.0
1.0 1.0 1.0 1.0 1.0 1.0 1.0 1.0
1.0 1.0 1.0 1.0 1.0 1.0 1.0 1.0
1.0 1.0 1.0 1.0 1.0 1.0 1.0 1.0
1.0 1.0 1.0 1.0 1.0 1.0 1.0 1.0
1.0 1.0 1.0 1.0 1.0 1.0 1.0 1.0
00000000: 0000 803f 0000 803f 0000 803f 0000 803f
00000010: 0000 803f 0000 803f 0000 803f 0000 803f
00000020: 0000 803f 0000 803f 0000 803f 0000 803f
00000030: 0000 803f 0000 803f 0000 803f 0000 803f
00000040: 0000 803f 0000 803f 0000 803f 0000 803f
00000050: 0000 803f 0000 803f 0000 803f 0000 803f
00000060: 0000 803f 0000 803f 0000 803f 0000 803f
00000070: 0000 803f 0000 803f 0000 803f 0000 803f
00000080: 0000 803f 0000 803f 0000 803f 0000 803f
00000090: 0000 803f 0000 803f 0000 803f 0000 803f
000000a0: 0000 803f 0000 803f 0000 803f 0000 803f
000000b0: 0000 803f 0000 803f 0000 803f 0000 803f
000000c0: 0000 803f 0000 803f 0000 803f 0000 803f
000000d0: 0000 803f 0000 803f 0000 803f 0000 803f
000000e0: 0000 803f 0000 803f 0000 803f 0000 803f
000000f0: 0000 803f 0000 803f 0000 803f 0000 803f
00000100: 0000 803f 0000 803f 0000 803f 0000 803f
00000110: 0000 803f 0000 803f 0000 803f 0000 803f
00000120: 0000 803f 0000 803f 0000 803f 0000 803f
00000130: 0000 803f 0000 803f 0000 803f 0000 803f

sequential.2.Gamma.weight f4 [120, 80]
0.055032052 0.04444619 -0.97164583 0.4161884 -0.42427924 0.23780964 0.16513021 0.12110855
-0.6367334 0.26822367 -0.520297 0.027129848 -0.51710945 0.2383448 -0.6116663 -1.1722937
0.1381029 -0.80642176 -0.4818659 0.08596516 -0.5388285 0.024524081 0.02570411 -0.15007822
0.29216534 -0.59205306 -0.30657974 -0.03527557 0.087418646 -0.24703136 -0.45328146 0.39430502
0.09342024 -1.1467423 0.16438389 -0.5299966 0.17006697 -0.2735794 0.0035452542 -0.45136908
-0.19190083 -0.71982765 -0.13224459 -0.21375914 -0.24040507 -0.053012636 0.1706704 0.14774154
-0.17709146 0.10767826 -0.5037232 0.12578969 -0.093308255 0.00018932651 0.013363676 -0.22805664
0.2554208 -0.16397193 -0.28773335 0.13004108 0.34900966 -0.14405696 -0.65578216 0.12416849
-0.0502553 0.30333254 -0.8439091 -0.062347237 -0.14706933 -0.11676273 0.021697052 0.18956317
-0.44476834 -0.41585606 -0.4314551 -0.06382151 -0.12066543 -0.46454987 -0.19165383 -0.08803097
-0.55763566 -0.01937336 -0.41137055 -0.5392996 0.13734095 0.18215124 0.11767287 -0.16078624
-0.054225385 -0.21551996 -0.045618262 0.30913204 -0.23747735 -0.29112574 0.079795904 -0.59753835
-0.0038364097 0.1893125 -0.09578235 0.31733346 0.28632563 0.3358017 -0.24830315 -0.27572632
0.28484136 -0.43350765 0.28353122 -0.51975375 0.07667806 -0.058489915 -0.24016587 0.0058574416
0.13562442 0.17243652 -0.120490715 -0.39834514 -0.26817048 0.08318025 -0.22186849 -0.030585814
-0.56986165 -0.0031483201 -0.24366727 -0.16300997 0.12099954 0.18823175 -0.7134035 0.096871495
0.24350478 -0.59575117 -0.2763215 -0.75324297 -1.3321667 -0.20481107 0.5133868 -0.41738662
-0.08934087 -0.00043933422 -1.1973468 -0.21014279 -0.29521814 -0.18388276 -0.08974104 -0.28396636
0.25735694 -0.033059247 -0.07050166 0.050274383 -0.38365173 0.31544653 0.21632445 0.21435577
0.4355456 0.24162324 -0.25791535 -0.24063317 -0.12514831 0.56070036 -0.3436258 -0.13176881
-0.17416424 0.04363294 -0.078337505 -0.55113864 -0.08544376 -0.108407415 -0.105197094 -0.45692828
-0.5659549 -0.09744099 0.59026295 0.23623642 -0.9795624 -0.3027435 0.29408962 0.032190062
-0.23298521 -0.30514583 -0.13129218 -0.3221682 -0.080990076 -0.074182376 -0.20797339 -0.21182702
-0.012301284 -0.3318522 0.093811184 0.5786938 0.06736986 -0.055468466 0.2123031 0.090988025
-0.034777526 -0.48788014 0.21863313 -0.6708443 -0.17805108 -0.2704804 -0.06490969 0.25916955
-0.22921684 -0.13880306 -0.58125466 -0.36688882 -0.2438732 -0.6826653 -0.11848757 -0.043237492
0.37962115 -0.1920327 -0.25150326 -0.7045162 0.091263816 0.0020393506 0.29594612 -0.18888856
-0.20461231 -0.20232122 0.14867947 -0.070584975 -0.5873033 -0.52831167 -0.5581382 0.040655933
0.53768605 0.21782176 -0.24546683 -0.16453332 0.09346841 -0.6701328 -0.21879557 0.3751489
-0.32379764 0.15623249 -0.22568487 0.11949144 -0.38384962 -0.2513937 -0.079654135 -0.043050688
-0.31415054 0.37701046 -0.039993986 0.41363147 0.0024444251 -0.26525292 -0.5102346 0.32104313
0.11321165 -0.48854747 -0.5597508 -0.077908285 -2.179372 0.4530765 -0.032414474 0.037594818
00000000: 4a69 613d 350d 363d c8bd 78bf a516 d53e
00000010: 213b d9be 5f84 733e e517 293e c207 f83d
00000020: f600 23bf 9d54 893e 2f32 05bf 6a3f de3c
00000030: 4961 04bf a910 743e 2a96 1cbf b80d 96bf
00000040: d96a 0d3e a871 4ebf 21b7 f6be 800e b03d
00000050: aaf0 09bf bae6 c83c 6d91 d23c 1bae 19be
00000060: b296 953e ca90 17bf 05f8 9cbe 1e7d 10bd
00000070: 8c08 b33d caf5 7cbe 8214 e8be 59e2 c93e
00000080: 1c53 bf3d 74c8 92bf 4054 283e dbad 07bf
00000090: 0926 2e3e 9912 8cbe 7f57 683b d919 e7be
000000a0: a781 44be a046 38bf 206b 07be ade3 5abe
000000b0: bf2c 76be c723 59bd 39c4 2e3e 8f49 173e
000000c0: 7757 35be 6b86 dc3d 01f4 00bf 03cf 003e
000000d0: 6618 bfbd f385 4639 52f3 5a3c ae87 69be
000000e0: 84c6 823e 42e8 27be c951 93be 7d29 053e
000000f0: 65b1 b23e ab83 13be 57e1 27bf 0d4c fe3d
00000100: 80d8 4dbd 674e 9b3e 6d0a 58bf d15f 7fbd
00000110: 5899 16be 4c21 efbd 04be b13c d91c 423e
00000120: adb8 e3be 16eb d4be afe7 dcbe dab4 82bd
00000130: 701f f7bd 7bd9 edbe e740 44be 9549 b4bd
00000140: 36c1 0ebf e1b4 9ebc 299f d2be 8a0f 0abf
00000150: 1ba3 0c3e db85 3a3e 79fe f03d 26a5 24be
00000160: 701b 5ebd 44b1 5cbe 37da 3abd 8e46 9e3e
00000170: 432d 73be 6f0e 95be 096c a33d 46f8 18bf
00000180: 466c 7bbb 23db 413e 8929 c4bd 8879 a23e
00000190: 4699 923e 33ee ab3e 2e43 7ebe 002c 8dbe
000001a0: bad6 913e b7f4 ddbe 012b 913e 950e 05bf
000001b0: 6309 9d3d 1f93 6fbd 0bee 75be c8ef bf3b
000001c0: 21e1 0a3e 3393 303e d6c3 f6bd e5f3 cbbe
000001d0: a44d 89be 685a aa3d 7e31 63be 1a8f fabc
000001e0: 74e2 11bf 0c54 4ebb ea83 79be 16ec 26be
000001f0: 9bce f73d d3bf 403e 9da1 36bf 9064 c63d
00000200: 5159 793e 2683 18bf 037a 8dbe 88d4 40bf
00000210: 7084 aabf feb9 51be 516d 033f b3b3 d5be
00000220: 59f8 b6bd 7156 e6b9 a942 99bf ac2f 57be
00000230: d526 97be c34b 3cbe 26ca b7bd 0a64 91be
00000240: 4ac4 833e 2269 07bd 2d63 90bd 83ec 4d3d
00000250: 006e c4be 3582 a13e 2884 5d3e 1480 5b3e
00000260: d5ff de3e 156c 773e 7b0d 84be 8b68 76be
00000270: e126 00be 0f8a 0f3f b9ef afbe 67ee 06be
00000280: 1c58 32be 74b8 323d 6a6f a0bd 6c17 0dbf
00000290: 23fd aebd b504 debd 9371 d7bd 81f2 e9be
000002a0: 6ce2 10bf 248f c7bd 791b 173f f6e7 713e
000002b0: 9ac4 7abf 3201 9bbe ea92 963e bad9 033d
000002c0: ad93 6ebe 133c 9cbe 7571 06be 3bf3 a4be
000002d0: 20de a5bd eeec 97bd faf6 54be 2fe9 58be
000002e0: 538b 49bc 88e8 a9be 1420 c03d 4725 143f
000002f0: 36f9 893d e732 63bd fc65 593e ee57 ba3d
00000300: e172 0ebd 6dcb f9be 5de1 5f3e 74bc 2bbf
00000310: 0653 36be 687c 8abe 5fef 84bd dfb1 843e
00000320: d2b7 6abe 6422 0ebe 1bcd 14bf dad8 bbbe
00000330: e5b9 79be 27c3 2ebf 9ca9 f2bd cc19 31bd
00000340: b45d c23e 38a4 44be 09c5 80be 2c5b 34bf
00000350: 86e8 ba3d a0a6 053b 4086 973e 016c 41be
00000360: e485 51be 4b2d 4fbe 6e3f 183e db8e 90bd
00000370: 8259 16bf 6f3f 07bf 25e2 0ebf d686 263d
00000380: cba5 093f ab0c 5f3e a85b 7bbe 6c7b 28be
00000390: 5e6c bf3d d38d 2bbf f20b 60be 8413 c03e
000003a0: cec8 a5be 69fb 1f3e ef19 67be eeb7 f43d
000003b0: f087 c4be adb6 80be b521 a3bd eb55 30bd
000003c0: 57d8 a0be 8407 c13e bcd0 23bd 81c7 d33e
000003d0: a632 203b 3bcf 87be bc9e 02bf c45f a43e
000003e0: 82db e73d e522 fabe d44b 0fbf 618e 9fbd
000003f0: d57a 0bc0 a5f9 e73e 0ac5 04bd 06fd 193d

sequential.2.Gamma.bias f4 [120]
0.11437347 -0.076709144 -0.38618848 0.32567966 0.03499904 -0.29699844 0.2908587 -0.20278092
-0.3000164 -0.20243087 0.020573193 -0.15546127 -0.20283036 -0.093575016 -0.05087744 -0.44510755
0.19798726 -0.20176046 0.1843181 -0.009968648 0.08055402 -0.14851223 0.022264156 -0.014059738
0.2763102 -0.28951702 0.07659395 -0.6999768 -0.20462057 0.000563997 -0.31326643 0.024446975
-0.21927632 -0.5430703 -0.17018765 -0.28652427 0.032818053 -0.60437435 -0.44517294 0.0128924055
-0.27148703 -0.16182004 -0.45661706 -0.17105229 0.36041737 -0.37428567 0.090950765 0.13825248
0.107992195 0.32733113 -0.029721748 0.09450343 -1.1052785 -0.3793478 -0.06757488 0.014494025
-0.32920453 -0.08856642 0.033913504 -0.25054404 -0.78505504 -0.050198957 -0.24194686 -0.38850546
0.18058833 0.2392052 -0.062504865 -0.89357764 -0.5226784 0.18924965 -0.18902881 0.072290465
-0.028314913 0.06373269 -0.4727869 -0.4167664 -0.13811593 -0.32702115 -0.253013 -0.050254297
-0.08285891 -0.3570182 -0.1694266 -0.4908881 -0.42995742 -0.22133376 -0.026868952 -0.12358857
-0.30558366 -0.1115512 -0.36994776 -0.31276023 -0.4774775 0.18476413 -0.38978288 -0.009989318
0.12315502 -0.11060886 -0.0875796 -0.15138932 -0.179366 -0.004458218 -0.1561 0.06018746
-0.08092005 -0.36815804 -0.14933677 0.014885131 -0.15270258 -0.5438517 0.38608125 -0.22638758
-0.14960973 0.03670107 -0.06811163 0.15858024 0.32648915 -0.35263026 0.28628996 -0.3143078
00000000: a33c ea3d af19 9dbd 7fba c5be 7cbf a63e
00000010: 275b 0f3d 2e10 98be 6eeb 943e cda5 4fbe
00000020: c09b 99be 0a4a 4fbe 1d89 a83c 3d31 1fbe
00000030: c3b2 4fbe 42a4 bfbd dd64 50bd 23e5 e3be
00000040: 2cbd 4a3e 4b9a 4ebe e2bd 3c3e 8a53 23bc
00000050: 82f9 a43d 9713 18be 5263 b63c d15a 66bc
00000060: 8878 8d3e 933b 94be 4add 9c3d ae31 33bf
00000070: 0e88 51be 33d9 133a 7564 a0be 0645 c83c
00000080: f989 60be a806 0bbf ac45 2ebe 4fb3 92be
00000090: 396c 063d 47b8 1abf b5ed e3be ab3a 533c
000000a0: 5900 8bbe 27b4 25be b6c9 e9be 5528 2fbe
000000b0: a088 b83e 5fa2 bfbe 6544 ba3d 0f92 0d3e
000000c0: 032b dd3d f297 a73e 067b f3bc 048b c13d
000000d0: c479 8dbf e039 c2be b364 8abd 5978 6d3c
000000e0: 7f8d a8be 5062 b5bd e3e8 0a3d 4f47 80be
000000f0: 5ef9 48bf 6c9d 4dbd ebc0 77be 30ea c6be
00000100: 26ec 383e 35f2 743e 8d02 80bd 81c1 64bf
00000110: 40ce 05bf a9ca 413e c590 41be 060d 943d
00000120: adf4 e7bc 4986 823d 2011 f2be 6862 d5be
00000130: 436e 0dbe 516f a7be ec8a 81be 73d7 4dbd
00000140: efb1 a9bd 17cb b6be 2b7e 2dbe af55 fbbe
00000150: 6123 dcbe 51a5 62be 471c dcbc 011c fdbd
00000160: 7675 9cbe f574 e4bd cb69 bdbe 1c22 a0be
00000170: ee77 f4be cf32 3d3e 9f91 c7be 3daa 23bc
00000180: b338 fc3d e686 e2bd ef5c b3bd cd05 1bbe
00000190: b9ab 37be 3e16 92bb aed8 1fbe 2087 763d
000001a0: 69b9 a5bd 367f bcbe bdeb 18be c4e0 733c
000001b0: 115e 1cbe dd39 0bbf 71ac c53e 25d2 67be
000001c0: 4b33 19be dc53 163d 1c7e 8bbd dc62 223e
000001d0: 9629 a73e f48b b4be 9994 923e f4ec a0be

sequential.2.Lambda.weight f4 [120, 80]
-0.28418535 -0.3773122 -0.4574002 0.37481174 -0.059348926 0.23287323 -0.29789308 -0.29028907
0.30597714 0.41244438 -0.46013775 0.12655999 0.8836492 0.062130474 -0.24878094 -0.0077589387
0.067387365 0.12397354 -0.46358842 0.5326361 0.24530429 -0.042436935 0.28427538 -0.26928177
0.10127238 0.24583933 -0.018326439 0.64972115 0.21126243 0.23226145 0.28248894 0.042743705
-0.029548941 -0.40395173 0.20703238 -0.26062387 0.30968562 0.09082513 -0.05645775 -0.42330602
-0.38902703 -0.25898013 -0.35530534 -0.353803 0.08814218 0.2003929 0.051263418 0.11666188
-0.11720769 -0.1234997 0.55432487 -0.3838553 -0.1503558 -0.2884546 0.25732368 -0.41226393
-0.13381037 0.327165 -0.010179996 0.13980189 0.54651934 0.24854013 0.5449938 -0.22681774
-0.53575695 0.10620217 0.4471384 0.3054233 0.07285902 0.34804505 -0.2641593 -0.49133143
0.6765945 -0.20760806 0.22515424 0.06749392 0.24094172 -0.16898087 0.0754279 0.22784644
-0.39938897 0.028324 -0.35437614 0.14612791 -0.20873691 0.34502068 0.6572499 0.019673277
0.50504297 -0.035339467 0.24317047 -0.01984907 -0.5837559 0.40922904 0.09744398 -0.6791682
-0.073643684 0.023759639 -0.047927275 -0.3238013 0.40655684 0.051722698 0.39757997 0.18261679
-0.20608415 0.1452615 0.35962212 0.2740977 -0.07982308 -0.112222314 -0.6080414 0.011817965
0.27578393 0.16871539 0.072537206 -0.034555852 -0.053581744 -0.2564143 -0.16644926 0.23575185
0.10907524 0.11652808 0.32717684 -0.17257765 0.93603814 0.32856423 -0.14084522 0.24016885
0.09258915 -0.53672117 -0.4679231 -0.152133 -1.110195 -0.029227983 0.18231602 0.021886121
-0.21955328 -0.066436894 0.066280276 0.010957717 -0.5157172 0.07429673 -0.04331964 -0.16888295
0.5570816 -0.09803778 -0.32513672 -0.04905317 -0.45016465 0.40457174 0.25542393 0.5743428
-0.8366468 0.53694874 -0.35446122 -0.12179048 0.1436912 -0.034728535 0.047849372 0.7612765
-0.12332751 -0.005174358 0.21304516 -0.51250154 0.29396585 0.017849758 -0.17662118 -0.2486072
-0.27375978 -0.05144594 0.2133856 0.29839006 -0.9154149 -0.0975954 0.25999445 0.48833126
-0.2903652 0.008318697 -0.046586838 0.034402423 -0.3316724 0.08774071 -0.47919276 0.053592876
0.048545927 -0.13864909 0.46300143 0.63806957 -0.072730705 0.06350339 -0.39996067 0.055053394
0.44304892 -0.15551326 0.050111968 -0.43810603 -0.3183467 -0.223258 0.22725956 0.101954795
0.07107113 0.23811813 -0.12264612 -0.23079444 0.08996767 -0.18970136 0.21251976 0.111519374
-0.00047349703 -0.081609055 0.20507564 -0.7634676 0.0053750696 -0.27456233 -0.01912416 0.23959509
0.081115045 0.10779675 -0.08443434 0.15600884 -0.09152026 -0.21652932 -0.47420505 0.32686773
0.074646674 0.00028398418 -0.59438103 -0.3649956 0.17635477 -0.10010661 0.04028479 0.2195973
0.19043085 -0.03761756 -0.21851584 0.2404602 -0.4023702 -0.22854978 -0.025580566 -0.043388918
0.6174011 -0.15768215 0.085853666 0.10346552 0.17165954 0.030155236 -0.19339427 0.15731537
0.1804591 -0.122238144 -0.27428296 -0.03500936 -0.57481486 -0.011096028 0.5329863 -0.14225423
00000000: be80 91be 112f c1be 5c30 eabe 53e7 bf3e
00000010: dc17 73bd 5276 6e3e 7185 98be c5a0 94be
00000020: 09a9 9c3e e92b d33e 2d97 ebbe f198 013e
00000030: d536 623f 867c 7e3d 6ec0 7ebe b23e febb
00000040: 6302 8a3d d7e5 fd3d 765b edbe d75a 083f
00000050: 0c31 7b3e 5ad2 2dbd 8b8c 913e 4ddf 89be
00000060: e567 cf3d 4ebd 7b3e 5421 96bc 2054 263f
00000070: 2e55 583e f2d5 6d3e 64a2 903e 0614 2f3d
00000080: 9f10 f2bc c3d2 cebe 4c00 543e 7e70 85be
00000090: 1d8f 9e3e 8702 ba3d 3e40 67bd 91bb d8be
000000a0: 8d2e c7be 0b99 84be 95ea b5be ab25 b5be
000000b0: e383 b43d cc33 4d3e 97f9 513d 6cec ee3d
000000c0: 960a f0bd 69ed fcbd 3ce8 0d3f af88 c4be
000000d0: dff6 19be 52b0 93be eebf 833e 4214 d3be
000000e0: 9605 09be 2c82 a73e ffc9 26bc 3a28 0f3e
000000f0: b1e8 0b3f 4e81 7e3e b784 0b3f e942 68be
00000100: 5e27 09bf 8680 d93d 53ef e43e 7160 9c3e
00000110: 1c37 953d f632 b23e e33f 87be cb8f fbbe
00000120: 4c35 2d3f 3597 54be d58e 663e 413a 8a3d
00000130: 6db9 763e 5209 2dbe f179 9a3d 9450 693e
00000140: b67c ccbe bc07 e83c ca70 b5be 8ea2 153e
00000150: 21bf 55be 8da6 b03e 8841 283f da29 a13c
00000160: 7f4a 013f 1ec0 10bd ae01 793e 849a a2bc
00000170: 0771 15bf 7886 d13e b690 c73d f8dd 2dbf
00000180: 80d2 96bd 93a3 c23c 644f 44bd 49c9 a5be
00000190: 3828 d03e 2edb 533d 9a8f cb3e e5ff 3a3e
000001a0: b907 53be 6ebf 143e 6420 b83e 8956 8c3e
000001b0: 487a a3bd d0d4 e5bd 9aa8 1bbf 23a0 413c
000001c0: 8d33 8d3e bac3 2c3e 638e 943d 708a 0dbd
000001d0: 8878 5bbd bc48 83be ad71 2abe ef68 713e
000001e0: d762 df3d 46a6 ee3d b983 a73e 32b8 30be
000001f0: 32a0 6f3f 9239 a83e bb39 10be d3ee 753e
00000200: 619f bd3d 8f66 09bf 9e93 efbe c1c8 1bbe
00000210: df1a 8ebf 866f efbc 0db1 3a3e 864a b33c
00000220: 93d2 60be 1110 88bd f4bd 873d ff87 333c
00000230: 0b06 04bf e228 983d ef6f 31bd a7ef 2cbe
00000240: e69c 0e3f 08c8 c8bd 5278 a6be faeb 48bd
00000250: fb7b e6be 0724 cf3e edc6 823e 2108 133f
00000260: 7c2e 56bf 7975 093f f17b b5be 4a6d f9bd
00000270: c923 133e 823f 0ebd b4fd 433d 04e3 423f
00000280: 2293 fcbd a98d a9bb 8328 5a3e 4d33 03bf
00000290: b182 963e a839 923c 2fdc 34be e392 7ebe
000002a0: 3e2a 8cbe fab8 52bd c181 5a3e 95c6 983e
000002b0: a258 6abf 19e0 c7bd fe1d 853e 8e06 fa3e
000002c0: bfaa 94be 254b 083c d7d1 3ebd 8ee9 0c3d
000002d0: f7d0 a9be 67b1 b33d c158 f5be 3484 5b3d
000002e0: 18d8 463d 07fa 0dbe 860e ed3e 8758 233f
000002f0: d6f3 94bd 110e 823d a5c7 ccbe ab7f 613d
00000300: 4fd7 e23e de3e 1fbe 3542 4d3d 6f4f e0be
00000310: 57fe a2be bf9d 64be bbb6 683e adcd d03d
00000320: be8d 913d 3dd5 733e e42d fbbd 6155 6cbe
00000330: f840 b83d 1341 42be c89e 593e 4564 e43d
00000340: b23f f8b9 a622 a7bd 59ff 513e 9d72 43bf
00000350: 5a21 b03b 6f93 8cbe 45aa 9cbc 6a58 753e
00000360: a51f a63d 8bc4 dc3d e9eb acbd c8c0 1f3e
00000370: f96e bbbd ddb9 5dbe 01cb f2be 355b a73e
00000380: 5be0 983d b6e3 9439 5b29 18bf b4e0 babe
00000390: 5896 343e b204 cdbd aa01 253d 1dde 603e
000003a0: 4e00 433e df14 1abd 9ec2 5fbe 333b 763e
000003b0: 7803 cebe f408 6abe 568e d1bc 94b8 31bd
000003c0: 000e 1e3f 6e77 21be 0cd4 af3d bbe5 d33d
000003d0: 85c7 2f3e 1d08 f73c 2609 46be 4817 213e
000003e0: 45ca 383e fe57 fabd d16e 8cbe fa65 0fbd
000003f0: 1127 13bf 1dcc 35bc ca71 083f 18ab 11be

sequential.2.Lambda.bias f4 [120]
0.11437347 -0.076709144 -0.38618848 0.32567966 0.03499904 -0.29699844 0.2908587 -0.20278092
-0.3000164 -0.20243087 0.020573193 -0.15546127 -0.20283036 -0.093575016 -0.05087744 -0.44510755
0.19798726 -0.20176046 0.1843181 -0.009968648 0.08055402 -0.14851223 0.022264156 -0.014059738
0.2763102 -0.28951702 0.07659395 -0.6999768 -0.20462057 0.000563997 -0.31326643 0.024446975
-0.21927632 -0.5430703 -0.17018765 -0.28652427 0.032818053 -0.60437435 -0.44517294 0.0128924055
-0.27148703 -0.16182004 -0.45661706 -0.17105229 0.36041737 -0.37428567 0.090950765 0.13825248
0.107992195 0.32733113 -0.029721748 0.09450343 -1.1052785 -0.3793478 -0.06757488 0.014494025
-0.32920453 -0.08856642 0.033913504 -0.25054404 -0.78505504 -0.050198957 -0.24194686 -0.38850546
0.18058833 0.2392052 -0.062504865 -0.89357764 -0.5226784 0.18924965 -0.18902881 0.072290465
-0.028314913 0.06373269 -0.4727869 -0.4167664 -0.13811593 -0.32702115 -0.253013 -0.050254297
-0.08285891 -0.3570182 -0.1694266 -0.4908881 -0.42995742 -0.22133376 -0.026868952 -0.12358857
-0.30558366 -0.1115512 -0.36994776 -0.31276023 -0.4774775 0.18476413 -0.38978288 -0.009989318
0.12315502 -0.11060886 -0.0875796 -0.15138932 -0.179366 -0.004458218 -0.1561 0.06018746
-0.08092005 -0.36815804 -0.14933677 0.014885131 -0.15270258 -0.5438517 0.38608125 -0.22638758
-0.14960973 0.03670107 -0.06811163 0.15858024 0.32648915 -0.35263026 0.28628996 -0.3143078
00000000: a33c ea3d af19 9dbd 7fba c5be 7cbf a63e
00000010: 275b 0f3d 2e10 98be 6eeb 943e cda5 4fbe
00000020: c09b 99be 0a4a 4fbe 1d89 a83c 3d31 1fbe
00000030: c3b2 4fbe 42a4 bfbd dd64 50bd 23e5 e3be
00000040: 2cbd 4a3e 4b9a 4ebe e2bd 3c3e 8a53 23bc
00000050: 82f9 a43d 9713 18be 5263 b63c d15a 66bc
00000060: 8878 8d3e 933b 94be 4add 9c3d ae31 33bf
00000070: 0e88 51be 33d9 133a 7564 a0be 0645 c83c
00000080: f989 60be a806 0bbf ac45 2ebe 4fb3 92be
00000090: 396c 063d 47b8 1abf b5ed e3be ab3a 533c
000000a0: 5900 8bbe 27b4 25be b6c9 e9be 5528 2fbe
000000b0: a088 b83e 5fa2 bfbe 6544 ba3d 0f92 0d3e
000000c0: 032b dd3d f297 a73e 067b f3bc 048b c13d
000000d0: c479 8dbf e039 c2be b364 8abd 5978 6d3c
000000e0: 7f8d a8be 5062 b5bd e3e8 0a3d 4f47 80be
000000f0: 5ef9 48bf 6c9d 4dbd ebc0 77be 30ea c6be
00000100: 26ec 383e 35f2 743e 8d02 80bd 81c1 64bf
00000110: 40ce 05bf a9ca 413e c590 41be 060d 943d
00000120: adf4 e7bc 4986 823d 2011 f2be 6862 d5be
00000130: 436e 0dbe 516f a7be ec8a 81be 73d7 4dbd
00000140: efb1 a9bd 17cb b6be 2b7e 2dbe af55 fbbe
00000150: 6123 dcbe 51a5 62be 471c dcbc 011c fdbd
00000160: 7675 9cbe f574 e4bd cb69 bdbe 1c22 a0be
00000170: ee77 f4be cf32 3d3e 9f91 c7be 3daa 23bc
00000180: b338 fc3d e686 e2bd ef5c b3bd cd05 1bbe
00000190: b9ab 37be 3e16 92bb aed8 1fbe 2087 763d
000001a0: 69b9 a5bd 367f bcbe bdeb 18be c4e0 733c
000001b0: 115e 1cbe dd39 0bbf 71ac c53e 25d2 67be
000001c0: 4b33 19be dc53 163d 1c7e 8bbd dc62 223e
000001d0: 9629 a73e f48b b4be 9994 923e f4ec a0be

sequential.2.bn.running_mean f4 [120]
0.0 0.0 0.0 0.0 0.0 0.0 0.0 0.0
0.0 0.0 0.0 0.0 0.0 0.0 0.0 0.0
0.0 0.0 0.0 0.0 0.0 0.0 0.0 0.0
0.0 0.0 0.0 0.0 0.0 0.0 0.0 0.0
0.0 0.0 0.0 0.0 0.0 0.0 0.0 0.0
0.0 0.0 0.0 0.0 0.0 0.0 0.0 0.0
0.0 0.0 0.0 0.0 0.0 0.0 0.0 0.0
0.0 0.0 0.0 0.0 0.0 0.0 0.0 0.0
0.0 0.0 0.0 0.0 0.0 0.0 0.0 0.0
0.0 0.0 0.0 0.0 0.0 0.0 0.0 0.0
0.0 0.0 0.0 0.0 0.0 0.0 0.0 0.0
0.0 0.0 0.0 0.0 0.0 0.0 0.0 0.0
0.0 0.0 0.0 0.0 0.0 0.0 0.0 0.0
0.0 0.0 0.0 0.0 0.0 0.0 0.0 0.0
0.0 0.0 0.0 0.0 0.0 0.0 0.0 0.0
00000000: 0000 0000 0000 0000 0000 0000 0000 0000
00000010: 0000 0000 0000 0000 0000 0000 0000 0000
00000020: 0000 0000 0000 0000 0000 0000 0000 0000
00000030: 0000 0000 0000 0000 0000 0000 0000 0000
00000040: 0000 0000 0000 0000 0000 0000 0000 0000
00000050: 0000 0000 0000 0000 0000 0000 0000 0000
00000060: 0000 0000 0000 0000 0000 0000 0000 0000
00000070: 0000 0000 0000 0000 0000 0000 0000 0000
00000080: 0000 0000 0000 0000 0000 0000 0000 0000
00000090: 0000 0000 0000 0000 0000 0000 0000 0000
000000a0: 0000 0000 0000 0000 0000 0000 0000 0000
000000b0: 0000 0000 0000 0000 0000 0000 0000 0000
000000c0: 0000 0000 0000 0000 0000 0000 0000 0000
000000d0: 0000 0000 0000 0000 0000 0000 0000 0000
000000e0: 0000 0000 0000 0000 0000 0000 0000 0000
000000f0: 0000 0000 0000 0000 0000 0000 0000 0000
00000100: 0000 0000 0000 0000 0000 0000 0000 0000
00000110: 0000 0000 0000 0000 0000 0000 0000 0000
00000120: 0000 0000 0000 0000 0000 0000 0000 0000
00000130: 0000 0000 0000 0000 0000 0000 0000 0000
00000140: 0000 0000 0000 0000 0000 0000 0000 0000
00000150: 0000 0000 0000 0000 0000 0000 0000 0000
00000160: 0000 0000 0000 0000 0000 0000 0000 0000
00000170: 0000 0000 0000 0000 0000 0000 0000 0000
00000180: 0000 0000 0000 0000 0000 0000 0000 0000
00000190: 0000 0000 0000 0000 0000 0000 0000 0000
000001a0: 0000 0000 0000 0000 0000 0000 0000 0000
000001b0: 0000 0000 0000 0000 0000 0000 0000 0000
000001c0: 0000 0000 0000 0000 0000 0000 0000 0000
000001d0: 0000 0000 0000 0000 0000 0000 0000 0000

sequential.2.bn.running_var f4 [120]
1.0 1.0 1.0 1.0 1.0 1.0 1.0 1.0
1.0 1.0 1.0 1.0 1.0 1.0 1.0 1.0
1.0 1.0 1.0 1.0 1.0 1.0 1.0 1.0
1.0 1.0 1.0 1.0 1.0 1.0 1.0 1.0
1.0 1.0 1.0 1.0 1.0 1.0 1.0 1.0
1.0 1.0 1.0 1.0 1.0 1.0 1.0 1.0
1.0 1.0 1.0 1.0 1.0 1.0 1.0 1.0
1.0 1.0 1.0 1.0 1.0 1.0 1.0 1.0
1.0 1.0 1.0 1.0 1.0 1.0 1.0 1.0
1.0 1.0 1.0 1.0 1.0 1.0 1.0 1.0
1.0 1.0 1.0 1.0 1.0 1.0 1.0 1.0
1.0 1.0 1.0 1.0 1.0 1.0 1.0 1.0
1.0 1.0 1.0 1.0 1.0 1.0 1.0 1.0
1.0 1.0 1.0 1.0 1.0 1.0 1.0 1.0
1.0 1.0 1.0 1.0 1.0 1.0 1.0 1.0
00000000: 0000 803f 0000 803f 0000 803f 0000 803f
00000010: 0000 803f 0000 803f 0000 803f 0000 803f
00000020: 0000 803f 0000 803f 0000 803f 0000 803f
00000030: 0000 803f 0000 803f 0000 803f 0000 803f
00000040: 0000 803f 0000 803f 0000 803f 0000 803f
00000050: 0000 803f 0000 803f 0000 803f 0000 803f
00000060: 0000 803f 0000 803f 0000 803f 0000 803f
00000070: 0000 803f 0000 803f 0000 803f 0000 803f
00000080: 0000 803f 0000 803f 0000 803f 0000 803f
00000090: 0000 803f 0000 803f 0000 803f 0000 803f
000000a0: 0000 803f 0000 803f 0000 803f 0000 803f
000000b0: 0000 803f 0000 803f 0000 803f 0000 803f
000000c0: 0000 803f 0000 803f 0000 803f 0000 803f
000000d0: 0000 803f 0000 803f 0000 803f 0000 803f
000000e0: 0000 803f 0000 803f 0000 803f 0000 803f
000000f0: 0000 803f 0000 803f 0000 803f 0000 803f
00000100: 0000 803f 0000 803f 0000 803f 0000 803f
00000110: 0000 803f 0000 803f 0000 803f 0000 803f
00000120: 0000 803f 0000 803f 0000 803f 0000 803f
00000130: 0000 803f 0000 803f 0000 803f 0000 803f
00000140: 0000 803f 0000 803f 0000 803f 0000 803f
00000150: 0000 803f 0000 803f 0000 803f 0000 803f
00000160: 0000 803f 0000 803f 0000 803f 0000 803f
00000170: 0000 803f 0000 803f 0000 803f 0000 803f
00000180: 0000 803f 0000 803f 0000 803f 0000 803f
00000190: 0000 803f 0000 803f 0000 803f 0000 803f
000001a0: 0000 803f 0000 803f 0000 803f 0000 803f
000001b0: 0000 803f 0000 803f 0000 803f 0000 803f
000001c0: 0000 803f 0000 803f 0000 803f 0000 803f
000001d0: 0000 803f 0000 803f 0000 803f 0000 803f

sequential.4.Gamma.weight f4 [70, 120]
0.027232463 -0.3337891 -0.14353529 -0.059923235 -0.377978 -0.650899 -0.013790545 0.02124545
0.2810712 -0.684062 0.20702402 -0.22277962 -0.47379947 -0.3371745 -0.17239003 -0.3464273
-0.27724892 -0.046871647 0.1516365 0.22976862 -0.41779053 -0.12147853 -0.025089335 0.22823489
-0.34779358 -0.26746708 -0.38530213 0.024859082 0.43811882 -0.07347641 -0.11726326 -0.20441924
-0.057449505 0.026322119 -0.8273261 -0.11865555 -0.5002347 -0.12784266 0.28634945 0.054131836
-0.5894653 -0.041999713 -0.24815027 -0.40627685 -0.102108695 -0.33095106 -0.11220516 -0.17727455
-0.21129067 0.012831272 0.051152024 -0.183239 0.18027976 -0.49181065 -0.1448352 -0.0348469
-0.12797104 0.3246853 -0.21312155 0.004555323 -0.19500111 -0.22982934 -0.045875683 -0.3033254
0.032944795 -0.11625973 0.26916632 -0.36637545 -0.37548533 0.14395736 0.14711986 0.118101865
-0.32405847 0.03293192 0.036558535 0.021213239 0.014276395 -0.23687884 0.16633008 -0.65280706
-0.08976987 0.04694231 -0.17172247 -0.33551833 0.18823726 0.0022171666 0.026182115 -0.045807526
-0.15060362 -1.0159624 0.41901806 0.15088788 -0.40424103 -0.20444714 -0.22521026 -0.25870445
-0.32183293 -0.41302228 -0.48496172 0.21414815 -0.25421712 0.06847013 0.57754886 0.38884172
-0.10384831 -0.074305944 -0.30178612 -0.53580046 0.06097798 0.048372585 0.12266291 0.11149333
0.008481376 -0.38899246 -0.3931091 -0.096871614 -0.17719278 -0.03347423 0.13143523 -0.24366827
0.18355191 0.020877123 -0.20625862 -0.40274495 -0.39353457 -0.063042454 -0.24997383 0.3321736
-0.2981474 -0.20523858 -0.0861169 -0.45954633 -0.07333201 0.21021728 -0.18069774 -0.019695736
0.050153747 -0.57153386 -0.32387352 0.060046382 -0.6307694 -0.18887067 -0.36080366 -0.25031972
-0.4432309 -0.07039299 -0.37099904 -0.05688479 -0.31342435 0.45729575 0.29347065 0.05820856
-0.19780785 -0.6862508 -0.22891341 -0.20719406 -0.26012087 0.1567974 0.3847318 0.10048591
-0.2912163 -0.4526424 0.07369539 -0.24404454 0.09759765 0.09673233 0.6486803 -1.0569361
-0.14719394 -0.17022946 -0.37671772 -0.07276253 0.23027703 0.2924617 -0.70356953 -0.13060525
-0.8140615 0.3233287 0.0288194 -0.13478704 0.18045406 -0.29900318 -0.16825536 -0.046084367
0.17699407 -0.39691803 -0.8542409 0.21666689 -0.02188297 -0.83466125 0.3196176 -0.5332051
-0.59586877 -0.17360944 -0.33409178 0.25013357 -0.59604377 0.03702519 0.17322856 -0.059055828
-0.7112015 -0.49182004 -0.51437986 0.17903377 -0.6299517 -0.42732292 -0.49656817 0.36924553
-0.17178701 -0.22899939 -0.4590785 -0.57678825 -0.34700987 -0.28811315 0.093379006 0.028682984
0.053163372 -0.19838424 0.18573911 -0.8031993 -0.36775118 -0.03190606 -0.5499937 0.34971932
-0.100320876 -0.63645685 -0.07491153 -0.029617734 -0.6611567 0.4839613 -0.21083152 -0.38784626
0.3300539 -0.81119025 -0.45895964 -0.90302765 -0.5245184 -0.20753247 -0.271131 0.4255845
-0.064893246 -0.0043391082 0.12909964 0.4700063 0.5243525 -1.1379037 0.053299222 0.19488478
-0.38901636 -0.5532242 0.12755573 -0.2291368 -0.030538244 0.22173631 -0.18116659 -4.1578653e-05
00000000: 9d16 df3c 68e6 aabe eafa 12be 1172 75bd
00000010: 5586 c1be 51a1 26bf bdf1 61bc f00a ae3c
00000020: 90e8 8f3e b01e 2fbf 1bfe 533e 5720 64be
00000030: d895 f2be 23a2 acbe 0387 30be eb5e b1be
00000040: 92f3 8dbe 7cfc 3fbd 9946 1b3e 7748 6b3e
00000050: a4e8 d5be bcc9 f8bd 2688 cdbc 68b6 693e
00000060: 0012 b2be 72f1 88be 5246 c5be 46a5 cb3c
00000070: 1c51 e03e cd7a 96bd b827 f0bd 4753 51be
00000080: 2c50 6bbd 7ca1 d73c a5cb 53bf ae01 f3bd
00000090: 620f 00bf 30e9 02be 659c 923e 58b9 5d3d
000000a0: 33e7 16bf e407 2cbd 1b1b 7ebe 8503 d0be
000000b0: 5d1e d1bd 6b72 a9be d2cb e5bd 7687 35be
000000c0: 955c 58be 413a 523c c984 513d 01a3 3bbe
000000d0: 429b 383e 9bce fbbe ae4f 14be 9fbb 0ebd
000000e0: d70a 03be 273d a63e 893c 5abe d244 953b
000000f0: 5fae 47be 6258 6bbe 24e8 3bbd 784d 9bbe
00000100: 1ff1 063d 9519 eebd 2bd0 893e 9095 bbbe
00000110: 9d3f c0be 8f69 133e 97a6 163e 64df f13d
00000120: feea a5be 9fe3 063d 67be 153d 63c7 ad3c
00000130: 8ae7 693c 5e90 72be 6f52 2a3e 5d1e 27bf
00000140: 44d9 b7bd 9446 403d 04d8 2fbe 0fc9 abbe
00000150: 45c1 403e e24d 113b e07b d63c aca0 3bbd
00000160: d637 1abe 0e0b 82bf 8989 d63e 5a82 1a3e
00000170: aef8 cebe 975a 51be 859d 66be e974 84be
00000180: 49c7 a4be a877 d3be e74c f8be a749 5b3e
00000190: bf28 82be 113a 8c3d 3eda 133f 4316 c73e
000001a0: 6cae d4bd b72d 98bd b683 9abe 382a 09bf
000001b0: 0cc4 793d 5522 463d b136 fb3d 9d56 e43d
000001c0: 78f5 0a3c 052a c7be 9945 c9be a064 c6bd
000001d0: 0672 35be 461c 09bd f596 063e 2d84 79be
000001e0: 08f5 3b3e 8006 ab3c 7635 53be 9634 cebe
000001f0: 5d7d c9be 671c 81bd 24f9 7fbe a812 aa3e
00000200: c7a6 98be 102a 52be 0f5e b0bd a849 ebbe
00000210: 182f 96bd 3343 573e d408 39be f458 a1bc
00000220: 046e 4d3d 0b50 12bf c0d2 a5be 32f3 753d
00000230: 1a7a 21bf 5067 41be 42bb b8be e829 80be
00000240: 29ef e2be 332a 90bd 96f3 bdbe 0700 69bd
00000250: 2879 a0be ab22 ea3e c941 963e 196c 6e3d
00000260: 248e 4abe 22ae 2fbf 4768 6abe ae2a 54be
00000270: 902e 85be 7f8f 203e 91fb c43e 8fcb cd3d
00000280: 4e1a 95be bfc0 e7be 9ced 963d d0e6 79be
00000290: 47e1 c73d 9a1b c63d ea0f 263f af49 87bf
000002a0: 02ba 16be a250 2ebe 25e1 c0be 8504 95bd
000002b0: becd 6b3e 8abd 953e 221d 34bf 62bd 05be
000002c0: 5666 50bf 578b a53e aa16 ec3c 9d05 0abe
000002d0: f3c8 383e f216 99be 224b 2cbe f6c2 3cbd
000002e0: ef3d 353e d738 cbbe 88af 5abf eddd 5d3e
000002f0: ea43 b3bc 5cac 55bf eba4 a33e 2180 08bf
00000300: db8a 18bf acc6 31be 140e abbe 8211 803e
00000310: 5396 18bf baa7 173d d462 313e 86e4 71bd
00000320: 4d11 36bf d6cf fbbe 66ae 03bf a154 373e
00000330: 8444 21bf 12ca dabe 2f3e febe c00d bd3e
00000340: efe8 2fbe d17e 6abe 560c ebbe 65a8 13bf
00000350: 47ab b1be 9183 93be 7e3d bf3d 94f8 ea3c
00000360: d6c1 593d 3d25 4bbe 6532 3e3e 789e 4dbf
00000370: e249 bcbe eeaf 02bd 63cc 0cbf 690e b33e
00000380: 0875 cdbd d6ee 22bf 376b 99bd e4a0 f2bc
00000390: 9141 29bf c7c9 f73e 38e4 57be c993 c6be
000003a0: d3fc a83e 2aaa 4fbf c2fc eabe d22c 67bf
000003b0: d646 06bf 6483 54be afd1 8abe 36e6 d93e
000003c0: c0e6 84bd 142f 8ebb b232 043e aaa4 f03e
000003d0: f73b 063f d4a6 91bf 4950 5a3d e08f 473e
000003e0: 272d c7be 1aa0 0dbf f89d 023e d6a2 6abe
000003f0: 572b fabc d80e 633e bc83 39be bd64 2eb8

sequential.4.Gamma.bias f4 [70]
0.06714721 -0.36589715 -0.31435665 0.12946686 -0.46943545 0.19422157 -0.6145738 -0.5462427
-0.37183174 -0.39023393 -0.64411306 -0.20823312 0.22028339 -0.4080753 -0.06840951 -0.57339025
0.23999329 -0.13328812 -0.23579103 -0.07656376 0.10071873 0.39954117 0.33466706 -0.7779714
-0.43377662 0.50877494 -0.9726093 -0.46398127 -0.66983145 -0.6512551 -0.13669322 -0.060929272
-0.24293406 -0.20435639 -0.1750371 -0.559147 -0.22099519 -0.06861801 -0.36512452 -0.394616
-0.57153183 -0.40216517 0.017616909 0.037795927 -0.40849656 -0.3314439 -0.009469327 -0.18482694
-0.42587548 -0.45792937 -0.19871257 -0.09480715 -0.15686066 -0.849842 -0.39511907 -0.7289779
-0.31341094 -0.043417905 -0.38656682 -0.45496783 -0.17183937 -0.20921727 -0.3124109 -0.24667771
0.03004349 0.11234303 0.16654392 0.004629704 0.124772385 -0.24608053
00000000: 7a84 893d df56 bbbe 5bf3 a0be f692 043e
00000010: d859 f0be 05e2 463e b554 1dbf 90d6 0bbf
00000020: bb60 bebe becc c7be 98e4 24bf 103b 55be
00000030: f891 613e 3fef d0be 491a 8cbd b4c9 12bf
00000040: cdc0 753e ae7c 08be 3473 71be 76cd 9cbd
00000050: 9f45 ce3d a990 cc3e 7b59 ab3e 2229 47bf
00000060: f817 debe 133f 023f ecfc 78bf f48e edbe
00000070: 137a 2bbf a7b8 26bf 4ff9 0bbe f990 79bd
00000080: b5c3 78be cd42 51be ed3c 33be 4224 0fbf
00000090: 904c 62be 9987 8cbd 9af1 babe 1c0b cabe
000000a0: e94f 12bf 98e8 cdbe 5651 903c e7cf 1a3d
000000b0: 7626 d1be 04b3 a9be 3c25 1bbc 4643 3dbe
000000c0: 5a0c dabe b875 eabe 4f7b 4bbe 402a c2bd
000000d0: 15a0 20be 3f8f 59bf 0c4d cabe 4c9e 3abf
000000e0: 6677 a0be f9d6 31bd 16ec c5be 8bf1 e8be
000000f0: a9f6 2fbe 0d3d 56be 52f4 9fbe 1599 7cbe
00000100: c41d f63c 1a14 e63d 7d8a 2a3e c6b4 973b
00000110: aa88 ff3d 89fc 7bbe
